results/HikuruHasABrother/Hikaru/Hikaru-92998.onnx (onnx, 219188 bytes, 6 tensors)

action_model._discrete_distribution.branches.0.bias f4 [675]
0	0xbc6735f0	-0.014111981
1	0xbd916c94	-0.07100788
2	0x3d736c1a	0.059429266
3	0x3ca0b65c	0.019618206
4	0x3dc60f6c	0.0967091
5	0x3d89059c	0.06690523
6	0x3d034b5f	0.0320543
7	0xbd1dcf26	-0.03852763
8	0x3d2e5a51	0.0425666
9	0xbbf74606	-0.0075461892
10	0x3d8b2371	0.06793869
11	0x3d3c2f10	0.04594332
12	0xbc781329	-0.015141287
13	0x3d0f98ee	0.035057954
14	0xbc581af9	-0.0131900245
15	0x3d695674	0.056967214
16	0x3c8a308e	0.016868856
17	0x3b8deb02	0.0043309936
18	0xbbd7eba8	-0.0065893717
19	0x3cb2aeb1	0.021811815
20	0xbd75fbf0	-0.06005472
21	0xbc69dee1	-0.01427433
22	0x3bf418d8	0.0074492507
23	0x3d7483f8	0.059696168
24	0x38d65bc6	0.00010221409
25	0x3cc7925b	0.02436178
26	0x3d2ee246	0.04269626
27	0xbc8bcd6b	-0.017065724
28	0xbcf36446	-0.0297109
29	0x3d0ee6b3	0.03488798
30	0xbd4e8e46	-0.05042865
31	0x3c41e3fd	0.011834142
32	0x3d8459e9	0.064624615
33	0x3d99602d	0.07489047
34	0x3d6febf4	0.05857463
35	0x3cf8f6c0	0.030391097
36	0xbca81f74	-0.02052281
37	0x3cd81d04	0.026381023
38	0xbc4aee21	-0.012385876
39	0x3cb79614	0.02241043
40	0x3b87ee56	0.004148285
41	0x3d3a645c	0.045505866
42	0xbc1a0b8b	-0.009402166
43	0x3c526ea3	0.012843761
44	0xbcc56e58	-0.024100468
45	0xbc499146	-0.012302702
46	0x3c27bef1	0.010238395
47	0x3d601caa	0.054714836
48	0x3be64aee	0.0070279753
49	0xbc9046f3	-0.017611956
50	0x3d06627a	0.03280876
51	0x3bf50ffd	0.0074787126
52	0xbd362921	-0.044472817
53	0xbce91a8c	-0.028455041
54	0x3d2a0a5b	0.041513782
55	0x3d6beb37	0.057597365
56	0xbbc06429	-0.005871315
57	0x3b92cdfb	0.004480121
58	0x3c9df31e	0.019280966
59	0x3ce9885d	0.028507406
60	0xbbfb2772	-0.0076646144
61	0xbca49665	-0.020091245
62	0xbc718eb1	-0.014743493
63	0x3d840312	0.06445898
64	0xbc6d3ce6	-0.014479851
65	0x3d44e1b0	0.048066795
66	0x3d7e2b06	0.06205275
67	0x3d7fff3c	0.06249927
68	0x3dac57aa	0.08415158
69	0x3b5a82bd	0.0033342086
70	0x3d0558ef	0.032555517
71	0x3d3eb38d	0.04655795
72	0xbc117379	-0.0088776285
73	0xbca8e8db	-0.020618847
74	0x3b65c32f	0.0035058965
75	0x3d7a10f3	0.06105132
76	0xbcd11ddc	-0.025526933
77	0x3cee4398	0.029084966
78	0x3d588f58	0.05287108
79	0x3c5e6ae4	0.013575289
80	0xbc559925	-0.013037001
81	0x3da31413	0.07962813
82	0x3c6e6db9	0.014552527
83	0x3d16ba14	0.03679855
84	0xbc4d9390	-0.012547389
85	0x3c9e7c9e	0.019346531
86	0x3aea7616	0.0017887976
87	0xbba0c65c	-0.004906459
88	0x3d45d93f	0.048302885
89	0x3bd4da6b	0.006495764
90	0x3c9f2e9d	0.019431407
91	0x3d924406	0.07141881
92	0x3b6adc6c	0.0035836948
93	0x3c60cab5	0.013720204
94	0x3b56b9ad	0.003276448
95	0xbc2133bd	-0.0098389955
96	0xbcffb619	-0.03121476
97	0x3d895a39	0.06706662
98	0xbd199926	-0.03749957
99	0xbd292659	-0.041296337
100	0xbbc0c5de	-0.0058829626
101	0x3c2ae9c8	0.010431714
102	0x3d0c1c5a	0.034206726
103	0x3ce69028	0.028144911
104	0x3d117095	0.035507757
105	0xbccae59c	-0.02476769
106	0x3cb12192	0.021622453
107	0x3c8a7e2b	0.016905865
108	0x3d5e6c57	0.05430254
109	0x3cbf3e85	0.023345241
110	0xbb2c29c7	-0.0026270018
111	0xbc2894b4	-0.01028936
112	0x396d831e	0.00022650926
113	0x3cd52e07	0.026022924
114	0x3d816588	0.06318194
115	0xbb8e6e3a	-0.004346636
116	0x3c8a83c2	0.01690853
117	0x3bfdccda	0.0077453675
118	0x3d4a1cd5	0.049343903
119	0x3dbdb7df	0.09263586
120	0xbcacb96b	-0.021084508
121	0xbcee1d5e	-0.029066738
122	0xbc5a11d5	-0.013309916
123	0xbd68e569	-0.056859408
124	0x3d1fbb5d	0.038997043
125	0xbc6af45c	-0.014340486
126	0xbcbfd735	-0.023418048
127	0x3c9965f4	0.018725373
128	0xbb97c34f	-0.004631437
129	0xbc5b8f7e	-0.01340091
130	0xbd162a1c	-0.036661252
131	0x3cfbbfef	0.03073117
132	0xbc8da30f	-0.017289666
133	0x3d2651ac	0.040605232
134	0xbc54f9b4	-0.012998987
135	0x3cf534f9	0.029932486
136	0x3d4bde06	0.049772285
137	0x3d1ede61	0.038786296
138	0xba5c8904	-0.0008412751
139	0x3ddd4fba	0.10806222
140	0x3d5fc069	0.054626856
141	0x3d31d4a9	0.0434157
142	0x3aad3abb	0.0013216356
143	0x3c76004f	0.015014722
144	0x3d4afd2a	0.049557842
145	0xbd0d2425	-0.0344583
146	0x3c60ad69	0.013713219
147	0xbcdd76c8	-0.027034178
148	0x3c26ce33	0.010180998
149	0x3de60fba	0.11233468
150	0xbcb3ec70	-0.021963328
151	0xbb6c88a2	-0.0036092182
152	0x3bd19dd1	0.006396987
153	0x3d164e52	0.036695786
154	0x3cbbf987	0.022946132
155	0x3d3a95da	0.045553066
156	0x3d22cdfb	0.03974722
157	0xbc7f86f0	-0.015596136
158	0x3c8f5e95	0.017501155
159	0x3b1610dc	0.0022898233
160	0x3b1fd406	0.002438785
161	0x3d17d6e6	0.037070177
162	0xbc29b560	-0.010358185
163	0x3c9089f9	0.017643915
164	0x3c704ee2	0.014667245
165	0x3d279f1f	0.040923234
166	0xbcc3e9be	-0.023915168
167	0xbc7792ec	-0.0151107125
168	0x3dbd9798	0.0925743
169	0x3a3df1a1	0.00072457833
170	0x3cacde4d	0.021102095
171	0x3cddbaf9	0.027066695
172	0x3c1ea133	0.009681988
173	0xbd153f17	-0.03643712
174	0x3c02f0fc	0.007992025
175	0x3bcc1263	0.006227778
176	0xbb51aa69	-0.0031992442
177	0xbce86dba	-0.028372634
178	0x3cc1d53d	0.02366125
179	0xbd200f98	-0.03907737
180	0x3dbe1c84	0.09282783
181	0xbbdf4b09	-0.006814365
182	0x3cd05246	0.025429856
183	0x3d81a139	0.06329579
184	0x3d156f2f	0.036482986
185	0xbc1d2f5c	-0.009593811
186	0x3baf9413	0.005358228
187	0xbc9c8d15	-0.019110242
188	0xbcbc49e4	-0.022984453
189	0xbca885c7	-0.020571603
190	0x3bb0ea25	0.005399006
191	0x3d7b4774	0.06134744
192	0xbd680913	-0.05664928
193	0x3cd89ef0	0.026442975
194	0xbc37fdcf	-0.011229946
195	0xbb9ca207	-0.0047800574
196	0xbc3e87a8	-0.011629023
197	0x3d826504	0.063669235
198	0x3b0b943c	0.0021298071
199	0xbbad710c	-0.0052930173
200	0x3ce78a01	0.028264048
201	0x3da0082c	0.07814059
202	0x3cfeed24	0.031118937
203	0xbce414fb	-0.027842036
204	0x3c4e944b	0.012608598
205	0xb940c9f9	-0.00018385788
206	0x3cbe78f5	0.023251036
207	0xbc03080e	-0.007997526
208	0xbb91a46b	-0.004444649
209	0xbd08dfea	-0.033416666
210	0x3d7b8a73	0.061411332
211	0x3c06f23c	0.008236464
212	0x3d13e58d	0.03610759
213	0x3caeb1a2	0.021324936
214	0xba34922b	-0.0006888236
215	0xbd05820d	-0.03259473
216	0x3dbae7fa	0.09126277
217	0xbd955e9e	-0.072934374
218	0x3c4a61dc	0.012352433
219	0xbd83a976	-0.064288065
220	0x3d3058f4	0.043053582
221	0x3c83eb2e	0.016103353
222	0x3cd56396	0.026048463
223	0xbd02a548	-0.031895906
224	0x3d886965	0.066607274
225	0xbcbc431c	-0.022981219
226	0x3de2d59a	0.110758975
227	0x3aa4e0dc	0.001257922
228	0x3d8728fd	0.06599615
229	0x3d936d89	0.071986265
230	0x3c90213d	0.017593974
231	0x3c63b4df	0.0138981035
232	0xbd17dc12	-0.03707511
233	0x3d8272be	0.063695416
234	0x3b36ce45	0.0027893942
235	0x3cafb632	0.021449182
236	0x3d36dc8b	0.04464392
237	0xbc4d584a	-0.012533257
238	0xbda86627	-0.08222609
239	0x3cce3005	0.025169382
240	0xbc8dd4de	-0.017313417
241	0xbcb98060	-0.022644222
242	0x3c211f46	0.009834116
243	0x3ce2c2ff	0.027680872
244	0x3b311061	0.002701782
245	0xbd04f225	-0.03245749
246	0x3d766b19	0.06016073
247	0x3d3f494a	0.046700753
248	0xbd4e8824	-0.050422803
249	0x3ca3d60e	0.01999953
250	0xbd5fddd5	-0.054654915
251	0x3c2f189b	0.010687019
252	0xbc7d916f	-0.015476569
253	0x3d3dbe88	0.046324283
254	0x3d6ffc22	0.058590062
255	0xbc43c000	-0.011947632

action_model._discrete_distribution.branches.0.weight f4 [675, 64]
0	0x3c04844a	0.008088181
1	0xbd8cb96b	-0.06871303
2	0xbcb1276c	-0.021625243
3	0xbd02acf1	-0.03190321
4	0x3b3ed67b	0.002911954
5	0x3dcf2f1d	0.10116408
6	0x3cccce65	0.02500076
7	0x3d2440fc	0.040101036
8	0xbd6dc4ef	-0.05804914
9	0x3a9e57ec	0.0012080646
10	0xbd1f2bdc	-0.038860187
11	0xbda76e03	-0.0817528
12	0xbd22c840	-0.039741755
13	0xbe03aac0	-0.12858105
14	0x3be6fe73	0.0070493757
15	0xbd2959ef	-0.041345533
16	0xbc6c1586	-0.014409428
17	0xbd16ac99	-0.036785696
18	0x3dc1e03d	0.09466598
19	0xbb451fff	-0.0030078886
20	0xbd737910	-0.059441626
21	0xbe4e2efb	-0.20135109
22	0xbbddc0fd	-0.0067673908
23	0xbca2831b	-0.019837907
24	0x3cc80037	0.024414165
25	0xbcaa49c9	-0.020787137
26	0x3a5b2068	0.0008359016
27	0x3d155c5a	0.036465026
28	0x3c88db41	0.01670611
29	0x3da13ea6	0.07873277
30	0x3e99a3ac	0.30007684
31	0x3d85831a	0.06519146
32	0x3d9fbd0e	0.07799731
33	0xbca1c788	-0.019748464
34	0x3d4af337	0.049548354
35	0xbca27ff8	-0.01983641
36	0x3d6da1c9	0.05801562
37	0xbd8f512d	-0.06997905
38	0x3cca6764	0.024707504
39	0x3a341477	0.00068695046
40	0x3c9601c8	0.018311396
41	0x3d4d606c	0.050140783
42	0x3e1aee75	0.15130027
43	0x3ddc6467	0.10761338
44	0x3c2ebb96	0.010664841
45	0x3ce94465	0.028474996
46	0x3d035966	0.03206768
47	0xbc914f58	-0.01773803
48	0x3dcd3f07	0.10021787
49	0x3cd485ab	0.025942644
50	0xbc4f26d5	-0.012643536
51	0x3d28015e	0.04101693
52	0xbdb3f81c	-0.087875575
53	0xbce7a39f	-0.028276263
54	0xbd4607ca	-0.048347272
55	0xbba824bf	-0.0051313336
56	0x3d473d44	0.04864241
57	0x3de06f32	0.10958709
58	0x3cf55ea9	0.029952364
59	0x3d0bfaa2	0.03417457
60	0x3d8dbb87	0.069205336
61	0xbdde5d09	-0.10857589
62	0xbc118c0d	-0.008883488
63	0x3d893c81	0.06700993
64	0xbd00afe2	-0.031417735
65	0xbd241d7a	-0.040067174
66	0x3bbba3f7	0.0057263332
67	0xbd485141	-0.048905615
68	0xbd3a63a0	-0.045505166
69	0x3d790916	0.06079968
70	0x3d8a015a	0.06738539
71	0x3c957cfe	0.018248077
72	0x3d9d9fdd	0.07696507
73	0xbd03ef45	-0.032210607
74	0xbd219534	-0.03944893
75	0xbda2a970	-0.07942474
76	0x3d19658d	0.037450362
77	0xbd023c3c	-0.031795725
78	0xbc1d7942	-0.00961143
79	0x3ce4864b	0.027896067
80	0xbda43d0f	-0.080194585
81	0x3bcdf41c	0.0062852036
82	0x3c24b1d0	0.010052159
83	0xbc300075	-0.010742296
84	0xbc8bee1f	-0.017081318
85	0xbcde4007	-0.02713014
86	0xbd3c0b72	-0.045909353
87	0xbcccfe39	-0.025023567
88	0xbd105329	-0.035235558
89	0xbcef6913	-0.029224908
90	0x3cdd6e84	0.027030237
91	0xbd151a0e	-0.0364018
92	0xbc2227ba	-0.009897167
93	0x3cc48792	0.023990426
94	0x3dab2377	0.08356374
95	0x3d9c1a0b	0.07622155
96	0x3d26e208	0.040742904
97	0xbc0635e1	-0.008191557
98	0x3d05bf51	0.032653157
99	0x3ae50eba	0.0017475702
100	0xbd08a9c4	-0.033365026
101	0x3d097b31	0.03356475
102	0xbd24b8dd	-0.040215362
103	0x3d150627	0.03638282
104	0xbc2e0086	-0.010620242
105	0xbd8f95a8	-0.070109665
106	0x3c2caa26	0.010538613
107	0xbd01e326	-0.031710766
108	0xbdc692a0	-0.09695935
109	0xbc3de707	-0.011590726
110	0xbd999c75	-0.07500545
111	0xbcf8edc5	-0.030386815
112	0x3cf19019	0.029487656
113	0xbd29725b	-0.041368823
114	0x3d1717cb	0.036887925
115	0xbd5a1e7f	-0.05325174
116	0x3d3fe223	0.04684652
117	0xbd90afda	-0.07064791
118	0xbd033df2	-0.032041498
119	0x3b8d0ce1	0.004304514
120	0xbd52debf	-0.05148196
121	0x3d6466ed	0.05576222
122	0x3ba9c9ce	0.0051815277
123	0x3c819734	0.01581917
124	0xbdae453d	-0.085093
125	0x3d0a77f1	0.03380579
126	0x3c6248e9	0.013811328
127	0x3d997e1a	0.07494755
128	0x3c0981ac	0.008392733
129	0x3c26032a	0.01013259
130	0xbcbd7ed5	-0.023131767
131	0xb98b02f1	-0.00026514338
132	0xbcab7f00	-0.020934582
133	0x3d1603b5	0.03662463
134	0x3a8e9301	0.0010877551
135	0x3d5a05ac	0.053228065
136	0x3d831527	0.06400519
137	0xbd08e7c3	-0.03342415
138	0x3d520e5e	0.051283233
139	0x3c6f85eb	0.014619331
140	0xbc8d93df	-0.017282424
141	0x3d5a8578	0.053349942
142	0x3e03d5b1	0.12874486
143	0x3bd3cb2a	0.006463428
144	0x3d38b4b2	0.0450942
145	0x3c7dd989	0.015493759
146	0xbe299452	-0.16560486
147	0xbccbccce	-0.024877932
148	0x3d5f7129	0.054551277
149	0xbd09bc3c	-0.03362678
150	0x3d13a198	0.03604278
151	0xbcf6c22e	-0.030121889
152	0x3d83d249	0.06436593
153	0x3df07acc	0.11742172
154	0x3db84304	0.08997157
155	0x3bc12f38	0.0058955215
156	0xbd58a8fe	-0.05289554
157	0x3d9b21d3	0.07574811
158	0xbd890bb0	-0.06691682
159	0x3db43316	0.08798806
160	0xbd18a6ec	-0.037268564
161	0xbcaff0a4	-0.021477051
162	0xbd0bd3d1	-0.03413755
163	0x3e1a1abe	0.15049264
164	0xbd12bdbd	-0.03582548
165	0xbceb0fa7	-0.028693987
166	0xbd0cf5c3	-0.034414064
167	0xbd223001	-0.03959656
168	0xbd2cf3e7	-0.04222479
169	0x3da54350	0.080694795
170	0x3e57cc1c	0.21073955
171	0xbce00701	-0.02734709
172	0x3d714d75	0.05891176
173	0xbdb09ef6	-0.086240694
174	0x3d18f15d	0.037339557
175	0x3d8045bd	0.062633015
176	0x3d5c9af8	0.053858727
177	0x3c9af211	0.018914254
178	0x3d8a6467	0.067574315
179	0x3d2ac8d9	0.04169545
180	0xbd89406d	-0.06701741
181	0x3ce2e2e9	0.02769609
182	0x3dce193d	0.100634076
183	0xbc14b8a4	-0.009077225
184	0xbc5b4b1e	-0.013384609
185	0xbd04c475	-0.03241392
186	0x3ca76596	0.020434182
187	0xbc9e2d4b	-0.019308707
188	0x3db0a7e9	0.08625776
189	0x3d7e94a3	0.06215347
190	0xbd3240e4	-0.043518916
191	0xbd51f5b4	-0.05125971
192	0xbcb96706	-0.022632133
193	0x3a73c870	0.0009299582
194	0xb9a13ebe	-0.0003075506
195	0xbbebde1a	-0.0071981074
196	0x3d0c20d7	0.034211006
197	0xbdb55d0e	-0.088556394
198	0xbd9b3129	-0.07577736
199	0x3c1192c9	0.008885094
200	0x3d05df2c	0.032683536
201	0xbc7070a7	-0.014675296
202	0xbd51d29e	-0.05122625
203	0x3d8a56cc	0.067548364
204	0xb9fa89f2	-0.00047786493
205	0xbcdb8023	-0.026794499
206	0x3dde631e	0.10858749
207	0xbdb364e8	-0.08759481
208	0x3d2f306d	0.04277079
209	0x3c1a03d5	0.009400328
210	0xbd79e6ec	-0.06101124
211	0xbd7c5e6f	-0.061613496
212	0xbb8c2803	-0.0042772307
213	0xbd6cb502	-0.05778981
214	0xbc528112	-0.012848156
215	0x3d864349	0.065558024
216	0x3d0183de	0.0316199
217	0x3d22a5bc	0.039708838
218	0x3deb2085	0.11480812
219	0x3d912d6c	0.07088742
220	0x3d8bd899	0.06828422
221	0xbb86de79	-0.0041158763
222	0xbc9c2955	-0.019062677
223	0xbc955b11	-0.0182319
224	0xbd239144	-0.039933458
225	0x3d4b2733	0.04959793
226	0xbd7372fa	-0.059435822
227	0x3e0498eb	0.12948959
228	0x3d0048fb	0.0313196
229	0xbdab2be3	-0.0835798
230	0x3c9bda34	0.019024946
231	0xbcd8a528	-0.02644594
232	0xbcde1af6	-0.027112465
233	0x3c29957c	0.010350581
234	0xbbf585bf	-0.0074927504
235	0xbc9923cb	-0.018693825
236	0x3ddc04b8	0.107430875
237	0x3dce25c5	0.10065798
238	0x3bdc9922	0.006732122
239	0x3ddad1b9	0.10684533
240	0x3d0c7239	0.03428862
241	0xbc29dc73	-0.010367501
242	0xbbf7dca5	-0.0075641447
243	0x3d168cb8	0.036755294
244	0xbb805d15	-0.0039173462
245	0x3d40123e	0.046892397
246	0x3c3e1ead	0.011603993
247	0x3a462d4b	0.000755985
248	0xbd5144ea	-0.051091112
249	0xbda49881	-0.080369
250	0xbe2e9206	-0.17047891
251	0x3b7de512	0.0038741273
252	0x3d9a5b91	0.07536996
253	0x3d269edd	0.040678848
254	0xbbea2b8d	-0.007146305
255	0x3c83b56f	0.016077725

network_body.linear_encoder.seq_layers.0.bias f4 [64]
0	0x3d289e95	0.04116686
1	0x3cb558d7	0.022137089
2	0xbc425714	-0.011861581
3	0xbcd92a16	-0.026509326
4	0x3ce0fb69	0.027463632
5	0xbba7ad49	-0.0051170927
6	0x3b719046	0.0036859675
7	0xbcee2baa	-0.029073555
8	0x3c7ac20a	0.015305052
9	0x3cd03428	0.025415495
10	0xbbce46bc	-0.0062950533
11	0xbc637201	-0.013882161
12	0xbc157b95	-0.0091237025
13	0x3ca3bb72	0.019986842
14	0x3cb6c1ca	0.022309203
15	0x3c8ebe2d	0.017424667
16	0x3c5ea78f	0.013589754
17	0xbca40467	-0.02002163
18	0x3cd06e68	0.02544327
19	0x3c108e80	0.008823037
20	0xbb223230	-0.0024749152
21	0x3a5dfd28	0.0008468204
22	0xbce81095	-0.02832822
23	0x3ce24093	0.027618682
24	0xbc0eb80c	-0.008710872
25	0xbd0f0c3c	-0.034923777
26	0xbc9b0d0f	-0.018927125
27	0x3aa88bbd	0.0012859028
28	0x3c60792a	0.013700763
29	0x3cc4a6d2	0.024005327
30	0xbc5382c5	-0.012909596
31	0xbc2d7a34	-0.0105882175
32	0xbc7bc970	-0.015367851
33	0xbb259a6f	-0.0025269052
34	0x3d41e50f	0.047337588
35	0x390154f2	0.00012334043
36	0x3c25896b	0.010103564
37	0x3d2b320c	0.041795775
38	0x3c64da2f	0.013968035
39	0xbc336708	-0.0109498575
40	0x3d0adcb9	0.033901904
41	0xbcd4e541	-0.025988223
42	0xbd25dd09	-0.040494
43	0x3b498c1b	0.0030753675
44	0x3c06ac48	0.008219786
45	0x3c1be0c4	0.0095140375
46	0x3cbafca0	0.02282554
47	0xbb4175f6	-0.0029519773
48	0xbbeeeacf	-0.007291175
49	0xbc95b210	-0.018273383
50	0xbd076d16	-0.033063017
51	0x3c13573f	0.008992969
52	0x3c6e3499	0.014538907
53	0x3b4c04f2	0.0031130877
54	0x3c8641a5	0.016388724
55	0x3d4602f6	0.048342668
56	0x3ad05de5	0.0015897123
57	0x3c368155	0.011139234
58	0x3cc18fb4	0.023628093
59	0xbc8f9b37	-0.017530067
60	0x3c2c514e	0.010517431
61	0xbd1750ae	-0.036942177
62	0x3c35e33b	0.011101539
63	0x3b951657	0.0045497823

network_body.linear_encoder.seq_layers.0.weight f4 [64, 96]
0	0x3cf0ca40	0.029393315
1	0xbd59496e	-0.053048544
2	0x3ca6f5f2	0.020380948
3	0xbbb7f3e9	-0.005613793
4	0xbd476067	-0.04867592
5	0xbd032386	-0.0320163
6	0xbe655726	-0.22396526
7	0xbe0e030a	-0.13868347
8	0xbe24bcc3	-0.16087632
9	0x3c79d204	0.0152478255
10	0xbdf59efd	-0.11993215
11	0x3df7b0c4	0.12094262
12	0xbe1b09ce	-0.15140459
13	0xbd6bfada	-0.057612278
14	0x3d06c3fd	0.032901753
15	0xbcf57e60	-0.029967487
16	0x3db3e7eb	0.08784469
17	0xbe08e321	-0.13367893
18	0xbd8c5277	-0.068516664
19	0xbd57d26a	-0.0526909
20	0x3c7382bc	0.0148627125
21	0x3e342f49	0.17596163
22	0x3e0f7530	0.14009547
23	0x3d5d5b1a	0.05404196
24	0xbc570428	-0.0131235495
25	0xbc7ebfbf	-0.0155486455
26	0x3c8452e0	0.0161528
27	0xbe447eec	-0.19189042
28	0x3e9169e0	0.2840109
29	0x3d48bacf	0.04900628
30	0x3e17e642	0.1483393
31	0x3cdd83a9	0.02704032
32	0xbd9a4bfb	-0.075340234
33	0x3dd9ad4f	0.10628759
34	0x3df63ffa	0.12023921
35	0x3e1fb32d	0.15595694
36	0xbdbe55df	-0.09293722
37	0xbe1859ac	-0.14877957
38	0x3d024649	0.03180531
39	0xbc33607b	-0.010948296
40	0xbd79fc95	-0.061031897
41	0xbc32ae95	-0.010905881
42	0x3dab1b91	0.08354867
43	0x3dc58df1	0.09646214
44	0x3d39060b	0.04517178
45	0xbc072607	-0.0082488125
46	0xbcb39dec	-0.021925889
47	0x3d23d5ed	0.039998937
48	0x3dadf18f	0.08493339
49	0x3e3213f9	0.17390431
50	0xbce7c35e	-0.0282914
51	0x3d8d8077	0.06909268
52	0xbdbbd1d1	-0.09170879
53	0x3daa1e39	0.08306546
54	0xbb32ed54	-0.0027302103
55	0xbe8b6d07	-0.2723162
56	0x3d0bae2c	0.03410165
57	0xbd939d47	-0.07207733
58	0x3daede85	0.08538536
59	0xbd931377	-0.07181447
60	0xbe01b532	-0.12666777
61	0x3d948375	0.07251636
62	0xbe78ef83	-0.24310116
63	0xbe26c098	-0.16284406
64	0xbd9c8e87	-0.076443724
65	0xbd6ee123	-0.058320176
66	0x3d7cfa0c	0.0617619
67	0x3d093e14	0.033506468
68	0x3da9f96e	0.08299528
69	0x3c6fc443	0.014634195
70	0x3d9ec8be	0.07753132
71	0xbd3f89fb	-0.046762448
72	0xbd296f25	-0.04136576
73	0xbe0bbabd	-0.13645454
74	0xbe160607	-0.14650737
75	0x3e22969d	0.15877767
76	0xbe63daf4	-0.22251493
77	0x3c0973c1	0.008389414
78	0x3dbbeb25	0.0917571
79	0xbd82ad15	-0.06380669
80	0x3e111bd8	0.14170778
81	0x3c075fea	0.008262614
82	0x3d1c14a6	0.03810563
83	0xbe6c84a5	-0.23097475
84	0xbe28ed1e	-0.16496703
85	0xbd493a66	-0.04912796
86	0xbe67732e	-0.22602531
87	0x3e1f064c	0.15529746
88	0xbd558c0c	-0.052135512
89	0xbe57417f	-0.21021079
90	0x3b580799	0.0032963513
91	0x3d0ad97b	0.03389881
92	0xbdbafcbb	-0.09130236
93	0x3bc7aec8	0.0060938336
94	0xbcf9c4d9	-0.030489372
95	0xbe041e38	-0.12902153
96	0xbd024c8b	-0.03181128
97	0xbdd5d24f	-0.10440504
98	0x3da29d6d	0.07940183
99	0x3e189b43	0.14902978
100	0x3b471c20	0.0030381754
101	0xbd30dfa1	-0.04318202
102	0xbd4fcc9a	-0.050732233
103	0x3c46c116	0.012130996
104	0xbc2dcbd8	-0.010607682
105	0xbdaf092b	-0.085466705
106	0xbd69de82	-0.057096966
107	0xbd61bc72	-0.055111356
108	0xbbff094c	-0.0077830907
109	0xbddbdcfe	-0.1073551
110	0x3d53a501	0.05167103
111	0x3dae765c	0.08518669
112	0xbc009ca5	-0.007849847
113	0x3d952ed1	0.0728432
114	0x3d3ae6df	0.045630332
115	0xbdf61f98	-0.12017745
116	0x3d1a9270	0.03773731
117	0x3d2ca509	0.042149577
118	0x3d906cf3	0.070520304
119	0x3daed2de	0.085363135
120	0xbe1c1f99	-0.15246429
121	0x3db83d0f	0.08996021
122	0x3decc8e4	0.11561754
123	0xbe1971c9	-0.14984812
124	0xbe6e6b3d	-0.23283096
125	0x3eb8022f	0.35939166
126	0xbc463ef8	-0.012099974
127	0x3b7950e6	0.0038042604
128	0x3e103509	0.14082731
129	0xbba6de29	-0.0050924015
130	0x3c024fef	0.007953628
131	0x3dbed772	0.09318437
132	0x3bceeb36	0.0063146604
133	0xbdb08d1d	-0.08620665
134	0xbded2777	-0.11579793
135	0xbe44f166	-0.19232711
136	0x3d9a3561	0.075297125
137	0xbc62ceac	-0.01384322
138	0xbe02eed6	-0.12786421
139	0xbdb22063	-0.086975835
140	0x3d280a29	0.041025314
141	0xbd6b1faf	-0.057403263
142	0x3a141b73	0.0005649842
143	0x3da89aeb	0.08232673
144	0x3d441336	0.047869883
145	0xbe73194b	-0.23740117
146	0xbd972d63	-0.07381704
147	0xbca508f7	-0.020145876
148	0x3d972b55	0.07381312
149	0x3c696eba	0.014247591
150	0x3cb6bd5d	0.022307092
151	0x3d029ed2	0.031889744
152	0xbcd03297	-0.025414748
153	0xbc77f63a	-0.015134389
154	0xbe0364ed	-0.12831469
155	0x3d78771f	0.060660478
156	0xbcca4b9d	-0.024694258
157	0x3b26677f	0.0025391278
158	0xbda85bc7	-0.0822063
159	0x3d9117f3	0.07084646
160	0x3e3c7d5d	0.18407197
161	0xbdbd7512	-0.09250845
162	0x3e0e50bf	0.1389799
163	0xbde8e150	-0.113711
164	0x3d1a421a	0.037660696
165	0x3dbfa761	0.09358097
166	0x3d9b39ef	0.07579409
167	0x3d4d01f5	0.050050694
168	0x3df19c98	0.11797446
169	0xbd81cb2d	-0.06337581
170	0x3d6d4180	0.057923794
171	0x3c98b07e	0.018638846
172	0x3d0fed6b	0.03513853
173	0x3d771c68	0.060329825
174	0xbd9eb9ad	-0.077502586
175	0xbd678d1d	-0.05653106
176	0x3d79abc7	0.060954835
177	0xbea9f8fe	-0.33197778
178	0x3dae949e	0.0852444
179	0xbcb39e45	-0.021926055
180	0x3d748bb5	0.059703548
181	0xbd8c7311	-0.06857885
182	0xbd5650aa	-0.05232302
183	0x3e302a06	0.1720353
184	0xbd86dff0	-0.065856814
185	0x3de3d89a	0.11125298
186	0x3dfb0c1d	0.1225817
187	0x3e08e4e1	0.1336856
188	0xbe036afd	-0.12833782
189	0xbe350ca8	-0.17680609
190	0x3c8fa8bb	0.017536512
191	0x3d120a08	0.035654098
192	0xbd427453	-0.047474217
193	0xbcf69aed	-0.030103171
194	0x3cb4825d	0.022034818
195	0xbe2b27fa	-0.16714469
196	0x3e08875a	0.13332883
197	0x3d45af5d	0.048262943
198	0xbca5808f	-0.020202903
199	0xbd11259a	-0.03543625
200	0xbb35952b	-0.002770732
201	0xbe917729	-0.28411224
202	0x3dcc0b1a	0.09963055
203	0x3d66bdfe	0.056333534
204	0x3cec9443	0.02887929
205	0xbd4145bf	-0.047185656
206	0x3c707667	0.014676667
207	0x3dd55128	0.1041587
208	0x3dde794a	0.10862978
209	0xbc067be1	-0.008208246
210	0xbd29895f	-0.041390773
211	0x3dc90548	0.098154604
212	0xbd14e9ff	-0.03635597
213	0xbcdc1b5d	-0.026868517
214	0xbe3ebadf	-0.18625973
215	0xbc08435a	-0.008316839
216	0xbdc352a3	-0.09537246
217	0x3cc1111e	0.023567732
218	0xbd54c3b8	-0.051944464
219	0xbcd36897	-0.025806708
220	0x3c667e56	0.014068207
221	0xbe0ad8e0	-0.13559294
222	0x3cda09b0	0.026615947
223	0x3da3f5fd	0.08005903
224	0x3e106ca8	0.14103949
225	0x3e16ee12	0.14739254
226	0x3d75d6c7	0.06001928
227	0x3d643b7a	0.055720784
228	0x3dd110ad	0.10208259
229	0xbd73facf	-0.05956536
230	0xbcf737e0	-0.03017801
231	0x3e057ce7	0.13035928
232	0x3d983eb7	0.07433837
233	0xbd84c8c7	-0.06483608
234	0xbd5913a8	-0.05299726
235	0xbdf037e5	-0.11729411
236	0x3da0550b	0.07828721
237	0x3db819d7	0.089893036
238	0x3d4fac18	0.05070123
239	0xbe276b06	-0.1634942
240	0x3cf4b1e0	0.029869974
241	0x3c8f7162	0.01751012
242	0x3de43efd	0.111448266
243	0xbd0eea3e	-0.03489136
244	0x3de5895b	0.11207839
245	0xbe2cc788	-0.1687299
246	0xbd873cd3	-0.06603398
247	0x3d8f18eb	0.069871746
248	0xbe0ed800	-0.13949585
249	0x3e54a2b2	0.20765188
250	0x3d7ee94e	0.062234215
251	0x3e6c9bd6	0.23106322
252	0x3e1b1fe0	0.15148878
253	0x3d17613b	0.03695796
254	0xbdc2a2e5	-0.09503726
255	0xbb617162	-0.0034399857

network_body.linear_encoder.seq_layers.2.bias f4 [64]
0	0x3c0b4745	0.008500879
1	0x3c1b4e48	0.009479113
2	0xbd2271bb	-0.039659243
3	0x3bb6d236	0.0055792583
4	0x3d7a064b	0.061041158
5	0x3d1f89da	0.038949825
6	0x3d601540	0.054707766
7	0x3cda80ca	0.02667274
8	0x3d618613	0.055059504
9	0x3ca7da25	0.020489762
10	0x3c599ae9	0.013281562
11	0x3c4c0965	0.012453412
12	0xbc90dabb	-0.017682424
13	0x3c9520b3	0.018204069
14	0x3d649f66	0.055816077
15	0x3cc2221e	0.023697909
16	0x3b2595c8	0.0025266279
17	0x3c81ec5a	0.015859772
18	0x3d567606	0.05235865
19	0x3d203c95	0.039120276
20	0x3cfe1a39	0.031018363
21	0x3a116d33	0.0005547583
22	0x3b7103c8	0.0036775935
23	0xbbc628e9	-0.0060473573
24	0x3c797a75	0.01522695
25	0x3cd01bab	0.025403818
26	0xbc36854a	-0.011140177
27	0x3c727adf	0.014799803
28	0x3bc5325a	0.0060179653
29	0xbc50335d	-0.012707558
30	0x3c02a6a4	0.0079743005
31	0xbcab2af6	-0.020894509
32	0x3d2d977c	0.042380795
33	0xbce77f96	-0.02825908
34	0xbcdd1691	-0.0269883
35	0x3d5fb408	0.05461505
36	0x3cf97e78	0.030455813
37	0x3ca83a98	0.020535752
38	0x3cc40ba6	0.023931336
39	0xbcc88829	-0.024478989
40	0x3ca096a4	0.019603081
41	0x3d28c45c	0.041202888
42	0x3c9e9a96	0.019360822
43	0x3c8aa66b	0.016925057
44	0x3c99a6f7	0.018756373
45	0xbcc0de08	-0.023543373
46	0x3c276fe1	0.010219545
47	0x3d40da7d	0.047083367
48	0x3d03516c	0.03206007
49	0x3cb7d760	0.022441566
50	0x3d395253	0.045244526
51	0x3c56bf62	0.013107153
52	0x3d0c600c	0.034271285
53	0x3c1c4591	0.00953807
54	0x3b98ec28	0.004666824
55	0x3cf89c1c	0.030347876
56	0x3d2fef2f	0.042952713
57	0x3cc2c96f	0.023777692
58	0x3c5873f0	0.013211235
59	0x3d614b04	0.05500318
60	0x3d5bb171	0.05363602
61	0x3ce10865	0.027469823
62	0xbd257f92	-0.040404864
63	0x3c8f4d05	0.01749278

network_body.linear_encoder.seq_layers.2.weight f4 [64, 64]
0	0xbdc8692e	-0.097856864
1	0x3c0c9de0	0.008582562
2	0x3e0ef7b0	0.13961673
3	0x3e00097d	0.1250362
4	0x3d480ad1	0.04883844
5	0xbd9fed34	-0.07808915
6	0xbe20ad70	-0.15691161
7	0xbe420142	-0.18945792
8	0xbda77c67	-0.08178025
9	0x3eb13e5a	0.34617883
10	0xbe2f3c6d	-0.17112894
11	0xbd53ca66	-0.051706694
12	0xbe1233fd	-0.14277644
13	0x3d2b4523	0.04181398
14	0x3e16d6b1	0.14730336
15	0x3c19a828	0.0093784705
16	0xbc96d1ff	-0.01841068
17	0xbd9e8542	-0.07740261
18	0x3e9e6e33	0.3094345
19	0xbd85079e	-0.064955935
20	0xbce72b29	-0.028218823
21	0xbe3a56c5	-0.18197162
22	0x3c3f3336	0.0116699245
23	0xbda145b0	-0.0787462
24	0x3d0d060b	0.03442959
25	0x3dac4c44	0.08412984
26	0xbe6beed5	-0.23040326
27	0xbe1b244f	-0.1515057
28	0xbda54e96	-0.0807163
29	0x3ce4e70f	0.027942209
30	0x3e3906e5	0.18069036
31	0xbd8b8a19	-0.068134494
32	0x3bd952d8	0.00663219
33	0xbd95ed65	-0.0732067
34	0x3d970014	0.07373062
35	0x3cadad12	0.02120069
36	0x3eb411a9	0.35169724
37	0xbde6793d	-0.11253593
38	0x3e607a81	0.21921732
39	0x3df2792b	0.11839517
40	0x3ddec2fb	0.10877033
41	0x3c9bed04	0.019033916
42	0x3d8109ea	0.06300719
43	0xbe62dbb4	-0.22154123
44	0x3e3274ef	0.17427419
45	0xbd9e95e8	-0.07743436
46	0x3d82b2ad	0.06381736
47	0xbe846d41	-0.25864604
48	0xbe1eb397	-0.15498196
49	0xbe0ee277	-0.13953577
50	0x3bb95fe1	0.0056571816
51	0xbd76cddd	-0.06025492
52	0xbe148e13	-0.14507322
53	0xbdc683aa	-0.09693082
54	0xbdbf8088	-0.09350687
55	0x3c55c8e1	0.013048382
56	0xbc19aaa1	-0.00937906
57	0xbd4ce47c	-0.050022587
58	0x3e2eec57	0.17082344
59	0xbe899c21	-0.2687693
60	0xbe54354a	-0.20723453
61	0xbe51a1c1	-0.2047186
62	0x3ccc805b	0.024963548
63	0x3de3b395	0.11118237
64	0x3e444ce0	0.1916995
65	0xbd50bcf0	-0.050961435
66	0x3e60187e	0.21884343
67	0x3e03e9cd	0.12882157
68	0x3e6a77cf	0.22897266
69	0x3e5a9170	0.21344543
70	0xbe45340e	-0.19258139
71	0xbc9650d7	-0.018349094
72	0x3bfcb810	0.0077123716
73	0xbdb0900e	-0.08621226
74	0x3e19262a	0.14955965
75	0x3e0ca5e2	0.13735154
76	0x3bc84002	0.006111146
77	0x3dc8bc1c	0.09801504
78	0xbe4b6892	-0.19864109
79	0xbe90a27b	-0.28248963
80	0x3dde30a6	0.10849123
81	0xbe1131a8	-0.14179099
82	0xbb95c616	-0.004570733
83	0x3ca8edba	0.02062117
84	0xbe8936c8	-0.26799607
85	0xbe825627	-0.25456354
86	0xbdab4600	-0.08362961
87	0xbe37e9f3	-0.17960338
88	0x3de6dd52	0.11272682
89	0xbccadc44	-0.024763234
90	0xbd59a02f	-0.05313128
91	0x3dff8e34	0.12478295
92	0x3e1fe611	0.15615107
93	0x3dc8b1ee	0.097995624
94	0x3e8e11cc	0.27747953
95	0x3e19066f	0.1494386
96	0x3cd5b717	0.02608828
97	0xbda85e4c	-0.08221111
98	0xbded3458	-0.115822494
99	0xbeaa66fa	-0.3328169
100	0xbcf49da2	-0.029860321
101	0x3e2849d7	0.16434418
102	0xbdd49cde	-0.103814825
103	0x3e9487ba	0.290098
104	0x3e76680d	0.2406313
105	0x3df27207	0.11838155
106	0x3da59893	0.08085742
107	0x3c5cd4c5	0.013478463
108	0x3de0883f	0.10963487
109	0x3dd29f20	0.10284257
110	0x3dea0270	0.11426246
111	0xbd5827d0	-0.052772343
112	0x3e754657	0.23952614
113	0x3de660a7	0.11248904
114	0xbe4e181a	-0.20126382
115	0x3e106714	0.14101821
116	0x3e04f729	0.12984909
117	0xbe07fc2b	-0.13279788
118	0xbe3b7280	-0.18305397
119	0x3d814653	0.063122414
120	0xbe916bbb	-0.28402504
121	0x3e13c3fe	0.14430234
122	0x3c503fdf	0.012710541
123	0xbd0b07d6	-0.03394302
124	0x3d29a6ae	0.041418724
125	0x3dd5615f	0.10418963
126	0x3b775200	0.0037738085
127	0xbd4a0c62	-0.049328215
128	0x3e3b3d7a	0.1828517
129	0xbde67b9f	-0.112540476
130	0x3d8f155e	0.06986497
131	0x3e05623b	0.13025753
132	0xbdae4596	-0.08509366
133	0x3cf2f0be	0.02965581
134	0x3e247af4	0.16062528
135	0x3c866154	0.016403832
136	0xbc0efbe3	-0.008727047
137	0xbd9563e9	-0.07294447
138	0xbc746813	-0.014917391
139	0xbd85665d	-0.06513665
140	0xbe245fff	-0.16052245
141	0xbdba6776	-0.09101765
142	0xbe18a3fe	-0.14906308
143	0xbd951a61	-0.07280422
144	0x3e355019	0.17706336
145	0x3e1bec8d	0.15226956
146	0x3c9b13d2	0.01893035
147	0x3e0af30c	0.13569278
148	0xbdf11a61	-0.117726095
149	0xbe09d2dc	-0.13459343
150	0x3e132ee1	0.14373352
151	0xbdae6fc4	-0.08517411
152	0xbde9ac67	-0.11409836
153	0xbe342694	-0.17592841
154	0x3e101d35	0.14073642
155	0x3da740a8	0.08166629
156	0xbcf71c64	-0.030164905
157	0xbcd0a8b8	-0.025471076
158	0xbdd1c1e9	-0.102420636
159	0xbd435570	-0.0476889
160	0xbe2717aa	-0.16317621
161	0x3e7d77e0	0.2475276
162	0xbc4769af	-0.012171193
163	0xbe312c1c	-0.17301983
164	0xbdc204de	-0.094735846
165	0x3e02ad0c	0.12761325
166	0xbdd60412	-0.10449995
167	0x3e292700	0.16518784
168	0xbdb23591	-0.08701623
169	0x3ec142af	0.37746188
170	0x3cc35297	0.023843093
171	0xbe0f0e38	-0.13970268
172	0xbde3578c	-0.111006826
173	0xbe45a8dc	-0.19302696
174	0xbe295492	-0.16536167
175	0x3d271205	0.04078867
176	0x3d78ae56	0.060713135
177	0x3d218159	0.039429996
178	0x3e336d23	0.17522101
179	0x3e28e211	0.16492487
180	0x3d690a2f	0.056894477
181	0x3e656a44	0.22403818
182	0xbce1a40c	-0.027544044
183	0x3d652d0d	0.055951167
184	0xbc25dca1	-0.010123403
185	0xbd26cb00	-0.04072094
186	0xbd6b6ec7	-0.057478692
187	0xbd40e437	-0.047092643
188	0xbd006a28	-0.03135124
189	0x3dd12644	0.10212377
190	0xbd4c9140	-0.04994321
191	0x3d8d4273	0.0689744
192	0x3d12ec9b	0.035870176
193	0xbd1f7fa5	-0.03894009
194	0xbc41566f	-0.0118003925
195	0xba838996	-0.0010035511
196	0xbe03209e	-0.12805411
197	0x3de3230b	0.11090668
198	0x3dcc41c5	0.09973482
199	0xbc6b2dc4	-0.014354173
200	0xbdcf4643	-0.10120823
201	0xbd10d77f	-0.035361763
202	0x3cd0c142	0.025482778
203	0x3c4f099d	0.012636569
204	0x3e001dfe	0.12511441
205	0x3dd8d4b5	0.10587446
206	0x3deeb07b	0.11654755
207	0xbdb79432	-0.08963813
208	0xbd7eb10d	-0.062180568
209	0xbd601a99	-0.054712866
210	0x3ea9226c	0.33034074
211	0x3dfa487b	0.12220856
212	0x3e500a0f	0.20316337
213	0x3d34bb5a	0.044123985
214	0x3dfbbabd	0.12291477
215	0x3e82b5fd	0.2552947
216	0x3e68d14d	0.22736092
217	0x3e4e09f2	0.20120981
218	0x3b6e07da	0.0036320598
219	0x3e8ad64b	0.27116618
220	0x3dc3a1ad	0.095523216
221	0x3e0ee030	0.13952708
222	0x3d9aeef6	0.075651094
223	0x3de62a4a	0.11238535
224	0xbd9f303c	-0.07772872
225	0xbd8e3e07	-0.069454245
226	0xbe907bff	-0.28219602
227	0x3c688aae	0.01419322
228	0x3d411fe0	0.04714954
229	0xbdf9dd3a	-0.12200399
230	0xbc7c7b04	-0.015410189
231	0x3e735830	0.2376411
232	0x3d4a547a	0.04939697
233	0x3d1eb0fd	0.038743008
234	0x3e571012	0.21002224
235	0x3d7c582b	0.06160752
236	0xbd047efa	-0.032347657
237	0xbd40f0e4	-0.04710473
238	0x3dcef5f7	0.10105508
239	0xbe0cd400	-0.13752747
240	0xbda52978	-0.0806455
241	0x3d0b5604	0.034017578
242	0xbe0ac6ef	-0.1355245
243	0xbd9aa4d3	-0.07550969
244	0xbe8c0e41	-0.27354625
245	0x3bf2bf74	0.007408077
246	0xbd9c0fb2	-0.07620181
247	0xbe56a84e	-0.2096264
248	0xbe3342a2	-0.17505887
249	0xbc5b07da	-0.013368571
250	0xbe2de272	-0.16980913
251	0xbe3dcb42	-0.18534568
252	0xbe10cb6b	-0.14140098
253	0xbe193a76	-0.14963707
254	0x3ea0abaa	0.3138097
255	0x3d74de9b	0.059782606
