results/MultipleHikarus_0/MultipleHikarus/MultipleHikarus-1312.onnx (onnx, 219188 bytes, 6 tensors)

action_model._discrete_distribution.branches.0.bias f4 [675]
00000000: 9383 6bbb 4c19 963b cdbe 023b 0bc8 00bc
00000010: a53f 053b 58af a03a 817e 113a 23b9 4ebb
00000020: d9f8 6abb 45e4 88bb fdd0 6abb 53f6 9c3b
00000030: 57fb 11b9 74fb 8d3a f176 8a3b c154 2f3b
00000040: 4341 803b 518a a53b 85db 893a f47c 393b
00000050: 1de0 633a 4b93 793b f082 ccb7 f2db e3b9
00000060: cac4 7fba ceb1 b5bb d34e 4e3b 1508 5c3b
00000070: a1ce 983b 27bf 8eb9 e94b 8bbb 1942 bfbb
00000080: 6977 51bb 2ef1 81ba 28aa 873b 20d1 9e3b
00000090: c1db 91bb 2c03 dd3a 77f8 9b3b 6160 753b
000000a0: 82a7 b2bb 0416 bdbb 7ed3 9d3b e421 423b
000000b0: cb79 ad3a fe79 123b da66 f2bb ae6e 8cbb
000000c0: 8b20 6e3b 84c9 43bb aaf2 85bb 3e42 bebb
000000d0: 30b3 9ebb c378 bf3a d85d 223b 44f6 213b
000000e0: 1779 babb d749 b8bb 395a 453b 7e70 abbb
000000f0: b432 aebb b838 4cbb eadc 103b c1ab a3bb
00000100: a755 babb 835e 11bc d861 88bb e857 ce3a
00000110: 2f85 3b38 16b5 8ebb d3c8 113b 7719 133b
00000120: fa8d 13b9 383e a23a f54c d03b 67c9 95bb
00000130: 9088 aebb 9008 0cba 5364 513b ab1a babb
00000140: 82ba 2cbb b04c 1bbb cc87 9ebb 47d9 8bbb
00000150: 4543 303b 2808 78bb 9528 503b 1e79 8e3a
00000160: 4672 8a3a 7086 633a 3d76 a8bb c177 95bb
00000170: 7fa0 b3bb cb9b abbb c7ce 64bb 0127 a3b9
00000180: 409d 6c3a 4963 b4bb afc1 963b ba5c a6bb
00000190: 6476 b7bb 4af6 42bb dc84 4d3b 0336 83bb
000001a0: 713a a1bb 8803 7939 f31b 663a 17e1 803a
000001b0: 54d5 083b ac68 8abb 7247 a8bb 1773 513b
000001c0: de69 93bb e761 bdbb 3b1d a1ba 8d66 d03b
000001d0: 6aa5 04bb 7963 58bb 2951 493b a700 2c3b
000001e0: 55dc 803b 71ba 0fbc cd63 053b 73f4 4338
000001f0: b641 86bb abfa b5bb cd03 84bb 21c1 183a
00000200: 15fc bdbb 7a5e 0b3c 0aea 173c bb56 e73a
00000210: be91 2c3b 1e21 07bb 1104 053c 6f27 adbb
00000220: 7f35 c3bb 820a b3bb 3427 793b 671d 413b
00000230: 283b 463b 747d 2abb 4ff0 ec39 891c b43b
00000240: 02f4 3e39 aabd 773b 7f07 59bb 7705 a4bb
00000250: 513f ca3a 8665 3d3a 9da9 433b 6df6 893b
00000260: 48d9 8fbb 6268 a8bb 07e4 f739 98cb 703b
00000270: f906 adbb d369 213b 58eb a73a 8d23 453b
00000280: 0fc6 a43b ceb1 f0ba 6ccd aa3b 3d82 4c3b
00000290: d106 a03a 3876 e0b9 bd55 babb 107e 063b
000002a0: 432b 6b3b 0a1f b2b9 6bb4 c8bb c2bb 6cbb
000002b0: d21b 04bc f281 423b 9582 a93b 0968 c93b
000002c0: e9d8 973b 687e 11bc 2e33 1fbb 1c85 b33b
000002d0: 6eda 793b 2f75 e9bb 91c6 f1ba 4da7 aa3b
000002e0: b8af 1a3b 9053 823b a5fd 4137 a632 8ebb
000002f0: c815 24bc f8a9 903b cf35 c8bb 17ea 8ebb
00000300: ce85 463a cb9d 673b ecfb 4dba a78e 093b
00000310: a4f3 9e3b 10c2 86bb 65fb 7dbb 3770 f8bb
00000320: 61d1 80bb 75e2 123b 03a0 2e3b 69ee 523b
00000330: e967 463b ac34 b8bb 41aa b7bb a5a9 bdbb
00000340: 329e b23a ad1d b2ba f201 98bb 313c bcbb
00000350: cec2 87bb 17d8 1bbb d0d4 fdbb f214 9cbb
00000360: b5ae c7bb 980a e93a 6a6c aabb 11b8 c2bb
00000370: 2e39 f73b 9a27 95bb 54c4 4a3b 8bfe 86bb
00000380: 811f a2bb f1c4 743a 3231 923b 5ed3 ae3b
00000390: 42f8 0cbb e835 cbbb 01a0 a33a 63d9 92ba
000003a0: 0691 df3a 628a a9bb 0ccd 533a 7bf8 1dbb
000003b0: f346 a0bb a0a0 8d3b eb40 58ba eea4 183b
000003c0: d6c4 90bb 8cf2 60ba 9c33 083a b6f8 51bb
000003d0: a56c 153b f83b 2f3b d80a 513b 36b7 b13a
000003e0: 567d 893a 7e49 9c3b 1257 aabb a3b4 133b
000003f0: 93b3 ce3a b7d0 013b bbaf 933b 9297 d3bb
-0.0035936579 0.0045806523 0.0019950152 -0.007860194 0.0020332125 0.0012259288 0.00055501616 -0.0031543456
-0.0035853891 -0.0041776025 -0.0035830133 0.0047901063 -0.00013921909 0.0010832385 0.0042256047 0.0026753398
0.00391403 0.005051889 0.0010517692 0.0028303238 0.0008692758 0.0038082178 -2.4379668e-05 -0.00043460686
-0.0009756802 -0.0055448776 0.0031480088 0.0033574153 0.004663304 -0.0002722677 -0.0042509926 -0.005836737
-0.0031962043 -0.0009913796 0.0041401573 0.004846707 -0.0044512455 0.0016861907 0.004759844 0.003744148
-0.0054520974 -0.0057704467 0.0048164716 0.0029622251 0.001323515 0.0022350545 -0.007397515 -0.004285655
0.0036335315 -0.0029874751 -0.0040877657 -0.0058062365 -0.004843138 0.0014608133 0.0024775174 0.0024713436
-0.0056907046 -0.005624037 0.0030113591 -0.005231916 -0.005316103 -0.0031161737 0.0022104331 -0.00499484
-0.00568648 -0.008872631 -0.0041620545 0.0015742751 4.470831e-05 -0.004355083 0.0022244945 0.0022445598
-0.00014071903 0.0012378162 0.0063568302 -0.004571128 -0.005326338 -0.0005341852 0.0031950667 -0.0056794486
-0.0026356285 -0.0023696832 -0.0048379656 -0.004267845 0.0026895565 -0.0037846658 0.003176247 0.0010869836
0.0010562621 0.00086793955 -0.005141048 -0.004561395 -0.005481779 -0.005237078 -0.0034913288 -0.00031118843
0.00090261176 -0.005505 0.0046007256 -0.005076972 -0.00559883 -0.002974885 0.0031359708 -0.0040042414
-0.004920297 0.00023747806 0.00087779685 0.0009832707 0.0020879107 -0.0042239036 -0.00513547 0.0031959468
-0.0044987043 -0.005779493 -0.0012292037 0.0063598813 -0.0020240196 -0.0033018275 0.0030718541 0.0026245506
0.0039325156 -0.008772478 0.0020353675 4.6719284e-05 -0.004097189 -0.0055535636 -0.0040287734 0.00058271183
-0.005797873 0.008506412 0.009272108 0.0017649749 0.0026331986 -0.0020619105 0.008118645 -0.005284242
-0.005957305 -0.005463899 0.0038017752 0.0029466988 0.0030247662 -0.0026014717 0.00045192472 0.0054965657
0.00018210712 0.0037802258 -0.003311604 -0.0050055343 0.0015430247 0.0007224906 0.0029855736 0.0042102844
-0.0043899156 -0.0051393965 0.00047281405 0.0036742445 -0.005280372 0.0024629727 0.0012811227 0.0030081004
0.0050284932 -0.0018363537 0.0052124765 0.0031205558 0.0012209063 -0.0004281269 -0.0056864903 0.0020521916
0.003588394 -0.00033973932 -0.006125023 -0.0036122655 -0.0080632735 0.0029679504 0.0051730373 0.006146435
0.004634012 -0.008880235 -0.002429198 0.0054785144 0.003812458 -0.007124565 -0.0018446018 0.005207932
0.0023603272 0.0039772466 1.1562753e-05 -0.004339534 -0.010014959 0.004414793 -0.00610993 -0.004361402
0.0007573039 0.0035341855 -0.00078576687 0.0020989568 0.0048508216 -0.0041124895 -0.003875458 -0.0075817364
-0.00393121 0.002241281 0.0026645667 0.003218556 0.0030274338 -0.0056215134 -0.0056050126 -0.0057880455
0.0013627468 -0.0013589166 -0.004638904 -0.00574448 -0.0041430956 -0.0023779923 -0.0077463165 -0.004763239
-0.0060938247 0.0017779646 -0.0052009122 -0.0059423526 0.007544658 -0.00455184 0.0030939775 -0.0041196994
-0.004947603 0.0009337208 0.004461431 0.0053352555 -0.0021510278 -0.0062014945 0.0012483598 -0.0011203702
0.001705677 -0.005173967 0.00080795656 -0.0024104405 -0.0048912703 0.0043221265 -0.00082494196 0.0023291665
-0.004417996 -0.0008581064 0.00051956787 -0.0032039112 0.0022800353 0.0026738625 0.0031897333 0.001355863
0.0010489624 0.004769503 -0.005198368 0.0022538088 0.001577007 0.0019808242 0.0045070327 -0.0064572776

action_model._discrete_distribution.branches.0.weight f4 [675, 64]
00000000: 3650 a6bb 0821 4dbc c4e2 a8b9 9318 443b
00000010: 7dc1 95bc 9a6f bdbc dc0b 5c3c 2be1 d33c
00000020: df26 35bc a689 0bbd 3933 48bc 12d3 903c
00000030: ddb4 dcbb 8bb6 6037 cbc4 f03c cf2a f83c
00000040: 9abf da3a 7c2a 3a3c 926e 633b 5cbd b53c
00000050: b6ad 2cbc d126 36bc 274f fcba 4829 9ebc
00000060: 6715 00bc 7a53 4e3c 93f6 b7bc 28f2 af3c
00000070: 2675 1f3c 9647 1a3c 5a5f 8dbc a838 ee3b
00000080: ab9f bb3b 53e6 e6bb 1087 413a c460 943b
00000090: a2c6 b23a 9507 af3c 6c63 ba3c c1ca a43a
000000a0: beed 0a3b 6cdc a73c 0411 5c3c a274 973b
000000b0: 29bd 743c 42f4 23ba 8e46 893b 05dc dbbb
000000c0: 63fd 82bb ffe1 7ebc f042 a33b d9ba 51bc
000000d0: fa0a 1dbc 8015 83bc 9fd3 b6bc eccc 203b
000000e0: 2507 873b 272a 90bb c392 50bb ac30 b43b
000000f0: ea07 c03b de9f f63a 13bb 92bc af89 e4b9
00000100: d8a3 87ba 935c 9db9 de71 77ba ea95 0f3c
00000110: c6f0 ce3c a013 253b a6ba 3dbc ad9d 88bc
00000120: c3b6 06bc baad 3dbb 7ba7 963b 55da 2d39
00000130: 3d3c bbbb ab1b 20bc 6299 b6bb 6e87 013c
00000140: 8d2b cb3a 8215 b6ba 6b3a 0a3c abfe 48bc
00000150: bb7d 01bb 0a4b 833c b212 a63c 76f6 bd38
00000160: 58b4 773c 81f1 633c 528f 3db7 1781 e9bc
00000170: acda f33a 39a5 caba 17b9 5a3b 1ad4 b538
00000180: a068 4dbc 96bd 7bbc e4ab e5bb b042 6739
00000190: 354a 38bb 87bd a8bb b52a f0bc b79e aebc
000001a0: e402 623c e5c1 4b3c fd75 35bc 4017 2538
000001b0: ecbb 02bc af03 bdbb e8a5 a43b a1de e7bb
000001c0: 8627 33bc 5cd3 553c d045 51bc 0e79 803c
000001d0: 504b 3b38 54d7 413b 6f49 b7bb c31e f63b
000001e0: 62cb b9ba 6a61 8bbc 17f3 97b8 1a5a 92bc
000001f0: e71a dabc 5910 43bc a9f0 143c 506e 18bc
00000200: b18a 26bb 96e9 1a3c 6ed0 90bc f1d5 f9bb
00000210: 4f0f 373b eda9 41bc 5ccb c23c 49ad 75bc
00000220: a1ef ab3b 62b7 033d a82e 023c e7c2 be3b
00000230: 2a39 8a3c 570f 933c 643b b8ba 5368 193d
00000240: 9c33 c7bb ee66 34bc 3af6 2f3b 6011 9b3b
00000250: 4ab7 263c 5d3e aabc dae2 0fbc 0702 d3bb
00000260: 4dd4 1bbc c434 48bc d1dd d8bc 15e6 293d
00000270: 54e0 0cbc 07d5 193b ab83 103d 1306 07bc
00000280: 57a1 913c c254 0e3d 3503 b03b fefe 10bc
00000290: 7cfe 73bc 5dd0 6e3c ec24 b639 eae1 183b
000002a0: 51f7 8a3a 5c16 9b3c 4a7e f1ba d6de 1f3c
000002b0: d623 d83c 9589 b73a 02bd 8ebc c5b1 2fb9
000002c0: f6f0 a93c bf9a 1c3d 618e f43b ccbf db39
000002d0: 674e 9f3c 84dc 32bc 4f40 a538 81ed e239
000002e0: ef7d 9ebb 2bd6 f93c 39c6 00bd 14e3 cd3c
000002f0: 9113 9e3b 97e7 533c a0ab b2bb a463 b23b
00000300: 7bb5 e93a 73b4 e73a 7f13 42ba c6c6 083b
00000310: 37c7 05bd 3b52 c13b 5de6 7e3c 7eba 703c
00000320: e436 133b 819c 0a3c 0748 acbc 2af8 ed3c
00000330: 0e47 5ebc 2f92 b23c 876c 7fbb 6785 fcbb
00000340: f492 a4bc 52ea a0bb 4827 99bc b8fb 153d
00000350: 001e 9a3c a202 e9b9 77fe 6cba 7667 efbb
00000360: 65ea 003c b9d6 ba3c f6ea 973a 4161 63bb
00000370: 7be9 dd3a 4cf8 d3bc 5b27 d63c 6585 0cbc
00000380: 078a adbb 508e 47bb 73cb 38bc 47b5 de3c
00000390: 6b4c 43bc b214 823c 0d48 27bc fe4f 513b
000003a0: d932 54bc 6d98 9b3c 015d 913b 12f5 b1bc
000003b0: f5de 59bb 079a af3c 6bc3 af3b 48af 4a3c
000003c0: edf9 093c ab4e 103d 42a6 43bc bfce b3ba
000003d0: 0aab 1cbc 4d50 683c 553d 07bd 976c 88bc
000003e0: c5aa c33c b591 baba 28ee 913c eee1 beb8
000003f0: 34ad c9ba a1ba 4c3c 4bf4 51bc f356 333c
-0.00507548 -0.012520082 -0.0003221241 0.0029921874 -0.018280739 -0.023124505 0.013430562 0.025864204
-0.011056631 -0.03406682 -0.012219244 0.017678771 -0.006735428 1.3393942e-05 0.029390713 0.03029385
0.0016689182 0.011362668 0.0034703356 0.02218502 -0.010539463 -0.011117653 -0.0019249663 -0.019306794
-0.007817603 0.012593145 -0.022456443 0.021477774 0.00973252 0.0094164815 -0.017257381 0.0072699375
0.005725821 -0.0070464998 0.00073824916 0.004528137 0.001363952 0.02136592 0.022752486 0.0012572632
0.0021198834 0.020490848 0.013431791 0.004622058 0.014937677 -0.0006254354 0.004189319 -0.006709578
-0.003997491 -0.015556811 0.004982345 -0.012800896 -0.009585137 -0.016001463 -0.022317706 0.0024536205
0.0041207247 -0.004399556 -0.0031825758 0.005498966 0.0058603184 0.0018815955 -0.01791147 -0.0004359013
-0.0010348512 -0.00030014347 -0.000943927 0.00876377 0.025261294 0.00251887 -0.011580145 -0.016676748
-0.008222285 -0.002894266 0.004597602 0.000165799 -0.005713968 -0.009772222 -0.005572484 0.007905824
0.001550065 -0.0013891908 0.0084367795 -0.012267749 -0.001975878 0.016026992 0.020272586 9.058129e-05
0.015118681 0.0139125595 -1.1298647e-05 -0.028503938 0.0018604598 -0.0015460617 0.0033374482 8.6702596e-05
-0.012537152 -0.015365025 -0.0070090163 0.0002205472 -0.0028120403 -0.0051495465 -0.02931724 -0.021315916
0.0137946345 0.012436365 -0.011075494 3.936072e-05 -0.007979374 -0.0057682614 0.0050246604 -0.0070761
-0.010934716 0.01305088 -0.012772992 0.015682723 4.4654415e-05 0.0029577808 -0.0055934708 0.0075109913
-0.0014174993 -0.017014224 -7.24552e-05 -0.01786523 -0.026624156 -0.011905753 0.009090581 -0.009303644
-0.0025412256 0.009455105 -0.017677512 -0.0076243808 0.0027932709 -0.011820299 0.02377861 -0.014994928
0.005247072 0.03215731 0.007945694 0.005821574 0.016872961 0.01795165 -0.0014055786 0.037453007
-0.0060791504 -0.0110108685 0.0026849643 0.004732296 0.010175535 -0.02078169 -0.008782113 -0.0064394507
-0.009511066 -0.012219612 -0.026472958 0.04147919 -0.008598406 0.0023472921 0.03528182 -0.008241194
0.017777128 0.0347488 0.005371476 -0.008849857 -0.014892217 0.014576045 0.00034741254 0.0023328015
0.001060227 0.01893156 -0.0018424478 0.009757718 0.026384275 0.0014002795 -0.01742411 -0.00016755525
0.020744782 0.038233515 0.007463262 0.00041913835 0.019446565 -0.010916833 7.8797915e-05 0.00043283033
-0.00483679 0.030497631 -0.03143904 0.025132693 0.00482411 0.012933633 -0.005452588 0.005444007
0.0017830575 0.001767768 -0.0007403418 0.0020870431 -0.03266069 0.005899695 0.015557853 0.014692901
0.0022463137 0.008460165 -0.021030439 0.029048998 -0.013566745 0.021798221 -0.00389746 -0.0077063325
-0.020089604 -0.0049107457 -0.018695489 0.03661701 0.018813133 -0.00044443185 -0.0009040604 -0.0073060347
0.007868384 0.022807466 0.001159041 -0.003469542 0.0016930545 -0.025875233 0.026141813 -0.008576726
-0.005295995 -0.0030449815 -0.011278975 0.02718605 -0.011920075 0.015879009 -0.010210049 0.0031938548
-0.012951576 0.01899358 0.0044361358 -0.021723304 -0.0033244465 0.02143575 0.005363872 0.012370892
0.008421403 0.035231274 -0.011941494 -0.0013718231 -0.009562263 0.014179301 -0.033017475 -0.016653342
0.02388514 -0.0014234098 0.017813757 -9.101989e-05 -0.0015386702 0.012495668 -0.012814592 0.010946023

network_body.linear_encoder.seq_layers.0.bias f4 [64]
00000000: da9a 863c 6eb6 d13b ad2e 113c 4268 5d3c
00000010: d855 9f3b 1d22 503b e094 803c a186 ea3b
00000020: ae5b 463b e5bd fabb f16d 78bb 87b0 573b
00000030: 5d83 c0bb 4b12 e4ba b299 d8bb 03a4 1b3b
00000040: 8f1b 64bb 23e1 453c 0d85 283b 4782 64ba
00000050: 2588 1e3b bfd7 253c 0c04 c83a 7995 6e3b
00000060: 78ce cd3b 9b82 e9bb 9e86 4a39 4553 f83a
00000070: 22b4 27bb f969 5bbb 3f79 e93b 4522 19bb
00000080: 564a 263c ccf4 7fba daa1 8b3c 383b 87bb
00000090: 71c1 b5bb 74d3 c53b 906d 133b ae1b 03bb
000000a0: 0a64 81ba 8a0f e5ba 94ad a13b 5978 d13b
000000b0: 8b51 823b 26e6 863b bea9 7fbb d253 8fba
000000c0: c9e1 983a e6e6 663b 31d5 38bc 98c5 993b
000000d0: e107 923b 5082 02bc 96d7 12bc 0d4c 3e3c
000000e0: 671a 9abb 2954 0e3c 1400 fcb8 ca41 443c
000000f0: 79a6 a9bb eb68 003c f4a8 5f3c 961f cb3b
0.01643126 0.006399921 0.008861226 0.0135136265 0.0048625283 0.0031758614 0.01569599 0.0071571623
0.0030267048 -0.0076520317 -0.0037907327 0.0032911615 -0.0058750347 -0.0017400471 -0.006610119 0.0023748882
-0.0034806465 0.012077603 0.002571407 -0.00087169226 0.0024190035 0.010122239 0.0015259995 0.003640501
0.0062807165 -0.007126165 0.0001931437 0.0018945715 -0.0025589545 -0.0033479913 0.0071250494 -0.0023366373
0.010149559 -0.00097639556 0.01704495 -0.0041269325 -0.0055467417 0.00603717 0.0022495724 -0.0020005512
-0.0009871733 -0.0017475944 0.004934022 0.0063925204 0.003977006 0.0041167913 -0.0039011086 -0.0010935015
0.0011663969 0.003523284 -0.011281298 0.0046927445 0.0044565056 -0.007965639 -0.0089625325 0.011614812
-0.0047028544 0.0086870575 -0.00012016311 0.011978576 -0.005177316 0.007837514 0.013651121 0.0061988337

network_body.linear_encoder.seq_layers.0.weight f4 [64, 96]
00000000: 5e1e 06bd fd05 a0bd ccf9 12be 0009 b53d
00000010: 9079 1a3e 0ad3 adbc 5af3 323e fa72 013d
00000020: 1cc0 9d3c c194 26be 6fc6 05be 7e12 5f3e
00000030: 8fcc b73d 97d7 fabd 665c e73c 0ac6 6d3e
00000040: 5457 27be dda0 703d c195 4cbd 48f4 ff3b
00000050: 4566 abbc 7edb 663d ceb1 9e3d d3ee 84bd
00000060: cc2f bd3d f6f9 463d f9c0 9e3b eb95 dcbd
00000070: 3088 5f3d 2a21 113e cfdb afbc e334 273e
00000080: 2311 8ebd 9482 19be 17c3 263e 7438 3ebe
00000090: c344 6f3d 26b8 433e 3d37 25be 09bc 723d
000000a0: 0a71 d6bc 5d09 25be 0609 cf3b 1d3b b13d
000000b0: 953e d43d 7f29 0a3d f70c 18be 1ffc ccbd
000000c0: 186e 18ba 6dc5 03be b8da 22be a212 d23c
000000d0: a1c6 a93b 2794 c33d a38b 7a3c dd30 0e3d
000000e0: afc8 fabd c145 e3bd aab2 17be 00af 2e3c
000000f0: ed69 903d 53a5 aa3c 2042 96bc bd86 84bd
00000100: b9ec 05be 2fbd 39bd 35e3 643d 1a70 ec3c
00000110: e128 ec3d 39eb c9bd 9348 e1bd 7b8d 94bd
00000120: 1db5 983d c40d 08bd 81bf ae3a d00e 083e
00000130: e0f5 db3d edd6 613e 50e8 15bd 364d 1fbe
00000140: 28b7 bdbb 8491 5c3e 2434 5dbd 9b92 b43d
00000150: 9dd0 98bc 8378 d5bd 3e9a 22bd c80d bcbd
00000160: e457 1dbe 216d 8b3d a277 5abe f866 d3bd
00000170: 6e17 55bd 1992 67bd bcc8 1d3d bb61 f4bd
00000180: 75c3 f43c 6c21 563e afb1 be3c c861 683d
00000190: 24e6 2ebc 70dd 223e 88ea 9f3d bbe4 afbd
000001a0: 9bec 773c 7dc7 863d 7eaf 0d3d ea08 10be
000001b0: 84b4 bf3c 7b87 133d f5c6 9a3b bf3d 7dbd
000001c0: 67c0 9b3c 94ac 26bd 479a 8d3d b7ad 053d
000001d0: 98e3 d63d 447f 5cbe eb4e fd3d ba93 dc3d
000001e0: 6d72 a4bd f0f8 223d f8c0 cebc 975a 083e
000001f0: d4b8 b63c 5380 e23c dbc4 36bc 5448 8a3d
00000200: 8416 a73b f28c f13d e8f8 8cbb b619 163e
00000210: 351c c43d 4c69 2d3d fe9a 13bc 87bb aabd
00000220: 8cce 083d d037 af3c ea05 33bd 3b4a 293e
00000230: 4c74 edbc 079c bdbd f97b 37bd cf2e 523d
00000240: b448 023d 6832 743d ef97 ba3d f25a fc3d
00000250: aec6 c4bc 8dfa 353e 1591 d1bd 7d9d fb3d
00000260: 5899 413e 0a8e ff3c 5f48 433d bd35 363d
00000270: c968 483e 797b 083e ddc8 003e e750 bebd
00000280: f50b afbd 30f9 2fbd 4ec0 413d 2b26 263d
00000290: 20c5 2a3d 6c48 eebb efc3 52be b7e7 cfbd
000002a0: e832 1ebe 3bc7 65bd 745b bf3b 639c a43d
000002b0: fda7 063e 4f9d 8b3d 9464 153e 51ba 9dbd
000002c0: 982f 53bd 8bf5 1d3e db0d 8d3d 547b 653d
000002d0: dfe0 d83c a0cc 343d a21e 1cbe b7f8 043c
000002e0: d6bc 5c3c a5cd 2e3d 2da1 05be b27d ac3d
000002f0: 0a83 203d 179e d23d cfc3 48bd 4dbc 3bbe
00000300: db73 263e 2dcb 85be 8255 6cbc 20ae 5c3c
00000310: 53b0 e83d 4d1b 95bd 22b0 a13d 21d3 d0bc
00000320: 1bee 8e3d 9774 913b e450 b7bd 53a9 9a3d
00000330: e4db 7ebd 40ea eabb 51c1 76bc a483 ed3d
00000340: df88 9dbe 28f5 9b3d 2479 5f3e 72df 063e
00000350: 1453 25be e7eb 16bc dc8e 643e c66d ed3d
00000360: c433 8c3d 49ab f9bc 01f3 023d 1301 5dbd
00000370: 7f13 6a3d 352e 28be aed0 6abd 0c58 e9bd
00000380: 5bc1 a5bb e688 2c3d b28b 183d 8ee3 83be
00000390: 73d5 87bd c208 bebd 5821 223e 68bb 46bd
000003a0: d427 863d c75d 713d 2344 69be 34b1 36bd
000003b0: 9844 893c 6931 aebd 8304 c5bd 7870 30be
000003c0: 5165 12be 9177 19be d92f 54bd c658 703d
000003d0: 4a77 19bd 99d4 17be 6871 303e d139 e3bc
000003e0: 64ff abbd 77d5 51bd 0e75 b83d 5267 3f3d
000003f0: 21c6 ebbd 41b7 013e 2aa6 6dbd 9caf ac3d
-0.032743804 -0.07813642 -0.14353102 0.08839607 0.15085435 -0.021218795 0.17475644 0.03160379
0.019256644 -0.16267683 -0.13063978 0.21784398 0.08974563 -0.12248152 0.028242301 0.23220077
-0.16341907 0.05874716 -0.049947504 0.007811103 -0.02092279 0.056361668 0.07748757 -0.064908646
0.09237632 0.048578225 0.0048447815 -0.10770782 0.054573238 0.14172807 -0.021467118 0.16328768
-0.06936862 -0.14991218 0.16285358 -0.18576223 0.058415186 0.19113216 -0.16134353 0.059261356
-0.026176948 -0.16116853 0.0063182143 0.08653853 0.10363499 0.03373098 -0.14848696 -0.10009026
-0.0005814745 -0.1286828 -0.15903747 0.02564365 0.005181149 0.09549742 0.015292081 0.03471457
-0.122453086 -0.11097289 -0.14814249 0.01066184 0.07051454 0.020830786 -0.018342078 -0.06471012
-0.13078584 -0.045346435 0.055880744 0.028862048 0.115312345 -0.09859318 -0.110001706 -0.07253548
0.074564196 -0.033216253 0.0013332219 0.132869 0.10740256 0.22054644 -0.036598504 -0.15556797
-0.005789656 0.21539885 -0.054004803 0.08817025 -0.018654162 -0.104233764 -0.039697878 -0.09182316
-0.15365559 0.06807924 -0.21334699 -0.10322374 -0.052024297 -0.056535814 0.038521513 -0.11932703
0.029878357 0.20911187 0.023278086 0.056733876 -0.010674987 0.15904784 0.07808405 -0.08588549
0.015132095 0.06581018 0.03459119 -0.140659 0.023401506 0.036017876 0.0047234246 -0.061826464
0.019012643 -0.040691927 0.06914192 0.03263637 0.10492629 -0.21532923 0.12368568 0.10770364
-0.080296375 0.039788187 -0.025238499 0.13315807 0.02230493 0.02764908 -0.011155332 0.06752077
0.0050991196 0.11794461 -0.004302133 0.14658245 0.095756926 0.042336747 -0.009009121 -0.08336549
0.033400103 0.021388918 -0.043706812 0.16532223 -0.028986119 -0.092582755 -0.044795964 0.05131417
0.031807616 0.059618384 0.0911101 0.12322034 -0.02402052 0.17771359 -0.1023275 0.12285898
0.18906152 0.03119566 0.04767644 0.044484843 0.19571222 0.13328351 0.12576623 -0.09292775
-0.085472025 -0.042962253 0.047302537 0.040563744 0.0416919 -0.007271817 -0.20582555 -0.10151618
-0.15449107 -0.056098204 0.0058397595 0.08037641 0.1315002 0.068171136 0.14589149 -0.07701553
-0.05155906 0.15425698 0.06887408 0.056025818 0.026474414 0.044140458 -0.1524606 0.008115939
0.013472756 0.042676587 -0.13049765 0.08422412 0.03918747 0.102840595 -0.049014863 -0.1833355
0.16255133 -0.26131573 -0.0144246835 0.013469249 0.11361756 -0.07280598 0.07894923 -0.0254913
0.06979009 0.0044389474 -0.089509755 0.07551827 -0.062221423 -0.007169038 -0.015060739 0.11597374
-0.30768487 0.07615119 0.21823555 0.13171175 -0.16144973 -0.009211517 0.22320122 0.11593203
0.06845811 -0.030477183 0.031970028 -0.053956103 0.0571475 -0.16423877 -0.05732792 -0.11393747
-0.00505845 0.042122744 0.0372426 -0.25759548 -0.06632509 -0.09279014 0.15833032 -0.04851857
0.06550565 0.058927324 -0.22779898 -0.044602588 0.01675634 -0.08505518 -0.09620001 -0.17230403
-0.14296462 -0.14987017 -0.051803444 0.05867841 -0.03746728 -0.14827193 0.17230761 -0.02773753
-0.08398321 -0.051228967 0.090067014 0.046729393 -0.115123995 0.12667562 -0.058019795 0.08431932

network_body.linear_encoder.seq_layers.2.bias f4 [64]
00000000: 225b 9a3b a1ee 933b 951e 4fbb 375c 8c3b
00000010: 73b8 bf3a f08f e13b 8413 9bbb b8e1 cb38
00000020: dbd1 50b9 dc68 623a 0a3e 823c e78b a638
00000030: 71f2 863a 2fc8 a1bb d9bd e83a 6f14 0b3c
00000040: ff1f 263b 064e fe3b 088f 023c ead6 9e3b
00000050: c5c3 d43a 35c7 233c a0f2 f23b 9a57 71bb
00000060: 5390 fd3a e1b4 f3bb db06 f1bb cd86 e93c
00000070: d6ef 343c e7fa 9e39 2492 fdbb 6947 db3a
00000080: 2c1a c33a 9f88 b6bb 27a9 843a 2525 9d3a
00000090: ccac a83a 784b 8c3a a5aa 5aba c7ad 073c
000000a0: f45b 053c 494a 283c 0776 733b 47aa 163c
000000b0: dc6a 2bba 2619 9fba 2015 97ba b803 ba3b
000000c0: 2775 e1ba b307 433c 876c b23b 058e 1a3c
000000d0: 6e24 dd3b cdd3 443c 9d74 2b3c 9eb4 4a3c
000000e0: 8810 733c fe84 fd3a 6ef7 6d3b 0405 9f3b
000000f0: d582 2a3b 81e2 953b 96a0 15ba 9bc6 95bb
0.004710571 0.0045145308 -0.0031603922 0.004283454 0.0014627114 0.0068836138 -0.004732551 9.721838e-05
-0.00019914603 0.0008636841 0.015898723 7.941556e-05 0.0010295642 -0.004937194 0.0017756774 0.0084887585
0.002534866 0.007760766 0.007968672 0.004847397 0.001623266 0.009996225 0.007414177 -0.0036825896
0.001934538 -0.007437334 -0.0073555536 0.02850666 0.0110435095 0.00030323045 -0.0077383686 0.0016729656
0.0014885119 -0.0055704857 0.0010121212 0.0011989219 0.001286888 0.0010703644 -0.0008341468 0.008281178
0.008139599 0.010271617 0.0037149207 0.009195871 -0.00065390556 -0.0012138232 -0.0011526681 0.005676713
-0.0017201052 0.011903691 0.0054450664 0.009433274 0.0067487275 0.012013388 0.0104648145 0.012372164
0.014835484 0.0019342003 0.003631081 0.004852893 0.0026017923 0.0045741205 -0.0005707828 -0.0045707948

network_body.linear_encoder.seq_layers.2.weight f4 [64, 64]
00000000: 49f6 c9bd cdfc 933e 6073 533e 6153 833d
00000010: 80f8 9ebc d9ef cabd 6b99 d6bd b791 873d
00000020: c32b e7bd 46ea f83c f974 8d3d 7748 09be
00000030: 073e 4cbd 2983 34bb 60d4 6e3d 36bf c8bc
00000040: 7182 48bd bcb6 2f3e df5a 21be ed69 cc3d
00000050: ccef 013e 9aa6 bc3c 74d1 0d3e deac 103e
00000060: d934 10be be63 58bd 2797 583e 2787 fbbd
00000070: edd2 273c 9c40 d53c 3841 383d b30c ae3d
00000080: 6347 063e 4aa2 e53d 1a46 c4bc 3989 e5bd
00000090: 3654 3a3d 001a fdbd e6e7 88be 3ff2 f0bc
000000a0: 6da0 f1bc 81e4 debd 67b8 453e 6b40 fdbd
000000b0: 9a9b 483e 8de5 9dbc fb86 a0bd 16d4 7f3e
000000c0: 2fb9 24be bee1 383c 553e 033d 15fe acbd
000000d0: ee72 123e b22c 12bd d6ba b5bd 0e44 57be
000000e0: 0ca8 4dbd 43e1 943d beb3 903d 5149 343e
000000f0: 76b2 bfbd 8f4f 9bbc 6ac0 aebd 7c89 273c
00000100: 5f2d ce3d 08f9 013d d347 febd e55f a83d
00000110: c331 c73d de49 3f3d c467 473e 0cbe b6bd
00000120: a55f afbd 2134 c3bd 11ac 143e 7169 7bbd
00000130: 41e4 febd ac45 0ebe 4c76 883e 2781 703a
00000140: cb3a 09be b2ee a6bc fd2f 1a3d 81a2 f03d
00000150: 2420 543e f559 a9bd e74f e53d ca6a 84be
00000160: 1a92 90be 3870 0e3d 735e 163d 5f29 de3c
00000170: 7f13 57be f9cf c2bd c433 87bd 951b 7c3d
00000180: c669 99bd d5a1 3fbd d579 2b3d fd50 a1bd
00000190: f608 71bd 0d6e c13d 519a 063e 9f8b a7bc
000001a0: f986 28be 3b49 ba3e 9410 dcbc c000 31be
000001b0: ccc7 eabb 4b74 23bd 1002 f83d b69f 153e
000001c0: 99ae a5bd abff 59bd a609 c7bb e242 babd
000001d0: 86ff cdbb 8377 883e a1c7 383e 6837 3a3e
000001e0: 6386 803e 4c2e 673d 9b34 a63d 35ab 77bc
000001f0: be01 973d 8d76 e63d 82a8 7a3e 80f9 99bd
00000200: b5e8 b2bd 70c6 0f3e 3428 1c3e bdd8 83be
00000210: 6f27 28bd 7c41 50be 4a85 e33d 3a6c 633d
00000220: 9e62 0ebe 440d 973d 18eb 1b3e 55d2 aaba
00000230: ae60 c5bd e1ce d73d a8c8 0c3c 73fc 33be
00000240: 2d85 7a3d 0970 a8bc 6a44 823d 9145 17bc
00000250: 50d8 d53c e524 99bd 9214 65be 1abf e53c
00000260: 25a0 dabd 72af 76bd eb34 d43d a056 133e
00000270: f9cb e83d c4bd 18bd 76ae f63d 9f7b 4d3c
00000280: c695 043e e540 d6bd b574 8e3e 27fa 72bd
00000290: b21d 5ebe efab 07be 4447 6abe 574b 063e
000002a0: 1b90 3cbd 47f9 cfbd eb9b 8eba 8a2a f13c
000002b0: 1e66 a7bd cfd5 0fbd de4c 19bd ee4c 863d
000002c0: af8e c8bd 0fd2 913d 5a44 19bd 8926 b4bc
000002d0: c81d ec3a 56cb e83c 8bb8 113d 5b16 b5bd
000002e0: 93a0 ba3d 20b2 b0bc 78bd d7bd d1bb 9abd
000002f0: b632 423c 8bcd d0bd f073 543e b264 7c3e
00000300: 4c72 543d 8ecc 4ebe 83d2 22bc 4cf2 663e
00000310: a79b dabd 766a 773e 5b07 bc3d f0ea 153e
00000320: f1fb 8abd b7e6 a33a 4c77 853d 425e 56bc
00000330: aa52 e6ba 4daf 56be fb30 86bd 86c5 5d3e
00000340: e2e3 36bd e62e 693e de55 3fbe d66c 5a3e
00000350: 6c7b 06be 2f94 0cbe e8eb 23bd d0d3 083e
00000360: 3264 a3bd e029 353d df2a 993c 2a48 713e
00000370: abe6 31bd d685 eb3d e647 1aba dcc0 69bd
00000380: 0620 de3d 7b3c 9bbe fc75 1c3c dbee cabc
00000390: 9cc3 583d cfc8 ccbd 3f58 0fbe 6de0 503d
000003a0: 75a7 f5bd c392 f5bc 0404 613a 2641 2cbe
000003b0: d787 e4bd bc4d cbbc dd59 3bbd 67c8 9abd
000003c0: e715 f43d e6d2 863c ba07 1f3f d5fb 333d
000003d0: c227 543d 6b78 a0bb 0bcd 98bc ebba d03d
000003e0: f7d1 d7be 8ad5 063e f5c3 183e 4462 3c3e
000003f0: e9ec b4be bc45 893d e431 1b3d 8269 233e
-0.09861428 0.2890381 0.20649481 0.06412388 -0.019405603 -0.099090286 -0.10478481 0.0661959
-0.11287644 0.030385148 0.069070764 -0.1340655 -0.04986384 -0.0027543998 0.058308005 -0.024505239
-0.048952524 0.17159551 -0.15757321 0.09981141 0.12689131 0.02302866 0.13849431 0.14128444
-0.1408266 -0.052829497 0.2115141 -0.12281638 0.01024316 0.026031785 0.044984072 0.08498516
0.1311317 0.11212595 -0.023959208 -0.11207814 0.045490466 -0.12358475 -0.26739424 -0.029412387
-0.029495442 -0.108834274 0.19308625 -0.123658024 0.19590607 -0.019274497 -0.078382455 0.24983248
-0.16086267 0.01128429 0.032041866 -0.084469 0.14301655 -0.035687156 -0.08873527 -0.21022055
-0.05020909 0.07269528 0.07065533 0.17606093 -0.093602106 -0.018958835 -0.08532794 0.01022565
0.100672476 0.031731635 -0.12416043 0.082214154 0.09726288 0.046701305 0.19473177 -0.08922967
-0.085631646 -0.09531427 0.14518763 -0.061379854 -0.1244588 -0.13893765 0.26652753 0.00091745186
-0.13401334 -0.02037749 0.03764342 0.11749745 0.20715386 -0.08269111 0.11196881 -0.25862724
-0.28236467 0.03477499 0.036711168 0.027119337 -0.21003531 -0.09512324 -0.066016704 0.06154974
-0.07490878 -0.046785194 0.041864235 -0.078767754 -0.058846436 0.09444819 0.13144805 -0.020452319
-0.16457738 0.36383995 -0.026863374 -0.17285442 -0.007164931 -0.039905827 0.121097684 0.14611706
-0.080899425 -0.05322234 -0.006074148 -0.09094788 -0.0062865643 0.2665368 0.18044902 0.18185198
0.2510253 0.056440637 0.081155024 -0.0151165025 0.07373379 0.112530805 0.24478343 -0.075182915
-0.087357916 0.14040542 0.15249711 -0.25751296 -0.04105323 -0.2033748 0.11109407 0.055523135
-0.13904807 0.07375577 0.152264 -0.0013032655 -0.09637581 0.10537506 0.008592762 -0.1757677
0.061162163 -0.020561235 0.06360705 -0.0092328945 0.026104122 -0.0747774 -0.22371128 0.028045226
-0.106750764 -0.06022591 0.10361656 0.14388514 0.1136703 -0.03729035 0.120449945 0.012541681
0.12947759 -0.104615964 0.27823415 -0.059320595 -0.21691015 -0.13249181 -0.22878748 0.13114677
-0.046035867 -0.10154968 -0.0010880207 0.02943923 -0.08173774 -0.035116013 -0.037426822 0.06557642
-0.0979284 0.071201436 -0.0374187 -0.021991031 0.0018014247 0.02841727 0.035576385 -0.088421546
0.09112658 -0.021569312 -0.10534185 -0.075553544 0.011852911 -0.10195454 0.20747352 0.24647787
0.051866814 -0.20195219 -0.009937885 0.22553366 -0.106742196 0.24161705 0.091810904 0.14640403
-0.06786335 0.0012504671 0.06516895 -0.013083996 -0.0017572243 -0.2096531 -0.06552311 0.2165738
-0.04465092 0.22771797 -0.186851 0.2133058 -0.13133019 -0.13728403 -0.0400199 0.1336205
-0.07978095 0.04422939 0.0186972 0.23562685 -0.043432873 0.115001366 -0.00058853475 -0.05706869
0.10845952 -0.3031958 0.009549614 -0.024772098 0.052920923 -0.09999239 -0.13998507 0.05099528
-0.119948305 -0.029977208 0.0008583667 -0.16821727 -0.11158722 -0.02481734 -0.045739997 -0.07557755
0.1191824 0.016457986 0.62121165 0.043941338 0.05179573 -0.0048971674 -0.01865246 0.10191902
-0.42152378 0.13167396 0.14918502 0.1839686 -0.35336998 0.06702754 0.037889376 0.15958217
