results/HikuruHasABrother/Hikaru.onnx (onnx, 219188 bytes, 6 tensors)

action_model._discrete_distribution.branches.0.bias f4 [675]
-0.020844532 -0.070900336 0.04390001 0.04695808 0.10874116 0.08626342 0.012052356 -0.013529805
0.05694622 0.009423983 0.077865414 0.054759268 0.002081182 0.05685609 -0.0034115578 0.049841255
0.02699977 0.0018472638 -0.024968425 0.028396005 -0.01760002 -0.009993161 0.010443979 0.083253935
-0.00011104657 0.018381648 0.06546249 0.010107995 -0.03904371 0.022553101 -0.05944664 0.004588187
0.050474428 0.095903605 0.046932343 0.027752923 0.008073433 0.015950754 -0.011766405 0.068595916
0.029776914 0.033788223 0.0179377 0.016028255 -0.0045998585 -0.024168935 0.018685471 0.030564956
0.00082235556 -0.020095168 0.025493972 0.028356275 -0.018419312 -0.00048570812 0.052157026 0.055018432
-0.02475698 0.003161181 0.02593794 0.07538803 -0.03713574 -0.00039506765 0.0013487014 0.063012384
-0.03288469 0.062620126 0.039505918 0.06221998 0.102466 0.033530455 -3.0921394e-05 0.06862049
-0.003357864 -0.0059784465 0.02887491 0.07115266 -0.024646716 0.027598891 0.05727331 0.055793222
-0.005532478 0.10300322 0.031497914 0.033260997 -0.028135415 0.028695503 0.026397288 0.0036817756
0.043346316 0.01726976 0.018625025 0.07668575 -0.0028450338 0.012689217 0.019804446 0.015395221
-0.053880565 0.05746876 -0.032187365 -0.020678682 6.0267757e-05 -0.009159324 0.041930407 0.019766044
0.035794757 -0.016050957 0.017980466 -0.00030662646 0.04476643 0.024273068 0.002482069 -0.016987767
0.012760065 0.021829257 0.069720075 0.01949339 0.013838071 0.036330163 0.031924434 0.066202044
-0.014240396 -0.019203153 -0.00808263 -0.057394695 0.035104945 -0.019735558 0.0035430468 -0.011091345
-0.014618812 -0.0106204655 -0.03606639 0.033298444 -0.018903578 0.028262097 0.0054273084 0.03807722
0.049551513 0.015407557 -0.025300926 0.10874029 0.03852497 0.045429837 0.0037008345 0.044196617
0.056217898 -0.032580227 0.00873499 -0.047896963 0.0031991971 0.09580187 -0.025938319 -0.01873723
0.019318549 0.021725398 0.05492007 0.057659596 0.03652622 -0.024136404 0.007934414 -0.00039047093
-0.0103918435 0.032805085 -0.008034914 0.026072664 0.03891633 0.040914033 -0.024238182 -0.03760009
0.07598889 0.016202377 0.026169727 0.022963312 0.028033672 -0.041477773 0.015650643 -0.0072784307
-0.027203767 -0.0068335026 0.022092523 -0.025122197 0.08594254 -0.015774444 0.018695278 0.03699264
0.030224126 -0.0036438392 -0.020714147 -0.0043654256 -0.044598483 0.016423967 0.032727063 0.07578004
-0.062774785 0.0045980676 -0.012545242 0.012360269 -0.021016559 0.08659908 -0.0024225672 0.0063586733
0.041764367 0.06111517 0.032891273 0.0033725414 0.014060043 0.0113481935 -0.0037527825 -0.0017718149
-0.028727684 0.081506714 0.06906292 -0.0010920328 0.038186055 0.022495577 0.028041795 -0.017703693
0.08037497 -0.06492785 0.009745697 -0.0696012 0.07958669 0.0010528009 0.020521306 -0.01374552
0.06680065 -0.016860696 0.10960363 0.0072779735 0.040420573 0.07049327 0.02780042 0.015262011
-0.034356523 0.064751066 0.007984632 0.029424679 0.047446024 0.017277481 -0.073504224 0.03211658
0.0016315092 -0.022533545 0.026901502 0.03436954 0.013196341 -0.006882182 0.05455486 0.032106
-0.039841514 0.029673714 -0.0439151 -0.006272974 -0.010479311 0.059960324 0.052198503 -0.02758786
00000000: 27c2 aabc 3234 91bd 7fd0 333d 1e57 403d
00000010: afb3 de3d e0aa b03d 3f77 453c 1dac 5dbc
00000020: 7140 693d 0d67 1a3c e777 9f3d 414b 603d
00000030: 7164 083b eee1 683d 7194 5fbb 5826 4c3d
00000040: 9f2e dd3c e31f f23a 958a ccbc bd9e e83c
00000050: eb2d 90bc 5bba 23bc 391d 2b3c 0a81 aa3d
00000060: ace1 e8b8 1c95 963c 3311 863d 019c 253c
00000070: 4cec 1fbd 48c1 b83c 527e 73bd 8158 963b
00000080: 46be 4e3d 1c69 c43d 213c 403d 195a e33c
00000090: 6f46 043c 28ab 823c e1c7 40bc 047c 8c3d
000000a0: b7ee f33c 8565 0a3d 15f2 923c b04d 833c
000000b0: 69ba 96bb eefd c5bc 4612 993c 5c63 fa3c
000000c0: 5993 573a 9f9e a4bc bcd8 d03c 6b4b e83c
000000d0: 19e4 96bc a4a6 feb9 9ba2 553d 025b 613d
000000e0: 26cf cabc d12b 4f3b ce7b d43c 0a65 9a3d
000000f0: a51b 18bd 1521 cfb9 e9c6 b03a a30c 813d
00000100: 19b2 06bd fb3e 803d f5d0 213d 61da 7e3d
00000110: b2d9 d13d 3b57 093d 98b1 01b8 e688 8c3d
00000120: 9c0f 5cbb d8e6 c3bb 138b ec3c 7cb8 913d
00000130: e9e7 c9bc 1217 e23c 6b97 6a3d 6f87 643d
00000140: ca49 b5bb 5af3 d23d f503 013d af3c 083d
00000150: 3e7c e6bc d512 eb3c 203f d83c f249 713b
00000160: e88b 313d 5079 8d3c 8293 983c 6b0d 9d3d
00000170: bf73 3abb 6fe6 4f3c ef3c a23c 3d3c 7c3c
00000180: deb1 5cbd 5d64 6b3d e6d6 03bd 5766 a9bc
00000190: 03c8 7c38 fd10 16bc 38bf 2b3d 66ec a13c
000001a0: 869d 123d 4c7d 83bc c54b 933c b5c2 a0b9
000001b0: 015d 373d 50d8 c63c 35aa 223b ee29 8bbc
000001c0: 970f 513c 45d3 b23c 66c9 8e3d 9ab0 9f3c
000001d0: 14b9 623c f0ce 143d 32c3 023d f094 873d
000001e0: 8d50 69bc ee4f 9dbc 026d 04bc b316 6bbd
000001f0: 34ca 0f3d 77ac a1bc 7632 683b 79b8 35bc
00000200: be83 6fbc 7601 2ebc 5aba 13bd f363 083d
00000210: addb 9abc ea85 e73c 90d7 b13b dcf6 1b3d
00000220: 87f6 4a3d fa6f 7c3c e343 cfbc 3bb3 de3d
00000230: 5ccc 1d3d a314 3a3d b389 723b 8307 353d
00000240: bd44 663d d872 05bd 341d 0f3c 9b2f 44bd
00000250: 9fa9 513b c533 c43d 997c d4bc d27e 99bc
00000260: ef41 9e3c 76f9 b13c def3 603d 782c 6c3d
00000270: 859c 153d b5b9 c5bc 58ff 013c 1fb8 ccb9
00000280: 8d42 2abc a05e 063d dfa4 03bc 5796 d53c
00000290: bb66 1f3d 7995 273d 278f c6bc 8d02 1abd
000002a0: 10a0 9b3d d9ba 843c e561 d63c 8e1d bc3c
000002b0: dfa6 e53c 99e4 29bd c735 803c e77f eebb
000002c0: 6fda debc 93eb dfbb 61fb b43c 11cd cdbc
000002d0: a402 b03d 6839 81bc d726 993c 9885 173d
000002e0: 9698 f73c 7acd 6ebb b7b0 a9bc d80b 8fbb
000002f0: e6ac 36bd 8e8b 863c d00c 063d 9132 9b3d
00000300: 1190 80bd 63ab 963b 8f8a 4dbc ba82 4a3c
00000310: eb2a acbc dc5a b13d efc3 1ebb 6b5c d03b
00000320: 1d11 2b3d e753 7a3d 00b9 063d db05 5d3b
00000330: 185c 663c c6ed 393c 3ef1 75bb 3e3c e8ba
00000340: 5256 ebbc feec a63d dc70 8d3d 8a22 8fba
00000350: fb68 1c3d a548 b83c e8b7 e53c 5607 91bc
00000360: a29b a43d e5f8 84bd 6aac 1f3c 138b 8ebd
00000370: 59fe a23d 23fe 893a 4c1c a83c e434 61bc
00000380: c7ce 883d 711f 8abc de77 e03d 117c ee3b
00000390: 0b90 253d c75e 903d b5bd e33c 840d 7a3c
000003a0: 6db9 0cbd 359c 843d f9d1 023c 060c f13c
000003b0: c356 423d 8189 8d3c 6289 96bd ad8c 033d
000003c0: 5dd8 d53a 4598 b8bc 8a60 dc3c 13c7 0c3d
000003d0: 7735 583c ed83 e1bb eb74 5f3d 9581 033d
000003e0: db30 23bd 4a16 f33c 52e0 33bd 858d cdbb
000003f0: 6bb1 2bbc f598 753d 19ce 553d f0ff e1bc

action_model._discrete_distribution.branches.0.weight f4 [675, 64]
-0.00017061594 -0.041754298 0.011423648 -0.024488611 0.016141973 0.11630415 0.038028892 0.03579354
-0.0686721 0.006784195 -0.031685803 -0.053192586 -0.027191509 -0.13001661 0.0072478442 -0.04002388
-0.015776183 -0.050018553 0.09732234 0.004346823 -0.055000857 -0.22105452 -0.0046364786 -0.015839724
0.016930569 -0.004856687 0.005101402 0.050002966 0.022719748 0.08211463 0.3186365 0.05963595
0.09265522 -0.029576302 0.05455029 -0.020431707 0.05762726 -0.040968206 0.021015119 0.01732628
0.04453304 0.038016524 0.15224117 0.10971302 0.021777678 0.06168322 0.032089066 -0.021188414
0.101207666 0.029786307 0.0015897759 0.032978695 -0.057077724 -0.032794695 -0.043645505 -0.00441177
0.048092254 0.1062183 0.03872357 0.037157644 0.06438721 -0.10682596 0.011396415 0.06091227
-0.030904565 -0.037275862 0.012344305 -0.05531456 -0.041659836 0.042741682 0.06834111 -0.0029271808
0.07712636 -0.050231848 -0.043414596 -0.07856288 0.0324 -0.029410101 -0.007990339 0.012196207
-0.07919771 0.0047254567 0.010023977 -0.00936556 -0.015598523 -0.02781733 -0.04695517 -0.024699355
-0.033568744 -0.023704104 0.017823078 -0.036162004 -0.011659951 0.024369093 0.08199264 0.07603453
0.0403304 -0.011304792 0.033038072 0.0011897557 -0.039048783 0.034458555 -0.03907006 0.011654633
-0.010396547 -0.06883205 0.009071375 -0.035509076 -0.093564935 -0.011519604 -0.075444125 -0.035088047
0.02801998 -0.0425724 0.037126113 -0.05676209 0.042397685 -0.06993764 -0.0325426 0.0011477591
-0.051312573 0.05469841 0.005143946 0.01213355 -0.08521859 0.034403626 0.014196411 0.075502016
-0.0077686016 -0.007185435 -0.030967148 -0.03751152 -0.041039295 0.021373983 -0.019807322 0.054975525
0.06450519 -0.01947463 0.05420981 0.029992642 -0.017989067 0.06658479 0.13155 0.012832279
0.023923228 0.0053634634 -0.17887795 -0.029838486 0.040076792 -0.0018965494 0.0074386536 -0.03480749
0.045307472 0.11835506 0.07632099 0.0120646 -0.035935506 0.09053 -0.05168497 0.095975414
-0.019458378 -0.047570527 -0.028287437 0.15085204 -0.02172246 -0.043797776 -0.05492473 -0.065299846
-0.05335367 0.06363155 0.21054979 -0.028724832 0.045043003 -0.08676668 0.02745878 0.060955502
0.037859023 0.023057315 0.0532105 0.044466633 -0.075913355 0.012756311 0.07034238 -0.001085595
-0.020268226 -0.040543806 0.026582802 -0.0036780047 0.08197758 0.07009032 -0.059649326 -0.03733286
-0.011961435 0.0040523023 0.0016671306 -0.006978387 0.040648617 -0.14562848 -0.037722774 0.026208414
0.021777118 -0.022433905 -0.042569317 0.08678634 -0.02819766 -0.009915746 0.124361694 -0.08601532
0.0684217 -0.01307284 -0.051446356 -0.030630969 -0.012840039 -0.038867883 0.014773093 0.088028476
0.05539626 0.0449828 0.16883828 0.0720139 0.020219134 -0.033967946 -0.030460997 -0.0699881
-0.060400914 0.04036881 -0.07727793 0.12395203 0.053443506 -0.092160985 0.02575626 -0.050746977
-0.07443835 0.035200328 0.04572823 -0.025351567 0.12697949 0.07716069 0.030444494 0.104781754
0.025134705 -0.00045343718 0.024746979 0.024131402 -0.00090181374 0.057311878 0.0133458255 0.056550458
-0.06566535 -0.11037194 -0.17853194 0.0050794883 0.08469267 0.059440136 -0.035553943 0.0039233305
00000000: 5ee7 32b9 8e06 2bbd 412a 3b3c 579c c8bc
00000010: 2c3c 843c df30 ee3d 2fc4 1b3d 3f9c 123d
00000020: f5a3 8cbd f44d de3b f9c8 01bd 78e0 59bd
00000030: bac0 debc 1323 05be 537f ed3b 14f0 23bd
00000040: 0e3d 81bc 41e0 4cbd ef50 c73d cb6f 8e3b
00000050: 9448 61bd 1e5c 62be 9aed 97bb 4fc2 81bc
00000060: fab1 8a3c d824 9fbb a929 a73b e9cf 4c3d
00000070: c41e ba3c b72b a83d 5324 a33e d344 743d
00000080: 05c2 bd3d 004a f2bc 2070 5f3d 6560 a7bc
00000090: 900a 6c3d 47ce 27bd e627 ac3c d8ef 8d3c
000000a0: 4768 363d 37b7 1b3d 1ce5 1b3e 38b1 e03d
000000b0: 1a67 b23c 8ba7 7c3d d36f 033d 5393 adbc
000000c0: f745 cf3d 6a02 f43c 0760 d03a ab14 073d
000000d0: 55ca 69bd bb53 06bd a1c5 32bd 9c90 90bb
000000e0: 62fc 443d fb88 d93d 9b9c 1e3d 9d32 183d
000000f0: 71dd 833d 92c7 dabd 07b8 3a3c 257f 793d
00000100: 922b fdbc 93ae 18bd c53f 4a3c 8591 62bd
00000110: 81a3 2abd e711 2f3d 6df6 8b3d f2d5 3fbb
00000120: 6df4 9d3d e9bf 4dbd 81d3 31bd 93e5 a0bd
00000130: ddb5 043d 74ed f0bc e9e9 02bc 9ad2 473c
00000140: 6932 a2bd 01d8 9a3b 9b3b 243c 0172 19bc
00000150: f390 7fbc 2be1 e3bc 1054 40bd 4d56 cabc
00000160: 617f 09bd 1c2f c2bc b401 923c 9c1e 14bd
00000170: 6109 3fbc b1a1 c73c c2eb a73d feb7 9b3d
00000180: 7d31 253d bc37 39bc ee52 073d 94f1 9b3a
00000190: 9ef1 1fbd 6a24 0d3d ed07 20bd 13f3 3e3c
000001a0: 4756 2abc d1f7 8cbd 1ba0 143c f771 11bd
000001b0: f99e bfbd b9bc 3cbc 7382 9abd 7cb8 0fbd
000001c0: 288a e53c 6660 2ebd 8d11 183d 5e7f 68bd
000001d0: 32a9 2d3d 773b 8fbd 644b 05bd 6870 963a
000001e0: 222d 52bd 710b 603d 8c8e a83b cccb 463c
000001f0: 1687 aebd d1ea 0c3d 1098 683c cda0 9a3d
00000200: c18f febb cc73 ebbb d1ae fdbc aea5 19bd
00000210: d218 28bd 7e18 af3c f742 a2bc 042e 613d
00000220: 4c1b 843d 4289 9fbc 1b0b 5e3d 21b3 f53c
00000230: cf5d 93bc 9b5d 883d 0bb5 063e 7b3e 523c
00000240: a5fa c33c febf af3b c82b 37be d76f f4bc
00000250: 9027 243d a395 f8ba f3bf f33b 4c92 0ebd
00000260: 5494 393d 2364 f23d 2e4e 9c3d 9aaa 453c
00000270: 1c31 13bd cb67 b93d 9eb3 53bd c28e c43d
00000280: 2d67 9fbc 50d9 42bd 0ebb e7bc f578 1a3e
00000290: 4df3 b1bc 4c65 33bd c1f8 60bd edbb 85bd
000002a0: 6189 5abd 4251 823d 5d9a 573e 5750 ebbc
000002b0: 037f 383d bbb2 b1bd 3cf1 e03c 7aac 793d
000002c0: 1012 1b3d b2e2 bc3c 41f3 593d a522 363d
000002d0: 7678 9bbd d9ff 503c aa0f 903d 864a 8eba
000002e0: 8d09 a6bc 4311 26bd 2dc4 d93c ae0a 71bb
000002f0: dde3 a73d 848b 8f3d da52 74bd 57ea 18bd
00000300: e5f9 43bc 2dc9 843b 9f83 da3a f4aa e4bb
00000310: 2a7f 263d a21f 15be 3283 1abd 07b3 d63c
00000320: ed65 b23c 4fc7 b7bc 2a5d 2ebd 09bd b13d
00000330: c7fe e6bc a775 22bc 58b1 fe3d cd28 b0bd
00000340: ad20 8c3d 772f 56bc 6ab9 52bd cced fabc
00000350: 075f 52bc ee33 1fbd d80a 723c 4648 b43d
00000360: 30e7 623d e23f 383d f1e3 2c3e 067c 933d
00000370: 99a2 a53c f921 0bbd 5789 f9bc ec55 8fbd
00000380: f366 77bd c459 253d e443 9ebd 90da fd3d
00000390: 94e7 5a3d e6be bcbd cbfe d23c 10dc 4fbd
000003a0: 2273 98bd 382e 103d 864d 3b3d 17ae cfbc
000003b0: e906 023e 6d06 9e3d bb66 f93c d197 d63d
000003c0: 4ce7 cd3c 4fbb edb9 2dba ca3c 38af c53c
000003d0: b267 6cba dcbf 6a3d 73a8 5a3c 74a1 673d
000003e0: 8e7b 86bd af0a e2bd 14d1 36be d671 a63b
000003f0: 5a73 ad3d 8077 733d 03a1 11bd 488f 803b

network_body.linear_encoder.seq_layers.0.bias f4 [64]
0.038341846 0.0082600545 -0.011093846 -0.024487717 0.018117014 -0.0067746947 0.0075578997 -0.0386775
0.02289707 0.02248278 -0.0031211267 -0.015511661 -0.013887097 0.02727275 0.022341546 0.019483782
0.019074388 -0.02454773 0.026272295 0.018059041 -0.0040153665 0.0061878455 -0.027514774 0.026026983
-0.005809514 -0.03588971 -0.015714116 0.0029555003 0.009446761 0.020088017 -0.0059849387 -0.01355894
-0.015724618 -0.016114658 0.039159764 -0.008404939 0.009835188 0.038700406 0.003956933 -0.01285118
0.03480676 -0.025385734 -0.035024002 -0.0034934636 0.0033488928 0.0026007548 0.016395751 -0.012971746
-0.010911301 -0.018013654 -0.03368405 0.016574021 0.014094979 -0.0043850844 0.0196351 0.04824027
-0.008462488 -0.00025458145 0.017246136 -0.02564831 0.005829022 -0.046656605 0.01607285 -0.0021838194
00000000: 570c 1d3d 2e55 073c f6c2 35bc 779a c8bc
00000010: 226a 943c 42fe ddbb 42a8 f73b 4c6c 1ebd
00000020: a392 bb3c cf2d b83c d18b 4cbb 9f24 7ebc
00000030: b586 63bc 1a6b df3c 9e05 b73c 749c 9f3c
00000040: e441 9c3c 5218 c9bc ff38 d73c 8ef0 933c
00000050: 5693 83bb 69c3 ca3b aa66 e1bc 8a36 d53c
00000060: bc5d bebb 1701 13bd e4ba 80bc 11b1 413b
00000070: 96c6 1a3c a08f a43c 4e1d c4bb 5126 5ebc
00000080: ead0 80bc e302 84bc fd65 203d dfb4 09bc
00000090: c523 213c 5184 1e3d 29a9 813b c18d 52bc
000000a0: 8891 0e3d bef5 cfbc 5475 0fbd 98f2 64bb
000000b0: 1979 5b3b 6d71 2a3b 6250 863c 7287 54bc
000000c0: 50c5 32bc 5f91 93bc 49f8 09bd 3ec6 873c
000000d0: a0ee 663c c1b0 8fbb cad9 a03c 9797 453d
000000e0: 3fa6 0abc 5879 85b9 c547 8d3c 681c d2bc
000000f0: 6101 bf3b ff1a 3fbd 36ab 833c 691e 0fbb

network_body.linear_encoder.seq_layers.0.weight f4 [64, 96]
0.027429156 -0.053032648 0.02161764 -0.007974503 -0.045850907 -0.037390165 -0.2135049 -0.14310278
-0.17013985 0.016520139 -0.13844655 0.11275113 -0.16053681 -0.053861376 0.02982692 -0.032761652
0.08291645 -0.14511086 -0.069559075 -0.054981127 -0.002006077 0.1798128 0.13546091 0.0480554
-0.022092285 -0.023386719 0.0033904652 -0.19918695 0.27753958 0.04352793 0.15403646 0.011015943
-0.06554581 0.115548275 0.12306436 0.15878202 -0.09011212 -0.14595449 0.034630302 -0.008123267
-0.058206927 -0.008080853 0.086373776 0.09928724 0.047996793 -0.0054237945 -0.019100817 0.04282395
0.08578904 0.17630662 -0.025466332 0.07191779 -0.08888368 0.08589056 9.483408e-05 -0.26949063
0.036926664 -0.06925222 0.08821046 -0.06898937 -0.12384265 0.07534146 -0.24027608 -0.16001898
-0.07436713 -0.060850065 0.064704016 0.029466366 0.08171554 0.011773269 0.07757004 -0.048499513
-0.042834364 -0.14305589 -0.14546615 0.156418 -0.22293745 -4.3478027e-05 0.08963144 -0.069800094
0.13930538 0.0060222135 0.02511938 -0.24352148 -0.16691919 -0.0535373 -0.23476976 0.1519383
-0.057560544 -0.2121753 0.0031260855 0.031208899 -0.10177092 0.0029027401 -0.043039963 -0.1314539
-0.04478992 -0.10945332 0.06744395 0.13553473 0.016915226 -0.049561385 -0.06321361 -0.00037950644
-0.02782026 -0.09423871 -0.065050595 -0.061051458 -0.028333036 -0.12623307 0.037331194 0.07397067
0.0075622457 0.073261805 0.047637295 -0.11662836 0.021373857 0.028905539 0.058660075 0.07441345
-0.16297323 0.091180205 0.10335014 -0.15957908 -0.24472396 0.34019125 -0.020325733 -0.011270744
0.14277986 0.012133966 0.02183065 0.10706125 0.020191684 -0.07232976 -0.10192104 -0.17844985
0.08917402 3.3791606e-05 -0.11398737 -0.07309894 0.054902267 -0.04352631 0.014442024 0.096203625
0.063343674 -0.22533691 -0.0599401 -0.006268843 0.08769001 0.028124625 0.03618416 0.0457667
-0.011537713 -0.001257373 -0.11443782 0.07453742 -0.010817224 0.016416179 -0.06832941 0.08472335
0.1814604 -0.10234342 0.13118798 -0.12700278 0.02978597 0.084229596 0.065965384 0.038709242
0.10623265 -0.075425 0.046636097 0.005940573 0.024213117 0.054216523 -0.08520237 -0.06391681
0.048191547 -0.34347066 0.07492849 -0.030757384 0.048061922 -0.08605544 -0.06346503 0.15790768
-0.077415735 0.10609494 0.108445555 0.11929124 -0.1388108 -0.17807499 0.0051487903 0.03074288
-0.042490084 -0.025931112 0.033777643 -0.16379157 0.13256124 0.04530565 -0.039994843 -0.033392463
-0.004480125 -0.2760375 0.09771505 0.057329588 0.031583946 -0.04706433 0.0070551615 0.10992235
0.12684162 -0.0247969 -0.03814689 0.10271563 -0.05556914 -0.017961403 -0.18578373 -0.0031649093
-0.09325473 0.034312546 -0.051627055 -0.022663897 0.00997354 -0.14828674 0.018615514 0.062126655
0.14401169 0.16059458 0.059251495 0.054952994 0.101314895 -0.060333155 -0.030945744 0.1295917
0.073570676 -0.06560377 -0.05376505 -0.1180618 0.07751951 0.08912534 0.04993344 -0.16426179
0.009636228 0.011353578 0.11068057 -0.035659157 0.1113107 -0.16949749 -0.0668017 0.06910405
-0.14026344 0.2068843 0.061466448 0.23029563 0.15072119 0.036190167 -0.09580495 -0.004207714
00000000: 1cb3 e03c c338 59bd 7a17 b13c 7da7 02bc
00000010: 29ce 3bbd 6e26 19bd 07a1 5abe 8989 12be
00000020: 2439 2ebe 3e55 873c efc4 0dbe 10ea e63d
00000030: c363 24be bf9d 5cbd 9657 f43c 1531 06bd
00000040: 1ad0 a93d f197 14be fd74 8ebd e433 61bd
00000050: 6378 03bb d920 383e 44b6 0a3e bdd5 443d
00000060: e1fa b4bc 8195 bfbc 9132 5e3b aaf7 4bbe
00000070: ab19 8e3e 584a 323d bcbb 1d3e 377c 343c
00000080: e23c 86bd 93a4 ec3d 2b09 fc3d c197 223e
00000090: b48c b8bd 1875 15be 81d8 0d3d 7417 05bc
000000a0: 636a 6ebd 8e65 04bc bce4 b03d 1c57 cb3d
000000b0: 4998 443d 16ba b1bb 5179 9cbc 2b68 2f3d
000000c0: 2ab2 af3d b989 343e c59e d0bc a249 933d
000000d0: a608 b6bd 64e7 af3d a9e1 c638 adfa 89be
000000e0: 6a40 173d 1cd4 8dbd b0a7 b43d 4c4a 8dbd
000000f0: 37a1 fdbd a04c 9a3d ef0a 76be 04dc 23be
00000100: cb4d 98bd eb3d 79bd 8a83 843d 7363 f13c
00000110: 7a5a a73d abe4 403c 0bdd 9e3d 6da7 46bd
00000120: 1673 2fbd 3e7d 12be 14f5 14be 0a2c 203e
00000130: b749 64be 2d5c 36b8 b090 b73d 5af3 8ebd
00000140: 12a6 0e3e fd55 c53b 28c7 cd3c b25d 79be
00000150: ddec 2abe ee49 5bbd 7c67 70be b795 1b3e
00000160: 9bc4 6bbd 7b44 59be 03df 4c3b cea9 ff3c
00000170: 466d d0bd e63b 3e3b ac4a 30bd da9b 06be
00000180: a375 37bd 1029 e0bd 0e20 8a3d 9ec9 0a3e
00000190: cd91 8a3c e100 4bbd 2376 81bd 7ef8 c6b9
000001a0: 50e7 e3bc 3a00 c1bd 3f39 85bd 1811 7abd
000001b0: af1a e8bc 3e43 01be 98e8 183d ef7d 973d
000001c0: b7cc f73b 490a 963d 531f 433d d9da eebd
000001d0: 3a18 af3c 4fcb ec3c 8c45 703d 1466 983d
000001e0: 74e2 26be b0bc ba3d 3da9 d33d b368 23be
000001f0: eb98 7abe 8c2d ae3e 2782 a6bc eda8 38bc
00000200: e234 123e 8bcd 463c 31d6 b23c ee42 db3d
00000210: 0869 a53c a021 94bd fabb d0bd 8fbb 36be
00000220: dea0 b63d 76bb 0d38 3672 e9bd e6b4 95bd
00000230: 33e1 603d a548 32bd 3d9e 6c3c 6806 c53d
00000240: 54ba 813d b8be 66be c083 75bd de6a cdbb
00000250: d296 b33d 9d65 e63c d735 143d dd75 3b3d
00000260: ad08 3dbc 70ce a4ba 605e eabd 13a7 983d
00000270: ba3a 31bc 397b 863c 4af0 8bbd 7083 ad3d
00000280: c1d0 393e 6d99 d1bd 2456 063e 040d 02be
00000290: b501 f43c 9180 ac3d dc18 873d 958d 1e3d
000002a0: 8190 d93d 6c78 9abd 7e05 3f3d 23a9 c23b
000002b0: 965a c63c 2512 5e3d 957e aebd d1e6 82bd
000002c0: 8064 453d 63db afbe 1c74 993d e9f6 fbbc
000002d0: 94dc 443d d63d b0bd f4f9 81bd 8db2 213e
000002e0: 248c 9ebd 4e48 d93d b418 de3d f74e f43d
000002f0: 6b24 0ebe 4a59 36be 2fb7 a83b 7ed8 fb3c
00000300: 150a 2ebd 7c6d d4bc 6d5a 0a3d fab8 27be
00000310: 22be 073e 6b92 393d a2d1 23bd 89c6 08bd
00000320: 03ce 92bb ca54 8dbe d41e c83d 6ed2 6a3d
00000330: 2b5e 013d 87c6 40bd fc2e e73b f81e e13d
00000340: c5e2 013e de22 cbbc ea3f 1cbd 925c d23d
00000350: 779c 63bd cb23 93bc 173e 3ebe 5e6a 4fbb
00000360: 56fc bebd 508b 0c3d e476 53bd a3a9 b9bc
00000370: 0f68 233c 7bd8 17be 907f 983c 8578 7e3d
00000380: cd77 133e e872 243e b2b1 723d 6416 613d
00000390: 2f7e cf3d e61f 77bd ee81 fdbc b0b3 043e
000003a0: 39ac 963d 455b 86bd be38 5cbd 63ca f1bd
000003b0: 8dc2 9e3d 5987 b63d 0287 4c3d 3e34 28be
000003c0: 45e1 1d3c 5c04 3a3c 7fac e23d 560f 12bd
000003d0: ddf6 e33d c090 2dbe 54cf 88bd 6d86 8d3d
000003e0: 38a1 0fbe 7ad9 533e 3ec4 7b3d 9ed2 6b3e
000003f0: a856 1a3e 243c 143d 6335 c4bd dde0 89bb

network_body.linear_encoder.seq_layers.2.bias f4 [64]
0.0136103425 -0.0056590405 -0.004504209 0.016138457 0.07147239 0.030360743 0.056041673 0.012984732
0.060797323 0.005000492 0.0068231523 0.01689683 -0.021388795 0.018623428 0.06047356 0.02987134
0.00462798 0.025560567 0.061680514 0.027389696 0.034779962 -0.0058920584 -0.0052136923 -0.005614819
0.014777312 0.043055966 -0.005425413 0.006294093 0.006639188 -0.032295294 0.036526173 -0.024952907
0.046466198 -0.025216391 -0.038765572 0.059610154 0.027646327 0.024033805 0.011068264 -0.014982288
0.040493164 0.041642837 0.010249719 0.019105671 0.019702768 -0.013347679 -0.010276566 0.04720865
0.029608525 0.0118100075 0.035883058 0.01767284 0.010415706 0.009520033 0.015550639 0.03558405
0.03889523 0.020028844 0.030512588 0.04609944 0.04980159 0.030591328 -0.03938068 0.012618356
00000000: eafd 5e3c 796f b9bb 0b98 93bb cc34 843c
00000010: 1e60 923d 18b7 f83c f48b 653d eabd 543c
00000020: 9d06 793d 2bdb a33b c094 df3b 396b 8a3c
00000030: 8e37 afbc 2990 983c 20b3 773d beb4 f43c
00000040: 4fa6 973b 6564 d13c b5a4 7c3d 5b60 e03c
00000050: 6f75 0e3d 2b12 c1bb 9fd7 aabb 84fc b7bb
00000060: 8a1c 723c 745b 303d aac7 b1bb ae3e ce3b
00000070: 8c8d d93b 1248 04bd 789c 153d 0a6a ccbc
00000080: 5753 3e3d 9b92 cebc a6c8 1ebd c729 743d
00000090: 8d7a e23c 8be2 c43c aa57 353c 4578 75bc
000000a0: 29dc 253d ae91 2a3d 70ee 273c 7f83 9c3c
000000b0: b367 a13c 39b0 5abc 0b5f 28bc db5d 413d
000000c0: 948d f23c c37e 413c 1dfa 123d a2c6 903c
000000d0: a3a6 2a3c eaf9 1b3c 1bc8 7e3c 95c0 113d
000000e0: 9b50 1f3d 8813 a43c 89f5 f93c c4d2 3c3d
000000f0: c1fc 4b3d aa9a fa3c a34d 21bd 39bd 4e3c

network_body.linear_encoder.seq_layers.2.weight f4 [64, 64]
-0.11377539 0.012501143 0.14318311 0.121721156 0.044326805 -0.07493149 -0.15372817 -0.19841273
-0.08478173 0.34564215 -0.17131637 -0.04610116 -0.14558102 0.030966364 0.14876918 0.009214621
-0.023847332 -0.07460438 0.3064575 -0.05872204 -0.03612018 -0.19805567 0.029460914 -0.07958821
0.030562919 0.101826034 -0.21641028 -0.14227098 -0.081240885 0.022959657 0.17946254 -0.06860114
-0.03147908 -0.07917186 0.06180416 0.01933928 0.3508403 -0.103915796 0.23004523 0.121903166
0.10808823 0.020540975 0.058889616 -0.22305848 0.17044455 -0.096110426 0.061955 -0.25831863
-0.1523435 -0.14379933 -0.04143726 -0.073836654 -0.14952624 -0.09781459 -0.09469745 0.017551214
-0.003657298 -0.067850344 0.17141569 -0.26258454 -0.20760974 -0.21108751 0.029547818 0.11991087
0.18749459 -0.05124426 0.21897253 0.15344311 0.21707712 0.19915742 -0.21536438 -0.01503305
0.009038743 -0.0841633 0.13268678 0.1281769 -0.015971702 0.1064198 -0.20910299 -0.27582842
0.09288296 -0.13727239 -0.008398569 0.0017929116 -0.3009301 -0.27982998 -0.08959081 -0.19117233
0.11279604 -0.023282647 -0.06510568 0.11508985 0.15840825 0.096488915 0.27493256 0.14903466
0.048015196 -0.06926437 -0.10867724 -0.33500108 -0.03027357 0.15523617 -0.10938891 0.27789143
0.22636592 0.121140786 0.074207544 -0.0023866773 0.092852 0.09113471 0.10773291 -0.05295292
0.21927364 0.11243279 -0.23069534 0.12547189 0.116553776 -0.12978023 -0.19262151 0.05118691
-0.29370177 0.14254177 0.0064336336 -0.051757835 0.035863217 0.09131441 -0.01339922 -0.04738131
0.168367 -0.08127583 0.087884076 0.1021634 -0.09446727 0.07107897 0.1691512 -0.00460355
-0.021004463 -0.04014925 -0.022681074 -0.030880976 -0.15571584 -0.111825034 -0.1276061 -0.08687353
0.18869525 0.13604602 0.02102341 0.16887 -0.08517511 -0.15254764 0.14619668 -0.09370396
-0.092386805 -0.18297656 0.17083998 0.10739517 -0.03017957 -0.023712803 -0.06513464 -0.04453889
-0.18067752 0.23652065 -0.004290325 -0.15957114 -0.09679577 0.16110909 -0.10122505 0.19518709
-0.07888971 0.37491393 0.025236044 -0.11444044 -0.11253062 -0.2384845 -0.17040852 0.06336971
0.08048599 -0.010153043 0.1774878 0.2142242 0.06771952 0.22124273 -0.02170851 0.09237099
0.024636818 -0.014450449 -0.052839026 -0.024917915 -0.037281074 0.1565745 -0.016119856 0.087221734
0.04741434 -0.048297834 -0.0042393627 -0.020001367 -0.13199309 0.11479343 0.113879696 -0.028146127
-0.10426882 -0.032164276 0.031079136 0.028308446 0.11991547 0.10278275 0.12359036 -0.093796745
-0.04518285 -0.052870944 0.30546033 0.13933459 0.20939633 0.03761393 0.11476417 0.25627273
0.2298487 0.21384533 0.00702429 0.3013071 0.097246446 0.1230287 0.08523585 0.112390034
-0.08187509 -0.085197344 -0.30106342 0.021072404 0.04242681 -0.104598336 -0.011179774 0.24826752
0.053439908 0.048869014 0.21204342 0.06866369 -0.03461037 -0.058634434 0.0866428 -0.12982164
-0.0903646 0.014348988 -0.13480777 -0.060954064 -0.27990732 0.0042851674 -0.10064556 -0.20797098
-0.16504304 -0.0054269307 -0.16618273 -0.17804435 -0.15632169 -0.13691822 0.32252964 0.066922925
00000000: 1203 e9bd 98d1 4c3c 989e 123e f148 f93d
00000010: 0690 353d ae75 99bd eb6a 1dbe b52c 4bbe
00000020: 0ba2 adbd 02f8 b03e 8f6d 2fbe 92d4 3cbd
00000030: 3113 15be 2cad fd3c f356 183e ecf8 163c
00000040: 7b5b c3bc 2eca 98bd ffe7 9c3e 8686 70bd
00000050: c1f2 13bd 1bcf 4abe 0458 f13c 25ff a2bd
00000060: 165f fa3c 2b8a d03d a89a 5dbe 7caf 11be
00000070: 9f61 a6bd e415 bc3c 07c5 373e c17e 8cbd
00000080: 35f0 00bd db24 a2bd 5c26 7d3d 696d 9e3c
00000090: 57a1 b33e ced1 d4bd fa90 6b3e 5ea8 f93d
000000a0: 5d5d dd3d 8c45 a83c 3d36 713d 7169 64be
000000b0: 0489 2e3e 8bd5 c4bd 87c4 7d3d 5742 84be
000000c0: efff 1bbe 2240 13be 1eba 29bd ac37 97bd
000000d0: 681d 19be 0453 c8bd bdf0 c1bd 90c7 8f3c
000000e0: 47af 6fbb 1ff5 8abd 9887 2f3e 7b71 86be
000000f0: a697 54be 5327 58be 440e f23c d593 f53d
00000100: 95fe 3f3e 80e5 51bd 563a 603e 3120 1d3e
00000110: 7749 5e3e ecef 4b3e 7b88 5cbe 2f4d 76bc
00000120: 3c17 143c cf5d acbd 0bdf 073e ce40 033e
00000130: 16d7 82bc a0f2 d93d 181f 56be 6239 8dbe
00000140: 6c39 be3d 2291 0cbe 279a 09bc 2100 eb3a
00000150: 8313 9abe e045 8fbe 637b b7bd aec2 43be
00000160: 9c01 e73d 40bb bebc 2056 85bd 3ab4 eb3d
00000170: c635 223e fb9b c53d f6c3 8c3e 8b9c 183e
00000180: 95ab 443d 7ada 8dbd 2c92 debd 4385 abbe
00000190: 4700 f8bc 3bf6 1e3e 4b07 e0bd c947 8e3e
000001a0: 78cc 673e a918 f83d 20fa 973d cd69 1cbb
000001b0: 3029 be3d d6a4 ba3d 12a3 dc3d 29e5 58bd
000001c0: 4589 603e 2a43 e63d 663b 6cbe b47b 003e
000001d0: bfb3 ee3d 1ce5 04be 933e 45be 5ea9 513d
000001e0: 1460 96be 78f6 113e 3bd1 d23b 0600 54bd
000001f0: 4fe5 123d 0d03 bb3d 6788 5bbc e812 42bd
00000200: 6668 2c3e f173 a6bd 91fc b33d 0b3b d13d
00000210: 0e78 c1bd da91 913d f935 2d3e 60d9 96bb
00000220: 8d11 acbc 8a73 24bd a9cd b9bc 1afa fcbc
00000230: f973 1fbe 8604 e5bd 2cab 02be c0ea b1bd
00000240: 5439 413e a64f 0b3e 4939 ac3c 42ec 2c3e
00000250: 4a70 aebd 7335 1cbe 95b4 153e dde7 bfbd
00000260: 4b35 bdbd 355e 3bbe adf0 2e3e 00f2 db3d
00000270: 253b f7bc 5a41 c2bc 4f65 85bd 696e 36bd
00000280: 8703 39be 7832 723e db95 8cbb 9e66 23be
00000290: dc3c c6bd c8f9 243e 144f cfbd 20df 473e
000002a0: ee90 a1bd b8f4 bf3e d2bb ce3c c05f eabd
000002b0: 7476 e6bd 4835 74be 927f 2ebe fbc7 813d
000002c0: d7d5 a43d f358 26bc 5dbf 353e 975d 5b3e
000002d0: 88b0 8a3d 748d 623e 0cd6 b1bc 002d bd3d
000002e0: 27d3 c93c 93c1 6cbc bc6d 58bd a820 ccbc
000002f0: 0ab4 18bd 1155 203e ca0d 84bc 4fa1 b23d
00000300: 8a35 423d f3d3 45bd 5aea 8abb e8d9 a3bc
00000310: 3229 07be d118 eb3d c239 e93d b592 e6bc
00000320: e48a d5bd b0be 03bd ac99 fe3c 1de7 e73c
00000330: 3e96 f53d c37f d23d f11c fd3d 8218 c0bd
00000340: a711 39bd 348f 58bd 4c65 9c3e baad 0e3e
00000350: fe6b 563e 1011 1a3d 7a09 eb3d 2e36 833e
00000360: 755d 6b3e 45fa 5a3e 042c e63b ed44 9a3e
00000370: 2529 c73d 79f6 fb3d 2290 ae3d bf2c e63d
00000380: 21ae a7bd f27b aebd fc24 9abe 09a0 ac3c
00000390: bcc7 2d3d a737 d6bd 5f2b 37bc d739 7e3e
000003a0: cee3 5a3d e02a 483d e921 593e 8c9f 8c3d
000003b0: 9ac3 0dbd a92a 70bd c871 b13d f7ef 04be
000003c0: 1311 b9bd 0518 6b3c 0c0b 0abe f8aa 79bd
000003d0: 0350 8fbe 976a 8c3b 421f cebd 58f6 54be
000003e0: 0b01 29be 65d4 b1bb ce2b 2abe 4251 36be
000003f0: cb12 20be 4a34 0cbe 9b22 a53e e30e 893d
