results/ppo/BadChessPlayer/BadChessPlayer-2265.onnx (onnx, 161972 bytes, 18 tensors)

action_model._discrete_distribution.branches.0.bias f4 [9]
00000000: 0000 0000 0000 0000 0000 0000 0000 0000
00000010: 0000 0000 0000 0000 0000 0000 0000 0000
00000020: 0000 0000
0.0 0.0 0.0 0.0 0.0 0.0 0.0 0.0
0.0

action_model._discrete_distribution.branches.0.weight f4 [9, 128]
00000000: 3a16 9c3b f488 363c 97d9 313c 5f48 75bb
00000010: 6d60 5e3c cdc2 8a3c 4a43 493c 6b98 013c
00000020: 21f5 043c 5dd5 5d3c 255c 20bb eab1 783c
00000030: 39ef 913c 0583 fb3b dc82 aebb 16ca 423c
00000040: 87b5 b4bb 27f8 e63a 8ab6 32bb a4ad 39ba
00000050: 6300 78bb cb8e e6b9 2d5d c2bb 47d3 563c
00000060: afa5 84ba 97c5 21bc 2d36 a2bc efde d53a
00000070: 0341 30bb d7b3 d83b 218b 8dbc ddc0 ed39
00000080: 353f 60bc 27c0 c6b9 636d 7fb9 29c3 3ebc
00000090: 8a07 203b dd0e a03a 4faf 893c 0d02 2fbc
000000a0: a660 c23b b1d5 3f3a f379 6bbb b8a3 df3b
000000b0: aad4 df3b 35f1 363c 380a f5bb d87a a9bc
000000c0: 2d56 2e3c 84ac 08bc 35cb ea3b 7a81 023c
000000d0: 884c 003c b0ca 31bc 834a 513b 74f0 113c
000000e0: eaa8 b8bb f358 b53b 5a61 0c3b ec21 8a3b
000000f0: 1813 383b 33fe 9e39 d0c8 17bc 07e9 5e3b
00000100: 9640 cb3b e70e 8bbb f75d a0bc 26a5 163c
00000110: 6aab f1bb 8733 823c 3714 68bb 3311 453c
00000120: c33c adbb aa16 043b 7f9a 72bc ce1f 993c
00000130: 1646 1239 3349 9ebb 40b4 db3a 1d89 cbbb
00000140: 8706 1cbb 1b6a a03b 4e9f 1fbc cce1 b4ba
00000150: e7ca 2a3c b796 553b 791a 913b 4f4d 08bb
00000160: 58ef ea3b a6b9 35bc d416 acbb 065c 8d3c
00000170: 0538 10bb d723 97bb 47c7 5dbc e755 81bb
00000180: c228 a938 f169 9b3c 97bd 983b 6f99 76bc
00000190: 7a3f b6bb 2fae bb3b 251c a73c 6b18 6fbb
000001a0: e567 adba c838 f4bb f3f2 393c 5fef b63b
000001b0: b018 d23b 435c d4ba 74ec 0f3c 1c4c 1c3a
000001c0: b5ac 9b3c 67ee 443c 7a59 78bb 83e9 623b
000001d0: 370b 633c 9113 1abc aa80 51bc 6230 99bb
000001e0: 486d 5abb 401c faba 734a 843b 97e8 913b
000001f0: 145f a73b 8b0e 27bc 8f65 ae3b 0927 43bc
00000200: 6d7e 63bb da55 5d3c bb2d afbb e75b 38bc
00000210: 1aee 683c a972 c0bb 67df 4dbc 94cd 40bc
00000220: 0726 dabb efc0 9dbc 3d27 ea3b 5e35 4cbc
00000230: efd1 7a3a def2 05ba 536a 033c a8f1 8aba
00000240: af76 3fbc d24f d33b eb2c 1a3b 2488 133c
00000250: 135e a3bb f8a9 833b 1a40 a33a a90f 973a
00000260: 2f74 8bbb db0f 4539 e17c bcbb a0da a4bb
00000270: 9fbf 06bc ed9e 323a cba4 c93b 7bcc 08bc
00000280: 346b 1dbc 8fbf 0dbc d82a 23bb 8b52 49bc
00000290: 08a8 22bb 9cf3 333c 6b22 183c 0754 8f3c
000002a0: 1f03 ffbb f819 513c 10fc ebbb 8992 19bb
000002b0: 8cc4 89bb cbde 92b9 ba7a c2ba d712 e138
000002c0: 95f5 4bba 6724 ee3b bfe3 c23b 1306 8abb
000002d0: c8f6 ad3b 80b0 e13b 9d24 61bb 03f9 76bc
000002e0: 46bd 2d3b fe23 a23c 406f 85ba 3772 90ba
000002f0: 3e8e 26bc 4c9f 92bc 2ca4 19bb f303 863a
00000300: 7730 c53b 2489 2e39 4ad4 ea3a 7a2c f4b8
00000310: 57ad 393c a6a3 beb9 5317 573c 90e1 4c3b
00000320: 267c a2b9 5343 c03b 82c1 e0ba 03c2 d03b
00000330: fca9 243c a395 f0b9 1397 d4ba a290 a9bc
00000340: 6779 a2bb 3576 25bc 3f4b dc3c e349 f33b
00000350: 99ac 933a 4b2a c7bb 2ab1 37bc e09c 633c
00000360: a795 1ebb e8b5 63bc 8de9 643b a922 40bc
00000370: 9701 2f3c 7351 123c 6a93 5439 e524 58bc
00000380: 14ed 153c 42ae 9cbb d278 e13b 53bc 6dbb
00000390: b06f 8abc 6b6e 7dbb a5ce 42bb 0696 3bbc
000003a0: 3c1e 0c3c 2277 3eba 7dfa 5f3b 2a41 72bc
000003b0: bfa8 733b b2fc bdba 485e 723b b024 5b3a
000003c0: ff9b 28bc fda0 07bb 454f fd3b 3b5e 01bb
000003d0: fcc3 90bb 14b6 273a 27db fc3a 7efe b73b
000003e0: 6bb9 56bc 9c98 10bc 63c7 093c 4add c8ba
000003f0: e8c7 f0bb b664 b1bc ff86 8bbc fb42 193c
0.004763392 0.011141051 0.0108551 -0.003742717 0.013572794 0.016938591 0.012284109 0.007909874
0.008115084 0.013539639 -0.0024468985 0.015179137 0.017814266 0.007675531 -0.0053256582 0.011889001
-0.005514804 0.0017621563 -0.0027269446 -0.00070830644 -0.0037842027 -0.00043975408 -0.0059315176 0.013111896
-0.0010120178 -0.009873769 -0.019801224 0.001631705 -0.0026894219 0.0066132355 -0.017278256 0.00045347857
-0.013686945 -0.00037908668 -0.00024359445 -0.0116432095 0.0024418556 0.0012211461 0.016807226 -0.010681641
0.0059319315 0.0007317914 -0.0035930842 0.0068249367 0.0068307715 0.011165907 -0.007478025 -0.02068846
0.010640663 -0.008341912 0.0071653374 0.00796544 0.0078307465 -0.010851547 0.0031935282 0.008907426
-0.0056353705 0.005534285 0.002142033 0.0042154696 0.0028087553 0.00030325502 -0.009264186 0.0034013407
0.0062027676 -0.00424372 -0.019576056 0.009194648 -0.0073751705 0.01589371 -0.003541244 0.012028026
-0.0052867844 0.002015511 -0.014807343 0.018691923 0.00013949754 -0.0048305034 0.0016762093 -0.0062114135
-0.0023807602 0.0048954613 -0.009742571 -0.0013800203 0.010424352 0.0032591054 0.0044282046 -0.0020798033
0.0071696453 -0.011091625 -0.0052517448 0.017255794 -0.0022006046 -0.0046124267 -0.013536281 -0.003947008
8.06614e-05 0.018971415 0.0046612727 -0.01505123 -0.005561766 0.0057275514 0.020399163 -0.003648306
-0.0013229816 -0.007453058 0.0113494275 0.0055827345 0.0064116344 -0.0016201813 0.008784402 0.0005962269
0.019003252 0.01201973 -0.003789513 0.0034624047 0.013857654 -0.009404079 -0.012787024 -0.004674957
-0.0033329297 -0.0019081905 0.0040371954 0.0044527757 0.0051077697 -0.010196338 0.0053221653 -0.011911162
-0.0034712807 0.013509238 -0.0053460277 -0.01125238 0.014216924 -0.0058730436 -0.01256547 -0.011767764
-0.0066573652 -0.019257037 0.007145791 -0.012463896 0.00095680257 -0.00051097374 0.008020955 -0.0010600584
-0.011686011 0.0064487243 0.0023525308 0.009004626 -0.0049855798 0.0040180646 0.0012455017 0.0011525053
-0.0042557935 0.0001879329 -0.0057521914 -0.005030945 -0.008224397 0.0006813843 0.006153678 -0.008349533
-0.009608079 -0.008651628 -0.0024897363 -0.012287746 -0.0024819393 0.010983374 0.00928555 0.017496122
-0.0077823545 0.012762539 -0.007201679 -0.002343329 -0.0042043384 -0.00028013284 -0.0014837601 0.00010732345
-0.000778043 0.007267523 0.0059475596 -0.00421215 0.0053089596 0.0068874955 -0.0034354099 -0.015074017
0.002651052 0.019792553 -0.001018025 -0.0011020367 -0.010165749 -0.017898224 -0.0023443801 0.0010224566
0.0060177404 0.00016645022 0.001791605 -0.00011643111 0.011332831 -0.00036361552 0.0131281195 0.0031262375
-0.00030991546 0.0058674007 -0.0017147514 0.0063707842 0.010050293 -0.00045887855 -0.001621934 -0.02069885
-0.00495832 -0.0100989835 0.026891349 0.0074245795 0.0011266648 -0.0060780398 -0.011211673 0.013892382
-0.0024198086 -0.01389835 0.0034929246 -0.011727014 0.010681531 0.008930552 0.00020272812 -0.01319239
0.009150762 -0.0047815153 0.006880858 -0.003627558 -0.01689896 -0.003867055 -0.002972522 -0.011449343
0.00855213 -0.0007265677 0.0034176402 -0.014786044 0.0037179438 -0.0014494865 0.0036982466 0.0008359654
-0.010291099 -0.0020695322 0.007730397 -0.0019740004 -0.0044178944 0.0006397676 0.0019291387 0.0056150546
-0.0131057305 -0.008825447 0.008409354 -0.0015324738 -0.0073480494 -0.021654468 -0.017032145 0.009354348

action_model._discrete_distribution.branches.1.bias f4 [29]
00000000: 0000 0000 0000 0000 0000 0000 0000 0000
00000010: 0000 0000 0000 0000 0000 0000 0000 0000
00000020: 0000 0000 0000 0000 0000 0000 0000 0000
00000030: 0000 0000 0000 0000 0000 0000 0000 0000
00000040: 0000 0000 0000 0000 0000 0000 0000 0000
00000050: 0000 0000 0000 0000 0000 0000 0000 0000
00000060: 0000 0000 0000 0000 0000 0000 0000 0000
00000070: 0000 0000
0.0 0.0 0.0 0.0 0.0 0.0 0.0 0.0
0.0 0.0 0.0 0.0 0.0 0.0 0.0 0.0
0.0 0.0 0.0 0.0 0.0 0.0 0.0 0.0
0.0 0.0 0.0 0.0 0.0

action_model._discrete_distribution.branches.1.weight f4 [29, 128]
00000000: 4f1b 3fbb c7c5 243c 7e52 103c 44e1 0c3b
00000010: 681a be3b bfa9 273b b247 8fba f4d0 0bbc
00000020: 42c6 893a a3fd 933b df1d ef3a 31cc c53b
00000030: 32b1 a2ba 1bb4 bc3a 9910 2c3c a717 573b
00000040: 110a bb3b 7b74 523c d430 063c 884b 4c3b
00000050: aabb 753c ba96 51bb df9c adbb 88b4 ea3a
00000060: 3eb0 4a3c c2e6 023c 9d84 0bbc 37ef 4fbb
00000070: 2f7b 12bc 4e58 353b 0a56 eabb f294 103c
00000080: a4e6 253c 8150 a03c a56d 00bb 0b67 d93b
00000090: 1d10 26bc 1cf7 133b 2728 ae3c 6a05 dfba
000000a0: 2b63 903b ad17 1fbc 28ca f8b9 c35f 77bb
000000b0: 1cf2 aaba 8b5a 85ba 5d00 ea3b 0a90 913b
000000c0: acf9 98bb 8806 7abc 331e 6abb 9d68 603b
000000d0: 1f66 e1bb 2d4f 9a3a 0842 0b3c aedb 313c
000000e0: eed1 863b 5387 cc3b 3f11 bebb b5b7 d73b
000000f0: 4e01 ab3c afd7 023b 1117 23bb a68c 3c3c
00000100: 1dc3 9fbb aa82 3cba eda9 69b9 e21b 61bb
00000110: 2814 1fbc 8b4b a5ba c731 2b3c 68e3 d43b
00000120: 6898 bcbb bedb 423c 1f30 03bb dda0 343b
00000130: f231 7c3b 2b0e b0bb 2f1d e838 fbbd 65bc
00000140: a097 b7ba e326 5bbc bbe2 913b 7007 5cbc
00000150: 1bc3 cebb 5c65 b8ba e7a0 0b3c 822a be3a
00000160: 8186 15bc a3c9 2dbc 5e56 1d3c d89d 66b9
00000170: 15f4 283a 1359 a73c 17f8 2b3b 7df9 ce3b
00000180: b594 ffbb 9a4c d5bb 4fe2 04bb 439d 63bb
00000190: 72f8 42bc 13ea 05bb 97af 523a f41d 963a
000001a0: 039f 49bb 6b0a 33bc f838 86bc 6296 4b3c
000001b0: 4808 b03a e29c b4ba f854 723c b7b8 8bbb
000001c0: 4c25 1f3a f61f 023b 638c 25b9 7f6f 693b
000001d0: cdfa b83b 5b1a 723a e32d 403b 7dcd c13b
000001e0: f5ae ecbb 6000 84bc 4f09 40ba 7c0d 293c
000001f0: 1580 07bc 9a4d f43a 44cf 493b 83ed e83a
00000200: 0a93 1c3c c172 083b da14 73bb 3f90 03bc
00000210: cfb5 1fbc 1f08 0f3c 85a3 013c 0032 72bb
00000220: 77ab 82bc fc02 a3bb 9ad3 b7bb 4f75 d53b
00000230: e7e0 d0bb 6e27 c2bb c338 db3b 772a 623b
00000240: 1ff2 4abb 43a2 45ba 2c83 043a 7b18 e93a
00000250: 92e1 82bc a750 443b c7b1 263b e741 59bc
00000260: 77f6 69bb 00d3 73ba dd8c 73bc 3b5c 46bb
00000270: 7fe2 7a3c 737e 18bc b5b5 e63b ec74 803c
00000280: 87e5 e939 733f 9a3c eb47 a23b 23bb 633a
00000290: 06c7 8f3c 63e5 62bb 0b03 ab3b ac50 193a
000002a0: df6f 853c 8b65 3f3c 6576 893a 72f5 c6bb
000002b0: 6b88 a13b c229 d539 51cd 483b 1e9a 1dbb
000002c0: a6f2 423c 8f0a 643c 5b02 e63b 20ac 883b
000002d0: 6886 6f3c fad0 ea3b 7a63 4b3c c8ce d4ba
000002e0: c371 13bb d87a 113c 9a4c 16bc 2329 2abc
000002f0: e2f8 a43b 7c13 203b c743 f13a 2f37 fd3b
00000300: a70c 413b 071d 87bb ce8d 19bb 5355 803a
00000310: 3b2b 1dbc 4076 4d3c 516c 34bc c2b8 723b
00000320: 7f3d 3e3c 06ab 17bc 9b71 8f3b 0556 05ba
00000330: fb7b b93a 982b ce3b d782 4abb 597b caba
00000340: bef6 393c 6342 1ebc c055 87ba b77b d73a
00000350: 8d7d deb9 e0dd 6d3b 4bc3 433b 4e32 1c3c
00000360: c73f cfbc a5be 20bb af08 133c 2dbe c0bb
00000370: 7701 983c 1776 fb3b 67dc 8a3c 55fb fe3b
00000380: 12ed a83c bd4d 36bc e0df c0bc 3a7e d03b
00000390: c758 a63a 2053 6e3c 2a1d 6ebb 6507 903b
000003a0: 437f 2e3a d7e2 803b f0e9 7dbb fdb1 b83b
000003b0: 83c6 67ba 0591 bb3a e7df ed3a bf7f a3bb
000003c0: 7c9d bcb9 279b bdba 0f2d dbbb 83aa e53b
000003d0: 7df8 e03b efc9 a63b 6feb 20bb 1725 ae3b
000003e0: d870 e3bb 1b32 e43b e0c3 d5bc cb5e 28bc
000003f0: 3dfb 853c 3a77 d3bb 9f22 293c a322 cf3b
-0.0029160564 0.010056919 0.00880873 0.0021496573 0.0058014877 0.0025583354 -0.0010931401 -0.008533705
0.0010511356 0.00451632 0.0018243155 0.0060363044 -0.0012412427 0.0014396937 0.010502004 0.0032820494
0.005707987 0.012845154 0.0081903525 0.003117295 0.014998356 -0.003198071 -0.0052982415 0.0017906586
0.012371121 0.007989587 -0.008515504 -0.0031728277 -0.008940502 0.0027671042 -0.00715137 0.008824574
0.01012579 0.019569637 -0.0019596603 0.006634598 -0.010135678 0.0022577709 0.02125938 -0.0017015163
0.004406353 -0.009710235 -0.00047452864 -0.0037746287 -0.0013042125 -0.0010174079 0.0071411566 0.0044422196
-0.004668435 -0.015260346 -0.0035723567 0.0034242042 -0.006878629 0.0011772864 0.00849963 0.010855598
0.004114381 0.006241718 -0.0058003957 0.006583179 0.020874646 0.0019964983 -0.0024885575 0.011508143
-0.0048755542 -0.00071911013 -0.00022283914 -0.0034348895 -0.0097093955 -0.0012611015 0.01044888 0.0064968355
-0.005755473 0.011893211 -0.0020017696 0.0027561702 0.0038481918 -0.0053727827 0.00011068058 -0.014022346
-0.001400698 -0.013375971 0.004452077 -0.013429508 -0.0063098795 -0.0014068293 0.008522249 0.0014508518
-0.0091263065 -0.010607156 0.009603111 -0.0002199331 0.00064450625 0.020428216 0.0026240402 0.0063163624
-0.0077997097 -0.0065093758 -0.0020276492 -0.0034731186 -0.011900054 -0.0020433709 0.0008037029 0.0011453019
-0.0030764944 -0.010927777 -0.016384587 0.012425991 0.0013430202 -0.0013779665 0.014790766 -0.004263963
0.00060709263 0.0019855476 -0.00015787924 0.0035619435 0.005645132 0.00092354947 0.0029324226 0.0059143887
-0.007223005 -0.01611346 -0.0007325606 0.010318156 -0.008270283 0.001863885 0.0030793706 0.0017770979
0.009556541 0.0020820352 -0.0037091286 -0.008029996 -0.009747936 0.008729964 0.007912521 -0.0036956072
-0.015950901 -0.004974721 -0.0056099417 0.0065142284 -0.0063744667 -0.0059251105 0.006690116 0.0034510174
-0.003096707 -0.00075391325 0.00050549465 0.0017783785 -0.015976701 0.00299553 0.0025435553 -0.013260341
-0.0035699883 -0.0009301156 -0.014865127 -0.0030267376 0.01531279 -0.009307492 0.007040704 0.015680753
0.00044612234 0.018829083 0.004952421 0.00086872483 0.017550956 -0.0034621588 0.0052188686 0.0005848508
0.016288696 0.011681925 0.0010487555 -0.00607174 0.0049295924 0.00040657638 0.0030639956 -0.002404816
0.011898672 0.013918533 0.0070193238 0.0041709095 0.014619447 0.007166025 0.012413854 -0.0016235942
-0.0022498227 0.008879386 -0.009173537 -0.010385784 0.005034552 0.0024425676 0.001840704 0.0077275257
0.0029457004 -0.0041233334 -0.002343047 0.0009791054 -0.0095928265 0.0125404 -0.011012153 0.0037036394
0.0116113415 -0.009257084 0.0043775565 -0.0005086365 0.0014151329 0.006291818 -0.003090074 -0.0015448137
0.011350332 -0.0096593825 -0.0010325238 0.0016440068 -0.00042436682 0.0036295578 0.0029871042 0.009533478
-0.025298966 -0.0024527695 0.008974238 -0.0058820457 0.018555386 0.0076739895 0.0169508 0.007781426
0.020620856 -0.011126933 -0.023544252 0.0063627036 0.0012691253 0.014546186 -0.00363333 0.0043954127
0.0006656537 0.0039332914 -0.0038744174 0.005636452 -0.0008841531 0.0014310187 0.0018148393 -0.0049895938
-0.0003597549 -0.0014465795 -0.006688721 0.007008852 0.0068655596 0.0050899903 -0.0024554392 0.00531448
-0.0069409423 0.006963981 -0.026094377 -0.010276507 0.016355151 -0.006453422 0.010323196 0.0063212677

action_model._discrete_distribution.branches.2.bias f4 [29]
00000000: 0000 0000 0000 0000 0000 0000 0000 0000
00000010: 0000 0000 0000 0000 0000 0000 0000 0000
00000020: 0000 0000 0000 0000 0000 0000 0000 0000
00000030: 0000 0000 0000 0000 0000 0000 0000 0000
00000040: 0000 0000 0000 0000 0000 0000 0000 0000
00000050: 0000 0000 0000 0000 0000 0000 0000 0000
00000060: 0000 0000 0000 0000 0000 0000 0000 0000
00000070: 0000 0000
0.0 0.0 0.0 0.0 0.0 0.0 0.0 0.0
0.0 0.0 0.0 0.0 0.0 0.0 0.0 0.0
0.0 0.0 0.0 0.0 0.0 0.0 0.0 0.0
0.0 0.0 0.0 0.0 0.0

action_model._discrete_distribution.branches.2.weight f4 [29, 128]
00000000: 3f01 423c 6fcc d2ba 16d9 053c cd6e 9fbb
00000010: 5884 bfbb ab28 4cbc d708 8bbb 8112 95bb
00000020: 851d f7bb 7711 00bc 6dc6 febb e0e2 063c
00000030: e32b 5a3a 844a 38bc 0284 d23b 5898 4ebb
00000040: 3b15 d7bb 3f26 533c 6cc8 b23b c1bc 00bc
00000050: 72dc 953b b2f9 d53a 1ba2 ea3b 100d a2bc
00000060: 477b 98bc 740c 25bb cf44 74bb 9a05 05bb
00000070: 7b67 94bb 47ce dabb 500d fd3a 3203 6b3c
00000080: af96 afbb 5099 b0bb fa63 fbba e43a c63b
00000090: 8328 013c 6bfa 4b3c 0357 32bb 757f 153c
000000a0: 1263 80bc 8f7d f7bb 72e3 b2bb 4286 e0bb
000000b0: 5b5d 553c f80b 5cbb 907a feba a991 bb3b
000000c0: a0cf 073c 811d 9f39 c40e 283b 79a3 1d3c
000000d0: b340 68bb 3478 2b3b a97f cb3b 2f56 313c
000000e0: ef67 08bb e392 3e3a 6fc4 093c be0a 0a3c
000000f0: 93ab be3c 089e 893b 47a0 6abc c588 833b
00000100: 1005 b0ba dbfe 46bc 3f97 793c 2733 573c
00000110: cdd7 e1ba fbba ca3b cd67 c2ba 27cf 4e3c
00000120: 2eb7 033c 5770 233b 4757 633c fadf 3cbc
00000130: 1da4 4bbc 224a 393b 6a79 383c 358f 573c
00000140: e3c2 723b 0885 efbb 278f 44bb 178a 893b
00000150: 4f0c f43b fbb1 9e3a 6b36 5bbc 5503 8bbb
00000160: ebf1 513c 5a7b cf3b 4623 1f3c e0fc ae3b
00000170: 639e acbb 3081 45bc c39e e7ba c319 bcba
00000180: c134 a5bc d2bc 293b cb3b ba3b c513 a2bb
00000190: 609d d13a 6a9f 3a3b f540 ab3b a593 e2ba
000001a0: c724 ebbb 61f5 953b 2a00 a5bb 072f 5cbb
000001b0: e1f2 ab3b e508 4c3c 89b5 033c 777f 083c
000001c0: 90c1 483b 5955 0a3b daf0 71bc 2fe8 bcbb
000001d0: 2faf b0bc f58d 3fbc 4aef dabb f443 c3bb
000001e0: 30b7 bdbb a516 d5bb 5b42 f83a cdc2 c2ba
000001f0: 1f2d 923a 3dfb 7a3b cb9f 703b f0eb 093c
00000200: 577d 393c 79b2 c8bb 0561 4bba c9b0 89bb
00000210: cd96 683c a28a 2fbc 3d7d 7c3b 1fd0 0c3c
00000220: 8994 843b 670d 013a e401 14bc 3997 4b3c
00000230: 030f 6d3b bbf2 2ebb 173b 59bc 936d 993c
00000240: 22dd 02bc 4a79 513c 2ecf 99bc 9313 b23a
00000250: 4f2a 33bc 54f5 0c3b e33e 05bc cb1a bebb
00000260: e9a2 94bb b83d 263c 7ab5 d63a ecf8 463b
00000270: e80e 113b 29a0 a3ba 474a d5ba 2af6 4c3c
00000280: 5bd1 ebbb 7265 e23b d492 b7bb 5013 4a3b
00000290: 6ab7 1239 ae19 873c 4937 adbb bf8d 96bb
000002a0: 2561 93b9 65bb 803c a7a0 d73b a346 013a
000002b0: 0fad 5cbc 183b 3cbc 1f9f 2cbc 8f68 123b
000002c0: a79c 5d3b d5a9 cdbb 6df6 6cbc 8485 093c
000002d0: b01f 95bb da94 e839 ab6f a43c fa10 38bb
000002e0: e76a 5b3c 83b4 dfb9 1516 50bc ff98 543c
000002f0: ee1c 9fba 07d7 ccbb b200 d33a 09c0 c23c
00000300: f452 1f3b fbfe 553b 8e34 2dbc a370 15ba
00000310: 3449 a43b 1d85 8fbc 2469 833a c8b8 d13b
00000320: 37b0 7cba c2da 503a ef07 9fbc 226b 49bb
00000330: cbbc 5abc 6535 523c db01 cdbb de13 cb3b
00000340: 0d94 6d3c 32f5 45bc 07c3 39bc f3d0 a93b
00000350: c6bb b6bb 3d13 be3b 55ac 6fb9 a411 12ba
00000360: 5af9 5ebb 9261 2cbc 3b53 fa3a a071 ef3a
00000370: 9a02 bf3a 92f2 72bc 2550 093b abd1 5c3b
00000380: 8b08 0a3c bb4c 513b ef8f a03a b8dd 373c
00000390: d56f 763c daff 92bb 2e4b 2fbb 3fec 71bc
000003a0: c5fd 8cbc 94db a93a 993d b23b 9b2c 0f3c
000003b0: 98f6 92ba 307a f23b 737f b5ba 758b 19bc
000003c0: 0da4 93bb 3bd4 543a 6341 27bc 07d2 23bc
000003d0: 385d 7e3b b54d 543c 1a4b 8dbb a3c6 97bc
000003e0: 2283 703c e588 e1bb 3bcc 61bb c7e5 7cbc
000003f0: 05f4 ec3b 620f 333b ed46 dbbb c673 adbb
0.011841117 -0.0016082654 0.008169433 -0.0048655034 -0.005844634 -0.012460868 -0.004242997 -0.004549325
-0.007541361 -0.007816664 -0.007775119 0.008232802 0.00083225797 -0.011248235 0.006424428 -0.003152391
-0.00656381 0.012887537 0.005456021 -0.007857502 0.0045733983 0.0016325025 0.0071604378 -0.01978162
-0.01861347 -0.0025184425 -0.0037272458 -0.0020297528 -0.0045289374 -0.006677422 0.0019306336 0.014344024
-0.005358539 -0.00538937 -0.0019179576 0.006049501 0.007883194 0.012449841 -0.0027212508 0.009124626
-0.01567224 -0.0075528095 -0.0054592425 -0.0068519423 0.013022746 -0.003357647 -0.0019415189 0.005724151
0.008289248 0.00030348825 0.0025643567 0.009621494 -0.0035438954 0.0026164176 0.0062102866 0.01082377
-0.0020813902 0.00072698126 0.00840865 0.008425413 0.023275172 0.004199747 -0.01432044 0.004014107
-0.0013429243 -0.012145723 0.015233814 0.013134754 -0.0017230451 0.0061868406 -0.001483196 0.012622631
0.008039279 0.0024938786 0.013875789 -0.01152801 -0.012429264 0.0028272946 0.011259416 0.013156702
0.003704243 -0.0073095597 -0.0029992552 0.00419737 0.0074477564 0.0012107486 -0.0133796735 -0.0042423406
0.012814025 0.0063318433 0.009713 0.0053402036 -0.0052679046 -0.0120547265 -0.0017671216 -0.0014350939
-0.020166757 0.00258999 0.0056833974 -0.0049462044 0.0015992336 0.0028476366 0.0052262493 -0.0017286433
-0.007176015 0.0045763706 -0.00503542 -0.0033597366 0.0052474593 0.0124532925 0.008038887 0.008331171
0.003063295 0.0021108 -0.014766896 -0.005764983 -0.021567909 -0.01169156 -0.0066813575 -0.0059590284
-0.00578966 -0.0065029436 0.0018940674 -0.001485908 0.0011152363 0.0038296722 0.0036716338 0.008418068
0.011321387 -0.006124791 -0.00077582925 -0.0042019826 0.01419611 -0.010714205 0.0038526796 0.008594542
0.004046027 0.00049229566 -0.009033654 0.012426191 0.0036172278 -0.0026694972 -0.013258717 0.018729007
-0.0079872925 0.012785265 -0.018775549 0.0013586156 -0.01093538 0.0021508532 -0.008132669 -0.005801534
-0.004536022 0.010146551 0.0016380989 0.0030360771 0.002213413 -0.0012483645 -0.0016272747 0.012509862
-0.007196588 0.006909066 -0.00560222 0.0030834265 0.00013991972 0.016491737 -0.0052861315 -0.004594534
-0.00028110403 0.015714357 0.0065804305 0.0004931485 -0.013468995 -0.011488698 -0.010535984 0.0022340154
0.0033815296 -0.006276349 -0.014463049 0.008393649 -0.0045508966 0.0004436139 0.020072779 -0.002808629
0.013392187 -0.00042668366 -0.012700577 0.01297593 -0.0012139359 -0.006251219 0.001609823 0.02377321
0.0024310919 0.00326532 -0.010571612 -0.0005700683 0.0050136093 -0.017519528 0.0010025841 0.0064002015
-0.0009639295 0.0007967168 -0.019412963 -0.0030734022 -0.013350676 0.012830113 -0.0062563247 0.0061974367
0.01450063 -0.012082385 -0.011338002 0.0051823794 -0.0055765836 0.005800633 -0.00022857015 -0.00055720867
-0.0034023137 -0.010521309 0.0019098291 0.0018268116 0.0014572919 -0.014828341 0.002095231 0.0033694308
0.008424888 0.0031936604 0.0012249927 0.011222295 0.015041311 -0.0044860663 -0.0026747691 -0.014765798
-0.01721085 0.0012959116 0.005439472 0.008738662 -0.0011212407 0.00739982 -0.0013847187 -0.009371628
-0.0045056404 0.0008118783 -0.0102084605 -0.009998805 0.0038812887 0.01295798 -0.0043119313 -0.018527335
0.014679702 -0.006882774 -0.0034454006 -0.015435643 0.007231238 0.0027322401 -0.0066918046 -0.0052933423

action_model._discrete_distribution.branches.3.bias f4 [9]
00000000: 0000 0000 0000 0000 0000 0000 0000 0000
00000010: 0000 0000 0000 0000 0000 0000 0000 0000
00000020: 0000 0000
0.0 0.0 0.0 0.0 0.0 0.0 0.0 0.0
0.0

action_model._discrete_distribution.branches.3.weight f4 [9, 128]
00000000: 4c2b 833a fa6f 8e3b 17a6 853c f826 ba3b
00000010: 3687 87bc deab bcbb cf42 c7bb f205 073c
00000020: 236f 0bbc e710 55ba 4f37 923c 971d a3bb
00000030: 12df 61bc 0b10 fc3b 13b6 30bb 1c58 b03b
00000040: ba78 673a 8db8 d73a c529 433c 8930 9ebb
00000050: 2717 04bc 0c0f 363c f311 be3a 7f0b e9b9
00000060: e7f3 113c 8039 26bc 7ce6 273c 87cd 90bc
00000070: abcd 20bb b090 e1b8 0078 c53b 6f54 9cbb
00000080: 78a3 313b 753e a5bb e7e1 a73b ebb2 7d3b
00000090: 43f5 a5bb 133a 9f3a bfc4 cb3b b5d5 cf3c
000000a0: acc6 a2bb 403c 7f3b 32b5 47bc e827 253c
000000b0: 557a dcba 9aec 4b3c 9745 1c3b 6a27 dc3b
000000c0: 6e77 9e3b ac27 97bc 0630 033b 17d2 80bb
000000d0: e18d 093c b7ee 3dbc bb25 43bc 48ac 663a
000000e0: 83fb 0a3b 5d72 d3bb 7779 8bbb 5893 dc3b
000000f0: b7d3 edba 0246 91bb c860 35bb 085d ecbb
00000100: 0716 693c 0718 bfbb 9b27 933c ad52 033a
00000110: 9f18 93bb 6c58 043c a89d 643c 1c47 183a
00000120: 6b48 973b d0cf 773b 5f68 c83a 74ab 97ba
00000130: fab3 5a3b 109d 25bc ba57 363c 2db4 4bbc
00000140: 0ebf 433b 90d2 5a3a 9ebc 1abc f3a6 50b9
00000150: fa98 6f3b aaa4 9c3b 6f9d 1f3b 93a4 8a3b
00000160: 658c 3dbc c684 10bc 2f68 2fbc f5ff aabc
00000170: b0e7 623b 33e6 b2bb 305d a5ba 739c 21bc
00000180: ab78 4abc dead b43a 7383 18bc 757d 69bc
00000190: 1f17 31bc 1a66 62bc 20ac 183c ebec 803b
000001a0: db99 313c f2f8 c73b c22e 0f3b 4829 d63a
000001b0: 7026 bdbb 7bf4 47bc e3d1 80bb 275b e93a
000001c0: fb4e 12bc 079b 58bb 1b4c 94bc fdc1 1c3c
000001d0: fd41 50bb 4ee2 273b 8026 cd3c 4797 513c
000001e0: bf95 07bb 87fb 833a afdc 6bbb a477 813b
000001f0: ec04 42bc 7f54 88bb 5f5c ce3b 13a3 91bc
00000200: 0b7f 9f3b 341a a33b 9319 263c 5cfc 233a
00000210: ee08 0d3b 713f c5bb 7843 fc3b b3b3 6cbc
00000220: 874c 89bc 9fb4 1e3c 98dd 3fbc 96f8 853b
00000230: 0aeb 73bc 029b a6bb 3947 923c 42c0 1c3c
00000240: 0f5c 443c 4f3d 393b 35ef 283b 8f3d 20bc
00000250: 0737 953b 02c3 9c3b 0740 3fbc a893 a03b
00000260: 9d31 3fbc a3a8 2bbb 2f0b 8fba ef3d ef3b
00000270: 811c 433b e637 183c 15c7 363a 20ec e13a
00000280: d6a5 c3ba 18c3 983c 10e7 6e3b 7f10 f13b
00000290: 9515 223c 94e4 bcbb cade d238 c7e3 b2bc
000002a0: 385a b53b 29b1 3a3a c7ea fd3b 1226 063c
000002b0: bfba a8bb a211 53bc e7ea 9fbc b280 043c
000002c0: 8ff4 4e3c 6bc0 b03a d176 8cbb 2f70 b4bc
000002d0: 2eda b9ba 630d ce3b 8688 84bb 0221 273c
000002e0: dfcd 783c 035a 963b ad40 093b 3540 6f3c
000002f0: 97e3 d33b cefa 8cbb 3f07 e7ba 9b29 c23b
00000300: e7d1 34bc bb78 a13a 8d50 a63b cb55 483b
00000310: b840 d53b 7062 e0bb 7dd9 3b3c 7f5d 503c
00000320: 6cc5 b1bb 6786 2b3b 243f 3bbb 1792 a0ba
00000330: 77f1 37ba 7fc8 3f39 208b 7e3b 860d 163c
00000340: f2cd 8ebc 3b2c a3bb 4099 77bc f260 c0bc
00000350: 9261 9d3c d3f8 e2bb 9c34 98bb c773 8cbb
00000360: 3749 dfbb c78c 09bc 2b11 b73c 0388 ad3a
00000370: bdfa a23b aa67 a338 b7c9 2e3b 1f52 c0b9
00000380: fb73 c2bb f696 9d3c e2c4 bebb 6135 a33a
00000390: 0a12 7eba d663 90bb 9cd7 aa39 709d b6ba
000003a0: 9133 193b 082f 243b f203 2ebc 075a 2ebc
000003b0: b7fc 373b 09e4 9cbc 5fb4 32bc dfed 2e3c
000003c0: 3781 593b 5510 9e3a 5afd e6bb 2ace 2c3c
000003d0: d30a c53b 2e03 b3bc 074e 813a c5b2 e5ba
000003e0: 7368 653c 6038 5e3b 8593 16bc c21c 683c
000003f0: 579f 8c3b f72d 233b 8b8d ab3a 200a ae3b
0.001000741 0.0043468447 0.01631455 0.005680915 -0.016543966 -0.005757793 -0.0060809623 0.008241164
-0.008510384 -0.0008127824 0.017848639 -0.0049778926 -0.013786094 0.007692342 -0.0026963993 0.005381597
0.00088299403 0.0016458199 0.011911814 -0.004827563 -0.008062161 0.011111986 0.0014501199 -0.00044449788
0.0089082485 -0.010145545 0.010247823 -0.017676128 -0.002453665 -0.00010755786 0.006026268 -0.0047708075
0.0027105492 -0.005042846 0.005123365 0.003871138 -0.005064638 0.0012148045 0.0062185223 0.025370458
-0.004967531 0.0038945824 -0.012189196 0.010080315 -0.0016821126 0.012446547 0.002384519 0.0067185657
0.0048360145 -0.018451534 0.0020017638 -0.0039312947 0.008395643 -0.011592559 -0.011910851 0.00087994756
0.0021207042 -0.006452842 -0.004256423 0.006731432 -0.0018144761 -0.0044333944 -0.0027676094 -0.0072132386
0.014226443 -0.0058317217 0.017963221 0.0005009573 -0.004489019 0.008077722 0.013953604 0.0005808936
0.004616787 0.0037813075 0.0015289894 -0.0011571483 0.0033371435 -0.010108247 0.011129314 -0.012433094
0.0029868516 0.00083474163 -0.009444384 -0.00019898619 0.0036559687 0.0047803717 0.0024355312 0.0042310446
-0.011569117 -0.008820718 -0.010705992 -0.020874003 0.003462296 -0.005459571 -0.0012616273 -0.009863961
-0.012357871 0.0013784727 -0.009308684 -0.014251103 -0.010808735 -0.013818288 0.009318382 0.003934493
0.010839905 0.0061026746 0.0021847938 0.0016339207 -0.0057724044 -0.012204285 -0.0039312704 0.0017803655
-0.008929963 -0.0033051388 -0.018102696 0.009567735 -0.0031777613 0.0025617066 0.025042772 0.012792415
-0.002068862 0.0010069468 -0.0035989692 0.00395103 -0.011841994 -0.0041604633 0.0062976326 -0.017777955
0.0048674396 0.004977489 0.010137933 0.0006255561 0.0021520215 -0.0060195257 0.0076984726 -0.0144471405
-0.016760124 0.009686618 -0.011710547 0.0040884716 -0.014887581 -0.0050843963 0.017856227 0.009567322
0.011984839 0.0028265303 0.0025777344 -0.009780302 0.004553679 0.004783989 -0.01167298 0.0049004145
-0.011669544 -0.0026193045 -0.0010913367 0.007301084 0.0029771628 0.009290671 0.00069724146 0.0017236508
-0.0014926742 0.018647715 0.0036453642 0.007356703 0.009892841 -0.0057645533 0.00010055078 -0.021837128
0.0055344366 0.0007121736 0.007748935 0.008187788 -0.005149215 -0.012882622 -0.01952119 0.008087324
0.0126315495 0.0013485079 -0.004286625 -0.02202615 -0.0014179402 0.006288217 -0.004044595 0.010200741
0.015185802 0.004588367 0.002094309 0.0146027105 0.00646634 -0.004302359 -0.0017626061 0.00592537
-0.011036373 0.0012319306 0.0050755204 0.0030568715 0.006507959 -0.006847672 0.0114654275 0.012717604
-0.005425146 0.002617264 -0.002857157 -0.0012250569 -0.0007016877 0.0001828987 0.003884025 0.009158498
-0.017432187 -0.004979638 -0.015112221 -0.023483727 0.019211564 -0.006926635 -0.0046449434 -0.0042862627
-0.006814148 -0.00839538 0.022347054 0.0013239387 0.004973738 7.7917546e-05 0.0026670524 -0.0003668228
-0.005934236 0.019237023 -0.00582181 0.0012451821 -0.0009692019 -0.0044064326 0.00032585568 -0.0013932418
0.0023376683 0.0025052447 -0.010621058 -0.010641581 0.0028074214 -0.019151704 -0.010907262 0.01067683
0.003318859 0.0012059311 -0.007049245 0.0105472 0.0060132532 -0.021852102 0.0009865173 -0.0017524591
0.014001953 0.0033908114 -0.009190445 0.014167013 0.0042914557 0.0024899223 0.0013088448 0.0053112656

action_model._discrete_distribution.branches.4.bias f4 [9]
00000000: 0000 0000 0000 0000 0000 0000 0000 0000
00000010: 0000 0000 0000 0000 0000 0000 0000 0000
00000020: 0000 0000
0.0 0.0 0.0 0.0 0.0 0.0 0.0 0.0
0.0

action_model._discrete_distribution.branches.4.weight f4 [9, 128]
00000000: 75f4 febb 7570 82bc e71f b53c 631e d03b
00000010: 3ee2 13bc d796 0d3c 0ffa d0bb 2cad 9dbc
00000020: be61 0e3b 72ae 803b eb9e 68bb 1a39 61bc
00000030: 18be e03b ab84 fa3b 73df acb7 6eac 96bc
00000040: ea52 39bc ecc8 c73b 1f6e 5d3c 7dba 51ba
00000050: 8b48 d23b 8c21 08bb 756c b03c 8015 15bc
00000060: adc2 9f3b 2a1d 8d3a 5a21 c33a 3785 eebb
00000070: 9fe9 913b 5fe5 943b 8ec8 3abc ba1b 7d38
00000080: 9797 9bbc 73d5 fbba 017f b33b bf0d 84bb
00000090: 12fe 68bc 8255 c63b b714 92b9 1033 83b9
000000a0: 5819 e0bb 8793 873b 3ba6 8a3c 1d49 27bc
000000b0: 4c86 45b9 76ae 8bbb 7305 4b3b 1b87 fc3a
000000c0: 58d4 7cbc 2b86 b93b 9258 e03b 1ba9 90ba
000000d0: 58e9 a7bc b0ad aabb db9a 833a ab4e 20bc
000000e0: 3af0 953b bf6c b93a 3891 d2bb 9201 b03b
000000f0: e039 513b 6ba8 5fbb 13c2 653b 06b9 453c
00000100: 2cf4 373c 2759 f83a fe14 043b fb5e 8ebb
00000110: fb3b 57b9 d62a 443c f3f3 a5bb 0ec3 2dbc
00000120: 300d 0f3c ccb6 19bc 9a90 a8bb d722 5cbb
00000130: 0223 e73b 2b81 31bc a53b 703c e26e 583b
00000140: 05c7 1cbc b47a 933c e279 d4bc 60bd dd3b
00000150: c69a 093c 7f48 9e3b 53a3 2ebc dabc fc3b
00000160: 25b7 c53b afba af3c 6d08 dcbb cf65 a93b
00000170: 5448 453c e3e0 1a3b 6c8d 983b 5135 353c
00000180: 14bb 35bc 8859 82bb 420f 6d3c 408e 70bb
00000190: ea84 57bc 7341 8b3b 0af7 7a3c 4a9e 3ebc
000001a0: ee7f 97b9 c134 3b3b 5ff5 343c c39c 243b
000001b0: 5005 a0ba 1e00 3039 278b 87bc 8fdc 48bc
000001c0: 62e4 20bc 7cba 173c 4358 22bb d704 d4bb
000001d0: 283f 633a 0e93 243b eb2a 8e3b 080d 4e3b
000001e0: 1bd1 5a3b ecfb 83bc 2573 febb e13d 0e3c
000001f0: 2bf4 13bb 3f9c 45bb 393d 233b 479a 4ab9
00000200: 7de6 b43b 48ac 5fbb cfe2 67bc 6f06 e93b
00000210: 0fa9 a43c b766 04bb 1fe2 8ab9 efb0 213c
00000220: 6da8 a7bb b21e 58bc f469 3d3b 19e7 85bc
00000230: 2e08 89bb dc22 22bb 6db1 f43a 6195 943c
00000240: d8df 4d3b 7020 593c 0dc1 dfbb d59b 9db9
00000250: 846a 893c c8a7 3bbc 0d3d e3b9 3aff 8b3b
00000260: ed96 d53b cf90 9ebb 63ac 20bc 8ede 14bc
00000270: 9822 02bc 9497 12bc 4bfa 4bbc aa43 843b
00000280: 2f47 e739 14e6 ab3b dbe6 703a 396b 88bc
00000290: e919 053c 0aa1 f93b 2af6 663c 8fd9 4abc
000002a0: 5888 3eba 1da8 d23a 02bb 823b b733 9f39
000002b0: 1074 b4bc 086e 53ba f750 263c afeb efbb
000002c0: 1b9a 9c37 8f98 5d3a 6d3b 2f3c 6b20 02bc
000002d0: 63ab 9d3c 9b2f 2d3c f83d 703b a80c 73bb
000002e0: d396 febb cb7d 6bbc 5012 2abc a360 1ebc
000002f0: 1b94 7b3b cfb3 193c 12de 243b 5ac1 513b
00000300: cf68 4dbc 4345 cdba c057 9c37 b1cf 30bc
00000310: b756 b6bb 91df a5bb 8582 c5bb b52e fb3a
00000320: 5497 a0bb 1d26 e03b 43f8 05bc b5b5 1ebc
00000330: 62f7 793b dfab e4bb bf69 04bc 10bc 833b
00000340: 2af9 543c 2b7f ed3b 8b57 083c afb2 eebb
00000350: 7428 303b 574b 083c 7f4a 62bc 717b 87bb
00000360: ca68 1c3b 9dc8 393c 6dd0 56bc 3092 b23b
00000370: 4dca 873b 53f7 053c 5d19 e139 6e4b c63c
00000380: 8f6c 323c 9410 05bc c97d a6bb 5ec9 9739
00000390: 936b 8fbc 0b4f 16bc b581 8c3b 9d45 e4bb
000003a0: 7f5d bb3b 02bf 1fbc 9794 743c 9f33 43bc
000003b0: 976c a73b 238c 1ebc 2bf9 edba 69af cb3b
000003c0: e247 dcbb 670c 5bba 0fb6 bfbb a5d4 973c
000003d0: 0b08 4abb bb51 00bc 9827 69ba e3ee 1b3c
000003e0: a2fa d63b c63c ca3a a752 7f3c 4b8e 833b
000003f0: 5620 bc3b c751 3c3c 5b02 833b 23f2 003c
-0.0077806064 -0.015922764 0.022109939 0.0063512786 -0.009026108 0.00864192 -0.0063774656 -0.019247614
0.002172574 0.0039270455 -0.0035495113 -0.013746524 0.0068585984 0.00764521 -2.060805e-05 -0.018392768
-0.011311272 0.00609695 0.013515024 -0.0008000506 0.006417339 -0.0020771949 0.021536091 -0.009099364
0.004875502 0.0010766138 0.0014887259 -0.007279064 0.0044528986 0.0045439447 -0.011400355 6.0345723e-05
-0.018993182 -0.0019213393 0.0054777865 -0.004029959 -0.014220731 0.006052674 -0.00027862724 -0.00025024312
-0.0068389587 0.0041374597 0.016924968 -0.010210303 -0.00018837414 -0.0042627407 0.003097859 0.0019266339
-0.015431486 0.005661746 0.006846496 -0.0011036725 -0.02049701 -0.0052086934 0.0010040657 -0.009784381
0.0045757564 0.0014146789 -0.006426003 0.005371281 0.0031925365 -0.0034127485 0.0035058304 0.012068039
0.011227649 0.0018947468 0.0020154114 -0.0043448186 -0.00020526342 0.0119731035 -0.0050644814 -0.010605587
0.0087311715 -0.009381961 -0.005144191 -0.0033590102 0.007053734 -0.010834019 0.014662658 0.0033025076
-0.009568934 0.018002845 -0.025937025 0.00676696 0.008398717 0.0048304196 -0.010659057 0.0077129425
0.0060337954 0.021451322 -0.0067148716 0.0051696072 0.01204117 0.0023632578 0.0046555307 0.011060075
-0.011091966 -0.003977958 0.01446897 -0.0036705881 -0.013154248 0.0042497455 0.015317688 -0.011634419
-0.0002889628 0.002856538 0.011044829 0.0025117851 -0.0012208614 0.00016784712 -0.016545845 -0.0122596165
-0.009820076 0.00926077 -0.0024771846 -0.0064703035 0.0008668774 0.0025112065 0.0043386123 0.0031440873
0.0033388797 -0.016111337 -0.007765191 0.008681745 -0.0022575955 -0.0030152944 0.0024908318 -0.00019321694
0.0055206404 -0.0034129787 -0.0141531965 0.0071113626 0.020100145 -0.0020202824 -0.00026489884 0.009868844
-0.0051165135 -0.013190912 0.0028902264 -0.016345548 -0.0041818833 -0.0024740016 0.00186686 0.018137636
0.003141394 0.013252363 -0.0068284334 -0.00030061477 0.016774423 -0.011453576 -0.000433423 0.0042723687
0.006518236 -0.00483904 -0.009806725 -0.009086264 -0.007942818 -0.008947272 -0.012449811 0.0040363865
0.0004411279 0.0052459333 0.00091896736 -0.01665269 0.008123853 0.0076180743 0.014096776 -0.012380972
-0.00072682416 0.001607183 0.003989578 0.00030365374 -0.022028 -0.0008065407 0.010151139 -0.007321797
1.866841e-05 0.0008453214 0.010695321 -0.007942299 0.019246763 0.010570432 0.003665803 -0.00370864
-0.0077694445 -0.014373253 -0.010380343 -0.009666595 0.0038387838 0.009381249 0.0025156778 0.0032006116
-0.012537195 -0.00156609 1.8637511e-05 -0.010791705 -0.0055645364 -0.0050620516 -0.006027522 0.00191637
-0.004900852 0.006840481 -0.008176866 -0.009686877 0.0038141836 -0.0069784964 -0.008081852 0.0040202215
0.0129988585 0.0072478256 0.008321653 -0.0072844843 0.002687958 0.008318744 -0.013811707 -0.0041345884
0.002386617 0.011339334 -0.013111216 0.005449556 0.004143989 0.0081766425 0.0004293424 0.02420589
0.01089014 -0.008121628 -0.0050809127 0.00028950995 -0.01750735 -0.009174119 0.004287923 -0.0069663064
0.0057179327 -0.00975013 0.014928005 -0.011914163 0.0051093805 -0.009676966 -0.0018155923 0.006215979
-0.0067224363 -0.0008356035 -0.0058505605 0.018534014 -0.0030827548 -0.007831986 -0.00088941446 0.009517404
0.0065606395 0.0015429489 0.015583671 0.0040147654 0.0057411594 0.011494107 0.0039980835 0.00787023

action_model._discrete_distribution.branches.5.bias f4 [29]
00000000: 0000 0000 0000 0000 0000 0000 0000 0000
00000010: 0000 0000 0000 0000 0000 0000 0000 0000
00000020: 0000 0000 0000 0000 0000 0000 0000 0000
00000030: 0000 0000 0000 0000 0000 0000 0000 0000
00000040: 0000 0000 0000 0000 0000 0000 0000 0000
00000050: 0000 0000 0000 0000 0000 0000 0000 0000
00000060: 0000 0000 0000 0000 0000 0000 0000 0000
00000070: 0000 0000
0.0 0.0 0.0 0.0 0.0 0.0 0.0 0.0
0.0 0.0 0.0 0.0 0.0 0.0 0.0 0.0
0.0 0.0 0.0 0.0 0.0 0.0 0.0 0.0
0.0 0.0 0.0 0.0 0.0

action_model._discrete_distribution.branches.5.weight f4 [29, 128]
00000000: df22 67bc e558 313b 3bea 3d3c 2601 3e3c
00000010: 646f 11ba 93d2 593c e4c1 b8bb 772d 243c
00000020: fbf7 b0bc c406 393c 63e8 e73b 0f32 913b
00000030: e01c 4f3b cf77 723b e6e5 90bc 433c 133c
00000040: bbea 453c 80e0 5e3b 1f59 d63a 3a74 6c3b
00000050: 0fb8 833b 7a8d 443b 49c1 183b 0b5e 27bc
00000060: cf9e 92bb 0d4b a63b ca04 32bb 58b0 64ba
00000070: c7eb 6f3b 3280 51bc ce37 c43c 4cd8 b8ba
00000080: 8ac6 563c 0327 46bb 2bee 9bba b239 603b
00000090: 8945 843b 0fb0 44bb b51f 8cbb 6da1 3e3c
000000a0: 3504 17bb 1012 64bc 0a81 243c 06c8 afb8
000000b0: 7dd8 3bbc c5ef d9ba d390 1f3c c2bb 103c
000000c0: bb49 c83b 0105 283c aa8c 173c 9368 8abb
000000d0: 9867 f03a e94c a8ba 5e2b 21b9 8285 c0bb
000000e0: a966 053c 9507 1e3c f7d0 40ba a492 05bc
000000f0: 0395 babb 1656 0e3c 2c56 38bc b3ae 32bc
00000100: 4a9f 76bc ccbd 8abb bb41 04bc 77f1 2abb
00000110: c7f4 24bc 72dd 83ba 576c 123c 3ada 4bbc
00000120: 971c 163c ec78 823b a51b fab8 0580 ee3a
00000130: bfe9 db3b 00dc f03a faf1 6a3b 32f7 53ba
00000140: 20ae 06bc a51d e4bb 6fe2 203c d841 113c
00000150: 2024 99b9 7fbe 13bc e6fd 42bc fd5a c33a
00000160: dfae fbba 5d6e 18ba ed4e 4e3c 7797 4b3c
00000170: 62cc e63b 430b 04bc 33be 71bc 7720 ee3b
00000180: 4d75 71bc 0821 00ba f36c b539 67e6 8fbb
00000190: 7001 0e3b 1004 b3ba e7ce 7c3b 8ddd bbbb
000001a0: 0c94 44bc c118 3ebc 67ce 68bc c041 543b
000001b0: fdbb 603b 23c9 7cb9 e75f 22ba 7ff5 07ba
000001c0: eabb 2cbc 7d5b 6a3b 628b e13b bb5d 6a3a
000001d0: 67d5 06bc 783a 693c aea0 12bc 1ba5 703a
000001e0: f616 a9bb 3565 183c 4f43 d43b 4bc1 e63a
000001f0: f2a1 fd3b a7f3 babb b30d 993b c0bc 1ebb
00000200: 5048 2c3b f298 d93b 6b79 9cbc 8785 eb3a
00000210: f30d c73c ec25 053c e92c 49bb 2fa3 46bc
00000220: 24cb 29ba bb90 44bc 8342 5d3c 3c76 a33b
00000230: bc72 9ebb 38ad 843a 8dbb 3f3b 83f4 b13c
00000240: 335e d63b 3f7c 973b 97a8 8ebb 26d7 44bb
00000250: 0b4c b03b 2a96 e83a 359d da3b 43df 383c
00000260: 7e32 afb9 f050 1ebc ec28 123a 0854 ecb6
00000270: e99b ca3b 99dc 14bc 7ca6 0abb b52a 133b
00000280: 4731 013c 36e7 96bc af2a 79bb 03c4 78bb
00000290: b3b0 08bc bd5c 99bc 3a44 3cbc 13a8 943b
000002a0: 0686 bd3b b348 a63a 3549 723b 0514 a2bb
000002b0: dda2 d93b d690 1fbc 97af cabb dbc5 fabb
000002c0: fbec e6ba 5eab 183c af09 1d3c 97f4 233b
000002d0: 3ee3 123c ab94 e9bb d7de 00bc f0b0 59bb
000002e0: ff43 06bc f861 ed39 33ff 88bb e32c 44bb
000002f0: 3c4b 8dbc 935b 94bb 4399 cfba aac3 9d3b
00000300: 5550 b9bc 23e1 f8bb aab5 2039 a090 963b
00000310: 4f09 893b 799b 0f3a fea5 083c fb1b dbbb
00000320: 2c19 4a3c 374d 1cbb 158d 78ba cf66 8bbb
00000330: 7553 013c 8708 583b b877 3ebc c574 d93a
00000340: 62f7 afbb 82ef ca3b ea96 ce3b 7379 9839
00000350: 2bc0 453c 3c6a b8bb fbe4 9ebb dedc 83bc
00000360: 7004 453b 2529 72bc 8132 36bc 90cb c13a
00000370: 3958 ac3c d0c9 563a 0ffe 283c 1be1 49bc
00000380: fb0a b53b 6081 5c3a 5f65 ebbb 2774 89bc
00000390: b256 a83b 0403 39bc ef60 f73a bac7 e5bb
000003a0: f046 2dbc 321f 4fbc 4549 4d3c 85c9 743b
000003b0: 1fc4 75bc 1b36 363b 8737 303c 871b 94bb
000003c0: b22a 283c 37c9 bbbb 10d3 61ba 4e47 03bc
000003d0: 8abe b4bb 8808 4fbc 86b5 1c3c 3d1f eabb
000003e0: cd80 d03b 308b e6bb bca8 3eba 8dfe 5b3c
000003f0: 8453 103c c00a 19bc 30e3 d4ba 8a1d 83bb
-0.014107435 0.0027061042 0.011591489 0.0115969535 -0.00055479095 0.013294834 -0.005638348 0.010020605
-0.021602621 0.011293117 0.007077263 0.0044310163 0.0031602904 0.003699768 -0.01768775 0.0089865355
0.01207989 0.0034008324 0.0016353464 0.0036080019 0.004019744 0.0029991553 0.0023308566 -0.010215293
-0.004474498 0.0050748647 -0.00271635 -0.0008723787 0.003660904 -0.012786912 0.023952391 -0.0014102547
0.013108859 -0.0030235655 -0.0011896541 0.0034214077 0.0040366095 -0.0030012166 -0.0042762407 0.011635167
-0.002304328 -0.013920322 0.010040531 -8.3819075e-05 -0.011465189 -0.0016627243 0.009739119 0.008833827
0.006112305 0.010255099 0.0092498455 -0.004223892 0.001834142 -0.0012840304 -0.00015370312 -0.0058752904
0.008142152 0.009645362 -0.0007355357 -0.008152638 -0.005694033 0.008687517 -0.011251014 -0.010905909
-0.015052626 -0.0042340513 -0.008072312 -0.0026083866 -0.010068125 -0.0010060503 0.008936963 -0.012442166
0.00916209 0.0039817 -0.00011926078 0.0018196112 0.0067112143 0.0018376112 0.0035849796 -0.0008085846
-0.008220226 -0.0069615417 0.009819611 0.008865796 -0.0002920935 -0.009017586 -0.011901354 0.0014904436
-0.0019201896 -0.0005814785 0.01259206 0.012426249 0.0070434073 -0.008059326 -0.01475482 0.0072670537
-0.014737439 -0.00048877345 0.00034604184 -0.00439148 0.0021668337 -0.0013657827 0.0038575472 -0.005733198
-0.011998188 -0.0116025815 -0.014209366 0.0032387823 0.0034291737 -0.00024107522 -0.00061941 -0.0005186423
-0.010542849 0.0035760098 0.006883071 0.00089403585 -0.00822959 0.014235131 -0.008949442 0.0009179876
-0.005160208 0.009301473 0.0064777504 0.0017605213 0.0077402527 -0.005705315 0.0046708225 -0.002422139
0.0026288219 0.006640547 -0.019100865 0.0017968871 0.024298644 0.008126717 -0.0030696935 -0.012123867
-0.00064771087 -0.011997397 0.013504627 0.00498846 -0.0048354547 0.0010122424 0.0029256076 0.021723038
0.006541991 0.0046229656 -0.0043535936 -0.0030035465 0.005380159 0.0017744948 0.0066715726 0.0112836985
-0.0003341622 -0.009662852 0.0005575556 -7.0431306e-06 0.0061831367 -0.009085798 -0.0021156361 0.0022455875
0.007885284 -0.018420797 -0.0038019826 -0.003795863 -0.00834291 -0.018720979 -0.011490876 0.0045366376
0.005783799 0.0012686461 0.0036969904 -0.004946234 0.0066417293 -0.009739121 -0.0061854827 -0.0076529807
-0.0017618233 0.009318201 0.009584828 0.0025017613 0.008965312 -0.0071283183 -0.007865629 -0.0033217035
-0.0081949225 0.00045277155 -0.0041808127 -0.002993398 -0.017247789 -0.004527518 -0.0015838522 0.0048145847
-0.022621313 -0.0075951978 0.00015326464 0.0045948774 0.004182018 0.00054781843 0.008340357 -0.006686685
0.012335103 -0.0023849735 -0.0009481472 -0.004254199 0.007893433 0.0032964067 -0.011625223 0.0016590586
-0.0053700665 0.0061931023 0.0063046115 0.00029082186 0.012069742 -0.0056278985 -0.004849074 -0.016096529
0.003006246 -0.014780317 -0.0111204395 0.0014785398 0.021038162 0.00081935246 0.010314479 -0.012321736
0.0055249906 0.00084116124 -0.0071837152 -0.016779019 0.005137288 -0.011292223 0.0018873493 -0.0070123347
-0.010575995 -0.012641715 0.012529676 0.003735156 -0.015000372 0.0027803245 0.010755426 -0.004519883
0.010264086 -0.005730774 -0.00086145196 -0.008012606 -0.005515878 -0.012636311 0.009564763 -0.007144837
0.0063630105 -0.0070356354 -0.0007273068 0.013427389 0.008808974 -0.009340942 -0.0016242024 -0.004001324

action_model._discrete_distribution.branches.6.bias f4 [29]
00000000: 0000 0000 0000 0000 0000 0000 0000 0000
00000010: 0000 0000 0000 0000 0000 0000 0000 0000
00000020: 0000 0000 0000 0000 0000 0000 0000 0000
00000030: 0000 0000 0000 0000 0000 0000 0000 0000
00000040: 0000 0000 0000 0000 0000 0000 0000 0000
00000050: 0000 0000 0000 0000 0000 0000 0000 0000
00000060: 0000 0000 0000 0000 0000 0000 0000 0000
00000070: 0000 0000
0.0 0.0 0.0 0.0 0.0 0.0 0.0 0.0
0.0 0.0 0.0 0.0 0.0 0.0 0.0 0.0
0.0 0.0 0.0 0.0 0.0 0.0 0.0 0.0
0.0 0.0 0.0 0.0 0.0

action_model._discrete_distribution.branches.6.weight f4 [29, 128]
00000000: 2f4a 813c b8ed ff3b 3372 1b3a 903c 3cba
00000010: 5da6 40bc 3337 f93b 9bc4 95bb 278a 34bb
00000020: e602 8ebb 980e 5bba 4dfd 69ba c81e 903c
00000030: 541d 453c f734 1bbb 8ea0 08bc 44cd 43bb
00000040: 669b 9f3b 3223 b7bb 0fcc 733b d059 d33b
00000050: 03d0 8a3b 90f7 2e3c 5c82 8bbc 88d7 cabb
00000060: e06c feba 6439 883a a27d 85bc 4681 403b
00000070: 3fe8 313c ff74 a4bb aaf3 78bb b1a4 bd3a
00000080: ff2c 713b 2f62 b4bb e358 0c3c 465f 43bb
00000090: b566 8d3b cd8c 4c3b 210b 8bbb 626e 393b
000000a0: 7d80 23bb 49ee 8aba 1225 5bbc 1aaf 0abc
000000b0: d9dc 1aba 87e1 963b ff78 c23c 550d 83bc
000000c0: 5ad7 143c e4a8 103c 6f88 15bc 1cfb 0cbc
000000d0: 90c8 5abb 5b03 063c 5040 663b 17a7 703c
000000e0: fc2f 02bc da4d 193c e8ac a4bc 133d 663c
000000f0: 7f8e 8f3c 8a9f 953a 5a6d 613b e36a 153a
00000100: ae47 c43c 2be7 423b f8d8 643b 47fe bfbb
00000110: fa9d 38bc 9491 32bc baca 023c 5b56 da3b
00000120: cf27 38bc 1e05 32bb 83cf f8bb e8f7 12bc
00000130: 0bdb 9a3b 83e9 1abc dd91 25bb 7f04 ab3b
00000140: 388c 733a 2213 bbba 0a12 173b a243 563b
00000150: 1b40 66bc e5ff aa3b 4a7f 2cba d306 d0bb
00000160: 5e92 94bb ae8a 41bb 74af b2bb a5cc a8bb
00000170: 499f 2e3b 4bf4 1ebb 34aa 163b 4f58 be3b
00000180: 5b31 7cbb 979b e3b9 5fba 7e3c 6c5e 2a3b
00000190: 1bee 403a bb08 a1bb 2428 303c 9364 273c
000001a0: 0201 cfbb 72d6 563b 375d 69bb a30b 47bb
000001b0: 4790 053c 2ac4 ecb9 dbd4 4cbb 569d 8db9
000001c0: 1e36 9a3b f8e3 613b 7559 9b3c c727 1ebc
000001d0: f85e 16bb 8ba3 25bc ffce 44ba 7511 143c
000001e0: 0df0 a2bb 076a ac3a 1fe2 373b 986a 79bb
000001f0: fc2e c9ba 6863 943b 764c af3b 81e9 0dba
00000200: c627 af3b 27ad c33b 2ff3 1339 b2bd 3b3c
00000210: 055e 773c cc97 973c 73f9 4a3c f38d ba3b
00000220: 0051 cabb fe43 3b3c 85ca 90bb 40d6 80bc
00000230: 87c7 1dbc e3a8 6ebc aa66 6c3c 64fa 45bc
00000240: 75de 553c f022 06ba 46f3 323b 40bb 213c
00000250: c2f9 5c3c fd4f 9f3b 8b43 b3b9 a226 a43b
00000260: 1d0c 6a3b dbb6 273c fdbb a73c 83ad 6dbb
00000270: ffb8 06bc c8a0 e13b 5e40 383c a522 dc3a
00000280: d52e d93b 6d58 d1bb 205c a73b 58a7 c53b
00000290: 9775 e7bb 5812 b5bb cfe0 debb 455e 69ba
000002a0: c66b 07bc 5705 7bba 03f9 b8ba 018b c93b
000002b0: afd2 2fbc 3471 3e3c 1764 653c f74c 0a3c
000002c0: 05e7 8ebc 1d51 ca3c 975e e0bb 1b4e 103b
000002d0: 88f2 263b eac6 55bb 7d2e f93b 9a1c 7abc
000002e0: 5041 53bb d69e 1e3b efbb cd3b 8f68 38bc
000002f0: 3c44 89bc 64b1 9e3b 3116 adbc 6151 b73c
00000300: b3d8 15bc ddbe 323c 9d69 fa3a 80d8 e83b
00000310: 637f 69bc 4782 4abc c228 083b d3c0 913b
00000320: ad55 5cbb 4b7b d4bc aa33 dc3b 02e1 483c
00000330: 151e d03b cb0f 5ebc 08b1 bdbb 2abe 6cbc
00000340: e36b 38ba e7b2 bebb f3aa 873b b9ae 303c
00000350: 8a9e 06bc 4be3 7dbb f48e c0bb 291e b1bb
00000360: ab50 a73b e801 b43b 53af 573b f133 35bc
00000370: 34a7 123c 1028 5fbc c860 bab9 c752 ed3a
00000380: 98e6 dfbb 3047 9c3c 7ada cc3b b4b8 033b
00000390: 26c3 4bbc 51ef 94bb 8df1 5d3a 8b96 583a
000003a0: 92b6 a0bb 4b5b e13b ccc7 07bc 9d26 af39
000003b0: 6b5f 25bb cb7a dc3b 39f1 8fba 7a77 9eb8
000003c0: 23e4 983b 1afb 6039 96a0 90bc eb49 0abc
000003d0: d75f 403b fea6 b0bb ce33 113b f02b 7d3c
000003e0: 41a1 b3bb f826 15bc 4b1d 09bc 972d 91bb
000003f0: 9f5b 91bb 8e79 2d3c 12ab 743c b287 3bbc
0.015782444 0.0078103207 0.0005929798 -0.00071806554 -0.011758414 0.007605457 -0.0045705563 -0.0027548166
-0.0043338416 -0.00083563616 -0.00089259894 0.017592803 0.012030918 -0.0023682693 -0.0083390605 -0.0029876987
0.00487082 -0.0055889124 0.0037200486 0.0064499155 0.0042362227 0.010679141 -0.017029934 -0.006190244
-0.0019411109 0.001039308 -0.016295258 0.0029373928 0.010858594 -0.00501883 -0.0037987032 0.0014468638
0.0036800501 -0.0055048685 0.008566114 -0.0029811426 0.004315222 0.0031211853 -0.00424327 0.0028294553
-0.002494841 -0.0010599579 -0.0133755375 -0.008464599 -0.00059075427 0.0046045217 0.023739336 -0.015997568
0.009084547 0.008829329 -0.009126767 -0.008604791 -0.0033383705 0.008179511 0.0035133548 0.014688275
-0.007946011 0.00935694 -0.02010198 0.014052647 0.017524002 0.0011415344 0.0034397454 0.0005699826
0.02395996 0.0029739838 0.0034919363 -0.0058591696 -0.011268133 -0.010898966 0.007982904 0.0066631264
-0.01123996 -0.0027163695 -0.0075930967 -0.008970238 0.004725819 -0.009455088 -0.0025263943 0.005219042
0.00092906086 -0.001427267 0.0023051524 0.003269412 -0.01405337 0.0052184933 -0.0006580247 -0.0063484698
-0.00453405 -0.0029532122 -0.0054530445 -0.0051513487 0.0026645234 -0.0024254497 0.0022989633 0.005808867
-0.0038481567 -0.00043412737 0.015547364 0.0025996221 0.0007359699 -0.004914371 0.010751758 0.01021685
-0.006317259 0.0032781628 -0.003560854 -0.0030371926 0.008152074 -0.0004515958 -0.0031254801 -0.0002701084
0.0047061583 0.0034468155 0.018963555 -0.009653038 -0.002294479 -0.010109792 -0.00075076515 0.009037365
-0.004972464 0.0013154157 0.0028058363 -0.003805792 -0.0015349085 0.0045284517 0.005349691 -0.0005413518
0.0053453175 0.005971569 0.00014109605 0.011458801 0.0150981 0.018505 0.012388575 0.005693191
-0.0061742067 0.011429785 -0.0044186735 -0.015727162 -0.009630091 -0.014566633 0.014428774 -0.012083624
0.013053526 -0.00051169004 0.0027305647 0.009871304 0.013487281 0.0048618303 -0.00034191864 0.005009488
0.0035712786 0.010236467 0.020475382 -0.003626675 -0.008222817 0.0068856217 0.011245815 0.0016794993
0.0066278973 -0.006388715 0.0051074177 0.006031912 -0.0070635783 -0.0055258684 -0.0068017016 -0.0008902292
-0.008265441 -0.0009575686 -0.0014112297 0.0061506038 -0.010731383 0.011623669 0.014000914 0.008441201
-0.017444143 0.024696881 -0.0068472135 0.002201921 0.002547415 -0.0032619783 0.007604419 -0.015265608
-0.0032234974 0.002420356 0.006278507 -0.011255397 -0.01675617 0.004842924 -0.021128746 0.022377672
-0.009145903 0.010909763 0.0019104962 0.007105887 -0.014251563 -0.012360162 0.0020776247 0.0044480353
-0.0033620403 -0.025937697 0.006720026 0.012260677 0.0063512423 -0.01355357 -0.005788926 -0.0144496355
-0.00070351193 -0.0058196667 0.004140252 0.010783845 -0.00821651 -0.0038740213 -0.0058764163 -0.0054052067
0.005106052 0.0054933913 0.0032910898 -0.011059747 0.008950997 -0.0136203915 -0.00035548792 0.0018106335
-0.006832909 0.019076914 0.0062516304 0.0020099105 -0.012436664 -0.0045451303 0.0008466475 0.0008262179
-0.0049045766 0.006877338 -0.008287381 0.0003340737 -0.0025233875 0.0067285053 -0.0010981924 -7.556281e-05
0.004665868 0.00021455847 -0.017654698 -0.008440475 0.0029354 -0.005391001 0.0022156122 0.01545237
-0.0054818694 -0.009103529 -0.0083688 -0.0044304836 -0.004435971 0.010588063 0.0149333645 -0.0114459265
