results/ppo/BadChessPlayer/BadChessPlayer-1094.pt (torch, 411735 bytes, 45 tensors)

network_body.linear_encoder.seq_layers.0.weight f4 [128, 72]
-0.15699863 -0.09298154 0.009183224 -0.063214116 0.008837309 -0.048298802 0.03058999 -0.074376844
-0.02158115 -0.21931264 -0.059019793 0.12653375 0.008599027 0.09438331 0.27842805 0.20063514
-0.019488005 0.012646507 0.13431737 0.24308929 0.012127498 0.07108492 -0.019576706 0.057245534
-0.07124093 0.04549306 -0.20437893 0.13740201 0.018937893 0.053110022 0.03034773 -0.21401551
-0.080846824 -0.06003941 -0.16942576 0.107840344 -0.017495587 0.025099522 0.17781022 -0.06928749
-0.02296605 0.004404846 0.052973237 0.13257799 0.13417615 -0.032886542 0.022921542 0.15687427
0.048758905 -0.0002832109 -0.15526661 0.09964919 0.050511036 0.007105027 -0.089694686 -0.04520755
0.03893044 -0.07083302 -0.101471215 0.11740842 -0.19672933 0.023430767 -0.101876386 -0.07617325
0.028573155 0.19425817 -0.18866329 0.015423934 0.083336495 -0.07842066 -0.043972876 -0.057365373
0.08886463 -0.178965 -0.15891592 -0.16828685 0.20272706 0.111470446 -0.009741833 0.048220355
-0.13154621 0.19211869 -0.14247423 0.006604178 0.14452855 -0.11566974 -0.068656035 -0.038671136
0.16345054 -0.037929524 0.072277755 -0.051178392 -0.16943482 0.24267101 -0.06524424 -0.07709282
0.03859814 -0.116354354 -0.09414191 0.083295085 -0.037927568 0.19737509 0.16696224 -0.14163817
-0.01953632 0.10839426 -0.040535837 -0.17425981 -0.044966906 0.028421009 -0.034620456 -0.059898026
-0.11724612 0.24878982 0.06704312 -0.08999173 -0.09581083 -0.05503197 0.29310966 -0.3332225
0.08550985 0.02890652 0.039853837 0.00940971 -0.027708286 0.08048314 0.23586978 -0.11164249
-0.081573725 -0.16071233 0.04929323 0.17382675 -0.14638029 0.03812216 -0.24706241 0.22101252
-0.0024875652 0.079578 0.09546768 -0.10497264 -0.07693919 0.013325157 -0.043867156 -0.0073722997
-0.2761658 -0.08738631 -0.04108359 0.12272482 -0.15929829 0.0060784346 0.038977478 -0.07743614
-0.103735864 -0.06476387 -0.03838767 -0.16858558 0.17704168 -0.3306087 -0.01598853 0.025802447
-0.08206744 -0.05929914 -0.02465434 0.071730144 0.036856204 -0.044013966 -0.19061324 0.035556342
0.0564355 0.08076076 -0.047579896 0.14652543 0.06310143 -0.17344493 0.012034425 -0.0010418629
0.035964075 -0.0063553806 -0.07692509 0.030552296 0.09519968 -0.21609989 -0.18730365 -0.105392314
-0.008497441 0.07266545 0.04780039 0.11627578 0.04399614 0.056631774 0.03346754 -0.08909179
0.23141433 -0.042545356 -0.0023500316 -0.09709807 -0.12048194 0.056906756 0.10968112 -0.11035968
0.3237344 0.067340784 -0.030368874 0.16697095 -0.040270492 0.11342873 -0.08895939 -0.013742098
0.21644343 -0.010728303 -0.07285658 -0.06498599 -0.05172148 0.021772915 -0.04311324 -0.0679864
0.021595392 -0.014185317 0.05685699 0.05668135 -0.14762016 0.23707257 0.09807576 -0.093906626
-0.050303347 -0.28196985 -0.12481515 0.16003975 -0.028493728 0.06683521 -0.059910282 0.15614744
0.009480291 -0.032526467 0.22443612 -0.029583354 -0.0145955775 0.012932229 0.0038343696 0.011706294
0.024116455 -0.025147073 0.13613598 -0.04751376 0.028828675 -0.12770407 -0.06581322 0.17383337
0.15260507 0.042377416 0.10487506 -0.020094743 -0.13791788 0.24076425 -0.16015941 0.049762364
00000000: 40c4 20be 1b6d bebd 3c75 163c 6776 81bd
00000010: 5cca 103c f7d4 45bd dc97 fa3c e352 98bd
00000020: f4ca b0bc 7e93 60be bdbe 71bd 1092 013e
00000030: efe2 0c3c 094c c13d 1f8e 8e3e 4c73 4d3e
00000040: 4fa5 9fbc 4b33 4f3c 7e8a 093e 66ec 783e
00000050: 6ab2 463c f894 913d 545f a0bc 4b7a 6a3d
00000060: c4e6 91bd ee56 3a3d b648 51be 1db3 0c3e
00000070: a423 9b3c e589 593d cd9b f83c e226 5bbe
00000080: 0593 a5bd e2eb 75bd f27d 2dbe 66db dc3d
00000090: e852 8fbc 839d cd3c e213 363e 99e6 8dbd
000000a0: 4c23 bcbc 8756 903b 77fa 583d 86c2 073e
000000b0: 7965 093e 0ab4 06bd f5c5 bb3c a6a3 203e
000000c0: 6bb7 473d ec7b 94b9 36fe 1ebe e014 cc3d
000000d0: a9e4 4e3d 49d1 e83b d9b1 b7bd 8d2b 39bd
000000e0: 8675 1f3d e710 91bd 24d0 cfbd d373 f03d
000000f0: 6a73 49be e1f1 bf3c 91a4 d0bd b900 9cbd
00000100: 4012 ea3c 9deb 463e f330 41be abb4 7c3c
00000110: 53ac aa3d 039b a0bd e71c 34bd f4f7 6abd
00000120: a9fe b53d 9a42 37be dbba 22be 6353 2cbe
00000130: af97 4f3e 9e4a e43d 369c 1fbc b582 453d
00000140: 0db4 06be c3ba 443e c4e4 11be dc67 d83b
00000150: 4bff 133e 42e4 ecbd 899b 8cbd a065 1ebd
00000160: 945f 273e fd5b 1bbd 5c06 943d 6fa0 51bd
00000170: 5280 2dbe c07e 783e c69e 85bd d7e2 9dbd
00000180: 1519 1e3d 314b eebd 79cd c0bd 9d96 aa3d
00000190: f059 1bbd b21c 4a3e 26f8 2a3e 9909 11be
000001a0: a20a a0bc cffd dd3d e808 26bd 2a71 32be
000001b0: 382f 38bd 2dd3 e83c 2ece 0dbd a257 75bd
000001c0: bc1e f0bd c2c2 7e3e e74d 893d 964d b8bd
000001d0: 7838 c4bd 3469 61bd 7812 963e 249c aabe
000001e0: ca1f af3d 5ecd ec3c c73d 233d 2f2b 1a3c
000001f0: 7dfc e2bc 58d4 a43d d987 713e d1a4 e4bd
00000200: 2010 a7bd c691 24be b3e7 493d a4ff 313e
00000210: b7e4 15be fb25 1c3d eefd 7cbe 1b51 623e
00000220: 6b06 23bb caf9 a23d 8f84 c33d e5fb d6bd
00000230: 4b92 9dbd c251 5a3c 0cae 33bd 5593 f1bb
00000240: 9b65 8dbe 98f7 b2bd 4447 28bd 2757 fb3d
00000250: 171f 23be 9b2d c73b d9a6 1f3d d796 9ebd
00000260: 7873 d4bd eba2 84bd 643c 1dbd b3a1 2cbe
00000270: 6a4a 353e 8b45 a9be 61fa 82bc a75f d33c
00000280: f912 a8bd a8e3 72bd e6f7 c9bc 41e7 923d
00000290: 88f6 163d fd47 34bd 1e30 43be 87a3 113d
000002a0: e928 673d e665 a53d 23e3 42bd c30a 163e
000002b0: 533b 813d 8c9b 31be 092c 453c 1e8f 88ba
000002c0: 114f 133d cc40 d0bb e78a 9dbd cf48 fa3c
000002d0: 0df8 c23d 4a49 5dbe 87cc 3fbe edd7 d7bd
000002e0: da38 0bbc a0d1 943d 57ca 433d ff21 ee3d
000002f0: 4c35 343d b8f6 673d 4215 093d c275 b6bd
00000300: e1f7 6c3e 0a44 2ebd fd02 1abb 5adb c6bd
00000310: 3cbf f6bd 0f17 693d 7fa0 e03d 4204 e2bd
00000320: 84c0 a53e f7e9 893d 25c8 f8bc 6ffa 2a3e
00000330: acf2 24bd 524d e83d 5730 b6bd 8926 61bc
00000340: 59a3 5d3e c4c5 2fbc d535 95bd 6017 85bd
00000350: e7d9 53bd 1d5d b23c 8297 30bd 743c 8bbd
00000360: d2e8 b03c 8869 68bc e0e2 683d b42a 683d
00000370: bd29 17be 27c3 723e f2db c83d 1e52 c0bd
00000380: e20a 4ebd 5a5e 90be 169f ffbd 76e1 233e
00000390: ae6b e9bc e6e0 883d 7c64 75bd 1de5 1f3e
000003a0: 3953 1b3c 793a 05bd 95d2 653e ca58 f2bc
000003b0: 4a22 6fbc b3e1 533c 0c4a 7b3b c1cb 3f3c
000003c0: df8f c53c 3c01 cebc 3b67 0b3e ca9d 42bd
000003d0: 1d2a ec3c dbc4 02be 15c9 86bd 6001 323e
000003e0: 8144 1c3e f193 2d3d bcc8 d63d bb9d a4bc
000003f0: 583a 0dbe e78a 763e d400 24be 9fd3 4b3d

network_body.linear_encoder.seq_layers.0.bias f4 [128]
0.0 0.0 0.0 0.0 0.0 0.0 0.0 0.0
0.0 0.0 0.0 0.0 0.0 0.0 0.0 0.0
0.0 0.0 0.0 0.0 0.0 0.0 0.0 0.0
0.0 0.0 0.0 0.0 0.0 0.0 0.0 0.0
0.0 0.0 0.0 0.0 0.0 0.0 0.0 0.0
0.0 0.0 0.0 0.0 0.0 0.0 0.0 0.0
0.0 0.0 0.0 0.0 0.0 0.0 0.0 0.0
0.0 0.0 0.0 0.0 0.0 0.0 0.0 0.0
0.0 0.0 0.0 0.0 0.0 0.0 0.0 0.0
0.0 0.0 0.0 0.0 0.0 0.0 0.0 0.0
0.0 0.0 0.0 0.0 0.0 0.0 0.0 0.0
0.0 0.0 0.0 0.0 0.0 0.0 0.0 0.0
0.0 0.0 0.0 0.0 0.0 0.0 0.0 0.0
0.0 0.0 0.0 0.0 0.0 0.0 0.0 0.0
0.0 0.0 0.0 0.0 0.0 0.0 0.0 0.0
0.0 0.0 0.0 0.0 0.0 0.0 0.0 0.0
00000000: 0000 0000 0000 0000 0000 0000 0000 0000
00000010: 0000 0000 0000 0000 0000 0000 0000 0000
00000020: 0000 0000 0000 0000 0000 0000 0000 0000
00000030: 0000 0000 0000 0000 0000 0000 0000 0000
00000040: 0000 0000 0000 0000 0000 0000 0000 0000
00000050: 0000 0000 0000 0000 0000 0000 0000 0000
00000060: 0000 0000 0000 0000 0000 0000 0000 0000
00000070: 0000 0000 0000 0000 0000 0000 0000 0000
00000080: 0000 0000 0000 0000 0000 0000 0000 0000
00000090: 0000 0000 0000 0000 0000 0000 0000 0000
000000a0: 0000 0000 0000 0000 0000 0000 0000 0000
000000b0: 0000 0000 0000 0000 0000 0000 0000 0000
000000c0: 0000 0000 0000 0000 0000 0000 0000 0000
000000d0: 0000 0000 0000 0000 0000 0000 0000 0000
000000e0: 0000 0000 0000 0000 0000 0000 0000 0000
000000f0: 0000 0000 0000 0000 0000 0000 0000 0000
00000100: 0000 0000 0000 0000 0000 0000 0000 0000
00000110: 0000 0000 0000 0000 0000 0000 0000 0000
00000120: 0000 0000 0000 0000 0000 0000 0000 0000
00000130: 0000 0000 0000 0000 0000 0000 0000 0000
00000140: 0000 0000 0000 0000 0000 0000 0000 0000
00000150: 0000 0000 0000 0000 0000 0000 0000 0000
00000160: 0000 0000 0000 0000 0000 0000 0000 0000
00000170: 0000 0000 0000 0000 0000 0000 0000 0000
00000180: 0000 0000 0000 0000 0000 0000 0000 0000
00000190: 0000 0000 0000 0000 0000 0000 0000 0000
000001a0: 0000 0000 0000 0000 0000 0000 0000 0000
000001b0: 0000 0000 0000 0000 0000 0000 0000 0000
000001c0: 0000 0000 0000 0000 0000 0000 0000 0000
000001d0: 0000 0000 0000 0000 0000 0000 0000 0000
000001e0: 0000 0000 0000 0000 0000 0000 0000 0000
000001f0: 0000 0000 0000 0000 0000 0000 0000 0000

network_body.linear_encoder.seq_layers.2.weight f4 [128, 128]
-0.048956715 0.08118621 0.113374315 0.0011789293 0.1561863 -0.0148460055 -0.0031629708 0.0034883306
-0.016057149 -0.04504045 0.03426323 0.004541717 0.07059554 0.12683363 0.14837082 0.17280921
0.045754313 -0.072762385 0.027477821 -0.07359902 0.05982587 0.12947245 0.10918352 0.15433848
0.053365216 0.024286766 0.105437726 -0.17706865 0.00837709 0.0040893145 0.22731128 -0.11350977
0.06358978 -0.085839085 -0.077387415 0.06908238 -0.054754894 -0.1871853 0.005093519 -0.104594976
-0.0088695 0.058609635 -0.20992516 -0.048325054 -0.03136977 -0.05130846 0.16138002 -0.024815846
0.079019964 -0.023419915 0.08189105 0.18275271 -0.07270367 -0.027862893 0.07715628 0.08201202
0.060529202 -0.17368586 0.014798795 -0.033240054 -0.11825666 -0.10296853 0.031609695 0.04443206
-0.04390463 0.0439155 0.01789444 -0.039189816 -0.037573542 0.16652149 -0.033084214 -0.0071077566
-0.013213466 -0.020455487 -0.08911053 -0.12342492 0.16307956 -0.115851685 -0.008084752 0.005628246
-0.0809742 -0.019832266 0.18949096 0.028524082 0.011089606 -0.1646817 -0.043172147 -0.10547317
-0.117077 0.11371029 -0.08697392 -0.08094798 -0.14763059 0.062102526 0.038768567 -0.019696519
0.16214037 -0.11388498 -0.011317697 0.06378989 0.026647592 -0.05246231 -0.009412441 0.24729604
0.0076939906 0.06999287 0.009614064 -0.034465794 0.032575805 0.0029791803 0.05034693 -0.06848735
-0.088626035 0.16250102 -0.027344342 0.054753523 -0.079000175 -0.03309986 -0.026526406 0.03833749
0.12786801 -0.10746447 0.04598459 -0.016183017 -0.051000595 -0.0037199052 -0.047322553 -0.02048151
0.026184693 -0.0030197029 0.06307752 0.100011446 0.017010633 -0.023530303 -0.01946478 0.018173752
-0.17197055 0.1784422 -0.023732048 -0.08041111 -0.20597622 -0.035104327 0.09457937 0.032233715
0.09276607 -0.11465888 -0.03695735 -0.07495028 0.021323064 -0.08726993 -0.05404588 0.00064821617
0.042513143 -0.043332227 -0.0626842 0.0018826951 0.068984754 -0.055286255 0.030922603 0.0049222014
0.12518305 -0.11103342 -0.049084924 0.040501244 0.10300291 0.085345544 0.0040614735 0.028985314
-0.115517184 0.13125363 0.06852038 0.035665162 0.039119136 -0.09347215 -0.06627159 -0.009287941
-0.026357729 0.053980354 0.10891463 -0.21208498 -0.023147644 -0.07391952 0.29707924 0.041662034
-0.04102321 -0.021856923 0.029076565 0.08358571 0.10021322 -0.018959917 0.021727974 -0.0009549599
-0.05559959 -0.08332218 -0.040757917 -0.08547828 -0.0008406003 0.16132529 0.0583787 -0.08754573
0.0090888245 0.11932228 0.16108108 0.032389507 0.09891092 0.06695652 0.0964429 0.13567118
-0.06421292 0.13602813 -0.112486735 0.063773595 0.1184743 -0.017449342 -0.08794618 -0.06378577
-0.02547361 -0.05683463 0.038290244 -0.05804681 -0.0807676 -0.06772052 -0.19774473 0.049420528
0.043527495 0.056159005 0.010870036 -0.02946509 0.026437601 0.05317107 -0.04114689 0.009442507
-0.032840624 0.0032815973 -8.474056e-05 -0.011026723 0.0008858729 -0.05412339 0.002932797 -0.10900828
0.100745305 -0.24495211 -0.019814735 0.09041684 0.17600782 0.046063032 -0.011441747 0.10544904
-0.1082963 -0.0660415 -0.04089564 -0.008658789 0.12244808 0.018384377 -0.06424449 -0.06070881
00000000: d686 48bd f544 a63d cb30 e83d 4e86 9a3a
00000010: 4def 1f3e a93c 73bc d849 4fbb 7a9c 643b
00000020: 488a 83bc 567c 38bd 9a57 0c3d afd2 943b
00000030: 6594 903d ade0 013e 85ee 173e e6f4 303e
00000040: e068 3b3d 7204 95bd 2b19 e13c 15bb 96bd
00000050: f90b 753d 6d94 043e 9c9b df3d e80a 1e3e
00000060: 7c95 5a3d 0af5 c63c bcef d73d 7c51 35be
00000070: 1040 093c a8ff 853b 4ac4 683e cf77 e8bd
00000080: 5c3b 823d 67cc afbd 4b7d 9ebd 107b 8d3d
00000090: ab46 60bd 81ad 3fbe 89e7 a63b e435 d6bd
000000a0: 6151 11bc a810 703d 9ff6 56be 7ef0 45bd
000000b0: 977d 00bd d228 52bd ce40 253e 9a4a cbbc
000000c0: 38d5 a13d 1fdb bfbc 7fb6 a73d 8723 3b3e
000000d0: a9e5 94bd b940 e4bc 1d04 9e3d ebf5 a73d
000000e0: 78ed 773d b5da 31be a576 723c b926 08bd
000000f0: 8c30 f2bd 2ae1 d2bd 2b79 013d 64fe 353d
00000100: 57d5 33bd bde0 333d 5c97 923c 8085 20bd
00000110: b7e6 19bd 9c84 2a3e 5083 07bd 2fe8 e8bb
00000120: 4b7d 58bc 4492 a7bc 957f b6bd 34c6 fcbd
00000130: 54fe 263e a643 edbd e875 04bc 266d b83b
00000140: cdd5 a5bd 4777 a2bc eb09 423e 56ab e93c
00000150: 2eb1 353c 52a2 28be 47d5 30bd 5102 d8bd
00000160: 11c6 efbd f1e0 e83d 621f b2bd 0ec8 a5bd
00000170: 792c 17be 385f 7e3d cacb 1e3d 985a a1bc
00000180: 2008 263e 873c e9bd dd6d 39bc 46a4 823d
00000190: 0d4c da3c b8e2 56bd a436 1abc 2c3b 7d3e
000001a0: df1d fc3b 6c58 8f3d 4f84 1d3c 012c 0dbd
000001b0: 356e 053d 5a3e 433b 9538 4e3d 1943 8cbd
000001c0: 9181 b5bd ab66 263e 3e01 e0bc 3b45 603d
000001d0: d8ca a1bd b893 07bd e84d d9bc c607 1d3d
000001e0: d5ef 023e 5516 dcbd 565a 3c3d 3f92 84bc
000001f0: 00e6 50bd a7c9 73bb 4bd5 41bd d7c8 a7bc
00000200: 4881 d63c 35e6 45bb c92e 813d cdd2 cc3d
00000210: e259 8b3c 9fc2 c0bc 9a74 9fbc 1fe1 943c
00000220: 0c19 30be 8db9 363e b669 c2bc 94ae a4bd
00000230: 6eeb 52be 8ec9 0fbd d4b2 c13d 8007 043d
00000240: 23fc bd3d 46d2 eabd 9760 17bd 887f 99bd
00000250: b5ad ae3c 94ba b2bd 365f 5dbd 0ded 293a
00000260: 4322 2e3d 227d 31bd 9360 80bd c4c4 f63a
00000270: e147 8d3d d773 62bd 6651 fd3c 6b4a a13b
00000280: fc2f 003e 7d65 e3bd 460d 49bd a2e4 253d
00000290: 31f3 d23d a5c9 ae3d 1c16 853b 9c72 ed3c
000002a0: 4694 ecbd 5a67 063e 6a54 8c3d a215 123d
000002b0: 633b 203d 546e bfbd 66b9 87bd 732c 18bc
000002c0: 2aec d7bc 811a 5d3d a20e df3d ce2c 59be
000002d0: 21a0 bdbc 1e63 97bd c51a 983e cfa5 2a3d
000002e0: f407 28bd 4a0d b3bc fa31 ee3c fc2e ab3d
000002f0: 973c cd3d d451 9bbc ddfe b13c 4656 7aba
00000300: 65bc 63bd d2a4 aabd c6f1 26bd 3d0f afbd
00000310: bb5b 5cba 7532 253e 811e 6f3d 2d4b b3bd
00000320: 4be9 143c 3d5f f43d 70f2 243e dcaa 043d
00000330: cf91 ca3d 8020 893d db83 c53d 63ed 0a3e
00000340: 1082 83bd f54a 0b3e 725f e6bd bb9b 823d
00000350: a7a2 f23d ecf1 8ebc 201d b4bd 1da2 82bd
00000360: 08ae d0bc 6ecb 68bd 3bd6 1c3d 7ec2 6dbd
00000370: 7c69 a5bd 0eb1 8abd 987d 4abe 2e6d 4a3d
00000380: e349 323d fc06 663d 3c18 323c c660 f1bc
00000390: ab93 d83c e8c9 593d a489 28bd bfb4 1a3c
000003a0: e483 06bd 1110 573b beb6 b1b8 6ea9 34bc
000003b0: ed39 683a 7db0 5dbd 2b34 403b bc3f dfbd
000003c0: 8e53 ce3d bad4 7abe 8352 a2bc 772c b93d
000003d0: 653b 343e 97ac 3c3d 2a76 3bbc abf5 d73d
000003e0: 73ca ddbd c440 87bd 3082 27bd 98dd 0dbc
000003f0: 0fc6 fa3d d59a 963c 9d92 83bd cda9 78bd

network_body.linear_encoder.seq_layers.2.bias f4 [128]
0.0 0.0 0.0 0.0 0.0 0.0 0.0 0.0
0.0 0.0 0.0 0.0 0.0 0.0 0.0 0.0
0.0 0.0 0.0 0.0 0.0 0.0 0.0 0.0
0.0 0.0 0.0 0.0 0.0 0.0 0.0 0.0
0.0 0.0 0.0 0.0 0.0 0.0 0.0 0.0
0.0 0.0 0.0 0.0 0.0 0.0 0.0 0.0
0.0 0.0 0.0 0.0 0.0 0.0 0.0 0.0
0.0 0.0 0.0 0.0 0.0 0.0 0.0 0.0
0.0 0.0 0.0 0.0 0.0 0.0 0.0 0.0
0.0 0.0 0.0 0.0 0.0 0.0 0.0 0.0
0.0 0.0 0.0 0.0 0.0 0.0 0.0 0.0
0.0 0.0 0.0 0.0 0.0 0.0 0.0 0.0
0.0 0.0 0.0 0.0 0.0 0.0 0.0 0.0
0.0 0.0 0.0 0.0 0.0 0.0 0.0 0.0
0.0 0.0 0.0 0.0 0.0 0.0 0.0 0.0
0.0 0.0 0.0 0.0 0.0 0.0 0.0 0.0
00000000: 0000 0000 0000 0000 0000 0000 0000 0000
00000010: 0000 0000 0000 0000 0000 0000 0000 0000
00000020: 0000 0000 0000 0000 0000 0000 0000 0000
00000030: 0000 0000 0000 0000 0000 0000 0000 0000
00000040: 0000 0000 0000 0000 0000 0000 0000 0000
00000050: 0000 0000 0000 0000 0000 0000 0000 0000
00000060: 0000 0000 0000 0000 0000 0000 0000 0000
00000070: 0000 0000 0000 0000 0000 0000 0000 0000
00000080: 0000 0000 0000 0000 0000 0000 0000 0000
00000090: 0000 0000 0000 0000 0000 0000 0000 0000
000000a0: 0000 0000 0000 0000 0000 0000 0000 0000
000000b0: 0000 0000 0000 0000 0000 0000 0000 0000
000000c0: 0000 0000 0000 0000 0000 0000 0000 0000
000000d0: 0000 0000 0000 0000 0000 0000 0000 0000
000000e0: 0000 0000 0000 0000 0000 0000 0000 0000
000000f0: 0000 0000 0000 0000 0000 0000 0000 0000
00000100: 0000 0000 0000 0000 0000 0000 0000 0000
00000110: 0000 0000 0000 0000 0000 0000 0000 0000
00000120: 0000 0000 0000 0000 0000 0000 0000 0000
00000130: 0000 0000 0000 0000 0000 0000 0000 0000
00000140: 0000 0000 0000 0000 0000 0000 0000 0000
00000150: 0000 0000 0000 0000 0000 0000 0000 0000
00000160: 0000 0000 0000 0000 0000 0000 0000 0000
00000170: 0000 0000 0000 0000 0000 0000 0000 0000
00000180: 0000 0000 0000 0000 0000 0000 0000 0000
00000190: 0000 0000 0000 0000 0000 0000 0000 0000
000001a0: 0000 0000 0000 0000 0000 0000 0000 0000
000001b0: 0000 0000 0000 0000 0000 0000 0000 0000
000001c0: 0000 0000 0000 0000 0000 0000 0000 0000
000001d0: 0000 0000 0000 0000 0000 0000 0000 0000
000001e0: 0000 0000 0000 0000 0000 0000 0000 0000
000001f0: 0000 0000 0000 0000 0000 0000 0000 0000

action_model._discrete_distribution.branches.0.weight f4 [11, 128]
0.0033074808 0.014016326 0.0020497886 0.006097222 0.0036577794 -0.006235044 0.0024352758 0.007264131
0.0069364915 -0.0025819892 0.0038847935 -0.0041948403 -0.0083503835 0.009197789 -0.00069535465 0.007477837
0.0074768434 0.0028245042 -0.012939832 -0.011830487 -0.008616122 -0.0007852291 0.013955946 -0.006670235
-0.008893783 -0.0079434095 -0.011328651 -0.017488593 0.0002465511 0.00013371589 -0.00041731252 -0.023420159
0.003423497 0.009004827 -0.010587084 0.0143837305 0.0023958383 -0.009055077 0.0035600585 -0.013354351
0.005282166 -0.007259888 0.001558938 -0.011846914 0.0010801619 0.014940645 0.018699523 -0.018299812
-0.0057289754 -0.009710271 -0.024020966 0.0015243605 -0.0029399376 0.007167723 -0.008283951 0.005751839
0.0022976245 0.007962289 0.0063844197 0.0056554186 -0.006112489 0.0018303313 -0.01132648 -0.012019078
-0.00042544198 -0.0066847852 0.0022420683 0.010889767 -0.0047102813 -0.0013319143 0.008551454 -0.0014421578
-0.0074774185 0.00017171723 -0.009107263 0.003855921 0.0049966113 0.006077173 0.0271493 -0.004476692
-0.01814932 0.011254623 0.0048366394 -0.0008589675 -0.0025935613 0.010391003 0.010745241 0.0023052355
-0.0064535453 0.008184824 0.00032967955 -0.012295423 0.017677357 -0.0016149812 -0.00035962858 0.0014414928
-0.009732924 -0.0105796885 -0.006815118 0.009158243 0.01175121 -0.0027051405 0.021102855 -0.0012750457
0.0010622138 -0.023872113 -0.007304515 -0.00438205 0.0017265388 0.013744271 -0.009295404 0.007290759
-0.008661341 0.0077696303 0.0034192582 0.0072699683 -0.006960752 -0.0026555462 0.0001128707 -0.0041894377
-0.0047773435 0.007214078 -0.003604275 0.008930699 0.02005607 -0.008189507 -0.009427845 -0.008910966
-0.015169672 0.00915616 -0.0020377126 0.0033488532 0.013970725 0.004792487 -0.00012073254 0.0033097106
-0.008086628 0.012441828 -0.009207537 -0.005801976 0.020453373 -0.013689393 0.0041329777 0.0014161628
-0.0053231795 0.0099057 0.002820951 -0.007612908 0.004517998 -0.01612579 0.006102626 0.012120795
-0.008963919 -0.011431092 -0.00367941 -0.0011645466 -0.008120668 0.009473055 -0.0021826278 0.0052933125
0.007503103 0.004340236 0.0023616983 -0.00418733 0.009609415 0.004154403 0.0029939394 -0.016917882
0.0038384378 -0.016277345 0.00052004977 -0.011095586 0.0014057616 -0.012846037 0.011806404 -0.008755346
-0.005092915 0.0013134347 0.0030390662 -0.008088466 -0.017971003 0.005744295 0.00094883854 0.004353193
-0.0059567555 0.004866545 -0.0048596477 0.0015976503 -0.0029224518 0.0034837686 -0.002411108 -0.007188361
0.00095499505 0.0007469993 0.00128314 -0.009032093 -0.009096994 0.0050234203 -0.0015429968 0.017966649
0.012726885 -0.0014246459 -0.023206363 0.006637589 0.01805204 -0.0034517236 -0.0049611665 -0.009769373
0.0087096505 -0.00125015 0.0045726504 -0.008609861 -0.002138007 0.02237126 -0.0059080836 0.009314452
-0.0007034768 0.0008280589 -0.007747736 -0.0040990678 -0.0154506685 0.013574555 -0.008812654 -0.004660075
0.0005000008 0.008058193 0.002620694 0.010796991 -0.0032628595 -0.0008748273 0.0011594895 -0.011090106
0.010686123 0.0049194503 0.0022054536 -0.011864958 0.0032748494 -0.01843614 0.006829017 0.013186668
0.018025354 -0.001920729 0.0024093068 -0.0025658326 0.0033791063 0.0007820289 0.0036469933 -0.0025197049
-0.0032972437 -0.006192358 -0.009493392 0.009462153 0.013179841 -0.012109749 -0.013672553 0.011335976
00000000: 52c2 583b bba4 653c bf55 063b 35cb c73b
00000010: 5bb7 6f3b 574f ccbb 2699 1f3b f307 ee3b
00000020: 824b e33b 9736 29bb 0598 7e3b df74 89bb
00000030: 0cd0 08bc 53b2 163c 7648 36ba a508 f53b
00000040: 4f00 f53b 511b 393b 9701 54bc a9d4 41bc
00000050: a32a 0dbc d5d7 4dba 7ba7 643c fd91 dabb
00000060: 3bb7 11bc 1325 02bc ce9b 39bc 3d44 8fbc
00000070: 8743 8139 1636 0c39 bdca dab9 a2db bfbc
00000080: c05c 603b fb88 133c 7375 2dbc bda9 6b3c
00000090: 7f03 1d3b bf5b 14bc df4f 693b 35cc 5abc
000000a0: 0516 ad3b 5be4 edbb 4755 cc3a 8f19 42bc
000000b0: 3894 8d3a 9bc9 743c be2f 993c 7de9 95bc
000000c0: 21ba bbbb d417 1fbc 9ec7 c4bc 0dcd c73a
000000d0: f8ab 40bb 38df ea3b 69b9 07bc ec79 bc3b
000000e0: be93 163b 4374 023c 6534 d13b 1751 b93b
000000f0: 464b c8bb bae7 ef3a b392 39bc abeb 44bc
00000100: db0d dfb9 0b0c dbbb aaef 123b fe6a 323c
00000110: b458 9abb a193 aeba 661b 0c3c c906 bdba
00000120: 2205 f5bb fe0e 3439 a136 15bc 9fb3 7c3b
00000130: 9dba a33b 0623 c73b 3568 de3c 37b1 92bb
00000140: e2ad 94bc 4f65 383c ac7c 9e3b 552c 61ba
00000150: bdf8 29bb 073f 2a3c cf0c 303c 6f13 173b
00000160: 4378 d3bb a419 063c d7d8 ac39 be72 49bc
00000170: 1bd0 903c c7ad d3ba 888c bcb9 79f0 bc3a
00000180: d876 1fbc 6e56 2dbc 5a51 dfbb 750c 163c
00000190: 2688 403c ba48 31bb e5df ac3c 6f1f a7ba
000001a0: fb39 8b3a 738f c3bc b75a efbb 4d97 8fbb
000001b0: 074d e23a a72f 613c c04b 18bc 52e7 ee3b
000001c0: 4ce8 0dbc 6298 fe3b a215 603b ea38 ee3b
000001d0: 0517 e4bb ac08 2ebb ffb4 ec38 8d47 89bb
000001e0: 438b 9cbb 1364 ec3b b335 6cbb 1152 123c
000001f0: a14c a43c 482d 06bc 3f77 1abc 4dff 11bc
00000200: 378a 78bc b803 163c 258b 05bb 6f78 5b3b
00000210: 78e5 643c 4b0a 9d3b ca31 fdb8 bbe7 583b
00000220: c77d 04bc cfd8 4b3c 36db 16bc 811e bebb
00000230: d58d a73c 7a49 60bc ee6d 873b 8a9e b93a
00000240: 116e aebb 844b 223c b4df 383b b375 f9bb
00000250: b70b 943b 3c1a 84bc 8af8 c73b 4d96 463c
00000260: 67dd 12bc 7a49 3bbc 4222 71bb b3a3 98ba
00000270: 8d0c 05bc df34 1b3c 6b0a 0fbb 8673 ad3b
00000280: 97dc f53b 8a38 8e3b b9c6 1a3b df35 89bb
00000290: cf70 1d3c a921 883b f835 443b 5f97 8abc
000002a0: 4d8e 7b3b 1158 85bc f353 083a 43ca 35bc
000002b0: 8841 b83a 2f78 52bc a66f 413c 9572 0fbc
000002c0: 78e2 a6bb 8e27 ac3a 122b 473b 7c85 04bc
000002d0: ed37 93bc a43a bc3b 7abb 783a 3ba5 8e3b
000002e0: e330 c3bb 8a77 9f3b ae3d 9fbb 4068 d13a
000002f0: 9b86 3fbb f04f 643b ae03 1ebb 588c ebbb
00000300: a258 7a3a 46d2 433a 092f a83a 58fb 13bc
00000310: 8f0b 15bc 819b a43b 623e caba cb2e 933c
00000320: 6d84 503c 2fbb baba 451b bebc 2280 d93b
00000330: dfe1 933c 5036 62bb 4891 a2bb b80f 20bc
00000340: ecb2 0e3c 13dc a3ba 2cd6 953b 6010 0dbc
00000350: ce1d 0cbb ef43 b73c 9998 c1bb a59b 183c
00000360: 8769 38ba 1812 593a b8e0 fdbb 7951 86bb
00000370: cd24 7dbc cf67 5e3c f362 10bc 8bb3 98bb
00000380: 7c12 033a 8306 043c f3bf 2b3b dde5 303c
00000390: b3d5 55bb ab54 65ba 03fa 973a 47b3 35bc
000003a0: d914 2f3c 5733 a13b 5f89 103b 3e65 42bc
000003b0: db9e 563b 6307 97bc f2c5 df3b e50c 583c
000003c0: e8a9 933c f8c0 fbba 76e5 1d3b 8727 28bb
000003d0: ff73 5d3b 1201 4d3a 6502 6f3b a221 25bb
000003e0: 9216 58bb 44e9 cabb 2c8a 1bbc 2507 1b3c
000003f0: 43f0 573c f867 46bc d802 60bc 88ba 393c

action_model._discrete_distribution.branches.0.bias f4 [11]
0.0 0.0 0.0 0.0 0.0 0.0 0.0 0.0
0.0 0.0 0.0
00000000: 0000 0000 0000 0000 0000 0000 0000 0000
00000010: 0000 0000 0000 0000 0000 0000 0000 0000
00000020: 0000 0000 0000 0000 0000 0000

action_model._discrete_distribution.branches.1.weight f4 [29, 128]
-0.009960342 -0.0037775307 -0.003958225 -0.0065081664 -0.0035008993 -0.0015562059 -0.0040061283 -0.008445475
-0.0031060872 -0.016447088 -0.006918292 0.0131282555 -0.0049699047 0.012787402 -0.0013044064 -0.010998297
0.0018188838 -0.0052243494 0.002123554 0.0026954978 0.0027192938 -0.011009215 -0.0026622599 -0.0061303955
-0.0244477 -0.0011828018 0.00065166235 0.018460616 0.01450962 -0.009956372 0.001187879 -0.008161438
0.011846571 0.0016264281 0.0023071251 -0.00881224 -0.0068593035 0.0089068385 -0.007884443 -0.0009214162
0.0030386674 -0.005770784 0.007677087 0.00057942065 0.012481646 0.0009218349 0.0024998307 -0.0038221367
0.0009155975 -0.017699627 0.005755571 0.0120858615 -0.0022682657 -0.002822696 0.0067096897 0.00729519
0.009089851 -0.004330913 -0.0050978707 -0.0023409014 -0.008344321 0.0018882112 -0.005929659 -0.013375349
-0.0023015605 0.0055288677 -0.004485132 0.007203292 -0.00827 0.013311175 0.010745811 -0.007544236
0.012507367 -0.015040688 0.0077063413 -0.0030352396 0.006373469 0.0017964522 0.0118004875 0.0041555925
-0.0014963244 0.0052000433 -0.014930918 0.0025862332 -0.0007670456 -0.009510776 0.0033094955 0.0022081414
-0.015365966 0.006133209 0.0023616904 0.0047986037 0.00014035804 -0.014901186 0.00640928 0.0014446895
-0.018548967 -0.0055742282 -0.0013667069 0.006527974 0.0041919057 -0.018097002 0.0071521937 -0.00061751954
0.00627021 0.016890777 -0.019512044 -0.0034199383 -0.0008239058 0.013149043 0.011073387 -0.00052224076
0.0012398344 -0.007908583 0.011110836 0.0010070247 0.004131562 0.005882779 -0.009798039 -0.007956925
-0.0046192836 0.009032425 0.001442339 0.0025632314 0.003155437 0.015631549 0.009040191 0.009450923
0.009626764 -0.008634332 -0.007145966 -0.0023440856 0.0036454562 -0.0135804815 -0.0067434446 0.014417039
0.022089176 0.003515452 0.0020443057 -0.0016082263 0.005143798 -0.0024701587 -0.002511442 -0.0005091066
-0.0034593716 -0.013172679 0.0020085375 0.013641826 -0.005089665 -0.007819859 -0.009500613 -0.003212537
0.0090213595 -0.0039900346 0.008612449 0.0071505383 -0.02078774 0.000110923625 0.003870684 -0.0025012018
0.019600263 0.0028142177 0.0051688 -0.0041259937 0.025966266 -0.000786934 0.0037506425 -0.0026277185
0.009155679 -0.0009567311 -0.017019913 0.0030796847 0.011712841 0.0017232286 -0.005308163 -0.0015242994
0.020174239 -0.0067735002 -0.011725814 -0.010666028 0.0034484558 0.003947226 0.006663029 -0.0031079447
0.012022438 0.009701738 -0.005463753 0.0032752876 0.0025706573 -0.00043872092 0.008776201 0.0032490373
0.0069800704 0.010777773 -0.0005602256 -0.015399585 -0.0023138647 0.0067202197 -0.0102758845 0.0034599334
-0.002907791 0.0047266157 0.0040199715 -0.0038866934 0.0066834376 0.001194301 0.0038054795 -0.006274614
-0.02215152 -0.007519357 -0.01401371 -0.012665867 0.0019551625 0.0070170374 0.010105951 0.0016316901
-0.005457466 0.0037874838 0.0027612483 0.005369967 0.00647403 -0.022910215 -0.01062572 -0.0017193047
-0.006557273 -0.0036405053 -0.018734746 0.003511132 0.007205315 0.0049272156 -0.0061470256 -0.01686026
0.007908737 -0.0027004306 -0.0045800777 0.0017366238 0.011600231 -0.0036897317 -0.014957115 0.00048961904
0.0048551722 0.013721584 0.002604159 0.0067547597 0.00030145122 -0.0006084018 0.012109107 -0.0033380382
-0.010937835 -0.0039607524 -0.006227187 -0.006525807 -0.009692131 0.0017887108 0.0026558004 -0.010465849
00000000: b430 23bc 7390 77bb ffb3 81bb 7542 d5bb
00000010: 586f 65bb 9bf9 cbba d745 83bb e45e 0abc
00000020: 7f8f 4bbb 0bbc 86bc d7b2 e2bb e517 573c
00000030: 95da a2bb 4082 513c 9ef8 aaba 3332 34bc
00000040: 9d67 ee3a 0531 abbb 532b 0b3b f3a6 303b
00000050: 2e36 323b ff5f 34bc 4f79 2ebb 7ce1 c8bb
00000060: 8b46 c8bc 3e08 9bba 52d4 2a3a b83a 973c
00000070: c2b9 6d3c 0d20 23bc 9bb2 9b3a 8db7 05bc
00000080: 1f18 423c df2d d53a 2333 173b 3761 10bc
00000090: 02c4 e0bb fded 113c c02d 01bc 328b 71ba
000000a0: 6124 473b d818 bdbb 1390 fb3b 43e4 173a
000000b0: d17f 4c3c 4ba7 713a 33d4 233b d07c 7abb
000000c0: b504 703a cffe 90bc 3b99 bc3b c703 463c
000000d0: 2fa7 14bb fbfc 38bb f5dc db3b 7d0c ef3b
000000e0: 99ed 143c 55ea 8dbb 0a0c a7bb cf69 19bb
000000f0: 9eb6 08bc db7d f73a 964d c2bb 4824 5bbc
00000100: c7d5 16bb 812b b53b 04f8 92bb 9809 ec3b
00000110: e57e 07bc 1d17 5a3c 330f 303c a335 f7bb
00000120: b3eb 4c3c 386d 76bc 7a85 fc3b dfea 46bb
00000130: 88d8 d03b ef76 eb3a d556 413c a32b 883b
00000140: 5120 c4ba 2065 aa3b cfa0 74bc cb7d 293b
00000150: 8f13 49ba 16d3 1bbc 1fe4 583b 77b6 103b
00000160: 88c1 7bbc 16f9 c83b 97c6 1a3b 9b3d 9d3b
00000170: 132d 1339 1b24 74bc f004 d23b bc5b bd3a
00000180: 01f4 97bc 04a8 b6bb 1323 b3ba 9de8 d53b
00000190: 415c 893b 2a40 94bc f35c ea3b 09e1 21ba
000001a0: 5576 cd3b 875e 8a3c b9d7 9fbc 0b21 60bb
000001b0: 62fb 57ba 156f 573c 276d 353c fce6 08ba
000001c0: f081 a23a 0093 01bc 390a 363c 24fe 833a
000001d0: 0e62 873b 54c4 c03b f487 20bc c35d 02bc
000001e0: 5c5d 97bb bcfc 133c de0c bd3a e3fb 273b
000001f0: 73cb 4e3b bc0d 803c 4f1d 143c 0bd8 1a3c
00000200: 93b9 1d3c 0377 0dbc b528 eabb 3b9f 19bb
00000210: 9be8 6e3b ab80 5ebc 1df8 dcbb 7235 6c3c
00000220: 5cf4 b43c 7f63 663b c2f9 053b 1fcb d2ba
00000230: 4e8d a83b 63e2 21bb 0197 24bb 9175 05ba
00000240: a0b6 62bb 38d2 57bc aba1 033b f781 5f3c
00000250: 34c7 a6bb de1e 00bc 76a8 1bbc 6d89 52bb
00000260: 53ce 133c d6be 82bb 3b1b 0d3c 104f ea3b
00000270: 0d4b aabc ab9f e838 4dab 7d3b 34eb 23bb
00000280: bb90 a03c bd6e 383b 095f a93b 5833 87bb
00000290: 35b7 d43c 3f4a 4eba 57cd 753b cd35 2cbb
000002a0: b301 163c 23cd 7aba 586d 8bbc 89d4 493b
000002b0: 37e7 3f3c f5dd e13a 19f0 adbb 00cb c7ba
000002c0: 7244 a53c 3df4 ddbb a11d 40bc 90c0 2ebc
000002d0: 7dff 613b bb57 813b 8a55 da3b a9ae 4bbb
000002e0: c3f9 443c 0af4 1e3c 4809 b3bb 35a6 563b
000002f0: 7978 283b 2004 e6b9 0eca 0f3c cded 543b
00000300: 13b9 e43b 4295 303c 1bdc 12ba 8a4e 7cbc
00000310: 35a4 17bb 4a35 dc3b 2f5c 28bc 0dc0 623b
00000320: a390 3ebb bae1 9a3b f7b9 833b e5b7 7ebb
00000330: bd00 db3b 178a 9c3a 5a65 793b 479b cdbb
00000340: 1b77 b5bc f064 f6bb c399 65bc 7f84 4fbc
00000350: 2f22 003b 2def e53b 6e93 253c 6fde d53a
00000360: 8bd4 b2bb 6f37 783b 0ff6 343b 8cf6 af3b
00000370: 1a24 d43b 34ae bbbc 8017 2ebc 4b5a e1ba
00000380: 65de d6bb 8b95 6ebb 9c79 99bc 051b 663b
00000390: 901a ec3b 7b74 a13b fd6c c9bb 871e 8abc
000003a0: a693 013c b5f9 30bb 7a14 96bb 6d9f e33a
000003b0: e50e 3e3c 6dcf 71bb b00e 75bc c759 003a
000003c0: 2318 9f3b 7fd0 603c 8aaa 2a3b 0857 dd3b
000003d0: 190c 9e39 277d 1fba 4765 463c fdc2 5abb
000003e0: 9b34 33bc 33c9 81bb 6e0d ccbb 70d6 d5bb
000003f0: becb 1ebc 2d73 ea3a f00c 2e3b f478 2bbc

action_model._discrete_distribution.branches.1.bias f4 [29]
0.0 0.0 0.0 0.0 0.0 0.0 0.0 0.0
0.0 0.0 0.0 0.0 0.0 0.0 0.0 0.0
0.0 0.0 0.0 0.0 0.0 0.0 0.0 0.0
0.0 0.0 0.0 0.0 0.0
00000000: 0000 0000 0000 0000 0000 0000 0000 0000
00000010: 0000 0000 0000 0000 0000 0000 0000 0000
00000020: 0000 0000 0000 0000 0000 0000 0000 0000
00000030: 0000 0000 0000 0000 0000 0000 0000 0000
00000040: 0000 0000 0000 0000 0000 0000 0000 0000
00000050: 0000 0000 0000 0000 0000 0000 0000 0000
00000060: 0000 0000 0000 0000 0000 0000 0000 0000
00000070: 0000 0000

action_model._discrete_distribution.branches.2.weight f4 [29, 128]
0.0037685712 -0.0050307033 -0.015418996 0.012200298 -0.001174546 0.0127322525 -0.008388745 0.015275592
0.0033885885 -0.0035753604 -0.02229905 -0.00049687043 0.00488092 -0.0040329606 -0.002160919 -0.0047973874
-0.007924927 -0.008807428 -0.0017163496 -0.017218528 0.006200503 0.01860741 0.005394824 -0.0013825566
0.015653562 0.0044184085 0.00027963318 0.00584308 -0.02234415 -0.011323395 -0.01450182 0.0013994799
0.010188963 -0.0043943482 0.010130438 -0.004370363 0.003294158 0.00863737 -0.0057153525 0.001951479
-0.0034338476 -0.00058331783 0.009776454 0.025270164 0.0067914324 0.017195253 -0.015318401 -0.0012491451
-0.0072696256 -0.0021427053 -0.003556663 0.0016084092 -0.0027720204 0.010792364 -0.0076932446 -0.014689529
-0.0045456416 0.016937748 -0.0042383424 -0.013027765 0.012762961 0.00086221285 -0.009651228 0.027635837
-0.0032077767 -0.00019422366 -0.006929227 -0.010113037 0.0065754876 0.0006345753 -0.014745094 0.011378741
0.0033061695 0.010148285 -0.005649125 0.0043201963 0.005076098 0.0024996672 -0.0063038445 0.007253175
0.007726211 -0.007390249 -0.0027130211 0.009269655 -0.008571967 0.025840703 0.010394989 0.007260298
-0.00042237845 -0.009631204 -0.013217374 -0.008540537 -0.0016497156 0.011478546 0.0046816743 -0.0043379255
-0.0010313035 0.0043906863 0.002153256 0.0066259094 -0.0077726515 -0.011779969 0.007171442 0.0029646659
0.02003343 -0.014801516 0.005805579 0.018956544 -0.00012161394 -0.005656142 0.006312961 -0.0056544156
-0.001510633 0.0014396213 0.0035862287 -0.014101042 -0.00036393735 -0.0068215355 -0.009419208 -0.00201866
-0.01129147 -0.0013606747 -0.016945744 -0.0117076095 -0.005855817 -0.0011296686 0.018671554 0.015592137
-0.00084980734 -0.013407025 0.007816886 3.7272825e-05 0.011780831 0.0033799359 -0.0044706375 0.0059620454
-0.0003895055 0.016049463 0.016083052 0.00606599 -0.0016964024 -0.016182695 -0.011407823 0.014498959
0.00044305212 -0.0023282298 0.0006694915 0.014289143 -0.0031772058 0.0007578291 0.011328704 0.006349522
-0.0017641177 0.0075188833 -0.016051196 0.0051681 0.00089505984 0.008975136 0.00018045215 0.0038475774
-0.0015875364 0.003338315 -0.0013607255 0.0007369303 -0.008826471 -0.0063074687 -0.016165894 0.0016986355
-0.0074989297 0.008082846 -0.009149043 -0.002133846 -0.005962092 0.0026004524 0.010571851 0.008827727
0.0043292604 0.008287191 0.0013037822 0.030113975 0.010116345 -0.005468217 0.0061876494 -0.0020810778
0.008557514 0.0007221116 -0.012822102 0.013982675 -0.0010255332 -0.019012624 -0.0061895344 0.0045109433
0.0031442286 0.0015597253 -0.0040643695 -0.011675107 -0.004028193 -0.0089810295 -0.014788556 -0.0032228385
0.013387102 0.003452899 -0.0018663639 0.006526995 -0.011366344 -0.013904959 -0.00536759 -0.004178684
-0.00048454883 -0.0083441585 0.0213696 -0.0069617108 -0.0031253432 0.009676666 -0.0120575065 -0.004846377
-0.0016549506 0.0022030433 0.002125063 0.0014954307 0.015667383 0.00047508624 0.0045391466 0.010340369
-0.016530758 0.0037300233 0.0048237354 0.0020867372 -0.0056938175 0.008367911 0.015371229 0.0025169596
-0.0037514723 0.0054606223 0.0024446116 0.008759779 -0.020807272 -0.0067866817 0.0017225704 -0.0025077935
0.00499092 0.016746242 0.016465124 -0.016767224 0.01170975 -0.0028171195 -0.009112511 0.0010748757
-0.009763313 -0.0045519117 -0.014075424 0.0046182033 -0.0021791083 0.015005054 -0.0281458 -0.0076188925
00000000: 22fa 763b 99d8 a4bb f59f 7cbc c2e3 473c
00000010: 39f3 99ba f09a 503c f270 09bc 7a46 7a3c
00000020: 1513 5e3b 9850 6abb 7fac b6bc 6940 02ba
00000030: 20f0 9f3b ed26 84bb 349e 0dbb 6733 9dbb
00000040: 8ed7 01bc 084d 10bc 23f7 e0ba df0d 8dbc
00000050: 972d cb3b 916e 983c 10c7 b03b e736 b5ba
00000060: e63b 803c 4cc8 903b bb9b 9239 4f77 bf3b
00000070: 140b b7bc c385 39bc 0b99 6dbc c16e b73a
00000080: 9cef 263c 77fe 8fbb 23fa 253c 4335 8fbb
00000090: cde2 573b c183 0d3c da47 bbbb c5c8 ff3a
000000a0: 670a 61bb cce9 18ba 6c2d 203c 6003 cf3c
000000b0: aa8a de3b 0fdd 8c3c 08fa 7abc 5bba a3ba
000000c0: 0a36 eebb a16c 0cbb e716 69bb 42d1 d23a
000000d0: c9aa 35bb 75d2 303c 9d17 fcbb 5aac 70bc
000000e0: 9bf3 94bb 08c1 8a3c cbe1 8abb 6872 55bc
000000f0: bd1b 513c 2006 623a 2f20 1ebc 8d64 e23c
00000100: 9039 52bb 84a8 4bb9 920e e3bb 27b1 25bc
00000110: 3077 d73b a159 263a 6895 71bc e66d 3a3c
00000120: 52ac 583b fe44 263c 4c1c b9bb 6f90 8d3b
00000130: 6555 a63b 75d1 233b 7b90 cebb 0bac ed3b
00000140: 282c fd3b e729 f2bb f1cc 31bb c0df 173c
00000150: 6f71 0cbc e2af d33c be4f 2a3c cbe7 ed3b
00000160: ad72 ddb9 33cc 1dbc af8d 58bc 9ced 0bbc
00000170: 453b d8ba 8310 3c3c bb68 993b 2825 8ebb
00000180: ce2c 87ba bfdf 8f3b a41d 0d3b 281e d93b
00000190: bab1 febb c500 41bc 6afe ea3b d74a 423b
000001a0: 261d a43c 0f82 72bc ba3c be3b c14a 9b3c
000001b0: fd0a ffb8 2857 b9bb f5dc ce3b ad48 b9bb
000001c0: 6f00 c6ba adb1 bc3a ef06 6b3b 0f08 67bc
000001d0: d8ce beb9 3087 dfbb 0653 1abc 7f4b 04bb
000001e0: dcff 38bc ab58 b2ba cdd1 8abc 46d1 3fbc
000001f0: 27e2 bfbb 6311 94ba 16f5 983c 2a76 7f3c
00000200: 9bc5 5eba 23a9 5bbc 6512 003c 6455 1c38
00000210: 6304 413c ea81 5d3b 6d7e 92bb 435d c33b
00000220: 8b36 ccb9 2a7a 833c 9bc0 833c 36c5 c63b
00000230: d259 deba 9291 84bc e1e7 3abc 0b8d 6d3c
00000240: 7349 e839 3795 18bb d080 2f3a 021d 6a3c
00000250: ab38 50bb 0da9 463a 079c 393c a70f d03b
00000260: f839 e7ba f760 f63b cc7d 83bc 2a59 a93b
00000270: 73a2 6a3a 730c 133c c137 3d39 a327 7c3b
00000280: e214 d0ba a2c7 5a3b 5f5a b2ba 8e2e 413a
00000290: e79c 10bc e2ae cebb 566e 84bc c0a4 de3a
000002a0: 95b9 f5bb ea6d 043c dee5 15bc ffd7 0bbb
000002b0: a75d c3bb 5a6c 2a3b 8f35 2d3c 2ca2 103c
000002c0: 78dc 8d3b 00c7 073c ace3 aa3a 95b1 f63c
000002d0: 07bf 253c bb2e b3bb c4c1 ca3b b162 08bb
000002e0: d134 0c3c 174c 3d3a cb13 52bc 9717 653c
000002f0: 2f6b 86ba 5dc0 9bbc 94d1 cabb 89d0 933b
00000300: 670f 4e3b b26f cc3a 672e 85bb f348 3fbc
00000310: effe 83bb 2b25 13bc b34b 72bc 4236 53bb
00000320: 9355 5b3c 084a 623b c8a0 f4ba 67e0 d53b
00000330: e739 3abc a0d1 63bc 9ce2 afbb 58ed 88bb
00000340: 0b0b feb9 f0b5 08bc 4d0f af3c 101f e4bb
00000350: 8fd2 4cbb e18a 1e3c d98c 45bc 5bce 9ebb
00000360: edea d8ba ef60 103b a444 0b3b 5402 c43a
00000370: e258 803c ff14 f939 1fbd 943b a76a 293c
00000380: 836b 87bc 6873 743b 6d10 9e3b a4c1 083b
00000390: 3493 babb 9019 093c 9bd7 7b3c 93f3 243b
000003a0: 43db 75bb 05ef b23b c735 203b 2d85 0f3c
000003b0: 0374 aabc d062 debb dfc7 e13a cb59 24bb
000003c0: df8a a33b 6a2f 893c dee1 863c 6b5b 89bc
000003d0: 40da 3f3c 6c9f 38bb a44c 15bc d8e2 8c3a
000003e0: 4ef6 1fbc 3428 95bb 9b9c 66bc 4c54 973b
000003f0: 5fcf 0ebb c2d7 753c 0592 e6bc e7a7 f9bb

action_model._discrete_distribution.branches.2.bias f4 [29]
0.0 0.0 0.0 0.0 0.0 0.0 0.0 0.0
0.0 0.0 0.0 0.0 0.0 0.0 0.0 0.0
0.0 0.0 0.0 0.0 0.0 0.0 0.0 0.0
0.0 0.0 0.0 0.0 0.0
00000000: 0000 0000 0000 0000 0000 0000 0000 0000
00000010: 0000 0000 0000 0000 0000 0000 0000 0000
00000020: 0000 0000 0000 0000 0000 0000 0000 0000
00000030: 0000 0000 0000 0000 0000 0000 0000 0000
00000040: 0000 0000 0000 0000 0000 0000 0000 0000
00000050: 0000 0000 0000 0000 0000 0000 0000 0000
00000060: 0000 0000 0000 0000 0000 0000 0000 0000
00000070: 0000 0000

action_model._discrete_distribution.branches.3.weight f4 [9, 128]
-0.0012221534 0.0110853715 -0.012900877 -0.003670544 -0.0007151955 -0.0049758386 0.015233628 0.012407131
0.0028690319 -0.004948678 -0.010632756 0.0044154446 -0.0067041875 0.006915039 -0.010477737 0.0012708358
0.0070487834 -0.001535091 0.0021358633 0.0017222271 -0.0009832148 0.012683629 0.005725067 0.0067835
-0.0026596806 0.011219065 -0.010030088 -0.00016513997 0.0045242137 0.01868736 0.0031735015 -0.0066092885
-0.008597895 0.004920298 0.0028858616 0.008724583 -0.0016871624 -0.001789242 -0.016165042 -0.0003888723
0.0010406596 -0.0016105222 -0.0038912282 0.01889637 0.011591299 -0.0038763743 -0.02570329 -0.000951889
0.0053585814 0.0064316387 0.007993787 -0.016353603 -0.004942505 -0.0042855158 -0.014656176 0.000364252
-0.008973832 0.0026982138 0.00043534068 0.0030073272 -0.00042478074 0.0017954638 0.010245232 0.0065285377
0.0028552914 0.005695483 0.004914269 0.0075225323 -0.0015921941 -0.014256628 0.01653797 0.0063253934
-0.01364161 0.015795846 0.0010015485 -0.0014053135 0.009106152 -0.010713779 0.0072897016 0.009023519
0.003496632 -0.004766361 -0.005729922 0.006677992 -0.008063751 0.00847019 -0.013913308 -0.004618376
0.01080607 0.0059305797 0.008770789 0.003089843 -0.006986938 -0.0030889472 -0.0057236208 -0.012995302
0.006766555 0.00296788 0.015076274 0.013684968 -0.0011415997 0.014812238 0.0056422856 -0.0008603772
-0.006499858 0.008328273 0.0054121087 0.0005617513 -0.003846737 -0.009028678 -0.004815512 -0.005528757
0.004438973 0.0061113345 -0.010999593 -0.007399138 0.0065148505 0.011920946 -0.013199614 0.0021423001
-0.006498878 0.0062707514 -0.010333113 -0.0047823447 -0.018359581 0.005011708 0.018753719 -0.0067369067
-0.0050963117 0.0035690349 0.013097199 -0.008062605 0.0139167635 -0.012634334 -0.0034544591 0.0054512382
0.0026108804 -0.0026280014 0.00983224 -0.0007992168 -0.009572989 0.007982862 -0.015006768 -0.0021897634
0.015443643 -0.014557055 -0.0024398693 -0.0043762447 -0.0024231828 0.0064562964 0.019507062 0.004023417
-0.012555211 0.024708191 -0.00073554285 -0.0067670466 -0.004561161 -0.009701844 -0.0066696987 0.0104713235
-0.022433763 -0.010932921 -0.0037837604 0.011426673 -0.005698931 0.016639234 0.0006466928 -0.013539478
0.0028759649 0.0047868635 -0.013356887 0.011758986 -0.014699536 -0.0041923313 -0.0006211857 0.0040084864
-0.012060721 0.008233571 0.008690114 0.0060117575 0.0011475185 0.019870592 0.0105086705 -0.006864536
0.002296301 -0.003654987 -0.01598832 0.00035648982 -0.0031506687 0.0072490163 -0.0007300433 -0.0054984055
-0.005828682 -0.014661423 -0.00013056511 0.0026995607 0.007926875 -0.009163638 0.0010912381 0.0007406534
-0.017640032 -0.008014802 0.014305244 -0.0027840335 0.007615529 -0.013691577 -0.007605859 -0.0059707533
0.0033367525 -0.0005352352 0.017424738 0.009218971 0.004969859 0.018745378 0.0024748973 0.0069059595
-0.007854915 -0.0074967444 0.007717977 0.006792322 -0.023670599 -0.001098541 0.008683391 0.0010986159
-0.004024146 0.0005437294 0.008827685 -0.008002298 0.009574798 -0.010326698 -0.0012318167 -0.008479801
0.0051112245 0.0019044875 -0.0031503637 0.007547084 -0.015025148 0.004212581 -0.0053265537 -0.006432744
-0.0130371405 0.0060519846 0.0016280912 -0.009570684 -0.001889661 -0.011024728 -0.0023234235 -0.0053037065
-0.000636183 0.003440447 -0.0028599047 0.014850936 0.016273579 0.0021823575 0.010186427 0.0057206107
00000000: aa30 a0ba 6b9f 353c 335e 53bc 828d 70bb
00000010: f57b 3bba 5c0c a3bb 7896 793c 4747 4b3c
00000020: 5e06 3c3b 8528 a2bb 0335 2ebc 6faf 903b
00000030: cdae dbbb 8d97 e23b d0aa 2bbc 2c92 a63a
00000040: 7bf9 e63b 1b35 c9ba d7f9 0b3b 5abc e13a
00000050: 37df 80ba ffce 4f3c 5899 bb3b 1f48 de3b
00000060: 094e 2ebb 2bd0 373c 3d55 24bc 6c29 2db9
00000070: db3f 943b 3c16 993c 85fa 4f3b bb92 d8bb
00000080: 2fde 0cbc 733a a13b b920 3d3b 8ef1 0e3c
00000090: c723 ddba 0085 eaba 8d6c 84bc 8ee1 cbb9
000000a0: be66 883a 2818 d3ba fa03 7fbb 8fcc 9a3c
000000b0: 6fe9 3d3c c50a 7ebb b58f d2bc 3088 79ba
000000c0: 0a97 af3b 7fc0 d23b 5ff8 023c fef7 85bc
000000d0: bdf4 a1bb 836d 8cbb 7520 70bc 13f9 be39
000000e0: fb06 13bc 84d4 303b 703e e439 9416 453b
000000f0: 1bb5 deb9 c555 eb3a 9edb 273c 58ed d53b
00000100: d71f 3b3b 2da1 ba3b e007 a13b 937f f63b
00000110: 2bb1 d0ba a294 69bc a37a 873c 3f45 cf3b
00000120: 0f81 5fbc 4a66 813c 6446 833a 7f32 b8ba
00000130: f831 153c d988 2fbc 73de ee3b 62d7 133c
00000140: c027 653b 222f 9cbb 12c2 bbbb 0fd3 da3b
00000150: d31d 04bc 8dc6 0a3c a5f4 63bc bf55 97bb
00000160: f10b 313c 4f55 c23b 5bb3 0f3c f77e 4a3b
00000170: aff2 e4bb ef6f 4abb 368d bbbb 3fea 54bc
00000180: fab9 dd3b c480 423b 7a02 773c eb36 603c
00000190: bba1 95ba 07af 723c ece2 b83b f08a 61ba
000001a0: c3fc d4bb 4f73 083c 0f58 b13b 7e42 133a
000001b0: 8a19 7cbb 05ed 13bc 71cb 9dbb 932a b5bb
000001c0: ce74 913b 9741 c83b a337 34bc 7874 f2bb
000001d0: 877a d53b 1250 433c 3243 58bc d565 0c3b
000001e0: 8af4 d4bb e07a cd3b 384c 29bc 37b5 9cbb
000001f0: d566 96bc 4139 a43b 66a1 993c 45c1 dcbb
00000200: f6fe a6bb 78e6 693b a295 563c 0419 04bc
00000210: 2303 643c 3d00 4fbc 3564 62bb 4da0 b23b
00000220: 4e1b 2b3b 8c3a 2cbb 6717 213c 8882 51ba
00000230: 07d8 1cbc 8dca 023c f2de 75bc 2282 0fbb
00000240: 5507 7d3c b780 6ebc 37e6 1fbb 9a66 8fbb
00000250: 43ce 1ebb 578f d33b 46cd 9f3c ded6 833b
00000260: 5fb4 4dbc d568 ca3c 72d1 40ba 1abe ddbb
00000270: cb75 95bb 7cf4 1ebc 7d8d dabb ea8f 2b3c
00000280: 03c7 b7bc ff1f 33bc f7f8 77bb f136 3b3c
00000290: 19be babb 014f 883c d286 293a b0d4 5dbc
000002a0: af7a 3c3b 1fdb 9c3b d8d6 5abc c3a8 403c
000002b0: 53d6 70bc d35f 89bb 11d7 22ba 9f59 833b
000002c0: 559a 45bc 1ae6 063c fb60 0e3c 47fe c43b
000002d0: 5568 963a a7c7 a23c 8f2c 2c3c e7ef e0bb
000002e0: 8a7d 163b 8288 6fbb f0f9 82bc 41e7 ba39
000002f0: 737b 4ebb 2889 ed3b 6060 3fba f82b b4bb
00000300: 87fe bebb 7736 70bc 4ee8 08b9 1deb 303b
00000310: b9df 013c 1523 16bc e007 8f3a 6928 423a
00000320: d481 90bc 8450 03bc 8b60 6a3c 5574 36bb
00000330: b08b f93b a352 60bc 923a f9bb 4fa6 c3bb
00000340: 6bad 5a3b 074f 0cba 53be 8e3c 2b0b 173c
00000350: 33da a23b e88f 993c e331 223b 634b e23b
00000360: e7b1 00bc 40a7 f5bb 15e7 fc3b 2092 de3b
00000370: d8e8 c1bc ebfc 8fba c844 0e3c 6fff 8f3a
00000380: fcdc 83bb 1089 0e3a ffa1 103c 121c 03bc
00000390: 9ddf 1c3c 5031 29bc e974 a1ba ddee 0abc
000003a0: 0f7c a73b ff9f f93a 5576 4ebb 874d f73b
000003b0: 0a2c 76bc b109 8a3b 5f8a aebb c5c9 d2bb
000003c0: bb99 55bc ba4f c63b ad65 d53a 5cce 1cbc
000003d0: 80ae f7ba 10a1 34bc 9444 18bb b7ca adbb
000003e0: 85c5 26ba 1f79 613b 3d6d 3bbb 5751 733c
000003f0: 2b50 853c e205 0f3b f9e4 263c f673 bb3b

action_model._discrete_distribution.branches.3.bias f4 [9]
0.0 0.0 0.0 0.0 0.0 0.0 0.0 0.0
0.0
00000000: 0000 0000 0000 0000 0000 0000 0000 0000
00000010: 0000 0000 0000 0000 0000 0000 0000 0000
00000020: 0000 0000
