results/ppo/BadChessPlayer/BadChessPlayer-127.pt (torch, 411735 bytes, 45 tensors)

network_body.linear_encoder.seq_layers.0.weight f4 [128, 72]
0	0x3e43d1ff	0.19123076
1	0xbcb83e58	-0.022490665
2	0xbab8fb58	-0.0014112992
3	0xbc8090e0	-0.015694082
4	0x3e1b1e55	0.1514829
5	0xbe2b781c	-0.16745037
6	0xbd9efc94	-0.07763019
7	0xbcc31728	-0.023814753
8	0x3d76048f	0.06006294
9	0xbe366432	-0.17811659
10	0xbe6ad903	-0.22934346
11	0x3e11e66c	0.14248055
12	0x3e47d38b	0.19514291
13	0x3d7fa928	0.06241718
14	0xbe187f10	-0.1489222
15	0xbd51c7e5	-0.051216025
16	0xbb78629b	-0.003790057
17	0x3cc191ff	0.023629187
18	0x3db3c871	0.087784655
19	0x3d8afc05	0.0678635
20	0x3db69abe	0.089162335
21	0x3e372c72	0.17888048
22	0xbe08f4b1	-0.13374592
23	0xbdca9cb7	-0.09893172
24	0xbe18edc7	-0.14934455
25	0x3d8e528e	0.0694934
26	0x3da40266	0.0800827
27	0xbe0288f4	-0.12747556
28	0xbc4b092d	-0.012392324
29	0x3d410ab3	0.047129344
30	0x3da11f9d	0.07867358
31	0xbda0b4d7	-0.078469925
32	0xbd820fab	-0.06350645
33	0xbddb46d0	-0.10706866
34	0x3dcfc753	0.1014544
35	0xbe1773ab	-0.14790218
36	0xbc0e673f	-0.008691608
37	0xbe2611d5	-0.1621774
38	0xbce2e936	-0.027699094
39	0x3d01edbc	0.03172086
40	0xbe0b7d24	-0.13621956
41	0x3d5bf070	0.053696096
42	0xbb641dd5	-0.003480782
43	0xbe01efca	-0.12689129
44	0xbbb26b07	-0.0054448876
45	0xbd6c3d8c	-0.057675883
46	0x3cc546b1	0.02408156
47	0x3dc89326	0.09793691
48	0x3e14005f	0.14453267
49	0x3cf8cb7b	0.030370465
50	0x3e172fe2	0.1476436
51	0xbe0a0fad	-0.13482542
52	0x3ddffe7a	0.109372094
53	0xbd899826	-0.06718473
54	0x3e00f93f	0.1259508
55	0x3d07d0c0	0.033158064
56	0x3e509ce9	0.20372356
57	0x3c8469f7	0.01616381
58	0x3c8b31be	0.016991492
59	0x3e829feb	0.25512633
60	0x3de62909	0.112382956
61	0x3d9671ff	0.07345962
62	0x3dd0227f	0.101628296
63	0xbdb6e2d3	-0.08929982
64	0x3dd1a242	0.10236026
65	0x3e1ef183	0.15521817
66	0x3e21c421	0.15797473
67	0x3deb5b11	0.11491979
68	0xbe97a554	-0.29618323
69	0x3e15c041	0.1462412
70	0x3bb22b3b	0.0054372824
71	0xbabc976d	-0.001438839
72	0xbdf9bc64	-0.12194136
73	0xbdbe0cd5	-0.09279791
74	0x3dbb1ca5	0.09136323
75	0x3d02d0e8	0.03193751
76	0x3cb1ad6e	0.021689143
77	0xbd45c957	-0.048287716
78	0xbd6034f1	-0.05473799
79	0x3dbdb10e	0.09262286
80	0xbc4787b1	-0.012178347
81	0x3dd0dde9	0.10198576
82	0x3e09e21c	0.1346516
83	0xbd33edb9	-0.043927882
84	0xbc925c1e	-0.01786619
85	0x3d867bdc	0.06566593
86	0xbdb56aed	-0.08858285
87	0xbd1d115f	-0.038346644
88	0x3de966c0	0.11396551
89	0xbd1c5d47	-0.038174894
90	0xbda98899	-0.08278007
91	0xbb056c1a	-0.0020358623
92	0x3e556ea2	0.20842984
93	0xbd7dca15	-0.0619603
94	0x3df74592	0.12073816
95	0xbe164a35	-0.14676745
96	0x3cd8021b	0.026368191
97	0x3e77f388	0.24213994
98	0xbe1225ce	-0.14272234
99	0xbdfb188b	-0.122605406
100	0xbe050b6b	-0.12992637
101	0x3e5099db	0.20371191
102	0x3d897d37	0.06713336
103	0xbd46ff0a	-0.048583068
104	0x3dabb99e	0.08385013
105	0x3e0e2482	0.13881114
106	0xbdb2272f	-0.0869888
107	0x3c5ba1bc	0.01340526
108	0xbec43c65	-0.38327327
109	0xbda3da25	-0.08000592
110	0x3d07e6a4	0.03317894
111	0xbe3e2046	-0.18566999
112	0xbe772d50	-0.24138379
113	0x3d3da2df	0.046297904
114	0x3d699a46	0.057031892
115	0x3e22a2e7	0.15882455
116	0x3d46baa2	0.04851783
117	0xbde7a971	-0.11311615
118	0x3da469dd	0.08028004
119	0xbdc21727	-0.09477072
120	0xbd94429d	-0.07239268
121	0xbd324d50	-0.043530762
122	0xbe666e6c	-0.2250306
123	0x3bb04269	0.0053790105
124	0xbe4efb92	-0.20213154
125	0x3b09ffd3	0.0021057024
126	0x3e07efe5	0.13275106
127	0x3d857477	0.065163545
128	0xbe50fbf5	-0.20408614
129	0xbbf76cd2	-0.007550814
130	0xbe381f75	-0.1798075
131	0xbd392918	-0.045205206
132	0xbd9e81b1	-0.077395804
133	0x3cf8324c	0.03029742
134	0x3e23bb77	0.15989481
135	0x3d8c66c6	0.0685554
136	0xbd7440ff	-0.059632298
137	0x3c7f4dc5	0.015582507
138	0xbdac42b8	-0.08411163
139	0x3e102182	0.14075282
140	0x3c5dd186	0.013538724
141	0xbddfdace	-0.109304056
142	0xbd3efafc	-0.046626076
143	0xbde6a399	-0.112616725
144	0x3e80b0f1	0.25134996
145	0xbdfd2f1a	-0.123624995
146	0xbe03f828	-0.12887633
147	0x3d85cda6	0.06533365
148	0xbd350ff4	-0.044204667
149	0x3d845ae5	0.06462649
150	0xbdd711fb	-0.105014764
151	0xbe3b58a1	-0.18295528
152	0xbd800c7d	-0.06252382
153	0x3d1aabc2	0.037761457
154	0x3dbec235	0.09314386
155	0x3d38effc	0.045150742
156	0x3dd2283d	0.10261581
157	0xbdc464a1	-0.09589506
158	0xbc8d6cf3	-0.017263865
159	0x3e8aca97	0.2710769
160	0x3d74c02c	0.059753582
161	0x3c5ba7c5	0.013406699
162	0x3e853629	0.26017883
163	0x3dd38679	0.10328383
164	0xbbee5faf	-0.00727459
165	0xbe19d988	-0.15024388
166	0xbe133b00	-0.14377975
167	0xbd840bdc	-0.064475745
168	0xbdffc350	-0.12488425
169	0x3cbeff7d	0.023315186
170	0x3ddff33c	0.10935065
171	0x3e080921	0.13284732
172	0x3a8df30a	0.0010829878
173	0xbd642186	-0.055696033
174	0x3ca6244e	0.020280983
175	0xbe1b56c2	-0.15169814
176	0xbe71220f	-0.23548149
177	0xbdad0408	-0.084480345
178	0xbd7889f4	-0.060678437
179	0x3e0167e0	0.12637281
180	0x3dafef3d	0.08590553
181	0x3b34e0d3	0.0027599826
182	0x3de7e98b	0.11323842
183	0xbd213057	-0.03935274
184	0xbd4a068b	-0.049322646
185	0xbb4b5a55	-0.0031029184
186	0xbc944ab2	-0.018102024
187	0x3d804b6a	0.06264384
188	0x3d76bf94	0.060241297
189	0x3cf967a4	0.030444928
190	0xbceaeed3	-0.028678333
191	0xbc228434	-0.009919215
192	0xbdfce3d1	-0.1234814
193	0xbc5ceae1	-0.013483734
194	0x3e2780c5	0.16357715
195	0x3d83abbc	0.0642924
196	0xbd192ebe	-0.037398092
197	0x3d68b5d7	0.05681404
198	0xbd62c849	-0.055366788
199	0x3ce9f19a	0.028557587
200	0xbd70c1e9	-0.058778677
201	0x3c7f5046	0.0155831035
202	0x3e1110ed	0.14166613
203	0x3dc4f1ee	0.09616457
204	0xbdd1e51a	-0.10248776
205	0x3ded0b1b	0.11574384
206	0xbda64407	-0.08118444
207	0xbce0e815	-0.027454415
208	0xbdaabf3a	-0.08337255
209	0x3e2fa944	0.17154413
210	0xbe5703e0	-0.20997572
211	0x3bea53ef	0.007151119
212	0x3cdaa3a8	0.026689366
213	0xbd9dabb7	-0.07698768
214	0x3c3b9145	0.011448209
215	0xbc996c1e	-0.018728312
216	0xbd8dbdec	-0.0692099
217	0xbbb63954	-0.0055610333
218	0x3d1b38d4	0.037895992
219	0x3df00dab	0.11721357
220	0x3e557e08	0.20848858
221	0x3e4bb5fb	0.19893639
222	0x3d289f17	0.041167345
223	0xbdb5c9cf	-0.088763826
224	0xbd4c45ee	-0.049871378
225	0x3cbecfb5	0.023292402
226	0xbda0c736	-0.078504965
227	0xbcdfdbec	-0.027326547
228	0xbe58ead0	-0.21183324
229	0xbd534201	-0.051576618
230	0xbdc6596c	-0.096850246
231	0xbd9f0871	-0.07765282
232	0x3bfafd87	0.0076596173
233	0x3defef3a	0.11715551
234	0xba361a8d	-0.00069467054
235	0x3dd06474	0.1017541
236	0xbdb7f76e	-0.0898274
237	0x3dd3651c	0.103220195
238	0x3e4bf38b	0.19917123
239	0x3d2b6e2e	0.041853122
240	0xbda098e5	-0.07841662
241	0xbe1198e9	-0.14218487
242	0xbd941b17	-0.072317295
243	0xbc986967	-0.018604947
244	0x3dd015df	0.101604216
245	0x3d43700b	0.047714274
246	0x3d82ed4b	0.06392916
247	0xbea29930	-0.31757498
248	0x3e7be046	0.24597272
249	0x3e0286f0	0.12746787
250	0xbe03ab24	-0.12858254
251	0x3cd4f453	0.02599541
252	0xbd880482	-0.06641485
253	0xbe8157f1	-0.25262406
254	0x3ce85978	0.028362975
255	0x3dff4fc6	0.124663875

network_body.linear_encoder.seq_layers.0.bias f4 [128]
0	0x00000000	0.0
1	0x00000000	0.0
2	0x00000000	0.0
3	0x00000000	0.0
4	0x00000000	0.0
5	0x00000000	0.0
6	0x00000000	0.0
7	0x00000000	0.0
8	0x00000000	0.0
9	0x00000000	0.0
10	0x00000000	0.0
11	0x00000000	0.0
12	0x00000000	0.0
13	0x00000000	0.0
14	0x00000000	0.0
15	0x00000000	0.0
16	0x00000000	0.0
17	0x00000000	0.0
18	0x00000000	0.0
19	0x00000000	0.0
20	0x00000000	0.0
21	0x00000000	0.0
22	0x00000000	0.0
23	0x00000000	0.0
24	0x00000000	0.0
25	0x00000000	0.0
26	0x00000000	0.0
27	0x00000000	0.0
28	0x00000000	0.0
29	0x00000000	0.0
30	0x00000000	0.0
31	0x00000000	0.0
32	0x00000000	0.0
33	0x00000000	0.0
34	0x00000000	0.0
35	0x00000000	0.0
36	0x00000000	0.0
37	0x00000000	0.0
38	0x00000000	0.0
39	0x00000000	0.0
40	0x00000000	0.0
41	0x00000000	0.0
42	0x00000000	0.0
43	0x00000000	0.0
44	0x00000000	0.0
45	0x00000000	0.0
46	0x00000000	0.0
47	0x00000000	0.0
48	0x00000000	0.0
49	0x00000000	0.0
50	0x00000000	0.0
51	0x00000000	0.0
52	0x00000000	0.0
53	0x00000000	0.0
54	0x00000000	0.0
55	0x00000000	0.0
56	0x00000000	0.0
57	0x00000000	0.0
58	0x00000000	0.0
59	0x00000000	0.0
60	0x00000000	0.0
61	0x00000000	0.0
62	0x00000000	0.0
63	0x00000000	0.0
64	0x00000000	0.0
65	0x00000000	0.0
66	0x00000000	0.0
67	0x00000000	0.0
68	0x00000000	0.0
69	0x00000000	0.0
70	0x00000000	0.0
71	0x00000000	0.0
72	0x00000000	0.0
73	0x00000000	0.0
74	0x00000000	0.0
75	0x00000000	0.0
76	0x00000000	0.0
77	0x00000000	0.0
78	0x00000000	0.0
79	0x00000000	0.0
80	0x00000000	0.0
81	0x00000000	0.0
82	0x00000000	0.0
83	0x00000000	0.0
84	0x00000000	0.0
85	0x00000000	0.0
86	0x00000000	0.0
87	0x00000000	0.0
88	0x00000000	0.0
89	0x00000000	0.0
90	0x00000000	0.0
91	0x00000000	0.0
92	0x00000000	0.0
93	0x00000000	0.0
94	0x00000000	0.0
95	0x00000000	0.0
96	0x00000000	0.0
97	0x00000000	0.0
98	0x00000000	0.0
99	0x00000000	0.0
100	0x00000000	0.0
101	0x00000000	0.0
102	0x00000000	0.0
103	0x00000000	0.0
104	0x00000000	0.0
105	0x00000000	0.0
106	0x00000000	0.0
107	0x00000000	0.0
108	0x00000000	0.0
109	0x00000000	0.0
110	0x00000000	0.0
111	0x00000000	0.0
112	0x00000000	0.0
113	0x00000000	0.0
114	0x00000000	0.0
115	0x00000000	0.0
116	0x00000000	0.0
117	0x00000000	0.0
118	0x00000000	0.0
119	0x00000000	0.0
120	0x00000000	0.0
121	0x00000000	0.0
122	0x00000000	0.0
123	0x00000000	0.0
124	0x00000000	0.0
125	0x00000000	0.0
126	0x00000000	0.0
127	0x00000000	0.0

network_body.linear_encoder.seq_layers.2.weight f4 [128, 128]
0	0x3df92721	0.12165666
1	0xbd7df03d	-0.061996687
2	0xbd9c5ab1	-0.076344855
3	0x3d1137fa	0.035453774
4	0xbd3d0411	-0.046146456
5	0xbca34f28	-0.019935206
6	0xbcc965e6	-0.024584722
7	0xbe1263f8	-0.14295948
8	0x3cb9ea19	0.022694634
9	0xbcfa1531	-0.030527683
10	0x3c157139	0.009121233
11	0x3e178ccf	0.14799808
12	0x3e03c584	0.12868315
13	0xbe7daeec	-0.24773759
14	0x3ce18fac	0.027534328
15	0x3c8ea6ca	0.017413516
16	0xbb8e5358	-0.0043434314
17	0xbca51a3c	-0.020154111
18	0xbcfd0d99	-0.030890273
19	0x3cbc0e11	0.022955926
20	0x3d64a048	0.05581692
21	0xbc500488	-0.012696393
22	0xbc0cf687	-0.008603699
23	0xbd1cdcf9	-0.038296673
24	0xbcccabd5	-0.02498428
25	0xbc9f71ff	-0.019463537
26	0xbdf16da4	-0.117884904
27	0x3c9f6354	0.019456543
28	0x3d1bdb9a	0.038051225
29	0xba81cf2f	-0.0009903664
30	0xbd047120	-0.032334447
31	0x3d407d51	0.04699451
32	0x3d79795f	0.060906764
33	0xbdd8aa69	-0.10579378
34	0xbe40d4c6	-0.18831167
35	0xbd3c9e7e	-0.046049587
36	0x3da46bd3	0.08028378
37	0x3d3a2a11	0.045450274
38	0xbe693c49	-0.22776903
39	0x3d2ee535	0.042699058
40	0xbdf058de	-0.117357
41	0x3e4ecfda	0.20196477
42	0x3e70d2fd	0.23517986
43	0xbdb210ea	-0.08694632
44	0xbbdb4cd0	-0.0066925064
45	0xbe2db600	-0.16963959
46	0x3d4283a4	0.047488824
47	0xbddf71c4	-0.10910371
48	0xbdb00ec3	-0.085965656
49	0xbb7b247c	-0.0038321307
50	0x3d37cf89	0.044875655
51	0xbd0a0ff7	-0.03370663
52	0xbd7fb6bf	-0.06243014
53	0xbdd570d6	-0.10421912
54	0xbc805eca	-0.015670199
55	0x3d4f9c71	0.050686304
56	0xbdff5ed4	-0.12469259
57	0xbd5cfcbc	-0.053951964
58	0xbd9c08c2	-0.07618858
59	0xbe05697a	-0.13028517
60	0xbe92b4db	-0.28653607
61	0x3e1829f3	0.14859752
62	0xbd81716c	-0.06320462
63	0x3d0ace0e	0.033887915
64	0x3da81951	0.08207954
65	0x3d924d3a	0.07143636
66	0xbbaeb944	-0.005332144
67	0xbe09b4bd	-0.13447852
68	0x3b60511a	0.0034228028
69	0x3ddfac41	0.10921527
70	0x3d5dc836	0.054146014
71	0xbc4b5fd7	-0.012412987
72	0x3d04710f	0.032334384
73	0xbc06388e	-0.008192195
74	0x3e238859	0.15969981
75	0x3d48f252	0.04905922
76	0x3e2d6ec7	0.1693679
77	0xbd9f54ab	-0.07779821
78	0xbd634882	-0.05548907
79	0xbc357d3c	-0.0110772215
80	0xbd93132a	-0.0718139
81	0x3d9ccefb	0.07656666
82	0x3cd19d02	0.025587562
83	0x3e329e52	0.17443207
84	0x3e032a89	0.12809195
85	0xbca40c58	-0.020025417
86	0x3d248dd3	0.040174317
87	0xbd1ddd78	-0.038541287
88	0x3d43e016	0.047821127
89	0x3dabce32	0.08388938
90	0x3d5da008	0.054107696
91	0x3e0a0b9c	0.13480991
92	0xbd97b979	-0.07408423
93	0x3d8d3e70	0.06896675
94	0x3c5f955b	0.013646449
95	0xbd08a056	-0.033356033
96	0xbdeffd2d	-0.11718211
97	0xbddd7a64	-0.1081436
98	0x3d2240c8	0.03961256
99	0xbe0df4b7	-0.13862883
100	0x3e405186	0.18781099
101	0x3df809d4	0.121112496
102	0xbd5059f8	-0.05086705
103	0x3d51e4dc	0.051243648
104	0xbc1e21e5	-0.009651636
105	0x3d990d1d	0.07473204
106	0xbbf312e7	-0.007418025
107	0x3d3ef2b0	0.046618164
108	0x3d8caf7a	0.06869407
109	0x3e2cef09	0.1688806
110	0x3c931a6f	0.01795694
111	0x3da1ebfb	0.07906338
112	0xbd2db699	-0.042410467
113	0x3bc22b0f	0.005925543
114	0x3d7478e2	0.059685595
115	0xbe185f6f	-0.14880155
116	0x3e015f19	0.12633933
117	0xbda7778b	-0.08177098
118	0x3c9043e2	0.017610494
119	0xbcd41375	-0.025888184
120	0xbdabc7e4	-0.083877355
121	0xbe614850	-0.22000241
122	0xbda19cc7	-0.07891231
123	0xbcea9eb8	-0.028640136
124	0x3d38363b	0.044973593
125	0xbdc1717a	-0.09445472
126	0x3dfdc82b	0.12391695
127	0x3d402f27	0.046919968
128	0x3e275e3c	0.16344541
129	0x3e0180ba	0.12646762
130	0x3dd8e1ac	0.105899185
131	0xbd229e48	-0.03970173
132	0x3d29353f	0.041310545
133	0xbdc3c597	-0.09559172
134	0xbe436828	-0.19082701
135	0x3e02093b	0.12698834
136	0xbdc953a3	-0.098304056
137	0xbd43a6cc	-0.04776649
138	0xbbe6f9f8	-0.0070488416
139	0xbd6ec530	-0.05829352
140	0x3cf8bb42	0.030362729
141	0xbdf18ab5	-0.117940344
142	0xbd284d8e	-0.041089587
143	0xbdf21039	-0.118195005
144	0x3dfe8118	0.124269664
145	0xbacd9f48	-0.0015687728
146	0x3e0625b3	0.13100319
147	0x3e277a57	0.16355263
148	0x3ddea576	0.10871403
149	0x3c94d59d	0.018168265
150	0xbe0d8a89	-0.13822378
151	0x3d2a3780	0.041556835
152	0xbc550e8f	-0.013003959
153	0xbc9989f1	-0.018742533
154	0xbe2300f9	-0.1591834
155	0xbdc0f980	-0.09422588
156	0x3d88c5b3	0.06678333
157	0x3e1a1e06	0.15050516
158	0xbcdb97fe	-0.026805874
159	0x3d5529cb	0.05204181
160	0x3da4aadc	0.08040401
161	0x3d841807	0.06449895
162	0x3caa6fee	0.020805325
163	0xbd5a55c3	-0.053304445
164	0xbd3181bc	-0.043336615
165	0xbd16fa9c	-0.036860093
166	0x3d9c6926	0.07637243
167	0xbd29d236	-0.04146024
168	0xbd933377	-0.071875505
169	0xbcea0af1	-0.02856967
170	0x3dc7dea3	0.097592615
171	0x3cfb5ca3	0.030683821
172	0x3db0ad61	0.086268194
173	0xbc3bdcb1	-0.011466191
174	0xbda574e1	-0.080789335
175	0xbd48b7b5	-0.04900332
176	0xbd19771f	-0.03746712
177	0xbda8b25a	-0.08237143
178	0x3e1d0411	0.15333582
179	0x3cf6c8cf	0.03012505
180	0xbcd85618	-0.02640824
181	0x3c69b514	0.014264364
182	0xbdb7ff06	-0.08984189
183	0x3d69a402	0.057041176
184	0xbdfcd463	-0.12345197
185	0x3db68b66	0.08913307
186	0xbb692c3f	-0.0035579351
187	0xbc51d447	-0.0128069585
188	0xbce629cc	-0.028096102
189	0xbe346c8f	-0.17619537
190	0x3c5f8a91	0.013643877
191	0x3da77439	0.081764646
192	0x3d3008fb	0.042977314
193	0x3c845787	0.016155018
194	0xbd4546c5	-0.048163194
195	0x3de320dd	0.110902525
196	0x3deb9ab3	0.11504116
197	0x3d4b91b4	0.0496995
198	0x3db63162	0.08896138
199	0x3bc88888	0.0061197914
200	0x3ae926d2	0.0017788059
201	0xbc005dee	-0.007834895
202	0x3a83a2f1	0.0010043067
203	0x3d95f437	0.07321971
204	0x3d2f0499	0.042728994
205	0x3e211d6b	0.15733878
206	0x3d1ecfc5	0.038772363
207	0x3d2de071	0.042450372
208	0x3d297b25	0.041377205
209	0xbe1789fb	-0.14798729
210	0xbdf60db8	-0.120143354
211	0x3b8c32b7	0.0042785066
212	0xbdaf3066	-0.08554153
213	0x3d6d95ea	0.058004297
214	0xbd1d6cb9	-0.038433764
215	0x3d88eee4	0.0668619
216	0xbb5775cc	-0.003287661
217	0xbcc0bb96	-0.023526948
218	0x3d4cd6b1	0.050009433
219	0x3ce3361f	0.027735768
220	0x3cceeb7d	0.025258774
221	0x3dbbc95f	0.09169268
222	0xbde697dc	-0.112594336
223	0xbe0fbf7c	-0.14037889
224	0xbdbd1e85	-0.09234337
225	0xbd619244	-0.05507113
226	0x3e144dfc	0.14482874
227	0xbc30d620	-0.010793239
228	0xbd19b3c0	-0.03752494
229	0xbd9b3e64	-0.075802594
230	0xbcaa6cb6	-0.02080379
231	0xbd18429d	-0.037172902
232	0xbcbf5f05	-0.023360739
233	0xbd75605c	-0.05990635
234	0x3d023cdf	0.031796332
235	0x3d186ebf	0.03721499
236	0xbd22fe9c	-0.039793596
237	0xbd54d614	-0.051961973
238	0x3d03d226	0.032182835
239	0x3da4be9b	0.080441676
240	0x3c460fa9	0.012088695
241	0xbd72d57c	-0.059285626
242	0x3d7530ff	0.05986118
243	0xbb449960	-0.0029998645
244	0x3e1d0740	0.15334797
245	0x3dafb792	0.08579935
246	0xbd4ddae1	-0.050257567
247	0xbdf59d39	-0.119928785
248	0x3e0c6e85	0.13714035
249	0xbdfe7766	-0.12425117
250	0x3d7690b8	0.06019661
251	0x3d055f8d	0.032561827
252	0x3d94c5bd	0.07264278
253	0x3e75693e	0.23965928
254	0xbcb07f42	-0.021545056
255	0xbdbe4b50	-0.092917085

network_body.linear_encoder.seq_layers.2.bias f4 [128]
0	0x00000000	0.0
1	0x00000000	0.0
2	0x00000000	0.0
3	0x00000000	0.0
4	0x00000000	0.0
5	0x00000000	0.0
6	0x00000000	0.0
7	0x00000000	0.0
8	0x00000000	0.0
9	0x00000000	0.0
10	0x00000000	0.0
11	0x00000000	0.0
12	0x00000000	0.0
13	0x00000000	0.0
14	0x00000000	0.0
15	0x00000000	0.0
16	0x00000000	0.0
17	0x00000000	0.0
18	0x00000000	0.0
19	0x00000000	0.0
20	0x00000000	0.0
21	0x00000000	0.0
22	0x00000000	0.0
23	0x00000000	0.0
24	0x00000000	0.0
25	0x00000000	0.0
26	0x00000000	0.0
27	0x00000000	0.0
28	0x00000000	0.0
29	0x00000000	0.0
30	0x00000000	0.0
31	0x00000000	0.0
32	0x00000000	0.0
33	0x00000000	0.0
34	0x00000000	0.0
35	0x00000000	0.0
36	0x00000000	0.0
37	0x00000000	0.0
38	0x00000000	0.0
39	0x00000000	0.0
40	0x00000000	0.0
41	0x00000000	0.0
42	0x00000000	0.0
43	0x00000000	0.0
44	0x00000000	0.0
45	0x00000000	0.0
46	0x00000000	0.0
47	0x00000000	0.0
48	0x00000000	0.0
49	0x00000000	0.0
50	0x00000000	0.0
51	0x00000000	0.0
52	0x00000000	0.0
53	0x00000000	0.0
54	0x00000000	0.0
55	0x00000000	0.0
56	0x00000000	0.0
57	0x00000000	0.0
58	0x00000000	0.0
59	0x00000000	0.0
60	0x00000000	0.0
61	0x00000000	0.0
62	0x00000000	0.0
63	0x00000000	0.0
64	0x00000000	0.0
65	0x00000000	0.0
66	0x00000000	0.0
67	0x00000000	0.0
68	0x00000000	0.0
69	0x00000000	0.0
70	0x00000000	0.0
71	0x00000000	0.0
72	0x00000000	0.0
73	0x00000000	0.0
74	0x00000000	0.0
75	0x00000000	0.0
76	0x00000000	0.0
77	0x00000000	0.0
78	0x00000000	0.0
79	0x00000000	0.0
80	0x00000000	0.0
81	0x00000000	0.0
82	0x00000000	0.0
83	0x00000000	0.0
84	0x00000000	0.0
85	0x00000000	0.0
86	0x00000000	0.0
87	0x00000000	0.0
88	0x00000000	0.0
89	0x00000000	0.0
90	0x00000000	0.0
91	0x00000000	0.0
92	0x00000000	0.0
93	0x00000000	0.0
94	0x00000000	0.0
95	0x00000000	0.0
96	0x00000000	0.0
97	0x00000000	0.0
98	0x00000000	0.0
99	0x00000000	0.0
100	0x00000000	0.0
101	0x00000000	0.0
102	0x00000000	0.0
103	0x00000000	0.0
104	0x00000000	0.0
105	0x00000000	0.0
106	0x00000000	0.0
107	0x00000000	0.0
108	0x00000000	0.0
109	0x00000000	0.0
110	0x00000000	0.0
111	0x00000000	0.0
112	0x00000000	0.0
113	0x00000000	0.0
114	0x00000000	0.0
115	0x00000000	0.0
116	0x00000000	0.0
117	0x00000000	0.0
118	0x00000000	0.0
119	0x00000000	0.0
120	0x00000000	0.0
121	0x00000000	0.0
122	0x00000000	0.0
123	0x00000000	0.0
124	0x00000000	0.0
125	0x00000000	0.0
126	0x00000000	0.0
127	0x00000000	0.0

action_model._discrete_distribution.branches.0.weight f4 [11, 128]
0	0x3c31675e	0.010827867
1	0x3c387401	0.011258126
2	0x3bf5045a	0.0074773254
3	0xbc040daf	-0.008059903
4	0x3b9239b7	0.0044624466
5	0x3b7c8ab7	0.003853483
6	0xbc2d3dab	-0.010573785
7	0x3c3478b2	0.011015104
8	0xbbdf3762	-0.006812022
9	0xbc828b57	-0.015935583
10	0xbbdd18cf	-0.006747342
11	0x3c15261c	0.009103324
12	0xbbc0d6d8	-0.0058849864
13	0x3c9c2adb	0.019063404
14	0xbc4c3769	-0.012464383
15	0xbc2888b3	-0.010286498
16	0xbbe80fc8	-0.0070819594
17	0x3c304260	0.0107580125
18	0xbc28da6f	-0.010305985
19	0x3c15cfbc	0.009143766
20	0xbba98dc9	-0.005174373
21	0x3c4d24f0	0.012521014
22	0xbc5509d8	-0.013002835
23	0xbb8a92a3	-0.0042289062
24	0x3b06df69	0.002057994
25	0x3b3d86eb	0.0028919529
26	0xb9b14fc3	-0.00033819498
27	0xbc14edd5	-0.009089907
28	0x3b3072f2	0.0026923981
29	0xbb58cc5b	-0.003308079
30	0xbc00c41d	-0.007859257
31	0x3b81e77e	0.0039643636
32	0xbbb4cde1	-0.0055177067
33	0xbbadf33b	-0.0053085363
34	0xbb937ceb	-0.0045009754
35	0x3b2b696d	0.0026155368
36	0x3c41465f	0.011796563
37	0xbc06e2ed	-0.008232814
38	0x3c352ec1	0.01105851
39	0xbc102b41	-0.008799375
40	0x3b4714af	0.0030377319
41	0xbcc0b284	-0.023522623
42	0xbc439526	-0.011937415
43	0xbc40c67c	-0.011766072
44	0xbc0763e1	-0.008263559
45	0xbcbae183	-0.02281261
46	0x3aa22433	0.0012370407
47	0xbbcfec50	-0.0063453093
48	0xbb4fbf4f	-0.0031699722
49	0x3b264be3	0.0025374822
50	0x395f44a5	0.0002129251
51	0xbb8a6bef	-0.0042242925
52	0x3b5d4f9b	0.0033769372
53	0x3c6f6f68	0.014613964
54	0xba124c93	-0.00055808685
55	0xbc60ccd5	-0.013720711
56	0xbbb5df51	-0.005550303
57	0xbc1722cc	-0.009224605
58	0x3b11d3b4	0.002225143
59	0x3a3bfe79	0.0007171403
60	0x3809476a	3.2729855e-05
61	0x3afb7b15	0.0019186462
62	0x3a258c59	0.0006315164
63	0x3c68729a	0.014187479
64	0xbbd89aed	-0.0066102655
65	0xbb8a16df	-0.004214152
66	0x3adef0c7	0.0017009013
67	0xbc616f7f	-0.013759493
68	0xbc3b7d6f	-0.01144348
69	0xbc26404b	-0.010147165
70	0x36319457	2.64614e-06
71	0x3bbd0b8a	0.005769198
72	0x3c213ff3	0.009841907
73	0x3bd079eb	0.00636219
74	0x3be76652	0.007061758
75	0x3a9c576f	0.0011927913
76	0xbaac7755	-0.0013158122
77	0xbc2f8cbd	-0.010714707
78	0xbac01e47	-0.0014657461
79	0x3c296b86	0.010340577
80	0x3aceeea5	0.0015787674
81	0xbac79e23	-0.0015229624
82	0x3bb81f1f	0.0056189443
83	0x3bcc9f53	0.006244579
84	0xbbb42ef2	-0.0054987604
85	0x3a108276	0.0005512604
86	0xbb909d77	-0.0044133025
87	0xbbacbf0f	-0.0052717994
88	0xbba0e0af	-0.004909597
89	0x39200128	0.0001525922
90	0xb90c0bef	-0.00013355886
91	0x3acc4dc2	0.0015587138
92	0x3ad1a37d	0.0015994158
93	0xbcb3bb1e	-0.02193981
94	0xbc2cda63	-0.010550114
95	0x3b65d7b5	0.0035071198
96	0x3ab02f14	0.0013441765
97	0x3c1f236b	0.009713034
98	0x3c76790a	0.015043506
99	0x3c74caa5	0.014940892
100	0xbc9598dd	-0.018261367
101	0xbbc5ede9	-0.006040324
102	0xbb335660	-0.0027364716
103	0x3bd2ac6b	0.006429245
104	0xb91fc1dc	-0.0001523564
105	0xba39ef76	-0.00070928724
106	0x3bcd9d70	0.0062748715
107	0xbba3c15d	-0.004997416
108	0xbaefc8ba	-0.0018294074
109	0xbc7c8c05	-0.015414243
110	0x3c0ce7cb	0.008600186
111	0x3bf0d5cb	0.007349705
112	0x3bec1f4f	0.0072058807
113	0xbba4b029	-0.0050258827
114	0x3bf08ecd	0.007341242
115	0x3b0dcdc8	0.0021637548
116	0x3c958286	0.018250715
117	0x3c840d37	0.016119583
118	0xbc96017c	-0.018311255
119	0xbacbd2cd	-0.0015550494
120	0x39a7dfdf	0.0003201952
121	0x3b955194	0.004556844
122	0xbb6151c0	-0.0034381002
123	0xbc14945c	-0.009068575
124	0xbc140f1e	-0.009036807
125	0xbc4b9466	-0.012425518
126	0xbbe87a23	-0.007094638
127	0x39a770ba	0.0003193671
128	0x3bd077aa	0.0063619213
129	0x3b52a4c8	0.0032141674
130	0xbb230e7f	-0.0024880467
131	0xbaaeac73	-0.001332654
132	0xbc47b752	-0.012189703
133	0x3a6f2c12	0.00091236935
134	0xbc17c768	-0.009263851
135	0xbc1f7976	-0.009733548
136	0xbc0a31c4	-0.008434717
137	0x3b8af8cc	0.0042410847
138	0x3af1bcff	0.0018443166
139	0xbaca0010	-0.0015411396
140	0x3b86b6ff	0.0041111703
141	0xbbbf7f2b	-0.005844017
142	0x39ee2563	0.00045422753
143	0x3a852757	0.0010158819
144	0x3b392ad9	0.00282543
145	0x3c224806	0.009904867
146	0x3b8710bb	0.0041218675
147	0xbb8b34e3	-0.004248248
148	0xbbad57e5	-0.005290019
149	0xbbcf2c52	-0.006322422
150	0x36e3f585	6.7937094e-06
151	0x3bb2f3db	0.0054611987
152	0xbade58ea	-0.0016963754
153	0x3b7d7c0a	0.003867867
154	0x3b1459e0	0.0022636577
155	0xbc1d4d9b	-0.009601022
156	0xbb8ed1cc	-0.004358506
157	0xbb30e981	-0.0026994648
158	0x3ba93814	0.0051641557
159	0xbc4b1c17	-0.012396834
160	0xbaba9376	-0.0014234621
161	0xba3c36dc	-0.00071798055
162	0xbbe89500	-0.0070978403
163	0xbc4a1897	-0.012334964
164	0x3b81f6e1	0.003966198
165	0x3b1088ca	0.002205419
166	0x3c29fcc4	0.010375205
167	0xbaf4b968	-0.0018670978
168	0x3bc9c79b	0.006157828
169	0xbbd0190a	-0.006350641
170	0xba428980	-0.0007421002
171	0x3c6205c7	0.013795323
172	0xbc34311a	-0.010998035
173	0x3abe737f	0.001453027
174	0xbb83c57d	-0.004021345
175	0x3ae506c0	0.0017473325
176	0xbaadaef5	-0.0013250994
177	0xbc0e5980	-0.008688331
178	0x3ad11fcf	0.0015954914
179	0x3900e800	0.00012293458
180	0xbcb69a3b	-0.02229034
181	0xbc28e6ee	-0.010308964
182	0xbbab24c3	-0.005222888
183	0x3c04c7bf	0.008104264
184	0x3c859f3c	0.01631128
185	0xbc84292b	-0.016132912
186	0xbb7e1e22	-0.0038775285
187	0xbc1bebf0	-0.009516701
188	0x3b8e23c9	0.004337762
189	0x3c914561	0.017733278
190	0xbbeefee0	-0.007293567
191	0xbb0edd1a	-0.0021799267
192	0x3adcd055	0.0016846756
193	0xbc0d0527	-0.008607185
194	0xbc3df747	-0.0115946
195	0xbb9b6c8e	-0.0047431653
196	0xbc50b770	-0.012739047
197	0x3bd018e3	0.006350623
198	0xba989025	-0.0011639638
199	0xbbc497dc	-0.0059995484
200	0x39e9b76b	0.0004457788
201	0xbb2f96ab	-0.0026792686
202	0xbb152a62	-0.0022760858
203	0x3c3a01ef	0.011353
204	0xbadfef3d	-0.0017084848
205	0x3c1a8eeb	0.009433488
206	0xbb1e93cb	-0.0024196978
207	0xbc1ebc71	-0.009688483
208	0x3be03c7f	0.006843149
209	0x3c2d8852	0.010591583
210	0x3b1e9a2f	0.0024200787
211	0x3b339890	0.0027404167
212	0x3b857b4a	0.004073535
213	0x3a7eaa72	0.00097147294
214	0x3a2564c0	0.00063092634
215	0xbc2dc531	-0.010606096
216	0x3bc563e8	0.0060238726
217	0xbbdf89e8	-0.0068218596
218	0xbc90401a	-0.017608691
219	0x39f3257b	0.00046376497
220	0x3c5045e3	0.012711975
221	0x3c7517ef	0.0149593195
222	0xbaf02cda	-0.0018323914
223	0x3b183967	0.0023227574
224	0xbb25952f	-0.0025265922
225	0xbc818347	-0.015809668
226	0xbc7791cf	-0.015110447
227	0x3c32cac3	0.0109126
228	0x3a8087c5	0.0009806087
229	0xbb14b7c2	-0.0022692536
230	0x3c92cf9f	0.017921267
231	0x3c727ee8	0.014800765
232	0xbadca97a	-0.0016835176
233	0xbc347e6e	-0.011016471
234	0x3c6b7ef2	0.014373528
235	0x3c853732	0.01626167
236	0xb9357728	-0.00017305894
237	0x3ba4e164	0.0050317515
238	0xbabb0b1f	-0.0014270282
239	0x3b3bfab7	0.0028683373
240	0x3c0b7f13	0.008514184
241	0x3ae29658	0.0017287238
242	0x3ae49250	0.0017438624
243	0x3c680f5f	0.014163821
244	0xbcbb6048	-0.022873059
245	0xbadaffd7	-0.0016708326
246	0x3c7961ab	0.01522104
247	0xbc5876ad	-0.013211888
248	0xbaec0483	-0.0018006716
249	0x3c7a8b4f	0.015292003
250	0xba1fd584	-0.0006097185
251	0x3c747f9b	0.014923002
252	0x3b8974dc	0.004194839
253	0xbbfb04f0	-0.0076605007
254	0x3bbc2da7	0.005742747
255	0x3bf42360	0.007450506

action_model._discrete_distribution.branches.0.bias f4 [11]
0	0x00000000	0.0
1	0x00000000	0.0
2	0x00000000	0.0
3	0x00000000	0.0
4	0x00000000	0.0
5	0x00000000	0.0
6	0x00000000	0.0
7	0x00000000	0.0
8	0x00000000	0.0
9	0x00000000	0.0
10	0x00000000	0.0

action_model._discrete_distribution.branches.1.weight f4 [29, 128]
0	0x3bf89bd5	0.007586936
1	0x397a81df	0.00023890239
2	0x3a812db4	0.000985554
3	0x3c586dd8	0.013209783
4	0xbb85dbd0	-0.0040850416
5	0xbc95e035	-0.018295387
6	0x3c73c573	0.0148786185
7	0xbc023c05	-0.00794888
8	0xbc2981fa	-0.01034593
9	0xbb82a26f	-0.0039866487
10	0x3a9e5f0d	0.0012082771
11	0x3b0ca3d8	0.0021459963
12	0xbbcc34a3	-0.0062318607
13	0x3c184265	0.009293173
14	0x3c2d7319	0.010586523
15	0x3bd773f7	0.0065751034
16	0x3c79b03f	0.015239774
17	0xbc975bbf	-0.018476365
18	0xbbcf2b7a	-0.0063223215
19	0xbbf49c6d	-0.0074649365
20	0x3bf6ce25	0.0075318986
21	0xbc207977	-0.0097945845
22	0x3bfcd85d	0.007716222
23	0x3ba15f0d	0.004924661
24	0x3b239403	0.0024960048
25	0xbad2acc2	-0.0016073214
26	0x39addf30	0.0003316342
27	0xba88100d	-0.001038076
28	0x3c977f87	0.018493427
29	0x3c2b8bf1	0.010470376
30	0xbc24280b	-0.010019313
31	0xbbbe20a3	-0.0058022304
32	0x3b6a1670	0.003571894
33	0x3c8b97e8	0.017040208
34	0x3ba85a46	0.0051377146
35	0x3b45784f	0.0030131524
36	0x3c19e6ff	0.009393453
37	0x3b01d0c8	0.0019808281
38	0x3bc9c7fc	0.006157873
39	0xbc0cee0f	-0.0086016795
40	0x3c7465d3	0.014916855
41	0x3bf6ddb0	0.0075337514
42	0xbb785950	-0.0037895031
43	0x3c877370	0.016534537
44	0xbb754adf	-0.003742866
45	0x3bc6428d	0.006050414
46	0xba79d8e0	-0.0009530913
47	0x3b895085	0.004190507
48	0x3c9c295b	0.019062689
49	0x3bb2226d	0.005436233
50	0x3b5ae52d	0.003340076
51	0x3b29573e	0.0025839354
52	0xbc2aa51a	-0.01041534
53	0x3b48b626	0.0030626147
54	0xbc650b4f	-0.013979747
55	0x39fa85fa	0.00047783536
56	0xbc547dab	-0.012969415
57	0x3b2ebe98	0.0026663896
58	0x3a7b52f0	0.0009587249
59	0x3c48c5a4	0.012254152
60	0x3bfb33b3	0.007666075
61	0xbbd2f318	-0.0064376704
62	0x3c1afb73	0.009459364
63	0xbbc6204c	-0.0060463306
64	0x3b671c50	0.0035264678
65	0xb98431bb	-0.00025214054
66	0x3c15c95e	0.009142248
67	0xb9bc790b	-0.00035948338
68	0xba9fe777	-0.0012199719
69	0xbb4bb90b	-0.0031085636
70	0x3a2ebdef	0.00066658756
71	0x3c87c4ff	0.016573427
72	0xbc39a1bc	-0.011330064
73	0xba1dbacb	-0.0006016909
74	0xbc070d97	-0.008242986
75	0xbaea07ab	-0.0017855068
76	0x3c16a34d	0.009194207
77	0xbc4874ca	-0.012234876
78	0xbb89a325	-0.0042003565
79	0xbb6ab3ca	-0.003581273
80	0x3587ab9f	1.0108232e-06
81	0xbbfe9872	-0.0077696377
82	0x3b61cbe3	0.0034453801
83	0xbb90ca26	-0.004418629
84	0x3782b42b	1.5581105e-05
85	0x3b79abbd	0.0038096749
86	0x3c08b77c	0.008344527
87	0x3c0abdad	0.008468074
88	0xbaa51764	-0.0012595472
89	0xbbf90ed5	-0.007600645
90	0xbc203bb5	-0.00977986
91	0xbbf6aa43	-0.007527621
92	0x3b3acd34	0.0028503658
93	0x3c18ccb3	0.009326148
94	0xbb974d23	-0.0046173497
95	0x3c46402e	0.012100263
96	0x3b5fe2ab	0.0034162204
97	0xbc1a6cb4	-0.009425331
98	0x3bd85982	0.006602467
99	0xbb5a48d2	-0.0033307564
100	0xbb95840e	-0.0045628613
101	0x3b624cfb	0.0034530747
102	0xbb8c696e	-0.004285029
103	0xbc2194e6	-0.00986216
104	0xbc236743	-0.00997335
105	0x3af7a487	0.0018893637
106	0x3bdf5ef8	0.006816741
107	0xbbf4e375	-0.007473404
108	0x3c2a2fab	0.0103873415
109	0x3acaa96c	0.0015461869
110	0xbace9652	-0.0015761352
111	0xbb81ada0	-0.0039574653
112	0x3c82b1c2	0.015953902
113	0xbc64cf0b	-0.0139653785
114	0xbb66a8b7	-0.0035195777
115	0x3c55d3d3	0.013050991
116	0x3b6d68d7	0.003622582
117	0xbbf734c0	-0.00754413
118	0x3c867795	0.016414443
119	0xbc337c3c	-0.010954913
120	0xbb5549eb	-0.003254528
121	0xbb5f35ab	-0.0034059088
122	0x3b98176a	0.004641463
123	0xbc1b1b3e	-0.009466944
124	0x3c5d14c0	0.013493717
125	0xbb46bc03	-0.0030324466
126	0xbb3fb615	-0.0029252816
127	0xbba130fc	-0.0049191695
128	0x3a1b4385	0.0005922842
129	0xbc1625da	-0.009164298
130	0xbc073137	-0.00825148
131	0xbbcf7e9b	-0.006332231
132	0x3be3c660	0.0069511384
133	0x3b548c1a	0.003243214
134	0xbb81c8d5	-0.0039607086
135	0x3c3316f8	0.010930769
136	0x3bf21b72	0.0073885256
137	0x3aa9f980	0.0012968034
138	0x3a3f4d4b	0.00072975893
139	0xbc5076a7	-0.012723601
140	0xbbad6643	-0.0052917316
141	0xbc891276	-0.016732436
142	0x3ba296c9	0.0049618226
143	0xbc4532d4	-0.012036044
144	0xb97adc8f	-0.00023924022
145	0x3ca0dd82	0.019636873
146	0x3ba9f337	0.005186464
147	0x3b4853bf	0.0030567495
148	0xbb286582	-0.002569527
149	0x3c08ccaa	0.008349577
150	0x3b8b89c3	0.004258366
151	0xbc41f81f	-0.011838942
152	0xbb67dc3b	-0.003537907
153	0xbbe047ed	-0.0068445117
154	0x3b57dabd	0.0032936775
155	0xba50e437	-0.0007968577
156	0xbbedea7f	-0.00726062
157	0xbc088d83	-0.00833452
158	0x3cd048d8	0.02542536
159	0x3ba77a4c	0.0051110145
160	0xbc921abe	-0.017835017
161	0x3a35067b	0.0006905568
162	0x3ba509f6	0.005036588
163	0xba15a6fd	-0.0005708782
164	0xba521978	-0.00080146594
165	0xbb6da0df	-0.0036259217
166	0xbc657430	-0.014004752
167	0xbb0bad7b	-0.002131312
168	0xbbf113b5	-0.0073570856
169	0x3c30b626	0.010785615
170	0x3ac8172f	0.0015265698
171	0x3c4c94d6	0.012486657
172	0xbcb60e82	-0.022223715
173	0x3c056d5c	0.008143749
174	0xb9845ded	-0.00025246982
175	0xba75468a	-0.00093565194
176	0x3bf8f58a	0.00759763
177	0xbc37fd77	-0.011229864
178	0xbbbf4b93	-0.0058378666
179	0xbbaabd6a	-0.005210568
180	0xbbbae9dd	-0.005704148
181	0xbbe23520	-0.0069033056
182	0x3b70690d	0.003668371
183	0x3bc2308b	0.005926197
184	0xbc232ea6	-0.009959852
185	0xbbf6da55	-0.0075333514
186	0x3c00364f	0.007825448
187	0xbba39b00	-0.0049928427
188	0xbc3bc3e6	-0.01146028
189	0x3c8966ca	0.016772646
190	0xbc206eef	-0.009792074
191	0xbc58a63a	-0.013223225
192	0xbbc0c1b8	-0.005882468
193	0xbc59f0ad	-0.0133020105
194	0xbbea98f2	-0.007159346
195	0xbc2bf65d	-0.010495749
196	0x3b9f1c8b	0.0048556975
197	0xbb76e35d	-0.003767214
198	0xbc21744f	-0.00985439
199	0x3af774bf	0.0018879398
200	0x3a4b0423	0.0007744452
201	0x3b58e0b2	0.0033092913
202	0x3a37183a	0.0006984506
203	0xb8b6a735	-8.709581e-05
204	0x3baf0920	0.005341664
205	0x3bc901fa	0.006134269
206	0x3bb3f4b1	0.005491816
207	0xbac39a47	-0.0014923298
208	0x3b6e63df	0.0036375446
209	0x3c1245f7	0.008927814
210	0x3b6b4f58	0.0035905447
211	0xbc7df0d5	-0.015499313
212	0x3c8765a6	0.016527962
213	0x3b78ef62	0.003798448
214	0x39c48263	0.0003748118
215	0x3be30dfb	0.006929157
216	0x3bbca1c9	0.005756591
217	0x3b91d3b4	0.004450286
218	0xbc618bff	-0.013766288
219	0xba0fd342	-0.0005486497
220	0x3c90b43e	0.017664071
221	0x3c964d6f	0.01834747
222	0x3c18e24b	0.009331296
223	0xba286adf	-0.00064246164
224	0x3c1aaa17	0.009439967
225	0x3bcc237e	0.006229817
226	0x3c85afa5	0.016319105
227	0x3bc61c20	0.006045833
228	0xbc8221d9	-0.01588528
229	0x3b421901	0.0029616954
230	0xba851f27	-0.0010156379
231	0x3c8baa30	0.017048925
232	0x3c096807	0.008386618
233	0x3cbb057f	0.02282977
234	0xbbf33987	-0.0074226293
235	0x3becb272	0.007223421
236	0xbbb712d1	-0.00558696
237	0xbbcfdce5	-0.0063434714
238	0xbc2ef10b	-0.010677586
239	0x3c433675	0.011914839
240	0x3b8c848b	0.0042882613
241	0x3bbf340a	0.005835061
242	0xbc49eaef	-0.012324079
243	0x3bcc9528	0.0062433667
244	0xbb1ead21	-0.002421208
245	0x3ac100d3	0.0014724977
246	0xbcb4b2b7	-0.022057874
247	0xbc674142	-0.01411468
248	0xbcc935e5	-0.024561832
249	0x3b212e63	0.00245943
250	0x3b45543c	0.0030110022
251	0xb93a85e7	-0.00017788225
252	0x3c877703	0.016536241
253	0xbbe5b5f3	-0.0070102154
254	0x3a7553ff	0.00093585247
255	0xbbcb006e	-0.0061951196

action_model._discrete_distribution.branches.1.bias f4 [29]
0	0x00000000	0.0
1	0x00000000	0.0
2	0x00000000	0.0
3	0x00000000	0.0
4	0x00000000	0.0
5	0x00000000	0.0
6	0x00000000	0.0
7	0x00000000	0.0
8	0x00000000	0.0
9	0x00000000	0.0
10	0x00000000	0.0
11	0x00000000	0.0
12	0x00000000	0.0
13	0x00000000	0.0
14	0x00000000	0.0
15	0x00000000	0.0
16	0x00000000	0.0
17	0x00000000	0.0
18	0x00000000	0.0
19	0x00000000	0.0
20	0x00000000	0.0
21	0x00000000	0.0
22	0x00000000	0.0
23	0x00000000	0.0
24	0x00000000	0.0
25	0x00000000	0.0
26	0x00000000	0.0
27	0x00000000	0.0
28	0x00000000	0.0

action_model._discrete_distribution.branches.2.weight f4 [29, 128]
0	0x3c9933e2	0.018701497
1	0xbba65300	-0.0050758123
2	0x3c3e06e7	0.011598325
3	0xbc3808f8	-0.011232607
4	0xbcd9750b	-0.026545068
5	0xba68ba17	-0.0008877827
6	0x3ae66ddb	0.0017580347
7	0xb9b30f3f	-0.000341529
8	0x3bc1c05f	0.005912825
9	0x3beff96b	0.007323434
10	0xbb881638	-0.0041530393
11	0x3602697d	1.9432912e-06
12	0x3c844360	0.016145408
13	0x3bef8868	0.007309962
14	0xbcb8224b	-0.02247729
15	0xbc9388eb	-0.018009624
16	0x3b33bc43	0.0027425445
17	0xbb2ff0c3	-0.0026846386
18	0xbcc076ef	-0.023494212
19	0x3bda9738	0.0066708587
20	0x3ba3ac6f	0.004994921
21	0xbbfee500	-0.007778764
22	0x3b8f15e2	0.0043666223
23	0x3bac24c1	0.005253405
24	0x3b543db8	0.003238542
25	0x3c8978ca	0.01678123
26	0x3c4664db	0.012109007
27	0x3bf4dcf5	0.007472629
28	0x3be7c780	0.007073343
29	0x3bac71ec	0.005262604
30	0xbb6b8930	-0.0035939924
31	0x3c868634	0.016421415
32	0x3a7c111d	0.0009615587
33	0x3afaeef2	0.0019144698
34	0x3b5db0bb	0.0033827263
35	0xbbca1bdb	-0.0061678714
36	0x3bc7f3fc	0.0061020833
37	0x3c43c2e3	0.01194832
38	0x3b05aa1b	0.002039558
39	0xbbf566b8	-0.0074890517
40	0xbccb159f	-0.024790583
41	0x39c3dd7f	0.00037358326
42	0xbb992eab	-0.0046747527
43	0x3bbd9253	0.0057852655
44	0xbb9c39e1	-0.004767642
45	0xbc7f3053	-0.015575486
46	0xbc11485b	-0.008867349
47	0xbb6ea9b8	-0.0036417078
48	0xbb8a867f	-0.004227459
49	0x3c52fad2	0.012877183
50	0x3a87940e	0.0010343806
51	0xbc14a38b	-0.009072195
52	0x3c01b192	0.007915871
53	0xbb84f443	-0.0040574386
54	0x3b9bf031	0.0047588577
55	0x3aadd339	0.0013261802
56	0x3a0317c7	0.00050007965
57	0xbcf5e67d	-0.030017132
58	0xbc0f6a54	-0.008753378
59	0x3bc1da95	0.0059159496
60	0x3c27a199	0.010231399
61	0x3b269ca4	0.0025422955
62	0xbc1c6b95	-0.009547134
63	0x3c921140	0.017830491
64	0x3b80413a	0.0039140256
65	0x3bc63f84	0.006050052
66	0xbb6ae772	-0.0035843519
67	0xbc750930	-0.014955804
68	0xbba89ccc	-0.005145645
69	0x3be220d5	0.0069008865
70	0x3b381bf9	0.0028092845
71	0x3c03fa26	0.0080552455
72	0xbc18d702	-0.009328606
73	0xbc61bbda	-0.013777697
74	0xbbac2857	-0.0052538323
75	0x3c8f28e3	0.017475551
76	0x3b6b6347	0.0035917328
77	0x3aedeb8a	0.0018151861
78	0xbb700ea0	-0.003662981
79	0x3c1f9b50	0.009741619
80	0x3c5a583b	0.0133267
81	0xbcb07f62	-0.021545116
82	0xbb9d370a	-0.004797821
83	0x3c3ab206	0.011394983
84	0x3a961b23	0.0011452179
85	0x3a32db77	0.0006822864
86	0xbb77a403	-0.0037786968
87	0x3c067d81	0.008208633
88	0xbc22461b	-0.00990441
89	0x3b8b8ca5	0.0042587095
90	0x3c0154e7	0.007893777
91	0x3c3bd8cf	0.011465265
92	0xbbe2bb3a	-0.006919292
93	0xbc844951	-0.016148241
94	0x3c5e78c5	0.013578598
95	0x3c18b0f3	0.009319532
96	0x3c0a9a66	0.008459663
97	0xbc1fa5ff	-0.009744166
98	0x3bed520b	0.0072424463
99	0xbbb5876b	-0.0055398247
100	0xb9888143	-0.0002603625
101	0xbbc2d02b	-0.0059452257
102	0xbc0bb29b	-0.00852647
103	0x3bfc4372	0.00769847
104	0xbc5c0fdb	-0.013431515
105	0x3c04917b	0.008091326
106	0xbc1d9612	-0.009618299
107	0xbbdb88ff	-0.006699681
108	0x3b439151	0.0029841254
109	0xbb0ad6f3	-0.0021185249
110	0xbbb4f7bb	-0.005522696
111	0xbb9871fa	-0.004652259
112	0x3be021f8	0.006839987
113	0xba8a0453	-0.0010529853
114	0xbc059416	-0.008152982
115	0xbbfdff42	-0.0077513764
116	0x3be4b2cf	0.0069793235
117	0xbbe6bbe8	-0.007041443
118	0xbbeb8a08	-0.0071880855
119	0x3bc1cc7e	0.00591427
120	0x3b3910f3	0.0028238862
121	0xbc1505a2	-0.009095581
122	0x3bb95dd3	0.0056569367
123	0x3b8441eb	0.0040361783
124	0xbc2edddc	-0.010673013
125	0x3beb5a50	0.007182397
126	0xbbc98cd0	-0.0061508194
127	0x3b70d37d	0.003674715
128	0xbc5e4f25	-0.013568674
129	0xbb7e8123	-0.0038834296
130	0x3c414ea9	0.011798539
131	0x3b29e060	0.0025921091
132	0xbc2ea4f8	-0.010659449
133	0xbce9dcaf	-0.028547613
134	0x39fed857	0.0004860784
135	0x3b98469c	0.004647089
136	0xbc7b036d	-0.015320641
137	0x3b8ea033	0.0043525933
138	0xbbf5fe7d	-0.007507144
139	0x3c435c89	0.011923918
140	0xbc85e563	-0.016344732
141	0xbb510f8a	-0.003190013
142	0xbc12944b	-0.008946489
143	0xb9b93be0	-0.0003533056
144	0xbc3d9e77	-0.0115734255
145	0x3c1888f1	0.009309993
146	0xbbba6458	-0.0056882314
147	0x3c471bd0	0.012152627
148	0xbbf309d3	-0.0074169426
149	0xbc035a28	-0.0080171
150	0xbb8a8068	-0.004226733
151	0x3b9da851	0.0048113246
152	0x3b226dec	0.0024784757
153	0x3aa4443d	0.0012532544
154	0x3bdebd9a	0.0067975046
155	0xba847874	-0.0010106699
156	0xbae14250	-0.00171859
157	0xbb701e9d	-0.003663934
158	0x3cab95eb	0.02094551
159	0x3b6135af	0.0034364273
160	0x3bfca5b8	0.007710185
161	0xbbbb29ab	-0.0057117543
162	0xbb229bfe	-0.0024812217
163	0x3c69dc5f	0.014273732
164	0xbb7e5733	-0.00388093
165	0xbb50153d	-0.003175094
166	0x3c571ceb	0.013129453
167	0xb9e39690	-0.00043408992
168	0x3bdace48	0.0066774227
169	0x3b9690e7	0.0045949104
170	0x3c1dadb1	0.009623931
171	0xbc10a15b	-0.008827533
172	0xbb864c60	-0.00409846
173	0x3b906f1c	0.0044077765
174	0x3afe02eb	0.0019379532
175	0x3bf1efbb	0.0073833144
176	0xbbd8973b	-0.006609825
177	0xbbd78815	-0.0065775015
178	0xbc221745	-0.009893243
179	0x3b9dfb77	0.0048212367
180	0xbc75ce2a	-0.015002767
181	0x3c80415f	0.015656171
182	0x3b6b8ada	0.0035940916
183	0xbbfc9dff	-0.0077092643
184	0xbb7d9f07	-0.0038699524
185	0xbc1e98cb	-0.009679983
186	0x3bfe70f0	0.007764928
187	0xbac2545f	-0.001482617
188	0xbb96e6ab	-0.0046051345
189	0xbbe70a83	-0.0070508136
190	0xbb3e9f60	-0.0029086694
191	0xbca4dd9a	-0.0201252
192	0x3b9780cb	0.0046235076
193	0xbc26ffd8	-0.010192834
194	0xbbab3b07	-0.0052255425
195	0x3bd41a5a	0.006472868
196	0x3c13c439	0.009018951
197	0xbbba1516	-0.005678783
198	0x3b5b6ba7	0.0033480914
199	0x3b33245a	0.00273349
200	0x3b48b133	0.0030623197
201	0x3bb30cf8	0.0054641925
202	0x3b1f8a4c	0.0024343906
203	0xbc498519	-0.012299799
204	0xbb07d613	-0.0020726963
205	0xbc983aca	-0.01858272
206	0xbadba847	-0.0016758525
207	0xbbae5217	-0.0053198445
208	0xbb1619d8	-0.0022903588
209	0xbc4ad4fa	-0.012379879
210	0x3ae20a48	0.0017245496
211	0x3b7e8610	0.0038837232
212	0xbb2c6aef	-0.0026308855
213	0x3ba42707	0.0050095352
214	0xbc10ba84	-0.008833531
215	0xbc58f662	-0.013242336
216	0xbbbf4803	-0.005837442
217	0x3ca54ccd	0.020178223
218	0x3b88211b	0.004154337
219	0xbafcedca	-0.0019296941
220	0xbbf8fa70	-0.007598214
221	0x3b75c272	0.0037499932
222	0xbc31d7b0	-0.010854647
223	0xb9d55805	-0.00040692106
224	0x3af99ed2	0.0019044525
225	0x3a8a4413	0.0010548852
226	0x3b48f1cc	0.00306617
227	0xbb889fc6	-0.004169437
228	0xbbe19d77	-0.0068852264
229	0xbbab43b4	-0.0052265767
230	0xbc1945fb	-0.009355064
231	0xbb4e2fa2	-0.0031461497
232	0x3c4cfaf2	0.012511002
233	0x3bbe500b	0.0058078817
234	0xbaab6dfc	-0.0013079043
235	0x3b5cc030	0.0033683889
236	0xbbd47363	-0.0064834817
237	0xbb0032ef	-0.0019561609
238	0x3b6bc70a	0.003597679
239	0x3b233eec	0.002490933
240	0x3b8e5c3b	0.004344491
241	0xbc152654	-0.009103376
242	0x3c56efaa	0.013118664
243	0x3b501bf2	0.0031754938
244	0xbb182f8f	-0.0023221707
245	0xbbf33a17	-0.0074226963
246	0x3bca8a0b	0.006181007
247	0x3b713cdb	0.0036809954
248	0xbbaefa1c	-0.005339874
249	0xb980739e	-0.00024500204
250	0xbc237165	-0.009975766
251	0x3bcf8db5	0.0063340315
252	0xbb86a9f6	-0.0041096164
253	0x3c5082a5	0.012726461
254	0xbc013d03	-0.0078880815
255	0xbb888f19	-0.004167449

action_model._discrete_distribution.branches.2.bias f4 [29]
0	0x00000000	0.0
1	0x00000000	0.0
2	0x00000000	0.0
3	0x00000000	0.0
4	0x00000000	0.0
5	0x00000000	0.0
6	0x00000000	0.0
7	0x00000000	0.0
8	0x00000000	0.0
9	0x00000000	0.0
10	0x00000000	0.0
11	0x00000000	0.0
12	0x00000000	0.0
13	0x00000000	0.0
14	0x00000000	0.0
15	0x00000000	0.0
16	0x00000000	0.0
17	0x00000000	0.0
18	0x00000000	0.0
19	0x00000000	0.0
20	0x00000000	0.0
21	0x00000000	0.0
22	0x00000000	0.0
23	0x00000000	0.0
24	0x00000000	0.0
25	0x00000000	0.0
26	0x00000000	0.0
27	0x00000000	0.0
28	0x00000000	0.0

action_model._discrete_distribution.branches.3.weight f4 [9, 128]
0	0x3a43ffbc	0.0007476767
1	0x3bfc9145	0.007707747
2	0x3b02b5b3	0.0019944727
3	0xbb8578b1	-0.0040732254
4	0x3a07237e	0.000515513
5	0xbad68215	-0.0016365672
6	0xbc136f3c	-0.008998688
7	0x3b47f064	0.0030508274
8	0x3c11e3a9	0.008904376
9	0x3c029d95	0.007972141
10	0x3c5c4d00	0.013446093
11	0xbb26c44f	-0.00254466
12	0x3a835bdf	0.0010021887
13	0xbbf93630	-0.0076053366
14	0x3ba60daf	0.005067549
15	0xbb72ede2	-0.0037068059
16	0x3c834d0b	0.016027948
17	0x3a84ba8d	0.0010126397
18	0xbbbb6b88	-0.005719606
19	0xbaccc863	-0.0015623685
20	0x3c36de46	0.011161393
21	0x3c4af225	0.012386833
22	0x3b9f7a84	0.0048669
23	0x39e547ea	0.00043731864
24	0x3bcc56a7	0.0062359157
25	0x3a1e0f03	0.00060294586
26	0x3c860ba8	0.01636298
27	0x3b919c73	0.004443699
28	0xb9eb760b	-0.00044910642
29	0xbb9a3b0f	-0.0047067474
30	0xbc828993	-0.015934741
31	0xbc228d6c	-0.009921413
32	0xbb97981f	-0.0046262885
33	0xb8c3a05a	-9.3281924e-05
34	0xbbd6a748	-0.006550703
35	0x3c1b060b	0.00946189
36	0xbacbe800	-0.0015556812
37	0x3b103015	0.0022001315
38	0xbb81fee1	-0.0039671515
39	0x3be5c325	0.0070117884
40	0x3c853a7d	0.016263241
41	0x3c5874d5	0.013211449
42	0x3bc20213	0.0059206574
43	0x3c426946	0.011865919
44	0x3c620b58	0.01379665
45	0xbc34b4d0	-0.011029437
46	0xbb214403	-0.0024607189
47	0x3b868fb4	0.004106486
48	0xbb9839e4	-0.004645573
49	0xbbbcc794	-0.0057610963
50	0x3bceb197	0.0063077915
51	0x3bc946fc	0.006142495
52	0x3c038211	0.008026616
53	0x3bff3ea0	0.007789448
54	0xbc29ba17	-0.010359309
55	0xbc8d98b0	-0.017284721
56	0xbb1091e2	-0.002205961
57	0xb9cd364f	-0.0003914111
58	0xbc15b438	-0.009137206
59	0x3b97193c	0.0046111625
60	0x3bbb6229	0.0057184887
61	0x3b58947d	0.003304749
62	0xbc5bfb6b	-0.013426642
63	0x3b1d523b	0.0024005312
64	0x3c74e925	0.014948164
65	0x3b0a5678	0.0021108668
66	0x3b3cab84	0.0028788755
67	0xbb330966	-0.0027318834
68	0xbc0c4231	-0.008560703
69	0xb99228d1	-0.000278777
70	0x3c58acb7	0.013224772
71	0xbc4ab694	-0.012372632
72	0xbc85badf	-0.016324459
73	0xbb95051d	-0.0045477287
74	0xbc042073	-0.008064377
75	0x3c5fb515	0.013654013
76	0x3c90ef9b	0.017692378
77	0xbb75ba85	-0.0037495208
78	0x3b90387c	0.0044012647
79	0x3caf20d2	0.021377955
80	0xbbc67bc6	-0.0060572354
81	0x3ba62a83	0.0050709858
82	0xbbe8862b	-0.007096072
83	0x3c77a923	0.015116009
84	0x3c07fbff	0.008299827
85	0xbc1856e1	-0.009298057
86	0x3b45118b	0.003007027
87	0xbbce5b68	-0.0062975176
88	0xba3d4dcc	-0.00072213705
89	0x3c32291b	0.010874058
90	0x3c334b1d	0.010943201
91	0xbbdebb0d	-0.0067972005
92	0xbc42411b	-0.011856343
93	0xbbd6b39f	-0.006552174
94	0x3b167c73	0.002296236
95	0x3b646f85	0.003485651
96	0xbcae9f8d	-0.021316314
97	0x3c85e4d4	0.016344465
98	0xb9f42a55	-0.00046570846
99	0xbc08a382	-0.008339765
100	0xbaf914ba	-0.0019003369
101	0x3c34ba62	0.011030765
102	0xbc8c1b55	-0.017102877
103	0xbb9db36f	-0.00481265
104	0x3b8849bd	0.004159181
105	0x3bc27127	0.005933899
106	0x3c21fb03	0.009886506
107	0xbc1ead03	-0.009684804
108	0xba2f2f65	-0.00066827826
109	0xbb838fa5	-0.0040149265
110	0xbbe3e7f8	-0.006955143
111	0x3c5d2feb	0.013500194
112	0x3ad2e9f0	0.0016091447
113	0xbc8a1741	-0.016856791
114	0x3bb7c857	0.005608599
115	0xb9e52fb7	-0.00043713834
116	0x3c118ccd	0.008883667
117	0xbb7d5d60	-0.0038660392
118	0xbbb26486	-0.0054441122
119	0xbc5780ed	-0.013153297
120	0x3b29a741	0.0025887045
121	0xbb0a2182	-0.00210771
122	0x3b297269	0.0025855547
123	0xbc843e70	-0.016143054
124	0x3c918e61	0.017768087
125	0xbc192fa8	-0.009349741
126	0xbbc1efd8	-0.005918484
127	0x3a9226af	0.0011150445
128	0xbb882894	-0.004155228
129	0xbb115fad	-0.0022182271
130	0xbbffe0e7	-0.007808793
131	0xbbcaa1d3	-0.0061838417
132	0xbbc695d1	-0.00606034
133	0x3c74f3ef	0.014950736
134	0x38ca99eb	9.66078e-05
135	0xbc232818	-0.00995829
136	0x3c6095fa	0.013707632
137	0x3c7409fa	0.014894957
138	0x3c4a1324	0.012333665
139	0xbaffc27a	-0.0019512915
140	0xbaa2d7ab	-0.0012423893
141	0x3c67fae8	0.014158942
142	0xbc73ed73	-0.014888155
143	0xbc6ef670	-0.0145851225
144	0x3b49c999	0.0030790328
145	0x3add660a	0.0016891372
146	0x3c092b55	0.008372148
147	0x3c62e232	0.0138478745
148	0xbb6fee82	-0.0036610668
149	0x3bf8623a	0.007580069
150	0x3cc2e4d2	0.02379075
151	0xbb4fa975	-0.0031686698
152	0xbbe1281d	-0.006871237
153	0x39f1db6d	0.00046130587
154	0xbc733f32	-0.01484661
155	0x3bb0f12b	0.005399843
156	0x3b92460a	0.0044639157
157	0x3aac6925	0.0013153894
158	0x3c23db40	0.010001004
159	0x3b6fe51d	0.0036605068
160	0x3baebe89	0.005332772
161	0xbbfb5e90	-0.007671185
162	0xbc407097	-0.0117455935
163	0xba145702	-0.0005658717
164	0xbb4a4e82	-0.0030869548
165	0xbb894313	-0.004188904
166	0x3b47f006	0.0030508055
167	0xba92448f	-0.0011159348
168	0x3b488ca1	0.00306014
169	0x3b07d247	0.00207247
170	0x3a7d60ea	0.00096656254
171	0x3b9e2625	0.0048263245
172	0x3ad5af48	0.0016302848
173	0x3b07fb04	0.0020748982
174	0x3bf0b7c2	0.0073461244
175	0xbbd67a3a	-0.0065453323
176	0x3c2245ce	0.009904338
177	0xbb5eae45	-0.0033978384
178	0xbbb86d71	-0.005628281
179	0x3be5c7d8	0.0070123486
180	0x3c89d666	0.016825866
181	0x3aa35dea	0.0012463902
182	0xbb5dd43f	-0.0033848432
183	0x3c3742cc	0.011185359
184	0xbcfc5c0b	-0.030805608
185	0x3b3d75c3	0.0028909303
186	0x3c20b56b	0.009808878
187	0x3b685535	0.0035451178
188	0x3c122d33	0.008921909
189	0xbc344b1c	-0.011004236
190	0x3cce19ca	0.025158782
191	0xbc549652	-0.012975292
192	0x3c0e4a7f	0.008684753
193	0x3bafd3cf	0.0053658257
194	0x3c0311d9	0.007999861
195	0x3b3cb571	0.002879467
196	0x3c4ca001	0.01248932
197	0xbc3093f3	-0.010777461
198	0x3c56c242	0.013107838
199	0x3c632c1b	0.013865496
200	0xbc5e8165	-0.013580655
201	0x3c12b5ac	0.008954447
202	0xb88a1e27	-6.585969e-05
203	0xbc7050b3	-0.014667678
204	0x3be6ff8d	0.007049507
205	0x3c07d23f	0.008289873
206	0xbc3e679d	-0.011621383
207	0xbb8f8587	-0.0043799314
208	0xba1545db	-0.0005694308
209	0x3b42e140	0.002973631
210	0x39abda0b	0.00032778116
211	0xbb644f05	-0.0034837138
212	0xbc0c0d93	-0.008548158
213	0xbb23cd90	-0.002499435
214	0xbb152bc1	-0.0022761675
215	0xbc436f4d	-0.011928392
216	0x3b52f0b2	0.0032186923
217	0x3bd226b0	0.0064133033
218	0xbb78410a	-0.0037880563
219	0x3c2e260b	0.010629187
220	0xbc147edc	-0.009063449
221	0x3c131d0c	0.008979093
222	0x3bda2567	0.0066572907
223	0x3c28426c	0.010269742
224	0x3bb9aa97	0.005666088
225	0xbc10b78f	-0.008832826
226	0xbb7fa473	-0.0039007931
227	0x3bad06e2	0.0052803615
228	0xbc17a4ec	-0.009255629
229	0xbb693fa0	-0.0035590902
230	0xbbc9bb21	-0.0061563407
231	0xbc3a7810	-0.011381164
232	0x3a140609	0.0005646651
233	0x3ad76452	0.0016433096
234	0xbc3771fb	-0.011196609
235	0xbc924aa3	-0.017857855
236	0xbcc0facd	-0.023557091
237	0xbbd5a38a	-0.0065197395
238	0xbc18c679	-0.009324663
239	0xbc49451f	-0.012284546
240	0xbbb28038	-0.005447414
241	0x3a5e262f	0.0008474318
242	0x3c58d16f	0.013233527
243	0x3c85626e	0.016282286
244	0xbbbf144b	-0.0058312765
245	0xbc871c25	-0.016492913
246	0x3c00f0eb	0.007869939
247	0xbc09993b	-0.008398349
248	0x3c289cb3	0.010291266
249	0x3b1d06e9	0.0023960418
250	0x3b42581d	0.002965457
251	0xbc07ec56	-0.008296093
252	0xbbc6abc3	-0.006062956
253	0x3bbe88ff	0.005814671
254	0xbc3073ed	-0.010769826
255	0x39c1076c	0.00036817358

action_model._discrete_distribution.branches.3.bias f4 [9]
0	0x00000000	0.0
1	0x00000000	0.0
2	0x00000000	0.0
3	0x00000000	0.0
4	0x00000000	0.0
5	0x00000000	0.0
6	0x00000000	0.0
7	0x00000000	0.0
8	0x00000000	0.0
