results/ppo/BadChessPlayer/BadChessPlayer-11455.onnx (onnx, 75462 bytes, 6 tensors)

action_model._discrete_distribution.branches.0.bias f4 [9]
-0.00014039243 -0.00081559573 -0.00075052975 -0.0003773868 0.0010929224 -0.00065608835 0.00095581374 -5.869294e-05
0.00039714747
00000000: 4e36 13b9 b4cd 55ba 33bf 44ba 00dc c5b9
00000010: 6440 8f3a 58fd 2bba 938f 7a3a 102d 76b8
00000020: 3b38 d039

action_model._discrete_distribution.branches.0.weight f4 [9, 128]
-0.0039995457 0.010990499 0.009857171 -0.008676624 0.00561556 0.002206546 0.01041074 -0.009604335
-0.012724974 -0.0007488315 0.011194667 0.020375673 0.010601704 -0.007749457 0.008698557 0.009072002
-0.0060119685 -0.0078030406 -0.015392304 -0.0044993 0.01016412 -0.0021832085 0.0014708233 0.012927712
-0.010786037 -0.01323191 0.007353521 -0.0073049096 -0.0013209585 0.0067508966 -0.0015001252 -0.003053813
-0.011192215 -0.019140372 -0.002392931 -0.0039481805 -0.0021166836 -0.0051708356 0.0021743316 -0.0052271364
-0.0078029367 0.013717502 0.001392037 -0.01801553 0.008646843 0.0019156022 -0.008717219 0.001567244
0.011814353 -0.003630182 0.009549292 0.0040016994 -0.010985796 0.0042011677 0.0016650694 -0.0034448514
-0.0020901514 0.009433428 0.00892015 0.020133603 -0.010813684 -0.017261723 0.00411807 0.0017092244
0.0009389184 0.0085430695 -0.017687239 1.9586703e-05 0.0052639474 0.00764848 -0.0024956835 -0.0039603272
0.010924336 0.00044902996 -9.030043e-05 -0.01618154 0.00011051678 0.0076247873 0.0008898239 0.0058119264
-0.0006843467 0.0010910516 0.00090128114 0.012151482 0.0016679028 -0.0077696196 -0.02266768 0.00752686
-0.0035662604 -0.015604815 0.0024912676 -0.0044751693 -0.010157369 0.004028403 -0.011230045 -0.0075769913
-0.009134438 -0.012128777 -0.0018368879 0.0030340904 -0.0010264558 -0.00895508 -0.01848728 0.0049394798
0.009660737 0.00058794615 -0.0067881835 0.0044949343 0.0074680233 0.00664868 -0.013459035 -0.018646007
0.0009036778 0.0032388866 -0.00027077875 0.0019992145 -0.004569427 0.0030087687 0.014294298 0.0019539562
-0.0032775884 0.010643866 0.002454737 0.01778195 0.0117492145 0.0021982205 0.009366851 -8.241244e-05
-0.0068687806 -0.017435832 0.013227388 0.0021972274 -0.012897702 -0.0011475956 0.003121465 0.012202889
0.006157095 -0.007942677 -0.0028072046 -0.004643736 0.005038159 -0.007837538 -0.011339352 -0.0026611453
0.012984256 -0.010061704 -0.012876034 -0.0008894328 0.0019707181 -0.00531632 -0.0044784467 0.010982869
0.0048711747 -0.003717261 0.007092341 0.0057368795 -0.0039469753 -0.0014441411 -0.0022356506 -0.006849637
-0.007373976 0.0006206343 -0.00078859995 0.0005496737 0.007824605 0.0092138145 -0.009926213 -0.0083794175
-0.016265143 -0.011295772 0.0028884823 0.0053198016 -0.0031939468 -0.0057274923 0.0058364016 0.0042299055
-0.0075063473 0.009793087 0.007162679 -0.0033526279 0.0058056517 0.00020669603 -0.00046782155 0.00600255
0.0032193644 0.0080837505 -0.011171571 0.0008622865 0.018550625 -0.0017783821 0.0081312675 0.0070326165
0.0020049962 -0.00074849854 -0.00025015345 0.01627208 -0.0019454805 -0.002062596 0.0007398141 0.009031233
-0.0047384785 -0.005991099 -0.007350593 -0.014020981 -0.002693318 0.0015889762 0.014397064 0.011409138
-0.00010588595 -0.0003019428 -0.009010027 0.0040825554 0.007825186 -0.001305824 0.01049163 0.005231912
-0.0121137425 -0.00021226246 -0.009621844 -0.00071267894 0.008899073 0.022896655 -0.0053388225 -0.0029320996
0.010462421 0.00705128 0.00037666672 0.010877964 0.008245882 0.00075417565 -0.008338181 0.010180729
-0.0052748946 0.0024682113 0.0030337083 0.008338445 0.0028130868 -0.01316524 0.005506978 0.007346894
-0.012111138 -0.013457121 0.0027508838 0.0035860704 -0.0101062935 0.010248349 0.008726819 0.005098699
0.006636855 0.00071204506 -0.011864599 0.0029969548 0.006806189 -0.008392444 -0.010926076 -0.008582699
00000000: 9f0e 83bb 7e11 343c f97f 213c 6628 0ebc
00000010: bb02 b83b b39b 103b cf91 2a3c 805b 1dbc
00000020: 697c 50bc 3b4d 44ba d669 373c e2ea a63c
00000030: c5b2 2d3c 28ef fdbb 6484 0e3c bca2 143c
00000040: 0c00 c5bb a6b0 ffbb 0130 7cbc dd6e 93bb
00000050: 6987 263c 2914 0fbb a4c8 c03a c1ce 533c
00000060: ebb7 30bc a7ca 58bc cef5 f03b 065e efbb
00000070: 0324 adba a036 dd3b d99f c4ba 7b22 48bb
00000080: 8d5f 37bc 45cc 9cbc b8d2 1cbb bd5f 81bb
00000090: 0fb8 0abb 1d70 a9bb 3b7f 0e3b 6648 abbb
000000a0: c7af ffbb 60bf 603c 0375 b63a 4e95 93bc
000000b0: 7dab 0d3c f214 fb3a abd2 0ebc fb6b cd3a
000000c0: fd90 413c 59e8 6dbb a274 1c3c b020 833b
000000d0: c5fd 33bc f3a9 893b 753e da3a 04c3 61bb
000000e0: ecfa 08bb aa8e 1a3c d225 123c 3aef a43c
000000f0: e12b 31bc 7568 8dbc e0f0 863b 0e08 e03a
00000100: bf21 763a 3bf8 0b3c d4e4 90bc 204e a437
00000110: 317d ac3b 1aa0 fa3b 9f8e 23bb a2c5 81bb
00000120: fcfb 323c c86b eb39 ad5f bdb8 268f 84bc
00000130: 3fc5 e738 5ad9 f93b 1243 693a f971 be3b
00000140: bb65 33ba 9e01 8f3a f443 6c3a 0217 473c
00000150: 889d da3a 4b98 febb 92b1 b9bc e1a3 f63b
00000160: ecb7 69bb 57ab 7fbc 8944 233b 71a4 92bb
00000170: 186b 26bc b200 843b 39fe 37bc 6948 f8bb
00000180: 9ca8 15bc c7b7 46bc bbc3 f0ba 97d7 463b
00000190: 248a 86ba 54b8 12bc a372 97bc 5cdb a13b
000001a0: 1148 1e3c 6620 1a3a 696f debb 3e4a 933b
000001b0: 52b6 f43b 2cdd d93b 4983 5cbc 83bf 98bc
000001c0: cae4 6c3a 8043 543b 4ff7 8db9 4105 033b
000001d0: 22bb 95bb c32e 453b a232 6a3c f20d 003b
000001e0: cfcc 56bb 9c63 2e3c a7df 203b 74ab 913c
000001f0: c77f 403c 0510 103b 6c77 193c d8d4 acb8
00000200: 8213 e1bb 97d5 8ebc b0b7 583c 5cff 0f3b
00000210: e250 53bc eb6a 96ba 7e91 4c3b a0ee 473c
00000220: 75c1 c93b 0022 02bc 14f9 37bb 7b2a 98bb
00000230: 2417 a53b 0469 00bc b0c8 39bc 9c66 2ebb
00000240: ebbb 543c d8d9 24bc 00f6 52bc d328 69ba
00000250: 2a27 013b 8634 aebb efbf 92bb 7ef1 333c
00000260: 609e 9f3b 4a9d 73bb de66 e83b 6ffc bb3b
00000270: a155 81bb 5649 bdba fe83 12bb eb72 e0bb
00000280: 65a1 f1bb 10b2 223a 0cba 4eba fa17 103a
00000290: c632 003c 8af5 163c 8ea1 22bc d349 09bc
000002a0: 7a3e 85bc e711 39bc b14c 3d3b bb51 ae3b
000002b0: 8951 51bb b0ad bbbb 493f bf3b 059b 8a3b
000002c0: cef7 f5bb 2f73 203c e8b4 ea3b c3b7 5bbb
000002d0: 563d be3b 8bbc 5839 f245 f5b9 0ab1 c43b
000002e0: f9fb 523b b571 043c f708 37bc 110b 623a
000002f0: 7bf7 973c 9a18 e9ba 0239 053c dd71 e63b
00000300: 4166 033b e336 44ba 0727 83b9 064d 853c
00000310: 7eff feba 9e2c 07bb 15f0 413a bdf7 133c
00000320: 3d45 9bbb fb50 c4bb 3edd f0bb 42b8 65bc
00000330: 6182 30bb 3245 d03a aae1 6b3c 65ed 3a3c
00000340: 160f deb8 144e 9eb9 cb9e 13bc f5c6 853b
00000350: 3535 003c 2f28 abba 16e5 2b3c 7570 ab3b
00000360: b878 46bc c592 5eb9 f0a4 1dbc 13d3 3aba
00000370: 6bcd 113c c491 bb3c 4af1 aebb 7828 40bb
00000380: 936a 2b3c 6c0e e73b 5a7b c539 7d39 323c
00000390: bc19 073c dfb3 453a de9c 08bc 13cd 263c
000003a0: 06d9 acbb b7c1 213b 2ed1 463b f99d 083c
000003b0: c45b 383b 05b3 57bc e173 b43b 37be f03b
000003c0: cb6d 46bc 427b 5cbc 2c48 343b 4704 6b3b
000003d0: de94 25bc b1e8 273c effa 0e3c fd12 a73b
000003e0: fa79 d93b 89a8 3a3a bc63 42bc 8f68 443b
000003f0: 7406 df3b 7680 09bc 4903 33bc 739e 0cbc

network_body.linear_encoder.seq_layers.0.bias f4 [128]
-0.0010374102 -0.00014307351 0.0023503068 0.0013773455 -0.00023939867 0.00075108866 -0.0010367099 -0.0012080334
-0.00097335427 -0.0007615014 -0.0056324755 0.0021576227 -0.0027377568 0.0011241813 0.0011015147 -0.0013318856
0.0019659456 0.00084978045 0.0025437784 0.0023305032 -0.00013200013 -0.0012219086 -0.005696357 0.00073590234
-0.002795926 5.0056726e-05 -0.0001325781 -0.0014480628 -0.002360774 0.0012000562 0.0014473248 -9.348246e-05
-0.0019823269 -0.0008498867 0.0030996518 -0.0011754542 -0.0015956492 0.0014356712 -0.0017494038 0.0019705305
0.0004342245 0.00012890791 0.0059933537 0.0021951874 -0.0005559939 -0.0002906302 0.0016014411 0.0011027058
-0.0031079603 0.0005763623 0.0007667879 0.002827064 0.0012950051 -0.0026198018 0.006632502 -0.00051716284
-0.00285931 -0.00051500334 -0.00043748957 0.00028778997 0.0013757801 -0.00021137008 0.00051261054 0.000617563
-0.0022875036 -0.0012542964 -0.001987511 0.0019853183 0.0018734856 0.00058272225 0.0007861517 0.00044384712
-0.0018364844 0.0029324477 0.0011559837 -0.0008977147 -0.0026679735 0.0053496356 0.0021703108 -0.00031024325
-0.0044104215 -0.0004472209 -0.0029512101 -0.0015333248 -0.0034878105 -0.0010436656 -0.0036040263 0.00037424287
-9.074833e-05 -0.00041668507 -0.0023177983 0.003749046 0.0021149742 -0.00047356857 0.00073287665 0.00014591281
-0.00016855868 -0.0009246514 -0.001454945 0.0038391915 -0.00045044173 -0.0005427879 0.00030569837 0.00060936285
0.00013449696 -0.0025444115 -7.949134e-05 0.00036415335 0.00024680974 0.0019562468 -0.0029122268 0.0015001358
-0.00076153537 0.0017536875 -0.0012155363 0.000843812 -0.0017274676 -0.0012673119 0.00039717404 -0.0011784259
-0.0011982627 -0.0014111723 -0.0018841742 0.0011644227 -0.00013862336 -0.00078147824 0.0018703962 -0.0010771112
00000000: b6f9 87ba 0106 16b9 9b07 1a3b 0c88 b43a
00000010: 1707 7bb9 b5e4 443a 36e2 87ba e056 9eba
00000020: b328 7fba 7e9f 47ba a190 b8bb e766 0d3b
00000030: f06b 33bb 4459 933a b360 903a aa92 aeba
00000040: 18d7 003b cdc3 5e3a 85b5 263b 5bbb 183b
00000050: 8469 0ab9 7328 a0ba 82a8 babb 92e9 403a
00000060: db3b 37bb 00f4 5138 aa04 0bb9 edcc bdba
00000070: 37b7 1abb 344b 9d3a 29b4 bd3a 030c c4b8
00000080: ede9 01bb eeca 5eba 8723 4b3b b311 9aba
00000090: 1a25 d1ba 222d bc3a 404c e5ba 0424 013b
000000a0: a0a8 e339 742b 0739 e563 c43b 22dd 0f3b
000000b0: 1ec0 11ba ba5f 98b9 72e7 d13a ab88 903a
000000c0: ecae 4bbb 0517 173a 4402 493a 4346 393b
000000d0: 29bd a93a fbb0 2bbb 7655 d93b 3692 07ba
000000e0: 4363 3bbb 4a01 07ba db5e e5b9 84e2 9639
000000f0: 8553 b43a 39a3 5db9 b660 063a f4e3 213a
00000100: f1e9 15bb 3467 a4ba e740 02bb 1d1c 023b
00000110: bf8f f53a d4c1 183a bf15 4e3a 27b4 e839
00000120: 31b6 f0ba 4f2e 403b 6084 973a 9d54 6bba
00000130: 2bd9 2ebb ff4b af3b c63b 0e3b 25a8 a2b9
00000140: 4c85 90bb f978 eab9 1769 41bb d8f9 c8ba
00000150: c093 64bb 9bcb 88ba 8731 6cbb 0736 c439
00000160: 2450 beb8 8676 dab9 34e6 17bb 8eb2 753b
00000170: 619b 0a3b 4c49 f8b9 851e 403a 2c00 1939
00000180: 20bf 30b9 4e64 72ba dab3 beba f29a 7b3b
00000190: 4429 ecb9 e149 0eba 2446 a039 a6bd 1f3a
000001a0: c107 0d39 24c0 26bb 97b4 a6b8 d6eb be39
000001b0: 3e66 8139 6034 003b 0fdb 3ebb 34a0 c43a
000001c0: c6a1 47ba fddb e53a a152 9fba 4433 5d3a
000001d0: 326c e2ba ee1b a6ba cc3b d039 6975 9aba
000001e0: 060f 9dba 16f7 b8ba 65f6 f6ba 8b9f 983a
000001f0: 6d5b 11b9 1edc 4cba 1528 f53a db2d 8dba

network_body.linear_encoder.seq_layers.0.weight f4 [128, 4]
0.61867565 -0.26024136 -0.49785686 -0.005885863 -0.13240826 0.8256591 0.13377292 -0.030183868
0.35688558 -0.54386836 -0.3455904 -0.23438151 -0.13897812 -0.0065038004 0.5245063 -0.74287957
-0.15016012 0.49016035 0.9397789 0.2131893 0.11806269 -0.10628854 -0.09116779 0.048152167
-0.22993009 0.33880758 -0.066637725 0.13450956 0.36363295 -0.61266637 0.8399965 0.95191336
0.097870916 0.08848882 0.03937371 0.004700358 1.0234753 -0.31052348 -0.7721603 -0.87991226
-0.4420489 -0.88478583 0.26801348 0.4236413 0.57332665 -0.48378372 0.028578779 0.13493337
-0.065330066 -0.1407666 -0.39435044 -0.71283525 0.39146757 0.5602959 0.60307145 0.40414426
0.55163884 0.4093996 -0.33140525 -0.32889974 -0.50837237 -0.39664334 -0.24034774 -0.28227893
0.38127553 0.3797857 -0.5955518 -0.22382256 0.9448847 -0.08549924 -0.6711411 -0.6425752
-0.31757343 0.99048984 -0.47312364 -0.44638014 0.42783278 -0.030950319 -0.8398203 0.111340396
-0.47279373 0.53886575 0.18812577 0.7330001 0.04730505 -0.0078055374 -0.7664843 -0.16544661
-0.5480372 -0.27702296 0.30621162 -0.1579116 -0.3876589 -0.26599264 -0.6093626 0.69455445
0.6833514 -0.9654019 -1.3128465 0.59756714 0.29443166 -0.6502319 0.77758306 -0.14491868
0.28001282 0.35992315 0.039313756 -0.34406346 -0.22893947 0.124145105 0.31654218 0.40613553
-0.0017311444 0.36189148 0.08830112 -0.48023325 -0.27710906 -0.19100988 -0.32648468 -0.98889905
-0.062098034 -0.50446624 -0.38697353 0.009048171 -0.15008315 0.5184644 0.5847003 -0.14579147
0.33170453 -0.06293215 0.26995307 0.43654922 0.46868795 -0.0028984202 0.4725749 0.019657087
-0.3341537 -1.0368317 -0.34766948 -0.04447724 0.11364249 0.11756951 0.48005027 0.24799347
0.7035382 -0.5161591 -0.18387547 -0.06219629 0.6008972 -0.7744739 -0.4373234 -0.20647058
-0.45171142 -0.002406247 0.21992603 -0.19822527 0.12334121 0.10588518 -0.38612917 -0.025398659
-0.3145234 0.696717 -0.36056936 0.40095323 -0.603909 0.3447371 0.8482723 -0.22328946
-0.2573923 -0.87528324 0.28401867 0.79534703 -0.08253662 -0.12700883 -0.28548712 -0.6036328
-0.09443376 0.62340945 -0.21690713 0.16196065 -0.037729766 -0.53520817 -0.24840176 -0.6596766
-0.38561085 -0.11332126 1.3113859 -0.5201856 -0.19338316 0.23524716 -0.9437945 -1.0752327
0.21986032 -0.55171573 -0.18568802 0.12335663 0.76003146 -0.14819598 -0.51136005 -0.1527076
0.29575238 -0.36786515 1.2311276 -0.612456 -0.10050335 -0.5457689 -1.0389287 1.0582725
-0.65222114 -0.3767818 -0.37852234 0.59896713 0.19902152 -0.17957363 0.92827255 -0.37130412
-0.52583206 -0.5202048 0.21777302 0.7092208 0.9518569 1.0203433 -0.18909492 0.2973246
0.003759829 -0.3333133 0.5132375 -0.30816132 -0.26755166 -0.74391305 -0.06114478 -0.7571078
0.11254938 0.028630605 0.25960127 0.39877188 0.83010185 0.26952943 0.12314899 -0.10284778
0.11873684 0.3233649 0.33505043 -0.38240606 -0.020743812 0.42491683 0.3298681 0.44727623
0.7830174 -0.7352976 0.32137993 0.7274077 -0.05418957 0.03230997 0.35828337 0.09081348
00000000: 8761 1e3f 5b3e 85be 18e7 febe 33de c0bb
00000010: 0896 07be 655e 533f c5fb 083e 2944 f7bc
00000020: b5b9 b63e f53a 0bbf 3af1 b0be b501 70be
00000030: 4850 0ebe d51d d5bb 0b46 063f 5b2d 3ebf
00000040: 93c3 19be 4cf6 fa3e 5a95 703f 4c4e 5a3e
00000050: daca f13d cead d9bd 2eb6 babd 353b 453d
00000060: cb72 6bbe 3078 ad3e 5c79 88bd e0bc 093e
00000070: 192e ba3e b4d7 1cbf 030a 573f 98b0 733f
00000080: 8c70 c83d a039 b53d 5446 213d 7605 9a3b
00000090: 3d01 833f effc 9ebe 4cac 45bf ee41 61bf
000000a0: 3c54 e2be 5381 62bf 1039 893e 83e7 d83e
000000b0: 89c5 123f 80b2 f7be 0b1e ea3c f92b 0a3e
000000c0: c5cb 85bd 1f25 10be 4de8 c9be 5f7c 36bf
000000d0: 706e c83e 8d6f 0f3f e462 1a3f ffeb ce3e
000000e0: 3438 0d3f d39c d13e f3ad a9be 8c65 a8be
000000f0: b124 02bf d614 cbbe b81d 76be dd86 90be
00000100: 8c36 c33e 4573 c23e 1576 18bf be31 65be
00000110: f7e3 713f 3a1a afbd e7cf 2bbf cf7f 24bf
00000120: fc98 a2be be90 7d3f 433d f2be f08b e4be
00000130: e60c db3e 868b fdbc 77fe 56bf 6f06 e43d
00000140: 0512 f2be 1bf3 093f 0ba4 403e e5a5 3b3f
00000150: f1c2 413d 98c5 ffbb 5138 44bf d66a 29be
00000160: 2a4c 0cbf f4d5 8dbe c5c7 9c3e 94b3 21be
00000170: 3a7b c6be 3030 88be 30ff 1bbf 52ce 313f
00000180: 1ef0 2e3f 9424 77bf 5b0b a8bf 29fa 183f
00000190: bfbf 963e 9975 26bf af0f 473f 9065 14be
000001a0: d75d 8f3e d947 b83e 7607 213d 1629 b0be
000001b0: 1c6f 6abe ca3f fe3d d111 a23e fff0 cf3e
000001c0: 91e7 e2ba d749 b93e 38d7 b43d 22e1 f5be
000001d0: 3de1 8dbe 1898 43be 0029 a7be 7d28 7dbf
000001e0: 825a 7ebd b324 01bf 6521 c6be c83e 143c
000001f0: 66af 19be 15ba 043f ebae 153f 5c4a 15be
00000200: 2dd5 a93e 92e2 80bd 4a37 8a3e 6183 df3e
00000210: def7 ef3e 6cf3 3dbb 56f5 f13e e607 a13c
00000220: 3216 abbe e7b6 84bf bc01 b2be c42d 36bd
00000230: 65bd e83d 49c8 f03d 26c9 f53e 00f2 7d3e
00000240: 141b 343f 0123 04bf da49 3cbe 89c1 7ebd
00000250: 66d4 193f ec43 46bf dae8 dfbe 066d 53be
00000260: b846 e7be 20b2 1dbb 4a34 613e 91fb 4abe
00000270: 519a fc3d 54da d83d b9b2 c5be d910 d0bc
00000280: 3609 a1be 0c5c 323f 8c9c b8be be49 cd3e
00000290: c899 1abf 6281 b03e 6028 593f fea5 64be
000002a0: ecc8 83be 9012 60bf e56a 913e dd9b 4b3f
000002b0: f608 a9bd 9a0e 02be 5e2b 92be ae87 1abf
000002c0: 7d66 c1bd c397 1f3f e71c 5ebe 03d9 253e
000002d0: 878a 1abd 6703 09bf 085d 7ebe 91e0 28bf
000002e0: c96e c5be fa14 e8bd 7edb a73f e22a 05bf
000002f0: 3c06 46be a2e4 703e 849c 71bf 3aa1 89bf
00000300: 1023 613e 3e3d 0dbf 0025 3ebe 67a2 fc3d
00000310: 6c91 423f b0c0 17be 7ee8 02bf 625f 1cbe
00000320: db6c 973e d258 bcbe 9795 9d3f ebc9 1cbf
00000330: b3d4 cdbd 83b7 0bbf 9efb 84bf 7975 873f
00000340: f7f7 26bf 8be9 c0be aecd c1be e955 193f
00000350: 4ccc 4b3e 26e2 37be 45a3 6d3f 931b bebe
00000360: ee9c 06bf 242c 05bf e4ff 5e3e 7f8f 353f
00000370: e5ac 733f 9c9a 823f 19a2 41be ee3a 983e
00000380: 7767 763b 0aa8 aabe 8863 033f 52c7 9dbe
00000390: 88fc 88be 1671 3ebf f372 7abd d1d1 41bf
000003a0: 4a80 e63d bb8a ea3c 75ea 843e d42b cc3e
000003b0: 8e81 543f c3ff 893e 8a35 fc3d dba1 d2bd
000003c0: 4d2c f33d 1690 a53e bb8b ab3e baca c3be
000003d0: edee a9bc b38e d93e 79e4 a83e 6401 e53e
000003e0: d473 483f 773c 3cbf e98b a43e 6437 3a3f
000003f0: e2f5 5dbd 7657 043d eb70 b73e 6bfc b93d

network_body.linear_encoder.seq_layers.2.bias f4 [128]
0.00047389502 0.0004669555 0.002100575 -0.002251389 0.00020292032 -0.00080950075 -2.314153e-05 0.0037973986
-0.0007953937 -0.0027109396 0.00036639915 5.345299e-05 0.004861002 -0.0002270325 0.001280213 0.0027662043
0.0009572098 -0.00032221555 -0.00027900827 -0.0011106671 -0.0005955911 0.002254652 -0.00010843316 -0.00060362305
0.00025033977 0.0009280279 -0.0005574091 0.0015453957 0.001718078 -0.0039173616 -0.0048394026 0.005526402
-0.0017052639 -0.00088955206 -0.0003773208 -0.00022664656 -0.00062378956 -0.00018817832 0.00035295877 0.0009189169
-0.00015996747 -0.00054522115 0.00049244263 -0.00010018391 -2.4978199e-05 0.00012628558 0.002172671 0.0018248176
0.00025695114 -0.0017749189 -0.0016365203 -0.00016808999 -0.0007701205 -0.00070208067 -2.7001948e-05 -0.00024403926
-0.0003427492 -0.0016171759 -0.0041473177 -0.0009997453 -0.0006991003 -0.0002054674 0.00012105803 0.004327634
-0.0005873214 -0.00035984803 0.00084095704 0.0005388201 -0.00061844743 0.0020105673 -0.0009163476 -0.00077840325
-7.509537e-05 -0.0007219087 -0.0013782317 0.000198247 -0.0004020402 -0.0014076271 -0.001854327 -1.7076061e-05
-0.0010866029 0.00057356164 -0.0005030697 -0.0002559253 -0.0013179242 -0.0033821717 -0.0007669276 0.0010720056
0.0008343106 -0.0006227455 0.00042134832 -0.0001031963 0.0006833684 0.0010840576 0.00029677214 -0.0011918058
0.0030488155 0.000262313 -0.00045894162 0.0002303378 0.0013798515 -0.0005195845 -0.0022086143 -0.0016731981
-0.00057588983 -0.0011101123 -0.0005496251 0.00072155043 -0.0009873856 0.00073984644 0.0032350495 0.0008734986
-0.0008591564 -0.0010007223 0.0012601931 -5.5759905e-05 -0.002141428 0.00034589684 0.0029290782 -0.00054938823
-0.0012439647 -0.00016288506 -0.0030506013 -0.0038312834 0.00010673319 0.00017474449 -0.0014034503 -0.00058679236
00000000: 1d75 f839 b5d1 f439 cda9 093b 0a8c 13bb
00000010: 02c7 5439 ad34 54ba 0f20 c2b7 c7dd 783b
00000020: f881 50ba 05aa 31bb 4319 c039 b632 6038
00000030: 0a49 9f3b 930f 6eb9 d2cc a73a 3549 353b
00000040: 43ed 7a3a 0aef a8b9 db47 92b9 ce93 91ba
00000050: 7121 1cba c9c2 133b 9c66 e3b8 753c 1eba
00000060: 0940 8339 e646 733a 171f 12ba e08e ca3a
00000070: 2231 e13a 365d 80bb da93 9ebb d216 b53b
00000080: 2983 dfba d430 69ba 24d3 c5b9 f9a7 6db9
00000090: cf85 23ba bc51 45b9 530d b939 78e3 703a
000000a0: f1bc 27b9 2ced 0eba 4417 013a d419 d2b8
000000b0: 4688 d1b7 876b 0439 5f63 0e3b b82e ef3a
000000c0: 66b7 8639 65a4 e8ba 8280 d6ba 5041 30b9
000000d0: e9e1 49ba d60b 38ba 3e82 e2b7 cae4 7fb9
000000e0: 05b3 b3b9 6bf7 d3ba 39e6 87bb e309 83ba
000000f0: d443 37ba bc72 57b9 89e0 fd38 d3ce 8d3b
00000100: 79f6 19ba fca9 bcb9 ac73 5c3a 9b3f 0d3a
00000110: 4e1f 22ba b9c3 033b 0c37 70ba c20d 4cba
00000120: 857c 9db8 793e 3dba c8a5 b4ba 86e0 4f39
00000130: ecc8 d2b9 2180 b8ba e40c f3ba 903e 8fb7
00000140: 586c 8eba 125b 163a 70e0 03ba b62d 86b9
00000150: 33be acba 6da7 5dbb a40b 49ba 8a82 8c3a
00000160: a3b5 5a3a be3f 23ba 6ae8 dc39 176b d8b8
00000170: 1424 333a f016 8e3a 1598 9b39 5e36 9cba
00000180: a3ce 473b 0e87 8939 1a9e f0b9 d586 7139
00000190: 22dc b43a ba34 08ba 66be 10bb 364f dbba
000001a0: 50f7 16ba 3081 91ba b714 10ba 6e26 3d3a
000001b0: 2a6b 81ba 41f2 413a 2003 543b 80fb 643a
000001c0: 0339 61ba ab2a 83ba 102d a53a bedf 69b8
000001d0: 3357 0cbb 7d59 b539 c7f5 3f3b d204 10ba
000001e0: 870c a3ba 20cc 2ab9 99ec 47bb 4516 7bbb
000001f0: f2d5 df38 9e3b 3739 faf3 b7ba f8d2 19ba

network_body.linear_encoder.seq_layers.2.weight f4 [128, 128]
-0.03212312 0.032682832 0.0058210697 0.036284935 0.07288281 -0.034583274 0.0073365485 0.029938951
-0.06398788 0.022560704 -0.09019907 -0.037771128 -0.043345418 0.0077694375 -0.07988149 -0.009519342
0.06368033 -0.04035537 0.00062440103 -0.06597265 0.057345487 0.063724086 -0.1046412 0.096609995
0.020486545 0.048340064 0.05971527 0.082774505 0.032145683 -0.05569436 0.12676942 0.006785914
0.06033723 0.053128246 -0.06295088 -0.06076494 0.12745598 -0.04406051 0.047550045 0.031740263
-0.041576188 -0.016560545 -0.045616407 -0.12731494 -0.16055907 0.008192558 0.1418117 0.13745354
0.030762717 -0.026871447 0.052525315 -0.044961184 0.042540908 0.08803904 -0.07760354 -0.08662081
-0.111838184 0.007509859 0.018790407 0.13700244 0.19941768 -0.0024007398 -0.083814204 0.004368888
0.036925375 -0.028560288 0.015708184 -0.043354955 0.016179306 0.07376742 0.021470128 0.1018775
0.123045444 0.12504181 -0.09126326 0.026583128 -0.26410085 -0.14978938 -0.071725644 0.10302947
0.015723795 0.015382453 0.069577076 -0.04775397 0.054814335 -0.0771446 -0.12016021 -0.1374552
0.052330088 0.10359166 -0.10319124 0.039534125 0.026726091 -0.038660187 -0.052490715 -0.023206335
0.029155293 -0.041253723 0.12077104 -0.08977519 -0.21799122 -0.030555258 0.12377689 -0.08179849
-0.080745734 0.0018925297 -0.07159093 0.05260073 0.05393295 -0.07684127 0.0023324953 -0.13600513
-0.024877928 -0.02238789 0.02124596 0.0870416 -0.20608039 0.041964132 -0.13520199 -0.0149803385
-0.077810176 0.09191858 -0.03835306 0.014924669 0.11264346 -0.07040584 -0.0013889703 0.24680755
-0.24872388 -0.03845678 -0.037950005 -0.0019569849 -0.012570767 0.14063999 0.10354506 -0.08876118
-0.16470505 -0.00508835 -0.06452136 -0.028735029 -0.12513715 -0.104480006 -0.06604698 -0.058842175
0.022906318 -0.072493754 -0.01306294 -0.03922964 0.06407284 0.10843158 0.0430917 0.05952115
0.08465949 0.08253131 -0.08721316 0.0044662375 0.09557532 0.12183611 -0.06338794 0.0651442
-0.05475473 0.09974677 0.0056057945 0.01478771 -0.033720456 -0.08241769 0.008663348 0.032809276
-0.029618844 0.022207344 0.01218717 -0.15555175 -0.14030948 0.10335914 -0.009437611 -0.058962848
-0.06540462 -0.053477593 -0.05236104 -0.041258164 0.04607894 0.07397275 -0.031019758 0.070200436
-0.05134581 -0.10112713 -0.0021484238 0.025720792 -0.07265489 -0.13225932 0.035549615 0.069360025
0.07861656 0.00018062186 0.009883916 -0.049827978 0.06589735 0.09777242 0.11443097 -0.11471729
0.09149833 -0.07130956 0.0035788943 0.015963554 -0.029082393 -0.15495095 0.09236851 -0.06162045
-0.05427163 -0.0067491806 0.101467825 0.028876893 -0.062802315 -0.052508947 0.030947655 0.0067381556
-0.090286225 0.03040661 0.006393476 -0.06095857 0.0155870905 0.06957852 0.020211902 -0.080066405
0.21641138 -0.07576894 0.1538095 0.20564431 0.0332049 -0.08817112 0.11349656 -0.10601163
0.04334541 0.06361411 0.074065655 -0.033453844 -0.014805433 -0.023329912 -0.093079805 0.038282614
-0.09702343 -0.003263572 0.010517542 0.021499153 -0.023885278 -0.11123517 -0.011418876 -0.17477807
0.043479893 0.021477636 0.07968355 0.12946177 -0.14127056 -0.0543629 -0.024591036 0.008899009
00000000: 8893 03bd 6fde 053d acbe be3b 839f 143d
00000010: 9543 953d 31a7 0dbd 6e67 f03b 8842 f53c
00000020: 140c 83bd 3ad1 b83c 4aba b8bd e6b5 1abd
00000030: f78a 31bd c496 fe3b e898 a3bd 04f7 1bbc
00000040: d56a 823d ac4b 25bd d8ae 233a ab1c 87bd
00000050: 1ae3 6a3d c681 823d 204e d6bd 76db c53d
00000060: 66d3 a73c 3b00 463d 0098 743d ae85 a93d
00000070: 31ab 033d c51f 64bd d8cf 013e 5f5c de3b
00000080: 2c24 773d 019d 593d 64ec 80bd a8e4 78bd
00000090: d283 023e cb78 34bd d6c3 423d 1402 023d
000000a0: cb4b 2abd fba9 87bc 45d8 3abd d95e 02be
000000b0: 9969 24be 143a 063c 1637 113e 9fc0 0c3e
000000c0: 1802 fc3c 8221 dcbc c924 573d 3829 38bd
000000d0: 603f 2e3d d04d b43d 9bee 9ebd 4066 b1bd
000000e0: 6b0b e5bd 4315 f63b 57ee 993c 5e4a 0c3e
000000f0: 2634 4c3e bb55 1dbb c8a6 abbd e428 8f3b
00000100: 103f 173d 44f7 e9bc 73ae 803c f794 31bd
00000110: 778a 843c 6013 973d 1fe2 af3c 27a5 d03d
00000120: 40ff fb3d f60a 003e 3be8 babd dcc4 d93c
00000130: 3a38 87be 6362 19be e5e4 92bd 1d01 d33d
00000140: 30cf 803c af06 7c3c 6d7e 8e3d ab99 43bd
00000150: ff84 603d fdfd 9dbd 8e16 f6bd 0ec1 0cbe
00000160: 1358 563d dd27 d43d ee55 d3bd 89ee 213d
00000170: adf0 da3c 255a 1ebd 8100 57bd 361b bebc
00000180: 15d7 ee3c aaf9 28bd cf56 f73d 0edc b7bd
00000190: 1739 5fbe 054f fabc bd7e fd3d f785 a7bd
000001a0: 055e a5bd c20e f83a 449e 92bd dd73 573d
000001b0: cce8 5c3d f55e 9dbd c7dc 183b ee44 0bbe
000001c0: cccc cbbc cf66 b7bc 020c ae3c de42 b23d
000001d0: bd06 53be 95e2 2b3d 6472 0abe 1870 75bc
000001e0: f15a 9fbd cf3f bc3d 1918 1dbd 9986 743c
000001f0: 9db1 e63d f030 90bd 1c0e b6ba 1ebb 7c3e
00000200: 79b1 7ebe db84 1dbd 7771 1bbd c240 00bb
00000210: 9ef5 4dbc ee03 103e 6f0f d43d 6cc8 b5bd
00000220: 71a8 28be 2cbc a6bb c623 84bd b965 ebbc
00000230: f423 00be 9df9 d5bd a443 87bd 7e04 71bd
00000240: 08a6 bb3c 9b77 94bd f105 56bc 42af 20bd
00000250: 9f38 833d 6011 de3d ec80 303d 73cc 733d
00000260: f461 ad3d 2d06 a93d d09c b2bd 8459 923b
00000270: febc c33d 3685 f93d 89d1 81bd 536a 853d
00000280: 7f46 60bd 0948 cc3d d0b0 b73b 2748 723c
00000290: 761e 0abd 9bca a8bd b7f0 0d3c 0563 063d
000002a0: 38a3 f2bc 2dec b53c b2ac 473c f548 1fbe
000002b0: 4aad 0fbe f5ad d33d 36a0 1abc 0783 71bd
000002c0: dbf2 85bd 520b 5bbd 8878 56bd 52fe 28bd
000002d0: 45bd 3c3d 067f 973d 261d febc 3fc5 8f3d
000002e0: fc4f 52bd be1b cfbd 92cc 0cbb 69b4 d23c
000002f0: 16cc 94bd fd6e 07be 799c 113d a10c 8e3d
00000300: b801 a13d 5065 3d39 26f0 213c 6c18 4cbd
00000310: 31f5 863d e83c c83d c95a ea3d e6f0 eabd
00000320: 7a63 bb3d bf0a 92bd e28b 6a3b 00c6 823c
00000330: 333e eebc 76ab 1ebe b42b bd3d ba65 7cbd
00000340: ee4b 5ebd 3b28 ddbb 5dce cf3d 3c8f ec3c
00000350: 809e 80bd 9f13 57bd f085 fd3c bfcb dc3b
00000360: fce7 b8bd 4817 f93c 5d80 d13b b2af 79bd
00000370: ff60 7f3c 2f7f 8e3d 6e93 a53c dbf9 a3bd
00000380: f29a 5d3e bf2c 9bbd 3d80 1d3e 6c94 523e
00000390: dc01 083d 0f93 b4bd e270 e83d a01c d9bd
000003a0: f58a 313d 1d48 823d bcaf 973d e606 09bd
000003b0: 7d92 72bc 5f1e bfbc a0a0 bebd 3bce 1c3d
000003c0: 38b4 c6bd a7e1 55bb c551 2c3c fe1e b03c
000003d0: 0fab c3bc 44cf e3bd 3d16 3bbc 06f9 32be
000003e0: f917 323d def1 af3c 2131 a33d a091 043e
000003f0: 3ba9 10be a2ab 5ebd 2473 c9bc 26cd 113c
