results/ppo/BadChessPlayer/BadChessPlayer-2445.onnx (onnx, 304125 bytes, 40 tensors)

action_model._discrete_distribution.branches.0.bias f4 [11]
00000000: 0000 0000 0000 0000 0000 0000 0000 0000
00000010: 0000 0000 0000 0000 0000 0000 0000 0000
00000020: 0000 0000 0000 0000 0000 0000
0.0 0.0 0.0 0.0 0.0 0.0 0.0 0.0
0.0 0.0 0.0

action_model._discrete_distribution.branches.0.weight f4 [11, 128]
00000000: 2d0f 4dbc fa31 803c 80dd 2cbc 8bad 073c
00000010: d816 e8bb 05be 5b3c dad4 323b 33f0 a5bc
00000020: 9ade 683b 694f 293c 0fdd f4ba 5d91 ec3b
00000030: 7f1e 153a 22cd 813b f350 e33b 8f06 093b
00000040: 07c6 2a3c 2049 e53b c522 ce3b 6410 a73b
00000050: 37c6 f43a 87ad 85ba ec11 9eba 10f1 b5bb
00000060: ef0e 11bb 23cf 8cba 4dbe d63a aa7f cc3a
00000070: 0cdc 253a a886 afbb 71d5 9a3a 33e6 6b3c
00000080: 07f0 a3bb 2af2 ee3b 7fea 093c a5c2 a7bb
00000090: d0b1 f4bb 07da 393c 2e77 9aba a2b7 4d3c
000000a0: 4bdc 8ebc 6392 993b 576b c0bb eb81 353c
000000b0: c784 e2bb dbf6 76bb 4221 5b3c 07fd 773c
000000c0: b3cc 0cbc ccf4 a43c 011b 813b eaf9 68bb
000000d0: c0e1 5f3c 1d16 193b c38f 723b eba3 39bc
000000e0: 1cd7 17bb 73b3 513c 6897 843b f80d 36bc
000000f0: 45eb 70bc f3e1 bf3b f12b 0b3a b244 01bb
00000100: 7a86 763c 554b 1e3a 3d60 f23b ce2a 323c
00000110: c85b 7dbb 4824 e1bb 4375 833c 9bb1 8ebb
00000120: 874a 1ab9 8b45 663c fd74 cfbb 42cb 713c
00000130: ea0e d5b9 d775 27bc 0805 043c e324 4bbc
00000140: e3e4 08bb 8525 8ebb 492d 0a3c 27d4 a63a
00000150: 3d50 303c b68b 88bb 95bc b83b e981 92bc
00000160: 9970 94b8 a267 e2ba 103a 883b b5d1 1f3c
00000170: f370 2f3c 81aa 193c db41 963c 9006 54bc
00000180: dfa4 ef3a 1877 783a 9fda d1bb f752 15bc
00000190: 481b 053c ff0d d8ba 3782 60ba 1b01 b2bc
000001a0: abc7 5abc f5ec fb3a 0359 db3a 6abb 423c
000001b0: 1bb5 ce3b d368 17bc b2e0 8ebb cabb d6ba
000001c0: 1fd0 423c bf90 4f3c 7281 263a c2dd 0b3c
000001d0: da7f 34bc 1224 ecbb c3d5 4aba ae21 c3ba
000001e0: 55c5 6dbb fc74 1dbb efe5 a33b b685 9fbc
000001f0: 6513 5b3b 79e1 27bc 4840 debb fd44 adbb
00000200: 1312 993a 6087 21bb 353f 81bc 6a76 633c
00000210: 0593 76bb 5712 84bb e084 74ba 1b01 783c
00000220: 1e57 913b 82a4 7eba 1f1d 2a3b 1bdb e4bb
00000230: 40f3 d5ba 95f2 3abc 639f 05bc f3e1 853b
00000240: 0370 7bbc 3be3 ebba 472a b139 a210 d0bb
00000250: 8f4c 5e3c 992f a1b9 6875 38bc f017 cebb
00000260: 2a94 e0b9 f191 a7ba 7606 92bc c7d8 aa3a
00000270: 9f1f e5bb 60fd 3a38 7008 66bc 4519 c53b
00000280: d675 cabc 868b 8dbb 9fd1 e5b8 d703 6c3a
00000290: a6ba 1ebc 4286 113b b59c cebb e097 d5bc
000002a0: 5394 c5bb cf81 76bc 7dc5 5aba 285b 7dbc
000002b0: 0794 02bc 2dc8 08bc 72d3 6b3c 23dc f83b
000002c0: db36 27bc 7cc2 a73b e762 66ba 2f45 1c3b
000002d0: e3b1 0dbc bed8 b03b 5780 1cbc d53b e53b
000002e0: 2990 9bbc 4b53 11bb 3a54 2fbc d267 d4bb
000002f0: 71b3 393a 33bc 1a3c 4239 46bc 30d1 81bc
00000300: 2bca 1bbc 88f2 133b 7eaf c03a a539 f439
00000310: b257 643a 8c4a 203c 5e4c 31bb ae3d 00bc
00000320: 4c70 8f3b 01ac 0fbc d25b f53b caa6 4bbc
00000330: 921d ab3b 954c d5ba 6180 05bb b05e 7a3b
00000340: e447 c33b 14df 8a3c 5349 89bb 2b3a c33a
00000350: b39e 813c d983 13bc e72e 493c ed0e dfbb
00000360: b8b3 9abb bd07 c03b eade 133b d300 5b3c
00000370: 98de 283a 7f5a 443b a3d7 533c d79e 1eb6
00000380: 7030 d439 ef9b 323b 58d7 d63b 50e5 d83b
00000390: ff3d 13bb 6e0f 813c 9f67 43bc f6e9 a1bc
000003a0: 4a3d 05bb 78e9 913b 1e3e 88bc da39 7dbc
000003b0: 224a 4b3c 7d99 e63b 7fd7 fcbb 500f 6cb8
000003c0: 833d a13b a342 55bb 0181 9a3a f5fb 243c
000003d0: b744 eabb 7816 aa3c b231 7abb ce65 a8bb
000003e0: a3e1 26ba 46f6 c4b9 eb05 37bc f65e 99bc
000003f0: f9c4 093a fe57 45bb 59ec 3abb ae6b 97bc
-0.012515825 0.01564883 -0.010550857 0.008281122 -0.0070828013 0.013412003 0.0027287514 -0.020256137
0.0035533071 0.010333874 -0.0018681603 0.007219477 0.0005688443 0.0039612213 0.00693714 0.002090845
0.01042319 0.0069972426 0.006290766 0.0050983895 0.0018674795 -0.001019881 -0.0012059784 -0.0055524185
-0.0022134145 -0.0010742884 0.0016383618 0.0015602012 0.000632704 -0.0053566284 0.0011812878 0.0143981455
-0.0050029787 0.007292052 0.008417725 -0.005119639 -0.007467486 0.011343486 -0.0011784786 0.0125559885
-0.017439028 0.00468664 -0.005872171 0.011078338 -0.006912801 -0.0037683758 0.0133746285 0.01513601
-0.008593726 0.02013626 0.0039399867 -0.003554935 0.013664663 0.0023359128 0.0037011958 -0.011330585
-0.0023168987 0.012799132 0.0040463693 -0.011111729 -0.01470453 0.0058557927 0.0005308977 -0.0019724783
0.01504671 0.0006038447 0.0073967264 0.010874463 -0.0038659442 -0.00687078 0.016047126 -0.0043546683
-0.00014714348 0.014054666 -0.0063310848 0.014757933 -0.00040637638 -0.010220966 0.00805784 -0.012398931
-0.002088838 -0.004337969 0.008433648 0.0012728021 0.010761318 -0.0041670455 0.005637715 -0.017884212
-7.078163e-05 -0.0017273317 0.004157312 0.009754588 0.010708082 0.00937903 0.01834195 -0.012941018
0.0018283388 0.00094781956 -0.0064042355 -0.009114019 0.00812418 -0.0016483663 -0.00085643254 -0.021729043
-0.013353269 0.0019220399 0.0016734902 0.011885503 0.0063082105 -0.009241301 -0.004360282 -0.001638287
0.01189044 0.0126687875 0.00063516863 0.008536758 -0.01101681 -0.0072064484 -0.00077375415 -0.0014887357
-0.003628095 -0.0024026027 0.0050017755 -0.019472938 0.0033428308 -0.010246628 -0.0067825653 -0.005287765
0.001167836 -0.002464734 -0.01577721 0.013883213 -0.0037624252 -0.0040305066 -0.0009327661 0.015136982
0.004435434 -0.00097138446 0.00259573 -0.006984127 -0.0016323105 -0.011410375 -0.008155677 0.004085773
-0.01534653 -0.0017996797 0.0003379157 -0.006349639 0.013568058 -0.00030743776 -0.011258461 -0.0062894747
-0.00042835 -0.0012784583 -0.017825346 0.0013034575 -0.006992295 4.458183e-05 -0.014040098 0.0060149753
-0.024714392 -0.004319611 -0.00010958616 0.0009003258 -0.009688055 0.0022205268 -0.006305302 -0.026073396
-0.0060296445 -0.015045597 -0.0008345468 -0.015463628 -0.007969863 -0.008348507 0.014393674 0.0075946017
-0.01020595 0.00511962 -0.00087885413 0.0023844948 -0.0086483685 0.0053969314 -0.009552083 0.006995658
-0.01898964 -0.002217489 -0.0107012335 -0.006482103 0.0007083929 0.009444284 -0.012098612 -0.015846819
-0.00950865 0.002257498 0.0014700738 0.00046582255 0.00087105774 0.009783398 -0.0027053575 -0.007827206
0.0043774005 -0.008769036 0.0074877525 -0.012429902 0.005222031 -0.0016273434 -0.002037071 0.003820341
0.0059594978 0.016952075 -0.004189649 0.0014894655 0.015822744 -0.009003603 0.012279249 -0.006807199
-0.004721131 0.0058602975 0.0022563287 0.013366896 0.00064418605 0.0029961166 0.01292983 -2.3636292e-06
0.0004047188 0.0027253588 0.0065564327 0.006619133 -0.0022467372 0.015754428 -0.011926561 -0.019764882
-0.002033072 0.0044528805 -0.016631182 -0.015455687 0.012407811 0.00703734 -0.007716119 -5.6281046e-05
0.004920663 -0.003254094 0.0011787714 0.010069837 -0.0071493047 0.020762667 -0.0038176593 -0.005139089
-0.000636602 -0.0003756752 -0.011170845 -0.018722039 0.00052554865 -0.0030112262 -0.0028522222 -0.018483963

action_model._discrete_distribution.branches.1.bias f4 [29]
00000000: 0000 0000 0000 0000 0000 0000 0000 0000
00000010: 0000 0000 0000 0000 0000 0000 0000 0000
00000020: 0000 0000 0000 0000 0000 0000 0000 0000
00000030: 0000 0000 0000 0000 0000 0000 0000 0000
00000040: 0000 0000 0000 0000 0000 0000 0000 0000
00000050: 0000 0000 0000 0000 0000 0000 0000 0000
00000060: 0000 0000 0000 0000 0000 0000 0000 0000
00000070: 0000 0000
0.0 0.0 0.0 0.0 0.0 0.0 0.0 0.0
0.0 0.0 0.0 0.0 0.0 0.0 0.0 0.0
0.0 0.0 0.0 0.0 0.0 0.0 0.0 0.0
0.0 0.0 0.0 0.0 0.0

action_model._discrete_distribution.branches.1.weight f4 [29, 128]
00000000: fc76 83ba 0a7f 98bb cbb1 4e39 c06a e83b
00000010: 1a6f 86ba 9796 033c 01cc 17bb 584c 4e3c
00000020: 9be3 113c f7cb 033c 9be1 323b c6de 0e3c
00000030: b8a7 e5bb d0f7 36bc e3eb 2f3c 1b5c 1d3c
00000040: ee30 43bb 9aab a03b 306f a6bb 4fbb 39bc
00000050: 1184 c53b 7b88 8f3a ab41 8bba 8314 10bc
00000060: fe95 84ba 9f94 6ebc 918e 91bb 8bef 5f3c
00000070: caab 4a3b f510 ca3c abcb febb 0676 c43b
00000080: a74e 923c f2b7 743b a7cf 27bc 8b8b 08bc
00000090: 182b b63b bb41 09bc 67e1 4cbc 3b03 833b
000000a0: 3d2e e43b 8c92 363c 976c 04bc a802 cd3a
000000b0: 10cb 5cbc 7597 febb 4a37 89bb 03ce 3bbb
000000c0: e237 c23b 5dde 07bc a3c9 b23b bfcc 473b
000000d0: 266a aebb 2567 0d3b ff0c 603a f257 a6bb
000000e0: b08f 9f39 b74a bcb8 3d69 183a 4118 9fbb
000000f0: 6b29 44bc b4a5 3dbb 9c96 103b bb40 76bc
00000100: 2f73 2a3b 5370 a73b fc8e 0a3b 72a3 f0bb
00000110: 5bdf ffba fb5b 1fbc c20d e43b 158f 5ebc
00000120: fa89 61ba f65d 353c e69e 29ba 2391 e9bb
00000130: ce2b 45ba f5de a33b ecd5 b93a 6b68 023c
00000140: 53e7 a83c 15fd 3abc 83fb 723b 0fbe eabb
00000150: 13c7 433c 6f3c 0c3c cd1c 4cbc d004 9a3c
00000160: f827 2fbb 835c 28bb bb68 f63b 2a5d b4bb
00000170: 964a 933b 4fd4 23bc c81a 2e3c cf96 22ba
00000180: 909d 643b 0c44 b43a 4a7d 8ebc 08b0 f53a
00000190: b781 bcbb d7f2 51bc 7953 063c 6914 34bc
000001a0: 2f85 46bc 6398 323b cff1 c2b9 abc4 d2bb
000001b0: 8fc0 fbba 53c6 2c3b b3f9 6a3c 3ea3 3d3c
000001c0: 6021 b6b9 c792 d4bb 7f53 37bc 982c 3235
000001d0: 327c 4bbc 952f d03b 10c4 e43b ccf0 1a3c
000001e0: 1358 d537 47aa b039 32cf 673c a6be 0f3c
000001f0: f71e dc3a d3fd 63bb 1238 66bc 89ce 333c
00000200: 63ca 7fbc 105b 6aba 250e 683c b52b 643c
00000210: 9f51 be3a 1769 5a3a ec79 c1ba d7b7 893b
00000220: c10e 3cbc 43ec a4bb 0bbc 4ebc a278 9cbc
00000230: 136f 17bc bad3 53bc 3700 c2bb 5348 503c
00000240: c1c5 99bb ee56 17bc 748c 21bc 3b9d eb39
00000250: 4089 db3b 3c4e 963b fba2 46bb 2fb2 2abb
00000260: 334e 70bc c406 103c 1887 cc3b 702e b8bb
00000270: 38af c2bb cd1a 25bc 7879 2fbc 328d f338
00000280: a730 44ba 15f3 d7bb 6a5b efbb 0c58 9b3b
00000290: 4b30 743b f47e 803c 37dd a83b 7d0a 023c
000002a0: c46e 483c ef8d 0cbb a614 9a3c 45ba a03b
000002b0: 92d5 28ba e01f 363c db4b ae3b a39e 12bc
000002c0: c85a 21bb c961 ba3a cd04 753c 8d32 7cbc
000002d0: be28 87bb f72d 3abc 82f4 523b a33c 8dbc
000002e0: 0b87 43bb fc83 bcbb 14e6 ac3a 0b11 3c3c
000002f0: ff51 873c d268 39bc 8d42 8bbc 7d36 d7b7
00000300: 7df6 7bbb b270 47ba 5d38 f4bb d1ae 29bc
00000310: dffd 6ebc 75b4 b33a 0c99 96bc 66be c9ba
00000320: 1b09 c13a 51d6 3dbc d83f cfbb 242b 97bb
00000330: 652d ad3b e069 c2bc f80c e93b 17f7 08ba
00000340: 8b5b e3bb 5def debb 570b e9bb 182f b53b
00000350: 9314 ad3b bdb6 d4bb 4552 2f3c 3153 06bc
00000360: 24f9 90ba 25f0 e0ba 0ae9 d23b 0d44 5c3c
00000370: 7d42 9d3c 5505 4f3c 43a2 023c 07a2 d2ba
00000380: f7c4 0b3b a88f 61bb 60a3 4e3b 374c 17bc
00000390: a80e 8ebb 4931 043c 70c2 ae3b 3736 1cbc
000003a0: 2f4b 2bba 2731 a8bb 039e 94ba 8914 11bc
000003b0: a3ff 813b 7620 303c 2a9d 7d3b ebd3 903a
000003c0: 9dd2 24bc 2508 053b b2af 873a 9285 5d39
000003d0: 299b 21b9 2be8 86bb 27b7 aa3b 1f96 f1bb
000003e0: 222f 7c3c e942 16bb 267c a4ba 15d7 e5bb
000003f0: e0b1 cd3a 091b 423b 9bca 543c b852 e33b
-0.0010029967 -0.004653816 0.00019711924 0.0070928037 -0.00102565 0.008031509 -0.0023162367 0.012591444
0.008904363 0.0080442345 0.0027295116 0.0087201055 -0.007008519 -0.011167482 0.010737392 0.009604479
-0.0029783803 0.004903269 -0.0050791726 -0.011336162 0.0060277064 0.0010950709 -0.0010624429 -0.008793953
-0.0010115502 -0.014561801 -0.004442044 0.013667951 0.0030925148 0.024666289 -0.007775744 0.005995515
0.01785977 0.0037341085 -0.010242379 -0.008334051 0.0055593364 -0.008377488 -0.012504912 0.003998188
0.00696352 0.011143338 -0.00808253 0.001564105 -0.013476148 -0.00776952 -0.004187499 -0.0028656728
0.005927072 -0.008292762 0.005456166 0.0030487028 -0.0053227125 0.0021576372 0.00085468584 -0.005076402
0.000304339 -8.978455e-05 0.00058140216 -0.004855186 -0.011972765 -0.0028937878 0.0022062426 -0.015030081
0.0026008596 0.0051098256 0.0021142354 -0.007343703 -0.0019521521 -0.00972652 0.006959648 -0.013583918
-0.0008603629 0.011069765 -0.0006470516 -0.0071278973 -0.0007521481 0.005000944 0.0014178134 0.0079594655
0.020618116 -0.0114128785 0.0037076182 -0.00716377 0.011949318 0.00855933 -0.0124580385 0.018801123
-0.0026726704 -0.0025689907 0.007519809 -0.00550427 0.0044949753 -0.009999349 0.010626502 -0.0006202282
0.0034883954 0.001375319 -0.017393727 0.0018744478 -0.005752768 -0.012814245 0.008198612 -0.010991194
-0.012116714 0.0027251474 -0.00037182725 -0.006432136 -0.0019207167 0.0026363328 0.0143417595 0.0115745645
-0.0003473861 -0.006487224 -0.011189341 6.637506e-07 -0.012419747 0.0063533285 0.0069813803 0.0094568245
2.5432591e-05 0.00033696202 0.01414852 0.0087734815 0.0016793896 -0.0034788742 -0.014051454 0.010974535
-0.015612218 -0.0008939961 0.014163529 0.013926436 0.0014520175 0.00083316996 -0.0014761067 0.0042028236
-0.011478127 -0.0050330474 -0.012618075 -0.019100491 -0.009242791 -0.0129288975 -0.005920436 0.012712556
-0.0046927636 -0.009237034 -0.009860147 0.0004493984 0.006699711 0.004586963 -0.0030309546 -0.0026046147
-0.014667082 0.008790676 0.0062416904 -0.00562077 -0.005941298 -0.010077191 -0.010710113 0.000116134426
-0.00074840564 -0.006590257 -0.0073045986 0.0047407206 0.003726023 0.015685536 0.005153324 0.007937071
0.01223344 -0.0021446904 0.018808674 0.0049050176 -0.0006440516 0.011115998 0.0053191013 -0.008948955
-0.002462076 0.0014219816 0.014954758 -0.015392912 -0.00412473 -0.011363498 0.0032189195 -0.017240828
-0.002983513 -0.0057530385 0.0013191127 0.011478673 0.016518591 -0.011316495 -0.016999507 -2.565537e-05
-0.003844648 -0.00076080405 -0.007453008 -0.010356621 -0.014586895 0.0013710397 -0.018383525 -0.0015391826
0.0014727445 -0.011586742 -0.0063247494 -0.004613297 0.0052849525 -0.023732126 0.0071121417 -0.00052248075
-0.006938403 -0.0068034367 -0.0071119475 0.0055292957 0.0052819937 -0.0064915107 0.010700767 -0.008198545
-0.0011060578 -0.0017161412 0.006436472 0.013443959 0.019196743 0.012635549 0.0079732565 -0.0016070016
0.0021327117 -0.0034417901 0.0031530485 -0.00923448 -0.0043352433 0.008068391 0.0053332373 -0.00953441
-0.00065343356 -0.0051328125 -0.0011338595 -0.008854994 0.003967242 0.010749927 0.0038698413 0.0011049485
-0.01005998 0.0020299044 0.0010352044 0.00021125961 -0.00015411958 -0.004117032 0.0052098217 -0.007372632
0.015392097 -0.0022928065 -0.0012549206 -0.007014165 0.001569327 0.0029618165 0.012987758 0.006937351

action_model._discrete_distribution.branches.10.bias f4 [5]
00000000: 0000 0000 0000 0000 0000 0000 0000 0000
00000010: 0000 0000
0.0 0.0 0.0 0.0 0.0

action_model._discrete_distribution.branches.10.weight f4 [5, 128]
00000000: 24c3 a93b b770 14bc 0a68 c4bb abbf 64bb
00000010: d6a5 1a3c b748 fabb 5aa0 e43a 5b05 3eb9
00000020: bbc8 ed39 435b 56bb 0b44 f43a 4113 98bb
00000030: 7235 263c 93c6 ccbb aad1 5c3a f0d3 a3bc
00000040: 3341 983c f8a6 3a3b 6d9b 4cbb 37af 14bc
00000050: 5d8b e43b 707c 5dbb 86d3 93bb 2461 cb3b
00000060: 8d55 1bbc af66 4abc d51d a9bc 66b6 3a3b
00000070: 5aad 67bb 426b f0b9 45cf 28bb eac2 69ba
00000080: 796a 24bc 4b92 09bc 4ad4 6ebc c07b dc3b
00000090: 2594 e2bb 3077 efbb 03e4 9dbb c3da b8b9
000000a0: c8a8 dcbb c3ea 80b9 0937 0cbb bd64 69bb
000000b0: 3032 90bc 56f6 08bd 337b f2bb ff2c 8b3a
000000c0: 0a45 3dba 627e cebb 35b0 4d3c 5bbb f5bb
000000d0: 6004 5f3c 0db4 22bb 688e 78bc 6d54 833c
000000e0: 2d97 e63b cd89 58bb b76f 89bc 549d 89ba
000000f0: 53d4 de3b 405b 573c 451b fbba 06d5 0c3c
00000100: 60b7 2a3c d5fe 4ebc 7114 9fb9 d61b 8ebb
00000110: c33c ddbb b8a3 0b3c df58 3cbc 98d9 a73b
00000120: 0b5b 05bc 5c0c 913b 2a06 543c ffcb d5bb
00000130: 11f4 1f3c 2d62 1cba 168a 03bc 0b64 873b
00000140: 7a7a 89bc 0fad 45bc afe6 e3bb bb3b 733b
00000150: e7ba 023b 94b2 ab3a 7dbb 863b 627d 643c
00000160: a54e 143a 7296 cb3a 9731 bfba 9767 033c
00000170: 6e06 92bb 20e4 fdbb 2d34 84bb 264b 14bb
00000180: f7b0 663b 19d2 bcba 144e aabc c4df 94ba
00000190: f25f cb3b 3062 e03b 6d48 1f3c bca3 11bc
000001a0: adad 253b 4862 e33b 43fe 873a a79b 103b
000001b0: ebff 31bb a27e a4bb 6f88 573a df68 1f3b
000001c0: 2d74 d53b bf82 bbba 37e0 1d3c 8520 f1ba
000001d0: 6211 81bc 65a1 613c 5572 29bc 6286 96ba
000001e0: 2215 f7ba bd75 833b f0c2 efbb 5a5b dbbb
000001f0: b096 dd3b 8923 a339 3eb5 303c b930 adbb
00000200: 07e2 a13b 73a0 90bc 4614 c8bb aa9c 1fbc
00000210: 0833 4d3c 004a fab9 7a7e 7cbb 5f14 f13b
00000220: 3a80 2fbc c708 1a3c 0f56 86bb 9ae6 7b3a
00000230: 10f5 0abb 3ba0 28bb 67c5 853c 0eab 40bb
00000240: d8fd 58b9 aab6 36b8 fbc8 5c3b ff88 adbb
00000250: 5488 8d39 cbbb 093c 862d ab3b e810 863b
00000260: 9843 533a c2c2 5bba 6806 2d3c 2bd0 2d3c
00000270: 0000 e839 574c 01bb 4db5 553c 9ad1 ba3b
00000280: 04d3 273b e3ea c1bc a54b 24bc 8559 e7ba
00000290: b058 603c 43de f73a 1f79 a2b9 cb29 6cbb
000002a0: b98e 973b a754 f5ba 6f3f 9a3c 9054 903b
000002b0: a3ac f13a b430 a33b 6cb5 44bc 82c9 d2bc
000002c0: b2c9 aa3c f288 7c3c cc50 12bc cb49 7dbb
000002d0: 4a56 b6bb cfa3 c93b ea94 523b 6b7e 2bbb
000002e0: fdb8 e03b e1e4 90bb ca3e 69bb af78 14bc
000002f0: 4272 fb37 bf34 5cbc 87d1 54bc 5de1 253c
00000300: 27fb 8dbc d30d 093b 5e13 a93b 12e2 8bbb
00000310: 923d 553c 4d03 d23b 1ba5 3cbc 0de0 f9bb
00000320: 2700 82bc e05e 70bc 9354 873b 3ae9 6e3b
00000330: 4ae6 db3b bb57 a7ba 3a7a 7f39 9f08 033b
00000340: 8b1a f23a c83b 34bc c399 c7bb 3f6b 243b
00000350: 38c3 ecbb 07be 7b3b 68c4 a0bc cbf8 873c
00000360: c0c9 e9bc 9dc5 5a3c 2f18 90bb 8f39 5fbb
00000370: d537 94ba 3b7e 503b 575c b83b a230 083c
00000380: 7ff4 e4bb a4fb 3fbb 6f13 f3bb 02e2 9fbb
00000390: 278b a33c 9a43 d73b aff3 81bb db16 48bc
000003a0: e041 c13b 80ef 533a c007 093c e898 f8bb
000003b0: fe2f bfb8 4dc0 00bc 3929 0c3c 62bc 15ba
000003c0: 5659 943b 7964 223c a786 a7bc 81a8 9eba
000003d0: 9d1a c53b 472f 70ba 70a1 903b da19 3d3a
000003e0: 1d6d b2bc e701 e73a 0653 b03b df54 0abc
000003f0: 5d25 d4ba fdf4 e4bb b332 6c3c 6804 3abc
0.0051807333 -0.009060076 -0.0059938477 -0.0034904282 0.009438952 -0.007638063 0.0017442808 -0.00018121807
0.00045353718 -0.0032708205 0.0018636001 -0.004640967 0.010144578 -0.006249258 0.00084235764 -0.01999852
0.018585777 0.0028480869 -0.003122057 -0.009074978 0.006974621 -0.0033796094 -0.0045112995 0.0062066484
-0.009480846 -0.012353583 -0.020644108 0.0028490066 -0.0035351128 -0.0004585628 -0.0025758308 -0.0008917289
-0.010035151 -0.008396695 -0.014576981 0.0067286193 -0.006914633 -0.0073079094 -0.004818441 -0.00035258205
-0.0067339875 -0.00024588974 -0.0021395108 -0.0035613023 -0.017602056 -0.03343805 -0.0073999404 0.0010618268
-0.00072200655 -0.006301687 0.012554218 -0.007499141 0.013611883 -0.0024826557 -0.015170671 0.016031468
0.0070370645 -0.003304112 -0.016776903 -0.0010499158 0.0068002134 0.013144314 -0.0019157907 0.008595711
0.010419697 -0.012633999 -0.00030342073 -0.0043368144 -0.006751628 0.00852292 -0.011495798 0.0051223747
-0.008139382 0.004426522 0.012940923 -0.0065245624 0.00976278 -0.0005965557 -0.008028528 0.004131799
-0.016782034 -0.012065186 -0.00695499 0.003711446 0.0019947828 0.0013099485 0.004111706 0.013945909
0.0005657471 0.0015532507 -0.0014586922 0.008020303 -0.004456333 -0.007748142 -0.00403454 -0.00226278
0.0035200694 -0.0014405876 -0.020789184 -0.0011358191 0.006206506 0.0068476424 0.0097218575 -0.008889135
0.002528052 0.0069392063 0.0010375459 0.0022065432 -0.0027160596 -0.0050199786 0.00082219293 0.0024323983
0.0065140934 -0.0014305933 0.0096359765 -0.0018396532 -0.01575536 0.01377139 -0.0103422 -0.0011484141
-0.0018850903 0.004011838 -0.0073169395 -0.0066942396 0.006762348 0.00031116258 0.010785399 -0.005285349
0.0049402746 -0.017654633 -0.0061059324 -0.0097419415 0.012524374 -0.0004773885 -0.0038527534 0.0073571648
-0.010711724 0.009401507 -0.0040996145 0.00096092524 -0.0021203198 -0.002573027 0.01632948 -0.0029398832
-0.0002069393 -4.35623e-05 0.003368913 -0.005295872 0.00026995188 0.00840659 0.0052239327 0.004091371
0.00080590835 -0.0008383208 0.010560609 0.010608713 0.00044250488 -0.001972934 0.013043714 0.005701256
0.0025607953 -0.023671573 -0.010027801 -0.001765058 0.01369302 0.0018910844 -0.0003098929 -0.0036035653
0.004625168 -0.0018717245 0.018829076 0.004404612 0.001843829 0.004980171 -0.012006145 -0.025730852
0.020848129 0.01541351 -0.008930396 -0.003864872 -0.0055644857 0.0061535607 0.0032132217 -0.002616788
0.00685799 -0.0044218157 -0.0035590404 -0.009061976 2.9974737e-05 -0.01344031 -0.012989408 0.010124532
-0.017331673 0.002091278 0.0051597795 -0.004268893 0.013015168 0.006409085 -0.011513974 -0.007625586
-0.015869213 -0.014671057 0.004129955 0.0036454932 0.006710802 -0.0012767235 0.00024364228 0.0019994152
0.0018471045 -0.011000581 -0.006091328 0.0025088338 -0.0072254203 0.0038412826 -0.019624904 0.016598126
-0.028538585 0.013352779 -0.004397414 -0.0034061407 -0.0011308143 0.003181352 0.005626242 0.008312376
-0.006987154 -0.0029294277 -0.007418088 -0.004879237 0.019963814 0.006569338 -0.003965817 -0.01221248
0.0058977455 0.00080846995 0.008363664 -0.007586587 -9.116529e-05 -0.007858348 0.00855475 -0.000571197
0.0045272512 0.00991165 -0.02044995 -0.0012104661 0.0060151354 -0.00091623183 0.004413776 0.000721363
-0.021780545 0.0017624468 0.005380991 -0.008443086 -0.0016185452 -0.0069872127 0.0144163845 -0.01135359

action_model._discrete_distribution.branches.11.bias f4 [5]
00000000: 0000 0000 0000 0000 0000 0000 0000 0000
00000010: 0000 0000
0.0 0.0 0.0 0.0 0.0

action_model._discrete_distribution.branches.11.weight f4 [5, 128]
00000000: 1cc5 3fbb f050 c9ba af9b 7d3b 8bc3 ebbb
00000010: 330a a3bc 6a11 6bba dfc3 1db9 1b34 a33b
00000020: aaec 643a 13cf 363c 1913 3d3c ba8d d4bb
00000030: 9b1a fabb a345 6a3c b0c4 82b9 2903 a5bb
00000040: 1a85 5cbc 6ef6 143b 67d5 d03b eba5 48bb
00000050: 35ec 5abb eddf 6abc c910 0c3c ed8e 6bbc
00000060: b76e e5bb 0d23 8ebc 2ffa d03b b2ff b13b
00000070: 5a12 f7bb e3d3 e3bb 6158 413b fa66 ee3b
00000080: 62e0 bcbb 055e 5b3c 9303 3abc f216 a6bb
00000090: 30ce 633c 2549 793b beaf 3bbb 79d4 caba
000000a0: 7359 0abc 8d78 7a3c a051 b7bc 92ab 3d3b
000000b0: 526b a938 92bd 02bc 772e a03a 4bb4 303a
000000c0: 1515 c03a 4bc4 1a3c 0399 943c 02a3 0b3b
000000d0: df27 8e3b 45f9 dcb7 6363 f63b faf7 fcbb
000000e0: 3abb e5bb 3147 32bc cf4f 00bc 825e fb3b
000000f0: 7cc7 99ba c735 cf3b dde8 1539 6a98 88bb
00000100: d35b 7b3b a74f debb b226 ad3a a521 f139
00000110: 1ba2 61bc 302f 1c3c 0848 063a 87a1 b93b
00000120: 4765 38bc 9eb6 8b3b 2c1b 2fbb 6a50 c2bb
00000130: 5db9 5dbb a59f f0ba d3ee 0e3c 50f1 e43a
00000140: 5bb6 0e3c 1e55 32bc a465 053c 88d3 2a3b
00000150: 0ff8 c7bb c256 d03b a225 39bb 29e1 803c
00000160: 4a66 28bc 2f0e 45bb 6f58 4b3c 787c 3dba
00000170: 284e 0d3c e027 b23b d982 b7bb 327a 90bb
00000180: 376d 493b 45b9 ac3b b039 9fbc 0005 1f3c
00000190: bf1d c3bb 3a71 ca39 9b81 23bc 336d 5c3b
000001a0: 3fa1 86bc bf10 423c 2de4 aebb b1dd ab3b
000001b0: 5f7e 713b 38b3 48bc a20e ed3b 1a49 a13a
000001c0: f98e 493c 279e 33ba 27e4 a0bb 09a5 183c
000001d0: f5a6 3a3c 03e6 0d3a 6c7d b73b b872 403b
000001e0: 84ac 8b3a ee9c c23c 6a7b 933c c3f1 22bc
000001f0: 4c6b 1bbb a739 153b 8af9 f83b 409e 723c
00000200: 30f5 d4bb 5042 113b 6f1d 13bc b323 183c
00000210: af71 613c 574c 73bb 5a2b 76bb 3b57 2abc
00000220: 9fc4 903a ed12 e33a 5334 23bc d28c cd3b
00000230: f388 0e3c 0619 2bb9 ab03 323c 0017 5abc
00000240: 0dbd 5fba 6f99 86b8 70e1 2c3a 7d5d edbb
00000250: ef9a 493c 6ac8 ce3a e5d8 0b3b 571c 62bc
00000260: 37e6 653c a7a2 3cbb 0271 da3b e58e 693b
00000270: 5875 85bc 354e 99bb af29 953b 7bf2 823b
00000280: b47c 33bc 3ebe 27bc e2ed eeba 5017 8ebc
00000290: 135e 4ebb a743 503b 2014 ac3b 33d3 a63b
000002a0: 95df 5eb9 af2b 053c 2ae8 e0bb 1d1d 113c
000002b0: 3097 02bc bfbd 26ba 60de 5ebc c232 3c3c
000002c0: b51a ecba d71e 223c b71b 85bb 0707 b3bb
000002d0: d31e d6ba ac04 433a 7850 8b3b b4c5 30bc
000002e0: 7320 ab3c 9976 063c 7b7a 853b 4adb fbbb
000002f0: 9b61 d23b c66f 483c dbdb b8ba ca11 55bc
00000300: 9fec 92bb 2ea9 a5bb 09e7 8e3b 3bca 07bc
00000310: d382 55bb d5c9 e33b 7ff0 403b 27dc 80bc
00000320: 080c d239 4664 80bb 3236 eebb 5d07 e23b
00000330: a3c9 033b bbc4 55bb b7df 1cbc 4b87 153b
00000340: c1c4 05bb 9699 06bc eec6 afbb 8c09 8fbb
00000350: cf62 a93b 88e1 b0bc 14c6 39bc 3e64 1f3c
00000360: 3f96 e5bb 47dd 4c3c 2e37 84bc 5850 3dbc
00000370: 0391 6eb9 9a4b c4bb 4dcf 59bc 48c5 5d3b
00000380: 2fcc f73b 6884 d2bb 9fe4 1dbc 4e63 0b3c
00000390: 9ff9 d03a 55ce 81bc 279e 8c3b 9ee8 c03b
000003a0: af6f 583c 7bae 14bb 401d 71bc 284a f23b
000003b0: 3996 0cbc 8405 c8bb 68a6 5abb 7d89 dcba
000003c0: e256 943b bf88 a73c b7a7 193b a47e 8e3b
000003d0: c4be 9e3c 6b25 99bc 855a 723c 1550 483c
000003e0: 6f99 663c 7f6d 2cbc c3f8 b6bb a339 4639
000003f0: 306a be3a 0b1d 9ebb f206 a53b 53fa 823c
-0.0029261773 -0.0015359204 0.003869753 -0.0071949414 -0.019902324 -0.00089671335 -0.00015045654 0.0049805767
0.00087327755 0.011157769 0.011540198 -0.0064866217 -0.007632566 0.014298829 -0.00024942076 -0.005035777
-0.013459468 0.0022729891 0.006373096 -0.0030616473 -0.003340495 -0.014335615 0.008548924 -0.014377338
-0.0070017236 -0.017350698 0.0063774805 0.0054320926 -0.0075400295 -0.006952749 0.002950214 0.0072754594
-0.005764053 0.013389115 -0.011353391 -0.0050686533 0.013904139 0.0038037982 -0.0028638686 -0.0015474699
-0.008444178 0.015287531 -0.022377789 0.0028941375 8.078538e-05 -0.007979767 0.0012220879 0.0006740733
0.001465472 0.009446214 0.018139368 0.0021306877 0.004338249 -2.6342119e-05 0.007519172 -0.007719991
-0.0070108445 -0.010881231 -0.007831528 0.0076711783 -0.0011732425 0.0063235494 0.00014296496 -0.00416856
0.0038354292 -0.0067843976 0.0013210385 0.0004599217 -0.013771559 0.009532735 0.0005122428 0.0056650075
-0.011254615 0.004263713 -0.0026719077 -0.0059299963 -0.003383241 -0.0018358125 0.008723932 0.0017466936
0.008710469 -0.010884551 0.008141909 0.0026066024 -0.006102569 0.0063579986 -0.002825119 0.015732365
-0.010278294 -0.0030068269 0.012411221 -0.0007228325 0.008624591 0.0054368824 -0.005600315 -0.004409098
0.0030735263 0.0052711093 -0.019436687 0.009705782 -0.0059544737 0.00038612803 -0.009979631 0.0033634424
-0.01643431 0.011844813 -0.0053372593 0.0052449335 0.0036849005 -0.01224976 0.0072344104 0.0012305111
0.012302154 -0.00068518746 -0.0049100104 0.009316691 0.011392345 0.00054129976 0.0055996682 0.0029365253
0.0010656272 0.02375647 0.018003184 -0.009945336 -0.0023715077 0.002276996 0.0075981067 0.014808238
-0.006498955 0.002216477 -0.0089791855 0.009285855 0.013760014 -0.003712436 -0.003756246 -0.010396774
0.0011044926 0.0017324366 -0.009961206 0.0062728906 0.008699643 -0.00016317153 0.010865132 -0.013311148
-0.00085349457 -6.418197e-05 0.0006594872 -0.0072438107 0.012305005 0.0015776281 0.0021338996 -0.013800702
0.014031938 -0.0028783472 0.0066663036 0.003563815 -0.016291305 -0.0046785125 0.004552088 0.003996191
-0.0109550245 -0.010238228 -0.0018228854 -0.0173451 -0.0031489178 0.0031778605 0.0052514225 0.005091095
-0.0002125486 0.008128091 -0.0068636136 0.008857039 -0.007970616 -0.0006360672 -0.013602823 0.011486711
-0.001801333 0.009895048 -0.0040621418 -0.005463484 -0.0016336091 0.0007439356 0.004251536 -0.010789324
0.020889496 0.008206987 0.0040734387 -0.0076860534 0.006420327 0.01223368 -0.0014103608 -0.0130047295
-0.004483774 -0.005055568 0.0043610376 -0.008287962 -0.0032579198 0.0069515505 0.0029440222 -0.015729977
0.00040063285 -0.0039182035 -0.007269644 0.0068978504 0.0020109199 -0.0032618481 -0.009574822 0.0022816237
-0.0020411464 -0.008215329 -0.0053642904 -0.0043651517 0.0051692496 -0.021591917 -0.011338729 0.009728489
-0.007006436 0.0125039285 -0.016139593 -0.0115548 -0.0002275147 -0.0059904577 -0.013294053 0.0033839513
0.0075621824 -0.0064244755 -0.009637027 0.008507563 0.0015943534 -0.015845457 0.004291314 0.005887105
0.013210221 -0.0022687006 -0.014716446 0.007394094 -0.008580738 -0.006104173 -0.0033363346 -0.0016825643
0.004526959 0.020450948 0.0023445913 0.004348593 0.019378074 -0.0186946 0.014792089 0.012226124
0.014074667 -0.010524153 -0.005583854 0.00018904223 0.0014527496 -0.0048252395 0.0050362283 0.015988505

action_model._discrete_distribution.branches.12.bias f4 [5]
00000000: 0000 0000 0000 0000 0000 0000 0000 0000
00000010: 0000 0000
0.0 0.0 0.0 0.0 0.0

action_model._discrete_distribution.branches.12.weight f4 [5, 128]
00000000: 95b8 d338 8dcc c13b 6484 90bb 2597 7dbb
00000010: fad8 203b 507f 0abc 7373 4dbb 58e7 82bc
00000020: 45f2 653c 8ea5 bd3a b386 e13a 3fd4 d1bb
00000030: 62f1 dcbb 482b 4f3b 7de9 61bb 4888 913b
00000040: 4d99 6cbc 3073 563c d272 e83b 4abc 71bb
00000050: 6f9d 373b ec33 1dbc b828 b63b baf8 2bbc
00000060: dd22 533c 9dc1 acbb 6473 bebb f3fe 413b
00000070: f07f a3bb d3a6 f0ba df6f d23b 24ca 893a
00000080: b3a1 03bb 6f6b 0dbc 9253 983b 5918 b5ba
00000090: 1fee 113c 8d20 673c 6e50 21ba b940 25bc
000000a0: 6a5a d63c 973a 1b3c 560b 25bb ab23 9bba
000000b0: bc7e 453c a311 12bb df7b 363c a46e c83b
000000c0: 19da c0ba 4e3d 803b c746 073c e818 fbbb
000000d0: 04b7 893c 5702 0c3c 4e73 bdba 334d 933b
000000e0: 17d5 c9bb 68a5 db3a cfdf 353c eb42 89bb
000000f0: a0b9 d1bb 8132 2c3c 8aa9 dcbb 8fde 82bb
00000100: 322f 883c bf44 c6bb 32a5 d43b 7703 88bc
00000110: 4d7c 2ebb d864 1f3b f2d5 0cbc acb6 113c
00000120: 0f6c 083c 3e19 a1bb 6840 303c 65c1 1b3b
00000130: 0e80 9d3b a8f6 493c 5578 ddbb 93ac a13b
00000140: 44a1 373b 4b92 6f3b 7ffd db3b 5dba 35bc
00000150: 6f0d 8a3b ed2c 85bc 4b4e 283a 448b a9bc
00000160: 69d9 823c 54bc 023b 6436 8a3a b989 c5bc
00000170: dbe5 313b 7ea5 14bc 2d39 f13b 48a7 673c
00000180: 0f82 ca3b 917d 823b 98fb a73b 98b8 9cba
00000190: da86 ceba 40c6 4a3c 0de3 ceba b421 c0bb
000001a0: a750 853a b8ef 34bc 3dcd 0e3c f53f f6b9
000001b0: 2460 423c 6926 8f3a 48e8 7f3c 6718 de3b
000001c0: 2971 86bb f117 14bc 4d8e 58bc e5a2 f9bb
000001d0: bc1c 3fbc d7ea 72bb d833 993c a80c 5fba
000001e0: fada b9bb 1f2d 86bc 43af 023a 0ac6 12bb
000001f0: 980c 98bb 7704 81bb 030e 533b 5f98 d53b
00000200: effb 8abc dd27 65bc 58fc 9c3a 289d 333a
00000210: f3bb 823a 0250 07bc e159 2f3a b7c9 21bc
00000220: 4ad9 723a e3d7 3cbc e1a1 af3a 335f fe3b
00000230: 4377 6e3b 53b8 a836 1268 5f3b 3594 fdbb
00000240: f02b dd3a ef11 03bc 6855 dbbb 43cf 773c
00000250: 8d9d 883c 5ad7 c0bb b026 de3b 6175 373b
00000260: 1a3d c8bb 0e40 b8bb 588b 6d3c 3563 46bc
00000270: 6d7e 54bb 5d86 f23b 4121 9fba 5447 153b
00000280: 7ea2 cb3a 1804 f03b 8df9 d3bb 5309 76bc
00000290: 091e 1b3c 42fd fd3b 2082 95ba 7d05 533b
000002a0: bf5d 81bc d86e 57bb fe47 08ba 5a02 76bc
000002b0: 3d8b 643a 5f5b 52bc 4806 4ebc 7d19 84bb
000002c0: 4b18 8dbc 4ddd 4f3b 0531 0c3c 1465 1c3c
000002d0: d650 863c e100 c2bb 7e64 3e3c c5fb 573c
000002e0: 2214 7bbb 673d 03bc 7699 433c 068f 3d3b
000002f0: fb37 fbbb cfdd 573c 6673 c1bb 0253 12bc
00000300: fb6d 0c3c 7332 093a af5e c53b b51c 593a
00000310: 4f9a c8b6 dfa0 abbc 59b6 433c b52e 553b
00000320: 1bba 5dbc f69f 313b 807f 7c3c 4f02 ddbb
00000330: f0e5 503b a2f7 09bc fcb4 05bc 6857 f239
00000340: 6fbc 7fbb 2673 823b 9baf 3d3c 55b0 94bb
00000350: 301c ebbb 390f b23b 57c9 c4bb 53dd 23ba
00000360: f315 3bbc 4eca 263c 51e6 8b3b bd0b fc38
00000370: 41f2 bdbb f04f e93a 4f8c b13a 7318 30bc
00000380: ef4d 01bc ab5c 703b 23ea 0cbc 671d df39
00000390: 670c ad3b 2c0e aa3c 27a3 c8bb ab6b 02bc
000003a0: 3b47 9a3b f93a 81bc 27fc 023c b28c 29bc
000003b0: 4fb4 f63a 25b1 903c 43ff ee3b 3fec 45bb
000003c0: 3390 343b 7bc2 a8b9 ace1 813b ad32 f2b9
000003d0: ad23 85bc 35e6 62bc 3b69 1ebc 1f4e 44bc
000003e0: afea d73b 4bbe e6bb d39f 06bc 15b4 423c
000003f0: f944 33bc 33a0 0e3c af2a 12bc a5ac 02bc
0.00010095645 0.005914277 -0.0044103134 -0.0038694825 0.002454339 -0.008453205 -0.003134933 -0.015979454
0.014034812 0.0014468895 0.0017206281 -0.0064034755 -0.0067426423 0.003161149 -0.0034471445 0.004441295
-0.014440847 0.013088986 0.007093766 -0.003688591 0.0028017422 -0.009594899 0.0055590533 -0.010496313
0.01288673 -0.005272104 -0.0058120955 0.0029601424 -0.0049896166 -0.0018360264 0.0064220275 0.0010512513
-0.0020085394 -0.008631571 0.004648634 -0.001381646 0.00890687 0.014106882 -0.00061536476 -0.010086232
0.02616616 0.009474418 -0.0025183759 -0.0011836191 0.012054142 -0.0022288344 0.011137932 0.006116705
-0.0014713436 0.003913558 0.008256621 -0.007662881 0.016810901 0.00854548 -0.0014453919 0.004495287
-0.0061594355 0.0016757669 0.011100723 -0.0041888854 -0.006400302 0.010510088 -0.006734078 -0.003993816
0.016624067 -0.0060506756 0.0064894194 -0.016603215 -0.0026624382 0.0024321582 -0.00859593 0.00889365
0.008326544 -0.004916339 0.010757543 0.0023766395 0.004806525 0.012326874 -0.0067587295 0.0049339025
0.0028019706 0.0036555703 0.0067135687 -0.011091796 0.004213027 -0.016256774 0.0006420358 -0.02069629
0.01597281 0.0019948678 0.0010544774 -0.024113523 0.0027145061 -0.00907266 0.007361552 0.014139004
0.006180055 0.003982254 0.005126428 -0.0011956869 -0.0015756742 0.012376368 -0.0015784219 -0.0058633927
0.0010171131 -0.0110434815 0.008715925 -0.00046968428 0.011863742 0.0010921481 0.015619345 0.0067778113
-0.004102845 -0.009038911 -0.013217521 -0.0076182955 -0.011664566 -0.0037066245 0.018701479 -0.0008508661
-0.005671856 -0.016378937 0.00049852225 -0.0022395873 -0.004640173 -0.0039373 0.0032204397 0.006518408
-0.016965834 -0.013986555 0.001197706 0.0006851726 0.0009974226 -0.008258821 0.0006689113 -0.009874753
0.0009263946 -0.011526081 0.0013399684 0.0077628135 0.0036387003 5.0282483e-06 0.003408913 -0.007738615
0.0016874056 -0.007999881 -0.006693531 0.015125099 0.016676689 -0.005885047 0.0067795143 0.0027993547
-0.0061107995 -0.0056228703 0.014498554 -0.012108614 -0.0032423988 0.0074012713 -0.0012140648 0.002277811
0.0015536097 0.0073247068 -0.0064689578 -0.0150168715 0.00946761 0.007751138 -0.0011406578 0.0032199316
-0.015791772 -0.0032872465 -0.0005198716 -0.015015209 0.0008718258 -0.012839167 -0.01257474 -0.0040313588
-0.017223498 0.00317176 0.008556609 0.009545583 0.016395967 -0.005920515 0.011620639 0.013182585
-0.003831156 -0.008010245 0.011938443 0.002892436 -0.0076665855 0.013175442 -0.005903649 -0.008930923
0.008571143 0.0005233653 0.00602325 0.0008282171 -5.9784284e-06 -0.020950733 0.011945331 0.003252906
-0.0135331405 0.00271034 0.015411258 -0.00674466 0.0031875335 -0.008420857 -0.008160826 0.0004622296
-0.0039022227 0.003981012 0.011577512 -0.004537622 -0.007174991 0.0054339436 -0.006005447 -0.00062509364
-0.011418807 0.010180069 0.004269399 0.00012018483 -0.005796701 0.0017800312 0.0013545844 -0.010748017
-0.007892116 0.0036676328 -0.008600744 0.0004255578 0.0052810195 0.02075871 -0.006122965 -0.00796024
0.0047081984 -0.01577519 0.007994688 -0.010348486 0.0018822047 0.017662594 0.007293613 -0.0030200628
0.002755177 -0.00032188356 0.0039636698 -0.00046195593 -0.016252363 -0.013848831 -0.009668644 -0.011981516
0.0065892558 -0.0070417277 -0.008216816 0.011883755 -0.010941737 0.008705187 -0.008921309 -0.007975732

action_model._discrete_distribution.branches.13.bias f4 [5]
00000000: 0000 0000 0000 0000 0000 0000 0000 0000
00000010: 0000 0000
0.0 0.0 0.0 0.0 0.0

action_model._discrete_distribution.branches.13.weight f4 [5, 128]
00000000: bd7e 883b f3d9 b73a 20ae e33a 8a1f 3fbc
00000010: 4bca bebb 7d32 b8bb 16f6 a73b f7a1 8b3c
00000020: b09f f0ba caed bfbc 9ac1 373c 9250 07bc
00000030: 38d5 a13b 7462 8fba 2b42 593a ad9a 7cbb
00000040: a2d4 523c d28b 37bc c8de a23a b05e e73a
00000050: b241 4b3c 8fbb 8a3c b935 3e3c 5f9e 163c
00000060: 98dc d93a 33c1 38bb 3eda 8d3c 1c6e bc3a
00000070: c315 4c3c 6743 89bc cb03 42bc 61ea a73b
00000080: 33c2 1c3c 0792 713c fd95 8cba 58a5 dbbb
00000090: 28fe 8b3c 8548 af3b b308 2dbc bbe8 b93a
000000a0: b7c1 76bc cf73 073c 2be2 59bc ae9f 93bb
000000b0: 5bda 123c 8066 453b b047 b3ba 645f 993b
000000c0: 5f68 aa3c a4aa b63b 5f41 d63a 650b 65bb
000000d0: b0fe 82bb 23d7 00bc 075a 1ebc da58 d4bb
000000e0: 0dc8 693a 6db5 793b 1242 09bb 6fc7 4db9
000000f0: 9133 abbb d038 503b bb72 10bc 86c5 bbbb
00000100: 7cc6 0a3c 3f58 ef3b 8385 52bc d320 983b
00000110: 1ba9 9a3c 88f5 6239 1cd8 043c 6d74 13bb
00000120: a969 40bb 679b 8b3b d6d2 413b 639a 9138
00000130: e650 bbbb ec40 3a3b f91f 46ba d999 00bc
00000140: ae9f 36bc 722f 443c 1f9e b43a 0046 1dbc
00000150: b02d d43b 0545 c738 9b5c ac3b 6433 b63b
00000160: f1ed 1f3c 9353 2a3c ff9d 78bb ebad 28bc
00000170: 1209 6e3b 8a5a 49bb 6775 e83b 5366 50bc
00000180: 4c8d 8abc d3fe 123c 29f3 253c c723 9bbc
00000190: bf93 4e3c 7d07 4cbb e0c3 55bb 8c63 11bc
000001a0: 4106 993b ea3e 2e3a 361d 103c c384 d8bb
000001b0: 07b0 4cbb 1875 583c 18c3 f5bb 1394 d3bb
000001c0: 3b89 f43a 20a1 54bb 8d75 52bc baed 75bc
000001d0: bfb7 65bc cbec 813c 1d50 14bb a35f 0cbc
000001e0: 3621 3e3c 0005 acbc 8c74 9ebc 6414 243c
000001f0: 9a27 dabb 6a20 25bc 89cb 313c ad68 f1ba
00000200: b960 b6bb c788 22bc 47da 063c a584 623c
00000210: 7225 d83b b504 8cbc d7c7 3b39 b37d 94bb
00000220: cfe6 25bb 538d a13a 3627 3abc 7825 513c
00000230: cb07 31bc f7a2 92bc b3ef c6bb 016f 293c
00000240: b141 1a3c 11fc cb3b ff0a 673c 98dc f8bb
00000250: 33d6 3e3c 52e8 d33b bd29 ef3b 5f3a cc3a
00000260: bceb 2b3c d362 e7b9 b301 313c 8e60 013c
00000270: 855a ad3b 757c da3b 2beb 1f3c f302 a23b
00000280: 2369 563c fdca 213c 1e6a 28bc 95e9 363a
00000290: c7e0 033a c723 26bb 8e2f 10bb 0502 523c
000002a0: aab1 aebc ed03 5fba 73cc abbb 5db0 df3b
000002b0: b02f 5abc 05a9 e23b 9839 a53b afbd 74ba
000002c0: 57fa 313c abbe acbc f580 48bb ecb0 26bc
000002d0: 7815 e2bb 57b9 bf3c d51b b739 6897 913c
000002e0: cf0e 0cbc e5d2 e8bb 3766 133c dab6 dabb
000002f0: 75a2 783b 77a8 0cbc ee5b 10bc 7b13 efbb
00000300: 4069 6e3b ebeb ccbb b8eb abbb ebd7 36bc
00000310: f761 803a 879b 593b 8b65 a9bc 15bb 5b39
00000320: a7fb 533c 33ff 3dbb 178b a9ba 7e62 49bb
00000330: 4598 1ebc 9376 913b 82eb ab3b e541 76bb
00000340: 6ff1 a53b e708 39bc 1549 7c3b 2bb8 2a3b
00000350: 2b76 183c bb11 1f3a 271d 183c a34d a73b
00000360: 208b 0cbc ef54 273b 9328 b83b 1fbf 02bc
00000370: fe3a 103c a2bd bcbb 644d 113a ce9f 0f3c
00000380: 13fc 74bc c35d fd3b 539b 243c 1858 0b3b
00000390: 396d 383c abf8 123c d384 27bc e267 a7bb
000003a0: d1f9 0abc caa8 3fbc b056 53bb 8a2c 983b
000003b0: b6ba b2bb 5a18 ea3a af97 71bb 1006 4cbc
000003c0: 02b2 d13b 014a 28bc 8b79 133c 4029 d23b
000003d0: 03d2 d93b b712 01ba d44a 32bc 905b 0ebc
000003e0: 0581 eebb 9ad2 28bc 6fce 8f3b 9249 753c
000003f0: d553 fc3b 8ac5 d33b 2cad cc3b c9a5 bf3b
0.004165499 0.0014026746 0.0017370619 -0.011665234 -0.005822455 -0.005621253 0.0051257713 0.017045004
-0.0018358137 -0.023428816 0.011215592 -0.008258956 0.0049387477 -0.0010939375 0.0008287753 -0.0038544342
0.012868078 -0.011202769 0.0012426013 0.001765212 0.0124058 0.016935138 0.011609488 0.009193032
0.0016621528 -0.0028191328 0.01731598 0.0014376077 0.01245636 -0.016755773 -0.011841725 0.0051243757
0.009567785 0.014744288 -0.0010725852 -0.00670306 0.017088965 0.005349221 -0.010561156 0.0014183739
-0.015060834 0.008267357 -0.013298552 -0.0045051193 0.008963193 0.003012091 -0.0013677981 0.004680561
0.020801721 0.005574541 0.0016346386 -0.0034949419 -0.0039976463 -0.007863793 -0.009665019 -0.0064803185
0.00089180545 0.0038102523 -0.0020943922 -0.00019624618 -0.005224653 0.0031772144 -0.008816416 -0.0057303337
0.008470174 0.007304221 -0.0128492145 0.004642585 0.018879464 0.00021644507 0.008108165 -0.0022499815
-0.0029359853 0.0042604688 0.002957513 6.9428956e-05 -0.005716431 0.0028420044 -0.0007557865 -0.00784918
-0.011146469 0.0119742025 0.0013780034 -0.009599209 0.006475173 9.501915e-05 0.005260063 0.0055603255
0.0097613195 0.010395902 -0.003793597 -0.0102953715 0.0036321324 -0.0030724132 0.0070940736 -0.0127197085
-0.016913079 0.008971888 0.010128775 -0.018937958 0.012608468 -0.0031132393 -0.0032617971 -0.0088738315
0.004669935 0.0006646948 0.008796027 -0.0066076233 -0.003123285 0.013211511 -0.0075000636 -0.006456861
0.001865662 -0.003244467 -0.012845409 -0.015010292 -0.014020859 0.015859982 -0.002263076 -0.008567723
0.011604598 -0.020998478 -0.019342683 0.010014627 -0.006657553 -0.010078529 0.010851749 -0.0018418037
-0.0055657295 -0.009920306 0.008230752 0.01382557 0.0065962607 -0.017092088 0.00017908156 -0.004531586
-0.0025314575 0.0012325443 -0.011361888 0.012765281 -0.010805081 -0.017899973 -0.006071055 0.010341407
0.009415076 0.006225117 0.014101743 -0.007594656 0.011647749 0.0064669037 0.0072986768 0.0015581361
0.010493215 -0.00044133383 0.010803628 0.007896556 0.005290332 0.0066676685 0.009760658 0.004944199
0.01308659 0.009875056 -0.010279207 0.00069775555 0.0005030748 -0.0025350915 -0.0022001 0.012817864
-0.021324951 -0.000850736 -0.005242878 0.006826444 -0.013317034 0.0069171214 0.005042266 -0.00093361264
0.010862908 -0.021087011 -0.0030594443 -0.010174017 -0.006899532 0.023403807 0.00034925216 0.017772391
-0.0085484525 -0.0071052187 0.008996538 -0.0066746296 0.0037938629 -0.008585087 -0.00881098 -0.0072960234
0.0036378652 -0.0062537096 -0.0052466057 -0.011159877 0.0009794821 0.0033204274 -0.020678302 0.00020955161
0.012938417 -0.0028991222 -0.0012935129 -0.0030728872 -0.009679859 0.004439184 0.0052465806 -0.0037575897
0.0050641815 -0.011293626 0.0038495709 0.0026049714 0.009305517 0.00060680107 0.009284294 0.0051056906
-0.008578092 0.0025532802 0.005620071 -0.007980137 0.008803127 -0.0057599107 0.0005542843 0.008766128
-0.014952677 0.0077321245 0.010046798 0.0021262225 0.011256509 0.00897042 -0.010224539 -0.0051088193
-0.008482412 -0.011697957 -0.0032247715 0.0046439813 -0.0054543866 0.001786004 -0.0036864092 -0.012452617
0.006399394 -0.01027155 0.009001146 0.006413609 0.00664735 -0.0004923748 -0.010882098 -0.008688822
-0.007278564 -0.010304118 0.0043886225 0.014971154 0.0077004232 0.0064627575 0.0062462296 0.0058486206

action_model._discrete_distribution.branches.14.bias f4 [5]
00000000: 0000 0000 0000 0000 0000 0000 0000 0000
00000010: 0000 0000
0.0 0.0 0.0 0.0 0.0

action_model._discrete_distribution.branches.14.weight f4 [5, 128]
00000000: 4bc9 5a3c ff29 79bb 040e 3cbc 3777 db3b
00000010: 10df b9bc 9a0b 5dbc 48d4 63bc d5f2 94ba
00000020: 3e47 babb bf14 f1bb e051 debb aa4b 183c
00000030: 23af 0b3b 23d8 d8bb 7e9d 3e3b a552 763c
00000040: 4270 d93b fda2 fb3a b96f 07bc a9c6 333b
00000050: 8fe3 0cbc e748 f43c db46 f4bb 1f91 423b
00000060: 5f2c 9abb a3e3 7ebc 4395 06bb cf43 fabb
00000070: 15ec f13b 23bd 5abc 3369 2abb 7f13 433b
00000080: 2e0b 113c 9bee cb3b 2846 68ba 2575 3abb
00000090: ef3d 8fba cce7 37bb 5313 d53b 6f11 9bbb
000000a0: 976e 1bbb 8cb6 473c 8ab5 0c3c 38c6 583c
000000b0: f207 48bc 8fd4 1abc cbc4 2dbc 9048 5dbb
000000c0: ad21 36bb 36ec 053c bb20 1dbc 7a45 c8b9
000000d0: 1b84 1c3c 6bec c5ba 6a65 763c 3185 413a
000000e0: ca7d a13b ad7a d9bb cd1d 623a 9736 a6bb
000000f0: 2ef7 0d3c 0f8d 8ebb c178 cc3c 5f82 643b
00000100: b66b 1b3c e48f 1f3c 38c1 fa39 8b23 08bc
00000110: 912c a0bb 285c 8e3b ff98 333c 14c1 8ebb
00000120: 12ed 0a3c 0237 1e3c d3d8 723b 7bdb fdbb
00000130: 2fbb 6bbb 354e d9bb 55a1 133c 6a57 433c
00000140: dd18 92bb 4581 d1bb 8366 32ba c78d 81bb
00000150: 38be fc3a e644 85ba 9b8c 133c cbd3 9c3c
00000160: 9f53 d23c 6345 9cb9 52cf 4d3c 82b5 243c
00000170: 664f 843b 4b0c ddbb 296b b4bb 4a82 05bc
00000180: bbdb 96bb 4a0d 0b3c ba8e 64bc cc98 963b
00000190: 251c 23bb d0f9 6e39 62ce 15bc f95e 22ba
000001a0: 1c6f 243c bbfa 9f3b ab21 853b ffe8 99ba
000001b0: 5de8 d53b 4b47 d23a addd 01bc a3e4 8238
000001c0: ab70 4b3b 938d 22bc 9d77 29bc e3ef 113b
000001d0: e7a8 633c 9bac 49bb dda8 bdbb 62c7 9abb
000001e0: 2cdc 00bb d554 75bb 8bcd 103c 952f 893c
000001f0: 9c4c 47bc fa7b af3b 830b 3ebb 6eb0 a5ba
00000200: a938 2cba 4018 243b b7cd 823b 05cd debb
00000210: e54c 60bc 6a66 d43b 04bb 96bb 0a3c cb3b
00000220: 00ec 5abb c0f1 0e3b 474e 9a3b 8a47 18bc
00000230: f7da 5f3b cb10 ab3a ea3b 3f3b 7fbc 353c
00000240: 0c60 a0bb a02e b83c 80eb 9c39 2b8b 37bc
00000250: e392 7c3b 9ce7 24bc 20fa e2bb 4b6a a4bb
00000260: c536 703c 839f f33b 9d19 653c cfea 1a3b
00000270: 6b6e d5bb eff1 58bb 4b23 c83b 6855 58ba
00000280: d89b 07bc fb26 9abb 5da7 2b3c 55dd d2ba
00000290: 42a1 f0bb 92e5 a3bc 2499 303c da0a d23b
000002a0: 37d8 b33b 809b 91ba d197 bfbb f7ae bfba
000002b0: 7ec0 26bc 6c3e 983c 7a54 53bb b2ed 5e3c
000002c0: a058 663a c8a5 023c e7de 4e3c 10bf d93b
000002d0: ebf5 33bb 5162 bfbb 2b54 6abb 1c93 16bc
000002e0: c11e 4bbb a003 933b cd1b cc3a 3f45 e73b
000002f0: 0240 91bc 4d2f fdbb fb8f 7abb 2bf0 16bc
00000300: 5a7d 9dbc 8b3a 25bc a27b 083c 4967 033b
00000310: ff02 f8bb c71b 533b 2773 9fb9 a344 033c
00000320: 4f80 843b d7c5 19bc 52c2 04bc eb49 553a
00000330: 432a bf3c 0092 233a c50c db3a 2f54 423c
00000340: 3705 813a e325 e7bb 38be ea3a 2ef8 8bbb
00000350: f7f7 19bc 5870 20bc a02c 803a b21e 61ba
00000360: d63b 94bb c3ae 12bc 893a 973c d71a 17bb
00000370: 18dc 583c 7bb9 b439 5fe3 47bc 1a00 683b
00000380: f3fd 2dbd a53a 4f3b cf65 c43a 3d48 bebb
00000390: 7f49 413c 034b 4fbc 2ab5 2ebc 2b34 313b
000003a0: 8df6 84bc 657b 9b3b 5b5b 35bb f116 16ba
000003b0: 9b16 f1bb b07b ddba ea9b 16ba ff6c 323c
000003c0: 5261 bb38 2d82 ba3b d464 123b 0d67 db3b
000003d0: 476d d2bb cfe3 853b 1735 303c 07ae 03bc
000003e0: 6b14 a9bb 3ff0 cdb9 bb06 d23b 8f21 f73b
000003f0: 6998 41bc 38ce 57b9 13b6 003c c544 b339
0.013353656 -0.0038019416 -0.011477951 0.006697561 -0.022689372 -0.013491536 -0.013905592 -0.0011363873
-0.0056847623 -0.0073572095 -0.0067846626 0.0092953835 0.0021314106 -0.0066175624 0.0029085572 0.015034352
0.0066356966 0.0019198355 -0.008266383 0.0027431643 -0.008599176 0.029819919 -0.0074547357 0.002968855
-0.0047049965 -0.0155572025 -0.0020535744 -0.007637478 0.0073828795 -0.013350758 -0.0026002645 0.002976626
0.008852763 0.0062235123 -0.0008860552 -0.0028451171 -0.0010928492 -0.0028061746 0.0065025478 -0.004732303
-0.002371704 0.012189519 0.008588204 0.013230853 -0.012208926 -0.009450092 -0.010606001 -0.0033765174
-0.0027791068 0.008173993 -0.009590323 -0.00038198737 0.009552981 -0.0015100365 0.015038827 0.0007382213
0.0049283253 -0.0066369385 0.00086256565 -0.0050724256 0.008664889 -0.0043503116 0.024959924 0.0034867746
0.0094861295 0.009738896 0.00047827675 -0.008309255 -0.004888125 0.004344482 0.01096177 -0.004356513
0.0084793735 0.00965667 0.0037055507 -0.0077471114 -0.0035969724 -0.0066316375 0.0090106325 0.011922697
-0.0044585303 -0.006393584 -0.00068054366 -0.0039536688 0.0019282764 -0.0010167628 0.009005691 0.01914396
0.02567464 -0.00029806336 0.012561636 0.01005304 0.0040377853 -0.00674585 -0.0055059385 -0.008148739
-0.0046038306 0.008487055 -0.013950044 0.0045958515 -0.0024888602 0.00022790511 -0.009143444 -0.00061939616
0.010036256 0.0048821843 0.0040628514 -0.0011742412 0.006527944 0.0016042975 -0.007926387 6.24147e-05
0.0031042497 -0.009921449 -0.010343459 0.0022268228 0.01389525 -0.0030773047 -0.0057879523 -0.0047234753
-0.0019662483 -0.0037434597 0.008838068 0.016746322 -0.012164261 0.0053553553 -0.002899856 -0.0012641081
-0.00065697223 0.0025038868 0.0039918083 -0.0067993426 -0.013690208 0.0064819353 -0.0045999307 0.0062022256
-0.0033404827 0.0021811575 0.0047090384 -0.0092944 0.0034157613 0.0013051269 0.0029179999 0.011092304
-0.004894262 0.02248317 0.000299301 -0.011202614 0.00385397 -0.010064986 -0.00692679 -0.005017554
0.014661496 0.0074347868 0.013983157 0.0023638492 -0.006513407 -0.0033103188 0.006107723 -0.00082524726
-0.008276902 -0.004704354 0.010476914 -0.0016087691 -0.007343442 -0.020006929 0.010778699 0.006409985
0.0054884213 -0.0011108965 -0.0058469553 -0.0014624287 -0.01017773 0.018584453 -0.0032246397 0.013606476
0.000878701 0.007974096 0.012626386 0.006645091 -0.002745981 -0.0058405777 -0.0035755734 -0.009190347
-0.0030993673 0.004486516 0.001557225 0.0070578153 -0.017730717 -0.007726586 -0.0038232792 -0.009212534
-0.019224811 -0.0100847585 0.008330258 0.0020050576 -0.0075687165 0.0032212602 -0.00030412638 0.00801197
0.004043616 -0.009385548 -0.00810297 0.000813632 0.023335582 0.0006239712 0.001671218 0.011860891
0.0009843473 -0.007054077 0.0017909473 -0.0042715287 -0.009397498 -0.00979241 0.0009778924 -0.0008587643
-0.0045237346 -0.008952799 0.018460529 -0.002305677 0.013236068 0.0003447047 -0.012200206 0.003540045
-0.042478513 0.0031620648 0.0014983955 -0.0058069513 0.011797308 -0.0126521615 -0.01066331 0.0027039151
-0.016230846 0.0047449344 -0.002767286 -0.00057254644 -0.007357431 -0.0016897824 -0.0005745279 0.0108902445
8.934982e-05 0.0056917877 0.002233793 0.006695634 -0.0064217183 0.004085995 0.010754845 -0.008037097
-0.0051599047 -0.00039279644 0.0064094937 0.0075418423 -0.011816123 -0.0002058082 0.00785591 0.00034192778

action_model._discrete_distribution.branches.15.bias f4 [5]
00000000: 0000 0000 0000 0000 0000 0000 0000 0000
00000010: 0000 0000
0.0 0.0 0.0 0.0 0.0
