results/ppo/BadChessPlayer/BadChessPlayer-1843.onnx (onnx, 304125 bytes, 40 tensors)

action_model._discrete_distribution.branches.0.bias f4 [11]
000000 00 00 00 00 00 00 00 00 00 00 00 00 00 00 00 00
       0.0 0.0 0.0 0.0
000010 00 00 00 00 00 00 00 00 00 00 00 00 00 00 00 00
       0.0 0.0 0.0 0.0
000020 00 00 00 00 00 00 00 00 00 00 00 00
       0.0 0.0 0.0

action_model._discrete_distribution.branches.0.weight f4 [11, 128]
000000 5d 9e d0 bb fb 2e 0c 3c 99 b1 a1 bb e3 4e 86 ba
       -0.0063665346 0.008556123 -0.0049345014 -0.0010246899
000010 f9 73 4c bb e7 b6 81 3b 43 72 79 bc 04 40 25 3c
       -0.0031197055 0.0039585712 -0.015224996 0.010086063
000020 1d 2e e6 b9 a9 c8 be 3c 4d 78 bb bc 13 b6 68 3b
       -0.00043903376 0.023289042 -0.022884512 0.0035508915
000030 e2 5c 2d 3c de d1 3d bc a7 c5 0c bb 95 89 5d bc
       0.010581227 -0.011585681 -0.0021480115 -0.013521572
000040 43 69 f4 3a 33 1b 55 3c e5 42 e6 3a 4c 6a be 3b
       0.0018647093 0.013006973 0.0017567544 0.0058110114
000050 14 6b 25 bc b3 c5 96 3b 8d 4c e0 bb 0b 1e f0 3b
       -0.01009633 0.0046012043 -0.006845063 0.0073278
000060 5a 23 76 3a 54 d9 25 3a 80 e7 ea bb 01 e9 98 bc
       0.0009389423 0.0006326635 -0.00716871 -0.018665792
000070 ee 39 12 3c 42 5c 71 bc fb 0f 57 bb 37 f0 c7 3b
       0.008924944 -0.014731469 -0.0032815922 0.006101634
000080 10 78 a3 b9 0c b8 1a 3a e2 2e 1e 3c f7 31 16 3b
       -0.00031179236 0.0005902059 0.009654732 0.0022917965
000090 28 2e f3 bb db 00 24 3b b0 34 cc b9 d5 2b d2 3b
       -0.0074212737 0.0025024924 -0.00038949167 0.0064139166
0000a0 17 7f 2a bc cf 2c ae 3b 51 fe 80 bc e7 a4 6a 3b
       -0.010406277 0.0053154 -0.015746268 0.0035803856
0000b0 53 f7 21 bc 5a 7e d8 3b 09 70 26 3a 05 92 f0 3c
       -0.009885627 0.006606859 0.0006349092 0.029366503
0000c0 53 27 1c 3b 4a 81 05 ba 11 f7 98 3a dc 62 48 bc
       0.002382715 -0.0005092813 0.0011670311 -0.012230601
0000d0 fd 87 55 bc b3 cb a9 b8 89 24 08 b9 d8 61 77 3c
       -0.01303291 -8.09649e-05 -0.00012983581 0.015099011
0000e0 ba 27 fc 3a 8a e3 ba 3a ad a7 20 3c 2a 4b 80 bc
       0.0019237914 0.0014258486 0.009805602 -0.015660841
0000f0 08 d1 71 bc 85 fe bb bb 4d 66 53 3c ff 2c 87 3c
       -0.01475931 -0.005737128 0.012902808 0.016500948
000100 03 e9 25 3c 7c a4 25 3b b8 37 51 ba 3d e3 f6 3b
       0.010126355 0.0025275042 -0.000798102 0.007534413
000110 63 82 88 3c 53 f7 a5 3b 08 24 d9 ba f3 72 f8 3b
       0.016663736 0.0050648837 -0.0016566524 0.0075820624
000120 cb eb 4f bb 03 b0 dc bb 36 15 95 3b 0f 24 9c 3b
       -0.0031726237 -0.0067348494 0.0045496477 0.0047650407
000130 ef f4 46 3b c2 88 8f bb 1e f5 0c bc dd a4 e6 bb
       0.0030358394 -0.0043803165 -0.008603362 -0.007038696
000140 5b 35 6a b9 ea 8c 6b 3a 2c d3 8e b9 52 76 85 bb
       -0.00022335855 0.00089855364 -0.00027241686 -0.004072943
000150 72 67 db bb 2a 3a d7 bb 60 56 55 bc 81 6f c9 3a
       -0.0066956813 -0.006568213 -0.013021082 0.0015368314
000160 b7 96 10 3c d0 c8 2f bc 37 de 66 3c 94 28 39 bb
       0.008824996 -0.01072903 0.014091066 -0.0028252946
000170 ef e0 6c 39 e7 5c 85 3a 82 2e 59 3b fe 09 20 3b
       0.00022590508 0.0010174782 0.0033139293 0.0024420018
000180 c5 ee d9 ba a7 81 7f 3c ef 4f f0 37 8e 4a 88 3b
       -0.0016626945 0.015594876 2.8647451e-05 0.0041592782
000190 1a 38 c0 b9 11 13 88 bb bb 95 b3 bb 1d 74 6c ba
       -0.00036662893 -0.0041526635 -0.0054804957 -0.0009019988
0001a0 65 f0 4f bc 56 ad 43 37 a8 6a b1 bb 28 bf e6 bb
       -0.012691592 1.1663264e-05 -0.0054143257 -0.0070418306
0001b0 3a 49 5e 3b a5 24 c7 bc b2 f2 b1 3b 6a 26 87 3b
       0.0033918158 -0.024309466 0.005430543 0.0041244524
0001c0 ec a4 23 bb 8d bc d5 3b 7f 5a 16 3c 4b 1c 24 3b
       -0.0024970127 0.006522721 0.009176849 0.0025041278
0001d0 46 2a 34 bc b8 82 50 bc 77 ae 0a bc bd 86 89 bc
       -0.010996407 -0.012726478 -0.008464447 -0.016787881
0001e0 70 e6 6e bc b7 1e 0b 3b 23 8b 88 3a a3 53 66 3b
       -0.014581308 0.0021228024 0.0010417443 0.0035145066
0001f0 9b 8b 92 bb 9b 8b 66 bb 16 6e 27 bb 30 fc a3 bb
       -0.0044722087 -0.0035178426 -0.0025547794 -0.0050044283
000200 5f c5 10 bc 47 28 22 3c e7 f2 21 bc 43 d2 3d bc
       -0.008836119 0.009897298 -0.009884573 -0.011585775
000210 b4 6a ae bb c4 32 ae 3b 15 91 63 3c 28 d9 0d 3b
       -0.0053227786 0.0053161103 0.013889571 0.0021644328
000220 3a cd 89 ba f8 6d ec 3a 8a 65 bd 3b c3 bb c0 bb
       -0.0010513433 0.0018038144 0.0057799267 -0.005881758
000230 da 25 e9 3a bb e6 08 3b 1f 94 a3 3c e3 b7 d5 bb
       0.001778777 0.002088948 0.01996809 -0.006522165
000240 42 26 18 bb 0f 60 06 3c 5c f9 23 bb bb 8e 90 3c
       -0.0023216163 0.008201613 -0.0025020456 0.017646184
000250 b3 83 10 3c 06 e8 47 ba 67 7e 02 3b 92 ef 3e bb
       0.008820462 -0.0007625822 0.0019911767 -0.0029134494
000260 bf b4 2e 3c bf 8a 7e bc ad 43 1f 3a 11 77 3b bc
       0.01066321 -0.015536009 0.0006075453 -0.011441962
000270 e2 17 ab bb eb 91 f8 bb c2 47 fe bb 43 2c 5d bb
       -0.005221353 -0.007585754 -0.007760019 -0.0033748306
000280 5f 6c 66 3a 12 b8 33 bb e3 17 50 bc a4 49 05 bb
       0.0008789952 -0.0027422947 -0.012701008 -0.0020338083
000290 25 68 40 bc a3 fa 6c 3c 53 08 c5 3b 43 94 1c 3b
       -0.01174358 0.014464053 0.006012955 0.0023892082
0002a0 95 66 33 3c b1 bc c5 3b 4a 41 d2 bb 8b 53 57 3c
       0.01094975 0.0060344567 -0.0064164745 0.013142477
0002b0 b1 ec 19 bc 85 6f b9 3b 35 f0 6a 3b e9 55 08 bb
       -0.009394811 0.005659046 0.003584874 -0.002080316
0002c0 4f c0 8d bc 11 3a 82 3c 64 9d ad bb c0 4d 11 3b
       -0.017303614 0.015896829 -0.0052983034 0.0022171587
0002d0 33 c0 8d 3a e9 6d 2a bb fa 9a f7 3a 4b 75 55 bb
       0.0010814726 -0.0026005453 0.0018890791 -0.0032571133
0002e0 08 b2 3b 3c 8e 6d 84 bc 6a 1a ec 3c c5 1f 69 bc
       0.01145602 -0.016165521 0.028821189 -0.014228766
0002f0 b2 1d 40 3b 5b 62 8b bc 74 22 a1 3b f8 7e 63 3a
       0.0029314575 -0.017014673 0.004917437 0.00086782826
000300 e6 e8 c7 bc 32 7b 6c 3b b7 8f 07 3b f0 c4 3e bb
       -0.024403047 0.0036084172 0.0020685026 -0.0029109083
000310 39 5d 08 3a ae 6b a1 bb 2f 97 06 3c 33 ca 1b bc
       0.00052018795 -0.0049261665 0.008214756 -0.009508657
000320 6e 27 1c bc 57 e8 9a 3b 3c 19 44 bc df 9c 06 3c
       -0.009530885 0.004727404 -0.011968907 0.008216112
000330 83 e9 a7 3c fd fb 0e 3a ae e3 20 3c ba a3 ba bb
       0.02049709 0.00054544193 0.009819908 -0.0056957873
000340 8b 8d aa 3a 17 d0 c5 bb 1a 15 4c bb a8 e9 0f 3c
       0.0013012154 -0.006036769 -0.0031140507 0.008783735
000350 22 4f 8a 3c be e1 b2 3b af 4c fd ba 40 04 25 39
       0.016883437 0.0054590395 -0.0019325222 0.0001573721
000360 38 15 12 3c 8f 5f 3b bb d4 30 8c 3c 92 1c ec 3b
       0.008916192 -0.0028590893 0.017113127 0.0072055543
000370 f6 2b 40 bc 06 5c 0a bb 7d 41 6c 3b a9 87 17 bc
       -0.011729231 -0.002111198 0.0036049776 -0.0092486525
000380 3e d1 a5 3b 95 b4 6c bc 57 88 08 39 30 ee a0 bb
       0.005060344 -0.014447351 0.00013020761 -0.0049112067
000390 db b1 3d bb 68 49 3e bb b2 17 94 3c 5e 51 15 3b
       -0.0028945121 -0.0029035453 0.018077705 0.0022784094
0003a0 d2 53 f5 b9 73 fd 6b bc 3b e2 86 bb 6a ab 85 ba
       -0.00046792493 -0.014403689 -0.0041163242 -0.001019818
0003b0 4b 39 d6 bb e2 40 76 3b 48 8e 8e 3c 43 cf 5e bc
       -0.0065375916 0.0037575294 0.01740183 -0.01359922
0003c0 3b b9 d6 bb 70 e3 95 3a 93 9f fd bb 24 41 0d 3c
       -0.006552843 0.001143558 -0.00773997 0.008621488
0003d0 2b aa 4f bc d6 6e b0 bb 85 a4 9e b9 c0 ad 71 ba
       -0.012674849 -0.0053843064 -0.00030258685 -0.0009219311
0003e0 d4 f7 08 bc 58 31 b9 3b 17 a5 21 3a 2f 2e 98 3b
       -0.008359868 0.005651634 0.0006166263 0.0046441774
0003f0 98 40 70 3b 36 53 b0 ba 34 43 8f 3b aa 1b 57 bc
       0.0036659595 -0.0013452533 0.004372025 -0.013129154

action_model._discrete_distribution.branches.1.bias f4 [29]
000000 00 00 00 00 00 00 00 00 00 00 00 00 00 00 00 00
       0.0 0.0 0.0 0.0
000010 00 00 00 00 00 00 00 00 00 00 00 00 00 00 00 00
       0.0 0.0 0.0 0.0
000020 00 00 00 00 00 00 00 00 00 00 00 00 00 00 00 00
       0.0 0.0 0.0 0.0
000030 00 00 00 00 00 00 00 00 00 00 00 00 00 00 00 00
       0.0 0.0 0.0 0.0
000040 00 00 00 00 00 00 00 00 00 00 00 00 00 00 00 00
       0.0 0.0 0.0 0.0
000050 00 00 00 00 00 00 00 00 00 00 00 00 00 00 00 00
       0.0 0.0 0.0 0.0
000060 00 00 00 00 00 00 00 00 00 00 00 00 00 00 00 00
       0.0 0.0 0.0 0.0
000070 00 00 00 00
       0.0

action_model._discrete_distribution.branches.1.weight f4 [29, 128]
000000 b3 60 6a 3c 2e 5f c3 3b b8 ef 6e 3a b3 21 21 bc
       0.014305281 0.005962274 0.00091147004 -0.009834695
000010 78 ca 32 3c 64 3c 10 3b 7f 7a ac 3c f0 81 a7 b9
       0.01091253 0.0022008652 0.021054504 -0.00031949533
000020 9a 95 a6 bc 59 e2 a1 bc 7a a6 e3 3b bb f1 81 bb
       -0.020335007 -0.019761251 0.006947336 -0.003965584
000030 98 d2 79 3b c3 e4 7d 3b 13 90 64 39 bf 03 ad 3a
       0.0038119908 0.003874109 0.00021797446 0.0013199969
000040 ce e5 c3 3b 79 ba 3a bb d3 1a d2 3b b2 02 33 3c
       0.0059783226 -0.0028492494 0.006411889 0.010925936
000050 00 2f 50 3c 1a cd 24 3c 4f e2 a1 3c 93 c1 52 bc
       0.012706518 0.010058666 0.019761233 -0.0128635345
000060 cd 8b 56 3c 3b 5d b4 3b b7 72 19 3c 0e 06 18 bc
       0.013094855 0.005504278 0.009365729 -0.009278787
000070 51 44 2d bb c3 93 07 3b 97 74 74 3a b5 ac 7c 39
       -0.0026438425 0.0020687438 0.00093252346 0.00024096931
000080 d1 b5 14 bc 5f dd 87 3b fa fa 2a bb 6f 70 56 3b
       -0.0090765515 0.0041462625 -0.0026089535 0.0032720824
000090 cd 98 7d bb d6 0d 13 bb 93 af 39 bc 90 ac 6d bc
       -0.0038695813 -0.0022438667 -0.011333364 -0.014506474
0000a0 be 92 c6 b9 63 57 bd 3b ff d8 bb bb 04 71 3c bc
       -0.00037874834 0.0057782396 -0.005732655 -0.011501554
0000b0 93 65 a6 3b a7 77 8f 3b 5a 53 44 3b 1c ce 1d 3c
       0.0050780266 0.0043782773 0.0029956908 0.00963166
0000c0 11 bc b3 ba cd da 6f bc ce e1 84 3c 07 e8 aa bb
       -0.0013712664 -0.0146395685 0.016220953 -0.005215648
0000d0 43 f2 9b 39 e7 66 48 bc 5a 69 5e bb ef 04 05 bc
       0.00029744403 -0.012231565 -0.0033937306 -0.008118852
0000e0 60 a2 71 3b b9 4a 1b ba ca 0a 01 3c 5a f1 5b ba
       0.0036870465 -0.00059239153 0.0078761075 -0.0008390151
0000f0 5b be 2b 3a e7 b7 60 3b 9b 26 5b bc c3 26 e1 3b
       0.00065514975 0.0034289302 -0.0133759035 0.006871076
000100 9a 23 e3 3b 0e 2e b0 ba e3 26 03 bb 8b d0 bb 3b
       0.0069317343 -0.001344146 -0.0020012192 0.0057316474
000110 af 4b 77 bb bf 14 e9 3a 0f c2 d4 bb bf bc d3 3a
       -0.003773432 0.0017782672 -0.00649286 0.0016154273
000120 a6 c5 9c ba c4 99 2e 3b aa 9e fd bb 14 b8 38 3c
       -0.0011960759 0.0026641944 -0.0077398615 0.011274356
000130 97 50 29 3b 3b fd 3e bc 07 bc 5a 3b 04 8d 93 3b
       0.0025835389 -0.011657055 0.0033376233 0.0045028944
000140 48 91 12 bc 2b 21 10 3c dd 19 7d bc 68 58 0e 3b
       -0.008945771 0.00879697 -0.015448061 0.0021720175
000150 67 94 a4 ba 75 70 31 3c cf 2c a1 bc 37 d9 9c bb
       -0.0012556434 0.0108300345 -0.019674687 -0.004786636
000160 b0 c3 eb bb ed c7 7f bb 3d 6a a6 bb c0 5c b1 3b
       -0.0071949586 -0.0039029077 -0.0050785826 0.005412668
000170 d1 7a 25 bb ea e4 6c 3c b3 80 2f 3c 12 4a b1 bb
       -0.0025250206 0.014458874 0.010711837 -0.005410441
000180 4a e8 82 bb de 04 3b ba b3 bd 60 3c 33 80 16 bc
       -0.003994976 -0.0007134209 0.013717103 -0.0091858385
000190 18 87 04 3c 65 14 2c 3a c6 d9 8b 3b 70 e5 4a 3b
       0.0080888495 0.00065643183 0.004267904 0.003095951
0001a0 02 0f b3 3b 9a 30 24 bc 2b e3 33 bb d3 b2 63 bc
       0.0054644356 -0.010021353 -0.0027448635 -0.0138976155
0001b0 44 73 c1 b8 43 24 b3 3b 1d e0 0f 3c 9f 2f f8 bb
       -9.224427e-05 0.005466969 0.00878146 -0.0075740363
0001c0 a2 60 d6 3a b6 e9 86 39 d7 09 9f 3c 8f a9 08 3b
       0.0016355703 0.000257326 0.019413872 0.0020853018
0001d0 25 a0 c8 3c b6 0f 16 3c 8e 54 95 bc 10 f5 09 3a
       0.024490425 0.009159019 -0.018228795 0.00052626524
0001e0 80 fb e5 3b 9c 17 0f bc 9e 99 a4 bc 1f 37 11 bc
       0.0070185065 -0.008733656 -0.020092782 -0.00886324
0001f0 b5 ee 7c bc 8f 1c 4f 3c 75 50 76 3c fa 72 64 bc
       -0.015437772 0.012641086 0.015033831 -0.013943428
000200 1a 81 56 bb e7 f0 ad 3a c9 29 1b ba 18 af dd 3b
       -0.003273076 0.0013270647 -0.0005919007 0.0067652576
000210 f5 f4 7a bb 71 b5 0e 3c ef d0 0a 3c 2b 06 11 bb
       -0.0038292978 0.008710251 0.008472665 -0.002212892
000220 ce 56 06 b8 b0 9e e4 3b 5f 9c 34 3b f6 58 8d 3b
       -3.2028933e-05 0.006976925 0.0027559025 0.0043135835
000230 d8 05 23 3c f9 5e 0b 3c bd 78 de ba 88 86 4a bc
       0.009950124 0.00850653 -0.0016973239 -0.012361176
000240 4a 6f 6e 3b 27 4a 21 3c eb d2 9c 3c cf 80 8f bc
       0.0036382251 0.009844339 0.019143542 -0.017517475
000250 8d 70 20 bb d0 51 95 3b 67 3d b8 3a a3 fa ab 3c
       -0.0024481148 0.004556872 0.0014056385 0.020993536
000260 e9 2d ba bc e8 ef b8 3b c3 e9 82 3c c0 c5 20 ba
       -0.02272697 0.0056438334 0.015980607 -0.00061329827
000270 42 c3 3d 3c 0b 20 19 bc 51 76 9b 3c bd c7 3e bb
       0.011582198 -0.009346019 0.018977316 -0.0029110753
000280 1a 83 87 3b aa 96 5c bc ad dd 52 3a 9b e7 0d bc
       0.0041355016 -0.0134636555 0.00080438965 -0.008661176
000290 f7 a0 48 37 2b c9 ec bb b9 12 3d bb 87 4c f9 3b
       1.19584065e-05 -0.0072261295 -0.002885027 0.0076079997
0002a0 87 cd 7c 3b 46 91 09 3c 6a 6c ce 38 8d 54 4e 3c
       0.0038574652 0.008396452 9.843039e-05 0.012593401
0002b0 1f b4 1e bc ae 19 31 3b 18 79 46 bc 63 5e 5e bb
       -0.009686499 0.0027023363 -0.012113832 -0.003393077
0002c0 9f 45 91 3b 28 0c d0 bc 9b 7f 9e ba c5 73 16 ba
       0.0044333483 -0.025396422 -0.0012092473 -0.0005739297
0002d0 5b 22 33 bc 9a 44 93 bb 99 77 31 3c 05 0b 37 ba
       -0.010933484 -0.004494262 0.010831737 -0.0006982538
0002e0 d8 83 8f 3b 41 d2 27 bc e3 65 59 bc ad 58 61 3b
       0.0043797307 -0.0102429995 -0.013268921 0.003438513
0002f0 6a 37 d2 ba 7d bf 31 3c 3b 83 d2 3b 25 4c 7b 3a
       -0.0016038243 0.010848877 0.0064243353 0.00095862366
000300 30 ca 29 bc 4c ec 09 3c 37 db 46 bc ef b1 13 3c
       -0.010363147 0.008418154 -0.012137226 0.009014591
000310 be 67 27 3c 67 cf 44 bc da 54 f5 ba e7 7f d8 ba
       0.010217605 -0.012012339 -0.0018717304 -0.001651761
000320 af 6d 29 3c 2f ee a3 bb f4 6e c4 3b 50 40 d2 3b
       0.010341092 -0.005002759 0.005994672 0.006416358
000330 bf cc 3a 3c ff 0f 18 3b f3 07 d0 b9 08 d9 e3 3b
       0.011401354 0.0023202894 -0.00039678774 0.0069533624
000340 f3 f8 0b bb 18 ca 01 3a 0c 19 3d 3a 47 08 49 bc
       -0.0021358102 0.0004951074 0.000721351 -0.01227004
000350 5b 3e 50 3b f6 b2 49 bc 87 85 0d 3c c1 ac 42 3c
       0.0031775448 -0.012310734 0.008637792 0.011882008
000360 09 f9 93 bb 50 81 0a 3c 14 34 8e 3b f9 06 c3 bb
       -0.0045157713 0.008453682 0.0043397043 -0.005951759
000370 ff 78 6b 3c e7 e3 20 3a ea c6 78 bb 73 68 16 3a
       0.014372109 0.0006137476 -0.003796036 0.000573761
000380 02 93 8d bb 13 d2 9d bc 9a 0c f8 ba 5b 1c 41 bc
       -0.004320503 -0.01926521 -0.0018924654 -0.011786546
000390 63 f4 e8 3b 90 fc 58 bc 38 9c d5 3a ab 0e ef 3b
       0.0071092113 -0.013243809 0.0016297167 0.0072954497
0003a0 54 2c 27 bc c8 01 67 3c 44 e5 95 3b 11 76 0d 3b
       -0.01020344 0.014099546 0.0045744497 0.0021585266
0003b0 9d 0f b6 3b 12 60 16 3a 68 ee d8 ba 62 3f 18 bc
       0.0055560605 0.00057363615 -0.0016550543 -0.009292455
0003c0 7f 11 39 bc d5 c7 62 3b 2d 6b f9 bb 31 a1 32 bc
       -0.011295675 0.0034603972 -0.0076116533 -0.010902689
0003d0 e8 21 67 bc e7 33 c6 3a ab 64 e8 ba bf 18 4f 3c
       -0.014107205 0.0015121669 -0.0017730197 0.012640177
0003e0 e1 23 ad 3c af b3 9c bb f6 f1 88 3c 00 3d d0 3b
       0.021135272 -0.004782162 0.016716938 0.006354928
0003f0 47 03 bf 39 cd 2c f5 3a cb e0 c3 bb 3a f4 cb ba
       0.000364328 0.0018705368 -0.005977725 -0.0015560456

action_model._discrete_distribution.branches.10.bias f4 [5]
000000 00 00 00 00 00 00 00 00 00 00 00 00 00 00 00 00
       0.0 0.0 0.0 0.0
000010 00 00 00 00
       0.0

action_model._discrete_distribution.branches.10.weight f4 [5, 128]
000000 5d f1 e1 39 43 75 b5 3b 62 cb 8e bb 6b 2b 0f 3b
       0.00043095174 0.0055376603 -0.004357741 0.0021845947
000010 df b0 17 3c 1b 2a 75 3c 42 22 0c 3c 6d 52 cc 3b
       0.009258478 0.014963652 0.00855309 0.006235412
000020 75 ad 64 bb ef 37 ab 3b b6 75 43 3a dd 25 4e 3c
       -0.0034893428 0.0052251737 0.00074562 0.0125822695
000030 9d ba b7 bb f7 03 25 bc 97 db ff bb 4d 9a 9f 3b
       -0.005606963 -0.010071746 -0.0078081596 0.004870689
000040 75 26 69 bc ff 99 03 3c 6f db c2 bb 5b 3b 84 3b
       -0.01423036 0.008032321 -0.0059465687 0.004035396
000050 eb be 71 3b 89 e5 05 bb 8d 38 44 bb fc 7e 89 bb
       0.0036887478 -0.0020431003 -0.0029940933 -0.004196046
000060 d7 42 1f 3b 39 5d ad 3b 78 53 fe b9 5d cf 7f bb
       0.0024301314 0.005290654 -0.00048508844 -0.003903351
000070 59 e5 2f 3c fb e7 60 bb 18 16 5a ba e2 24 d9 bb
       0.010735833 -0.0034317959 -0.0008319332 -0.006626711
000080 43 29 35 3a 75 6d d1 3b de 97 c3 3b 87 c0 12 3c
       0.00069107505 0.006391222 0.0059690317 0.008957035
000090 0b 8c 08 3b 17 58 cd bb d9 90 ad bb f8 54 8f 3b
       0.0020835425 -0.0062666046 -0.005296808 0.0043741427
0000a0 c7 93 2b bc cf 12 52 3c 28 0e 47 bc 55 99 6d 3c
       -0.010472245 0.012821867 -0.012149371 0.014501889
0000b0 5a cc f0 3b a7 0c f3 bb 6f 13 1d 3c 1f 27 87 bb
       0.0073485794 -0.0074172798 0.009587153 -0.0041245366
0000c0 d9 8d 07 3c ba fb ac bb 4b ea 45 bc 13 58 09 ba
       0.008273565 -0.0052790316 -0.012079786 -0.00052392593
0000d0 2a 78 40 bb 13 b9 87 bc c4 13 b6 3b 00 6c 2d bc
       -0.0029368498 -0.016567742 0.0055565555 -0.010584831
0000e0 dd ec 3e ba a3 bc 34 b9 99 b0 19 bc 10 d8 c7 3b
       -0.000728322 -0.0001723641 -0.009380483 0.0060987547
0000f0 9c 4e 44 3a 1b 37 2e bb d2 36 3a 3b 3c 63 94 bc
       0.00074885204 -0.0026583138 0.0028414023 -0.018113725
000100 21 58 81 3c 60 49 a5 3b f0 1b 11 bb 05 00 e3 ba
       0.015789093 0.0050441474 -0.0022141896 -0.0017318731
000110 11 3f 83 b9 b3 83 51 3b 2f f2 a3 3b 37 31 33 bc
       -0.00025033255 0.0031969368 0.005003236 -0.010937027
000120 83 d1 32 3b 78 81 fe bb f9 5e 45 bc f2 7a e0 3b
       0.0027285523 -0.0077668987 -0.012046569 0.0068505937
000130 fe cb 87 3b 20 1a 9d 3b 36 30 c8 bb fd a6 be bb
       0.004144191 0.004794374 -0.006109263 -0.0058182464
000140 b2 5e b6 39 ad 4d 5c 3b 6f 32 df bb 63 6f 3d bc
       0.000347843 0.0033615634 -0.006811432 -0.011562201
000150 77 9b 99 3a 4b 72 52 3c 23 09 4b bb ea ea 78 3b
       0.0011719306 0.012844632 -0.0030980788 0.0037981817
000160 c3 0c 06 3c 6b 91 0c 3c 5d e2 62 bb 32 7d 39 bc
       0.008181754 0.008579592 -0.0034619786 -0.011321353
000170 65 ff 38 3c 48 c1 6f 3c ee 3d bc bc 60 07 4a bc
       0.01129136 0.014633484 -0.02297875 -0.01233086
000180 cb 10 e6 bb 82 0a 97 3b 5b b9 0c 3c 78 a3 52 bc
       -0.007021045 0.004609407 0.008589114 -0.012856357
000190 ed 45 e3 3b 22 4b 44 bb e5 3e 1d 3a e2 88 00 bc
       0.006935826 -0.002995201 0.0005998447 -0.007845135
0001a0 7d 03 9b 3c 95 6e 46 bc 1a 56 ff 39 1f d7 b7 3b
       0.018922562 -0.012111326 0.0004870154 0.005610361
0001b0 73 ed 56 3b 77 60 ff bb 2f 9c 38 3c 52 1f 42 3c
       0.003279534 -0.007793482 0.011267706 0.011848288
0001c0 cb b8 8d bb 3d df 9b bb 13 4c 83 3a 6a 4d 98 b8
       -0.0043250076 -0.0047568367 0.0010017179 -7.262344e-05
0001d0 d9 98 c2 3c 12 f6 3f b9 f0 c5 9f 3c 72 d7 73 3a
       0.023754524 -0.00018306848 0.019503564 0.0009301818
0001e0 7e e4 cb 3b 80 c3 91 ba f2 d9 cc bb b3 a7 e2 ba
       0.0062223068 -0.0011120886 -0.006251567 -0.001729241
0001f0 4d ca 93 bc 8b 2c 18 3b f8 f2 c0 3b 1b 41 5a bc
       -0.0180408 0.002321991 0.005888339 -0.013321186
000200 0b f8 2b 3c d0 56 e9 bb c3 68 a4 3c a5 1f fb 3b
       0.01049615 -0.0071209446 0.020069486 0.0076636844
000210 cf e4 ad ba b2 d4 d2 39 aa e3 83 3c 9b e8 b6 b8
       -0.0013267043 0.00040212792 0.01609977 -8.7217624e-05
000220 62 31 64 3c 8b df 95 3b dd 6a b3 3b d1 60 a6 bc
       0.013927789 0.0045737675 0.0054753856 -0.020309838
000230 57 9c 45 3b 1b c3 03 bc 27 bf 05 3b 9f 8f dc 3b
       0.0030153 -0.008042122 0.0020408125 0.006730988
000240 9d df 72 bc 58 3e a7 3c d3 aa b7 ba 5e 15 02 3a
       -0.014823821 0.02041547 -0.0014012702 0.00049622904
000250 f7 54 cd bb f5 18 5b 3b 68 34 2a bb ba 98 05 3c
       -0.006266232 0.0033431624 -0.0025971178 0.008154089
000260 a8 92 d1 bb 93 2e fa 3b fc 94 b4 ba 15 fa 7c bb
       -0.0063956566 0.0076349466 -0.0013777311 -0.003860121
000270 3d 14 63 3b 25 f2 86 3b 05 3d e1 bc 87 9e 71 3a
       0.0034649514 0.0041182213 -0.027494917 0.0009217043
000280 df 37 8d bb 80 b0 59 bc 5a f2 fa ba c5 b5 ee 3a
       -0.004309639 -0.01328671 -0.0019145713 0.001821213
000290 75 27 78 3c 98 59 62 bc f5 61 7f bc b0 d7 da 3b
       0.015146126 -0.013815306 -0.01558732 0.006678544
0002a0 1f 50 89 bb 3e 9b cb 39 37 85 1c 3c 83 ff a2 bc
       -0.0041904594 0.00038834842 0.009553245 -0.019897228
0002b0 ec d6 b3 3b 26 49 25 bb 43 89 3f ba 0d 81 15 bb
       0.005488267 -0.0025220602 -0.00073065254 -0.0022812516
0002c0 48 3b 46 3b a3 c4 03 3c c8 89 ea bb 03 3f ee 3b
       0.0030247737 0.008042487 -0.007157538 0.007270695
0002d0 dc 49 1e 3c 78 74 64 bc 1f a8 75 3c 15 f3 7b 3c
       0.009661164 -0.013943784 0.0149936965 0.0153777795
0002e0 07 66 6a bc cf 05 ac 3b 89 f1 19 3b 5b e0 92 bc
       -0.014306552 0.005249716 0.0023489913 -0.017929247
0002f0 90 9e cc 3b 0d 24 ec 3b a7 9b c8 3b 35 bd 13 3c
       0.006244488 0.007206446 0.006122071 0.009017278
000300 18 80 ae 3a 30 2e e2 3a 69 7c b7 bb bb 6a 96 bb
       0.0013313321 0.0017256197 -0.0055995476 -0.00459036
000310 3f 85 ce 3a 16 d2 88 bb f7 91 14 bc 27 7c 35 bc
       0.0015756263 -0.004175435 -0.009068004 -0.0110769635
000320 5f a5 03 bb b4 0e 10 3c 9e 33 3d bb 83 80 40 bb
       -0.0020087583 0.008792568 -0.0028869878 -0.0029373474
000330 1f c8 58 bb a7 5b 1c bb 52 a2 6b bc 2e 18 a0 bb
       -0.0033078266 -0.002385834 -0.014381962 -0.004885695
000340 9b 61 1a 3b b2 5c 6b bb e5 b5 62 bc 84 a5 21 bc
       0.0023556713 -0.0035913405 -0.013837312 -0.009866122
000350 77 b5 ea bb eb 1d b1 3b 29 05 84 3b 24 ec 0b bc
       -0.0071627456 0.005405178 0.0040289355 -0.008540187
000360 3b cb c1 3b ba ae ef b6 82 be 11 bc 85 69 de ba
       0.0059141195 -7.143096e-06 -0.008895518 -0.0016968703
000370 ed 96 6f 3b 7d ef 66 3c 13 d4 db 3b 43 ce 55 bc
       0.0036558465 0.014095184 0.006708631 -0.013049665
000380 b0 b5 6a bb 66 1a c0 ba ef f3 a8 3b 7c 83 17 bb
       -0.003581386 -0.0014656305 0.0051560323 -0.0023119142
000390 af 30 90 bb 6e 97 05 bc 9a 94 39 bc c5 f8 fd 3b
       -0.004400335 -0.008153779 -0.011326933 0.007750603
0003a0 fb ae 81 bc ef 11 33 3c 79 24 bd bc e4 ec 12 3c
       -0.015830508 0.010929569 -0.02308868 0.008967612
0003b0 55 f9 60 ba d2 c4 54 bb 2a 2b 8f ba 1a ac ee 3b
       -0.0008582075 -0.0032465947 -0.0010922898 0.0072836997
0003c0 c5 30 ce 3b d0 9f e7 bb d7 32 52 38 76 ea 3f bc
       0.006292435 -0.0070686117 5.011525e-05 -0.011713615
0003d0 75 38 a1 bb a7 2d 2e 3c bf 5d b2 3b c8 08 0b bc
       -0.0049200603 0.010631002 0.0054433043 -0.00848598
0003e0 44 6f b8 3b 63 c1 58 ba e7 ff d9 3b 63 07 5a bc
       0.0056284983 -0.0008268563 0.0066528204 -0.013307425
0003f0 68 14 f3 bb 1b 67 3c bc f3 bf db 3b cd f1 00 ba
       -0.007418204 -0.011499192 0.0067062317 -0.00049188436

action_model._discrete_distribution.branches.11.bias f4 [5]
000000 00 00 00 00 00 00 00 00 00 00 00 00 00 00 00 00
       0.0 0.0 0.0 0.0
000010 00 00 00 00
       0.0

action_model._discrete_distribution.branches.11.weight f4 [5, 128]
000000 f8 fa b6 bb b2 c1 25 bb 0b a3 2b 3b ad b0 56 bb
       -0.005584117 -0.0025292453 0.002618971 -0.0032759116
000010 6a eb a4 bc 1a 37 62 3c 4f b7 ce bb 72 3f de 3a
       -0.020131785 0.013807083 -0.006308473 0.0016956164
000020 7b be 34 3c 48 97 5e 3b 98 92 48 bb e7 91 2d 3c
       0.011031742 0.0033964682 -0.0030604955 0.010593868
000030 23 49 28 bc 89 d3 11 3b dc a3 95 bb ad 29 c4 bc
       -0.010271343 0.002225133 -0.0045666527 -0.023945654
000040 45 1a 5a 3b 14 5d 1d 3c c6 61 83 3c 08 f3 36 ba
       0.0033279818 0.009604711 0.016037833 -0.00069789635
000050 f1 38 b8 bb e7 76 0c 3c 2b 8b c3 ba 1f 38 00 bc
       -0.0056220223 0.00857327 -0.0014918795 -0.00782588
000060 3e 7f b2 bb 1b 19 8e 3c 3c 96 b0 ba ee 5b b1 3b
       -0.0054472974 0.017345956 -0.0013472508 0.00541257
000070 f3 32 00 3b 3a ab 21 3c ab 49 ac 3b e6 e3 35 bc
       0.0019561618 0.009867484 0.0052578053 -0.0111016985
000080 af 5e 88 ba 46 53 ae 3c d4 71 04 bb 9c 9d a1 bc
       -0.0010404194 0.021279942 -0.0020209448 -0.019728474
000090 3b ef d5 bb 3f b3 37 bc 5b a6 17 ba 5b ac 15 3c
       -0.0065287626 -0.011212169 -0.0005784982 0.009135331
0000a0 40 e6 30 bc 22 19 e5 b9 85 ea e9 bb d2 00 4c 3b
       -0.010797083 -0.0004369701 -0.0071385526 0.0031128419
0000b0 13 37 81 bb de d8 08 bb 22 f7 ef ba df 70 b5 bb
       -0.003943333 -0.0020881216 -0.0018307904 -0.005537137
0000c0 14 ae 92 3b 59 23 0e 3b 0b 5d 56 3c e0 3e bb bb
       0.004476318 0.002168855 0.013083707 -0.0057142824
0000d0 4a 5c 02 bc dc e0 90 3b 08 78 19 3a ed 74 b8 bb
       -0.007956574 0.0044213366 0.0005854373 -0.005629173
0000e0 f2 22 b0 bb b8 d8 67 bc 97 11 a5 bb be 02 b5 bb
       -0.0053752596 -0.014150791 -0.0050374973 -0.0055240085
0000f0 5f c8 2b 3a c1 60 b1 bb e7 08 ee 3b 7c b3 4b bc
       0.000655299 -0.0054131453 0.007264245 -0.012432929
000100 b3 64 74 3b ff 25 96 3b 8b a7 ca 3b e2 7f b9 bb
       0.0037291467 0.004582166 0.0061845235 -0.005660997
000110 8b fc 33 3b 6b 5e a2 3b ef ab 69 ba df 99 93 3c
       0.002746376 0.004955103 -0.0008913865 0.018017707
000120 b7 c9 80 3c b5 e7 ec 3a 47 a6 70 3c 92 de 37 3a
       0.015721185 0.0018074425 0.014688081 0.00070140616
000130 d5 2c a4 bb 75 1d b5 bb 57 cf c5 3b 22 41 98 3c
       -0.005010227 -0.005527193 0.0060366797 0.018585745
000140 32 5d c2 3b e7 2e 37 bb f0 8b 52 3c f1 9e 32 bc
       0.00593152 -0.002795154 0.0128507465 -0.010902152
000150 29 00 af 3a 95 3b 4d ba eb 1c a0 ba c2 17 24 3b
       0.0013351488 -0.0007829008 -0.001221565 0.0025038575
000160 47 b5 d9 3b cb 26 07 3c 48 a7 05 bb f5 77 be bb
       0.0066439244 0.008248995 -0.0020393897 -0.00581264
000170 ca 4d 22 bc 28 8c d1 bb 05 b9 1b bc ea 1d 7d bc
       -0.009906242 -0.0063948818 -0.009504561 -0.015449027
000180 28 f9 0c bc ae a8 bb 3a 52 ee df 3b ab 0e 37 ba
       -0.008604325 0.0014317238 0.00683383 -0.00069830817
000190 d2 d9 0a bb df 0c ac ba 8a 36 16 bb 37 56 ca 3b
       -0.002118696 -0.0013126394 -0.0022920691 0.0061748284
0001a0 a2 f3 8f 3a 33 06 28 bc e2 f4 e5 bb 08 cd ef 3b
       0.0010982642 -0.010255384 -0.0070177177 0.007318143
0001b0 5c 3d aa bb 8c 93 38 bc 0b 45 af bb b8 3d bd bb
       -0.005195303 -0.011265647 -0.0053488067 -0.0057751797
0001c0 13 29 17 bb 50 b7 26 bb 65 20 4d 3c 03 97 b1 bb
       -0.0023065254 -0.0025438853 0.0125199305 -0.0054196133
0001d0 cd 88 51 bb 4e db 9a bc 10 8a 6b 3b 9b 48 80 bc
       -0.0031972409 -0.0189034 0.0035940446 -0.015659621
0001e0 0f 20 a3 bb 86 31 01 3c 93 e4 6d bc 85 93 27 bc
       -0.004978187 0.007885342 -0.014519828 -0.0102280425
0001f0 0a d3 7f bc 92 16 46 3b fd a2 b4 ba 9b 0a a6 3c
       -0.0156142805 0.0030225855 -0.0013781484 0.020268729
000200 62 45 c7 3b 31 72 81 39 f0 17 ea bb bb 63 f3 3b
       0.006081269 0.00024689877 -0.007143967 0.0074276603
000210 dd 80 99 3c 43 ee e7 bb b1 72 85 3b 9d a8 59 bb
       0.018738205 -0.0070779636 0.00407251 -0.0033212074
000220 bc 6c 44 3c ed bd f9 3b 3d 65 f4 ba eb dd af 3b
       0.011988815 0.007621518 -0.0018645894 0.005367031
000230 6b 5f df b9 0f 57 48 3b 25 54 e6 bb 6d 38 31 3c
       -0.00042604966 0.003056947 -0.007029074 0.010816676
000240 15 17 7d 3c 9f 5e b2 bb 3f ac 0d b9 bf 2e 01 bc
       0.015447398 -0.0054434086 -0.00013510975 -0.00788468
000250 e2 ae eb 3b 38 c4 d9 3b 4a b8 d6 bb 7c d2 3a 39
       0.0071924785 0.0066457056 -0.0065527307 0.00017816754
000260 9a 37 6c bb dd 28 92 bb f5 0c f3 3b 2f 7b 49 ba
       -0.0036043883 -0.0044604377 0.007417316 -0.0007685897
000270 c2 2d 0e bc df 38 25 3c f6 0d c6 3b 63 54 ff ba
       -0.008677902 0.01008436 0.0060441447 -0.0019480105
000280 21 64 82 3c d3 39 6a 3b 3b 9a 8c bb fe 28 9d 3c
       0.015916886 0.0035740032 -0.0042908466 0.019184586
000290 17 90 e1 3a 15 07 94 3c eb 1a ac ba 4e 55 86 bc
       0.001720908 0.018069783 -0.0013130581 -0.016398098
0002a0 d0 35 e8 b9 f2 58 5c bc 6b b3 15 bb 32 b9 c8 3b
       -0.00044290582 -0.013448941 -0.0022842537 0.0061255926
0002b0 bd b7 79 ba cb ca d5 bb e6 a8 01 3c 4a b5 8a 3a
       -0.00095259753 -0.006524419 0.007913804 0.0010582593
0002c0 bb 6d 28 3a a5 08 36 bc 30 d7 79 3b 0c a4 96 bc
       0.00064250425 -0.011110459 0.0038122647 -0.01838877
0002d0 a7 24 f6 39 82 36 74 3c 96 06 4b bc 4f 38 5c 3b
       0.00046948084 0.014905574 -0.012391707 0.0033602898
0002e0 9d 0a 17 3b 6b a2 39 3c 43 81 e2 37 bd 4f d2 3b
       0.0023047097 0.011330227 2.7001492e-05 0.006418197
0002f0 9d 54 83 ba fa 7a ba b9 7b 05 6e 3c 9f 6a b0 bb
       -0.0010019724 -0.0003556831 0.014527674 -0.005383804
000300 77 61 23 3b 7b 3a df bc 82 ab 92 bb 35 ff 86 bb
       0.002492992 -0.027249565 -0.0044760117 -0.0041197785
000310 d7 88 25 3c f7 fc 59 bc a2 a6 6b 3c 92 ab 7f 37
       0.010103426 -0.01330494 0.01438299 1.5239131e-05
000320 cd 91 d7 bb bb b1 24 3a d9 95 22 3c 8f a8 53 3c
       -0.00657866 0.00062825874 0.009923422 0.0129186055
000330 0f 41 18 bb 23 ee 3d bb bd d5 7a 3b 7d 6d 71 3a
       -0.0023232137 -0.0028981052 0.003827437 0.00092097354
000340 40 5c ed 3a bf fa 68 3b 0c b8 40 3c d4 45 87 bb
       0.0018109158 0.0035549847 0.01176263 -0.004128197
000350 96 ee a1 3c ad 47 2a bc e0 78 15 bb e5 a1 c6 bb
       0.019767087 -0.010393065 -0.0022807643 -0.00606178
000360 5f ac 0a 3a a5 c8 ea bb 6d 5e d4 bc 06 0a 2a ba
       0.00052899675 -0.007165032 -0.025923932 -0.0006486479
000370 16 82 b5 3a 3b c2 07 bc 5b f5 82 bc c8 bc f6 b8
       0.0013847973 -0.008286054 -0.015986135 -0.00011765357
000380 12 e8 51 3c ca 71 ef 3b 1d b0 75 3b bb ce 04 bc
       0.0128116775 0.007307266 0.0037489005 -0.008105929
000390 95 06 45 bb 22 93 a9 bb 9f 2e 07 bb 30 20 23 3b
       -0.0030063738 -0.0051750103 -0.0020627154 0.0024891011
0003a0 51 59 c1 bb 5f fc ce 3b f0 b9 f4 ba d8 5d 8b 3b
       -0.00590054 0.006316706 -0.0018671136 0.0042531304
0003b0 22 a4 ff bb ba dd 98 bb 0a 71 36 bc 2f 16 9d ba
       -0.0078015486 -0.0046651037 -0.011135349 -0.0011984761
0003c0 8c 9b 2d bb 21 7f 96 3c fd c3 53 bc 00 3a 9a bb
       -0.0026490418 0.018371167 -0.012925145 -0.004706621
0003d0 8a 43 71 3b 17 26 33 bb b7 29 8f 3c 55 b9 63 3c
       0.0036813938 -0.0027335936 0.017475946 0.013899167
0003e0 7a 69 7f bc b8 26 de 3b 15 5a 4d bb 29 6a 09 3c
       -0.015589112 0.006779518 -0.003133421 0.008387127
0003f0 e7 90 14 ba 90 c0 4d bb 59 39 82 ba bb 84 16 bc
       -0.0005667344 -0.0031395294 -0.0009935304 -0.009186919

action_model._discrete_distribution.branches.12.bias f4 [5]
000000 00 00 00 00 00 00 00 00 00 00 00 00 00 00 00 00
       0.0 0.0 0.0 0.0
000010 00 00 00 00
       0.0

action_model._discrete_distribution.branches.12.weight f4 [5, 128]
000000 69 eb 24 3c 9a f0 fe ba 3a 4a 05 3c 27 c6 95 bc
       0.010065892 -0.0019450367 0.008135373 -0.018282963
000010 02 1d bc 3b 07 74 e0 3b 33 18 40 3c af 99 24 bc
       0.0057407627 0.006849769 0.01172452 -0.010046407
000020 bb cb 92 3b 75 49 da 3b a5 67 ec bb fb 9e 7e bb
       0.004479853 0.006661589 -0.007214504 -0.0038852084
000030 38 cb 82 3b 8b 7e 0e 3c b7 c4 ae 3b ec e4 14 bb
       0.0039915107 0.008697162 0.005333509 -0.0022719456
000040 46 3f 86 bb 2b ad 58 ba 06 8c 97 bc f0 69 21 bc
       -0.0040968983 -0.000826555 -0.018499386 -0.009851918
000050 95 03 23 3c 66 97 99 bb 6b 56 88 3b a8 8d 32 bc
       0.0099495845 -0.0046872376 0.0041606924 -0.010898031
000060 10 31 22 bc 12 fd 72 3b f6 14 2d bc ee b8 c1 3a
       -0.009899393 0.0037077111 -0.0105640795 0.0014779845
000070 37 7f 34 bc 68 e6 29 3b e4 3d 3a bb 1f 1a be 3b
       -0.0110166585 0.0025924686 -0.0028418237 0.0058014537
000080 32 45 80 3b d4 0b 32 3c 7b d2 97 3a fb e2 22 bc
       0.0039144987 0.010867078 0.0011583114 -0.009941812
000090 8b 8d cd bb 40 54 ee bb 58 53 fb 3b c5 56 1c 3b
       -0.0062729768 -0.007273227 0.0076698475 0.002385543
0000a0 b2 7c c8 3a 9d c3 e0 bb 33 56 df bb ea 8b 83 3c
       0.0015295951 -0.0068592564 -0.0068156957 0.016057927
0000b0 00 70 f7 3c a8 93 60 bc 2d b4 77 3c d6 86 cc 3b
       0.030204773 -0.013707079 0.015118641 0.0062416596
0000c0 cd b7 6a 3c 76 f5 2a bc 4f b3 7a 3b 22 80 b9 bc
       0.014326048 -0.010434499 0.003825385 -0.022644106
0000d0 df 7a 86 bc 23 60 c6 3b f8 8b d6 ba 77 ff a8 bb
       -0.016416011 0.006053941 -0.0016368618 -0.005157407
0000e0 b3 e0 d8 ba a0 81 ce 3b 41 bc 49 3c b8 a6 55 bc
       -0.0016546458 0.0063020736 0.01231295 -0.013040237
0000f0 e7 f7 eb 3b 89 b4 32 3c 7f 6b 44 3c 00 89 ed 3a
       0.007201183 0.010907301 0.01198852 0.0018122494
000100 ee 38 19 3b 47 07 90 bb 47 59 54 3c bd ca 6d bb
       0.002337988 -0.004395399 0.0129607385 -0.0036284172
000110 17 38 03 ba f5 92 db bb 28 04 4b bc 03 b8 d6 3b
       -0.00050056115 -0.0067008683 -0.012391128 0.0065526976
000120 a0 cd e3 3b 3e 1c c5 ba 9d 63 a4 3b c2 a3 4d ba
       0.0069520026 -0.0015038324 0.0050167576 -0.0007844531
000130 8f c2 e1 3a a0 8b df 3a 80 d2 8e bc ed 2b 24 3b
       0.0017224121 0.0017055161 -0.017434359 0.0025050596
000140 57 0f 91 3c 85 a6 25 3c 57 c0 bd 3a b8 4e 53 3c
       0.01770751 0.010110502 0.0014476877 0.012897186
000150 17 bd 8b bb 2b 21 50 3c 38 f5 58 3c c7 e6 7a ba
       -0.0042644846 0.01270322 0.013242058 -0.00095711317
000160 cc 43 bf bb 38 c1 4d bc ae 8f 02 bc 87 ee 5b 3c
       -0.0058369394 -0.012558274 -0.007968826 0.013423569
000170 d2 a8 29 3c 60 04 c5 3b 87 ba 22 3c 92 e4 af 3b
       0.010355191 0.0060124844 0.009932167 0.005367824
000180 ca 03 e0 3b d2 20 7a bb 7b db 02 3c ab 06 3c 3b
       0.006836389 -0.0038166535 0.0079868985 0.0028690498
000190 ff f0 c7 bb e9 4c a7 3b 1d cc 06 3b 27 4b 6b bc
       -0.006101727 0.005105604 0.0020568438 -0.014361179
0001a0 3d 68 ef 37 ed f2 6f bc b0 af 68 bb b2 10 c6 3b
       2.853956e-05 -0.01464532 -0.0035505109 0.0060444707
0001b0 c7 b6 50 bb d6 16 b6 3c 33 69 91 ba 36 56 4b 3c
       -0.0031847225 0.022227686 -0.0011093974 0.012410691
0001c0 d4 8d 30 3c c8 7f 6f ba 07 a4 71 3b fb c6 74 bb
       0.010776002 -0.00091361674 0.003687145 -0.0037350047
0001d0 64 42 c2 bc f3 54 65 bb 6e 72 08 bc 74 ec 8f 3b
       -0.023713298 -0.003499326 -0.008328063 0.004392201
0001e0 2b d6 c2 3a ad d1 54 3c b2 d5 58 3c da 88 3b bc
       0.0014864852 0.012989444 0.013234543 -0.011446202
0001f0 f7 44 b7 3b 1b f7 88 3b 0e 56 03 3b 29 09 c5 bb
       0.005592938 0.004179848 0.0020040306 -0.006013055
000200 da 46 65 bb e3 a0 e5 39 ef d0 44 3c 4b 6c 93 3b
       -0.0034984858 0.00043798154 0.012012704 0.0044989935
000210 57 15 1b 3c 70 a4 e8 3a 69 15 97 bc 2c 42 14 3c
       0.009465537 0.0017749202 -0.018442826 0.00904898
000220 05 64 3c bc c1 09 03 bb 1b 07 47 bb 67 49 a3 ba
       -0.011498456 -0.0019994827 -0.0030369225 -0.0012457789
000230 7e a6 83 3a 39 57 c5 bb ea 1c e1 ba 32 5f 8f ba
       0.0010044125 -0.0060223606 -0.0017174755 -0.0010938405
000240 a3 04 2b 3b 12 16 5e bb 7b 11 b7 bc b0 2f 1d bc
       0.0026095293 -0.0033887667 -0.022347203 -0.009593889
000250 a0 86 56 3c f8 9b 10 bc c7 49 0e 3b 27 2c 8a 3c
       0.013093621 -0.008826248 0.0021711455 0.016866757
000260 d5 7f 94 3b 82 67 f7 bb d5 1f 33 bc 45 77 b1 bb
       0.0045318403 -0.007550181 -0.010932882 -0.0054158294
000270 db 15 cc 3a fb d8 8d 3b 8e f2 99 3b fc 4d ac bb
       0.0015570478 0.0043288446 0.004698104 -0.00525832
000280 68 dd 22 bb 45 4e 12 bb 02 f0 6a 3c eb 34 22 3c
       -0.0024851207 -0.0022324484 0.014339449 0.009900312
000290 fb 1e df 3b 16 38 23 bb af 33 a3 3b c3 fb b7 3b
       0.006809113 -0.0024905256 0.0049805264 0.005614729
0002a0 bc bc 2d bc 63 46 6d 3a f0 a0 6f 3c 1f 17 11 3c
       -0.01060408 0.0009051321 0.014625773 0.00885561
0002b0 f3 80 ed 3c 4c 4f b1 bc e9 5d 38 3b 6d c8 29 3a
       0.028992152 -0.021644257 0.0028132147 0.0006476704
0002c0 9d 04 e9 bb a2 f9 0d 3c 08 66 63 3b bd a8 67 3b
       -0.0071111456 0.008665474 0.0034698267 0.0035348379
0002d0 45 f5 fb 3b 22 7e 05 bc d4 0d c6 3b 07 1c 78 3c
       0.0076891505 -0.008147748 0.006044129 0.015143401
0002e0 5f 20 e5 3b 5f cd 0b bb 4b 01 3a 3b d7 a6 ad 3a
       0.0069923843 -0.0021332128 0.0028382118 0.0013248575
0002f0 ff 9c 59 3c 49 a0 44 bb fd 0a 6a 3c c1 1f 1a 3b
       0.01328206 -0.0030002764 0.014284846 0.0023517462
000300 e3 b9 06 3c 97 90 ae 3a 63 70 39 3a b6 b4 09 3c
       0.00822303 0.0013318238 0.0007073937 0.008404901
000310 00 8a 1a 3b 07 b7 51 bb d0 cb 0a b9 e9 74 c2 3b
       0.002358079 -0.0031999962 -0.00013236632 0.005934347
000320 38 cf ec 3b 1b fa b5 bb 75 aa 5b bb dc 1d b8 bb
       0.007226851 -0.0055534965 -0.0033518348 -0.005618794
000330 42 b1 43 bb a9 eb b8 3c d8 36 bd 3b 4f db 0b 3c
       -0.0029860293 0.022573309 0.00577436 0.008536174
000340 fb 71 0b 3b ca c2 79 3b 6a 75 b3 ba 9c 58 98 3b
       0.0021277654 0.0038110488 -0.0013691608 0.004649235
000350 3b 37 bc ba 65 2b 52 ba 72 8a 82 bc e3 10 40 3c
       -0.0014359722 -0.00080173305 -0.015935156 0.011722776
000360 cf 4b cc 3a 39 e8 2c 3c 80 16 61 bc 05 2e 95 bb
       0.0015586558 0.010553413 -0.013738275 -0.004552605
000370 9a 7c 21 3b d3 48 b7 bb c3 0f e8 bb 62 5d f9 b9
       0.0024640919 -0.005593398 -0.007081957 -0.00047562557
000380 67 0d e4 3b f7 42 c3 3b 97 fc 51 bc 8b 9e b0 bb
       0.0069596055 0.0059589106 -0.01281657 -0.0053899935
000390 8b 45 65 3c ef 8a 01 bb c3 e8 19 3b 3a 3c 5f ba
       0.013993631 -0.0019766649 0.0023484684 -0.00085157494
0003a0 6f b5 53 bb f5 13 8b bc 96 fb 3a bb 73 66 53 3c
       -0.0032304188 -0.01697729 -0.0028531305 0.012902844
0003b0 5f 98 7c 3b d6 01 44 3c 75 53 9b bb 85 45 1e 3b
       0.0038542969 0.011963328 -0.0047401735 0.0024150324
0003c0 9f 26 3e 3c 15 a8 e7 3b bc 45 06 3c 00 36 5b bc
       0.011605888 0.0070695975 0.008195337 -0.013379574
0003d0 1e 5d 80 3c d0 fb 58 bc 42 02 c8 3b bb 86 6f 3b
       0.015669402 -0.0132436305 0.006103785 0.0036548811
0003e0 1a 3a 41 3c bc 76 ab b9 d2 9b d9 bb 92 4d cd ba
       0.011793638 -0.00032704126 -0.0066408897 -0.0015663377
0003f0 c7 d5 1a bb 7b d8 95 3b 97 39 c3 3b 23 01 23 3b
       -0.0023625956 0.0045729256 0.005957793 0.0024872504

action_model._discrete_distribution.branches.13.bias f4 [5]
000000 00 00 00 00 00 00 00 00 00 00 00 00 00 00 00 00
       0.0 0.0 0.0 0.0
000010 00 00 00 00
       0.0

action_model._discrete_distribution.branches.13.weight f4 [5, 128]
000000 e2 ce ba 3b b7 4a c4 bb b1 c4 20 bc 07 fe a7 bb
       0.005700932 -0.005990352 -0.00981252 -0.005126718
000010 0c dd 8e bc 9b 98 26 bc 1b 48 7c bb c5 c6 98 3b
       -0.017439388 -0.01016822 -0.0038495127 0.004662367
000020 7e 6f 48 bb 85 dd db 39 47 f2 83 bb 52 f9 18 3c
       -0.0030584033 0.0004193598 -0.0040266844 0.009336786
000030 9d e4 76 bc c5 4e 7f 3b 46 33 9e bb 2b 1d 80 ba
       -0.015069154 0.0038956862 -0.0048278896 -0.0009774318
000040 7b fc 5b bc 0b e4 4f bc 51 58 41 ba 2c 27 b5 3c
       -0.013426895 -0.012688647 -0.0007375526 0.022113405
000050 d8 e5 f9 3b 7d e6 0c 3c d3 90 63 ba c1 89 1b 39
       0.0076262765 0.008599875 -0.0008680943 0.00014833269
000060 dd e7 d0 bb 0d 1c 83 bc a6 2e 40 bb 37 bb fb 3b
       -0.0063752965 -0.016004587 -0.002932468 0.00768223
000070 58 39 9c 3b 43 11 19 3c 72 e2 01 3c a2 71 50 3b
       0.004767578 0.009342494 0.007927524 0.0031806012
000080 10 56 54 bc 8f 9e 19 bc d9 d5 bb bc f2 35 56 3c
       -0.012959972 -0.009376182 -0.022929119 0.013074385
000090 1f 4b 3d bb 1f 19 66 3a 6f cb d0 3a 2a ae 6d 3c
       -0.0028883887 0.0008777547 0.0015929769 0.014506856
0000a0 17 dc ae bb 32 c8 08 ba 51 fc 4b 3c b8 da d8 3b
       -0.0053362953 -0.00052178197 0.012450294 0.00661787
0000b0 c3 86 80 bc 78 50 8c bb 0f 2d cf bb 13 a0 02 bc
       -0.01568926 -0.0042820536 -0.00632251 -0.007972735
0000c0 5e 4b 39 3c 3f f7 78 3b 4f 40 68 bc 40 ac fe 3b
       0.011309473 0.0037989167 -0.014175489 0.0077719986
0000d0 05 d2 1c 3c c3 4f 4c ba 82 fb 77 bc 27 2e 90 bb
       0.009571557 -0.0007793868 -0.015135648 -0.004400033
0000e0 dd 18 f7 3b 58 8b c3 39 d7 c7 bc bb ba 5b 2b 3c
       0.0075408057 0.00037297118 -0.0057611275 0.010458881
0000f0 c3 bb 37 bb b6 6a 47 3c c2 81 d4 bb 33 ad fe bb
       -0.0028035499 0.012171438 -0.006485195 -0.007772112
000100 17 27 47 bb c2 ef ec 3b 07 20 0c bc 94 50 0a bc
       -0.003038829 0.00723073 -0.008552558 -0.008442063
000110 a7 16 2a 3b b7 df 6a bb 98 11 7e bc 9e e1 aa 3b
       0.0025953443 -0.003583891 -0.015507124 0.005214884
000120 90 10 ac ba ea ac 76 bc da 4e c7 bb 4f 2d 85 3c
       -0.0013127495 -0.015055874 -0.006082398 0.016256956
000130 83 fa ad 3b 13 0e 44 3c 37 1a 2c 3c 07 6f 3e bc
       0.0053094043 0.011966246 0.010504297 -0.011623151
000140 b5 cf 18 3c 2b e2 3b 3b c8 58 2e 3c 9d b7 30 3c
       0.009326865 0.0028668742 0.010641284 0.010785964
000150 24 eb 12 3c 78 0c 60 3c fb 07 e9 3b ca 26 50 3c
       0.008967195 0.013674848 0.007111547 0.0127045605
000160 82 73 d0 3a a2 0b d8 ba e0 4c 26 bb 8b f1 36 bc
       0.0015903565 -0.0016482959 -0.002537541 -0.011165987
000170 f3 b5 00 bb 71 c3 24 3c bf 08 47 3c 5e ae 10 bc
       -0.00196397 0.0100563625 0.012148081 -0.008830635
000180 c6 2c 4a bc f3 15 2f bc 7f 3b 13 bc cb 75 c7 3a
       -0.012339776 -0.010686385 -0.008986353 0.00152176
000190 05 be d2 3a 3f ed 09 3b 6b 1b 03 3b f9 49 9e bb
       0.0016078359 0.002104595 0.0020005356 -0.0048305956
0001a0 77 dd 13 3c 3b a7 f1 3b 1a 8c 8d 3b 81 d8 96 3b
       0.009024969 0.0073746718 0.00431968 0.004603446
0001b0 6b 80 84 bb be e2 0a 39 35 b9 d5 3b e7 1f a4 bc
       -0.004043629 0.00013245174 0.0065223225 -0.020034743
0001c0 7a 80 28 3c d2 94 ee bb bf 36 1e bb d4 af 22 3c
       0.010284537 -0.0072809244 -0.0024141518 0.009929616
0001d0 d0 93 57 bc 62 cb 8a bc 00 04 5b 3b aa a5 57 3b
       -0.0131578 -0.016942684 0.0033419132 0.003290514
0001e0 7e d6 1d 3c 13 de d8 3b 81 a8 2b bc 75 eb 7d bc
       0.009633658 0.00661827 -0.010477186 -0.015498032
0001f0 2c df 16 bc 58 6d 74 bc c7 fa a2 3c ed 10 90 3c
       -0.009208482 -0.014918648 0.01989497 0.017586196
000200 7f 5f 21 3c 55 48 cc 3a 74 26 09 bc a4 38 24 3c
       0.009849428 0.0015585521 -0.008370984 0.01002327
000210 4e d8 1c 3c 74 17 0d bc 38 2a 54 ba 47 7a 80 bc
       0.009573055 -0.008611549 -0.0008093449 -0.015683306
000220 23 59 a7 3b a1 44 1a 3b 86 09 9c 3b a8 2d d8 3b
       0.0051070615 0.0023539441 0.0047618775 0.0065972395
000230 10 98 60 bb 16 76 9c 38 60 02 49 3c 18 df f0 3b
       -0.0034270324 7.460655e-05 0.012268633 0.0073508136
000240 ec 5c 84 3b 7c 3e 46 bb 38 df 7d bb 5c 93 1c bc
       0.0040393975 -0.0030249646 -0.0038737785 -0.009556618
000250 db 9a 63 bc eb 19 4e bc f3 fa 74 bc ae 38 08 3c
       -0.013891901 -0.0125794215 -0.014952409 0.008314295
000260 56 a5 02 bc ac cd 97 3a c5 40 c3 bb 3e 33 2d bc
       -0.0079739895 0.0011581681 -0.005958649 -0.010571299
000270 cf 6e 50 3c f7 42 39 bb b7 51 59 3c bb c8 09 bc
       0.012721731 -0.0028268674 0.013264111 -0.008409674
000280 77 13 0e bb 63 e5 d6 bb d6 bd 83 ba 47 1e 9f 3b
       -0.0021679082 -0.0065581067 -0.0010051082 0.0048559043
000290 3d 12 8d 3a d7 fb 34 3c 41 76 ac bb e8 a9 d1 bb
       0.0010762882 0.011046371 -0.0052631204 -0.006398428
0002a0 7d cf 50 bc 40 44 5e bb 53 08 6b bb ad 72 21 3b
       -0.012744782 -0.0033915192 -0.0035863116 0.0024635002
0002b0 02 5d b6 bb 12 3c d7 bb e7 a4 27 bc cb 91 d1 bb
       -0.0055652866 -0.0065684402 -0.010232187 -0.0063955537
0002c0 e3 02 04 bc e5 d6 4f bc cd 0e d1 bb fb 99 85 bc
       -0.008057329 -0.012685512 -0.006379938 -0.016308775
0002d0 b7 2e a9 bb 1a 45 62 3c fe 4a 96 bc f2 e4 a4 3b
       -0.0051630395 0.01381042 -0.018346306 0.005032175
0002e0 7d d1 dc bb d0 9f cb 3b 3f 03 a0 3c b8 99 d2 bb
       -0.00673884 0.0062141195 0.019532798 -0.006427016
0002f0 45 61 74 bc ed 20 ab 3b 9d 15 e4 3b 5b 31 47 3b
       -0.014915769 0.005222431 0.0069605843 0.0030394408
000300 c8 d3 ea bb d3 82 eb 39 f2 db 33 ba ad 33 cc 3a
       -0.0071663596 0.00044920165 -0.00068610825 0.0015579365
000310 85 29 5b bb 41 c6 bc 3b d5 f7 10 bc ae 06 c2 3b
       -0.0033441496 0.0057609384 -0.00884815 0.0059212064
000320 21 92 1b bc b3 27 01 3c 93 83 c4 3b 2d b1 80 bb
       -0.009495289 0.007883 0.00599713 -0.003927371
000330 8f e9 53 3a d2 3c bd bb 47 1d 39 3c c8 3e 94 bb
       0.0008083814 -0.0057750726 0.011298484 -0.0045240857
000340 b1 7e a0 bb 35 e9 8d 3c c3 63 8c 3b 70 25 2e 3c
       -0.0048979153 0.017323116 0.0042843535 0.010629043
000350 0b 9d 4b 3b f3 3d e3 bb 09 ce 87 ba d3 a2 b2 bb
       0.0031068947 -0.006934875 -0.0010361086 -0.005451539
000360 8b 5b 02 bc 25 bc 3a ba a7 cb f2 ba 42 4c 05 bb
       -0.007956396 -0.00071233726 -0.0018523828 -0.0020339643
000370 af 04 6b 39 3a a3 4f bb d6 99 a4 bb 1c f3 c3 ba
       0.00022413091 -0.0031682984 -0.0050232215 -0.0014949772
000380 a7 79 89 bb 63 96 78 bb 13 b5 55 3b de ef 43 3a
       -0.0041954103 -0.0037931434 0.003260915 0.00074744027
000390 8d 53 d2 bb 8b 2e bb bb 08 fe 8e 3b c7 53 cd bb
       -0.0064186514 -0.0057123355 0.004363779 -0.0062660906
0003a0 97 75 d3 bb 4c 22 2b 3c 88 90 fa 3b ba 90 c5 3b
       -0.006453227 0.010445189 0.007646624 0.0060292156
0003b0 35 f7 e4 ba b4 39 c0 ba e2 c9 cd 3b 0b 86 81 3c
       -0.0017468693 -0.0014665634 0.00628017 0.015810987
0003c0 8e 1b 21 3b dd 54 e8 3b 73 74 12 bc 24 81 a8 bb
       0.0024583074 0.0070901946 -0.0089388965 -0.005142348
0003d0 81 ba ab 3a 6d 11 fe 3b 70 51 cf 3b b3 5d 87 bb
       0.0013101847 0.007753542 0.006326847 -0.004131043
0003e0 b5 80 d4 bc 32 33 9c 3a 11 d0 45 3c da 00 7f bc
       -0.025940279 0.0011917113 0.012073533 -0.015564168
0003f0 cd 41 73 bb 2a 68 5e bc 2f 26 86 bc 41 39 c3 bb
       -0.0037118078 -0.013574639 -0.01637563 -0.005957753

action_model._discrete_distribution.branches.14.bias f4 [5]
000000 00 00 00 00 00 00 00 00 00 00 00 00 00 00 00 00
       0.0 0.0 0.0 0.0
000010 00 00 00 00
       0.0
