results/ppo/BadChessPlayer/BadChessPlayer-349.onnx (onnx, 75462 bytes, 6 tensors)

action_model._discrete_distribution.branches.0.bias f4 [9]
000000 00 00 00 00 00 00 00 00 00 00 00 00 00 00 00 00
       0.0 0.0 0.0 0.0
000010 00 00 00 00 00 00 00 00 00 00 00 00 00 00 00 00
       0.0 0.0 0.0 0.0
000020 00 00 00 00
       0.0

action_model._discrete_distribution.branches.0.weight f4 [9, 128]
000000 30 0f 21 3c 6b d0 4b 3c dc 81 c1 bb 62 e8 7a 3b
       0.009830281 0.012439827 -0.005905373 0.0038285484
000010 8f 8d 02 3c 42 eb e5 3b aa 5a 6a 3b 23 41 49 3b
       0.0079683205 0.0070165703 0.0035759606 0.003070899
000020 b8 f3 4e bc 4c 7e 1d 3c 64 cb 2b bc 37 6a 94 3b
       -0.012631349 0.009612631 -0.010485504 0.0045292634
000030 4b f9 91 3c 98 cf ec bb 9a 00 0c 3c 53 db 1c bb
       0.017819067 -0.0072268955 0.008545065 -0.0023934438
000040 ff 83 99 3b 93 c7 5b 3b bd 8d 06 bc 77 44 0d 3c
       0.0046849246 0.0033535704 -0.008212504 0.00862228
000050 4b f1 47 3b b5 99 fc bb cc 37 a3 bb cf 0b c0 bc
       0.0030508812 -0.007708753 -0.0049810167 -0.02344313
000060 b7 6c 08 3c 5b d9 90 bb 57 6f 99 bb aa 1d f2 3a
       0.008326701 -0.004420442 -0.004682462 0.0018471975
000070 dc c9 96 bc ca 40 d0 bb da ea 02 3c 43 4e 82 3b
       -0.0184068 -0.0063553797 0.007990563 0.0039766147
000080 df f5 8b bc f4 5b b2 b9 ce 85 b7 bb ec 50 96 bc
       -0.017085014 -0.00034019316 -0.0056006676 -0.018349133
000090 90 fd 82 bb 6b 2a 51 bc 17 11 39 bc 58 68 2c 3c
       -0.003997512 -0.012766461 -0.011295578 0.010522924
0000a0 25 ac 81 bc c6 00 a8 bb 34 00 94 ba bd e1 6c bc
       -0.015829155 -0.0051270453 -0.0011291564 -0.014458117
0000b0 3f 94 86 3c 28 62 cf ba 1d 8d 6b bc 00 23 de 3c
       0.016428111 -0.00158221 -0.014376906 0.027116299
0000c0 07 b3 e7 3b 52 59 42 3c 89 29 c5 ba c3 ec 2f 3a
       0.0070709023 0.011862116 -0.0015042286 0.00067110005
0000d0 c9 50 94 3b 99 17 1d bb 1f 45 93 3c 4b 4c 0b 3b
       0.004526232 -0.0023970364 0.017977295 0.002125519
0000e0 51 36 93 3c bf 15 15 bb ea 10 5d bc f0 58 9d 3b
       0.017970236 -0.0022748557 -0.013492802 0.004801862
0000f0 43 d5 13 3c dc aa b3 bb 93 fe 0c bc 16 38 c3 3b
       0.0090230135 -0.0054830145 -0.008605617 0.0059576137
000100 1f 31 f9 3b 0b ce c8 3b 3f 45 52 3c d7 9b 68 3c
       0.0076047326 0.006128078 0.012833892 0.014197311
000110 52 82 77 3a 10 bb bb ba 94 f5 38 b8 42 50 95 3c
       0.00094417215 -0.0014322717 -4.409773e-05 0.018226746
000120 25 ec b3 bb 8f 52 90 bc 78 1c 8f 3b 25 2d 31 3b
       -0.005490797 -0.017617492 0.0043674074 0.0027034965
000130 7a 00 de bb 2f 44 df bc 20 04 e2 3b b8 98 8a bb
       -0.006774959 -0.027254192 0.0068974644 -0.0042296313
000140 95 06 57 bc b4 63 09 bc 6c 92 01 bc e0 87 87 bb
       -0.013124128 -0.0083855875 -0.007908445 -0.0041360706
000150 c6 51 8f 39 98 2c a3 bc 36 70 8b 3b 22 31 34 bc
       0.0002733601 -0.019918725 0.00425532 -0.010998042
000160 c8 01 e1 b9 4e 93 8d 38 47 15 2e bc 80 a3 91 bc
       -0.0004291667 6.7508416e-05 -0.01062519 -0.017778158
000170 cb d2 69 3a e8 97 c6 bb ff 3f 03 ba c6 57 b7 3c
       0.0008919655 -0.006060589 -0.00050067896 0.02238072
000180 63 22 01 3c c1 34 26 3b fc 64 12 3a 57 e2 44 bb
       0.007881734 0.0025361034 0.0005584506 -0.0030042136
000190 9a a0 7c 3b b2 8f 71 3b 72 07 6d 3c c0 05 16 3a
       0.0038547874 0.003685933 0.014467107 0.0005722903
0001a0 d0 f4 5e 3c 19 39 10 3c 6d c7 3b 3b 4c e4 16 bc
       0.013608173 0.008802676 0.0028652803 -0.009209704
0001b0 2b f2 4e bc 60 63 e3 3b f0 2d 59 39 c3 05 09 bc
       -0.0126309795 0.0069393367 0.00020711846 -0.00836319
0001c0 0f 22 66 bc 21 0d 00 3b 6b 40 41 bb 93 b7 b3 3b
       -0.014046206 0.0019539075 -0.002948786 0.0054845302
0001d0 37 8c df 3b 85 31 82 3c 7f d8 96 ba 35 5a 72 3b
       0.006822135 0.015892753 -0.0011508613 0.0036980037
0001e0 63 13 a6 bb eb e4 e5 3b 8a f1 71 bb 41 5c 98 3b
       -0.005068229 0.0070158145 -0.003691765 0.0046496694
0001f0 0b a7 c3 bc 96 28 0b bb c0 22 c0 3c 7b 19 d8 3b
       -0.023883363 -0.0021233908 0.02345407 0.0065948344
000200 dc bb 3d bc de 6c b3 3b 3a 47 31 3c a0 64 fb 3b
       -0.011580434 0.0054756245 0.010820204 0.0076719075
000210 ab 93 b1 ba 1a 1f 7a bc af 81 49 bb eb cc 8d bc
       -0.0013548037 -0.015266204 -0.0030747463 -0.017309627
000220 e8 ba e1 3b ad 94 fc 3b 5c db ae bb 4b f7 39 3c
       0.006888736 0.007708153 -0.0053362083 0.011350463
000230 2a d3 de 3b 63 83 82 3c 2f 26 03 3c 1b 9f f4 bb
       0.006800075 0.01593179 0.008004709 -0.007465256
000240 06 3f 95 3b 68 40 30 bb 0b 9f 83 ba 1a fd 67 bc
       0.004554632 -0.0026893858 -0.0010041905 -0.014159465
000250 b6 5b 4c 3b 57 53 f6 ba d9 b4 10 3a d1 1c 32 bb
       0.0031182594 -0.0018793148 0.00055201125 -0.002717782
000260 3d 8e d3 3b 6f 3d 43 3b 0c 5e 13 3a 02 6e 64 bb
       0.006456165 0.0029791256 0.0005621619 -0.0034855609
000270 f7 de 43 3c da d2 ef bb 46 97 46 3b ce 0e a3 bb
       0.011955014 -0.0073188366 0.0030302568 -0.00497613
000280 53 4f d5 3b 83 a2 b8 3b 85 cf 8a 3b ab cd 02 3b
       0.0065097003 0.0056346073 0.004236164 0.0019959013
000290 ac cf 1a bc 81 d4 3e bc 0f 34 32 ba f7 97 b0 bb
       -0.009448927 -0.011647345 -0.00067979185 -0.0053892094
0002a0 7f 66 b7 bb 6b 8c da bb 35 68 fb bb 07 de 97 3c
       -0.0055969353 -0.006669571 -0.0076723346 0.018538488
0002b0 ae a0 99 3b 6b 4d 39 3b 26 1c 89 3c 64 7a 9c bb
       0.004688344 0.0028274904 0.016737055 -0.0047753323
0002c0 f3 60 f3 bb 93 cf 43 bc 34 43 98 3c d3 58 60 3a
       -0.0074273287 -0.011951345 0.018586732 0.0008558158
0002d0 dc fb ba 3b d5 63 67 3b 83 2d d3 bb c3 73 f7 bb
       0.0057062935 0.0035307307 -0.0064446344 -0.0075516417
0002e0 4c 91 96 3b c3 e9 41 bc 43 aa 48 3c 81 c0 27 ba
       0.0045949575 -0.011835518 0.012247625 -0.000639923
0002f0 03 9c 6d 3b 13 74 1f 3b 02 a6 0e bc 86 9f 16 b9
       0.003625632 0.002433066 -0.0087065715 -0.00014364542
000300 c7 42 31 3c ab 13 31 bb 55 d3 f9 3b db e5 89 3a
       0.010819144 -0.002701978 0.0076240697 0.0010520773
000310 0b 7b 61 3c b9 4b 25 bc 93 21 2d 3c c8 79 d7 bb
       0.013762246 -0.0100888545 0.010567087 -0.0065757968
000320 da ff ba bc 9b f4 55 bb e2 6a 5d ba 71 c7 18 3c
       -0.022827078 -0.0032647017 -0.0008446408 0.009324894
000330 e5 47 8d 3b a6 73 a5 3b 85 2e 48 3a ba a7 62 bc
       0.004311549 0.0050491868 0.00076363265 -0.013833934
000340 7b 93 f0 bb 98 98 18 3c 32 23 e4 3b 85 c0 5d bc
       -0.0073418 0.009313725 0.0069622034 -0.01353467
000350 52 5e 7c bc 8a bd fe bb 53 6d c5 bb 25 24 57 bc
       -0.015403347 -0.0077740597 -0.0060249954 -0.013131176
000360 b2 89 31 3b 43 5e 80 ba df 78 da bb 18 45 58 ba
       0.002709013 -0.0009793717 -0.006667241 -0.0008250042
000370 59 23 38 3b cf e5 88 bc a1 76 36 3b f2 b1 b9 3b
       0.002809724 -0.016711144 0.0027841704 0.0056669647
000380 a5 6d 7d bc 03 3a 7e bc e9 8e b2 3b b7 90 1c 3c
       -0.015468036 -0.015516761 0.005449165 0.009555987
000390 4a 14 40 3b 5d b7 d3 bb e2 78 df 3b 8f 6a 7a 3c
       0.0029308968 -0.0064610676 0.0068198303 0.015284195
0003a0 48 03 82 3b f6 f3 92 3b 02 98 bf 3b 00 33 fb 3a
       0.0039676763 0.004484649 0.005846978 0.001916498
0003b0 0a a8 4d 3c 70 bc ea 3b 33 1c 35 3c 7b dd 65 bc
       0.012552271 0.007163577 0.0110540865 -0.014029856
0003c0 69 ef 28 3c ff f3 97 39 ff d2 b5 3b 07 5a 0f 3c
       0.010310986 0.00028982756 0.0055488343 0.008749492
0003d0 45 11 96 bb 77 3a 73 bc 97 96 96 3b f3 e0 ff bb
       -0.0045796954 -0.014845482 0.0045955884 -0.0078087985
0003e0 0e bf 1e 3b 27 e4 19 bb f8 ab 57 3b 8e 26 b2 bb
       0.0024222764 -0.0023481937 0.0032908898 -0.005436725
0003f0 45 29 90 3b 9e 8f 18 ba af b3 89 bb 37 ca 92 ba
       0.004399451 -0.00058197405 -0.004202328 -0.0011199181

network_body.linear_encoder.seq_layers.0.bias f4 [128]
000000 00 00 00 00 00 00 00 00 00 00 00 00 00 00 00 00
       0.0 0.0 0.0 0.0
000010 00 00 00 00 00 00 00 00 00 00 00 00 00 00 00 00
       0.0 0.0 0.0 0.0
000020 00 00 00 00 00 00 00 00 00 00 00 00 00 00 00 00
       0.0 0.0 0.0 0.0
000030 00 00 00 00 00 00 00 00 00 00 00 00 00 00 00 00
       0.0 0.0 0.0 0.0
000040 00 00 00 00 00 00 00 00 00 00 00 00 00 00 00 00
       0.0 0.0 0.0 0.0
000050 00 00 00 00 00 00 00 00 00 00 00 00 00 00 00 00
       0.0 0.0 0.0 0.0
000060 00 00 00 00 00 00 00 00 00 00 00 00 00 00 00 00
       0.0 0.0 0.0 0.0
000070 00 00 00 00 00 00 00 00 00 00 00 00 00 00 00 00
       0.0 0.0 0.0 0.0
000080 00 00 00 00 00 00 00 00 00 00 00 00 00 00 00 00
       0.0 0.0 0.0 0.0
000090 00 00 00 00 00 00 00 00 00 00 00 00 00 00 00 00
       0.0 0.0 0.0 0.0
0000a0 00 00 00 00 00 00 00 00 00 00 00 00 00 00 00 00
       0.0 0.0 0.0 0.0
0000b0 00 00 00 00 00 00 00 00 00 00 00 00 00 00 00 00
       0.0 0.0 0.0 0.0
0000c0 00 00 00 00 00 00 00 00 00 00 00 00 00 00 00 00
       0.0 0.0 0.0 0.0
0000d0 00 00 00 00 00 00 00 00 00 00 00 00 00 00 00 00
       0.0 0.0 0.0 0.0
0000e0 00 00 00 00 00 00 00 00 00 00 00 00 00 00 00 00
       0.0 0.0 0.0 0.0
0000f0 00 00 00 00 00 00 00 00 00 00 00 00 00 00 00 00
       0.0 0.0 0.0 0.0
000100 00 00 00 00 00 00 00 00 00 00 00 00 00 00 00 00
       0.0 0.0 0.0 0.0
000110 00 00 00 00 00 00 00 00 00 00 00 00 00 00 00 00
       0.0 0.0 0.0 0.0
000120 00 00 00 00 00 00 00 00 00 00 00 00 00 00 00 00
       0.0 0.0 0.0 0.0
000130 00 00 00 00 00 00 00 00 00 00 00 00 00 00 00 00
       0.0 0.0 0.0 0.0
000140 00 00 00 00 00 00 00 00 00 00 00 00 00 00 00 00
       0.0 0.0 0.0 0.0
000150 00 00 00 00 00 00 00 00 00 00 00 00 00 00 00 00
       0.0 0.0 0.0 0.0
000160 00 00 00 00 00 00 00 00 00 00 00 00 00 00 00 00
       0.0 0.0 0.0 0.0
000170 00 00 00 00 00 00 00 00 00 00 00 00 00 00 00 00
       0.0 0.0 0.0 0.0
000180 00 00 00 00 00 00 00 00 00 00 00 00 00 00 00 00
       0.0 0.0 0.0 0.0
000190 00 00 00 00 00 00 00 00 00 00 00 00 00 00 00 00
       0.0 0.0 0.0 0.0
0001a0 00 00 00 00 00 00 00 00 00 00 00 00 00 00 00 00
       0.0 0.0 0.0 0.0
0001b0 00 00 00 00 00 00 00 00 00 00 00 00 00 00 00 00
       0.0 0.0 0.0 0.0
0001c0 00 00 00 00 00 00 00 00 00 00 00 00 00 00 00 00
       0.0 0.0 0.0 0.0
0001d0 00 00 00 00 00 00 00 00 00 00 00 00 00 00 00 00
       0.0 0.0 0.0 0.0
0001e0 00 00 00 00 00 00 00 00 00 00 00 00 00 00 00 00
       0.0 0.0 0.0 0.0
0001f0 00 00 00 00 00 00 00 00 00 00 00 00 00 00 00 00
       0.0 0.0 0.0 0.0

network_body.linear_encoder.seq_layers.0.weight f4 [128, 4]
000000 d4 1a 94 3d 6a ac 14 bf b1 dc 8e be dc 7c 29 be
       0.072316796 -0.58075583 -0.2790275 -0.16551536
000010 20 14 3c bf c6 db 9f 3d 5a a3 0f bf ec 3d 62 be
       -0.7346821 0.0780559 -0.5610863 -0.22093934
000020 52 11 82 be f3 ed db 3e 14 7d 49 3f d1 61 05 bf
       -0.2540384 0.42954978 0.7870648 -0.5210238
000030 ac d4 0c bf 60 42 81 3f 33 e4 ec 3e 3d db 13 3f
       -0.5501201 1.0098381 0.46267852 0.57756406
000040 e2 88 8f be 9a c0 03 bf 41 f0 25 bf 1a 3b 6b be
       -0.2803412 -0.5146576 -0.64819723 -0.22971764
000050 6b 27 dd be 23 a7 4c bf 36 0e 81 be 81 50 02 3e
       -0.43194136 -0.7994253 -0.25206155 0.12726022
000060 48 a9 39 3f 5d 7b 5e be ec 07 5c be ce 8d 69 3e
       0.7252393 -0.21726747 -0.21487397 0.22808
000070 fe d4 e3 be 6d 1e c9 be 6a 03 de be 58 1b 72 bf
       -0.44498438 -0.39281026 -0.4336198 -0.94572973
000080 bb 2d 3d 3f 6d b6 14 3f af 9b 91 be 63 8e 72 3e
       0.73897904 0.5809086 -0.2843909 0.23687129
000090 99 a0 d0 3e 75 ca a7 bd 21 ea a1 be 98 ce a9 3e
       0.40747526 -0.081929125 -0.3162394 0.3316543
0000a0 6e 72 25 3f 64 2e ce 3e c8 4c 51 bb d6 ec f8 be
       0.6462773 0.40269768 -0.0031936634 -0.4861819
0000b0 56 df 6c bf a1 a0 17 be 7c e4 2f be 03 7d d9 3e
       -0.92528284 -0.14807369 -0.17177004 0.4247819
0000c0 04 af a6 3e 9b a7 88 3e b5 de 18 3d 0a 46 1c 3f
       0.325554 0.26690373 0.037321765 0.6104437
0000d0 3a f0 c8 bd f8 ce 53 bf f7 17 73 bf 5c 18 9a 3e
       -0.098114446 -0.82737684 -0.9495844 0.3009671
0000e0 33 03 eb 3e 0d 7b 8b be ce fe 01 3f ac d3 9b 3e
       0.45900878 -0.27242318 0.50779426 0.3043493
0000f0 cc bb 40 bf 49 74 c6 3d ef 20 dd 3e 2b 24 52 bf
       -0.75286555 0.096901484 0.4318919 -0.8208644
000100 ef b4 fd 3e 77 8b 33 bf c9 6f d4 3e 57 b6 06 bf
       0.49552104 -0.7013468 0.41491535 -0.5262198
000110 b4 3c 1c 3f d2 11 30 3f 9c e2 bc 3d 12 7b 8c 3e
       0.61030126 0.6877719 0.0922291 0.27437645
000120 e8 cf 96 bf 34 4f 5f 3f 89 b7 bf bd 8d 81 31 bf
       -1.1782198 0.8723023 -0.093611784 -0.69338304
000130 ae 11 f8 3c fd c4 3b bf b1 a6 6b 3e a3 e1 f0 3e
       0.030281868 -0.73347455 0.23012806 0.47047147
000140 f3 f0 03 3e 0a 4b d0 be a0 37 72 bf 82 b4 9b be
       0.12884884 -0.4068225 -0.94616127 -0.30411154
000150 81 41 e3 bd 5f d9 36 3f 1e f0 21 bf f7 42 d3 3e
       -0.11096478 0.7142543 -0.63257015 0.41262028
000160 fb 8b f9 3e 75 ac 04 bf 1d 37 7b bf fc b1 eb be
       0.4873961 -0.5182565 -0.9813097 -0.4603423
000170 90 33 c9 3e 21 27 d4 bc 85 e1 81 bf 4e fd 0d be
       0.39297152 -0.025897564 -1.0146948 -0.1386616
000180 22 4a 07 3e d8 49 39 be 6c aa 96 be 94 06 b3 3e
       0.13211873 -0.18094575 -0.29426897 0.34965956
000190 6a 43 bd 3d 21 07 01 be a8 eb 81 3e f0 c3 b6 be
       0.09241374 -0.12600376 0.25375104 -0.35696363
0001a0 d8 78 4c be 27 3d a3 3e 74 cc da 3d 25 dd 4d be
       -0.19967973 0.31882593 0.106835276 -0.20103891
0001b0 2d 21 13 3e cf db ba bc 5e ed a3 be 83 4b 2d be
       0.14368124 -0.022809891 -0.32017034 -0.16923337
0001c0 ac 72 33 bf bf 45 7a 3e 04 3b e3 bd 99 d5 30 be
       -0.7009685 0.24440669 -0.11095241 -0.17268981
0001d0 32 42 7a bc d7 61 25 3e be ba 0a 3e 99 08 13 be
       -0.015274571 0.16150604 0.13547799 -0.14358748
0001e0 48 ec 47 3e 45 a4 45 3f 3c d1 fb 3d eb bb 7a 3f
       0.19523728 0.7720378 0.12295768 0.9794299
0001f0 20 8a e1 3e 85 01 3e 3e db fe 27 3e 60 b7 ae be
       0.44050694 0.18555267 0.16405813 -0.3412428
000200 03 1e 1b 3f 97 0c 8f 3d df fb 95 3e 4a b0 00 be
       0.6059267 0.06984823 0.29293725 -0.12567249
000210 5f 63 93 3b 76 64 d3 3e 32 e1 82 3f 46 36 1a 3e
       0.00449793 0.41287583 1.0224974 0.15059766
000220 f5 96 de 3e cb 0c b3 bf 49 dd 5e 3f 03 81 47 be
       0.43474546 -1.3988279 0.87056404 -0.19482808
000230 e1 14 95 3f ab e8 83 3d 93 6b 21 bf da 45 a0 be
       1.1646997 0.06440862 -0.6305477 -0.31303293
000240 f6 58 0a bd 7c 81 4d bf 1f f2 a0 3d 55 a5 65 3e
       -0.033776246 -0.802757 0.07858681 0.2242635
000250 8b 64 11 bf 0e 0b f9 be c0 f7 93 3d 7d fe 32 3e
       -0.5679404 -0.48641247 0.07224989 0.17479892
000260 db 8c 47 bf 2e 57 fc be 44 9d 2b ba f5 09 c6 be
       -0.77949303 -0.49285263 -0.0006546567 -0.38679472
000270 bd 55 63 3e 49 c2 89 be b7 7a 30 3f 05 03 54 3e
       0.22200675 -0.2690604 0.6893725 0.20704277
000280 a7 8f 0b bf 06 3b ae 3e 81 a5 58 3f 7b cf 44 bd
       -0.5451607 0.34029406 0.8462754 -0.04804943
000290 ec 46 c4 be a8 b8 15 3f 30 7e 40 3f ed 95 0f 3f
       -0.3833536 0.5848489 0.75192547 0.56088144
0002a0 68 e4 55 bd d0 de d1 3c 5c a2 b2 3e 6a ff c7 be
       -0.05221978 0.02561894 0.34889495 -0.39062053
0002b0 aa b6 42 be 0a d6 6c 3e c5 5e 66 3e 2e 56 55 be
       -0.19014993 0.23128524 0.22497089 -0.20833656
0002c0 5f 51 0f bf 7b 02 74 be 3e 1e 8d be be e5 d9 be
       -0.5598354 -0.23829071 -0.27562135 -0.42558092
0002d0 88 46 22 3f 78 3a e2 bd aa 0a b8 be d9 b4 ac be
       0.6338887 -0.11046308 -0.35945636 -0.33731726
0002e0 80 6a ca 3d 03 20 a6 3d 2b 3d 3b bf 83 a0 59 be
       0.098835945 0.081115745 -0.7314021 -0.21252637
0002f0 3c 49 0d be 2a 48 19 3f b8 9e 8e 3e 57 97 24 3e
       -0.13797468 0.5987574 0.27855468 0.16073357
000300 88 cf 50 3e b3 ed a3 3e 6c d5 e3 3e c4 12 ef bd
       0.20391667 0.32017288 0.44498765 -0.11673501
000310 df f8 d5 be 4b 92 0a be 10 1b ec bd a8 bf 8f be
       -0.41791436 -0.13532369 -0.11528599 -0.2807591
000320 69 a1 12 3f 87 86 41 3f a9 42 02 3f 7d f6 50 3e
       0.5727754 0.755959 0.50882965 0.20406528
000330 d6 cc 1a bf 76 34 a2 3e 72 75 38 bd 5e ce b0 3c
       -0.60468805 0.3168065 -0.04503388 0.021582779
000340 a6 57 31 bd 7f b6 01 bf 98 4f 11 be d2 d8 9a bf
       -0.04329648 -0.5066909 -0.14190519 -1.2097418
000350 3a 43 a3 3e fe b2 a4 be 02 3e 2b be 9a 94 76 3e
       0.31887227 -0.3216781 -0.16722873 0.24080124
000360 3b 4f 69 3d 4b 23 9a 3f 07 c8 40 bf 8d 8b 24 3f
       0.056960326 1.204202 -0.7530522 0.6427544
000370 bd d2 a1 3f ae b3 cc bd 76 71 a2 be 0b a2 8b 3e
       1.2642437 -0.09995209 -0.3172719 0.27272066
000380 6a dc e8 be 0a 43 32 bf 41 6e 92 3e 5f e7 68 bf
       -0.45480663 -0.69633543 0.28599742 -0.90978044
000390 78 1a 56 bf 45 2a e4 3e 34 03 2a bf 66 66 9a bd
       -0.8363414 0.445635 -0.6641114 -0.07539062
0003a0 42 2e 67 be f5 4c 3d 3e 25 27 69 3e 1d 06 99 3c
       -0.2257624 0.18486388 0.22768839 0.018679673
0003b0 da 9a 16 be 07 2b 75 3f 1a 31 9c 3d 49 aa 19 3c
       -0.14707509 0.9576878 0.07626553 0.009378978
0003c0 b9 23 99 be 6f 33 a0 3e e8 2a 16 bf 1b 09 04 bf
       -0.29910067 0.3128924 -0.5865922 -0.51576394
0003d0 b9 4a 15 be 1c a6 25 3d 4c 18 aa bd 18 58 4f bf
       -0.14579286 0.040441617 -0.083054155 -0.80993795
0003e0 30 90 62 bf db 4f 17 bd 4a d5 ab 3b 4f 53 15 bf
       -0.8850126 -0.03694139 0.005243932 -0.58330244
0003f0 40 67 f0 be 8e 2e 55 bf 3b 81 7d 3d 70 b3 81 3c
       -0.46953773 -0.8327416 0.061890822 0.015832633

network_body.linear_encoder.seq_layers.2.bias f4 [128]
000000 00 00 00 00 00 00 00 00 00 00 00 00 00 00 00 00
       0.0 0.0 0.0 0.0
000010 00 00 00 00 00 00 00 00 00 00 00 00 00 00 00 00
       0.0 0.0 0.0 0.0
000020 00 00 00 00 00 00 00 00 00 00 00 00 00 00 00 00
       0.0 0.0 0.0 0.0
000030 00 00 00 00 00 00 00 00 00 00 00 00 00 00 00 00
       0.0 0.0 0.0 0.0
000040 00 00 00 00 00 00 00 00 00 00 00 00 00 00 00 00
       0.0 0.0 0.0 0.0
000050 00 00 00 00 00 00 00 00 00 00 00 00 00 00 00 00
       0.0 0.0 0.0 0.0
000060 00 00 00 00 00 00 00 00 00 00 00 00 00 00 00 00
       0.0 0.0 0.0 0.0
000070 00 00 00 00 00 00 00 00 00 00 00 00 00 00 00 00
       0.0 0.0 0.0 0.0
000080 00 00 00 00 00 00 00 00 00 00 00 00 00 00 00 00
       0.0 0.0 0.0 0.0
000090 00 00 00 00 00 00 00 00 00 00 00 00 00 00 00 00
       0.0 0.0 0.0 0.0
0000a0 00 00 00 00 00 00 00 00 00 00 00 00 00 00 00 00
       0.0 0.0 0.0 0.0
0000b0 00 00 00 00 00 00 00 00 00 00 00 00 00 00 00 00
       0.0 0.0 0.0 0.0
0000c0 00 00 00 00 00 00 00 00 00 00 00 00 00 00 00 00
       0.0 0.0 0.0 0.0
0000d0 00 00 00 00 00 00 00 00 00 00 00 00 00 00 00 00
       0.0 0.0 0.0 0.0
0000e0 00 00 00 00 00 00 00 00 00 00 00 00 00 00 00 00
       0.0 0.0 0.0 0.0
0000f0 00 00 00 00 00 00 00 00 00 00 00 00 00 00 00 00
       0.0 0.0 0.0 0.0
000100 00 00 00 00 00 00 00 00 00 00 00 00 00 00 00 00
       0.0 0.0 0.0 0.0
000110 00 00 00 00 00 00 00 00 00 00 00 00 00 00 00 00
       0.0 0.0 0.0 0.0
000120 00 00 00 00 00 00 00 00 00 00 00 00 00 00 00 00
       0.0 0.0 0.0 0.0
000130 00 00 00 00 00 00 00 00 00 00 00 00 00 00 00 00
       0.0 0.0 0.0 0.0
000140 00 00 00 00 00 00 00 00 00 00 00 00 00 00 00 00
       0.0 0.0 0.0 0.0
000150 00 00 00 00 00 00 00 00 00 00 00 00 00 00 00 00
       0.0 0.0 0.0 0.0
000160 00 00 00 00 00 00 00 00 00 00 00 00 00 00 00 00
       0.0 0.0 0.0 0.0
000170 00 00 00 00 00 00 00 00 00 00 00 00 00 00 00 00
       0.0 0.0 0.0 0.0
000180 00 00 00 00 00 00 00 00 00 00 00 00 00 00 00 00
       0.0 0.0 0.0 0.0
000190 00 00 00 00 00 00 00 00 00 00 00 00 00 00 00 00
       0.0 0.0 0.0 0.0
0001a0 00 00 00 00 00 00 00 00 00 00 00 00 00 00 00 00
       0.0 0.0 0.0 0.0
0001b0 00 00 00 00 00 00 00 00 00 00 00 00 00 00 00 00
       0.0 0.0 0.0 0.0
0001c0 00 00 00 00 00 00 00 00 00 00 00 00 00 00 00 00
       0.0 0.0 0.0 0.0
0001d0 00 00 00 00 00 00 00 00 00 00 00 00 00 00 00 00
       0.0 0.0 0.0 0.0
0001e0 00 00 00 00 00 00 00 00 00 00 00 00 00 00 00 00
       0.0 0.0 0.0 0.0
0001f0 00 00 00 00 00 00 00 00 00 00 00 00 00 00 00 00
       0.0 0.0 0.0 0.0

network_body.linear_encoder.seq_layers.2.weight f4 [128, 128]
000000 a2 9c 68 bd da 9a c9 bd b2 b9 1d 3e d2 0f ec 3c
       -0.05679 -0.09843989 0.15402868 0.028816137
000010 8e 15 10 bd 68 8b 4b 3e 59 9b 39 be a1 12 90 3c
       -0.035176806 0.19877398 -0.18125667 0.017587008
000020 08 b7 42 bd 1f 5e 03 3e 0b f7 5d 3d a8 31 6a 3d
       -0.047537833 0.12828873 0.054190677 0.057176262
000030 c1 7a 04 be 0c 1c 50 bd 81 e2 c3 bd bf fb f1 bd
       -0.12937452 -0.050807998 -0.095646866 -0.11815595
000040 39 d5 b3 3c 45 70 97 bd 43 23 a5 3d ea 96 e4 3d
       0.021952258 -0.073944606 0.08063366 0.11161597
000050 e7 00 19 be c5 36 a3 bb 6a 78 02 3e ce 42 05 3e
       -0.1494175 -0.0049808943 0.12741247 0.13013765
000060 4e e4 d8 bd 02 9c c5 bc df 68 7c b9 6c d9 64 be
       -0.10590421 -0.024122242 -0.0002407166 -0.22348565
000070 49 b3 20 be d3 55 04 be b3 9d 00 be fc b8 c0 bd
       -0.15693392 -0.12923364 -0.12560157 -0.09410283
000080 b6 4d 53 3e bb 35 b9 3d 2c 14 14 3e 11 e1 44 3e
       0.20635113 0.090434514 0.1446082 0.19226481
000090 82 b6 9e 3d 20 98 01 bd 77 d1 0e 3e ed 0d b2 bd
       0.07749654 -0.03163922 0.13947092 -0.086940624
0000a0 c1 5c e7 bc 5f 28 9c bd 05 fb c6 bc 7f 51 f6 bd
       -0.02824247 -0.07624888 -0.024289617 -0.12027263
0000b0 38 87 1f be 5d 57 fc 3d 84 11 22 be 50 09 c1 bc
       -0.15578926 0.12321351 -0.15826994 -0.02356401
0000c0 df 6f b7 3d d1 1e 23 be 70 6e 7a 3c 48 21 e9 3d
       0.089568846 -0.15929724 0.015285119 0.11383301
0000d0 d2 97 1f 3e 1e 6a ad 3b 35 c6 9b 3d 68 78 78 3d
       0.15585259 0.005292191 0.07606164 0.060661703
0000e0 6c 30 bb 3c c1 31 04 bd 26 27 f2 3d eb 43 c7 3d
       0.022850238 -0.03227401 0.11823873 0.09729751
0000f0 fc d2 cc 3c d2 77 46 bd 49 f5 d5 bd 7a 28 70 3d
       0.025002949 -0.048454113 -0.10447175 0.05863235
000100 d9 d1 c6 3d 3d 9d 03 be 86 b4 b8 bc db ad 4e 3e
       0.09707994 -0.1285295 -0.022547018 0.20183508
000110 0b 3f 05 bd a6 49 e1 3c ae d6 39 bd f3 d3 9c bd
       -0.032530826 0.027500939 -0.04537075 -0.076576136
000120 36 21 1c bd 11 99 e0 bc c9 20 48 bd f7 1c df bd
       -0.03811761 -0.027416738 -0.04885939 -0.108941965
000130 46 e6 ec bd 44 c1 ed 3d ca fc 96 bd 1d c6 ff 3d
       -0.11567359 0.11609128 -0.073724344 0.12488959
000140 48 74 96 3d 4d f3 be 3b 08 b1 a5 3d df 15 8b bd
       0.07346398 0.0058273436 0.08090407 -0.06791281
000150 06 a8 ed bd 3a 9f 3d bd 78 18 37 be b3 e3 36 ba
       -0.116043136 -0.04629443 -0.17880428 -0.0006976679
000160 a7 60 11 be ac 6b 14 3e bf 5d 5d bd 25 37 aa bb
       -0.14197026 0.14494199 -0.05404448 -0.005194562
000170 04 e6 80 bd 58 96 15 bd fc 50 98 3d 3b a5 d8 bd
       -0.06293872 -0.036520332 0.074373215 -0.1057839
000180 64 05 16 3e 0b 91 c7 bd 22 8c ff bd 60 56 3b bd
       0.14650494 -0.097444616 -0.124779 -0.04573667
000190 87 07 fc bc 90 25 28 bd c8 2b 24 bb a9 89 07 3d
       -0.030765308 -0.041051447 -0.002505051 0.033090267
0001a0 7f dd 23 bd 64 a4 0c bc 34 82 6c be ee 8a c4 bc
       -0.040006157 -0.008584116 -0.23096544 -0.023992028
0001b0 c1 f7 85 3d 07 81 3b bd 60 7d e9 bc 64 d2 28 3e
       0.06541396 -0.045777347 -0.028502166 0.16486508
0001c0 35 99 3d 3d bb 6c 66 3c f0 05 ad 3d 56 69 11 3d
       0.046288688 0.014064009 0.08448398 0.035500847
0001d0 0a 75 62 3d c0 1c 62 bd 79 34 dd bc 85 40 4f be
       0.0552874 -0.0552032 -0.02700256 -0.20239456
0001e0 75 a9 ac 3b dd 50 92 3d 0c f8 e9 bb 6d 94 a0 bd
       0.0052692243 0.0714433 -0.007140165 -0.0784081
0001f0 d1 21 e4 bc 45 ca 34 be de c9 37 3c 3f d4 df 3c
       -0.027848156 -0.17655285 0.0112175625 0.027322887
000200 9b 04 2e 3e 3d 71 f4 bc 20 86 08 bd a0 86 60 bc
       0.16993944 -0.029839152 -0.033331037 -0.013703972
000210 64 c3 03 3e 8c 4c 77 3c 31 f4 f6 bc d9 7d 3a bb
       0.12867504 0.015093934 -0.030145736 -0.0028456359
000220 d1 25 08 3d c1 4e 0e 3e 97 e4 f9 bd d2 13 cf bd
       0.03323919 0.1389723 -0.12201803 -0.10111202
000230 b9 eb c5 3c b8 73 d9 bd 44 03 91 bc e7 52 db bc
       0.024160253 -0.10617775 -0.017701752 -0.02677293
000240 5a 13 06 be 09 67 0c 3e ac 87 90 bc 45 b7 4e be
       -0.1309332 0.1371118 -0.017642818 -0.201871
000250 8b a5 81 3e c0 ea e0 bd 6b 87 02 bc 41 c2 28 3d
       0.25321612 -0.10982275 -0.0079668565 0.04120088
000260 f2 20 c0 bd c2 d9 bd 3c 48 6b e3 bd c5 5c 0b be
       -0.09381284 0.023175124 -0.11104447 -0.13609608
000270 99 46 06 bb 48 e1 3e 3b 8e 47 7d 3b 0b 8c 48 3d
       -0.0020488857 0.0029125977 0.0038647386 0.04896168
000280 68 0d ac 3b 15 f1 53 3d b4 e3 49 bc 44 68 8a bc
       0.0052506216 0.051743586 -0.012322355 -0.01689542
000290 55 eb 7f bd 5e 67 86 3c b1 eb c5 b9 42 d8 df bd
       -0.06248029 0.016406711 -0.00037750372 -0.1092992
0002a0 37 88 1d 3e e7 a9 32 bd ba cb 16 3e 78 d6 e4 bb
       0.15383993 -0.043619063 0.14726153 -0.0069835745
0002b0 ed 2a 25 be 8b 0f 8e bd 16 88 de bd 87 d9 f0 3c
       -0.16129656 -0.06936558 -0.108658 0.0294006
0002c0 d6 b5 2d bd c1 f3 03 be 4b f8 85 3d ba 42 01 3e
       -0.04240974 -0.12885953 0.06541499 0.1262311
0002d0 cc d6 a3 bd 5d 80 54 bd d5 11 d0 3d ac 73 ee 3d
       -0.07999954 -0.05188023 0.10159651 0.116431564
0002e0 04 f2 45 be f9 a0 a9 bd ac d9 97 bd 35 52 1d 3c
       -0.19330603 -0.08282656 -0.074145645 0.009602119
0002f0 62 21 da bc c3 71 39 3d d9 e3 ad 3d 4f 5a 14 3d
       -0.026627246 0.045274507 0.08490724 0.036218937
000300 73 97 cd bc da 0e 07 3d 56 66 da 3d 93 85 43 3d
       -0.02509663 0.032973148 0.1066405 0.04773481
000310 1d 57 ce bc be 81 c3 bd e2 ce 8d 3d 93 44 3a 3d
       -0.025188023 -0.09546231 0.069242254 0.045475554
000320 f7 08 a3 3d 7b f9 b1 bd a6 70 9d 3d 44 d9 8c bd
       0.07960694 -0.08690163 0.076875016 -0.06877378
000330 2f 29 07 3e 1f ca 89 bd b8 f8 98 3c d0 89 a8 bd
       0.13199304 -0.06728005 0.018673286 -0.08229411
000340 d1 8b 1c be 1f fd ce bd 7a 92 4f 3d 49 cc 45 3d
       -0.1528771 -0.10106873 0.0506768 0.048290525
000350 74 f9 f3 bd 87 b5 de bd 5f 7d ae 3d 44 6d fe bc
       -0.11912814 -0.10874467 0.085200064 -0.031057961
000360 f2 e5 ff bc 65 0f ee bd f4 1a 3b 3d 1e ff dd bd
       -0.031237576 -0.1162403 0.04568 -0.10839675
000370 9d 88 3e bc b1 cf 97 bd 47 32 98 3d b3 f0 98 bc
       -0.011629251 -0.07412661 0.07431465 -0.018669462
000380 60 0b b7 3d 24 5c 2a be 6e f3 d5 3d 70 42 07 be
       0.089377165 -0.16636711 0.10446821 -0.13208938
000390 25 b4 d5 bd fe 8f 3a 3d d7 00 28 3e a0 c9 92 bb
       -0.104347505 0.045547478 0.1640657 -0.004479602
0003a0 11 7d 81 3b 59 16 8a 3c a0 79 88 3d b7 38 c7 bc
       0.0039516767 0.01685636 0.06663823 -0.024319036
0003b0 5c a7 32 3d 30 40 95 3d 83 a3 e1 bc a3 cf 29 bd
       0.043616638 0.072876334 -0.027543789 -0.041457783
0003c0 b2 28 82 bd a0 83 c9 bd f7 64 a9 bd 8c be 2b be
       -0.06355418 -0.098395586 -0.08271211 -0.16771907
0003d0 1a 5e a5 bd ae 57 17 3e a8 a4 81 bd 29 4c 07 be
       -0.08074589 0.14779541 -0.06330234 -0.13212647
0003e0 54 19 5d bd 93 f1 dc bd 39 f8 f7 bd c0 97 26 3e
       -0.053979233 -0.10788264 -0.121078916 0.16268826
0003f0 fb 7d 05 3e ef 99 20 be 40 53 63 3e f0 fa 83 3d
       0.13036339 -0.15683721 0.22199726 0.06444347
