results/ppo/BadChessPlayer/BadChessPlayer-2445.pt (torch, 411735 bytes, 45 tensors)

network_body.linear_encoder.seq_layers.0.weight f4 [128, 72]
-0.1440681 -0.18318692 -0.022480711 -0.02976506 0.013886942 -0.052257176 -0.1603159 -0.12126729
-0.21153179 -0.037662875 0.10341406 0.10613086 0.059358217 -0.108261146 0.18866871 -0.1166103
0.029991617 0.01646723 -0.05136246 0.13360316 0.022142218 -0.066993855 -0.19347687 -0.03676779
0.15372913 0.18566711 0.39152578 -0.023893356 -0.0010038737 0.013417736 -0.010915564 0.14939147
0.17066304 0.13817167 0.061585728 -0.10612122 0.12614729 0.1727088 -0.009591896 -0.17935234
0.0011387179 -0.13775831 -0.0016319073 0.03566365 0.11161638 -0.07698044 -0.032482028 -0.14873743
-0.18958206 -0.10182007 -0.112427324 0.092931494 0.008109794 0.055064783 0.048573904 0.16841324
0.04470855 -0.12852935 -0.2479436 0.0568457 0.06930521 0.028997723 0.14199528 -0.12864642
-0.14951123 0.13834815 -0.05984889 0.31565666 -0.118978925 0.04281492 0.031457998 -0.100954086
-0.054522585 0.15099 -0.1912594 -0.25999382 0.004093229 -0.2130288 -0.12765388 -0.027676903
-0.1425793 0.1258667 -0.1312235 0.15810734 -0.11290514 0.060792733 0.06209005 0.048175022
-0.08119844 -0.19955754 0.059069827 0.06561012 0.17273489 0.11540486 -0.15551919 -0.08490868
-0.06412818 -0.16221099 -0.17167383 0.013536145 -0.056079835 -0.086714424 0.18156634 -0.14877939
0.0033979397 0.13149202 -0.15436092 0.036329534 0.054306913 -0.04043792 -0.13090655 0.05466238
0.18974991 -0.07251976 0.05730321 0.1646342 -0.2379976 0.053027913 -0.020006444 -0.014558229
0.02920905 0.022410551 -0.11295952 -0.014099565 -0.0404015 0.024811184 0.16947377 0.11043828
-0.14723825 -0.03323941 -0.088419646 0.10704636 -0.17350122 -0.199133 -0.049088854 0.01142888
-0.15810592 -0.19871122 -0.02654446 -0.14439851 0.11333296 0.15987708 0.09369637 -0.2507592
0.13820885 -0.0014033054 0.05292156 0.16758081 -0.1318246 0.13156204 0.123040795 -0.04134572
-0.006841554 0.23509723 -0.1936481 0.40815282 -0.14251949 -0.047230855 0.059483085 0.022722257
0.046762545 -0.036599703 0.04438761 -0.17528073 -0.11724313 -0.13476466 0.040064614 0.16365878
0.13163333 -0.041879214 -0.1852253 0.13692513 0.01583765 0.22139172 0.030673167 -0.06594531
0.10502856 0.027977692 0.16071466 0.27444166 0.03973492 -0.20902424 -0.13227616 0.07116058
0.058962196 -0.026112467 -0.18952142 0.062824644 -0.17101912 -0.01541085 0.014736705 0.045500856
-0.13644737 0.036556803 0.073180616 -0.0071063386 -0.04970034 0.08980307 -0.08471772 -0.15547179
0.09210951 -0.034030657 0.0021019008 0.14801888 -0.034812678 0.08294537 -0.05960963 0.041090872
-0.037056834 0.1412875 0.24005342 0.0075303027 0.026218863 -0.0010021992 -0.22779799 0.07358341
0.03817871 -0.06625253 0.031999525 0.13818787 -0.02751292 0.020456634 -0.0057942183 -0.22439688
-0.089560926 -0.0928513 0.24526976 0.07885846 0.28247097 -0.08823337 0.09479271 -0.15279679
-0.03188926 0.008124275 0.13867146 -0.06344476 -0.084600136 -0.1216301 -0.046766467 -0.11258344
-0.031584997 0.13464738 -0.024429755 -0.046019588 -0.011948608 0.14569831 -0.06309292 0.043890636
-0.083559155 0.051942468 0.15351893 -0.07284818 0.09507752 0.085132755 -0.053494252 -0.04985098
00000000: 9786 13be 5a95 3bbe 7829 b8bc dbd5 f3bc
00000010: 0e86 633c 9f0b 56bd da29 24be fc5a f8bd
00000020: ca9b 58be 6344 1abd c0ca d33d 235b d93d
00000030: 9a21 733d 05b8 ddbd 5f32 413e 62d1 eebd
00000040: fbb0 f53c 49e6 863c 7161 52bd 44cf 083e
00000050: 9963 b53c 1334 89bd cd1e 46be d299 16bd
00000060: 2b6b 1d3e 851f 3e3e 1176 c83e 00bc c3bc
00000070: 6994 83ba 10d6 5b3c 32d7 32bc 14fa 183e
00000080: 4bc2 2e3e e07c 0d3e 5141 7c3d 1556 d9bd
00000090: c12c 013e 93da 303e 5427 1dbc 24a8 37be
000000a0: 0841 953a 8410 0dbe b9e5 d5ba 0c14 123d
000000b0: 2197 e43d eca7 9dbd e00b 05bd a04e 18be
000000c0: cd21 42be 0a87 d0bd 4c40 e6bd de52 be3d
000000d0: f1de 043c 9c8b 613d 6ef5 463d 8574 2c3e
000000e0: 5020 373d 339d 03be ede4 7dbe 09d7 683d
000000f0: e4ef 8d3d a28c ed3c 3667 113e e3bb 03be
00000100: 7919 19be 23ab 0d3e 1c24 75bd c09d a13e
00000110: 39ab f3bd b35e 2f3d 1ada 003d 04c1 cebd
00000120: 1353 5fbd 1f9d 1a3e 81d9 43be e91d 85be
00000130: 7e20 863b 3924 5abe b3b7 02be acba e2bc
00000140: 4f00 12be 33e3 003e 745f 06be e4e6 213e
00000150: cf3a e7bd cd01 793d 2352 7e3d 2c53 453d
00000160: 5e4b a6bd d058 4cbe 34f3 713d 995e 863d
00000170: 6ae1 303e 6259 ec3d 6c40 1fbe 9ae4 adbd
00000180: a355 83bd a31a 26be 44cb 2fbe b5c6 5d3c
00000190: f8b3 65bd 5597 b1bd 87ec 393e a059 18be
000001a0: f8af 5e3b d8a5 063e ca10 1ebe 47ce 143d
000001b0: ed70 5e3d 3ba2 25bd 5e0c 06be a9e5 5f3d
000001c0: cd4d 423e 3d85 94bd c5b6 6a3d de95 283e
000001d0: a5b5 73be cc33 593d 8ee4 a3bc a385 6ebc
000001e0: d147 ef3c 5596 b73c 5257 e7bd dd01 67bc
000001f0: 0b7c 25bd d340 cb3c 888a 2d3e 772d e23d
00000200: a0c5 16be 0c26 08bd 5c15 b5bd 1f3b db3d
00000210: 4eaa 31be 85e9 4bbe 6511 49bd 3240 3b3c
00000220: 85e6 21be f47a 4bbe c473 d9bc 34dd 13be
00000230: 1c1b e83d d1b6 233e e2e3 bf3d 8363 80be
00000240: 9f86 0d3e 1eef b7ba 47c4 583d 4e9a 2b3e
00000250: 07fd 06be 33b8 063e d0fc fb3d 215a 29bd
00000260: 1d2f e0bb 54bd 703e b04b 46be 68f9 d03e
00000270: a1f0 11be 2475 41bd 89a4 733d 0724 ba3c
00000280: 158a 3f3d 92e9 15bd c8cf 353d cb7c 33be
00000290: 2b1d f0bd bfff 09be cb1a 243d 2b96 273e
000002a0: e3ca 063e 8a89 2bbd b3ab 3dbe 1a36 0c3e
000002b0: f6bd 813c 83b4 623e 4b46 fb3c 560e 87bd
000002c0: 3719 d73d 7931 e53c 6292 243e 9e83 8c3e
000002d0: 15c1 223d 730a 56be 6773 07be a3bc 913d
000002e0: 5882 713d d0e9 d5bc e711 42be 35aa 803d
000002f0: a31f 2fbe ca7d 7cbc 3972 713c 1b5f 3a3d
00000300: dcb8 0bbe 96bc 153d b8df 953d 4adc e8bb
00000310: 9592 4bbd acea b73d 7c80 adbd ff33 1fbe
00000320: e9a3 bc3d bb63 0bbd 0bc0 093b 4392 173e
00000330: bd97 0ebd 43df a93d 3a29 74bd e74e 283d
00000340: e8c8 17bd acad 103e 90d0 753e c2c0 f63b
00000350: f1c8 d63c 3a5c 83ba e043 69be e6b2 963d
00000360: 4761 1c3d 68af 87bd ef11 033d 1f81 0d3e
00000370: c662 e1bc ac94 a73c 6ddd bdbb 4cc8 65be
00000380: b86b b7bd d328 bebd ff27 7b3e 8b80 a13d
00000390: 09a0 903e b2b3 b4bd ae22 c23d c376 1cbe
000003a0: 509e 02bd ae1b 053c e4ff 0d3e 54ef 81bd
000003b0: d642 adbd 3419 f9bd 328e 3fbd 2692 e6bd
000003c0: 455f 01bd 01e1 093e e920 c8bc 097f 3cbd
000003d0: 18c4 43bc f031 153e dc36 81bd abc6 333d
000003e0: 1021 abbd a0c1 543d 1134 1d3e 6d31 95bd
000003f0: 01b8 c23d 155a ae3d ca1c 5bbd 8b30 4cbd

network_body.linear_encoder.seq_layers.0.bias f4 [128]
0.0 0.0 0.0 0.0 0.0 0.0 0.0 0.0
0.0 0.0 0.0 0.0 0.0 0.0 0.0 0.0
0.0 0.0 0.0 0.0 0.0 0.0 0.0 0.0
0.0 0.0 0.0 0.0 0.0 0.0 0.0 0.0
0.0 0.0 0.0 0.0 0.0 0.0 0.0 0.0
0.0 0.0 0.0 0.0 0.0 0.0 0.0 0.0
0.0 0.0 0.0 0.0 0.0 0.0 0.0 0.0
0.0 0.0 0.0 0.0 0.0 0.0 0.0 0.0
0.0 0.0 0.0 0.0 0.0 0.0 0.0 0.0
0.0 0.0 0.0 0.0 0.0 0.0 0.0 0.0
0.0 0.0 0.0 0.0 0.0 0.0 0.0 0.0
0.0 0.0 0.0 0.0 0.0 0.0 0.0 0.0
0.0 0.0 0.0 0.0 0.0 0.0 0.0 0.0
0.0 0.0 0.0 0.0 0.0 0.0 0.0 0.0
0.0 0.0 0.0 0.0 0.0 0.0 0.0 0.0
0.0 0.0 0.0 0.0 0.0 0.0 0.0 0.0
00000000: 0000 0000 0000 0000 0000 0000 0000 0000
00000010: 0000 0000 0000 0000 0000 0000 0000 0000
00000020: 0000 0000 0000 0000 0000 0000 0000 0000
00000030: 0000 0000 0000 0000 0000 0000 0000 0000
00000040: 0000 0000 0000 0000 0000 0000 0000 0000
00000050: 0000 0000 0000 0000 0000 0000 0000 0000
00000060: 0000 0000 0000 0000 0000 0000 0000 0000
00000070: 0000 0000 0000 0000 0000 0000 0000 0000
00000080: 0000 0000 0000 0000 0000 0000 0000 0000
00000090: 0000 0000 0000 0000 0000 0000 0000 0000
000000a0: 0000 0000 0000 0000 0000 0000 0000 0000
000000b0: 0000 0000 0000 0000 0000 0000 0000 0000
000000c0: 0000 0000 0000 0000 0000 0000 0000 0000
000000d0: 0000 0000 0000 0000 0000 0000 0000 0000
000000e0: 0000 0000 0000 0000 0000 0000 0000 0000
000000f0: 0000 0000 0000 0000 0000 0000 0000 0000
00000100: 0000 0000 0000 0000 0000 0000 0000 0000
00000110: 0000 0000 0000 0000 0000 0000 0000 0000
00000120: 0000 0000 0000 0000 0000 0000 0000 0000
00000130: 0000 0000 0000 0000 0000 0000 0000 0000
00000140: 0000 0000 0000 0000 0000 0000 0000 0000
00000150: 0000 0000 0000 0000 0000 0000 0000 0000
00000160: 0000 0000 0000 0000 0000 0000 0000 0000
00000170: 0000 0000 0000 0000 0000 0000 0000 0000
00000180: 0000 0000 0000 0000 0000 0000 0000 0000
00000190: 0000 0000 0000 0000 0000 0000 0000 0000
000001a0: 0000 0000 0000 0000 0000 0000 0000 0000
000001b0: 0000 0000 0000 0000 0000 0000 0000 0000
000001c0: 0000 0000 0000 0000 0000 0000 0000 0000
000001d0: 0000 0000 0000 0000 0000 0000 0000 0000
000001e0: 0000 0000 0000 0000 0000 0000 0000 0000
000001f0: 0000 0000 0000 0000 0000 0000 0000 0000

network_body.linear_encoder.seq_layers.2.weight f4 [128, 128]
-0.11389213 0.021113249 0.07369356 -0.05392967 -0.12835772 -0.044922087 0.020750795 0.1057877
0.0213082 -0.13232064 0.11217002 0.055970613 0.085971154 0.04327814 -0.090510786 -0.024878148
0.023311604 0.14593582 -0.023080427 -0.11599363 0.1300843 -0.09429293 -0.15710858 -0.0066076536
-0.08914778 0.08549125 0.1205856 -0.016910251 -0.08674166 -0.021485202 0.1599585 0.14281672
-0.006065308 0.14869842 0.017017877 -0.027783798 0.019384803 -0.09338181 -0.02099756 -0.13936909
0.061943807 -0.07543137 -0.105206415 0.09930152 -0.028649986 0.0077314684 -0.11405625 -0.0077044894
-0.08650114 0.011286291 0.0791533 0.11082757 0.13064642 -0.0847342 0.018613843 -0.060108766
-0.1305815 -0.015391036 -0.18698859 -0.05407713 -0.14815414 0.017421234 0.114462286 0.076613255
0.079750106 0.022158438 0.026717912 0.06216884 -0.039381173 -0.14403878 -0.045867745 0.026890181
0.052288964 -0.050878026 0.08365542 0.0633865 -0.03289985 -0.098029554 0.061432075 0.029950153
0.061129995 0.010900662 0.09349433 -0.025531173 -0.14602722 0.0947036 0.20015745 0.07436949
0.14828092 -0.030434698 -0.07453454 0.028368903 -0.05033556 -0.074457236 -0.06944367 -0.13601679
-0.004027706 -0.18441315 0.017117541 -0.08462173 0.21116458 0.028362742 0.013709453 -0.06889608
-0.02893302 0.08627436 0.02105026 0.048832074 -0.17228906 -0.07131547 -0.054789897 0.052154563
-0.14758769 0.037322868 0.05335321 -0.09352626 0.015560445 0.065436706 0.17428349 -0.016991027
-0.083787106 0.014568585 0.19103132 -0.14436008 0.06099874 -0.0076784687 -0.021906001 -0.051779184
0.06560043 -0.18242277 0.0007659592 0.03466782 0.01832993 0.14347982 0.20860821 0.025776038
-0.14354253 -0.0394384 -0.04003729 0.004688014 -0.18034254 0.0131043615 -0.048035074 -0.1511877
0.06988451 0.18040988 0.023754682 0.047212146 -0.03939326 -0.023478836 0.06136974 -0.047358837
-0.0068579987 0.1662149 0.028336966 0.15218347 0.03574828 0.017295856 -0.024587143 0.019441456
0.059654705 0.11068365 -0.08192115 -0.012309371 -0.0024061697 -0.09179731 -0.016604507 -0.12197204
0.0041242414 0.13710359 0.058173973 0.11104166 -0.008290674 0.079126865 0.011801838 -0.022757875
-0.04107359 0.013727642 0.03480394 0.10054532 0.046513494 -0.019822994 -0.18238708 0.15717125
0.11280768 -0.050462727 0.05887392 -0.18041751 -0.010580864 -0.017360318 -0.0044747693 -0.20367825
0.17528151 -0.102171496 -0.021875007 -0.21437167 0.007211796 -0.015649294 0.07160663 0.039895307
-0.07786543 0.02033024 0.032083936 0.027528888 0.011402584 -0.11534865 0.011164094 -0.023568325
0.03578943 -0.009981354 -0.0747539 0.16534166 -0.06959582 -0.17304808 -0.11917488 0.11510707
-0.15597107 0.09866171 -0.028747996 0.037808504 -0.07035393 0.11794067 -0.036969375 -0.016535725
-0.07963235 -0.003072959 -0.029623086 -0.014783872 -0.06936185 0.04734044 -0.02622824 0.110638924
-0.13078012 0.010427063 -0.07423327 0.04260668 -0.043907635 -0.01721465 0.08902412 0.093719184
0.05191168 0.091505334 0.0508839 0.10536279 -0.06465935 -0.019568184 0.15311502 -0.040909402
-0.044380672 -0.1044296 0.114243835 -0.08975677 0.12272255 0.05366285 0.01911819 0.17532766
00000000: 4740 e9bd b1f5 ac3c a6ec 963d 5ce5 5cbd
00000010: 3570 03be 3900 38bd 92fd a93c 39a7 d83d
00000020: 898e ae3c 107f 07be 65b9 e53d 7141 653d
00000030: a511 b03d 6b44 313d b85d b9bd 42cd cbbc
00000040: faf7 be3c 3370 153e 2a13 bdbc 118e edbd
00000050: d234 053e a71c c1bd 12e1 20be 0485 d8bb
00000060: 1c93 b6bd 0916 af3d 95f5 f63d 5e87 8abc
00000070: 9da5 b1bd bc01 b0bc 29cc 233e 8c3e 123e
00000080: 7ebf c6bb 6644 183e 1369 8b3c d99a e3bc
00000090: e1cc 9e3c f63e bfbd 1303 acbc c5b6 0ebe
000000a0: cab8 7d3d c37b 9abd 7676 d7bd 985e cb3d
000000b0: 60b3 eabc 4258 fd3b 5396 e9bd f175 fcbb
000000c0: 8227 b1bd 23ea 383c 201b a23d 91f9 e23d
000000d0: 2dc8 053e 2089 adbd 0f7c 983c 9c34 76bd
000000e0: 28b7 05be af2a 7cbc f079 3fbe fb7f 5dbd
000000f0: b8b5 17be fab6 8e3c 346b ea3d 69e7 9c3d
00000100: 0654 a33d 9d85 b53c 86df da3c c1a4 7e3d
00000110: 274e 21bd e77e 13be d1df 3bbd cc48 dc3c
00000120: f42c 563d 7a65 50bd 8853 ab3d c8d0 813d
00000130: fec1 06bd b8c3 c8bd 33a0 7b3d 065a f53c
00000140: 7263 7a3d b198 323c f579 bf3d c026 d1bc
00000150: 2988 15be f6f3 c13d 13f6 4c3e 084f 983d
00000160: f4d6 173e 3052 f9bc 91a5 98bd e765 e83c
00000170: a92c 4ebd 097d 98bd 7c38 8ebd fc47 0bbe
00000180: d9fa 83bb cdd6 3cbe 163a 8c3c 284e adbd
00000190: 873b 583e fb58 e83c 9d9d 603c 6319 8dbd
000001a0: f104 edbc 9db0 b03d 9871 ac3c 2404 483d
000001b0: 8b6c 30be d80d 92bd 5f6b 60bd 06a0 553d
000001c0: 3a21 17be dddf 183d e588 5a3d b28a bfbd
000001d0: 3df1 7e3c ae03 863d 5f77 323e c430 8bbc
000001e0: 9398 abbd 13b1 6e3c b79d 433e 21d3 13be
000001f0: d1d9 793d aa9b fbbb 3774 b3bc 6916 54bd
00000200: 8559 863d 09cd 3abe a7ca 483a d8ff 0d3d
00000210: a628 963c 60ec 123e 649d 553e 4528 d33c
00000220: d0fc 12be 298a 21bd 24fe 23bd e99d 993b
00000230: b7ab 38be adb3 563c 6dc0 44bd f3d0 1abe
00000240: 9c1f 8f3d 5ebd 383e 2e99 c23c 8661 413d
00000250: d45a 21bd b056 c0bc d65e 7b3d 57fb 41bd
00000260: 10b9 e0bb 3d34 2a3e ed22 e83c fcd5 1b3e
00000270: ca6c 123d 0ab0 8d3c fa6a c9bc b043 9f3c
00000280: 7e58 743d 1cae e23d 47c6 a7bd 3ead 49bc
00000290: d4b0 1dbb 3a00 bcbd 2d06 88bc 7acc f9bd
000002a0: a524 873b e264 0c3e d547 6e3d cf69 e33d
000002b0: 9bd5 07bc 440d a23d 7f5c 413c b96e babc
000002c0: c83c 28bd e7e9 603c 948e 0e3d b4ea cd3d
000002d0: ef84 3e3d d563 a2bc aec3 3abe 80f1 203e
000002e0: b707 e73d 01b2 4ebd c825 713d 5ebf 38be
000002f0: 5c5b 2dbc 3a37 8ebc 16a1 92bb 0891 50be
00000300: ff7c 333e 4a3f d1bd 3733 b3bc 3f84 5bbe
00000310: ee50 ec3b f332 80bc 7fa6 923d 4369 233d
00000320: e977 9fbd 9a8b a63c 726a 033d 4384 e13c
00000330: e7d1 3a3c ea3b ecbd 9be9 363c 5c12 c1bc
00000340: f097 123d d588 23bc 9318 99bd 534f 293e
00000350: 4188 8ebd 8433 31be f611 f4bd 41bd eb3d
00000360: e1b6 1fbe 270f ca3d eb80 ebbc 17dd 1a3d
00000370: b915 90bd e18a f13d 336d 17bd ee75 87bc
00000380: 4916 a3bd b263 49bb 1dac f2bc 0e38 72bc
00000390: 960d 8ebd 0de8 413d 9bdc d6bc a996 e23d
000003a0: 39eb 05be 46d6 2a3c 9d07 98bd 5884 2e3d
000003b0: 7ed8 33bd bd05 8dbc 4752 b63d d8ef bf3d
000003c0: 57a1 543d 2667 bb3d a36b 503d 72c8 d73d
000003d0: 1f6c 84bd 754d a0bc 2fca 1c3e 9e90 27bd
000003e0: 82c8 35bd 30df d5bd acf8 e93d 66d2 b7bd
000003f0: f655 fb3d 94cd 5b3d c09d 9c3c 1889 333e

network_body.linear_encoder.seq_layers.2.bias f4 [128]
0.0 0.0 0.0 0.0 0.0 0.0 0.0 0.0
0.0 0.0 0.0 0.0 0.0 0.0 0.0 0.0
0.0 0.0 0.0 0.0 0.0 0.0 0.0 0.0
0.0 0.0 0.0 0.0 0.0 0.0 0.0 0.0
0.0 0.0 0.0 0.0 0.0 0.0 0.0 0.0
0.0 0.0 0.0 0.0 0.0 0.0 0.0 0.0
0.0 0.0 0.0 0.0 0.0 0.0 0.0 0.0
0.0 0.0 0.0 0.0 0.0 0.0 0.0 0.0
0.0 0.0 0.0 0.0 0.0 0.0 0.0 0.0
0.0 0.0 0.0 0.0 0.0 0.0 0.0 0.0
0.0 0.0 0.0 0.0 0.0 0.0 0.0 0.0
0.0 0.0 0.0 0.0 0.0 0.0 0.0 0.0
0.0 0.0 0.0 0.0 0.0 0.0 0.0 0.0
0.0 0.0 0.0 0.0 0.0 0.0 0.0 0.0
0.0 0.0 0.0 0.0 0.0 0.0 0.0 0.0
0.0 0.0 0.0 0.0 0.0 0.0 0.0 0.0
00000000: 0000 0000 0000 0000 0000 0000 0000 0000
00000010: 0000 0000 0000 0000 0000 0000 0000 0000
00000020: 0000 0000 0000 0000 0000 0000 0000 0000
00000030: 0000 0000 0000 0000 0000 0000 0000 0000
00000040: 0000 0000 0000 0000 0000 0000 0000 0000
00000050: 0000 0000 0000 0000 0000 0000 0000 0000
00000060: 0000 0000 0000 0000 0000 0000 0000 0000
00000070: 0000 0000 0000 0000 0000 0000 0000 0000
00000080: 0000 0000 0000 0000 0000 0000 0000 0000
00000090: 0000 0000 0000 0000 0000 0000 0000 0000
000000a0: 0000 0000 0000 0000 0000 0000 0000 0000
000000b0: 0000 0000 0000 0000 0000 0000 0000 0000
000000c0: 0000 0000 0000 0000 0000 0000 0000 0000
000000d0: 0000 0000 0000 0000 0000 0000 0000 0000
000000e0: 0000 0000 0000 0000 0000 0000 0000 0000
000000f0: 0000 0000 0000 0000 0000 0000 0000 0000
00000100: 0000 0000 0000 0000 0000 0000 0000 0000
00000110: 0000 0000 0000 0000 0000 0000 0000 0000
00000120: 0000 0000 0000 0000 0000 0000 0000 0000
00000130: 0000 0000 0000 0000 0000 0000 0000 0000
00000140: 0000 0000 0000 0000 0000 0000 0000 0000
00000150: 0000 0000 0000 0000 0000 0000 0000 0000
00000160: 0000 0000 0000 0000 0000 0000 0000 0000
00000170: 0000 0000 0000 0000 0000 0000 0000 0000
00000180: 0000 0000 0000 0000 0000 0000 0000 0000
00000190: 0000 0000 0000 0000 0000 0000 0000 0000
000001a0: 0000 0000 0000 0000 0000 0000 0000 0000
000001b0: 0000 0000 0000 0000 0000 0000 0000 0000
000001c0: 0000 0000 0000 0000 0000 0000 0000 0000
000001d0: 0000 0000 0000 0000 0000 0000 0000 0000
000001e0: 0000 0000 0000 0000 0000 0000 0000 0000
000001f0: 0000 0000 0000 0000 0000 0000 0000 0000

action_model._discrete_distribution.branches.0.weight f4 [11, 128]
-0.012515825 0.01564883 -0.010550857 0.008281122 -0.0070828013 0.013412003 0.0027287514 -0.020256137
0.0035533071 0.010333874 -0.0018681603 0.007219477 0.0005688443 0.0039612213 0.00693714 0.002090845
0.01042319 0.0069972426 0.006290766 0.0050983895 0.0018674795 -0.001019881 -0.0012059784 -0.0055524185
-0.0022134145 -0.0010742884 0.0016383618 0.0015602012 0.000632704 -0.0053566284 0.0011812878 0.0143981455
-0.0050029787 0.007292052 0.008417725 -0.005119639 -0.007467486 0.011343486 -0.0011784786 0.0125559885
-0.017439028 0.00468664 -0.005872171 0.011078338 -0.006912801 -0.0037683758 0.0133746285 0.01513601
-0.008593726 0.02013626 0.0039399867 -0.003554935 0.013664663 0.0023359128 0.0037011958 -0.011330585
-0.0023168987 0.012799132 0.0040463693 -0.011111729 -0.01470453 0.0058557927 0.0005308977 -0.0019724783
0.01504671 0.0006038447 0.0073967264 0.010874463 -0.0038659442 -0.00687078 0.016047126 -0.0043546683
-0.00014714348 0.014054666 -0.0063310848 0.014757933 -0.00040637638 -0.010220966 0.00805784 -0.012398931
-0.002088838 -0.004337969 0.008433648 0.0012728021 0.010761318 -0.0041670455 0.005637715 -0.017884212
-7.078163e-05 -0.0017273317 0.004157312 0.009754588 0.010708082 0.00937903 0.01834195 -0.012941018
0.0018283388 0.00094781956 -0.0064042355 -0.009114019 0.00812418 -0.0016483663 -0.00085643254 -0.021729043
-0.013353269 0.0019220399 0.0016734902 0.011885503 0.0063082105 -0.009241301 -0.004360282 -0.001638287
0.01189044 0.0126687875 0.00063516863 0.008536758 -0.01101681 -0.0072064484 -0.00077375415 -0.0014887357
-0.003628095 -0.0024026027 0.0050017755 -0.019472938 0.0033428308 -0.010246628 -0.0067825653 -0.005287765
0.001167836 -0.002464734 -0.01577721 0.013883213 -0.0037624252 -0.0040305066 -0.0009327661 0.015136982
0.004435434 -0.00097138446 0.00259573 -0.006984127 -0.0016323105 -0.011410375 -0.008155677 0.004085773
-0.01534653 -0.0017996797 0.0003379157 -0.006349639 0.013568058 -0.00030743776 -0.011258461 -0.0062894747
-0.00042835 -0.0012784583 -0.017825346 0.0013034575 -0.006992295 4.458183e-05 -0.014040098 0.0060149753
-0.024714392 -0.004319611 -0.00010958616 0.0009003258 -0.009688055 0.0022205268 -0.006305302 -0.026073396
-0.0060296445 -0.015045597 -0.0008345468 -0.015463628 -0.007969863 -0.008348507 0.014393674 0.0075946017
-0.01020595 0.00511962 -0.00087885413 0.0023844948 -0.0086483685 0.0053969314 -0.009552083 0.006995658
-0.01898964 -0.002217489 -0.0107012335 -0.006482103 0.0007083929 0.009444284 -0.012098612 -0.015846819
-0.00950865 0.002257498 0.0014700738 0.00046582255 0.00087105774 0.009783398 -0.0027053575 -0.007827206
0.0043774005 -0.008769036 0.0074877525 -0.012429902 0.005222031 -0.0016273434 -0.002037071 0.003820341
0.0059594978 0.016952075 -0.004189649 0.0014894655 0.015822744 -0.009003603 0.012279249 -0.006807199
-0.004721131 0.0058602975 0.0022563287 0.013366896 0.00064418605 0.0029961166 0.01292983 -2.3636292e-06
0.0004047188 0.0027253588 0.0065564327 0.006619133 -0.0022467372 0.015754428 -0.011926561 -0.019764882
-0.002033072 0.0044528805 -0.016631182 -0.015455687 0.012407811 0.00703734 -0.007716119 -5.6281046e-05
0.004920663 -0.003254094 0.0011787714 0.010069837 -0.0071493047 0.020762667 -0.0038176593 -0.005139089
-0.000636602 -0.0003756752 -0.011170845 -0.018722039 0.00052554865 -0.0030112262 -0.0028522222 -0.018483963
00000000: 2d0f 4dbc fa31 803c 80dd 2cbc 8bad 073c
00000010: d816 e8bb 05be 5b3c dad4 323b 33f0 a5bc
00000020: 9ade 683b 694f 293c 0fdd f4ba 5d91 ec3b
00000030: 7f1e 153a 22cd 813b f350 e33b 8f06 093b
00000040: 07c6 2a3c 2049 e53b c522 ce3b 6410 a73b
00000050: 37c6 f43a 87ad 85ba ec11 9eba 10f1 b5bb
00000060: ef0e 11bb 23cf 8cba 4dbe d63a aa7f cc3a
00000070: 0cdc 253a a886 afbb 71d5 9a3a 33e6 6b3c
00000080: 07f0 a3bb 2af2 ee3b 7fea 093c a5c2 a7bb
00000090: d0b1 f4bb 07da 393c 2e77 9aba a2b7 4d3c
000000a0: 4bdc 8ebc 6392 993b 576b c0bb eb81 353c
000000b0: c784 e2bb dbf6 76bb 4221 5b3c 07fd 773c
000000c0: b3cc 0cbc ccf4 a43c 011b 813b eaf9 68bb
000000d0: c0e1 5f3c 1d16 193b c38f 723b eba3 39bc
000000e0: 1cd7 17bb 73b3 513c 6897 843b f80d 36bc
000000f0: 45eb 70bc f3e1 bf3b f12b 0b3a b244 01bb
00000100: 7a86 763c 554b 1e3a 3d60 f23b ce2a 323c
00000110: c85b 7dbb 4824 e1bb 4375 833c 9bb1 8ebb
00000120: 874a 1ab9 8b45 663c fd74 cfbb 42cb 713c
00000130: ea0e d5b9 d775 27bc 0805 043c e324 4bbc
00000140: e3e4 08bb 8525 8ebb 492d 0a3c 27d4 a63a
00000150: 3d50 303c b68b 88bb 95bc b83b e981 92bc
00000160: 9970 94b8 a267 e2ba 103a 883b b5d1 1f3c
00000170: f370 2f3c 81aa 193c db41 963c 9006 54bc
00000180: dfa4 ef3a 1877 783a 9fda d1bb f752 15bc
00000190: 481b 053c ff0d d8ba 3782 60ba 1b01 b2bc
000001a0: abc7 5abc f5ec fb3a 0359 db3a 6abb 423c
000001b0: 1bb5 ce3b d368 17bc b2e0 8ebb cabb d6ba
000001c0: 1fd0 423c bf90 4f3c 7281 263a c2dd 0b3c
000001d0: da7f 34bc 1224 ecbb c3d5 4aba ae21 c3ba
000001e0: 55c5 6dbb fc74 1dbb efe5 a33b b685 9fbc
000001f0: 6513 5b3b 79e1 27bc 4840 debb fd44 adbb
00000200: 1312 993a 6087 21bb 353f 81bc 6a76 633c
00000210: 0593 76bb 5712 84bb e084 74ba 1b01 783c
00000220: 1e57 913b 82a4 7eba 1f1d 2a3b 1bdb e4bb
00000230: 40f3 d5ba 95f2 3abc 639f 05bc f3e1 853b
00000240: 0370 7bbc 3be3 ebba 472a b139 a210 d0bb
00000250: 8f4c 5e3c 992f a1b9 6875 38bc f017 cebb
00000260: 2a94 e0b9 f191 a7ba 7606 92bc c7d8 aa3a
00000270: 9f1f e5bb 60fd 3a38 7008 66bc 4519 c53b
00000280: d675 cabc 868b 8dbb 9fd1 e5b8 d703 6c3a
00000290: a6ba 1ebc 4286 113b b59c cebb e097 d5bc
000002a0: 5394 c5bb cf81 76bc 7dc5 5aba 285b 7dbc
000002b0: 0794 02bc 2dc8 08bc 72d3 6b3c 23dc f83b
000002c0: db36 27bc 7cc2 a73b e762 66ba 2f45 1c3b
000002d0: e3b1 0dbc bed8 b03b 5780 1cbc d53b e53b
000002e0: 2990 9bbc 4b53 11bb 3a54 2fbc d267 d4bb
000002f0: 71b3 393a 33bc 1a3c 4239 46bc 30d1 81bc
00000300: 2bca 1bbc 88f2 133b 7eaf c03a a539 f439
00000310: b257 643a 8c4a 203c 5e4c 31bb ae3d 00bc
00000320: 4c70 8f3b 01ac 0fbc d25b f53b caa6 4bbc
00000330: 921d ab3b 954c d5ba 6180 05bb b05e 7a3b
00000340: e447 c33b 14df 8a3c 5349 89bb 2b3a c33a
00000350: b39e 813c d983 13bc e72e 493c ed0e dfbb
00000360: b8b3 9abb bd07 c03b eade 133b d300 5b3c
00000370: 98de 283a 7f5a 443b a3d7 533c d79e 1eb6
00000380: 7030 d439 ef9b 323b 58d7 d63b 50e5 d83b
00000390: ff3d 13bb 6e0f 813c 9f67 43bc f6e9 a1bc
000003a0: 4a3d 05bb 78e9 913b 1e3e 88bc da39 7dbc
000003b0: 224a 4b3c 7d99 e63b 7fd7 fcbb 500f 6cb8
000003c0: 833d a13b a342 55bb 0181 9a3a f5fb 243c
000003d0: b744 eabb 7816 aa3c b231 7abb ce65 a8bb
000003e0: a3e1 26ba 46f6 c4b9 eb05 37bc f65e 99bc
000003f0: f9c4 093a fe57 45bb 59ec 3abb ae6b 97bc

action_model._discrete_distribution.branches.0.bias f4 [11]
0.0 0.0 0.0 0.0 0.0 0.0 0.0 0.0
0.0 0.0 0.0
00000000: 0000 0000 0000 0000 0000 0000 0000 0000
00000010: 0000 0000 0000 0000 0000 0000 0000 0000
00000020: 0000 0000 0000 0000 0000 0000

action_model._discrete_distribution.branches.1.weight f4 [29, 128]
-0.0010029967 -0.004653816 0.00019711924 0.0070928037 -0.00102565 0.008031509 -0.0023162367 0.012591444
0.008904363 0.0080442345 0.0027295116 0.0087201055 -0.007008519 -0.011167482 0.010737392 0.009604479
-0.0029783803 0.004903269 -0.0050791726 -0.011336162 0.0060277064 0.0010950709 -0.0010624429 -0.008793953
-0.0010115502 -0.014561801 -0.004442044 0.013667951 0.0030925148 0.024666289 -0.007775744 0.005995515
0.01785977 0.0037341085 -0.010242379 -0.008334051 0.0055593364 -0.008377488 -0.012504912 0.003998188
0.00696352 0.011143338 -0.00808253 0.001564105 -0.013476148 -0.00776952 -0.004187499 -0.0028656728
0.005927072 -0.008292762 0.005456166 0.0030487028 -0.0053227125 0.0021576372 0.00085468584 -0.005076402
0.000304339 -8.978455e-05 0.00058140216 -0.004855186 -0.011972765 -0.0028937878 0.0022062426 -0.015030081
0.0026008596 0.0051098256 0.0021142354 -0.007343703 -0.0019521521 -0.00972652 0.006959648 -0.013583918
-0.0008603629 0.011069765 -0.0006470516 -0.0071278973 -0.0007521481 0.005000944 0.0014178134 0.0079594655
0.020618116 -0.0114128785 0.0037076182 -0.00716377 0.011949318 0.00855933 -0.0124580385 0.018801123
-0.0026726704 -0.0025689907 0.007519809 -0.00550427 0.0044949753 -0.009999349 0.010626502 -0.0006202282
0.0034883954 0.001375319 -0.017393727 0.0018744478 -0.005752768 -0.012814245 0.008198612 -0.010991194
-0.012116714 0.0027251474 -0.00037182725 -0.006432136 -0.0019207167 0.0026363328 0.0143417595 0.0115745645
-0.0003473861 -0.006487224 -0.011189341 6.637506e-07 -0.012419747 0.0063533285 0.0069813803 0.0094568245
2.5432591e-05 0.00033696202 0.01414852 0.0087734815 0.0016793896 -0.0034788742 -0.014051454 0.010974535
-0.015612218 -0.0008939961 0.014163529 0.013926436 0.0014520175 0.00083316996 -0.0014761067 0.0042028236
-0.011478127 -0.0050330474 -0.012618075 -0.019100491 -0.009242791 -0.0129288975 -0.005920436 0.012712556
-0.0046927636 -0.009237034 -0.009860147 0.0004493984 0.006699711 0.004586963 -0.0030309546 -0.0026046147
-0.014667082 0.008790676 0.0062416904 -0.00562077 -0.005941298 -0.010077191 -0.010710113 0.000116134426
-0.00074840564 -0.006590257 -0.0073045986 0.0047407206 0.003726023 0.015685536 0.005153324 0.007937071
0.01223344 -0.0021446904 0.018808674 0.0049050176 -0.0006440516 0.011115998 0.0053191013 -0.008948955
-0.002462076 0.0014219816 0.014954758 -0.015392912 -0.00412473 -0.011363498 0.0032189195 -0.017240828
-0.002983513 -0.0057530385 0.0013191127 0.011478673 0.016518591 -0.011316495 -0.016999507 -2.565537e-05
-0.003844648 -0.00076080405 -0.007453008 -0.010356621 -0.014586895 0.0013710397 -0.018383525 -0.0015391826
0.0014727445 -0.011586742 -0.0063247494 -0.004613297 0.0052849525 -0.023732126 0.0071121417 -0.00052248075
-0.006938403 -0.0068034367 -0.0071119475 0.0055292957 0.0052819937 -0.0064915107 0.010700767 -0.008198545
-0.0011060578 -0.0017161412 0.006436472 0.013443959 0.019196743 0.012635549 0.0079732565 -0.0016070016
0.0021327117 -0.0034417901 0.0031530485 -0.00923448 -0.0043352433 0.008068391 0.0053332373 -0.00953441
-0.00065343356 -0.0051328125 -0.0011338595 -0.008854994 0.003967242 0.010749927 0.0038698413 0.0011049485
-0.01005998 0.0020299044 0.0010352044 0.00021125961 -0.00015411958 -0.004117032 0.0052098217 -0.007372632
0.015392097 -0.0022928065 -0.0012549206 -0.007014165 0.001569327 0.0029618165 0.012987758 0.006937351
00000000: fc76 83ba 0a7f 98bb cbb1 4e39 c06a e83b
00000010: 1a6f 86ba 9796 033c 01cc 17bb 584c 4e3c
00000020: 9be3 113c f7cb 033c 9be1 323b c6de 0e3c
00000030: b8a7 e5bb d0f7 36bc e3eb 2f3c 1b5c 1d3c
00000040: ee30 43bb 9aab a03b 306f a6bb 4fbb 39bc
00000050: 1184 c53b 7b88 8f3a ab41 8bba 8314 10bc
00000060: fe95 84ba 9f94 6ebc 918e 91bb 8bef 5f3c
00000070: caab 4a3b f510 ca3c abcb febb 0676 c43b
00000080: a74e 923c f2b7 743b a7cf 27bc 8b8b 08bc
00000090: 182b b63b bb41 09bc 67e1 4cbc 3b03 833b
000000a0: 3d2e e43b 8c92 363c 976c 04bc a802 cd3a
000000b0: 10cb 5cbc 7597 febb 4a37 89bb 03ce 3bbb
000000c0: e237 c23b 5dde 07bc a3c9 b23b bfcc 473b
000000d0: 266a aebb 2567 0d3b ff0c 603a f257 a6bb
000000e0: b08f 9f39 b74a bcb8 3d69 183a 4118 9fbb
000000f0: 6b29 44bc b4a5 3dbb 9c96 103b bb40 76bc
00000100: 2f73 2a3b 5370 a73b fc8e 0a3b 72a3 f0bb
00000110: 5bdf ffba fb5b 1fbc c20d e43b 158f 5ebc
00000120: fa89 61ba f65d 353c e69e 29ba 2391 e9bb
00000130: ce2b 45ba f5de a33b ecd5 b93a 6b68 023c
00000140: 53e7 a83c 15fd 3abc 83fb 723b 0fbe eabb
00000150: 13c7 433c 6f3c 0c3c cd1c 4cbc d004 9a3c
00000160: f827 2fbb 835c 28bb bb68 f63b 2a5d b4bb
00000170: 964a 933b 4fd4 23bc c81a 2e3c cf96 22ba
00000180: 909d 643b 0c44 b43a 4a7d 8ebc 08b0 f53a
00000190: b781 bcbb d7f2 51bc 7953 063c 6914 34bc
000001a0: 2f85 46bc 6398 323b cff1 c2b9 abc4 d2bb
000001b0: 8fc0 fbba 53c6 2c3b b3f9 6a3c 3ea3 3d3c
000001c0: 6021 b6b9 c792 d4bb 7f53 37bc 982c 3235
000001d0: 327c 4bbc 952f d03b 10c4 e43b ccf0 1a3c
000001e0: 1358 d537 47aa b039 32cf 673c a6be 0f3c
000001f0: f71e dc3a d3fd 63bb 1238 66bc 89ce 333c
00000200: 63ca 7fbc 105b 6aba 250e 683c b52b 643c
00000210: 9f51 be3a 1769 5a3a ec79 c1ba d7b7 893b
00000220: c10e 3cbc 43ec a4bb 0bbc 4ebc a278 9cbc
00000230: 136f 17bc bad3 53bc 3700 c2bb 5348 503c
00000240: c1c5 99bb ee56 17bc 748c 21bc 3b9d eb39
00000250: 4089 db3b 3c4e 963b fba2 46bb 2fb2 2abb
00000260: 334e 70bc c406 103c 1887 cc3b 702e b8bb
00000270: 38af c2bb cd1a 25bc 7879 2fbc 328d f338
00000280: a730 44ba 15f3 d7bb 6a5b efbb 0c58 9b3b
00000290: 4b30 743b f47e 803c 37dd a83b 7d0a 023c
000002a0: c46e 483c ef8d 0cbb a614 9a3c 45ba a03b
000002b0: 92d5 28ba e01f 363c db4b ae3b a39e 12bc
000002c0: c85a 21bb c961 ba3a cd04 753c 8d32 7cbc
000002d0: be28 87bb f72d 3abc 82f4 523b a33c 8dbc
000002e0: 0b87 43bb fc83 bcbb 14e6 ac3a 0b11 3c3c
000002f0: ff51 873c d268 39bc 8d42 8bbc 7d36 d7b7
00000300: 7df6 7bbb b270 47ba 5d38 f4bb d1ae 29bc
00000310: dffd 6ebc 75b4 b33a 0c99 96bc 66be c9ba
00000320: 1b09 c13a 51d6 3dbc d83f cfbb 242b 97bb
00000330: 652d ad3b e069 c2bc f80c e93b 17f7 08ba
00000340: 8b5b e3bb 5def debb 570b e9bb 182f b53b
00000350: 9314 ad3b bdb6 d4bb 4552 2f3c 3153 06bc
00000360: 24f9 90ba 25f0 e0ba 0ae9 d23b 0d44 5c3c
00000370: 7d42 9d3c 5505 4f3c 43a2 023c 07a2 d2ba
00000380: f7c4 0b3b a88f 61bb 60a3 4e3b 374c 17bc
00000390: a80e 8ebb 4931 043c 70c2 ae3b 3736 1cbc
000003a0: 2f4b 2bba 2731 a8bb 039e 94ba 8914 11bc
000003b0: a3ff 813b 7620 303c 2a9d 7d3b ebd3 903a
000003c0: 9dd2 24bc 2508 053b b2af 873a 9285 5d39
000003d0: 299b 21b9 2be8 86bb 27b7 aa3b 1f96 f1bb
000003e0: 222f 7c3c e942 16bb 267c a4ba 15d7 e5bb
000003f0: e0b1 cd3a 091b 423b 9bca 543c b852 e33b

action_model._discrete_distribution.branches.1.bias f4 [29]
0.0 0.0 0.0 0.0 0.0 0.0 0.0 0.0
0.0 0.0 0.0 0.0 0.0 0.0 0.0 0.0
0.0 0.0 0.0 0.0 0.0 0.0 0.0 0.0
0.0 0.0 0.0 0.0 0.0
00000000: 0000 0000 0000 0000 0000 0000 0000 0000
00000010: 0000 0000 0000 0000 0000 0000 0000 0000
00000020: 0000 0000 0000 0000 0000 0000 0000 0000
00000030: 0000 0000 0000 0000 0000 0000 0000 0000
00000040: 0000 0000 0000 0000 0000 0000 0000 0000
00000050: 0000 0000 0000 0000 0000 0000 0000 0000
00000060: 0000 0000 0000 0000 0000 0000 0000 0000
00000070: 0000 0000

action_model._discrete_distribution.branches.2.weight f4 [29, 128]
-0.00070488476 -0.007913209 0.010867312 0.007142335 -0.0014703708 0.010299441 -0.0024122864 0.0077116243
-0.015433088 0.011874675 -0.0039453963 -0.006502259 0.016699422 0.007745251 -0.009503007 0.0059137205
0.0029169344 -0.0006667504 0.026450558 0.010187208 -0.0013500099 -0.004387512 0.00958589 0.0009549614
-0.0070041413 -0.0079299435 0.01096543 -0.0076431 0.0061970144 0.020333674 0.000405968 0.008458551
0.008292207 0.015997676 0.009091702 0.014046246 -0.0035779595 -0.028387502 -0.0015173288 0.009727729
0.004057778 -0.013843973 -0.0069062165 -0.0033701428 -0.010549227 0.015810745 -0.0006535515 0.0072766095
0.008582253 -0.005490705 -0.003217725 0.00617839 0.0028351925 0.019163987 -0.0059302477 -0.008905365
0.0039084307 -0.006186084 0.005257362 0.0035187285 0.005300862 0.010724093 0.0019836468 -0.008204023
0.002388841 0.0036734666 -0.003440365 0.00046349023 -0.017821817 -0.0058242776 0.009530445 -0.007603779
0.00647633 0.0134553835 -0.009149517 0.003888619 0.0043454147 -0.003470589 0.0024688232 0.00076855597
-0.0034342692 -0.0077525075 -0.0008712622 -0.007212279 0.0075169983 -0.0058236415 0.005440499 -0.004822501
0.0005462733 0.0014479057 0.0049350634 -0.008634622 0.0028125017 -0.0014088966 -0.002654679 -0.014633662
-0.014154561 0.0060892934 -0.0047834734 -0.001891278 -0.014950993 0.0008870765 -0.009249012 0.00016411081
0.0020620287 0.03330827 -0.00080244103 -0.010180234 -0.013228277 -9.8246164e-05 -0.019353334 0.0028221295
0.005110908 -0.008574131 0.0015839332 -0.009252966 -0.010355308 -0.0020108235 -0.01883341 -0.00015470419
0.0050077876 -0.004008865 -0.007629429 -0.00160707 -0.00066127104 -0.008463403 0.014143704 0.0042899153
-0.015467039 6.5181666e-05 -0.004698378 0.0026546845 0.009559452 -0.007950731 0.0013303345 0.010316074
-0.00959101 -0.0016999776 0.0032446587 -0.0047961003 -0.015088886 0.016189616 0.0071962588 -0.014122619
-0.0028640165 0.0062930644 -0.005228029 0.000574574 -0.004737321 -0.007887826 0.0071488195 -0.014912004
0.01258479 -0.013147356 -0.00620154 -0.0015192395 -0.014144256 0.016584586 -0.00958728 0.0108488705
0.0025466715 -0.0074344487 -0.00069495983 -0.0028953438 -0.0005834971 -0.005871543 0.005685974 -0.0027085978
-0.006091417 0.0035721646 -0.00575285 -0.0052937465 -0.00031374625 -0.0027491204 0.008825931 -0.008890658
-0.0012274815 0.010626347 -0.0071852445 -0.01808728 -0.0048541725 -0.007007781 0.014086519 -0.0054826024
0.01389976 -0.008877642 -0.0032754194 -0.005257673 8.073158e-05 -0.0021621862 -0.004916257 -0.010712306
0.0056230756 0.005093377 -0.01169096 -0.010133124 -0.010248828 -0.0027726889 -0.0069360407 -0.008755564
0.002127335 0.017914189 0.0029906044 0.00016547325 -0.00030945556 -0.004892831 0.0048889895 -0.008446153
-0.0010780239 -0.0037445673 -0.0034648057 -0.011076198 -0.00682078 -0.0065519027 0.002423984 -0.0014815413
-0.013348745 0.008254453 0.0054715537 -0.0043203193 -3.587329e-05 0.0032010942 0.0031789818 -0.0070003397
-0.0034688716 0.005950874 0.0012565871 -0.010195159 0.008699886 -0.007920245 -0.010826799 0.005941843
0.015472384 -0.004279187 0.014442779 0.0148512125 0.00064126373 0.00338227 0.013329307 0.0049555534
-0.0058065876 -0.013459364 0.0009106899 -0.007453393 0.0008898993 -0.0005144327 -0.00652972 0.0055947155
0.010830416 -0.002705206 -0.01692929 -0.0012453219 0.00046411852 0.00030614293 0.007682839 -0.00048919354
00000000: 04c8 38ba 67a6 01bc cf0c 323c 400a ea3b
00000010: 75b9 c0ba fdbe 283c 7317 1ebb cbb1 fc3b
00000020: 10db 7cbc ff8d 423c 6248 81bb e710 d5bb
00000030: 3acd 883c e0cb fd3b 80b2 1bbc e2c7 c13b
00000040: 0a2a 3f3b ddc8 2eba d7ae d83c 3fe8 263c
00000050: d1f2 b0ba 1ec5 8fbb 230e 1d3c 6056 7a3a
00000060: ff82 e5bb 98ec 01bc 59a8 333c f872 fabb
00000070: 5310 cb3b ce92 a63c 1ad8 d439 bc95 0a3c
00000080: 09dc 073c 8f0d 833c 5df5 143c 3a22 663c
00000090: 337c 6abb e88c e8bc 1be1 c6ba 0d61 1f3c
000000a0: 1cf7 843b d5d1 62bc 8b4d e2bb 9ddd 5cbb
000000b0: aad6 2cbc 8985 813c 1953 2bba a070 ee3b
000000c0: 949c 0c3c 5feb b3bb 78e0 52bb 1774 ca3b
000000d0: a3ce 393b cbfd 9c3c 8652 c2bb cfe7 11bc
000000e0: 4b12 803b a2b4 cabb f345 ac3b 789a 663b
000000f0: dab2 ad3b 1bb4 2f3c 1200 023b 2b6a 06bc
00000100: 1a8e 1c3b 8bbe 703b bf77 61bb 9b00 f339
00000110: 0fff 91bc 95d9 bebb 9525 1c3c 1f29 f9bb
00000120: 6537 d43b f873 5c3c dbe7 15bc 33d8 7e3b
00000130: fb63 8e3b d272 63bb fbcb 213b eb78 493a
00000140: 7a11 61bb bf08 febb 6b65 64ba fb54 ecbb
00000150: 2751 f63b 3fd4 bebb 3746 b23b 1206 9ebb
00000160: c833 0f3a a7c7 bd3a 50b6 a13b 3b78 0dbc
00000170: f351 383b baaa b8ba 1ffa 2dbb 07c2 6fbc
00000180: 88e8 67bc b288 c73b afbe 9cbb c2e4 f7ba
00000190: 02f5 74bc b28a 683a 2b89 17bc 2915 2c39
000001a0: 1a23 073b 416e 083d e85a 52ba ffca 26bc
000001b0: 6abb 58bc 8209 ceb8 e28a 9ebc 7af3 383b
000001c0: 6779 a73b 837a 0cbc fb9b cf3a c199 17bc
000001d0: 4fa9 29bc 05c8 03bb 8648 9abc 1738 22b9
000001e0: 5e18 a43b cc5c 83bb 4a00 fabb 52a4 d2ba
000001f0: 2659 2dba 16aa 0abc ffba 673c 6b92 8c3b
00000200: 7769 7dbc 24b2 8838 daf4 99bb 37fa 2d3b
00000210: 3f9f 1c3c c843 02bc 9e5e ae3a c004 293c
00000220: 9d23 1dbc c8d1 deba 57a4 543b 9b28 9dbb
00000230: 6037 77bc 16a0 843c 98ce eb3b 8f62 67bc
00000240: 39b2 3bbb 0d36 ce3b e34f abbb 029f 163a
00000250: 873b 9bbb f13b 01bc a540 ea3b 7a51 74bc
00000260: 6f30 4e3c 0268 57bc 4a36 cbbb 3821 c7ba
00000270: 4fbd 67bc 66dc 873c f813 1dbc 76bf 313c
00000280: 0fe6 263b ad9c f3bb f72d 36ba cfbf 3dbb
00000290: d4f5 18ba 1366 c0bb 6851 ba3b bb82 31bb
000002a0: 829a c7bb fa1a 6a3b 6782 bcbb 2a77 adbb
000002b0: 4f7e a4b9 962a 34bb a39a 103c 1faa 11bc
000002c0: 72e3 a0ba 211a 2e3c 3372 ebbb c72b 94bc
000002d0: c00f 9fbb 87a1 e5bb 25cb 663c 67a7 b3bb
000002e0: d2bb 633c 8873 11bc 6ba8 56bb 8f48 acbb
000002f0: 704e a938 77b3 0dbb 8e18 a1bb ab82 2fbc
00000300: c741 b83b 58e6 a63b 718b 3fbc 6705 26bc
00000310: b3ea 27bc 00b6 35bb ba47 e3bb 7f73 0fbc
00000320: c26a 0b3b c7c0 923c 04fe 433b e382 2d39
00000330: 6c3e a2b9 0b54 a0bb d133 a03b bc61 0abc
00000340: 7b4c 8dba 6a67 75bb cb11 63bb f178 35bc
00000350: da80 dfbb 58b1 d6bb b4db 1e3b 4730 c2ba
00000360: b2b4 5abc af3d 073c b84a b33b 7791 8dbb
00000370: a776 16b8 73c9 513b 7756 503b 1b63 e5bb
00000380: 0256 63bb 8dff c23b 11b4 a43a 9909 27bc
00000390: f789 0e3c eac3 01bc e362 31bc cbb3 c23b
000003a0: e27f 7d3c 6c38 8cbb 68a1 6c3c 8052 733c
000003b0: 7b1a 283a 13a9 5d3b 2a63 5a3c 3262 a23b
000003c0: 3045 bebb aa84 5cbc 5dbb 6e3a 983b f4bb
000003d0: 2248 693a feda 06ba 43f7 d5bb e053 b73b
000003e0: 0f72 313c d349 31bb 4baf 8abc 123a a3ba
000003f0: ef54 f339 cf81 a039 53c0 fb3b 393d 00ba

action_model._discrete_distribution.branches.2.bias f4 [29]
0.0 0.0 0.0 0.0 0.0 0.0 0.0 0.0
0.0 0.0 0.0 0.0 0.0 0.0 0.0 0.0
0.0 0.0 0.0 0.0 0.0 0.0 0.0 0.0
0.0 0.0 0.0 0.0 0.0
00000000: 0000 0000 0000 0000 0000 0000 0000 0000
00000010: 0000 0000 0000 0000 0000 0000 0000 0000
00000020: 0000 0000 0000 0000 0000 0000 0000 0000
00000030: 0000 0000 0000 0000 0000 0000 0000 0000
00000040: 0000 0000 0000 0000 0000 0000 0000 0000
00000050: 0000 0000 0000 0000 0000 0000 0000 0000
00000060: 0000 0000 0000 0000 0000 0000 0000 0000
00000070: 0000 0000

action_model._discrete_distribution.branches.3.weight f4 [9, 128]
-0.0032630998 -0.0129516665 0.023799507 0.0021018104 -0.0007678498 -0.009006369 0.002577448 0.00022707526
0.0032595731 0.00020815172 0.0026414183 0.012611455 -0.018030448 0.0031494673 0.004853711 -0.010171153
0.0046158913 -0.0027406304 0.0018270815 0.0067594233 -0.0097097205 0.0070181587 -0.004067834 0.012650974
0.0113308355 0.016730977 0.016514875 -0.011847978 0.0044236756 0.009253383 0.002878553 0.0083931945
0.0018930364 0.006092069 -0.0070353053 -0.0122735435 0.00234711 -0.0030030154 -0.0006049983 -0.009495822
-0.008702286 -0.0094778985 0.0014651075 0.008308061 -0.010598813 0.0053793276 0.0049215313 -0.005606763
-0.0100748455 -0.0016558127 -0.002830636 -0.008133894 -0.017015427 -0.011357053 -0.010693343 0.0032032628
-0.01257741 0.015909491 -0.01528166 -0.00033875435 -0.025920141 -0.0070237867 0.011702071 -0.0013414178
0.012587465 -0.008277557 0.00097200955 0.0018127877 -0.0062546195 -0.0017445848 0.013586317 0.026038393
0.00848338 -0.011754624 0.011206068 -0.0024412682 0.018758371 0.0023998397 -0.010469486 0.00027704256
0.011888607 -0.005891838 -0.01671774 -0.0007811957 -0.009397137 -0.0038593304 -0.0061070477 0.0017252688
0.006001577 -0.0030287649 -0.014973113 0.00097321294 0.0028862467 -0.0022929464 -0.007849493 0.0029192695
-0.0035380875 -0.008225432 -0.0017626226 -0.0017395894 -0.00230888 -0.01200406 0.0005245494 0.006458103
0.011993164 0.018197667 -0.0025642314 -0.0012011746 -0.008962961 0.019556003 -0.016432108 -0.015788844
-0.005011191 -0.013046021 0.007292052 0.020754494 -0.017172141 0.0036398564 -0.0036419493 0.008724535
0.002141204 0.021273447 0.007308385 -0.009512474 -0.0057473737 0.009510105 0.0033558102 0.004389322
0.0077374587 -0.0010521411 -0.0041026743 0.005369484 0.004354118 -0.0027883986 0.0032576842 0.013528909
-0.0033668426 0.006199835 -0.008551131 0.011405493 0.00810588 0.016347032 -0.00796951 -0.008186908
0.002037888 -0.0085318815 0.00027992658 -0.004663517 0.009382735 0.004748098 0.0044359914 2.128101e-05
0.016170576 -0.013213031 0.007847261 0.0122794425 0.0018467157 -0.0075477115 0.004655831 -0.0017337695
0.0010110934 -0.015854253 0.006653923 -0.003438146 0.0013620633 -0.015402873 0.0035553083 -0.021660479
0.01288258 -0.017275885 0.010508948 0.016947087 -0.0064703985 -0.0070129274 0.0070166783 0.011012867
-0.007630235 -0.0017439931 0.012518102 -0.002469236 -0.0014922548 0.0013622526 0.006113499 -0.0043729427
0.0049476796 0.0043676565 0.0046396516 0.004922665 -0.017790895 -0.0059290463 -0.004022557 0.012742862
0.0051279156 -0.0031530235 0.01664248 0.017799003 -0.022391854 0.009006036 0.027419863 -0.009590201
-0.003884738 -0.01596227 0.013973174 -0.002221844 0.0011590667 -0.019944351 0.007763982 -0.0007703507
-0.0015159801 0.011304749 -0.008476513 -0.0032828867 0.0031053966 -0.0096904775 0.0019128517 0.011337289
0.019126257 -0.003537723 0.004689829 0.008553426 -0.008133909 0.009038849 0.0054243817 -0.009329303
0.019383809 -0.015787192 -0.0047243643 0.00994018 -0.015052735 0.003591648 0.0061718808 0.0038620473
-0.010876006 -0.016629906 -0.00808501 -0.009577823 -0.012114104 0.007203478 0.0041863234 0.01458775
0.00029343422 -0.0062204185 -0.0056220177 0.0005929252 0.0072241346 -0.004961237 0.0068675997 -0.014701597
-0.0017246486 -0.0054862658 0.0014355577 0.0032089662 0.001710733 0.013267646 0.0022214002 0.0054404424
00000000: bbd9 55bb 3a33 54bc 2ff7 c23c 87be 093b
00000010: 8749 49ba 738f 13bc 67ea 283b 0d1b 6e39
00000020: 909e 553b 4d43 5a39 a51b 2d3b 47a0 4e3c
00000030: 97b4 93bc 4b67 4e3b e10b 9f3b e8a4 26bc
00000040: e740 973b 269c 33bb af7a ef3a 277e dd3b
00000050: 8515 1fbc 95f8 e53b 774b 85bb 0846 4f3c
00000060: f8a4 393c 670f 893c 344a 873c 061e 42bc
00000070: 7bf4 903b 809b 173c 1ba6 3c3b 9c83 093c
00000080: c31f f83a fb9f c73b 6b88 e6bb f916 49bc
00000090: f9d1 193b 3dce 44bb c098 1eba 5d94 1bbc
000000a0: 0894 0ebc 3049 1bbc da08 c03a 891e 083c
000000b0: a5a6 2dbc 1245 b03b cc44 a13b f0b8 b7bb
000000c0: f710 25bc db07 d9ba 3182 39bb 0644 05bc
000000d0: f063 8bbc ef12 3abc 2233 2fbc d5ed 513b
000000e0: 7b11 4ebc 9f54 823c ed5f 7abc d79a b1b9
000000f0: 7a56 d4bc cb27 e6bb 0bba 3f3c 83d2 afba
00000100: a83b 4e3c 979e 07bc 75ce 7e3a 109b ed3a
00000110: 8df3 ccbb 8daa e4ba 2599 5e3c 784e d53c
00000120: e0fd 0a3c 7796 40bc a899 373c affd 1fbb
00000130: 28ab 993c a146 1d3b 3588 2bbc 0640 9139
00000140: 6fc8 423c 5210 c1bb a4f3 88bc 28c9 4cba
00000150: 73f6 19bc d2ec 7cbb a11d c8bb 6a22 e23a
00000160: e0a8 c43b 3e7e 46bb ca51 75bc 371f 7f3a
00000170: 2f27 3d3b 4245 16bb 299b 00bc 3751 3f3b
00000180: 42df 67bb f6c3 06bc cd07 e7ba ef02 e4ba
00000190: 9450 17bb adac 44bc ea81 093a 7f9e d33b
000001a0: fa7e 443c 4613 953c aa0c 28bb bb70 9dba
000001b0: 62d9 12bc e933 a03c a19c 86bc 9b57 81bc
000001c0: eb34 a4bb fabe 55bc 2af2 ee3b 5405 aa3c
000001d0: 97ac 8cbc a88a 6e3b c5ad 6ebb 5af1 0e3c
000001e0: 7153 0c3b a745 ae3c 2d7b ef3b 35da 1bbc
000001f0: 7754 bcbb 45d0 1b3c 27ed 5b3b 4dd4 8f3b
00000200: 828a fd3b ffe7 89ba ba6f 86bb 7ff2 af3b
00000210: fdac 8e3b 91bd 36bb df7e 553b 5ba8 5d3c
00000220: 3fa6 5cbb fc27 cb3b 0b1a 0cbc 1bde 3a3c
00000230: 86ce 043c 36ea 853c 8c92 02bc 6222 06bc
00000240: 168e 053b 4ec9 0bbc 1cc3 9239 6ad0 98bb
00000250: 0bba 193c ef95 9b3b cb5b 913b 9f84 b237
00000260: 2878 843c 787b 58bc cc91 003c b72f 493c
00000270: 7f0d f23a cb52 f7bb f18f 983b a73f e3ba
00000280: aa86 843a c7e0 81bc 2709 da3b 8552 61bb
00000290: 4387 b23a 555c 7cbc 2d00 693b 5171 b1bc
000002a0: 7511 533c 2886 8dbc b92d 2c3c 9ed4 8a3c
000002b0: a305 d4bb b3cc e5bb 2aec e53b 506f 343c
000002c0: 0d07 fabb b396 e4ba ba18 4d3c e8d2 21bb
000002d0: c397 c3ba 9d8d b23a bf53 c83b e74a 8fbb
000002e0: 2520 a23b 8f1e 8f3b 3808 983b 4f4e a13b
000002f0: 36be 91bc 7248 c2bb a7cf 83bb 70c7 503c
00000300: 1308 a83b f5a2 4ebb cf55 883c 37cf 913c
00000310: 1f6f b7bc 0e8e 133c 9f9f e03c 3820 1dbc
00000320: 1797 7ebb 4ec3 82bc bdef 643c 5b9c 11bb
00000330: d3eb 973a 5662 a3bc 0069 fe3b 5cf1 49ba
00000340: dab3 c6ba 8e37 393c 13e1 0abc b325 57bb
00000350: e983 4b3b cfc4 1ebc a7b8 fa3a 09c0 393c
00000360: abae 9c3c 25d9 67bb 23ad 993b ab23 0c3c
00000370: 1644 05bc ae17 143c 03bf b13b efd9 18bc
00000380: cbca 9e3c 2454 81bc d7ce 9abb 23dc 223c
00000390: bf9f 76bc db61 6b3b 7d3d ca3b 671a 7d3b
000003a0: 4731 32bc 713b 88bc fd76 04bc 4dec 1cbc
000003b0: 3c7a 46bc 270b ec3b 6d2d 893b 7501 6f3c
000003c0: 13d8 9939 a7d4 cbbb e738 b8bb 896e 1b3a
000003d0: 6fb8 ec3b df91 a2bb 9a09 e13b f8de 70bc
000003e0: 9b0d e2ba 22c6 b3bb 5329 bc3a 854d 523b
000003f0: ad3a e03a 8a60 593c e994 113b bd45 b23b

action_model._discrete_distribution.branches.3.bias f4 [9]
0.0 0.0 0.0 0.0 0.0 0.0 0.0 0.0
0.0
00000000: 0000 0000 0000 0000 0000 0000 0000 0000
00000010: 0000 0000 0000 0000 0000 0000 0000 0000
00000020: 0000 0000
