results/ppo/BadChessPlayer/BadChessPlayer-64.onnx (onnx, 73382 bytes, 5 tensors)

action_model._discrete_distribution.branches.0.weight f4 [1, 128]
000000 5d 65 9d bc 8d 9f 24 3b 86 c8 35 bc af 7e d3 bb
       -0.019213373 0.0025119514 -0.011095172 -0.006454311
000010 27 61 2d bc 2a e9 da 38 c9 ac 87 bb c3 61 06 bb
       -0.010582245 0.0001043848 -0.0041404706 -0.0020505048
000020 25 48 9c bb 6f 88 c4 38 f8 d1 f5 bb 47 79 08 bc
       -0.0047693425 9.371421e-05 -0.007501837 -0.008329696
000030 4b 5f 96 bc a0 2d 6d 3b 9f 65 95 3c 34 a1 0d 3c
       -0.018355986 0.0036190525 0.018236933 0.008644391
000040 1f b6 19 3b 5d 65 fc 3a d9 17 10 3c 6d bd 34 ba
       0.00234545 0.0019256283 0.008794748 -0.0006894682
000050 61 6a 86 bb c5 7f ef bb bb bf 51 bc 39 d9 a2 3b
       -0.004102037 -0.0073089325 -0.01280206 0.0049697426
000060 75 98 62 3c 02 f0 82 bb 27 1d 30 3c a5 b8 e5 3b
       0.013830294 -0.0039958963 0.010749138 0.0070105367
000070 53 ea 8c bc 12 b3 cd bb 6d 52 41 bc 9c 51 0e bb
       -0.017201578 -0.0062774504 -0.011799437 -0.0021716123
000080 f8 88 de bb 3f f2 65 3c b2 f4 da 3b 2f 1b 83 3c
       -0.0067912303 0.014034807 0.006682002 0.016004173
000090 68 f9 2e bc a3 ee 79 3c 00 5c 7f 3c 8b b7 44 bb
       -0.01067958 0.015254649 0.015585899 -0.0030016627
0000a0 2a 7a 32 ba 55 bb 37 bb ff 19 46 3c db 5b 0e bc
       -0.0006808365 -0.0028035243 0.012091159 -0.008688892
0000b0 2b c4 7c 3b 2d 68 08 3c 8b 9a 2a 3c c0 54 9f bb
       0.0038569074 0.008325619 0.0104128225 -0.004862398
0000c0 ad 9f 82 3b 5a fe a6 3b 53 2b 98 3a 7f 9d 2c 3c
       0.00398632 0.005096239 0.0011609591 0.010535597
0000d0 1e bc 40 bb af 5f 4b bb b7 5d 3a 3c 64 0a 83 3b
       -0.0029409002 -0.0031032374 0.011374882 0.0039990414
0000e0 24 92 35 bc b7 ab 3c bc d7 88 af 3b d6 81 2a 3b
       -0.011082206 -0.011515549 0.0053568888 0.002601733
0000f0 63 74 eb 39 15 e5 4a 3c 85 01 54 bc 71 4e c0 bc
       0.00044909408 0.012383719 -0.012939815 -0.023474904
000100 d7 61 92 3b 57 01 33 3b 8c f4 8a 3c 84 f1 b6 3b
       0.00446723 0.002731403 0.016962312 0.00558299
000110 5a d0 f6 3a 07 df 1c 3c b5 25 ae 3c e5 d0 94 3b
       0.0018830404 0.009574658 0.021258214 0.0045415037
000120 c8 a5 67 3c ff ea a6 3b 9b bb 32 bc 04 79 02 bb
       0.014138646 0.0050939317 -0.010908986 -0.0019908557
000130 8f ca 9f 3b b3 86 64 3b 54 2c 39 bc 87 01 24 3c
       0.004876442 0.0034870326 -0.011302073 0.01001013
000140 e0 6c f4 bb c0 89 92 3b 11 a7 9b 3b 42 d4 19 3c
       -0.007459268 0.0044719875 0.0047501405 0.009388985
000150 97 08 85 b8 9b 53 95 3c 6c 5a 10 3b 12 b1 34 bb
       -6.343534e-05 0.018228343 0.0022026552 -0.0027571362
000160 36 63 48 3c da 7a 62 3b 2f a2 0d 3c 39 4c 34 bc
       0.012230685 0.0034558089 0.008644625 -0.011004501
000170 50 50 f8 bb 93 c3 91 3b f6 0b 1b bc 76 f6 a6 3b
       -0.0075779334 0.004448363 -0.009463301 0.0050952984
000180 6b b8 3a 3c 8f 30 7e 3c a4 c5 02 bc b2 f2 70 ba
       0.011396508 0.015514507 -0.0079816915 -0.0009191438
000190 2f ac 0a bc 30 a2 be 3b 6b 4f 10 3c 76 0d c0 3b
       -0.008463903 0.005817674 0.008807997 0.0058609797
0001a0 ea 76 de 3a 73 1c 05 3b d7 c8 7c bc 5f a7 51 bb
       0.0016972695 0.0020311147 -0.015428743 -0.003199063
0001b0 a7 49 c7 b9 5f e2 c3 bb 4f f8 2d 3b 83 96 b9 bb
       -0.00038011113 -0.0059779133 0.0026545709 -0.0056636943
0001c0 22 3c ce b9 df 5c 4e bc 7b 03 1d 3c f7 80 88 3b
       -0.00039336184 -0.012595384 0.009583349 0.0041657644
0001d0 34 17 32 3c 03 4c 2d bb a5 1d d1 3a 92 4c ed bb
       0.01086979 -0.0026443012 0.0015954269 -0.007241794
0001e0 46 d3 04 bb ac a6 47 3a 80 7f c5 39 4f 8e e1 bb
       -0.002026753 0.00076160836 0.00037669763 -0.0068834196
0001f0 ef 0b 01 bb c5 f0 11 3c 83 13 b9 bb 17 71 1d 3b
       -0.001969095 0.008907502 -0.005648078 0.0024023706

network_body.linear_encoder.seq_layers.0.bias f4 [128]
000000 00 00 00 00 00 00 00 00 00 00 00 00 00 00 00 00
       0.0 0.0 0.0 0.0
000010 00 00 00 00 00 00 00 00 00 00 00 00 00 00 00 00
       0.0 0.0 0.0 0.0
000020 00 00 00 00 00 00 00 00 00 00 00 00 00 00 00 00
       0.0 0.0 0.0 0.0
000030 00 00 00 00 00 00 00 00 00 00 00 00 00 00 00 00
       0.0 0.0 0.0 0.0
000040 00 00 00 00 00 00 00 00 00 00 00 00 00 00 00 00
       0.0 0.0 0.0 0.0
000050 00 00 00 00 00 00 00 00 00 00 00 00 00 00 00 00
       0.0 0.0 0.0 0.0
000060 00 00 00 00 00 00 00 00 00 00 00 00 00 00 00 00
       0.0 0.0 0.0 0.0
000070 00 00 00 00 00 00 00 00 00 00 00 00 00 00 00 00
       0.0 0.0 0.0 0.0
000080 00 00 00 00 00 00 00 00 00 00 00 00 00 00 00 00
       0.0 0.0 0.0 0.0
000090 00 00 00 00 00 00 00 00 00 00 00 00 00 00 00 00
       0.0 0.0 0.0 0.0
0000a0 00 00 00 00 00 00 00 00 00 00 00 00 00 00 00 00
       0.0 0.0 0.0 0.0
0000b0 00 00 00 00 00 00 00 00 00 00 00 00 00 00 00 00
       0.0 0.0 0.0 0.0
0000c0 00 00 00 00 00 00 00 00 00 00 00 00 00 00 00 00
       0.0 0.0 0.0 0.0
0000d0 00 00 00 00 00 00 00 00 00 00 00 00 00 00 00 00
       0.0 0.0 0.0 0.0
0000e0 00 00 00 00 00 00 00 00 00 00 00 00 00 00 00 00
       0.0 0.0 0.0 0.0
0000f0 00 00 00 00 00 00 00 00 00 00 00 00 00 00 00 00
       0.0 0.0 0.0 0.0
000100 00 00 00 00 00 00 00 00 00 00 00 00 00 00 00 00
       0.0 0.0 0.0 0.0
000110 00 00 00 00 00 00 00 00 00 00 00 00 00 00 00 00
       0.0 0.0 0.0 0.0
000120 00 00 00 00 00 00 00 00 00 00 00 00 00 00 00 00
       0.0 0.0 0.0 0.0
000130 00 00 00 00 00 00 00 00 00 00 00 00 00 00 00 00
       0.0 0.0 0.0 0.0
000140 00 00 00 00 00 00 00 00 00 00 00 00 00 00 00 00
       0.0 0.0 0.0 0.0
000150 00 00 00 00 00 00 00 00 00 00 00 00 00 00 00 00
       0.0 0.0 0.0 0.0
000160 00 00 00 00 00 00 00 00 00 00 00 00 00 00 00 00
       0.0 0.0 0.0 0.0
000170 00 00 00 00 00 00 00 00 00 00 00 00 00 00 00 00
       0.0 0.0 0.0 0.0
000180 00 00 00 00 00 00 00 00 00 00 00 00 00 00 00 00
       0.0 0.0 0.0 0.0
000190 00 00 00 00 00 00 00 00 00 00 00 00 00 00 00 00
       0.0 0.0 0.0 0.0
0001a0 00 00 00 00 00 00 00 00 00 00 00 00 00 00 00 00
       0.0 0.0 0.0 0.0
0001b0 00 00 00 00 00 00 00 00 00 00 00 00 00 00 00 00
       0.0 0.0 0.0 0.0
0001c0 00 00 00 00 00 00 00 00 00 00 00 00 00 00 00 00
       0.0 0.0 0.0 0.0
0001d0 00 00 00 00 00 00 00 00 00 00 00 00 00 00 00 00
       0.0 0.0 0.0 0.0
0001e0 00 00 00 00 00 00 00 00 00 00 00 00 00 00 00 00
       0.0 0.0 0.0 0.0
0001f0 00 00 00 00 00 00 00 00 00 00 00 00 00 00 00 00
       0.0 0.0 0.0 0.0

network_body.linear_encoder.seq_layers.0.weight f4 [128, 8]
000000 4a bd 15 3f 20 c8 fd 3d ee 01 02 3e 82 23 93 bd
       0.5849196 0.123916864 0.12696049 -0.07184507
000010 08 fc cf 3e b2 34 9b 3e 7e 99 3c bf 69 5d 5c 3f
       0.40621972 0.3031364 -0.7367171 0.8608003
000020 94 08 59 3e e5 f6 d9 3c e5 17 a5 be 75 80 d1 be
       0.21194679 0.026606986 -0.32244793 -0.40918317
000030 25 df 78 3e fe 4d bb bc ed 9f d3 3c 0d eb 90 be
       0.24303873 -0.022864338 0.025833094 -0.2830433
000040 fd 84 15 3e ca 69 86 be 7b fd 98 3e 5f fc 05 3f
       0.14601512 -0.26252586 0.2988089 0.5233821
000050 4c 14 28 3d fe d4 36 be 42 8a 13 3d 28 66 42 bf
       0.04103498 -0.17854688 0.036020525 -0.7593713
000060 32 66 2a be 76 52 be bd ea e3 cb 3e c6 4c 25 3f
       -0.16640547 -0.09293072 0.39822322 0.6457027
000070 d7 bb 04 bd 3d 98 8e be 7c 44 6e be a3 58 25 3f
       -0.0324057 -0.27850524 -0.23268312 0.64588374
000080 81 42 01 be e0 c8 a2 3e 15 fb dd bd c0 62 aa be
       -0.12623025 0.3179388 -0.10838906 -0.33278465
000090 17 d7 a8 bd 6a df be be be 42 49 3f 65 27 99 3d
       -0.0824415 -0.37279826 0.78617465 0.07478217
0000a0 63 e6 d5 3e 12 be e2 be a3 1d 91 be 31 6c 2d be
       0.41777334 -0.44285637 -0.28342924 -0.16935803
0000b0 e3 36 ae 3e 70 ea ed be 9c 1d df be 25 a9 d4 bd
       0.3402625 -0.46467924 -0.43577278 -0.10383824
0000c0 c5 26 0c bf 98 74 44 3e eb 2e 83 3e f2 88 03 3e
       -0.5474666 0.19185102 0.25621733 0.12845209
0000d0 ee f0 36 3e 26 3e b2 3e 9c 46 df be 9a 8e 20 3e
       0.17865345 0.3481304 -0.43608558 0.15679398
0000e0 53 55 e5 be 61 88 b0 be 8c 05 cb 3e d2 13 10 bf
       -0.4479166 -0.3447905 0.3965267 -0.56280243
0000f0 96 9c 32 3e 5b 6a 63 3e d6 a2 e9 3d a1 ad 76 be
       0.17442545 0.2220854 0.114080116 -0.24089672
000100 3d 03 63 be 38 91 64 bf 7e 5d f0 3d 0a ee 91 bd
       -0.22169204 -0.89284086 0.11736582 -0.071254805
000110 ed a8 c5 bd 32 20 ad be 42 48 02 be 54 45 5b be
       -0.09651361 -0.33813626 -0.12722877 -0.21413165
000120 aa 45 95 be 3f 56 9f bd 5a 0b 0f 3e 33 44 07 be
       -0.29154712 -0.07780122 0.13969174 -0.1320961
000130 6e d5 a1 be 29 e2 58 be 04 c6 0c 3e 5f 2a 77 bf
       -0.31608146 -0.21180023 0.13747412 -0.9654903
000140 32 55 c5 bc 38 55 37 3e 6a 76 bf 3c a9 b1 af be
       -0.024088476 0.17903602 0.023371894 -0.3431523
000150 6d f0 c4 be 65 3e e7 be 80 c2 12 be 59 dc 15 be
       -0.3846468 -0.4516479 -0.14332008 -0.14634837
000160 b1 48 e4 be bc 72 1e bf e2 78 bf 3e f6 6d 46 3d
       -0.4458671 -0.6189382 0.37396914 0.04844471
000170 71 47 57 bc 89 63 73 3e 46 d9 72 3f c8 15 b3 3e
       -0.013139592 0.23768438 0.9486278 0.34977555
000180 cb 9d 6f be 2a b6 cb 3e 31 96 51 bf 70 9d cd be
       -0.23400037 0.39787418 -0.818698 -0.40159178
000190 24 56 0d bf 18 a7 ad 3d 94 d8 a9 3c 27 dd 7f be
       -0.55209565 0.08479136 0.020733155 -0.24986707
0001a0 f4 86 8c be 5d ec 84 be f5 84 91 3e 72 c6 6c b9
       -0.2744671 -0.2596158 0.2842175 -0.0002258064
0001b0 54 8d 74 3e 36 b5 4c 3d 41 4d c6 3d c0 a8 34 3e
       0.23882037 0.049977504 0.09682704 0.17642498
0001c0 66 27 80 be 87 76 b8 3d 89 f1 5d be d9 1f 63 bd
       -0.2503006 0.09006982 -0.2167417 -0.055450294
0001d0 ec 14 24 bf 92 84 31 be 79 2d d9 bc 7f 5e 14 be
       -0.64094424 -0.17335728 -0.02651094 -0.14489172
0001e0 16 28 56 be 35 36 13 bf 74 67 bc 3d fd 5e b7 3b
       -0.20913729 -0.5750459 0.091994196 0.0055960403
0001f0 f7 66 1f be 19 00 06 3e d4 0c 20 3e 55 9d 3d be
       -0.15566622 0.13085975 0.15629894 -0.18517049
000200 3e 3c 78 3e c0 23 9b 3d ff ce e2 be c9 e1 11 be
       0.2424173 0.07575178 -0.4429855 -0.14246286
000210 99 66 52 be 8a c0 c1 bc 04 4c 26 3f 95 fb fb 3d
       -0.2054695 -0.02365138 0.6495974 0.12303845
000220 f3 3e f6 3e d8 d9 65 bf 1c 74 32 bf bf df ee 3e
       0.480949 -0.8978553 -0.6970842 0.4665508
000230 2b 69 90 bd 57 e7 ed 3e 69 ce 2b 3e 91 2d 15 3e
       -0.07051309 0.4646556 0.16777958 0.14568163
000240 3c 63 09 3f 20 fe 7a 3f f0 9f 34 be 09 8f 66 3e
       0.53667045 0.98044014 -0.17639136 0.22515501
000250 b7 4e bb be b9 33 97 3e 78 71 3d bf a2 32 a8 3e
       -0.36583492 0.2953165 -0.74001265 0.3285113
000260 3e ce 10 3d 0c 89 83 be b2 98 2a 3f 00 87 02 3e
       0.035352938 -0.25690496 0.66639245 0.12746811
000270 6a ed 05 3f 06 53 57 3d ea 0e 80 3e cb 91 44 bc
       0.5231539 0.05256941 0.2501138 -0.01199765
000280 c2 88 83 3b 9d 22 bf 3b e6 48 10 3e b4 b3 a6 3d
       0.0040141055 0.0058329836 0.14090309 0.081397444
000290 aa a7 94 be fb f9 75 be c7 76 8c bd aa af b1 3c
       -0.29034168 -0.24021141 -0.068585925 0.021690208
0002a0 d1 93 52 bd 93 df 09 3d 35 d1 56 3d 9e 3a f1 3d
       -0.0514105 0.033660483 0.05244561 0.117787585
0002b0 67 7e b1 3e dc 3d 89 bd e4 ef 0f 3e e1 74 10 be
       0.3466675 -0.06701252 0.14056355 -0.14107086
0002c0 43 22 39 3e 46 af 39 3e 20 ba e2 3d d6 a8 ef be
       0.18079476 0.18133268 0.11070657 -0.468085
0002d0 6b cd bf 3e 22 10 d9 3e 5f 5c c4 bd dd ae 0a 3f
       0.3746141 0.4239512 -0.09587931 0.5417307
0002e0 9a 93 dd 3e 3c 66 54 be 79 6a 9f be ea 5a e3 3d
       0.43276674 -0.20742124 -0.3113592 0.11101325
0002f0 9d 17 17 be d5 d9 74 3d 18 6a 2c 3f 34 8c fe 3c
       -0.14755102 0.059778053 0.67349386 0.031072713
000300 21 ca 7f 3e d4 f9 20 3e 14 7c 1b be c3 60 12 bf
       0.2497945 0.15720302 -0.15184051 -0.57178897
000310 55 56 ed 3e fa a9 aa be 69 2f e6 3b 40 0d 94 3c
       0.4635493 -0.33332807 0.0070246947 0.018072724
000320 43 6f 45 be 90 99 d4 3e 07 24 da bd 32 2b b1 3e
       -0.19280724 0.4152341 -0.10651403 0.34603268
000330 6e f8 b0 3e 70 53 b6 3d 2a 79 2a bf ce ff fc 3e
       0.34564537 0.08902633 -0.6659113 0.49413913
000340 2d 7e 43 be 1a 29 ca bd 21 76 0b be a8 f3 6a 3e
       -0.19091101 -0.09871121 -0.13619281 0.2294451
000350 4a f9 bc be 1c 73 e0 be 80 2f ce 3c 8f 6c 80 bc
       -0.36908942 -0.4383782 0.025169134 -0.015676765
000360 64 5d a6 be 37 5c eb 3e bc 77 98 3e b4 1a c3 3e
       -0.32493126 0.45968792 0.2977885 0.3810631
000370 f2 af b1 3d cd af d9 bd 05 57 73 3f 1d e3 5b bc
       0.08676137 -0.106292345 0.95054656 -0.013420847
000380 c6 20 b6 be fd 07 8a be f1 71 55 3e 8c bd 15 bc
       -0.3557188 -0.2695922 0.20844246 -0.00913943
000390 3f 75 98 3e 61 4b 4b be ef ef fc bb dc 5a ad be
       0.29776952 -0.19852974 -0.007719032 -0.33858383
0003a0 fb 40 d9 bd c0 b4 e9 be d9 45 80 3d b9 84 39 3e
       -0.10608097 -0.45645714 0.062633224 0.18117036
0003b0 0a 9f 4b be f2 fa b3 3c c4 f3 29 be 95 6b 88 be
       -0.19884887 0.021970246 -0.16596895 -0.2664458
0003c0 68 24 e2 bd b8 8c 27 3e db df bf 3e 8d f1 bd be
       -0.110421 0.16362274 0.37475476 -0.3709835
0003d0 1d 38 71 3e d9 6e c0 ba e7 87 c5 be 4c 26 7c 3e
       0.23556562 -0.0014681473 -0.38580248 0.24623984
0003e0 44 9d 16 bf c6 2c a6 be 9b 3e ce bd e5 2b 05 be
       -0.5883372 -0.32456034 -0.10070535 -0.13005026
0003f0 5b 73 0b bf f2 6c b5 be b4 25 82 bd 52 75 69 be
       -0.54472893 -0.3543468 -0.063548476 -0.2279866

network_body.linear_encoder.seq_layers.2.bias f4 [128]
000000 00 00 00 00 00 00 00 00 00 00 00 00 00 00 00 00
       0.0 0.0 0.0 0.0
000010 00 00 00 00 00 00 00 00 00 00 00 00 00 00 00 00
       0.0 0.0 0.0 0.0
000020 00 00 00 00 00 00 00 00 00 00 00 00 00 00 00 00
       0.0 0.0 0.0 0.0
000030 00 00 00 00 00 00 00 00 00 00 00 00 00 00 00 00
       0.0 0.0 0.0 0.0
000040 00 00 00 00 00 00 00 00 00 00 00 00 00 00 00 00
       0.0 0.0 0.0 0.0
000050 00 00 00 00 00 00 00 00 00 00 00 00 00 00 00 00
       0.0 0.0 0.0 0.0
000060 00 00 00 00 00 00 00 00 00 00 00 00 00 00 00 00
       0.0 0.0 0.0 0.0
000070 00 00 00 00 00 00 00 00 00 00 00 00 00 00 00 00
       0.0 0.0 0.0 0.0
000080 00 00 00 00 00 00 00 00 00 00 00 00 00 00 00 00
       0.0 0.0 0.0 0.0
000090 00 00 00 00 00 00 00 00 00 00 00 00 00 00 00 00
       0.0 0.0 0.0 0.0
0000a0 00 00 00 00 00 00 00 00 00 00 00 00 00 00 00 00
       0.0 0.0 0.0 0.0
0000b0 00 00 00 00 00 00 00 00 00 00 00 00 00 00 00 00
       0.0 0.0 0.0 0.0
0000c0 00 00 00 00 00 00 00 00 00 00 00 00 00 00 00 00
       0.0 0.0 0.0 0.0
0000d0 00 00 00 00 00 00 00 00 00 00 00 00 00 00 00 00
       0.0 0.0 0.0 0.0
0000e0 00 00 00 00 00 00 00 00 00 00 00 00 00 00 00 00
       0.0 0.0 0.0 0.0
0000f0 00 00 00 00 00 00 00 00 00 00 00 00 00 00 00 00
       0.0 0.0 0.0 0.0
000100 00 00 00 00 00 00 00 00 00 00 00 00 00 00 00 00
       0.0 0.0 0.0 0.0
000110 00 00 00 00 00 00 00 00 00 00 00 00 00 00 00 00
       0.0 0.0 0.0 0.0
000120 00 00 00 00 00 00 00 00 00 00 00 00 00 00 00 00
       0.0 0.0 0.0 0.0
000130 00 00 00 00 00 00 00 00 00 00 00 00 00 00 00 00
       0.0 0.0 0.0 0.0
000140 00 00 00 00 00 00 00 00 00 00 00 00 00 00 00 00
       0.0 0.0 0.0 0.0
000150 00 00 00 00 00 00 00 00 00 00 00 00 00 00 00 00
       0.0 0.0 0.0 0.0
000160 00 00 00 00 00 00 00 00 00 00 00 00 00 00 00 00
       0.0 0.0 0.0 0.0
000170 00 00 00 00 00 00 00 00 00 00 00 00 00 00 00 00
       0.0 0.0 0.0 0.0
000180 00 00 00 00 00 00 00 00 00 00 00 00 00 00 00 00
       0.0 0.0 0.0 0.0
000190 00 00 00 00 00 00 00 00 00 00 00 00 00 00 00 00
       0.0 0.0 0.0 0.0
0001a0 00 00 00 00 00 00 00 00 00 00 00 00 00 00 00 00
       0.0 0.0 0.0 0.0
0001b0 00 00 00 00 00 00 00 00 00 00 00 00 00 00 00 00
       0.0 0.0 0.0 0.0
0001c0 00 00 00 00 00 00 00 00 00 00 00 00 00 00 00 00
       0.0 0.0 0.0 0.0
0001d0 00 00 00 00 00 00 00 00 00 00 00 00 00 00 00 00
       0.0 0.0 0.0 0.0
0001e0 00 00 00 00 00 00 00 00 00 00 00 00 00 00 00 00
       0.0 0.0 0.0 0.0
0001f0 00 00 00 00 00 00 00 00 00 00 00 00 00 00 00 00
       0.0 0.0 0.0 0.0

network_body.linear_encoder.seq_layers.2.weight f4 [128, 128]
000000 18 7f 13 3c 4b c7 b5 3d 11 b6 c5 bb 49 76 cd 3d
       0.0090024695 0.08875903 -0.006033667 0.10032327
000010 31 15 8b 3d 83 cf c7 3c 4d d7 a1 bc 15 5b 20 3c
       0.06791151 0.024390941 -0.019755984 0.009787341
000020 7f 2c 3f bd 27 27 11 be ea f0 4f 3d af f5 29 bd
       -0.046673294 -0.14175092 0.050766863 -0.041494068
000030 dc d6 b6 bd e9 74 65 bd 96 75 b9 bc 9f 83 35 be
       -0.089277 -0.056019697 -0.022639077 -0.1772599
000040 21 0a 91 3c 4c 3c 58 bd ff 31 a4 3d ad 59 2a bd
       0.017705025 -0.05279188 0.080173485 -0.041589428
000050 93 11 c1 bd 32 b1 ae 3c ed b6 4f bd b2 8f 3e 3e
       -0.0942718 0.021324728 -0.05071156 0.18609503
000060 5e 51 87 bd 04 b3 07 be 71 91 85 3d a9 d6 8c 3d
       -0.066073164 -0.13251883 0.06521881 0.06876881
000070 64 d5 74 bd ba e8 66 3d 6a e7 bb bc 3e 94 36 bd
       -0.059773818 0.05637429 -0.022937495 -0.04457497
000080 5d f2 a5 bd a5 93 d7 3d d0 a6 10 bd 2e 78 4e bd
       -0.08102868 0.10526208 -0.035315335 -0.05040758
000090 9f 94 ff bd 89 93 a0 3c 3b 65 53 bd df 0a ee 3d
       -0.12479519 0.0196016 -0.051610213 0.11623167
0000a0 c5 5b ca 3c ca 6a 89 bd b5 7b ec 3d 0f b2 ab 3d
       0.024701962 -0.067098215 0.11547033 0.08383571
0000b0 c3 cc 11 3e 1d f4 36 bc 02 71 a0 3d d4 bb e9 3c
       0.14238267 -0.0111666 0.078340545 0.028531946
0000c0 57 34 5b bb a8 a7 35 3d 64 e3 03 be 22 a7 9a 3c
       -0.0033447945 0.044349343 -0.12879711 0.018878523
0000d0 f1 26 78 bd 37 e0 04 bd 97 f3 19 3e 9e 71 e2 3b
       -0.060584012 -0.03244039 0.15034328 0.006910517
0000e0 50 9b fb 3d 33 41 8c 3d a5 b3 0d be 6a 4d fd ba
       0.12285483 0.06848373 -0.1383806 -0.0019325439
0000f0 b6 df 32 bd 36 ed 08 bd 02 fd 4d bd 4d 46 9d 3d
       -0.04367038 -0.033429347 -0.050290115 0.076794244
000100 63 3c 3c bc 03 b2 8b 3c 62 88 c3 bd be 94 11 be
       -0.011489007 0.017052656 -0.09547497 -0.14216897
000110 cc 0d aa ba ae ae e2 3d 8f d7 60 3d 6c 13 b2 bc
       -0.0012974082 0.11068474 0.054893073 -0.021737777
000120 bc 01 e5 3d 94 d3 0c bd f9 ff 0b 3d 2d e3 03 be
       0.111819714 -0.034381464 0.03417966 -0.1287963
000130 27 99 59 3c ca 25 a2 3c 4d c8 d0 bc 49 f3 1c 3d
       0.013281143 0.01979341 -0.025486136 0.038317952
000140 1e 3b 26 be b2 0a 98 bc 4c 38 19 3d f3 49 f9 bc
       -0.16233489 -0.018559787 0.037407205 -0.03043077
000150 8a 6a 84 bd a7 09 2d be 43 0a 48 3d cb 19 cc bc
       -0.06465633 -0.16898213 0.04883791 -0.024914643
000160 6d ea 08 bd 43 9b 50 3c 83 7f 0b be aa f1 30 be
       -0.03342669 0.01273233 -0.1362286 -0.17279688
000170 0e a9 02 b9 49 4b 76 3d 3f cc 68 bd 53 d8 ba 3c
       -0.00012460744 0.06013039 -0.05683541 0.02280823
000180 65 a2 c3 3d 69 43 6e bd cd 15 2a 3d 27 2f bc bd
       0.09552459 -0.058169756 0.041524697 -0.09188681
000190 38 a8 84 3d fb f0 1b be 10 7c 60 bd da 81 d4 3a
       0.06477398 -0.15228646 -0.054805815 0.0016213015
0001a0 14 d5 50 bd 57 ae e4 3c 24 62 27 3d 42 90 68 3d
       -0.050984457 0.027915163 0.04086508 0.0567782
0001b0 f9 5b ae bc 04 55 09 3e c2 1d 4c 3d 75 47 90 bc
       -0.02128409 0.13411337 0.049833067 -0.017612198
0001c0 fe 78 62 bd 02 60 bb 3d 1e 3a bb 3d 76 eb 02 3d
       -0.05529117 0.091491714 0.09141944 0.031962834
0001d0 2e 60 06 be b2 e0 20 bd c3 5a c7 bb a2 ff 6e bd
       -0.13122627 -0.039276786 -0.0060838177 -0.05834926
0001e0 43 4a 73 bd 9b 52 f1 bd 64 2f 6f 3d 42 3d 99 bd
       -0.059396993 -0.11783334 0.058394805 -0.07482387
0001f0 2f c2 29 3d fb 58 89 3d ba 2a e2 3d 43 56 19 3d
       0.041444954 0.06706425 0.11043306 0.03743578
000200 46 a1 87 3d a2 d2 ac bc 98 ee 8e 3d ff 12 fd bc
       0.06622557 -0.021096531 0.06979102 -0.030892847
000210 90 47 c2 bd 2c d9 19 be 87 33 85 3d 52 58 2a 3e
       -0.09486306 -0.15024251 0.06503969 0.16635254
000220 5a 04 f0 bd a1 44 ca bd 18 9d 34 be 0d 08 24 3d
       -0.1171958 -0.09876371 -0.17638052 0.04004674
000230 5a bb e8 3c 2f 49 08 3d c7 a7 bb bd ce 20 52 3d
       0.028409649 0.03327292 -0.0916286 0.051300816
000240 46 b3 f4 bd fd 99 a6 3a 16 20 23 be 26 d0 99 3c
       -0.11948256 0.0012710687 -0.15930209 0.01877601
000250 0b 8f 84 3d d9 3b 06 3d 1c 9a 04 3d f4 37 7b bd
       0.06472596 0.03277192 0.032373533 -0.061332658
000260 ea 1d 20 bd a5 23 99 3d dc ed ca bd ad 33 19 be
       -0.03909103 0.07477502 -0.09908649 -0.14961119
000270 bf 3d ab 3c 13 7f 39 3e c5 73 c2 bc 3b 7c a9 bd
       0.020903466 0.18114881 -0.023736844 -0.08275648
000280 5e de 7e 3c 28 da 1b bc 9d 2a f4 bb c9 6e a4 bd
       0.015555946 -0.009512462 -0.007451369 -0.08028943
000290 d2 be 40 bd d2 d8 20 be 8b b1 25 be d2 d5 b2 bd
       -0.04705698 -0.1570771 -0.16181009 -0.08732189
0002a0 f8 62 d7 bd 07 cc d0 3d 68 a6 d9 3d 4c c8 81 3d
       -0.10516924 0.10195165 0.106274426 0.06337032
0002b0 32 e2 c7 bd 93 02 b6 bc 65 7d c5 bd 4f 6e a6 3b
       -0.0975994 -0.022218024 -0.09643058 0.005079068
0002c0 52 7e 8d bc ef 5a 2a 3d a8 32 9c 3d 12 26 11 3d
       -0.017272148 0.041590627 0.076268494 0.035436697
0002d0 84 09 e4 bd 5f 85 21 bd 8e 14 ee bc dc 27 2f 3e
       -0.111346275 -0.039433833 -0.029062536 0.17105049
0002e0 f2 a6 d0 3c 89 6c b2 b9 fe 79 28 bd 0d 84 b8 bd
       0.02547023 -0.0003403167 -0.041131966 -0.09009562
0002f0 4a 12 92 3d b2 fd 68 3d 14 95 32 bd 14 8d b8 3d
       0.071323946 0.056882568 -0.043599203 0.090112835
000300 ca 31 0d 3d 37 40 52 bd 64 7b 0e be c2 07 9b bd
       0.03447131 -0.05133077 -0.13914257 -0.07569839
000310 06 37 4f be 24 31 8e 3d ae d2 a3 3c d3 5e 1d 3e
       -0.20235834 0.069429666 0.01999792 0.15368204
000320 14 32 81 bd df 9e ed 3c df ef ce bd 21 98 1b 3e
       -0.0630838 0.02900642 -0.101043455 0.15194751
000330 d7 6e 67 bd bd f2 cb 3c af f8 08 3e 94 bd b7 3d
       -0.05650219 0.02489602 0.13376115 0.08971706
000340 c7 23 ba bd be d9 bf 3d 7d fe 19 3d 82 2b 11 be
       -0.09088855 0.09367703 0.037596215 -0.14176753
000350 04 3e 30 be bc 45 12 3e 06 ef eb bc 60 f8 2b 3e
       -0.17211157 0.14284414 -0.028800499 0.16793966
000360 65 a9 8a bd 8e d5 c8 bd b2 13 35 be 1e 15 0d bc
       -0.06770591 -0.09806357 -0.17683294 -0.008610992
000370 79 eb 63 3e b1 7d eb 3c 5b 9a 1b 3d c7 1c 3f 3d
       0.22257794 0.028746458 0.037989 0.046658304
000380 2f 42 c6 3d 7a d6 9c bd bf 6c ab bd 3c e2 45 bd
       0.09680592 -0.07658096 -0.08370351 -0.048311457
000390 d7 e6 b3 bc d8 d1 4d 39 e7 2e 2e 3d c3 c8 e9 3a
       -0.021960659 0.00019628496 0.0425252 0.0017836321
0003a0 43 90 39 3c d3 d2 bf 3d d2 c3 7d bd 69 7c 00 3c
       0.011325899 0.093663834 -0.061954327 0.007842162
0003b0 e6 41 b1 3c 21 ea c2 3d da 53 b7 3a 04 e5 86 3c
       0.021637868 0.09517313 0.0013986782 0.016466625
0003c0 9d d3 b5 3d a4 0f 90 ba ec cd 26 3d 06 be 1e 3e
       0.08878253 -0.0010990989 0.040723726 0.15502176
0003d0 6f 3e cb 3c 67 56 eb bc 23 2c 2b 3d 2b c9 9f 3b
       0.024810044 -0.028727723 0.04179014 0.004876276
0003e0 f1 4b a5 bc bb 87 37 3d 62 0d 98 3d b3 c7 77 3b
       -0.020177813 0.044807177 0.074244276 0.003780824
0003f0 56 94 a3 bd 0e 0b 2d be f4 aa 1d 3e 43 6c 12 bb
       -0.07987277 -0.16898748 0.15397245 -0.002234236
