results/ppo/BadChessPlayer/BadChessPlayer-22528.onnx (onnx, 73382 bytes, 5 tensors)

action_model._discrete_distribution.branches.0.weight f4 [1, 128]
0	0x3c36f006	0.0111656245
1	0xbbde7483	-0.0067887916
2	0xbc835ca9	-0.016035395
3	0x3c64d5b7	0.013966969
4	0x3c527323	0.012844834
5	0xbb686dd7	-0.003546586
6	0xbaaa785b	-0.001300584
7	0x3c858997	0.01630096
8	0x3ac42e83	0.0014967475
9	0x3c0fb955	0.008772214
10	0x3a07c890	0.00051797275
11	0x3c4a49a1	0.012346656
12	0xbaeb089b	-0.0017931642
13	0xbc400113	-0.011719006
14	0xbb877803	-0.0041341796
15	0x3c9adb6b	0.018903455
16	0x3b33a4b2	0.0027411398
17	0xbbfa81ba	-0.007644859
18	0x3c067c39	0.008208328
19	0x39cda91a	0.00039226637
20	0xbbea739b	-0.0071548945
21	0x3a853c25	0.0010165019
22	0x3b4a0fdb	0.0030832205
23	0xbbefada7	-0.007314402
24	0xbc23b67f	-0.009992241
25	0xbb2b540a	-0.002614262
26	0x3c87e6d6	0.016589563
27	0x3ac2a99e	0.0014851575
28	0x3afab64f	0.0019127819
29	0xbbbbd386	-0.0057320027
30	0xbb51cdb5	-0.003201348
31	0x3c0a51e0	0.008442372
32	0xbbb4cb88	-0.005517427
33	0xba15893b	-0.0005704348
34	0x3b843bd7	0.004035454
35	0xbc50da22	-0.012747319
36	0xbc1be70b	-0.009515534
37	0x3aa9cccf	0.0012954714
38	0x3b06967b	0.002053647
39	0xba42b1a2	-0.0007426982
40	0x3b2d0ac6	0.0026404127
41	0xb9d061b3	-0.00039745643
42	0xbb87cfc8	-0.0041446425
43	0xbc13a48f	-0.009011402
44	0x3c2dbd01	0.010604144
45	0xbc0d905d	-0.008640376
46	0xbc0ee240	-0.008720934
47	0x3b13a5ad	0.002252917
48	0x3af3e8f8	0.0018608859
49	0xbbaaa287	-0.005207363
50	0xb8853fee	-6.353842e-05
51	0xbba362ff	-0.0049861665
52	0x3c1d9db7	0.009620122
53	0x3c03244e	0.008004261
54	0xbb70b65f	-0.0036729795
55	0x3ba6e40a	0.0050931023
56	0xbc23e277	-0.010002724
57	0x3cb43739	0.021998988
58	0xbc5950ca	-0.0132638905
59	0x3a842596	0.0010082002
60	0x3c1362cf	0.008995726
61	0x3b261ca4	0.002534666
62	0x3b6687ba	0.0035176114
63	0x3c9a60bb	0.018844953
64	0xba4e2ca0	-0.0007864926
65	0xba97edad	-0.0011591219
66	0xbb5d065d	-0.0033725717
67	0xbae51883	-0.0017478619
68	0xbc7c07ff	-0.015382766
69	0xbb08d699	-0.0020879863
70	0x3bf63f1f	0.007514849
71	0x386332fd	5.4168504e-05
72	0xbbb89476	-0.0056329323
73	0xbbd7b855	-0.0065832534
74	0x3c75ab57	0.014994464
75	0x3bda0007	0.0066528353
76	0xba0d3948	-0.0005387259
77	0x3a40b083	0.0007350521
78	0xbbc0bfb9	-0.00588223
79	0x3b37dbf7	0.0028054693
80	0xb9886791	-0.00026017104
81	0x3bc35d77	0.0059620696
82	0xbc436087	-0.011924869
83	0xbb98cba3	-0.0046629473
84	0xbb3641e4	-0.002781027
85	0x3c6f6a2b	0.014612715
86	0xbbfa67a7	-0.007641751
87	0xbbb31cdf	-0.005466088
88	0x3bf8ac35	0.007588888
89	0xbc5bdba7	-0.013419068
90	0x3c2c45f7	0.010514728
91	0xbbfcf0d3	-0.007719138
92	0xbc27f843	-0.010252061
93	0x3b5d469f	0.0033764017
94	0x3be4417b	0.0069658137
95	0xbc17f202	-0.009274008
96	0x3b2ded1b	0.002653903
97	0xbb8b447f	-0.0042501087
98	0x3b704cf3	0.003666696
99	0xbb3b2d2f	-0.0028560867
100	0x3bddf88f	0.0067740153
101	0xbc906dc3	-0.017630463
102	0x3bdfca02	0.006829501
103	0xbc939ec0	-0.018020034
104	0x3c5c99a5	0.013464366
105	0x3bd5b073	0.0065212785
106	0x3c06ec7f	0.008235096
107	0xbb35a6f7	-0.0027717927
108	0x39ddf66a	0.00042335998
109	0xbbc2b39b	-0.005941821
110	0x3be27c3a	0.0069117816
111	0x3b9fbf9d	0.004875137
112	0x3c8583d7	0.016298218
113	0x3b5fa7b8	0.0034127068
114	0xbca8ece7	-0.020620776
115	0x3c0c0ca0	0.008547932
116	0x36d96d53	6.479831e-06
117	0x3aebd91b	0.001799378
118	0x3b82cfd7	0.0039920616
119	0xba112972	-0.0005537487
120	0xbc0c0856	-0.008546909
121	0x3b7c9e30	0.0038546436
122	0xba7e8860	-0.00097096525
123	0xbb77fb5f	-0.0037839038
124	0xbbc2df93	-0.0059470623
125	0xbc98d617	-0.018656773
126	0xbbcac70c	-0.006188279
127	0x3c2e9a27	0.01065687

network_body.linear_encoder.seq_layers.0.bias f4 [128]
0	0x00000000	0.0
1	0x00000000	0.0
2	0x00000000	0.0
3	0x00000000	0.0
4	0x00000000	0.0
5	0x00000000	0.0
6	0x00000000	0.0
7	0x00000000	0.0
8	0x00000000	0.0
9	0x00000000	0.0
10	0x00000000	0.0
11	0x00000000	0.0
12	0x00000000	0.0
13	0x00000000	0.0
14	0x00000000	0.0
15	0x00000000	0.0
16	0x00000000	0.0
17	0x00000000	0.0
18	0x00000000	0.0
19	0x00000000	0.0
20	0x00000000	0.0
21	0x00000000	0.0
22	0x00000000	0.0
23	0x00000000	0.0
24	0x00000000	0.0
25	0x00000000	0.0
26	0x00000000	0.0
27	0x00000000	0.0
28	0x00000000	0.0
29	0x00000000	0.0
30	0x00000000	0.0
31	0x00000000	0.0
32	0x00000000	0.0
33	0x00000000	0.0
34	0x00000000	0.0
35	0x00000000	0.0
36	0x00000000	0.0
37	0x00000000	0.0
38	0x00000000	0.0
39	0x00000000	0.0
40	0x00000000	0.0
41	0x00000000	0.0
42	0x00000000	0.0
43	0x00000000	0.0
44	0x00000000	0.0
45	0x00000000	0.0
46	0x00000000	0.0
47	0x00000000	0.0
48	0x00000000	0.0
49	0x00000000	0.0
50	0x00000000	0.0
51	0x00000000	0.0
52	0x00000000	0.0
53	0x00000000	0.0
54	0x00000000	0.0
55	0x00000000	0.0
56	0x00000000	0.0
57	0x00000000	0.0
58	0x00000000	0.0
59	0x00000000	0.0
60	0x00000000	0.0
61	0x00000000	0.0
62	0x00000000	0.0
63	0x00000000	0.0
64	0x00000000	0.0
65	0x00000000	0.0
66	0x00000000	0.0
67	0x00000000	0.0
68	0x00000000	0.0
69	0x00000000	0.0
70	0x00000000	0.0
71	0x00000000	0.0
72	0x00000000	0.0
73	0x00000000	0.0
74	0x00000000	0.0
75	0x00000000	0.0
76	0x00000000	0.0
77	0x00000000	0.0
78	0x00000000	0.0
79	0x00000000	0.0
80	0x00000000	0.0
81	0x00000000	0.0
82	0x00000000	0.0
83	0x00000000	0.0
84	0x00000000	0.0
85	0x00000000	0.0
86	0x00000000	0.0
87	0x00000000	0.0
88	0x00000000	0.0
89	0x00000000	0.0
90	0x00000000	0.0
91	0x00000000	0.0
92	0x00000000	0.0
93	0x00000000	0.0
94	0x00000000	0.0
95	0x00000000	0.0
96	0x00000000	0.0
97	0x00000000	0.0
98	0x00000000	0.0
99	0x00000000	0.0
100	0x00000000	0.0
101	0x00000000	0.0
102	0x00000000	0.0
103	0x00000000	0.0
104	0x00000000	0.0
105	0x00000000	0.0
106	0x00000000	0.0
107	0x00000000	0.0
108	0x00000000	0.0
109	0x00000000	0.0
110	0x00000000	0.0
111	0x00000000	0.0
112	0x00000000	0.0
113	0x00000000	0.0
114	0x00000000	0.0
115	0x00000000	0.0
116	0x00000000	0.0
117	0x00000000	0.0
118	0x00000000	0.0
119	0x00000000	0.0
120	0x00000000	0.0
121	0x00000000	0.0
122	0x00000000	0.0
123	0x00000000	0.0
124	0x00000000	0.0
125	0x00000000	0.0
126	0x00000000	0.0
127	0x00000000	0.0

network_body.linear_encoder.seq_layers.0.weight f4 [128, 8]
0	0xbe8f9d07	-0.2804949
1	0x3f1a7133	0.6032898
2	0x3eef25e5	0.467086
3	0xbf112447	-0.5669598
4	0xbe32d777	-0.17465006
5	0x3e8808a2	0.26569086
6	0x3f0286dc	0.5098703
7	0xbde5c157	-0.11218517
8	0x3e21a87d	0.1578693
9	0xbf49b505	-0.7879184
10	0x3cae3a25	0.02126796
11	0x3ea5d6f2	0.32390553
12	0xbec7e56b	-0.3904222
13	0xbd924250	-0.07141554
14	0x3e6c1d73	0.23058109
15	0x3e8d7167	0.27625582
16	0xbf7508ef	-0.95716757
17	0xbe96ef38	-0.29479384
18	0xbf40bfd0	-0.7529268
19	0x3e6f4c6c	0.23368996
20	0x3cbd7ea0	0.023131669
21	0xbee5b345	-0.44863334
22	0x3ed8c952	0.42341095
23	0xbdf17661	-0.11790157
24	0x3eea1dc5	0.45725837
25	0xbdefeacb	-0.11714705
26	0xbe67c05b	-0.22631972
27	0xbf018e8e	-0.50608146
28	0xbddb3aad	-0.10704551
29	0x3e0b05e6	0.13576469
30	0x3f1192e1	0.56864744
31	0xbe4294b7	-0.19002043
32	0x3e2b71c6	0.1674262
33	0x3e5c7aaa	0.21531168
34	0x3e6c4031	0.23071362
35	0xbe36c5b5	-0.17848857
36	0xbd726a1f	-0.059183236
37	0xbe2d2205	-0.16907509
38	0x3f7d1ddb	0.9887368
39	0xbe3d73af	-0.18501161
40	0xbf1c95b9	-0.6116596
41	0x3e78a232	0.24280623
42	0xbe67c9ba	-0.22635546
43	0x3e815316	0.25258702
44	0x3ed3a6e7	0.41338274
45	0x3deaec94	0.11470905
46	0xbec767b0	-0.38946295
47	0x3eb7f928	0.3593228
48	0x3eebaaf2	0.46028858
49	0xbe1002e2	-0.140636
50	0xbe4f1812	-0.20224026
51	0xbe856648	-0.26054597
52	0x3dc14eaa	0.09438832
53	0xbe41d8b1	-0.18930317
54	0xbe06045f	-0.13087605
55	0xbf11d1e5	-0.569609
56	0xbedbca1f	-0.42927644
57	0xbc657f34	-0.014007378
58	0xbeaca424	-0.3371898
59	0x3f00cafd	0.50309736
60	0x3ee5c650	0.44877863
61	0x3efd3549	0.49454716
62	0xbe9e8b6d	-0.30965748
63	0x3c789b96	0.015173813
64	0xbb87e682	-0.0041473517
65	0xbda18438	-0.07886547
66	0x3e56147d	0.20906253
67	0xbed10077	-0.40820667
68	0x3efac986	0.48981875
69	0xbe62efc7	-0.2216178
70	0x3e210c2e	0.15727302
71	0xbee5b450	-0.4486413
72	0xbd6d8f7f	-0.057998177
73	0xbe61571b	-0.22005884
74	0xbc0cf8ec	-0.0086042695
75	0x3ecc03ab	0.39846548
76	0xbf290cb6	-0.6603502
77	0x3f0a8e21	0.5412312
78	0xbe5bf719	-0.21480979
79	0xbec8e609	-0.39238003
80	0x3e0dd55b	0.1385092
81	0xbdc1828f	-0.0944873
82	0x3e121094	0.14264137
83	0xbecbca25	-0.39802662
84	0xbd0a36da	-0.033743717
85	0xbe8a318c	-0.26990926
86	0xbe479647	-0.1949092
87	0x3d8d27d0	0.06892359
88	0xbea5f73d	-0.3241519
89	0x3dba1b10	0.09087193
90	0x3e83cde7	0.2574303
91	0x3d4356de	0.047690265
92	0xbe8dffe6	-0.27734298
93	0xbd0b4b2a	-0.03400723
94	0x3e334e4f	0.17510341
95	0xbf2199f3	-0.6312553
96	0xbe766558	-0.24062097
97	0xbf5524c6	-0.83259237
98	0xbd639d93	-0.055570196
99	0x3d7b041b	0.061283212
100	0xbdf57161	-0.11984516
101	0xbf15fecd	-0.5859192
102	0xbea9c3f9	-0.33157328
103	0xbe97f196	-0.29676503
104	0x3edfc19f	0.4370241
105	0x3ebaf55d	0.36515322
106	0x3ea57b68	0.32320714
107	0x3ea63636	0.32463235
108	0x3f69be7b	0.91306275
109	0xbe26a6b1	-0.16274525
110	0xbd5562a1	-0.052096013
111	0x3e8e51d5	0.27796808
112	0xbe5351ae	-0.20636627
113	0xbebdca02	-0.37068182
114	0x3d47f601	0.048818592
115	0x3e7bb452	0.24580505
116	0xbec6ab5e	-0.38802618
117	0xbe0df3a7	-0.13862477
118	0xbe7fa542	-0.24965385
119	0x3f1b5f49	0.6069227
120	0x3ee7a425	0.4524242
121	0x3df6f1bb	0.12057825
122	0xbdf685b2	-0.12037219
123	0xbe1a9356	-0.15095267
124	0x3f25d4f4	0.64778066
125	0x3ea63f78	0.32470298
126	0xbe8d8769	-0.27642372
127	0xbe71d575	-0.23616584
128	0xbd78c402	-0.060733803
129	0x3dede9b5	0.11616842
130	0xbe661799	-0.2246994
131	0xbe9f747f	-0.31143567
132	0xbf02432b	-0.5088374
133	0xbd136ee8	-0.03599444
134	0x3d26642e	0.040622883
135	0x3e75192f	0.23935388
136	0xbeb18914	-0.34674895
137	0xbe75759b	-0.23970644
138	0x3e3b4859	0.18289317
139	0xbe5750a4	-0.21026856
140	0xbeac3dd9	-0.33640936
141	0x3d021aac	0.031763718
142	0x3eaacf5b	0.33361325
143	0xbd551118	-0.052018255
144	0xbe8803cb	-0.26565394
145	0xbe73c203	-0.23804478
146	0xbeeea743	-0.46611986
147	0xbf0d2712	-0.5513774
148	0x3e07bdd1	0.13256003
149	0x3f3b0ebd	0.73069364
150	0x3dda4e00	0.106594086
151	0xbefef3f2	-0.4979549
152	0xbef5618f	-0.47925994
153	0xbdcba804	-0.09944156
154	0xbcc53038	-0.024070844
155	0x3ee1658f	0.44022796
156	0xbef055aa	-0.46940356
157	0xbd9857cb	-0.0743862
158	0x3d4aa15d	0.049470294
159	0xbc3b770f	-0.01144196
160	0xbe3e8abe	-0.18607613
161	0x3d970012	0.0737306
162	0xbe64bcd4	-0.22337657
163	0x3f0e0e87	0.55490917
164	0x3e5dd36b	0.21662681
165	0xbe2dee83	-0.16985516
166	0xbe962426	-0.29324454
167	0x3ed3e6a5	0.41386905
168	0x3d046389	0.032321487
169	0x3d5b7898	0.053581804
170	0xbe068375	-0.13136084
171	0x3e91e6a9	0.28496292
172	0x3f0f1b30	0.5590086
173	0x3eddb816	0.4330451
174	0x3a7d93d1	0.00096732104
175	0x3ea22f41	0.31676677
176	0x3ec3113d	0.3809909
177	0xbf176617	-0.5914015
178	0x3ec205c0	0.37895012
179	0x3e087bd6	0.1332849
180	0x3e57a13c	0.210576
181	0xbed57aa0	-0.41695118
182	0xbdb51da6	-0.088435456
183	0x3f00518b	0.50124425
184	0x3d1f639c	0.038913354
185	0x3e05e51d	0.13075681
186	0xbf2a3017	-0.6647963
187	0x3e220b33	0.15824585
188	0x3ef6a2bf	0.4817104
189	0xbe1fc77d	-0.15603442
190	0x3da8572b	0.08219751
191	0x3ec6f08c	0.38855398
192	0xbeea7357	-0.45791122
193	0xbd820aaf	-0.06349694
194	0x3e32d080	0.17462349
195	0x3ea5b620	0.32365513
196	0x3cccb920	0.024990618
197	0xbea5f1d0	-0.3241105
198	0xbe969052	-0.29406983
199	0xbdf64ef5	-0.120267786
200	0xbe420d6d	-0.18950434
201	0xbc62ebe4	-0.013850186
202	0x3e0209b0	0.12699008
203	0xbedb95a0	-0.42887592
204	0xbd270aac	-0.040781662
205	0xbedb1d98	-0.42796016
206	0xbf1d8ff7	-0.615478
207	0x3e6c216a	0.23059621
208	0xbd108eae	-0.03529232
209	0x3ee76d95	0.45200792
210	0x3e838238	0.25685287
211	0x3f202344	0.6255381
212	0x3e609cf9	0.2193488
213	0x3e653a73	0.22385578
214	0xbe6dc26a	-0.23218694
215	0x3e9ce080	0.3064003
216	0x3d85e468	0.06537706
217	0x3e55d02f	0.20880197
218	0xbe88cd85	-0.267193
219	0xbe8ea148	-0.27857423
220	0x3d777abd	0.060419787
221	0xbdee4b38	-0.116354406
222	0xbe1f83de	-0.15577647
223	0x3ed75c5d	0.42062655
224	0x3caab32f	0.020837395
225	0x3e901f63	0.28148946
226	0x3b9e9796	0.004839848
227	0xbf10a661	-0.56503874
228	0xbe2233b0	-0.1584003
229	0xbe1b49e5	-0.15164907
230	0xbde681f3	-0.112552546
231	0xbf26c9dc	-0.6515176
232	0x3e568ff6	0.20953354
233	0xbee7ac39	-0.45248583
234	0x3eb227b5	0.3479592
235	0xbe1f79f6	-0.15573868
236	0xbd5ae7c4	-0.053443685
237	0x3dacb713	0.08433356
238	0xbde38fa5	-0.111113824
239	0x3eee58fd	0.46552268
240	0x3e97662b	0.29570135
241	0xbdaccdb9	-0.08437676
242	0xbf0d122f	-0.5510587
243	0xbd9a0986	-0.07521348
244	0x3e0d8d1a	0.13823357
245	0x3e077d8c	0.13231486
246	0xbef590d5	-0.4796206
247	0x3e16c19c	0.14722294
248	0x3dbf4bb1	0.09340609
249	0xbe4e3429	-0.20137085
250	0x3d2d6e32	0.04234142
251	0xbdc25daf	-0.09490525
252	0x3e8da41e	0.27664274
253	0x3f29c1d2	0.6631137
254	0xbdfa88ad	-0.122331
255	0xbee06b7a	-0.43831998

network_body.linear_encoder.seq_layers.2.bias f4 [128]
0	0x00000000	0.0
1	0x00000000	0.0
2	0x00000000	0.0
3	0x00000000	0.0
4	0x00000000	0.0
5	0x00000000	0.0
6	0x00000000	0.0
7	0x00000000	0.0
8	0x00000000	0.0
9	0x00000000	0.0
10	0x00000000	0.0
11	0x00000000	0.0
12	0x00000000	0.0
13	0x00000000	0.0
14	0x00000000	0.0
15	0x00000000	0.0
16	0x00000000	0.0
17	0x00000000	0.0
18	0x00000000	0.0
19	0x00000000	0.0
20	0x00000000	0.0
21	0x00000000	0.0
22	0x00000000	0.0
23	0x00000000	0.0
24	0x00000000	0.0
25	0x00000000	0.0
26	0x00000000	0.0
27	0x00000000	0.0
28	0x00000000	0.0
29	0x00000000	0.0
30	0x00000000	0.0
31	0x00000000	0.0
32	0x00000000	0.0
33	0x00000000	0.0
34	0x00000000	0.0
35	0x00000000	0.0
36	0x00000000	0.0
37	0x00000000	0.0
38	0x00000000	0.0
39	0x00000000	0.0
40	0x00000000	0.0
41	0x00000000	0.0
42	0x00000000	0.0
43	0x00000000	0.0
44	0x00000000	0.0
45	0x00000000	0.0
46	0x00000000	0.0
47	0x00000000	0.0
48	0x00000000	0.0
49	0x00000000	0.0
50	0x00000000	0.0
51	0x00000000	0.0
52	0x00000000	0.0
53	0x00000000	0.0
54	0x00000000	0.0
55	0x00000000	0.0
56	0x00000000	0.0
57	0x00000000	0.0
58	0x00000000	0.0
59	0x00000000	0.0
60	0x00000000	0.0
61	0x00000000	0.0
62	0x00000000	0.0
63	0x00000000	0.0
64	0x00000000	0.0
65	0x00000000	0.0
66	0x00000000	0.0
67	0x00000000	0.0
68	0x00000000	0.0
69	0x00000000	0.0
70	0x00000000	0.0
71	0x00000000	0.0
72	0x00000000	0.0
73	0x00000000	0.0
74	0x00000000	0.0
75	0x00000000	0.0
76	0x00000000	0.0
77	0x00000000	0.0
78	0x00000000	0.0
79	0x00000000	0.0
80	0x00000000	0.0
81	0x00000000	0.0
82	0x00000000	0.0
83	0x00000000	0.0
84	0x00000000	0.0
85	0x00000000	0.0
86	0x00000000	0.0
87	0x00000000	0.0
88	0x00000000	0.0
89	0x00000000	0.0
90	0x00000000	0.0
91	0x00000000	0.0
92	0x00000000	0.0
93	0x00000000	0.0
94	0x00000000	0.0
95	0x00000000	0.0
96	0x00000000	0.0
97	0x00000000	0.0
98	0x00000000	0.0
99	0x00000000	0.0
100	0x00000000	0.0
101	0x00000000	0.0
102	0x00000000	0.0
103	0x00000000	0.0
104	0x00000000	0.0
105	0x00000000	0.0
106	0x00000000	0.0
107	0x00000000	0.0
108	0x00000000	0.0
109	0x00000000	0.0
110	0x00000000	0.0
111	0x00000000	0.0
112	0x00000000	0.0
113	0x00000000	0.0
114	0x00000000	0.0
115	0x00000000	0.0
116	0x00000000	0.0
117	0x00000000	0.0
118	0x00000000	0.0
119	0x00000000	0.0
120	0x00000000	0.0
121	0x00000000	0.0
122	0x00000000	0.0
123	0x00000000	0.0
124	0x00000000	0.0
125	0x00000000	0.0
126	0x00000000	0.0
127	0x00000000	0.0

network_body.linear_encoder.seq_layers.2.weight f4 [128, 128]
0	0xbda8b7df	-0.08238196
1	0x3c56ea03	0.013117316
2	0x3ddceeb4	0.107877165
3	0xbc6dcac7	-0.014513678
4	0x3d9b3106	0.0757771
5	0xbc5e02c2	-0.013550462
6	0xbdc2d0fb	-0.09512516
7	0x3eba54a1	0.36392692
8	0x3d741e2a	0.05959908
9	0xbd14feb6	-0.036375724
10	0xbe067403	-0.13130192
11	0xbd8f5e18	-0.07000369
12	0xbe219254	-0.15778476
13	0x3da49c00	0.08037567
14	0x3db04d3a	0.0860848
15	0x3d992145	0.07477049
16	0x3e187d30	0.14891505
17	0x3c9ec4bb	0.019380918
18	0x3dec8ee8	0.11550695
19	0x3da778d5	0.08177344
20	0x3c0034c4	0.00782508
21	0xbc4eb1ce	-0.012615634
22	0x3d7e3f5f	0.062072154
23	0x3e0421d0	0.12903523
24	0x3d9edb01	0.077566154
25	0xbd5a15b3	-0.05324335
26	0xbd17c2a4	-0.03705086
27	0xbe008126	-0.12549266
28	0xbcda8ac5	-0.026677499
29	0x3b4cc93a	0.003124787
30	0xbd81837b	-0.06323906
31	0xbc33d5fc	-0.010976311
32	0xbc4f71b6	-0.012661388
33	0x3d9a5f48	0.07537705
34	0x3e4000e7	0.18750344
35	0x3cdcc622	0.026949946
36	0x3d89ebfe	0.06734465
37	0x3cac957a	0.02106737
38	0xbe28572d	-0.16439505
39	0xbbe3acc4	-0.0069480855
40	0x3e3d93da	0.18513432
41	0xbe14f612	-0.14546993
42	0x3dd4111e	0.10354827
43	0x3d9d8ee3	0.07693269
44	0xbe505cc5	-0.20347889
45	0xbba506cb	-0.00503621
46	0xbdf9a329	-0.121893235
47	0x3bb0b2d9	0.005392414
48	0x3da85187	0.08218675
49	0x3e75c6a7	0.24001561
50	0x3d68291f	0.05667984
51	0xbc234612	-0.0099654365
52	0xbc506a63	-0.012720677
53	0xbdf54208	-0.11975485
54	0xbda5fa55	-0.08104388
55	0x3d983f7a	0.07433982
56	0xbc56a966	-0.013101911
57	0xbd68312f	-0.05668753
58	0x3de53bb5	0.11193029
59	0xbdf857bd	-0.1212611
60	0x3d12a624	0.035802975
61	0x3e14eecf	0.14544223
62	0x3c9512de	0.018197473
63	0xbd23b1cb	-0.03996448
64	0x3c896d24	0.016775675
65	0x3d9b7fac	0.07592711
66	0x3dc8c148	0.098024905
67	0xbcc6b2ee	-0.024255242
68	0x3b19b49f	0.0023453606
69	0x3bc5c045	0.006034883
70	0x3d813c6d	0.063103534
71	0xbd62de56	-0.055387817
72	0xbdda161e	-0.1064875
73	0x3e0c6bca	0.13712993
74	0x3c2b82d7	0.010468206
75	0x3dd81e84	0.105526954
76	0x3d074fbb	0.03303502
77	0xbdfbd10f	-0.12295734
78	0x3da1529c	0.078770846
79	0x3e58ddc1	0.21178342
80	0x3d1d3eed	0.03839009
81	0xbc09be90	-0.00840725
82	0x3c8dcfc2	0.01731098
83	0xbc28ed99	-0.010310554
84	0x38f9d355	0.00011912609
85	0x3dd03763	0.10166814
86	0xbdc46537	-0.09589618
87	0xbd2bab4f	-0.04191142
88	0xba1e18c9	-0.0006030915
89	0xbd0cfa3b	-0.034418326
90	0xbe04c690	-0.1296637
91	0x3d1363ed	0.03598397
92	0xbd965968	-0.07341272
93	0x3d874111	0.06604207
94	0xbcedc833	-0.029026126
95	0x3dff355a	0.12461348
96	0x3d1a0089	0.037598167
97	0xbcb8264b	-0.022479197
98	0x3dbc159d	0.0918381
99	0x3db482b2	0.08813991
100	0xbda78724	-0.08180073
101	0x3bfa7f25	0.0076445513
102	0x3a2f57af	0.0006688786
103	0x3d532a7a	0.05155418
104	0xbb435d03	-0.0029810078
105	0xbd188e9d	-0.03724538
106	0x3db5818a	0.08862598
107	0xbc8c5918	-0.017132327
108	0x3d1dc34d	0.03851633
109	0x3dcf4318	0.10120219
110	0xbd6bbee8	-0.05755511
111	0x3d951e3b	0.07281157
112	0x3d5930b3	0.05302496
113	0xbd4b2632	-0.049596973
114	0x3cf4c4b4	0.029878952
115	0x3d14bbf1	0.036312047
116	0xbda06095	-0.078309216
117	0xbdc832de	-0.09775327
118	0xbdad1f67	-0.08453255
119	0x3e0c4829	0.13699402
120	0xbd1c7da3	-0.038205754
121	0xbd7d23a9	-0.061801586
122	0x3d3e0a47	0.04639652
123	0xbc297483	-0.01034272
124	0x3c1f9b5a	0.009741629
125	0xbd995a39	-0.07487912
126	0xbd8f170b	-0.06986817
127	0xbc1e81a9	-0.009674468
128	0x3db68d2c	0.08913645
129	0x3e0a1a2f	0.13486551
130	0xbd5590b2	-0.052139945
131	0x3df35468	0.118813336
132	0xbdc316c9	-0.0952583
133	0xbcd09643	-0.025462275
134	0xbd85038e	-0.06494819
135	0xbd94605b	-0.07244941
136	0x3d1e043c	0.038578257
137	0xbce31014	-0.027717628
138	0xbd92be53	-0.07165208
139	0xbdea5274	-0.11441508
140	0x3ddf4ff8	0.10903925
141	0x3d5ec8b8	0.05439064
142	0x3d30af94	0.043136194
143	0xbe0177bb	-0.1264333
144	0x3e0ee3dd	0.1395411
145	0xbd85b7fc	-0.06529233
146	0xbda8dba8	-0.08245021
147	0x3da62e43	0.081142925
148	0x3d930c45	0.071800746
149	0x3e55a3ba	0.20863238
150	0xbbdee95d	-0.0068027214
151	0x3dc79a44	0.09746221
152	0x3c55f898	0.013059758
153	0x3e4593e3	0.19294696
154	0x3e4ac42d	0.19801398
155	0xbc76151a	-0.015019679
156	0x3db1f542	0.08689357
157	0x3db588a7	0.08863955
158	0xbd9338e6	-0.07188587
159	0xbd85542a	-0.06510194
160	0xbdbfa8ca	-0.09358366
161	0xbba2da4b	-0.00496987
162	0x3e087734	0.13326722
163	0x3de74dc7	0.11294132
164	0xbcab5722	-0.020915572
165	0x3de22466	0.11042099
166	0x3e0bd837	0.13656698
167	0x3bd0748c	0.0063615497
168	0x3da00d92	0.07815088
169	0xbdc77310	-0.09738743
170	0xbd0c2fc9	-0.03422526
171	0xbdc7a075	-0.097474016
172	0xbc1b357a	-0.009473199
173	0x3d5bed70	0.053693235
174	0xbd6b3a4e	-0.05742865
175	0xbca540eb	-0.020172557
176	0x3c0f5642	0.008748593
177	0xbdb08bcf	-0.086204164
178	0xbd2c58b4	-0.04207678
179	0xbb92d3c5	-0.0044808113
180	0x3d5bd4dc	0.053669795
181	0xbd14a7f2	-0.036292978
182	0x3d3c4a2d	0.045969177
183	0x3c0050e5	0.007831787
184	0x3d6e952e	0.058247738
185	0x3e04547f	0.12922858
186	0x3e2dd277	0.16974817
187	0x3df9539b	0.121741496
188	0x3e3e9949	0.18613161
189	0x3cade621	0.021227898
190	0xbe2f483e	-0.17117402
191	0x3d042e82	0.032270916
192	0x3d0a35e0	0.033742785
193	0x3ced5652	0.028971825
194	0x3e010551	0.12599684
195	0x3e16de04	0.1473313
196	0x3dae0f6f	0.084990375
197	0xba023941	-0.0004967638
198	0xbc3ff042	-0.011714997
199	0x3d153a11	0.03643233
200	0xbbc0a5cf	-0.005879141
201	0xbdc83123	-0.09774997
202	0x3d5c9604	0.053854004
203	0xbd46554b	-0.048421185
204	0xbd1b0f37	-0.037856307
205	0x3d78a05c	0.060699806
206	0xbda0dc02	-0.07854463
207	0x3d3b50c7	0.045731332
208	0xbe1fba45	-0.155984
209	0xbcc5adbe	-0.024130698
210	0x3db07dde	0.08617757
211	0xbc7b79e8	-0.015348889
212	0x3e109964	0.14121014
213	0xbcf67591	-0.030085357
214	0xbe6dfc5a	-0.23240796
215	0xbdf8be7c	-0.12145707
216	0xbcb83719	-0.02248721
217	0xbd8cbe1e	-0.068721995
218	0x3c84b1ba	0.016198028
219	0xbd70bdb4	-0.058774665
220	0x3c99928d	0.018746639
221	0xbc117eb4	-0.008880306
222	0xbd1e2b98	-0.038615793
223	0x3e08a07f	0.13342474
224	0x3e3ee0d6	0.18640456
225	0x3dc42a05	0.09578327
226	0x3c5275da	0.012845481
227	0xbe359b04	-0.17734915
228	0xbcdad8ea	-0.02671476
229	0x3d317d90	0.043332636
230	0x3e177004	0.14788824
231	0x3dc13d92	0.09435572
232	0xbd33bc9a	-0.043881036
233	0xbd01ec88	-0.031719714
234	0xbe6f641d	-0.23378034
235	0x3e0817a3	0.13290267
236	0x3e0c4ef4	0.13701993
237	0xbccb7a8a	-0.024838705
238	0xbd15eaba	-0.036600806
239	0x3c5dac86	0.013529902
240	0x3e5dc113	0.21655683
241	0xb942a7b7	-0.0001856376
242	0x3d453f62	0.04815615
243	0x3d3f6aa7	0.04673257
244	0xbd7ba38c	-0.061435267
245	0x3cdc9f1b	0.026931336
246	0x3d7e5aa4	0.06209816
247	0x3e4f46b6	0.20241818
248	0x3e06c4c6	0.13161
249	0x3e180d0b	0.14848725
250	0x3d13e129	0.0361034
251	0x3d6ca1c8	0.057771474
252	0xbd93b200	-0.07211685
253	0xbd60baea	-0.054865755
254	0xbc0efac8	-0.008726783
255	0x3bc33e21	0.005958334
