results/ppo/BadChessPlayer/BadChessPlayer-384.pt (torch, 835111 bytes, 47 tensors)

network_body.linear_encoder.seq_layers.0.weight f4 [128, 456]
0.054275908 0.0027301467 -0.021097794 -0.02870931 0.041094903 -0.038976498 0.027842743 0.0053238124
-0.026843201 0.0153741855 -0.016988443 0.05405755 -0.029715668 -0.00033483768 0.010326327 -0.030304622
0.0013495915 -0.05879592 -0.018233625 0.03002822 -0.060235888 -0.043313127 -0.03334195 -0.035376213
-0.015897168 -0.031587396 0.041899674 -0.0062853354 0.08225154 0.044763345 0.015709676 0.0016165258
-0.06182783 0.053178217 0.024180185 -0.015061546 0.026035378 -0.03167207 -0.04032087 0.051636435
0.04210209 0.016423006 -0.12192591 0.0436887 0.020151233 -0.0064163674 -0.026762716 0.027519051
-0.031071905 0.10536859 -0.015968207 -0.07720516 0.009363173 -0.0005331769 -0.014003709 0.018343853
-0.008894742 -0.02355725 0.0015942637 -0.022620501 0.07205462 -0.009729261 -0.07590406 0.027471954
-0.057725612 -0.021316594 -0.026963275 0.04670377 0.039486226 0.020377733 0.04327612 0.014256609
-0.088870145 -0.011112805 0.0103495605 0.029046498 0.009077215 -0.06227103 -0.014737922 -0.031143812
-0.073338106 0.023136139 -0.006723297 -0.018613156 -0.034436356 -0.026442608 -0.105531685 0.042964403
0.0001403472 -0.026996827 -0.09208305 -0.037550446 0.0021628814 0.001409104 0.037198987 0.036864646
0.06481668 0.03553845 0.029955553 -0.035747968 -0.06899921 0.0061714672 -0.06079981 -0.0038502691
-0.07614943 -0.043602813 0.04986448 0.0040023928 -0.06020378 -0.012305587 0.0018917419 0.011651252
-0.026524547 0.043922443 -0.01180684 0.085524224 0.0056383703 -0.035154544 -0.020137554 0.009665508
-0.035811167 0.058171842 -0.039756756 -0.019209687 -0.04215255 0.0039686547 -0.0014151881 0.04701028
-0.06991738 -0.0014913728 0.0132027175 -0.017148849 -0.018882504 0.021247977 -0.00089504436 0.055005368
0.05249785 0.015255307 0.004096835 -0.060466357 0.09418559 -0.052257948 -0.071817435 -0.055722676
0.08593122 -0.033702686 -0.026945526 0.06929732 0.012700623 -0.0017685391 0.016552852 0.038413487
0.018337758 -0.0233706 0.0829007 -0.048929963 -0.005703288 -0.014698463 0.0039574658 0.046730768
-0.0032461507 0.031721123 -0.0038618315 -0.043710124 0.01454815 0.02007409 -0.09638803 0.040948674
0.015653556 -0.0010319686 0.024138393 -0.0009836598 0.0023554917 0.032681666 -0.0038736037 0.057894114
0.010430931 -0.012994871 -0.017257273 -0.01856295 0.027696848 -0.018237028 0.07236796 -0.04176216
0.07205624 0.011385734 -0.037559032 -0.012610719 -0.03354353 0.0109920865 0.07982604 -0.031903088
-0.08446674 -0.0048512546 -0.011024905 -0.00596881 0.014879597 0.035120726 0.0027624173 -0.013309813
-0.006023769 -0.023241082 -0.017187044 -0.064176366 0.034492478 -0.046323452 -0.039611295 -0.0634574
-0.040839028 -0.015813146 -0.043819528 0.045471746 0.05013259 -0.0064727264 -0.13212466 0.010512201
-0.0059842 0.09200828 -0.08563387 -0.063986264 -0.057888325 0.02690728 0.023192097 -0.022819571
0.049252536 0.04086168 -0.024767809 -0.017883047 0.017744666 -0.013479638 -0.02534519 -0.021129081
0.017895496 -0.043887462 -0.03530252 0.06821706 -0.03519855 0.0086612785 -0.020052645 0.11817469
-0.0542909 -0.0237564 -0.028407948 -0.019174483 0.045348953 0.04075196 -0.084086075 -0.027063448
-0.010316192 0.023935601 -0.020427056 -0.017330213 -0.01947964 -0.02686742 0.025311772 -0.0028356495
00000000: 6a50 5e3d 43ec 323b 48d5 acbc c92f ebbc
00000010: 2153 283d d2a5 1fbd 7716 e43c 6073 ae3b
00000020: 46e6 dbbc 02e4 7b3c 592b 8bbc 736b 5d3d
00000030: 466e f3bc 278d afb9 c12f 293c 6641 f8bc
00000040: c7e4 b03a fed3 70bd af5e 95bc befd f53c
00000050: e8b9 76bd 1b69 31bd 9291 08bd a6e6 10bd
00000060: c73a 82bc c961 01bd fe9e 2b3d 37f5 cdbb
00000070: 7f73 a83d c559 373d 94b1 803c 9be1 d33a
00000080: 2e3f 7dbd 67d1 593d 8615 c63c b4c4 76bc
00000090: 2548 d53c 93ba 01bd 7f27 25bd ba80 533d
000000a0: 3e73 2c3d 8a89 863c 4bb4 f9bd ecf2 323d
000000b0: 3314 a53c 6440 d2bb 7c3d dbbc a26f e13c
000000c0: 828a febc 7dcb d73d c2cf 82bc bd1d 9ebd
000000d0: fe67 193c e5c4 0bba d06f 65bc d945 963c
000000e0: 40bb 11bc 22fb c0bc 9df6 d03a a14e b9bc
000000f0: 5f91 933d 7a67 1fbc 9673 9bbd dd0c e13c
00000100: b171 6cbd 23a0 aebc 16e2 dcbc 744c 3f3d
00000110: 4fbc 213d 34ef a63c 4d42 313d 8d94 693c
00000120: 8d01 b6bd 7c12 36bc 3491 293c ecf2 ed3c
00000130: 99b8 143c e80f 7fbd 5377 71bc 4f21 ffbc
00000140: 4a32 96bd 0088 bd3c 1a4f dcbb 9e7a 98bc
00000150: 230d 0dbd 2b9e d8bc ff20 d8bd 71fb 2f3d
00000160: 2a2a 1339 7328 ddbc 0a96 bcbd 7fce 19bd
00000170: 21bf 0d3b afb1 b83a f75d 183d 62ff 163d
00000180: 9cbe 843d c490 113d 5965 f53c 766c 12bd
00000190: 754f 8dbd 053a ca3b 3909 79bd cc54 7cbb
000001a0: 3bf4 9bbd dd98 32bd b23e 4c3d 8126 833b
000001b0: 3d98 76bd 5f9d 49bc 53f4 f73a e5e4 3e3c
000001c0: 024a d9bc 05e8 333d 7a71 41bc 5327 af3d
000001d0: 14c2 b83b 36fe 0fbd 83f7 a4bc 145c 1e3c
000001e0: bbae 12bd 9945 6e3d fbd7 22bd a25d 9dbc
000001f0: 27a8 2cbd 7d0b 823b d57d b9ba da8d 403d
00000200: d830 8fbd 2b7a c3ba 3650 583c be7b 8cbc
00000210: 7baf 9abc 3d10 ae3c 69a1 6aba 4f4d 613d
00000220: fc07 573d 65f1 793c be3e 863b 92ab 77bd
00000230: 60e4 c03d 6e0c 56bd 0515 93bd 763d 64bd
00000240: b5fc af3d d40b 0abd ddbc dcbc c1eb 8d3d
00000250: 4616 503c 53ce e7ba d999 873c 7657 1d3d
00000260: 1139 963c b373 bfbc d8c7 a93d c96a 48bd
00000270: a6e2 babb d2d1 70bc a1ad 813b c368 3f3d
00000280: 5fbd 54bb 02ee 013d c816 7dbb 6309 33bd
00000290: 5d5b 6e3c 6b72 a43c 1667 c5bd ccb9 273d
000002a0: e33b 803c 1f43 87ba e1bd c53c 25ee 80ba
000002b0: 985e 1a3b 36dd 053d 49dc 7dbb 6122 6d3d
000002c0: 7fe6 2a3c 70e8 54bc 205f 8dbc 5411 98bc
000002d0: 80e4 e23c d265 95bc a735 943d cc0e 2bbd
000002e0: 3992 933d 3b8b 3a3c 80d7 19bd 309d 4ebc
000002f0: f164 09bd 2718 343c d67b a33d d0ac 02bd
00000300: e6fc acbd 46f7 9ebb cea1 34bc 0296 c3bb
00000310: 8ec9 733c c0da 0f3d ac09 353b 6711 5abc
00000320: 0963 c5bb 1564 bebc d8cb 8cbc e66e 83bd
00000330: fc47 0d3d a9bd 3dbd 743f 22bd f4f5 81bd
00000340: d346 27bd 928a 81bc 1b7c 33bd 9540 3a3d
00000350: d557 4d3d 2a19 d4bb b04b 07be 5e3b 2c3c
00000360: 1c17 c4bb d66e bc3d cf60 afbd 3b0b 83bd
00000370: 4f1c 6dbd a86c dc3c 5afd bd3c 1cf0 babc
00000380: 07bd 493d 945e 273d dce5 cabc 787f 92bc
00000390: 435d 913c b3d9 5cbc b7a0 cfbc e516 adbc
000003a0: 9399 923c 57c3 33bd 6099 10bd 63b5 8b3d
000003b0: 5b2c 10bd 09e8 0d3c 7245 a4bc 9205 f23d
000003c0: 2260 5ebd c89c c2bc c9b7 e8bc ce13 9dbc
000003d0: d3bf 393d 87eb 263d 5235 acbd 2ab4 ddbc
000003e0: 3f05 29bc 9814 c43c a456 a7bc 17f8 8dbc
000003f0: c493 9fbc 1019 dcbc a25a cf3c 4ed6 39bb

network_body.linear_encoder.seq_layers.0.bias f4 [128]
0.0 0.0 0.0 0.0 0.0 0.0 0.0 0.0
0.0 0.0 0.0 0.0 0.0 0.0 0.0 0.0
0.0 0.0 0.0 0.0 0.0 0.0 0.0 0.0
0.0 0.0 0.0 0.0 0.0 0.0 0.0 0.0
0.0 0.0 0.0 0.0 0.0 0.0 0.0 0.0
0.0 0.0 0.0 0.0 0.0 0.0 0.0 0.0
0.0 0.0 0.0 0.0 0.0 0.0 0.0 0.0
0.0 0.0 0.0 0.0 0.0 0.0 0.0 0.0
0.0 0.0 0.0 0.0 0.0 0.0 0.0 0.0
0.0 0.0 0.0 0.0 0.0 0.0 0.0 0.0
0.0 0.0 0.0 0.0 0.0 0.0 0.0 0.0
0.0 0.0 0.0 0.0 0.0 0.0 0.0 0.0
0.0 0.0 0.0 0.0 0.0 0.0 0.0 0.0
0.0 0.0 0.0 0.0 0.0 0.0 0.0 0.0
0.0 0.0 0.0 0.0 0.0 0.0 0.0 0.0
0.0 0.0 0.0 0.0 0.0 0.0 0.0 0.0
00000000: 0000 0000 0000 0000 0000 0000 0000 0000
00000010: 0000 0000 0000 0000 0000 0000 0000 0000
00000020: 0000 0000 0000 0000 0000 0000 0000 0000
00000030: 0000 0000 0000 0000 0000 0000 0000 0000
00000040: 0000 0000 0000 0000 0000 0000 0000 0000
00000050: 0000 0000 0000 0000 0000 0000 0000 0000
00000060: 0000 0000 0000 0000 0000 0000 0000 0000
00000070: 0000 0000 0000 0000 0000 0000 0000 0000
00000080: 0000 0000 0000 0000 0000 0000 0000 0000
00000090: 0000 0000 0000 0000 0000 0000 0000 0000
000000a0: 0000 0000 0000 0000 0000 0000 0000 0000
000000b0: 0000 0000 0000 0000 0000 0000 0000 0000
000000c0: 0000 0000 0000 0000 0000 0000 0000 0000
000000d0: 0000 0000 0000 0000 0000 0000 0000 0000
000000e0: 0000 0000 0000 0000 0000 0000 0000 0000
000000f0: 0000 0000 0000 0000 0000 0000 0000 0000
00000100: 0000 0000 0000 0000 0000 0000 0000 0000
00000110: 0000 0000 0000 0000 0000 0000 0000 0000
00000120: 0000 0000 0000 0000 0000 0000 0000 0000
00000130: 0000 0000 0000 0000 0000 0000 0000 0000
00000140: 0000 0000 0000 0000 0000 0000 0000 0000
00000150: 0000 0000 0000 0000 0000 0000 0000 0000
00000160: 0000 0000 0000 0000 0000 0000 0000 0000
00000170: 0000 0000 0000 0000 0000 0000 0000 0000
00000180: 0000 0000 0000 0000 0000 0000 0000 0000
00000190: 0000 0000 0000 0000 0000 0000 0000 0000
000001a0: 0000 0000 0000 0000 0000 0000 0000 0000
000001b0: 0000 0000 0000 0000 0000 0000 0000 0000
000001c0: 0000 0000 0000 0000 0000 0000 0000 0000
000001d0: 0000 0000 0000 0000 0000 0000 0000 0000
000001e0: 0000 0000 0000 0000 0000 0000 0000 0000
000001f0: 0000 0000 0000 0000 0000 0000 0000 0000

network_body.linear_encoder.seq_layers.2.weight f4 [128, 128]
-0.15698719 0.037533116 0.17017764 -0.07330143 0.05197028 0.013372698 -0.007803163 0.121042795
0.10497503 -0.029245067 0.034790594 0.011730994 -0.064164825 0.08094232 -0.06355154 -0.1412339
0.0065491623 0.10160872 -0.025311103 -0.14768788 -0.06374634 0.068763144 -0.049543835 -0.027040131
0.05632901 -0.05070133 -0.1036525 0.073541135 -0.005005133 -0.038170684 0.046933156 0.07379786
0.013129613 -0.15543704 0.034360822 -0.13842018 -0.08844627 -0.05008541 -0.1274447 0.19995417
-0.032411493 -0.013846868 -0.022921223 -0.08114304 0.0706007 -0.15293764 0.18365782 -0.15311763
-0.0036960135 -0.08692441 -0.02517385 -0.0671475 0.091160215 0.0006661175 0.10604473 -0.05894928
0.047464553 -0.18390109 -0.0018698869 -0.016912112 -0.074099295 0.0005930069 0.06804982 0.07879453
-0.08107723 -0.07194026 -0.0008320985 -0.04013094 0.09597273 0.12703188 -0.14959265 0.024939733
0.1096188 0.09614359 -0.011368526 -0.155488 0.06510476 -0.0014190928 -0.025663573 0.008892511
0.19128573 -0.17238447 -0.053041033 -0.021040723 -0.017166682 -0.064660475 0.09290891 0.24201715
-0.07092872 0.10008252 -0.03964423 0.12641804 -0.043594696 0.03144265 -0.05750184 -0.12980506
0.11165752 0.0666252 -0.124691114 0.03174862 0.04282287 0.039873533 -0.068634965 -0.06056337
-0.14273165 -0.07912683 -0.05087757 -0.12480651 0.18475437 -0.05057727 0.029866176 0.12397828
-0.079211704 0.055236287 0.0630568 -0.017535994 -0.07049855 -0.009152365 0.023280505 -0.15030241
-0.074577875 0.015503834 -0.046564765 -0.057660937 0.21221216 0.0018846046 -0.0037906298 0.17986967
-0.033302717 0.106472634 -0.2301317 -0.031883746 0.10639508 -0.05916897 -0.16630094 -0.08090894
-0.045132093 -0.052468605 -0.077819996 0.041413207 0.04689454 0.07181065 0.11399147 -0.10138056
0.005266165 0.074124396 -0.08562287 -0.06100216 0.0410765 0.018200297 -0.013896002 -0.08521115
-0.05984708 -0.024907198 0.012024274 -0.1265367 0.005801055 -0.0054646437 -0.121241115 -0.14466493
0.041355304 0.0058525046 -0.079743534 -0.029612485 0.07016812 -0.069837496 0.10809794 0.005695073
0.042773087 0.047272053 0.116359755 -0.020875799 0.01677956 0.036067862 -0.06418323 -0.06519345
-0.047257107 0.18621008 -0.056619696 -0.023695806 0.038698312 -0.046356205 -0.04778381 -0.02348317
-0.04255826 0.06074529 0.08285611 0.036386304 -0.15659055 -0.023680665 0.040478688 -0.0025516779
0.008818561 0.08685709 -0.019432193 0.2280514 0.09010049 0.09799259 0.15608974 0.042082712
-0.00666725 0.060468774 -0.11070237 -0.049634226 -0.13205583 -0.049991477 0.06433284 0.034544226
-0.04774433 -0.11617127 0.028647102 0.067034416 0.01839558 0.0227702 -0.14562726 0.06036231
-0.08045017 -0.026927661 -0.040834766 0.033266906 -0.018785289 -0.08685955 0.06633784 0.021963852
-0.06575167 0.10247037 0.07863561 -0.11482208 0.00019177009 -0.037492096 -0.07326836 0.004345202
0.08159312 0.1013435 -0.04297498 -0.03222801 -0.033187468 0.05928215 0.06103126 0.022135645
0.040400155 -0.035969432 -0.019943511 0.069169484 -0.021333285 -0.11187376 0.036466587 0.041345105
0.15866631 -0.048322055 -0.094150744 0.02315354 0.025900165 -0.04592855 0.13220255 0.12532532
00000000: 40c1 20be 53bc 193d 0c43 2e3e 0f1f 96bd
00000010: cade 543d 2919 5b3c adb1 ffbb 49e5 f73d
00000020: 26fd d63d 5a93 efbc 9580 0e3d 5b33 403c
00000030: d968 83bd 16c5 a53d 4f27 82bd 9f9f 10be
00000040: 5b9a d63b 3c18 d03d 3b59 cfbc 7e3b 17be
00000050: 718d 82bd b1d3 8c3d 7aee 4abd 4483 ddbc
00000060: 3fb9 663d 33ac 4fbd c347 d4bd bc9c 963d
00000070: 1902 a4bb dd58 1cbd fb3c 403d 5523 973d
00000080: 971d 573c e32a 1fbe efbd 0c3d 05be 0dbe
00000090: 5123 b5bd 5c26 4dbd dd80 02be c9c0 4c3e
000000a0: eac1 04bd f9dd 62bc 4ac5 bbbc 522e a6bd
000000b0: 1a97 903d af9b 1cbe cc10 3c3e deca 1cbe
000000c0: d138 72bb 6d05 b2bd 6439 cebc a184 89bd
000000d0: 35b2 ba3d 649e 2e3a fb2d d93d cd74 71bd
000000e0: 316a 423d 9150 3cbe fe16 f5ba 458b 8abc
000000f0: 5fc1 97bd 0574 1b3a b45d 8b3d 075f a13d
00000100: d20b a6bd 6a55 93bd 2f21 5aba 5760 24bd
00000110: 5a8d c43d a514 023e d12e 19be 694e cc3c
00000120: d27f e03d eee6 c43d 0e43 3abc 3f38 1fbe
00000130: a555 853d da00 baba 6a3c d2bc e5b1 113c
00000140: 68e0 433e 8e85 30be 8e41 59bd 985d acbc
00000150: 24a1 8cbc b66c 84bd 0747 be3d 58d3 773e
00000160: 1443 91bd 10f8 cc3d fd61 22bd bb73 013e
00000170: 5a90 32bd 02ca 003d 0d87 6bbd 9eeb 04be
00000180: b3ac e43d cb72 883d 0e5e ffbd d70a 023d
00000190: 0967 2f3d 6e52 233d 7d90 8cbd 4c11 78bd
000001a0: 3f28 12be 3f0d a2bd 0065 50bd 8e9a ffbd
000001b0: 4030 3d3e 1d2a 4fbd e9a9 f43c 53e8 fd3d
000001c0: bf39 a2bd 723f 623d ec23 813d a5a7 8fbc
000001d0: 8b61 90bd cdf3 15bc c2b6 be3c e0e8 19be
000001e0: 49bc 98bd cb03 7e3c b2ba 3ebd e02d 6cbd
000001f0: 254e 593e d604 f73a 376c 78bb c12f 383e
00000200: 6e68 08bd 530e da3d a5a7 6bbe 8898 02bd
00000210: aae5 d93d 295b 72bd cb4a 2abe 96b3 a5bd
00000220: 6edc 38bd 52e9 56bd 1760 9fbd e5a0 293d
00000230: 7d14 403d 7611 933d 5c74 e93d 9ca0 cfbd
00000240: cb8f ac3b 88ce 973d 0b5b afbd 67dd 79bd
00000250: d53f 283d ca18 953c 0fac 63bc 2f83 aebd
00000260: 3622 75bd 2e0a ccbc 7601 453c d692 01be
00000270: c716 be3b c110 b3bb 434d f8bd 0b23 14be
00000280: 2e64 293d 5ec6 bf3b 9450 a3bd e295 f2bc
00000290: 4eb4 8f3d f606 8fbd 7462 dd3d bc9d ba3b
000002a0: d532 2f3d 57a0 413d 064e ee3d b903 abbc
000002b0: 4a75 893c e5bb 133d 7f72 83bd 2584 85bd
000002c0: ab90 41bd dbad 3e3e 0eea 67bd b51d c2bc
000002d0: 1f82 1e3d 01e0 3dbd f5b8 43bd c75f c0bc
000002e0: 9251 2ebd 0ed0 783d 77b0 a93d ce09 153d
000002f0: 4659 20be f4fd c1bc fbcc 253d 0d3a 27bb
00000300: ba7b 103c 21e2 b13d 4330 9fbc 4e86 693e
00000310: 9b86 b83d 57b0 c83d fdd5 1f3e ec5e 2c3d
00000320: f278 dabb 1bae 773d edb7 e2bd 424d 4bbd
00000330: a539 07be ddc3 4cbd f0c0 833d 3f7e 0d3d
00000340: 8f8f 43bd 34eb edbd 54ad ea3c 5749 893d
00000350: 54b2 963c 9288 ba3c 501f 15be 783e 773d
00000360: 0fc3 a4bd 6697 dcbc 5b42 27bd e142 083d
00000370: 9be3 99bc 6be3 b1bd 22dc 873d 89ed b33c
00000380: d0a8 86bd fcdb d13d b50b a13d d727 ebbd
00000390: e415 4939 5091 19bd b90d 96bd 3262 8e3b
000003a0: 4b1a a73d 2e8d cf3d 8806 30bd 8501 04bd
000003b0: 95ef 07bd d7d1 723d eafb 793d d055 b53c
000003c0: a27a 253d af54 13bd 9360 a3bc bba8 8d3d
000003d0: 24c3 aebc 121e e5bd fd5d 153d 7c59 293d
000003e0: 6c79 223e 59ed 45bd 1bd2 c0bd 7eac bd3c
000003f0: 952c d43c 931f 3cbd 1b60 073e 4855 003e

network_body.linear_encoder.seq_layers.2.bias f4 [128]
0.0 0.0 0.0 0.0 0.0 0.0 0.0 0.0
0.0 0.0 0.0 0.0 0.0 0.0 0.0 0.0
0.0 0.0 0.0 0.0 0.0 0.0 0.0 0.0
0.0 0.0 0.0 0.0 0.0 0.0 0.0 0.0
0.0 0.0 0.0 0.0 0.0 0.0 0.0 0.0
0.0 0.0 0.0 0.0 0.0 0.0 0.0 0.0
0.0 0.0 0.0 0.0 0.0 0.0 0.0 0.0
0.0 0.0 0.0 0.0 0.0 0.0 0.0 0.0
0.0 0.0 0.0 0.0 0.0 0.0 0.0 0.0
0.0 0.0 0.0 0.0 0.0 0.0 0.0 0.0
0.0 0.0 0.0 0.0 0.0 0.0 0.0 0.0
0.0 0.0 0.0 0.0 0.0 0.0 0.0 0.0
0.0 0.0 0.0 0.0 0.0 0.0 0.0 0.0
0.0 0.0 0.0 0.0 0.0 0.0 0.0 0.0
0.0 0.0 0.0 0.0 0.0 0.0 0.0 0.0
0.0 0.0 0.0 0.0 0.0 0.0 0.0 0.0
00000000: 0000 0000 0000 0000 0000 0000 0000 0000
00000010: 0000 0000 0000 0000 0000 0000 0000 0000
00000020: 0000 0000 0000 0000 0000 0000 0000 0000
00000030: 0000 0000 0000 0000 0000 0000 0000 0000
00000040: 0000 0000 0000 0000 0000 0000 0000 0000
00000050: 0000 0000 0000 0000 0000 0000 0000 0000
00000060: 0000 0000 0000 0000 0000 0000 0000 0000
00000070: 0000 0000 0000 0000 0000 0000 0000 0000
00000080: 0000 0000 0000 0000 0000 0000 0000 0000
00000090: 0000 0000 0000 0000 0000 0000 0000 0000
000000a0: 0000 0000 0000 0000 0000 0000 0000 0000
000000b0: 0000 0000 0000 0000 0000 0000 0000 0000
000000c0: 0000 0000 0000 0000 0000 0000 0000 0000
000000d0: 0000 0000 0000 0000 0000 0000 0000 0000
000000e0: 0000 0000 0000 0000 0000 0000 0000 0000
000000f0: 0000 0000 0000 0000 0000 0000 0000 0000
00000100: 0000 0000 0000 0000 0000 0000 0000 0000
00000110: 0000 0000 0000 0000 0000 0000 0000 0000
00000120: 0000 0000 0000 0000 0000 0000 0000 0000
00000130: 0000 0000 0000 0000 0000 0000 0000 0000
00000140: 0000 0000 0000 0000 0000 0000 0000 0000
00000150: 0000 0000 0000 0000 0000 0000 0000 0000
00000160: 0000 0000 0000 0000 0000 0000 0000 0000
00000170: 0000 0000 0000 0000 0000 0000 0000 0000
00000180: 0000 0000 0000 0000 0000 0000 0000 0000
00000190: 0000 0000 0000 0000 0000 0000 0000 0000
000001a0: 0000 0000 0000 0000 0000 0000 0000 0000
000001b0: 0000 0000 0000 0000 0000 0000 0000 0000
000001c0: 0000 0000 0000 0000 0000 0000 0000 0000
000001d0: 0000 0000 0000 0000 0000 0000 0000 0000
000001e0: 0000 0000 0000 0000 0000 0000 0000 0000
000001f0: 0000 0000 0000 0000 0000 0000 0000 0000

action_model._discrete_distribution.branches.0.weight f4 [11, 128]
-0.009349805 0.003990733 -0.007399346 0.012797362 0.009363013 -0.0026333376 0.010532301 -0.0077803093
-0.0036114862 0.01093519 -0.004188808 -0.00030775118 -0.00417081 -0.017752763 -0.00016255434 -0.0016540086
0.0042027244 0.0045575514 0.007950366 -0.0015857395 0.0011655437 -0.022602385 -0.002897203 -0.007973717
0.0038491318 0.0010460148 -0.012393041 -0.017125867 0.006115625 0.008189488 0.009547732 -0.006005169
-0.008266967 0.0008112808 -0.0053238603 0.004860677 -0.025481597 -0.0012275046 -0.0031755615 -0.0073694414
-0.0040985504 0.004131599 -0.013109918 0.010964125 0.013271028 0.0039256234 0.008491779 0.008488036
0.0036711933 0.00038168885 0.0027030774 -0.0033069067 0.003852219 -0.0018964041 -0.01045919 -0.0026487967
-0.0033935586 0.008741262 0.011618117 0.0011744698 0.00853908 0.010563496 -0.00071019796 -0.014200806
0.0042843884 -0.001658872 0.011605498 0.009554411 -0.015035494 -0.0039551863 -0.0045193834 -0.010968204
0.005431508 -0.016065387 -0.0051561682 -0.00759009 0.007442714 0.009965649 0.002080403 0.0063766106
0.009246424 0.001898031 -0.0072170845 0.0014037405 -0.0046930425 0.0094751 -0.0064868215 0.0026739766
0.0021484827 -0.0002482925 -0.005826964 0.013139774 0.0017948024 0.019541493 0.0006472591 -0.0052023917
-0.004814036 0.0090991305 -0.0095402505 0.0043261335 -0.007342016 0.004225869 0.018692946 -0.008981169
-0.0032748065 -0.0040173214 0.0015875002 -0.00025221962 0.010105292 0.00059023756 0.018743603 -0.002724651
0.005678396 -0.015617417 0.01502907 -0.008418746 -0.026329532 0.001335621 -0.01122472 -0.0037625488
-0.009367796 0.0071158386 -0.010061064 -0.018143091 -0.008584469 0.0064811297 -0.0068836096 -0.00147154
0.00011727171 0.010983635 -0.005460297 0.012691488 -0.0010678662 -0.0025036833 0.011363245 -0.00020811535
0.017712254 -0.005228947 -0.008982214 -0.00040126112 0.008173811 -0.012436478 0.007855048 0.005698696
-0.008570662 -0.0048401817 -0.009104437 -0.0012659219 0.00039441627 -0.006089939 0.008612433 0.016105676
0.011989671 -0.009322512 0.0022239953 -0.0051343907 0.0067774034 -0.0028799279 0.015864925 0.000775804
0.005509111 -0.015281128 0.016825419 -0.018446017 0.009201017 -0.014584436 -0.0031331324 -0.0018396795
0.0067639365 -0.0034316375 -0.017368358 -0.015279065 -0.010955904 -0.00448844 0.001545735 0.004747176
0.00020084302 -0.009287733 0.0024999187 0.0013334894 -0.018916024 0.012034841 -0.013934093 0.00029180123
0.006010961 0.0033388285 0.01702179 0.010052586 0.00858225 -0.0072772983 -0.007954011 -0.0020258778
8.469268e-05 -0.0026320778 0.0036248348 -0.0017713096 -0.012826415 -0.017205028 -0.0004938242 -0.005285628
0.0026197145 -0.0010713646 0.005695728 -0.00013852531 0.0028804194 0.004695332 0.00087821076 -0.0042074253
-0.0061128396 -0.0033252516 -0.0025907117 0.008324402 -0.0024338153 0.014542579 -0.0029269124 -0.0041217515
-0.009271518 0.0024278031 -0.006384413 -0.0012858902 0.010286572 -0.0071043717 0.004317401 0.0072388235
-0.005544878 -0.00045861542 0.0059690746 0.009888295 0.00049842393 -0.009826438 -0.0119482195 0.0040433896
-0.0024090258 0.0007728781 0.0019978846 0.010547715 -0.0064311177 -0.014071837 -0.007964318 0.025907585
-0.0076980204 -0.005076188 0.010202704 -0.010679373 0.0074739926 -0.00836184 -0.01112281 0.012874636
-0.005212776 -0.0060102446 0.006116345 -0.0068330825 -0.00027351637 -0.0080576455 0.0005745653 -0.018776989
00000000: ed2f 19bc b2c4 823b 3776 f2bb 07ac 513c
00000010: 5367 193c 1394 2cbb ac8f 2c3c f7f1 febb
00000020: afae 6cbb 8329 333c 4542 89bb aa59 a1b9
00000030: 4aab 88bb 3e6e 91bc 5973 2ab9 52cb d8ba
00000040: 02b7 893b 8357 953b 4042 023c 97d8 cfba
00000050: 28c5 983a a328 b9bc 00df 3dbb 31a4 02bc
00000060: b741 7c3b 6f1a 893a 2e0c 4bbc 8c4b 8cbc
00000070: 9565 c83b 342d 063c 176e 1c3c 02c7 c4bb
00000080: 2c72 07bc 22ac 543a c773 aebb 5046 9f3b
00000090: c8be d0bc 38e4 a0ba 151d 50bb 5b7b f1bb
000000a0: 224d 86bb 5d62 873b fbca 56bc e0a2 333c
000000b0: ba6e 593c 84a2 803b 1a21 0b3c 6711 0b3c
000000c0: 6798 703b 691d c839 1d26 313b b0b8 58bb
000000d0: 8375 7c3b c390 f8ba 065d 2bbc 6f97 2dbb
000000e0: 7766 5ebb 8337 0f3c ea59 3e3c abf0 993a
000000f0: 7fe7 0b3c 8312 2d3c 942c 3aba 7faa 68bc
00000100: 0e64 8c3b 826e d9ba fd24 3e3c 1b8a 1c3c
00000110: 6f57 76bc 829a 81bb 5617 94bb fbb3 33bc
00000120: cbfa b13b 8f9b 83bc 13f5 a8bb 4ab6 f8bb
00000130: 03e2 f33b f646 233c 5f57 083b e3f2 d03b
00000140: 507e 173c 5ac7 f83a 4b7d ecbb b7fd b73a
00000150: 18c8 99bb 733d 1b3c 678f d4bb e23d 2f3b
00000160: 8fcd 0c3b 412d 82b9 1ef0 bebb 3548 573c
00000170: 933f eb3a 7b15 a03c d3ac 293a d378 aabb
00000180: 10bf 9dbb 8514 153c b64e 1cbc 3dc2 8d3b
00000190: 4b95 f0bb 2979 8a3b f321 993c c125 13bc
000001a0: 239e 56bb bca3 83bb ab13 d03a 583c 84b9
000001b0: ab90 253c 2cba 1a3a 2f8c 993c 0f90 32bb
000001c0: d711 ba3b 32e0 7fbc 7d3c 763c c8ee 09bc
000001d0: 08b1 d7bc 0110 af3a e3e7 37bc 1895 76bb
000001e0: 627b 19bc fb2b e93b 29d7 24bc d2a0 94bc
000001f0: dfa5 0cbc a85f d43b e78f e1bb b0e0 c0ba
00000200: c5ef f538 b4f4 333c 4bec b2bb f5ef 4f3c
00000210: a5f7 8bba d614 24bb e72c 3a3c 8a39 5ab9
00000220: 4a19 913c 9657 abbb 232a 13bc 5b60 d2b9
00000230: 73eb 053c 5fc2 4bbc 76b2 003c 20bc ba3b
00000240: f66b 0cbc 639a 9ebb c72a 15bc 4aed a5ba
00000250: a8c9 ce39 1c8e c7bb 2a1b 0d3c 0df0 833c
00000260: 5370 443c 73bd 18bc 73c0 113b 643e a8bb
00000270: fb14 de3b 2cbd 3cbb 29f7 813c 535f 4b3a
00000280: c685 b43b b25d 7abc 76d5 893c 1a1c 97bc
00000290: ddbf 163c 8ff3 6ebc 3d55 4dbb 6721 f1ba
000002a0: 03a4 dd3b 53e5 60bb 1648 8ebc 0b55 7abc
000002b0: 6480 33bc c413 93bb 439a ca3a 338e 9b3b
000002c0: 6399 5239 932b 18bc add5 233b 7bc8 ae3a
000002d0: c7f5 9abc c82d 453c d24b 64bc e6fc 9839
000002e0: 98f7 c43b 3fd0 5a3b 4871 8b3c 9ab3 243c
000002f0: 919c 0c3c 6776 eebb 8a51 02bc 97c4 04bb
00000300: 099d b138 f07e 2cbb a38e 6d3b 4a2b e8ba
00000310: e225 52bc 8ff1 8cbc fb73 01ba 1033 adbb
00000320: 84af 2b3b 086d 8cba 3ba3 ba3b 1b41 11b9
00000330: 6bc5 3c3b 4ddb 993b ba37 663a 71de 89bb
00000340: 374e c8bb 77ec 59bb eec8 29bb 1363 083c
00000350: a580 1fbb ff43 6e3c 71d1 3fbb c20f 87bb
00000360: 91e7 17bc c71b 1f3b 5734 d1bb 518b a8ba
00000370: 0389 283c cacb e8bb fc78 8d3b a733 ed3b
00000380: cfb1 b5bb 5272 f0b9 3a98 c33b 8402 223c
00000390: aaa8 023a 11ff 20bc 77c2 43bc 697e 843b
000003a0: bfe0 1dbb f99a 4a3a f1ee 023b 53d0 2c3c
000003b0: 20bc d2bb 908d 66bc c57c 02bc 253c d43c
000003c0: ad3f fcbb 2756 a6bb 3e29 273c 89f8 2ebc
000003d0: 65e8 f43b 1900 09bc 723c 36bc 23f0 523c
000003e0: efcf aabb 96f1 c4bb 9f6b c83b 0de8 dfbb
000003f0: bf66 8fb9 3704 04bc 6d9e 163a 33d2 99bc

action_model._discrete_distribution.branches.0.bias f4 [11]
0.0 0.0 0.0 0.0 0.0 0.0 0.0 0.0
0.0 0.0 0.0
00000000: 0000 0000 0000 0000 0000 0000 0000 0000
00000010: 0000 0000 0000 0000 0000 0000 0000 0000
00000020: 0000 0000 0000 0000 0000 0000

action_model._discrete_distribution.branches.1.weight f4 [29, 128]
-0.00371457 -0.004248112 -0.0043905857 -0.0006282918 0.0006793959 0.0066799144 -0.00828443 0.0025120233
-0.0032035948 -0.0073942766 -0.00060680043 0.00096597214 -0.011577595 -0.002101082 0.01248766 -0.019037044
0.0042333924 -0.0029232304 0.0017616324 0.004862364 -0.0015661697 0.019970033 0.0040103616 -0.010463178
0.008164398 0.004943543 -0.0008557968 0.0067762756 -0.011418304 0.0034984201 0.004260963 -0.00095005427
-0.008651508 0.00530397 0.00079118105 -0.012714635 0.0029590123 -0.0062340307 -0.018899368 -0.011304823
0.0057721897 -0.0099476045 0.00080484425 0.005269335 0.015565633 0.015612696 0.010245684 0.007323996
0.02923554 -0.001137259 0.00077744963 -0.006196193 -0.016891867 0.005528065 0.012766621 -0.0066363486
-0.005494418 0.0006596782 -0.0026252118 -0.0082344385 -0.0030767166 0.021277191 0.011211234 0.019151092
0.013290738 -0.0021572316 0.0061562257 -0.01312923 -0.024699831 0.010057144 0.010863227 0.010160792
-0.012287493 -0.0030087333 -0.003197318 -0.0057705985 0.012693286 -0.021989068 0.0035807267 0.0065896288
0.013143419 0.008751446 -0.0026889825 0.012009612 0.0013512209 0.004651343 -0.004548127 0.013533749
-0.00081967 0.012397103 -0.008657929 -0.000596831 0.004149548 -0.021967845 -0.005128056 -0.0076169483
-0.0070385854 -0.004018716 -0.012478287 0.008900869 5.8796864e-05 -0.0007442748 0.012027285 -0.006272652
-0.007391516 -0.0029338629 -0.008523976 -0.0071822973 0.012052792 0.0005457739 0.00090575154 -7.632353e-05
0.007893413 0.014092922 -0.012070513 -0.015112882 -0.0040371087 -0.008042956 -0.002740187 8.785463e-05
-0.0030860917 -0.008862427 0.010003439 0.0076455674 -0.0071369 0.0029186574 -0.006414046 0.009428505
-0.017438186 0.006737692 -0.0030940901 -0.00050339213 0.010296899 0.003828734 0.009735637 0.0021688459
-0.0019515146 -0.007517176 0.013321325 -0.003706436 0.0029912551 0.0032957853 0.0004450493 -0.006051745
-0.000104470724 -0.009268569 0.02246525 0.0036364198 -0.0069498606 -0.006978092 -0.015132683 0.00997859
-0.0074665784 -0.00637269 0.010917331 0.015712427 0.008858424 6.488582e-05 -0.00061388494 -0.016099427
0.013145985 -0.006653748 -0.0054355157 0.0071534165 0.0043967324 -0.00888146 0.0030281753 0.011185778
0.0074067707 -0.0026336326 0.003025292 0.007818407 -0.00053009635 -0.005308357 0.009103363 0.01956582
0.0037418406 -0.0010187019 0.01231315 -0.00066361576 0.015519679 0.009704542 0.010901903 -0.002903965
0.003936748 -0.017331596 -0.0025411134 -0.011438699 0.0042280937 -0.009596449 0.006297519 -0.0045738555
0.0075460784 -0.0032953543 0.0013375412 -0.0061195237 -0.003372309 -0.001056204 0.0022638498 0.013050328
0.0029074484 -0.0067455056 -0.009119685 -0.00034585828 0.00671217 0.007764955 -0.001683783 -0.00019790673
0.0048551694 0.011554273 0.015511482 0.007059564 0.00025366462 0.0014257914 -0.019375587 0.009064174
0.0045868633 -0.00612137 0.008157176 0.0023684565 -0.0020498293 0.0024714821 0.01567947 0.004839334
0.0072854287 -0.016878735 -0.003403616 0.0019114107 0.012093923 0.016857533 0.0069566234 -0.0023860764
0.0015633965 0.01571389 0.0030726052 -0.009757107 -0.009543184 -0.0007059951 -0.012996529 -0.0048649414
-0.0038776037 -0.006151742 -0.0019250375 -0.018212805 0.010827458 -0.010636232 0.012404258 -0.0041589285
0.009067905 -0.010186409 -0.00016296319 0.0001965676 -0.0071479143 0.00049097586 0.0051511656 -0.00863451
00000000: 2570 73bb bf33 8bbb e7de 8fbb f3b3 24ba
00000010: 7d19 323a 2fe3 da3b 6bbb 07bc c2a0 243b
00000020: 67f3 51bb b04b f2bb b011 1fba 4b39 7d3a
00000030: f4af 3dbc 4eb2 09bb 0b99 4c3c 93f3 9bbc
00000040: 45b8 8a3b ab93 3fbb 93e6 e63a 7754 9f3b
00000050: ef47 cdba 3298 a33c 5a69 833b c06d 2bbc
00000060: f8c3 053c 72fd a13b 8d57 60ba 850b de3b
00000070: d713 3bbc c045 653b 8c9f 8b3b 100d 79ba
00000080: 0ebf 0dbc edcc ad3b 4367 4f3a 0b51 50bc
00000090: fdeb 413b d746 ccbb d9d2 9abc dd37 39bc
000000a0: a324 bd3b 47fb 22bc 2ffc 523a 63aa ac3b
000000b0: ff06 7f3c 65cc 7f3c 83dd 273c 22fe ef3b
000000c0: 5f7f ef3c 1410 95ba c3cd 4b3a 6f09 cbbb
000000d0: d060 8abc c524 b53b 172b 513c ba75 d9bb
000000e0: 850a b4bb 41ee 2c3a bf0b 2cbb bde9 06bc
000000f0: bda2 49bb 814d ae3c 53af 373c c0e2 9c3c
00000100: 65c1 593c 5760 0dbb 2aba c93b fb1b 57bc
00000110: 4d57 cabc b8c6 243c adfb 313c 7379 263c
00000120: 7b51 49bc 2b2e 45bb 188a 51bb 4a17 bdbb
00000130: 80f7 4f3c 6b22 b4bc a0aa 6a3b d0ed d73b
00000140: 7f57 573c 3a62 0f3c a439 30bb f7c3 443c
00000150: 731b b13a 4b6a 983b 7408 95bb a8bc 5d3c
00000160: 1fdf 56ba 381d 4b3c fcd9 0dbc a774 1cba
00000170: eef8 873b e9f5 b3bc 4009 a8bb 9897 f9bb
00000180: efa3 e6bb 6faf 83bb bb71 4cbc f3d4 113c
00000190: a79c 7638 701b 43ba 170e 453c d28a cdbb
000001a0: 8834 f2bb 0d46 40bb 26a8 0bbc 7a59 ebbb
000001b0: 1379 453c 4412 0f3a f56f 6d3a e20f a0b8
000001c0: 6053 013c 00e6 663c 67c3 45bc 059c 77bc
000001d0: b949 84bb 9ac6 03bc b694 33bb 983e b838
000001e0: 0740 4abb b733 11bc 77e5 233c ab87 fa3b
000001f0: a8dc e9bb f246 3f3b eb2c d2bb 047a 1a3c
00000200: 87da 8ebc dbc7 dc3b 38c6 4abb 13f6 03ba
00000210: 53b4 283c 7feb 7a3b 3982 1f3c 3223 0e3b
00000220: f7c9 ffba a552 f6bb b041 5a3c ade7 72bb
00000230: ef08 443b 1afe 573b 8255 e939 b74d c6bb
00000240: 4b17 dbb8 32db 17bc 0b09 b83c 0051 6e3b
00000250: a8bb e3bb 7aa8 e4bb 13ef 77bc 3d7d 233c
00000260: 33aa f4bb 00d2 d0bb 9bde 323c 59b7 803c
00000270: ec22 113c 4f13 8838 1fed 20ba f2e2 83bc
00000280: 4262 573c af07 dabb 691c b2bb 3567 ea3b
00000290: 7712 903b 8b83 11bc 5a74 463b 8e44 373c
000002a0: 7fb4 f23b 0699 2cbb fa43 463b c718 003c
000002b0: 2af6 0aba baf1 adbb 4626 153c 8048 a03c
000002c0: ab39 753b f785 85ba 18bd 493c 80f6 2dba
000002d0: 4046 7e3c cdff 1e3c e59d 323c 7350 3ebb
000002e0: d6ff 803b fefa 8dbc cf88 26bb 6269 3bbc
000002f0: d28b 8a3b 6d3a 1dbc 6b5b ce3b 48e0 95bb
00000300: 1845 f73b dff6 57bb 6f50 af3a 4986 c8bb
00000310: f501 5dbb 5370 8aba 195d 143b 0bd1 553c
00000320: e48a 3e3b 6709 ddbb bb6a 15bc 5054 b5b9
00000330: c3f1 db3b 2a71 fe3b 62b2 dcba 2f85 4fb9
00000340: 1d18 9f3b 224e 3d3c df23 7e3c ea53 e73b
00000350: 4afe 8439 9fe1 ba3a 8db9 9ebc e781 143c
00000360: 664d 963b c695 c8bb ada5 053c 1b38 1b3b
00000370: 6e56 06bb 97f8 213b 3b72 803c 4793 9e3b
00000380: 9bba ee3b 4645 8abc 330f 5fbb 4d88 fa3a
00000390: 9725 463c cf18 8a3c 63f4 e33b b85f 1cbb
000003a0: e2ea cc3a 6aba 803c c35d 493b 46dc 1fbc
000003b0: 045b 1cbc 8712 39ba 65ef 54bc 166a 9fbb
000003c0: 651f 7ebb 8d94 c9bb 8a51 fcba 0533 95bc
000003d0: a765 313c 9743 2ebc 3b3b 4b3c 9f47 88bb
000003e0: 8d91 143c e5e4 26bc 19e1 2ab9 b71d 4e39
000003f0: 0d39 eabb d5b4 003a 1ccb a83b c377 0dbc

action_model._discrete_distribution.branches.1.bias f4 [29]
0.0 0.0 0.0 0.0 0.0 0.0 0.0 0.0
0.0 0.0 0.0 0.0 0.0 0.0 0.0 0.0
0.0 0.0 0.0 0.0 0.0 0.0 0.0 0.0
0.0 0.0 0.0 0.0 0.0
00000000: 0000 0000 0000 0000 0000 0000 0000 0000
00000010: 0000 0000 0000 0000 0000 0000 0000 0000
00000020: 0000 0000 0000 0000 0000 0000 0000 0000
00000030: 0000 0000 0000 0000 0000 0000 0000 0000
00000040: 0000 0000 0000 0000 0000 0000 0000 0000
00000050: 0000 0000 0000 0000 0000 0000 0000 0000
00000060: 0000 0000 0000 0000 0000 0000 0000 0000
00000070: 0000 0000

action_model._discrete_distribution.branches.2.weight f4 [29, 128]
0.001311621 -0.009294693 -0.0038379652 -0.005872279 0.01568518 0.0073547848 0.0064912788 -0.0121632395
-0.008755774 0.0060107927 -0.018318545 0.0071528084 0.002238629 -0.0083106095 0.00437511 -0.003988446
0.010627834 -0.013855926 -0.006491735 -0.000436394 -0.0014703991 -0.0072285943 0.0027882156 -0.0046597924
0.0018632489 -0.024564553 -0.0011042095 -0.0011290266 0.0069768825 -0.006317561 0.00068568793 0.0016252792
-0.006763482 -2.5440026e-05 0.0058177523 -0.017523518 -0.010454242 0.013773766 -0.0048327614 0.0042959442
-0.0018577755 0.00757957 -0.007669633 -0.0029991015 -0.0016289408 0.0024939382 0.012703742 -0.0017550342
-0.011975594 -0.009568445 0.0022675467 0.0007730983 -0.008461547 0.0019434014 0.008026878 -0.015089506
-0.008689926 -0.005581851 0.009982969 -2.7700413e-05 0.006166352 -0.0054476107 -0.0063387803 0.0066920565
-0.008845831 0.011145625 -0.005604766 -0.007030163 -0.0031230801 -0.010152192 -0.0031385198 0.002398125
0.0013103863 -0.0074303225 0.012834233 0.0009312643 0.003982925 0.009398181 -0.011194293 -0.0053423936
0.0038790356 0.0129852565 -0.0011219826 0.0069388524 0.0030459107 0.01002687 0.008741931 -0.0063294307
-0.0035165788 0.006858207 0.0052630748 0.011120579 0.015739115 -0.014154442 -0.0058157495 0.0046938476
-0.013467677 -0.0020306446 0.0077457353 -0.011035912 0.0056698844 -0.0050746044 -0.0047472464 0.004312502
-0.003119535 -0.011050134 -0.003089711 -0.0177953 0.0024385543 -0.004661281 0.009375294 0.006433124
0.01517406 -0.007934365 -0.005218497 -0.0021562355 -0.0109889535 -0.0061794296 -0.0018875242 -0.0013339777
-0.0052384944 -0.013453948 0.010383227 -0.021756744 0.0026295653 -0.00013230459 -0.011119957 0.0077821263
-0.0011523156 0.0010897281 0.0024698954 -0.0016147158 -0.0064989175 -0.019546617 -0.0037051998 0.0007288586
-0.0035984812 0.0012567028 -0.012031389 0.01952312 -0.010716024 0.008008472 -0.015208869 -0.0040010912
-0.002534602 -0.0070378617 -0.0017804597 0.008300028 0.0011883284 -0.014078351 -0.005809658 0.0011521679
0.00650631 -0.0059579113 -0.00614716 0.00039367145 -0.005685431 -0.004724135 -0.0023613763 -0.0033822318
-0.012788779 -0.015510819 -0.0074167973 0.007259565 0.0055171377 -0.005330293 0.0074845213 -0.0046211397
-0.0030993747 -0.0070756744 -0.0001609202 0.0016151775 0.0056390297 -0.0040363884 -0.0009045005 -0.0022469407
0.012203776 -5.3642238e-05 0.015966617 -0.0099071115 0.008965256 -0.01430274 -0.006127478 0.016181393
-0.0024365198 -0.0044935164 -0.009234218 -0.0012497561 -0.0014887428 -0.012997556 0.018192573 0.0005192998
-0.013077627 0.009439906 0.0074285083 0.003854466 -0.0072404454 -0.013935777 0.005431785 0.00992024
0.0019247441 0.0028890404 0.009422395 0.0027886583 -0.01504049 -0.0043653017 -0.00037441356 -0.0040795407
0.0033144322 0.004871351 -0.0020415715 0.003638807 0.0038414646 0.004560792 0.013538824 0.006613893
0.005992947 -0.021574346 -0.0022002214 0.008030559 -0.012993668 -0.005082629 0.0071998746 0.010831943
0.014657782 0.003090089 0.0044455095 -0.012317045 0.0042913067 -0.0147522455 0.0053167553 0.009736606
0.0064906958 -0.00920831 0.0059063933 0.004785702 -0.0055347574 0.0063930782 0.0025813812 0.006753178
0.014543456 -0.003694458 -0.0022810784 0.0004324029 0.0010332445 -0.0038792656 0.0014596004 -0.005339488
-0.01204148 0.019582717 -0.009965727 -0.018459706 0.0005014744 0.007598682 0.0046938933 -0.013844616
00000000: b3ea ab3a c548 18bc 5f86 7bbb 3f6c c0bb
00000010: 357e 803c 6800 f13b cbb4 d43b 5348 47bc
00000020: 6174 0fbc 2ff6 c43b c610 96bc 1b62 ea3b
00000030: f6b5 123b 3929 08bc 155d 8f3b 83b1 82bb
00000040: 5e20 2e3c f703 63bc 9fb8 d4bb d0cb e4b9
00000050: 68ba c0ba d8dd ecbb 7fba 363b 2cb1 98bb
00000060: 4238 f43a 9a3b c9bc 1fbb 90ba d9fb 93ba
00000070: 559e e43b 8b03 cfbb bdbf 333a 5207 d53a
00000080: 33a0 ddbb 0a68 d5b7 d8a2 be3b 7b8d 8fbc
00000090: 4548 2bbc 5dab 613c 245c 9ebb fec4 8c3b
000000a0: 9a80 f3ba 0b5e f83b 8b51 fbbb 938c 44bb
000000b0: 2f82 d5ba 5771 233b 5b23 503c 2d09 e6ba
000000c0: 4835 44bc f8c4 1cbc 1f9b 143b c0a9 4a3a
000000d0: 4da2 0abc bbb9 fe3a 2b83 033c fa39 77bc
000000e0: 3160 0ebc f6e7 b6bb 9b8f 233c 2f5e e8b7
000000f0: 1c0f ca3b df81 b2bb 8bb5 cfbb 0a49 db3b
00000100: 1bee 10bc 249c 363c 2fa8 b7bb 485d e6bb
00000110: 97ac 4cbb 6155 26bc a0af 4dbb dc29 1d3b
00000120: 45c1 ab3a 107a f3bb ad46 523c 1720 743a
00000130: 3283 823b d4fa 193c 4568 37bc 3f0f afbb
00000140: 6b37 7e3b 1dc0 543c 7d0f 93ba 505f e33b
00000150: e79d 473b be47 243c 513a 0f3c 1d67 cfbb
00000160: 6776 66bb cfba e03b df75 ac3b 1733 363c
00000170: 51ef 803c 08e8 67bc 0b92 bebb d9ce 993b
00000180: 88a7 5cbc 9014 05bb f0cf fd3b f8cf 34bc
00000190: 70ca b93b de48 a6bb ca8e 9bbb e44f 8d3b
000001a0: 1d71 4cbb 9f0b 35bc c07c 4abb 73c7 91bc
000001b0: 27d0 1f3b a9bd 98bb d59a 193c f5cc d23b
000001c0: 9f9c 783c 24ff 01bc edff aabb a14f 0dbb
000001d0: 030b 34bc d07c cabb cd66 f7ba ddd8 aeba
000001e0: ada7 abbb f36d 5cbc 691e 2a3c 333b b2bc
000001f0: c954 2c3b 3ebb 0ab9 7b30 36bc 3501 ff3b
00000200: 4c09 97ba 35d5 8e3a f8dd 213b dfa4 d3ba
00000210: dff4 d4bb 3a20 a0bc f0d2 72bb df10 3f3a
00000220: 7fd4 6bbb f3b7 a43a 4e1f 45bc f3ee 9f3c
00000230: 4392 2fbc f735 033c 9f2e 79bc 961b 83bb
00000240: 911b 26bb dd9d e6bb 505e e9ba d7fc 073c
00000250: afc1 9b3a e2a8 66bc f25e bebb 5704 973a
00000260: e232 d53b 953a c3bb 1e6e c9bb b065 ce39
00000270: da4c babb ebcc 9abb 52c1 1abb 6fa8 5dbb
00000280: 0788 51bc 1721 7ebc 9b08 f3bb a5e1 ed3b
00000290: 1bc9 b43b bda9 aebb b740 f53b ee6c 97bb
000002a0: e11e 4bbb 0fdb e7bb b0bc 28b9 5db4 d33a
000002b0: 9cc7 b83b ae43 84bb 001c 6dba 6941 13bb
000002c0: 59f2 473c eafd 60b8 6ccc 823c 7051 22bc
000002d0: 02e3 123c 0a56 6abc 03c9 c8bb d78e 843c
000002e0: 05ae 1fbb 593e 93bb 1e4b 17bc dbce a3ba
000002f0: eb21 c3ba b3f3 54bc 9708 953c 9f21 083a
00000300: 8b43 56bc d6a9 1a3c d86a f33b 359b 7c3b
00000310: 4241 edbb e352 64bc 1dfd b13b 8188 223c
00000320: b247 fc3a 0e56 3d3b 6460 1a3c ecc1 363b
00000330: 636c 76bc ce0a 8fbb f04c c4b9 abad 85bb
00000340: f236 593b db9f 9f3b e3cb 05bb 0d79 6e3b
00000350: 15c1 7b3b b272 953b f2d1 5d3c 5bb9 d83b
00000360: 7c60 c43b afbc b0bc 9731 10bb 9b92 033c
00000370: 65e3 54bc 2f8c a6bb edec eb3b 7678 313c
00000380: 3227 703c 1783 4a3b a3ab 913b 6ecd 49bc
00000390: 179e 8c3b 67b3 71bc 2d38 ae3b 4986 1f3c
000003a0: e7af d43b 74de 16bc 6b8a c13b 61d1 9c3b
000003b0: e95c b5bb 077d d13b 642c 293b c349 dd3b
000003c0: ad47 6e3c b81e 72bb 257e 15bb 23b4 e239
000003d0: ef6d 873a 473b 7ebb 1050 bf3a dff6 aebb
000003e0: a149 45bc ef6b a03c 4a47 23bc cf38 97bc
000003f0: 6175 033a 5dfe f83b 3bcf 993b 87d4 62bc

action_model._discrete_distribution.branches.2.bias f4 [29]
0.0 0.0 0.0 0.0 0.0 0.0 0.0 0.0
0.0 0.0 0.0 0.0 0.0 0.0 0.0 0.0
0.0 0.0 0.0 0.0 0.0 0.0 0.0 0.0
0.0 0.0 0.0 0.0 0.0
00000000: 0000 0000 0000 0000 0000 0000 0000 0000
00000010: 0000 0000 0000 0000 0000 0000 0000 0000
00000020: 0000 0000 0000 0000 0000 0000 0000 0000
00000030: 0000 0000 0000 0000 0000 0000 0000 0000
00000040: 0000 0000 0000 0000 0000 0000 0000 0000
00000050: 0000 0000 0000 0000 0000 0000 0000 0000
00000060: 0000 0000 0000 0000 0000 0000 0000 0000
00000070: 0000 0000

action_model._discrete_distribution.branches.3.weight f4 [9, 128]
-0.018472543 0.0070072957 0.008479984 0.00023260036 0.0050590895 -0.005340167 0.009006469 -0.015588231
0.0011138457 0.004640361 -0.005944423 -0.0014227986 0.0016098764 -0.02255928 -0.0041414 -0.0013089698
0.014791294 5.7475863e-05 0.007722848 -0.017551474 0.0032086067 0.00036044727 0.0035283926 -0.004442928
0.00031666632 -0.002968924 0.0054627717 -0.0022324992 0.014206869 0.013427484 0.005233945 -0.014317415
-0.008217562 -0.006169182 0.009866252 -0.0030844898 -0.0056897737 -0.0006987674 0.001312429 0.0011403367
0.0041065076 -0.0046736444 -0.011895605 0.0033052794 -0.00117722 -0.00076396205 0.002183522 0.004670547
0.004339607 -0.006618418 0.016545182 0.011492676 -0.0024708451 -4.4455122e-05 0.0078749135 0.003265945
-0.008522299 0.0025748406 0.0021943457 0.0043931906 0.0035038036 -0.0073570237 0.008453969 -0.013340183
-0.0009052724 -0.0017491163 0.0013736124 -0.00776817 -0.0034452719 -0.0023733613 0.0056473725 0.00044320602
-0.010163098 -0.003926584 -0.009260875 -0.015281536 0.009520411 -0.01675818 0.028898513 -0.01005378
0.020102387 0.00771179 -0.00361044 -0.016109137 -0.0031506699 -0.0006439336 4.651058e-05 0.0040977173
0.005034698 -0.009922176 0.0016032472 -0.0042118854 -0.006151421 0.01607014 -0.0062705125 0.0031185886
-0.018212657 -0.012396159 -0.007817681 0.00045927634 -0.0016581215 0.007999982 0.0031392665 -0.0028100794
-0.0036854898 0.0051308805 0.002822869 0.017824274 -0.0009051361 -0.011362592 0.0018210547 0.0064609023
-0.0017710954 -0.006097957 -0.013803539 -0.019879637 -0.0041772253 2.5357445e-05 -0.010631439 0.0026227531
0.0034676571 -0.003896673 -0.0071900147 -0.0035582148 0.0024560739 0.005399931 -0.009156742 -0.007730067
0.0033866563 0.0026764302 -0.010614194 -0.007308345 0.0023446241 -0.0012330018 -0.0036546984 -0.0006303654
0.018484024 -0.0007207933 -0.01955436 -0.00676524 0.0024652728 -0.013412528 0.00055214955 -0.011592363
-0.011820932 -0.002836735 0.0021447164 0.002119544 0.0015037606 0.006364291 -0.011546175 0.009202111
0.010936772 -0.010448708 0.02127709 -0.0095293 -0.011545569 -0.013220902 0.003626449 -0.0012171377
-0.022282489 -0.008801445 0.012283706 -0.001128001 -0.0026114886 -0.00026412375 0.0030019393 0.011926837
0.011659862 -0.021435454 0.015155899 0.0003856144 -0.017582705 0.011623579 0.009468104 0.0022924214
0.005601262 0.024610901 -0.004929574 -0.0022152688 0.011826554 0.013194168 0.0017159376 0.006041292
0.0063734115 0.005506119 -0.0023740637 -0.008502855 -0.0031234731 -0.014266456 -0.00468851 0.009246691
-0.004111643 -0.024661396 0.0102456 0.011298558 0.0044245287 -0.012860179 -0.0014379697 0.0017484095
0.00081570557 -0.0024847982 -0.00011175805 -0.006209323 -0.00033412085 -0.0065891086 0.004477156 -0.005204832
-0.0043491535 -0.00158554 -0.011637084 -0.008808645 0.016207064 -0.003500973 -0.00051499845 0.010501947
-0.006052285 0.0078056953 0.004874711 0.0045915493 -0.008478425 0.0080429735 0.008169758 -0.0068706027
-0.0051392983 0.004195146 -0.00403442 0.0009952412 0.006354364 0.004010557 -0.012051816 -0.0040938933
-0.006048864 0.00047529978 0.0038313798 0.01697381 0.007472943 -0.016133498 -0.008750155 -0.006613023
0.00961799 -0.003058248 0.012659582 0.0033720534 0.0016456227 -0.0071949647 0.003976057 0.000102408514
0.00798055 -0.00464439 0.004661754 0.012167872 -0.007225152 -0.0023071968 -0.014158635 0.002000883
00000000: bb53 97bc 759d e53b a1ef 0a3c 2fe6 7339
00000010: b8c6 a53b 91fc aebb de8f 133c c865 7fbc
00000020: 76fe 913a 2b0e 983b 6fc9 c2bb 337d baba
00000030: 7d02 d33a 3dce b8bc 95b4 87bb bd91 abba
00000040: 2f57 723c 3d12 7138 f20f fd3b 1cc8 8fbc
00000050: 7d47 523b 6afa bc39 9b3c 673b fb95 91bb
00000060: 3c06 a639 4792 42bb 0d01 b33b 1f4f 12bb
00000070: edc3 683c f3fe 5b3c 8381 ab3b 9793 6abc
00000080: f4a2 06bc d926 cabb 0fa6 213c 2725 4abb
00000090: 4871 babb 7d2d 37ba cf05 ac3a 5a77 953a
000000a0: e28f 863b 5f25 99bb c9e5 42bc 639d 583b
000000b0: f34c 9aba a044 48ba 6c19 0f3b 630b 993b
000000c0: 4333 8e3b 50df d8bb c389 873c c74b 3c3c
000000d0: e7ed 21bb 5375 3ab8 c805 013c 7709 563b
000000e0: 1da1 0bbc a8be 283b 03cf 0f3b c1f4 8f3b
000000f0: 12a0 653b 3013 f1bb 8482 0a3c c890 5abc
00000100: cd4f 6dba 9b42 e5ba c90a b43a 228c febb
00000110: 12ca 61bb 658a 1bbb 980d b93b 1b5e e839
00000120: 1f83 26bc 93aa 80bb edba 17bc 685f 7abc
00000130: 7ffb 1b3c 7348 89bc 93bc ec3c 9cb8 24bc
00000140: c3ad a43c 2fb3 fc3b 229d 6cbb 4ff7 83bc
00000150: 787b 4ebb a7cd 28ba 5b14 4338 2546 863b
00000160: 1cfa a43b 9f90 22bc 0d24 d23a db03 8abb
00000170: dc91 c9bb 87a5 833c df78 cdbb 3c61 4c3b
00000180: b632 95bc 4219 4bbc bb15 00bc 07cb f039
00000190: 5355 d9ba 5b12 033c 27bc 4d3b 4f29 38bb
000001a0: 4288 71bb f220 a83b e2ff 383b 3604 923c
000001b0: a846 6dba 2a2a 3abc 75b0 ee3a fab5 d33b
000001c0: 1a24 e8ba 5fd1 c7bb 3d28 62bc 9fda a2bc
000001d0: 1be1 88bb b3b6 d437 7d2f 2ebc 7fe2 2b3b
000001e0: a241 633b 535f 7fbb 379a ebbb f030 69bb
000001f0: 15f6 203b e8f1 b03b 2906 16bc 804c fdbb
00000200: aaf2 5d3b 0c67 2f3b 28e7 2dbc d77a efbb
00000210: 44a8 193b ad9c a1ba aa83 6fbb 1b3f 25ba
00000220: cf6b 973c 9ff3 3cba 7730 a0bc f2ae ddbb
00000230: 6a90 213b 38c0 5bbc 21be 103a e5ed 3dbc
00000240: 95ac 41bc 84e8 39bb 5f8e 0c3b 0ce8 0a3b
00000250: d519 c53a 8b8b d03b 2b2c 3dbc 73c4 163c
00000260: 2630 333c 0f31 2bbc 4b4d ae3c c820 1cbc
00000270: a029 3dbc 7b9c 58bc b8a9 6d3b 5d88 9fba
00000280: c489 b6bc f033 10bc 9941 493c 6fd9 93ba
00000290: 8225 2bbb 177a 8ab9 2fbc 443b c868 433c
000002a0: 0109 3f3c 6899 afbc 7350 783c 4a2c ca39
000002b0: 9b09 90bc d370 3e3c 1b20 1b3c 733c 163b
000002c0: cb8a b73b cd9c c93c 4488 a1bb 0b2e 11bb
000002d0: 2ac4 413c 5a2c 583c 50e9 e03a 08f6 c53b
000002e0: 0dd8 d03b ad6c b43b 2e96 1bbb 8f4f 0bbc
000002f0: 2fb3 4cbb dabd 69bc 13a2 99bb 6f7f 173c
00000300: f6ba 86bb b206 cabc 29dd 273c 961d 393c
00000310: a3fb 903b 80b3 52bc 427a bcba e32a e53a
00000320: 13d5 553a ffd7 22bb a55f eab8 9477 cbbb
00000330: f12c afb9 73e9 d7bb 1bb5 923b 4c8d aabb
00000340: 5883 8ebb e5d1 cfba 78a9 3ebc 2352 10bc
00000350: adc4 843c 9570 65bb f600 07ba 5c10 2c3c
00000360: 3f52 c6bb ebc6 ff3b 0abc 9f3b b574 963b
00000370: 18e9 0abc adc6 033c 73da 053c cb22 e1bb
00000380: 8f67 a8bb 6f77 893b 2b33 84bb c172 823a
00000390: 4538 d03b fe6a 833b fb74 45bc 1126 86bb
000003a0: 8d35 c6bb a831 f939 e317 7b3b a90c 8b3c
000003b0: 97df f43b 662a 84bc cf5c 0fbc 0fb2 d8bb
000003c0: c694 1d3c e36c 48bb 236a 4f3c abfd 5c3b
000003d0: efb1 d73a bdc3 ebbb 9549 823b 27c4 d638
000003e0: dac0 023c f82f 98bb a0c1 983b c15b 473c
000003f0: f8c0 ecbb 5734 17bb 9ff9 67bc 3f21 033b

action_model._discrete_distribution.branches.3.bias f4 [9]
0.0 0.0 0.0 0.0 0.0 0.0 0.0 0.0
0.0
00000000: 0000 0000 0000 0000 0000 0000 0000 0000
00000010: 0000 0000 0000 0000 0000 0000 0000 0000
00000020: 0000 0000
