results/ppo/BadChessPlayer/BadChessPlayer-2636.pt (torch, 835111 bytes, 47 tensors)

network_body.linear_encoder.seq_layers.0.weight f4 [128, 456]
0.021535818 0.011855749 -0.010712746 -0.07237477 -0.046224803 -0.047903027 0.0144864535 -0.070482545
0.009246733 0.060635712 -0.011727696 -0.024087863 0.05239235 0.11675448 0.03299505 -0.05948429
0.016599659 -0.108939365 -0.030555896 -0.0136057725 0.031367946 0.032201704 -0.024619576 0.00077262975
-0.050312 0.0032799114 -0.028384449 -0.03356352 -0.012736851 -0.06609601 0.030450286 0.06257465
-0.024697397 0.027572324 0.0006707725 0.055851314 0.057426423 -0.03540893 -0.018541459 0.050208554
-0.004608376 -0.0466198 -0.0011032769 0.038994767 -0.044412464 0.064324714 -0.050579492 0.02822406
-0.0602323 0.010780545 0.03855077 -0.025073921 -0.008963305 0.0046012998 -0.054284826 0.050870113
-0.029537795 -0.038340144 -0.040611662 0.018477557 -0.040693 0.029976847 0.00458399 0.03209775
0.053759206 0.049426954 0.04077718 -0.03705852 0.06104537 0.009989243 0.07160063 0.1215171
0.008386229 -0.019962689 -0.028305242 -0.09559297 0.033648115 -0.050884698 -0.013220234 -0.010974573
-0.042519644 0.03987526 0.053186078 0.04079804 0.013005009 -0.009134206 -0.042976312 -0.08689281
-0.0036131328 -0.01282227 -0.049108878 -0.036843672 0.05605373 -0.08740378 0.028527265 0.07415838
0.033699155 -0.031151488 -0.08385177 0.06820212 0.019270815 -0.0953375 0.016902998 0.014538167
0.041011468 -0.02031484 0.05919555 -0.012796747 -0.043826606 0.04416009 -0.009799275 -0.103781804
-0.06054124 0.0025947634 -0.07323501 -0.02954637 -0.018476762 0.044749234 0.037248068 0.021692181
-0.019692633 0.0049645803 -0.12276008 0.028796399 0.021767706 -0.051446553 -0.03118186 -0.02320061
0.07769742 -0.016130263 0.073246054 -0.08880529 0.082604304 -0.03408327 -0.03607775 -0.010024264
0.0028423017 0.050716154 0.038156793 -0.015552607 0.010255863 -0.014919357 0.035154194 0.016045986
-0.020436415 -0.034636874 -0.0009269724 0.074706554 0.051841024 -0.08645394 -0.034989435 -0.03921066
-0.016511098 -0.008903677 0.0122741405 -0.0718223 0.010169887 0.011354356 -0.021206155 -0.04586572
-0.027651172 -0.033593208 -0.08029014 -0.10843378 -0.01924642 -0.07686376 -0.04114242 0.013231406
0.012205051 0.026117546 0.052196756 -0.003240489 0.093584016 0.027159575 0.082661375 -0.006304702
0.010386133 0.008379527 -0.01751668 -0.008414443 -0.016965488 0.054922353 0.06375021 0.010790883
-0.018536393 -0.0005136285 -0.008046853 0.008837807 0.024670487 -0.015487044 -0.13123569 -0.02675878
0.045463026 -0.0029348054 -0.026443185 -0.04323679 -0.03268102 -0.009326935 -0.05305376 -0.08240793
-0.039964966 0.024615923 -0.0586173 0.015202154 0.05575733 -0.08197453 0.088622905 0.003998167
0.056007877 -0.039690316 -0.051752206 0.114187 -0.06487079 -0.03452275 0.01762604 -0.089935005
-0.02004532 0.016636766 0.015168605 -0.002174866 0.048210863 0.044774387 0.03856097 -0.06719467
0.019471796 -0.00233614 -0.02083091 -0.056942385 0.02493569 -0.07115163 0.010806769 0.0416616
-0.038533323 0.007793964 0.0027097354 -0.0021280064 -0.07403418 -0.0019158429 -0.0021700591 0.06608441
-0.019318914 -0.0885714 -0.0896826 -0.03396996 -0.025609642 0.003932101 0.020812204 -0.015183432
-0.027975364 0.014638432 0.014443687 0.0322865 -0.13514966 0.11190341 0.03306666 0.02163364
00000000: e26b b03c 9e3e 423c 8384 2fbc 3939 94bd
00000010: 3856 3dbd f735 44bd 9758 6d3c 2759 90bd
00000020: 9c7f 173c 275d 783d 8625 40bc e953 c5bc
00000030: 5c99 563d f91c ef3d d125 073d cda5 73bd
00000040: 02fc 873c 9a1b dfbd 5c50 fabc bfea 5ebc
00000050: ad7b 003d efe5 033d feae c9bc 4e8a 4a3a
00000060: f513 4ebd c8f3 563b 8186 e8bc e779 09bd
00000070: 3aae 50bc 585d 87bd e172 f93c 2327 803d
00000080: 3252 cabc 5bdf e13c c8d6 2f3a 59c4 643d
00000090: f837 6b3d f408 11bd 42e4 97bc 7ca7 4d3d
000000a0: dc01 97bb 67f4 3ebd d49b 90ba fab8 1f3d
000000b0: d8e9 35bd adbc 833d 712c 4fbd 2536 e73c
000000c0: 25b6 76bd e2a0 303c 6ae7 1d3d d367 cdbc
000000d0: d3da 12bc 80c6 963b c459 5ebd 2e5d 503d
000000e0: 3ff9 f1bc 8e0a 1dbd 6a58 26bd 3f5e 973c
000000f0: b4ad 26bd 0192 f53c 4c35 963b ee78 033d
00000100: 9d32 5c3d eb73 4a3d f905 273d adca 17bd
00000110: b60a 7a3d eca9 233c 5aa3 923d f5dd f83d
00000120: 6566 093c cb88 a3bc 65e0 e7bc 3fc6 c3bd
00000130: 9bd2 093d 796c 50bd ae99 58bc b2ce 33bc
00000140: 1429 2ebd 3e54 233d a5d9 593d d81b 273d
00000150: f612 553c a3a7 15bc ee07 30bd dcf4 b1bd
00000160: 4fca 6cbb 8014 52bc 6426 49bd 64e9 16bd
00000170: 9998 653d c100 b3bd 03b2 e93c 59e0 973d
00000180: 2008 0a3d 6831 ffbc 7aba abbd 8ead 8b3d
00000190: d4dd 9d3c 4f40 c3bd 2878 8a3c 7e31 6e3c
000001a0: a4fb 273d 4f6b a6bc 0877 723d 72a9 51bc
000001b0: 8783 33bd 36e1 343d 238d 20bc 8e8b d4bd
000001c0: 17fa 77bd e80c 2a3b 3dfc 95bd 3b0b f2bc
000001d0: 945c 97bc f94a 373d 6e91 183d cdb3 b13c
000001e0: 7252 a1bc ebad a23b a369 fbbd 6de6 eb3c
000001f0: 3052 b23c 9fb9 52bd 1a71 ffbc 350f bebc
00000200: d31f 9f3d 9d23 84bc 0702 963d 8cdf b5bd
00000210: 722c a93d e69a 0bbd 43c6 13bd d03c 24bc
00000220: e945 3a3b bebb 4f3d 4c4a 1c3d 5dd0 7ebc
00000230: 3508 283c 5270 74bc d8fd 0f3d df72 833c
00000240: 456a a7bc 65df 0dbd 1100 73ba c0ff 983d
00000250: 4157 543d c30e b1bd 1551 0fbd 5b9b 20bd
00000260: 4842 87bc bae0 11bc 7a19 493c 9217 93bd
00000270: 999f 263c 9f07 3a3c 88b8 adbc b1dd 3bbd
00000280: b684 e2bc 0899 09bd 286f a4bd 8812 debd
00000290: abaa 9dbc bf6a 9dbd f484 28bd 8ac8 583c
000002a0: b2f7 473c 77f4 d53c 44cc 553d 625e 54bb
000002b0: faa8 bf3d c27d de3c 5e4a a93d ac97 cebb
000002c0: 992a 2a3c 494a 093c 247f 8fbc bbdc 09bc
000002d0: 35fb 8abc 43f6 603d 788f 823d 3ecc 303c
000002e0: a2d9 97bc 06a5 06ba f3d6 03bc 73cc 103c
000002f0: c319 ca3c 5fbd 7dbc a662 06be 3b35 dbbc
00000300: 7037 3a3d dd55 40bb 619f d8bc 0f19 31bd
00000310: 89dc 05bd 00d0 18bc e64e 59bd 7dc5 a8bd
00000320: 4eb2 23bd 55a7 c93c b218 70bd 7512 793c
00000330: cc61 643d 43e2 a7bd ed7f b53d 0e03 833b
00000340: 8468 653d 5092 22bd 1ffa 53bd e0da e93d
00000350: fada 84bd ba67 0dbd 7c64 903c d82f b8bd
00000360: 1536 a4bc d449 883c be85 783c 3288 0ebb
00000370: c178 453d 5965 373d 1cf2 1d3d 5c9d 89bd
00000380: 5183 9f3c ed19 19bb 96a5 aabc 6b3c 69bd
00000390: ef45 cc3c f2b7 91bd e00e 313c 5ba5 2a3d
000003a0: 1ed5 1dbd 8264 ff3b d195 313b 0676 0bbb
000003b0: 3b9f 97bd 051d fbba 8d37 0ebb 4357 873d
000003c0: b342 9ebc ec64 b5bd 83ab b7bd 1624 0bbd
000003d0: 50cb d1bc dbd8 803b 5b7e aa3c eec3 78bc
000003e0: 972c e5bc 09d6 6f3c 37a5 6c3c d93e 043d
000003f0: ac64 0abe 9d2d e53d e870 073d 0839 b13c

network_body.linear_encoder.seq_layers.0.bias f4 [128]
0.0 0.0 0.0 0.0 0.0 0.0 0.0 0.0
0.0 0.0 0.0 0.0 0.0 0.0 0.0 0.0
0.0 0.0 0.0 0.0 0.0 0.0 0.0 0.0
0.0 0.0 0.0 0.0 0.0 0.0 0.0 0.0
0.0 0.0 0.0 0.0 0.0 0.0 0.0 0.0
0.0 0.0 0.0 0.0 0.0 0.0 0.0 0.0
0.0 0.0 0.0 0.0 0.0 0.0 0.0 0.0
0.0 0.0 0.0 0.0 0.0 0.0 0.0 0.0
0.0 0.0 0.0 0.0 0.0 0.0 0.0 0.0
0.0 0.0 0.0 0.0 0.0 0.0 0.0 0.0
0.0 0.0 0.0 0.0 0.0 0.0 0.0 0.0
0.0 0.0 0.0 0.0 0.0 0.0 0.0 0.0
0.0 0.0 0.0 0.0 0.0 0.0 0.0 0.0
0.0 0.0 0.0 0.0 0.0 0.0 0.0 0.0
0.0 0.0 0.0 0.0 0.0 0.0 0.0 0.0
0.0 0.0 0.0 0.0 0.0 0.0 0.0 0.0
00000000: 0000 0000 0000 0000 0000 0000 0000 0000
00000010: 0000 0000 0000 0000 0000 0000 0000 0000
00000020: 0000 0000 0000 0000 0000 0000 0000 0000
00000030: 0000 0000 0000 0000 0000 0000 0000 0000
00000040: 0000 0000 0000 0000 0000 0000 0000 0000
00000050: 0000 0000 0000 0000 0000 0000 0000 0000
00000060: 0000 0000 0000 0000 0000 0000 0000 0000
00000070: 0000 0000 0000 0000 0000 0000 0000 0000
00000080: 0000 0000 0000 0000 0000 0000 0000 0000
00000090: 0000 0000 0000 0000 0000 0000 0000 0000
000000a0: 0000 0000 0000 0000 0000 0000 0000 0000
000000b0: 0000 0000 0000 0000 0000 0000 0000 0000
000000c0: 0000 0000 0000 0000 0000 0000 0000 0000
000000d0: 0000 0000 0000 0000 0000 0000 0000 0000
000000e0: 0000 0000 0000 0000 0000 0000 0000 0000
000000f0: 0000 0000 0000 0000 0000 0000 0000 0000
00000100: 0000 0000 0000 0000 0000 0000 0000 0000
00000110: 0000 0000 0000 0000 0000 0000 0000 0000
00000120: 0000 0000 0000 0000 0000 0000 0000 0000
00000130: 0000 0000 0000 0000 0000 0000 0000 0000
00000140: 0000 0000 0000 0000 0000 0000 0000 0000
00000150: 0000 0000 0000 0000 0000 0000 0000 0000
00000160: 0000 0000 0000 0000 0000 0000 0000 0000
00000170: 0000 0000 0000 0000 0000 0000 0000 0000
00000180: 0000 0000 0000 0000 0000 0000 0000 0000
00000190: 0000 0000 0000 0000 0000 0000 0000 0000
000001a0: 0000 0000 0000 0000 0000 0000 0000 0000
000001b0: 0000 0000 0000 0000 0000 0000 0000 0000
000001c0: 0000 0000 0000 0000 0000 0000 0000 0000
000001d0: 0000 0000 0000 0000 0000 0000 0000 0000
000001e0: 0000 0000 0000 0000 0000 0000 0000 0000
000001f0: 0000 0000 0000 0000 0000 0000 0000 0000

network_body.linear_encoder.seq_layers.2.weight f4 [128, 128]
-0.035073802 0.034116488 -0.053228486 0.04488719 0.13791643 -0.049241822 0.04994575 0.052165642
0.039405547 -0.18390585 0.11085495 -0.07663508 0.15200983 0.08350057 -0.054427166 0.040403157
0.048410274 -0.09656212 -0.043768156 -0.036253538 -0.01990855 -0.17486332 -0.039897434 -0.07186693
0.09947333 -0.0054566804 -0.067483865 -0.041377652 -0.025883293 -0.032886434 -0.16674188 0.029072156
0.08156128 -0.023954071 -0.016039843 0.12606058 -0.019649994 -0.13877028 0.06111736 -0.0036150794
0.2749733 -0.19051228 0.0128986845 0.078910686 0.085456945 0.06760785 0.018659012 0.21188815
-0.05381385 0.1495124 -0.16888246 -0.07339727 -0.071859196 0.17320089 0.0586794 -0.013976089
0.053908516 0.00137507 0.0658934 -0.03626074 -0.020238796 0.06402475 0.027793633 -0.09055519
0.0332518 0.1223514 -0.050087787 0.013782064 -0.105042756 0.021955155 -0.074080184 0.0065250727
0.12702751 0.17029686 0.016190873 -0.032107085 0.02131457 -0.013807024 0.023773829 0.053187013
0.10356099 -0.0044311723 0.028278878 0.1340543 0.015613744 0.07973206 0.069272466 -0.07300744
-0.09643404 0.047546048 -0.123405114 0.060859658 0.16443361 -0.069229774 -0.037568215 -0.057971444
-0.086257786 0.09646839 0.006287632 -0.021950318 0.034069106 0.17101069 -0.04073393 -0.0055072834
-0.07725186 -0.034990214 -0.08853508 -0.112234496 -0.07921126 0.04771462 -0.0019399967 -0.052974425
-0.13852964 0.03975189 -0.037046675 0.12860157 0.069492154 0.034664508 0.08216502 0.078512035
0.011257274 0.010491181 -0.011714204 0.0733794 -0.11623833 -0.09935758 -0.05442479 0.010912378
0.03588199 -0.025113292 -0.16117118 -0.045934603 -0.042787503 0.0552692 -0.017195446 -0.12846306
-0.10856159 0.011167441 0.0022007914 0.072256364 0.12732498 -0.12708938 -0.058658544 -0.14485869
0.037034824 -0.0011400247 0.00905624 0.009095871 0.13157184 0.07062866 0.084861875 0.08036839
0.02918614 0.05009274 0.14222139 -0.091422446 -0.021954095 -0.07045848 0.052537896 -0.14417829
-0.0008819717 0.03536364 0.031516105 -0.27938363 -0.07415157 0.047569882 0.060156297 -0.01252737
0.056908686 0.085326836 0.10356522 0.13184227 0.16208823 -0.065790236 0.16380805 0.12239654
0.11259605 0.106679425 0.0373032 0.030379226 -0.12335692 0.04001378 0.09724812 0.078014866
0.092895575 -0.10967464 -0.16780508 -0.19084546 -0.096966 0.014474783 0.05116752 0.09883931
-0.21957362 -0.036543187 -0.07927148 -0.088245235 -0.022741804 -0.04547455 0.17141822 0.13425781
0.13696854 -0.017363548 0.06893964 -0.1283503 0.021181209 0.17902242 0.056596965 0.09530651
0.027958272 0.049399067 0.06861526 0.1072171 0.0608496 -0.10795079 -0.11218474 0.0915241
-0.1596582 0.101275 0.019791434 0.087193 0.055890188 0.06039689 -0.08579799 0.03600101
0.12662128 -0.051532004 -0.052628886 0.12579492 -0.042659275 -0.014778589 -0.15409808 0.072149195
0.11578129 -0.056082778 0.14715146 0.104857594 0.009760309 -0.027837887 -0.08061066 -0.009981309
-0.03519105 0.04286256 0.006983584 -0.1855868 0.057683676 0.006871522 0.0066469526 -0.028389812
-0.00066782575 -0.12733239 0.13253699 -0.009794705 0.041052777 0.11779002 0.10675358 -0.007193146
00000000: 8ca9 0fbd bbbd 0b3d 1d06 5abd a1db 373d
00000010: f739 0d3e cbb1 49bd ea93 4c3d a4ab 553d
00000020: b667 213d d151 3cbe ec07 e33d daf2 9cbd
00000030: 77a8 1b3e 5902 ab3d 05ef 5ebd c87d 253d
00000040: da49 463d 5cc2 c5bd 3d46 33bd 977e 14bd
00000050: 4117 a3bc 5f0f 33be 7e6b 23bd f82e 93bd
00000060: acb8 cb3d f4cd b2bb fb34 8abd 9d7b 29bd
00000070: 3309 d4bc edb3 06bd 62be 2abe bb28 ee3c
00000080: 9a09 a73d 543b c4bc fd65 83bc 0616 013e
00000090: 06f9 a0bc cc19 0ebe 3256 7a3d f8ea 6cbb
000000a0: 4dc9 8c3e a715 43be 0155 533c ed9b a13d
000000b0: 0d04 af3d fc75 8a3d c9da 983c 35f9 583e
000000c0: e96b 5cbd c719 193e 86ef 2cbe 4f51 96bd
000000d0: ea2a 93bd 935b 313e cf59 703d f7fb 64bc
000000e0: 2dcf 5c3d b13b b43a 1ef3 863d 2486 14bd
000000f0: d5cb a5bc 681f 833d 79af e33c 0075 b9bd
00000100: 0a33 083d 5f93 fa3d da28 4dbd 2bce 613c
00000110: a820 d7bd 4cdb b33c 5ab7 97bd 47d0 d53b
00000120: 8013 023e 4d62 2e3e b9a2 843c b882 03bd
00000130: e59b ae3c db36 62bc 55c1 c23c a0da 593d
00000140: c917 d43d 5e33 91bb 1ba9 e73c 8845 093e
00000150: cad0 7f3c 904a a33d b9de 8d3d ed84 95bd
00000160: 367f c5bd a5bf 423d d2bb fcbd fa47 793d
00000170: 4961 283e 57c8 8dbd 21e1 19bd 7773 6dbd
00000180: eca7 b0bd 3891 c53d 7b08 ce3b 27d1 b3bc
00000190: 0c8c 0b3d 6d1d 2f3e 9fd8 26bd 7176 b4bb
000001a0: 3936 9ebd e651 0fbd e151 b5bd 33db e5bd
000001b0: 8339 a2bd 6870 433d 7d47 feba b6fb 58bd
000001c0: b7da 0dbe e1d2 223d 41be 17bd 21b0 033e
000001d0: e751 8e3d 5ffc 0d3d 2246 a83d ebca a03d
000001e0: 6e70 383c 34e3 2b3c efec 3fbc f047 963d
000001f0: 5d0e eebd fd7b cbbd 87ec 5ebd d5c9 323c
00000200: fef8 123d 64ba cdbc 0f0a 25be ec25 3cbd
00000210: f341 2fbd f561 623d 77dd 8cbc d28b 03be
00000220: 8a55 debd a4f7 363c 273b 103b 25fb 933d
00000230: 7b61 023e b823 02be f143 70bd d655 14be
00000240: d4b1 173d e26c 95ba a060 143c d906 153c
00000250: c5ba 063e c2a5 903d 10cc ad3d 2f98 a43d
00000260: c617 ef3c 0c2e 4d3d 7ca2 113e b13b bbbd
00000270: 13d9 b3bc 894c 90bd fa31 573d 79a3 13be
00000280: 1e34 67ba 77d9 103d 0817 013d 5f0b 8fbe
00000290: c7dc 97bd a3d8 423d 7366 763d 993f 4dbc
000002a0: 1519 693d d6bf ae3d 011a d43d a901 073e
000002b0: 75fa 253e 08bd 86bd 4cbd 273e 0aab fa3d
000002c0: c298 e63d be7a da3d 3ecb 183d dbdd f83c
000002d0: 8ea2 fcbd 7de5 233d 062a c73d 42c6 9f3d
000002e0: 0940 be3d 199d e0bd 18d5 2bbe fe6c 43be
000002f0: 1c96 c6bd a427 6d3c 0995 513d 446c ca3d
00000300: e8d7 60be 4fae 15bd 1659 a2bd ebb9 b4bd
00000310: 054d babc 8643 3abd 4288 2f3e e17a 093e
00000320: 7b41 0c3e 003e 8ebc 3a30 8d3d 436e 03be
00000330: 3784 ad3c a751 373e 38d2 673d 0f30 c33d
00000340: bf08 e53c ad56 4a3d 2886 8c3d a494 db3d
00000350: 6e3d 793d 4e15 ddbd 1dc1 e5bd fd70 bb3d
00000360: 707d 23be 4469 cf3d a521 a23c 3e92 b23d
00000370: 1ced 643d bb62 773d dbb6 afbd cc75 133d
00000380: 02a9 013e 3913 53bd 6391 57bd 62d0 003e
00000390: 7ebb 2ebd e521 72bc e3cb 1dbe f5c2 933d
000003a0: be1e ed3d 0eb7 65bd dfae 163e 94bf d63d
000003b0: b4e9 1f3c 480c e4bc 3417 a5bd a588 23bc
000003c0: 7e24 10bd a790 2f3d 8cd6 e43b 770a 3ebe
000003d0: b845 6c3d 812a e13b aece d93b c091 e8bc
000003e0: 0711 2fba 6c63 02be c7b7 073e f879 20bc
000003f0: f526 283d e53b f13d 9fa1 da3d 7bb4 ebbb

network_body.linear_encoder.seq_layers.2.bias f4 [128]
0.0 0.0 0.0 0.0 0.0 0.0 0.0 0.0
0.0 0.0 0.0 0.0 0.0 0.0 0.0 0.0
0.0 0.0 0.0 0.0 0.0 0.0 0.0 0.0
0.0 0.0 0.0 0.0 0.0 0.0 0.0 0.0
0.0 0.0 0.0 0.0 0.0 0.0 0.0 0.0
0.0 0.0 0.0 0.0 0.0 0.0 0.0 0.0
0.0 0.0 0.0 0.0 0.0 0.0 0.0 0.0
0.0 0.0 0.0 0.0 0.0 0.0 0.0 0.0
0.0 0.0 0.0 0.0 0.0 0.0 0.0 0.0
0.0 0.0 0.0 0.0 0.0 0.0 0.0 0.0
0.0 0.0 0.0 0.0 0.0 0.0 0.0 0.0
0.0 0.0 0.0 0.0 0.0 0.0 0.0 0.0
0.0 0.0 0.0 0.0 0.0 0.0 0.0 0.0
0.0 0.0 0.0 0.0 0.0 0.0 0.0 0.0
0.0 0.0 0.0 0.0 0.0 0.0 0.0 0.0
0.0 0.0 0.0 0.0 0.0 0.0 0.0 0.0
00000000: 0000 0000 0000 0000 0000 0000 0000 0000
00000010: 0000 0000 0000 0000 0000 0000 0000 0000
00000020: 0000 0000 0000 0000 0000 0000 0000 0000
00000030: 0000 0000 0000 0000 0000 0000 0000 0000
00000040: 0000 0000 0000 0000 0000 0000 0000 0000
00000050: 0000 0000 0000 0000 0000 0000 0000 0000
00000060: 0000 0000 0000 0000 0000 0000 0000 0000
00000070: 0000 0000 0000 0000 0000 0000 0000 0000
00000080: 0000 0000 0000 0000 0000 0000 0000 0000
00000090: 0000 0000 0000 0000 0000 0000 0000 0000
000000a0: 0000 0000 0000 0000 0000 0000 0000 0000
000000b0: 0000 0000 0000 0000 0000 0000 0000 0000
000000c0: 0000 0000 0000 0000 0000 0000 0000 0000
000000d0: 0000 0000 0000 0000 0000 0000 0000 0000
000000e0: 0000 0000 0000 0000 0000 0000 0000 0000
000000f0: 0000 0000 0000 0000 0000 0000 0000 0000
00000100: 0000 0000 0000 0000 0000 0000 0000 0000
00000110: 0000 0000 0000 0000 0000 0000 0000 0000
00000120: 0000 0000 0000 0000 0000 0000 0000 0000
00000130: 0000 0000 0000 0000 0000 0000 0000 0000
00000140: 0000 0000 0000 0000 0000 0000 0000 0000
00000150: 0000 0000 0000 0000 0000 0000 0000 0000
00000160: 0000 0000 0000 0000 0000 0000 0000 0000
00000170: 0000 0000 0000 0000 0000 0000 0000 0000
00000180: 0000 0000 0000 0000 0000 0000 0000 0000
00000190: 0000 0000 0000 0000 0000 0000 0000 0000
000001a0: 0000 0000 0000 0000 0000 0000 0000 0000
000001b0: 0000 0000 0000 0000 0000 0000 0000 0000
000001c0: 0000 0000 0000 0000 0000 0000 0000 0000
000001d0: 0000 0000 0000 0000 0000 0000 0000 0000
000001e0: 0000 0000 0000 0000 0000 0000 0000 0000
000001f0: 0000 0000 0000 0000 0000 0000 0000 0000

action_model._discrete_distribution.branches.0.weight f4 [11, 128]
-0.004930473 0.0035843875 -0.014331611 -0.005132358 0.007921542 0.0024894576 0.0020069506 0.002377561
0.001547696 0.012129458 -0.00625699 0.0033890728 0.012969181 -0.00016634907 0.004146738 -0.016890964
-0.0065461225 -0.01714501 0.0010046016 0.010791274 -0.0048692976 -0.009886288 -0.0013596824 -0.00694993
-0.009311279 0.0016138956 -0.0013858932 0.011397941 -0.01171097 0.0024881293 0.012626356 0.0055724857
-0.00950631 0.009637374 0.0025993998 -0.012757565 0.006553156 0.008029056 0.011700718 0.004078965
-0.004421579 0.010315031 0.0023658222 0.0067728423 -0.0002740305 -0.018465538 -0.002457282 0.006106456
3.3637476e-05 0.0013631391 0.0012277763 0.006586348 -0.005289457 0.00075603434 0.009326151 -0.004431236
0.013486402 -0.0075171436 -0.010791486 0.013894227 -0.003634461 -0.01204449 -0.002407659 0.007868279
-0.0041349684 0.0012050892 -0.014990126 -0.010568518 0.0010966843 0.005307767 -0.0048550027 0.015208349
-0.007403499 -0.0030100537 -0.011922612 0.0024356574 0.008019493 -0.0011351415 -0.0074125095 0.015500267
-0.011441968 -0.017225556 0.0140135065 0.0077390694 -0.0094147455 -0.008301116 -0.009199421 0.0049270187
0.0005413741 0.009766816 -0.0069224285 -0.005753703 0.010974326 -0.012454078 -0.00940097 -0.00069910643
-0.018882427 -0.0045079454 0.014403765 -0.0036285853 -0.008378845 0.0053523923 -0.0093535725 0.0010779183
0.009363187 -0.010859403 0.010241724 0.0045529967 -0.0019888708 -0.0082341535 -0.0082665915 0.0026590188
0.015685977 -0.008813436 0.009684735 -0.009007504 0.010476034 0.0051742303 -0.0050560446 -0.0075987126
-0.010346687 -0.009993556 0.0071266466 -0.018397206 -0.00058134465 -0.017043492 0.00875357 0.011897668
0.0047673765 -0.014271358 0.008970865 0.0038198528 -0.0059544635 -0.012565396 0.0032987841 0.015596451
-0.00097276596 -0.006668771 0.005477965 0.0017415436 0.0043638977 0.004217038 -0.018442865 0.007903663
0.014207335 0.005068537 0.0070101726 -0.010846985 -0.002925921 0.007917258 0.0077257524 -0.010357517
-0.0042514247 0.0019769995 0.0050291494 -0.0041184584 -0.012215224 -0.0026192253 -0.017264094 0.0047855005
-0.003612204 0.005537103 0.00338349 -0.007867094 0.0067681298 0.0048844283 0.0042374404 0.012441805
0.0052198125 -0.015026462 -0.0039359927 -0.002030754 0.0015491896 0.00402237 0.00095643953 0.0034245227
0.00065759075 0.0037580691 0.01284722 0.010641504 -0.005977947 0.0049221055 0.0025430808 -0.013127751
0.010221747 -0.0063685924 -0.005781556 -0.0008842313 -0.0030589306 0.01969129 0.0020508298 0.0006339576
0.006300018 0.008978174 -0.007329099 -0.017689824 0.004978414 -0.0145238135 -0.01211113 0.004721238
0.005369224 0.01326164 0.00087573146 -0.008747781 -0.0063218214 0.013235422 -0.0011748926 0.0070196474
0.011272044 0.022872305 -0.009925317 -0.001788989 -0.010326699 -0.0046777325 0.0017760935 -0.011700042
-0.012954778 0.0026766432 -0.0019934725 0.0040000672 0.0001436484 -0.00555472 -0.006544109 -0.0031332714
0.008164925 0.007530217 -0.016695198 0.0031066956 -0.0033964247 -0.0026122446 -0.0019444844 -0.0010010969
0.005446301 -0.004386956 -0.0029420294 -0.010117365 0.013187422 0.006502299 0.0035198424 0.006406477
-0.0010679545 0.012011609 0.00066637964 -0.0127695715 0.0032167905 0.00048768937 0.0013518272 0.0059641832
0.003929983 0.0051047383 -0.0036209158 -0.010448477 -0.016317789 -0.0107992655 0.0011757447 -0.0039872467
00000000: ce8f a1bb 0be8 6a3b 22cf 6abc 572d a8bb
00000010: 5bc9 013c 2b26 233b 0b87 033b dbd0 1b3b
00000020: 0fdc ca3a a2ba 463c 7007 cdbb 351b 5e3b
00000030: b07c 543c fd6d 2eb9 5ce1 873b eb5e 8abc
00000040: db80 d6bb b173 8cbc d6ac 833a e2cd 303c
00000050: a18e 9fbb 19fa 21bc 5f37 b2ba 3dbc e3bb
00000060: 568e 18bc 5a89 d33a dca6 b5ba 6ebe 3a3c
00000070: 5edf 3fbc e20f 233b c7de 4e3c 6699 b63b
00000080: 5bc0 1bbc 14e6 1d3c b15a 2a3b 1b05 51bc
00000090: dbbb d63b 4d8c 033c 5eb4 3f3c d7a8 853b
000000a0: e5e2 90bb 6000 293c e90b 1b3b b8ee dd3b
000000b0: c0ab 8fb9 0a45 97bc 5a0a 21bb aa18 c83b
000000c0: f715 0d38 5cab b23a 56ed a03a 4bd2 d73b
000000d0: 2e53 adbb 9b30 463a b6cc 183c e733 91bb
000000e0: 12f6 5c3c 5f52 f6bb c6ce 30bc 9da4 633c
000000f0: 2330 6ebb 4156 45bc d1c9 1dbb f4e9 003c
00000100: a17e 87bb 15f4 9d3a 2599 75bc 9427 2dbc
00000110: 9ebe 8f3a c7ec ad3b b716 9fbb 702c 793c
00000120: 0d99 f2bb 5244 45bb 0f57 43bc 8d9f 1f3b
00000130: 3164 033c 07c9 94ba a3e4 f2bb d5f4 7d3c
00000140: 1877 3bbc 9c1c 8dbc e898 653c 0598 fd3b
00000150: 4e40 1abc 6701 08bc 2bb9 16bc d472 a13b
00000160: 00eb 0d3a ff04 203c 8ad5 e2bb 8f89 bcbb
00000170: a9cd 333c 300c 4cbc 8706 1abc 3d44 37ba
00000180: 52af 9abc 63b7 93bb c5fd 6b3c 8fcd 6dbb
00000190: 6c47 09bc 1f63 af3b ba3f 19bc f048 8d3a
000001a0: 0d68 193c a3eb 31bc e7cc 273c 4e31 953b
000001b0: b757 02bb 8be8 06bc 9970 07bc ef42 2e3b
000001c0: e17f 803c 3b66 10bc b9ac 1e3c 3694 13bc
000001d0: aca3 2b3c 978c a93b 2dad a5bb 9ffe f8bb
000001e0: 2785 29bc 03bc 23bc a586 e93b bdb5 96bc
000001f0: 6165 18ba cb9e 8bbc 226b 0f3c 70ee 423c
00000200: a737 9c3b 6ad2 69bc 89fa 123c 7f56 7a3b
00000210: a91d c3bb 17df 4dbc 6a30 583b 4288 7f3c
00000220: 3801 7fba b585 dabb 8080 b33b 8244 e43a
00000230: 07ff 8e3b 142f 8a3b 7e15 97bc 5e7e 013c
00000240: e2c5 683c f815 a63b 97b5 e53b 8db7 31bc
00000250: cfc0 3fbb 63b7 013c 4f28 fd3b 93b2 29bc
00000260: 894f 8bbb 8c90 013b 90cb a43b 22f4 86bb
00000270: 5d22 48bc 4fa7 2bbb 6e6d 8dbc b0cf 9c3b
00000280: baba 6cbb 9670 b53b 8bbd 5d3b fce4 00bc
00000290: 30c7 dd3b 8e0d a03b 3ada 8a3b b6d8 4b3c
000002a0: f60a ab3b 8d31 76bc 80f9 80bb 6616 05bb
000002b0: 2d0e cb3a 16ce 833b 92b9 7a3a f56d 603b
000002c0: 2b62 2c3a f049 763b 257d 523c b459 2e3c
000002d0: a7e2 c3bb 9d49 a13b d1a9 263b c715 57bc
000002e0: 1d79 273c a0af d0bb 3573 bdbb c2cb 67ba
000002f0: 5778 48bb a14f a13c 3767 063b 2d30 263a
00000300: 6270 ce3b 3119 133c f028 f0bb 40ea 90bc
00000310: f721 a33b 4af5 6dbc c36d 46bc 9db4 9a3b
00000320: 51f0 af3b 5a47 593c 5891 653a da52 0fbc
00000330: 4827 cfbb 62d9 583c dbfe 99ba 1205 e63b
00000340: 61ae 383c b35e bb3c cc9d 22bc 827c eaba
00000350: 5131 29bc aa47 99bb cfcb e83a 88b1 3fbc
00000360: 4740 54bc 9f6a 2f3b eba4 02bb ff12 833b
00000370: 53a0 1639 5e04 b6bb f76f d6bb 9257 4dbb
00000380: 2dc6 053c 0ac0 f63b 5ec4 88bc b499 4b3b
00000390: 8d96 5ebb 3132 2bbb 12de feba 3d37 83ba
000003a0: e276 b23b 74c0 8fbb 10cf 40bb 4ec3 25bc
000003b0: 0f10 583c 3d11 d53b 28ad 663b 6ded d13b
000003c0: 9bfa 8bba 57cc 443c fbaf 2e3a 7737 51bc
000003d0: cad0 523b 8fb0 ff39 cb2f b13a 326f c33b
000003e0: 16c7 803b a645 a73b e34c 6dbb 1730 2bbc
000003f0: e2ac 85bc 67ef 30bc 721b 9a3a 73a7 82bb

action_model._discrete_distribution.branches.0.bias f4 [11]
0.0 0.0 0.0 0.0 0.0 0.0 0.0 0.0
0.0 0.0 0.0
00000000: 0000 0000 0000 0000 0000 0000 0000 0000
00000010: 0000 0000 0000 0000 0000 0000 0000 0000
00000020: 0000 0000 0000 0000 0000 0000

action_model._discrete_distribution.branches.1.weight f4 [29, 128]
-0.00079317245 -0.007936309 -0.018521022 0.005383525 -6.9017166e-05 0.008461853 1.786101e-05 0.0042233183
0.0056936652 -0.0088707125 0.003085393 -0.0003473339 0.01041625 -0.0038685878 -0.01150044 -0.003540424
0.010693724 -0.00806168 0.017321141 -0.0065319925 -0.0065748147 0.0057700654 0.013435627 -0.0038566373
0.019976651 -0.009405195 -0.018229961 0.01504744 0.0011182107 0.0032805551 -0.007841171 0.012304084
-9.842898e-05 0.0013251447 0.00022325413 -0.006701649 -0.010249994 -0.0038935335 -0.0068572424 0.0114325695
0.0030933532 -0.0029372433 -0.0065759644 -0.01413848 0.0038085913 0.021722762 -0.00967259 0.004016558
-0.013006823 0.001343646 0.0037881283 0.0027231397 -0.0026179694 0.014487974 0.011126352 -0.007603296
0.007943387 -0.0009819908 0.0045293774 -0.00841645 -0.013477044 -0.011408569 0.005560649 -0.006142491
-0.0057778647 0.0006132068 -0.00076092297 -0.0023636774 0.0079145515 -0.0107555 0.012572308 -0.0035896606
-0.004930508 -0.004866326 0.0021708428 0.0050232057 -0.006240604 -0.0077050193 0.0020664271 -0.010285079
0.003352878 0.008035604 0.009346257 -0.0042021777 0.0044482993 0.00906697 0.0043594013 -0.0067067817
-0.009131347 -0.0047525335 -0.01626974 0.0013634259 -0.0020159602 -0.0002827757 -0.0037437126 0.0019233773
0.0063005476 -0.0027284308 0.01481791 0.0021214492 -0.0040013464 0.012584025 0.013069582 -0.0041880566
-0.010721249 -0.008220685 0.013198458 0.010206083 0.0005643629 -0.0018177992 0.009764391 0.0021118566
-0.0015648408 -0.0027970008 -0.0021068032 -0.011145661 -0.0011746299 0.008709347 -0.012644665 0.005223026
0.008198398 -0.013665012 0.003382813 0.00507478 -0.013308838 0.0017426359 0.0063951546 0.017929565
0.0071526985 0.017357849 -0.01256388 -0.0008980566 0.016998574 -0.00087946805 -0.0045906524 0.0033415395
0.010427589 0.014581831 0.0051655374 0.0002612695 -0.011931005 -0.0109312935 -0.004094847 -0.004595964
-0.006538299 0.0071428865 -0.0111035565 -0.0066863964 0.014361958 0.0017205032 0.008739037 0.011801141
0.002977085 -0.007101158 -0.0021088438 0.023759706 -0.0010998221 0.011124625 -0.0029318035 -0.00048808297
0.0065418654 -0.0128395455 -0.011067353 0.01412456 -0.0011120783 0.009675479 0.006109063 0.010567741
-0.004205441 -0.0134320585 -0.010841082 -0.0004986974 0.0042903675 0.0033117828 0.017310899 -0.012113571
0.014982789 -0.011981225 -0.013945455 -0.0039680446 -0.010436773 0.015917799 0.0026673235 -0.00863743
0.00096208986 -0.010237313 0.0029935527 0.0068770177 0.004573475 -0.008515653 -0.017807383 -0.0055674887
-0.0022281404 -0.004375832 0.023551412 -0.00015166367 0.0077917897 -0.011853801 0.009854979 0.0032471344
-0.005224734 0.01031908 -0.0135608185 -0.008813864 0.00036586312 0.011604046 -2.2225628e-05 -0.002463954
0.008249048 -0.0013200719 0.0011120461 -0.010439943 -0.002858905 -0.00014406964 -0.004979954 -0.018103806
-0.010710805 -0.010769312 -0.019494927 0.016647765 -0.00018978734 -0.009684379 -0.0025761945 -0.003828181
0.005274774 -0.0042728656 0.015736422 -0.017316556 0.0012896055 0.0007092905 0.019100612 0.016084408
0.00817332 -0.0021320162 0.008929798 -0.0011173947 0.010461949 -0.005504783 -0.0120145725 -0.0041539147
0.009716595 0.02218956 0.0085311 0.005346959 0.01226331 -0.010707353 -0.013280776 0.00037405378
-0.004167946 -0.00994907 0.011234335 0.0031729757 0.00033310745 -0.008811922 0.0030980203 -0.0063304827
00000000: e7ec 4fba 4b07 02bc 66b9 97bc 4868 b03b
00000010: 4fbd 90b8 95a3 0a3c 3ad4 9537 c363 8a3b
00000020: ed91 ba3b 7756 11bc 4e34 4a3b 5e1a b6b9
00000030: eba8 2a3c 2288 7dbb 576c 3cbc 7506 68bb
00000040: bb34 2f3c 2315 04bc 11e5 8d3c 530a d6bb
00000050: 8b71 d7bb d112 bd3b 1b21 5c3c a3bf 7cbb
00000060: 13a6 a33c 3f18 1abc 0057 95bc 8a89 763c
00000070: ed90 923a 95fe 563b 4178 00bc 1297 493c
00000080: a86b ceb8 7ab0 ad3a 5319 6a39 8299 dbbb
00000090: 97ef 27bc a72a 7fbb b8b2 e0bb ac4f 3b3c
000000a0: dbb9 4a3b c47e 40bb 307b d7bb 15a5 67bc
000000b0: 8f99 793b eff3 b13c c879 1ebc 559d 833b
000000c0: 921a 55bc 471d b03a 3f42 783b b476 323b
000000d0: 3d92 2bbb f85e 6d3c 4d4b 363c 1225 f9bb
000000e0: fb24 023c 25b6 80ba 2c6b 943b 26e5 09bc
000000f0: d2ce 5cbc 02eb 3abc 1b36 b63b f346 c9bb
00000100: 3e54 bdbb 9dbf 203a ad78 47ba ede7 1abb
00000110: 09ac 013c d637 30bc 15fc 4d3c 8340 6bbb
00000120: 1990 a1bb b475 9fbb b344 0e3b b499 a43b
00000130: fb7d ccbb 637a fcbb e56c 073b bf82 28bc
00000140: f5bb 5b3b c4a7 033c 0b21 193c 6cb2 89bb
00000150: 0ac3 913b a18d 143c 4fd9 8e3b 90c4 dbbb
00000160: a59b 15bc 24bb 9bbb 1e48 85bc fbb4 b23a
00000170: 331e 04bb 8341 94b9 1359 75bb d519 fc3a
00000180: d374 ce3b 79cf 32bb d2c6 723c 0308 0b3b
00000190: ba1d 83bb 3a2d 4e3c cd21 563c f73b 89bb
000001a0: 2da8 2fbc 0db0 06bc 583e 583c 6a37 273c
000001b0: c1f1 133a 3843 eeba d3fa 1f3c 1367 0a3b
000001c0: 581b cdba e34d 37bb 4b12 0abb 4a9c 36bc
000001d0: 0af6 99ba a6b1 0e3c 922b 4fbc eb25 ab3b
000001e0: 9352 063c 37e3 5fbc 2fb2 5d3b 574a a63b
000001f0: 500d 5abc 2869 e43a 728e d13b 06e1 923c
00000200: 2f61 ea3b 0c32 8e3c bbd8 4dbc 8f6b 6bba
00000210: 9840 8b3c 1a8c 66ba 2f6d 96bb bbfd 5a3b
00000220: 7ad8 2a3c a2e8 6e3c ab43 a93b 00fb 8839
00000230: 437a 43bc 2b19 33bc 112e 86bb be99 96bb
00000240: 3a3f d6bb e00e ea3b b1eb 35bc 8f19 dbbb
00000250: 6b4e 6b3c 8282 e13a 2e2e 0f3c 9359 413c
00000260: 331b 433b d5b0 e8bb 8734 0abb b7a3 c23c
00000270: e827 90ba 0f44 363c 8023 40bb 63e5 ffb9
00000280: 255d d63b f55c 52bc d853 35bc b36a 673c
00000290: 28c3 91ba e685 1e3c 892e c83b 5124 2d3c
000002a0: cccd 89bb 2312 5cbc cb9e 31bc 04bb 02ba
000002b0: 3696 8c3b 7f0a 593b 96cf 8d3c 0078 46bc
000002c0: 5f7a 753c e64c 44bc 7a7b 64bc 5f06 82bb
000002d0: 00ff 2abc 0b66 823c 43ce 2e3b 0284 0dbc
000002e0: c234 7c3a 67ba 27bc 7b2f 443b 9b58 e13b
000002f0: 17dd 953b 3d85 0bbc cae0 91bc 7b6f b6bb
00000300: fe05 12bb 2463 8fbb e4ee c03c e807 1fb9
00000310: 4552 ff3b 7236 42bc c776 213c e0cd 543b
00000320: 3f34 abbb 5c11 293c 322e 5ebc 0668 10bc
00000330: 51d1 bf39 e61e 3e3c 2c71 bab7 4a7a 21bb
00000340: 0427 073c 4306 adba 13c2 913a 4b0c 2bbc
00000350: 775c 3bbb 6611 17b9 e22e a3bb 6f4e 94bc
00000360: 5f7c 2fbc c571 30bc d3b3 9fbc e560 883c
00000370: a701 47b9 3bab 1ebc 5fd5 28bb 38e2 7abb
00000380: 03d8 ac3b 6503 8cbb abe9 803c 73db 8dbc
00000390: fb07 a93a aeef 393a e378 9c3c 73c3 833c
000003a0: 64e9 053c 4cb9 0bbb 4a4e 123c 8b75 92ba
000003b0: 9868 2b3c 7761 b4bb c5d8 44bc 901d 88bb
000003c0: 5a32 1f3c e1c6 b53c 07c6 0b3c 8b35 af3b
000003d0: 0dec 483c e56d 2fbc 9d97 59bc a61c c439
000003e0: 4493 88bb 6d01 23bc 3710 383c b3f1 4f3b
000003f0: eda4 ae39 e15f 10bc 2808 4b3b f06f cfbb

action_model._discrete_distribution.branches.1.bias f4 [29]
0.0 0.0 0.0 0.0 0.0 0.0 0.0 0.0
0.0 0.0 0.0 0.0 0.0 0.0 0.0 0.0
0.0 0.0 0.0 0.0 0.0 0.0 0.0 0.0
0.0 0.0 0.0 0.0 0.0
00000000: 0000 0000 0000 0000 0000 0000 0000 0000
00000010: 0000 0000 0000 0000 0000 0000 0000 0000
00000020: 0000 0000 0000 0000 0000 0000 0000 0000
00000030: 0000 0000 0000 0000 0000 0000 0000 0000
00000040: 0000 0000 0000 0000 0000 0000 0000 0000
00000050: 0000 0000 0000 0000 0000 0000 0000 0000
00000060: 0000 0000 0000 0000 0000 0000 0000 0000
00000070: 0000 0000

action_model._discrete_distribution.branches.2.weight f4 [29, 128]
-0.012812276 -0.00074926205 0.003235032 0.015418892 -0.0067864344 -0.0075557115 -0.003387816 -0.0037757072
-0.01647555 -0.006637735 -0.0025799207 -0.0016267191 -0.005784423 0.014024558 -0.019675652 -0.0064654737
-0.0006909493 -0.0066460273 -0.000803234 0.005952427 -0.002579924 -0.016251642 0.0011719799 -0.0033029888
-0.00774128 -0.0053292257 0.009112524 -0.00942572 -0.02123125 0.0066617327 -0.011590741 0.010725368
0.012066677 0.003236532 0.0019359527 -0.013133938 -0.0041732555 -0.01409557 0.010410274 0.009309176
-0.0061247214 -0.0135884285 -0.0014255233 0.011057624 -0.0027822785 -0.0046080444 -0.0061635305 -0.0060447357
0.010960753 0.009198339 -0.0021477945 -0.007261818 -0.0036226816 0.0021054405 0.009941885 0.007990094
-0.019392591 0.0029788157 -0.010940234 0.005412306 -0.0061554764 0.0066807466 -0.0051555918 -0.007402872
-0.008092963 0.011227632 0.0039178953 -0.009500634 -0.0018965373 -0.0034301875 -0.0008659594 0.0020134104
-0.010326915 0.009025212 -0.009515614 -0.007911458 0.003932101 0.008975103 0.0058917007 -0.007877554
-0.013261395 0.018200986 0.004629495 -0.012185882 0.014816976 0.0038332087 -0.0041860742 0.0043966607
0.00034985945 0.010322277 -0.0014782643 0.0010080043 0.011671576 0.005715398 -0.0030847404 0.0047283513
0.00021899502 0.01755594 -0.0032356537 0.0030675256 0.0037044385 0.012506998 3.7028523e-05 0.0063367966
0.0128328195 -0.0058746734 -0.014466374 0.018335085 0.012294443 -0.01119391 -0.0064528356 0.0037869837
0.0056837588 -0.009220578 -0.0048149596 -0.0039204033 -0.01578607 0.0016565047 0.006435923 0.003182303
-0.005325148 0.01378651 0.01042499 0.0035562364 0.006008066 -0.004927638 -0.0027696441 -0.008980041
0.0027567092 -0.0074411617 0.006058947 -0.014304727 0.008267057 -0.015206632 0.0094755925 -0.006552543
-0.007531219 0.014301853 0.009244709 -0.012861884 0.0018994523 0.0079246 0.012472017 0.0047076885
0.011510695 0.00224273 0.0013031985 -0.01339456 0.004927922 -0.0016241356 -0.002656304 0.007415268
0.005440409 0.0010435785 -0.0035696537 0.0072416 -0.014660299 0.011262914 0.0065676505 -0.008746692
-0.01243243 0.012720339 0.0021834206 -0.0009661507 0.005988846 0.002287469 0.005626117 0.020588554
-0.00013667931 -0.0066969967 -0.004502428 0.012082629 0.0020554638 0.011851977 0.0054024924 -0.026257431
0.00845741 0.014071177 0.00214822 0.01031007 0.0052033174 0.015295538 -0.001074358 -0.016818052
0.01004962 -0.011956138 -0.017662052 0.009238105 0.004036629 -0.009008261 0.0122294715 0.005241712
0.0054192594 0.011545887 0.018005833 0.008713319 -0.006322415 -0.00043902453 -0.006416866 -0.014413679
-0.005965369 0.014015769 -0.015425048 0.0069209607 -0.0041510197 0.0019331444 0.018913345 -0.0010677129
0.0065856376 -0.005028884 0.009401318 -0.00036733833 -0.004196714 -0.0015751033 -0.013141309 -0.007030967
-0.00016670777 0.016482098 -0.0051773717 -0.004356519 0.002693244 -0.016221706 0.007274789 0.0036708158
0.0026146423 -9.174343e-05 0.012825298 0.013521383 0.002191355 0.0011100274 -0.010747137 -0.0043547177
0.015752321 -0.0018290695 0.009953788 0.0012200478 -0.013745717 0.010361399 0.0076619238 -0.010040383
0.011361049 0.0069599003 -0.011295978 0.0018349171 0.0031299074 0.004736028 -0.0078879325 -0.0030506027
0.010431045 -0.0094490275 0.001562225 0.010406214 0.0041686576 -0.012924108 0.004189168 -0.0080277575
00000000: 95ea 51bc 206a 44ba d502 543b 859f 7c3c
00000010: bd60 debb e795 f7bb 1f06 5ebb db71 77bb
00000020: bcf7 86bc 5b81 d9bb e313 29bb a337 d5ba
00000030: 428b bdbb 42c7 653c d52e a1bc 53dc d3bb
00000040: d320 35ba ebc6 d9bb 1f90 52ba 940c c33b
00000050: f113 29bb 2a22 85bc 1f9d 993a f576 58bb
00000060: 90aa fdbb c9a0 aebb b24c 153c 566e 1abc
00000070: 29ed adbc aa4a da3b 17e7 3dbc 74b9 2f3c
00000080: 50b3 453c ff1b 543b cbbf fd3a bb2f 57bc
00000090: cebf 88bb 1bf1 66bc db8f 2a3c 8485 183c
000000a0: e3b1 c8bb 00a2 5ebc a0d8 baba 092b 353c
000000b0: e356 36bb 14ff 96bb 71f7 c9bb eb12 c6bb
000000c0: bb94 333c a1b4 163c 03c2 0cbb 8bf4 edbb
000000d0: 836a 6dbb 6efb 093b 4ae3 223c e2e8 023c
000000e0: 36dd 9ebc 3c38 433b ab3e 33bc b759 b13b
000000f0: e1b3 c9bb 2aea da3b 3df0 a8bb cb93 f2bb
00000100: 5998 04bc 1af4 373c b061 803b 8ca8 1bbc
00000110: 3b95 f8ba ffcc 60bb 8d01 63ba 6cf3 033b
00000120: 3932 29bc 7cde 133c 61e7 1bbc 0f9f 01bc
00000130: dbd8 803b 4f0c 133c 2b0f c13b db10 01bc
00000140: 5246 59bc 3c1a 953c 05b3 973b 4ba7 47bc
00000150: e7c2 723c 9236 7b3b 562b 89bb dd11 903b
00000160: 576d b739 c51e 293c 52c2 c1ba 031f 843a
00000170: 233a 3f3c 3c48 bb3b 5b29 4abb 49f0 9a3b
00000180: 07a2 6539 7ad1 8f3c 430d 54bb 8a08 493b
00000190: 2ac6 723b 27ea 4c3c 134f 1b38 e7a4 cf3b
000001a0: bf40 523c 5580 c0bb 5f04 6dbc 7633 963c
000001b0: a26e 493c a966 37bc 4f72 d3bb 0b2f 783b
000001c0: d33e ba3b e811 17bc cfc6 9dbb ba76 80bb
000001d0: ca51 81bc 131f d93a 6fe4 d23b 2f8e 503b
000001e0: 947e aebb d0e0 613c 94cd 2a3c bf0f 693b
000001f0: 4fdf c43b 0678 a1bb eb82 35bb 0621 13bc
00000200: e8a9 343b fdd4 f3bb 228a c63b 605e 6abc
00000210: 8d72 073c 3d25 79bc 843f 1b3c b7b6 d6bb
00000220: 72c8 f6bb 5252 6a3c 1f77 173c a7ba 52bc
00000230: 0bf7 f83a 2ed6 013c 6e57 4c3c f442 9a3b
00000240: 5b97 3c3c c4fa 123b 16d0 aa3a db74 5bbc
00000250: 687a a13b f3e0 d4ba 6315 2ebb c7fb f23b
00000260: 7545 b23b afc8 883a daf0 69bb f24a ed3b
00000270: c031 70bc 1688 383c 7235 d73b 494e 0fbc
00000280: 64b1 4bbc f868 503c b817 0f3b 4745 7dba
00000290: 153e c43b 5de9 153b 4a5b b83b 54a9 a83c
000002a0: 9351 0fb9 7b72 dbbb 1b89 93bb 38f6 453c
000002b0: f6b4 063b cb2e 423c 6407 b13b d319 d7bc
000002c0: f390 0a3c cb8a 663c 27c9 0c3b 91eb 283c
000002d0: 9780 aa3b 239a 7a3c 79d1 8cba 03c6 89bc
000002e0: 29a7 243c ade3 43bc 02b0 90bc 6c5b 173c
000002f0: b345 843b 6397 13bc 1f5e 483c abc2 ab3b
00000300: 0b94 b13b f62a 3d3c f880 933c 4fc2 0e3c
00000310: 432c cfbb e02c e6b9 9344 d2bb 5a27 6cbc
00000320: 2479 c3bb 65a2 653c 57b9 7cbc 3ac9 e23b
00000330: 4705 88bb 9061 fd3a 29f0 9a3c 80f2 8bba
00000340: 55cc d73b 56c9 a4bb fc07 1a3c 5197 c0b9
00000350: 9784 89bb b273 ceba a54e 57bc 0764 e6bb
00000360: 47ce 2eb9 7705 873c f1a6 a9bb 21c1 8ebb
00000370: 2381 303b 62e3 84bc 5a61 ee3b 1292 703b
00000380: 6b5a 2b3b 6166 c0b8 3321 523c ca88 5d3c
00000390: d69c 0f3b 577e 913a c214 30bc 05b2 8ebb
000003a0: 030b 813c 63bd efba 3615 233c 03ea 9f3a
000003b0: b735 61bc dbc2 293c e010 fb3b 6b80 24bc
000003c0: b123 3a3c e00f e43b c412 39bc 9a81 f03a
000003d0: 221f 4d3b af30 9b3b 633c 01bc 9fec 47bb
000003e0: f9e6 2a3c 18d0 1abc 93c3 cc3a d37e 2a3c
000003f0: 3c99 883b a3bf 53bc 4a45 893b db86 03bc

action_model._discrete_distribution.branches.2.bias f4 [29]
0.0 0.0 0.0 0.0 0.0 0.0 0.0 0.0
0.0 0.0 0.0 0.0 0.0 0.0 0.0 0.0
0.0 0.0 0.0 0.0 0.0 0.0 0.0 0.0
0.0 0.0 0.0 0.0 0.0
00000000: 0000 0000 0000 0000 0000 0000 0000 0000
00000010: 0000 0000 0000 0000 0000 0000 0000 0000
00000020: 0000 0000 0000 0000 0000 0000 0000 0000
00000030: 0000 0000 0000 0000 0000 0000 0000 0000
00000040: 0000 0000 0000 0000 0000 0000 0000 0000
00000050: 0000 0000 0000 0000 0000 0000 0000 0000
00000060: 0000 0000 0000 0000 0000 0000 0000 0000
00000070: 0000 0000

action_model._discrete_distribution.branches.3.weight f4 [9, 128]
-0.01743888 0.012592241 0.00041730917 0.0054032975 -0.003977202 -0.0067179957 -0.018634414 0.018421855
0.0070447274 0.011215897 0.0035020933 -0.0119646 -0.010814088 -0.005456563 0.00045845355 -0.0016665579
-0.0077561396 -0.0070875697 0.0054724296 -0.008293807 -0.0048255455 -0.0078816 0.0045536417 -0.0024833453
0.00251583 -0.009067333 -0.0071127713 0.010348059 0.0011611528 -0.012867905 0.0038261556 -0.004095702
-0.0013252356 0.002521307 -0.0034650757 0.009376184 -0.0041871355 -0.018009476 -0.003945734 0.004965553
-0.0018213543 -0.003551947 0.004180937 0.018439703 -0.007492228 0.011722951 -0.002580514 0.0039453967
0.0031164929 0.001757722 -0.013244107 0.009701631 0.0019863115 0.007904126 0.000938734 0.002815867
-0.02064106 0.0031637654 0.008295587 0.0003572849 0.004564489 0.0042072884 -0.0053420565 0.0012733707
0.003009766 0.0023154437 -0.008656784 -0.0014517345 0.024921708 -0.010747659 0.008706724 0.0034424667
0.008419716 0.0037567832 -0.008673108 -0.00838835 -0.010969589 -0.0035997543 -0.011906745 0.007901068
-0.01025315 -0.0058167833 -0.0030452344 0.011369712 -0.004084159 0.0023044997 -0.0075906417 -0.008494523
-0.00681238 -0.015135921 -0.00034366298 -0.0075715478 -0.0019729405 -0.012370624 -0.0011273085 0.01604419
0.0069020255 -0.0024785146 0.001650239 -0.018399535 0.0018709534 0.004512645 0.002132677 -0.0021093052
-0.00019367081 0.02276737 0.008742079 -0.002280255 0.0011871735 -0.0016670907 -0.002413653 0.005576106
-0.017638966 -0.0030056406 0.0063471193 -0.010292995 -0.0052359947 -0.008007146 0.0053185015 -0.0073175505
-0.0032402535 0.007385827 0.0004070425 -0.0028658356 0.004269566 -0.008005782 -0.0033130248 -0.0046484345
0.006910679 0.0045489995 -0.010277808 -0.000113795795 0.0037555273 -0.0047812657 -0.0019687493 -0.007276118
-0.010739176 0.004497374 -0.010380669 -0.0006224883 -0.003874303 -0.012136804 0.0080520045 -0.0068014557
-0.00084159675 0.02100152 -0.006942951 0.0045346506 -0.0080500655 -0.0013530015 -0.0015704058 -0.0015673157
0.010114572 -0.0012645454 -0.010156132 -0.00081593276 0.011019209 0.011088736 -0.003859626 0.008262198
0.017980767 -0.0001976998 -0.003034149 0.0008742725 0.0109107075 0.014505126 0.004391187 -0.012164147
0.007040301 0.008868716 -0.016151082 -0.0020130877 0.0018782988 -8.802274e-06 0.001773626 0.006758518
0.01134669 -0.013935871 0.013605202 -0.0124468 -0.0046675857 0.005087172 -0.001126826 0.005552366
-0.018816473 -0.009502985 -0.0053755767 0.0023958988 -0.00039607167 0.0015182426 0.008302471 0.008883875
-0.0007682524 -0.0048051025 -0.015733281 0.0025414384 -0.01405557 -0.010141789 -0.025975991 -0.0077694403
0.009192966 0.010209654 -0.0007254874 -0.0076877284 0.005428743 0.010818186 0.017555036 0.015753372
-0.014713629 -0.0038514968 0.0037054725 0.0037138218 -0.0097917225 0.0019670688 0.015912158 0.00281261
-0.003982309 -0.0066981874 0.018259358 -0.010159517 0.0031090542 -0.004145203 0.010785058 0.013954453
-0.008667948 -0.010901771 0.007375522 0.0052707605 -0.000819688 -0.014273101 -0.00080929464 -0.0022650303
-0.005642219 0.015878752 0.0020567381 -0.009383248 0.010243691 0.00032781367 0.0032704324 -0.016698074
0.013133818 -0.020986157 -0.0008115236 0.006015796 -0.013341199 0.0019673926 7.8232515e-05 -0.002939007
0.0066123954 -0.0019107092 -0.0027583658 0.0048682634 0.0025061702 0.0035437227 0.009164341 0.0062233265
00000000: fbdb 8ebc b04f 4e3c 4aca da39 250e b13b
00000010: 3053 82bb a222 dcbb 33a7 98bc 6ee9 963c
00000020: 75d7 e63b e2c2 373c 6083 653b 2b07 44bc
00000030: 932d 31bc f8cc b2bb 985c f039 6770 daba
00000040: 3727 febb d83e e8bb 1152 b33b bfe2 07bc
00000050: 9c1f 9ebb d421 01bc b736 953b 9fbf 22bb
00000060: a0e0 243b 278f 14bc 4012 e9bb e88a 293c
00000070: d331 983a e8d3 52bc 3dc0 7a3b 3d35 86bb
00000080: 87b3 adba 833c 253b 5316 63bb 919e 193c
00000090: 3d34 89bb 9c88 93bc 374b 81bb 14b6 a23b
000000a0: 82ba eeba c8c7 68bb 3e00 893b dc0e 973c
000000b0: 5d81 f5bb 9f11 403c d71d 29bb 6348 813b
000000c0: 133e 4c3b 5d63 e63a d0fd 58bc 97f3 1e3c
000000d0: c72c 023b 4f80 013c 5f15 763a 698a 383b
000000e0: 7117 a9bc 2d57 4f3b 37ea 073c f851 bb39
000000f0: b591 953b 4bdd 893b 6b0c afbb 3be7 a63a
00000100: 7f3f 453b b3be 173b 2fd5 0dbc 2048 beba
00000110: 9c28 cc3c f316 30bc a6a6 0e3c 029b 613b
00000120: d9f2 093c 5d34 763b a719 0ebc 4a6f 09bc
00000130: cbb9 33bc dbe9 6bbb 8214 43bc 7b73 013c
00000140: d4fc 27bc b79a bebb 8e92 47bb 0748 3a3c
00000150: 69d4 85bb 1707 173b ebba f8bb 9d2c 0bbc
00000160: 633a dfbb a7fc 77bc aa2d b4b9 bf1a f8bb
00000170: 734c 01bb 28ae 4abc 32c2 93ba 1b6f 833c
00000180: 632a e23b 936e 22bb d54c d83a 9fba 96bc
00000190: c73a f53a cfde 933b 62c4 0b3b 453c 0abb
000001a0: 1d14 4bb9 a382 ba3c f03a 0f3c 5570 15bb
000001b0: ef9a 9b3a 4882 daba 612e 1ebb c4b7 b63b
000001c0: 987f 90bc 48fa 44bb 7ffb cf3b f3a3 28bc
000001d0: b592 abbb 6830 03bc d346 ae3b 10c8 efbb
000001e0: 6f5a 54bb cf04 f23b 5268 d539 bed0 3bbb
000001f0: b7e7 8b3b af2a 03bc 551f 59bb e551 98bb
00000200: fa72 e23b c60f 953b 4064 28bc a7a5 eeb8
00000210: 4b1f 763b 2aac 9cbb 2206 01bb 806c eebb
00000220: 5ef3 2fbc b55e 933b ae13 2abc 7c2e 23ba
00000230: 05e8 7dbb 72d9 46bc 8eec 033c bfde debb
00000240: 9a9e 5cba 610b ac3c b281 e3bb 6897 943b
00000250: 6ce4 03bc 3257 b1ba 13d6 cdba 636e cdba
00000260: 97b7 253c 1abf a5ba e865 26bc 52e4 55ba
00000270: ea89 343c 88ad 353c c7f1 7cbb 2c5e 073c
00000280: 674c 933c a34d 4fb9 93d8 46bb 6f2f 653a
00000290: d3c2 323c e8a6 6d3c f2e3 8f3b 214c 47bc
000002a0: 53b2 e63b 174e 113c 464f 84bc 02ee 03bb
000002b0: 4031 f63a 7bad 13b7 0379 e83a 8f76 dd3b
000002c0: 78e7 393c 4853 64bc 5ae8 5e3c aaed 4bbc
000002d0: 8cf2 98bb 4bb2 a63b 02b2 93ba 9ff0 b53b
000002e0: 0125 9abc 68b2 1bbc 9b25 b0bb 8304 1d3b
000002f0: d7a7 cfb9 c5ff c63a 1607 083c ac8d 113c
00000300: 8c64 49ba 1f74 9dbb 15e3 80bc 438e 263b
00000310: 5549 66bc bf29 26bc 9acb d4bc ca96 febb
00000320: 189e 163c 6546 273c a32e 3eba 57e9 fbbb
00000330: 99e3 b13b c33e 313c 94cf 8f3c 370d 813c
00000340: 6f11 71bc 6569 7cbb 83d7 723b 9763 733b
00000350: 766d 20bc f0e9 003b 375a 823c c453 383b
00000360: 077e 82bb 787c dbbb a694 953c 1a74 26bc
00000370: 46c1 4b3b 7cd4 87bb d0b3 303c 38a1 643c
00000380: 0204 0ebc 579d 32bc 5dae f13b 58b6 ac3b
00000390: 55e0 56ba bad9 69bc d826 54ba e770 14bb
000003a0: 5de2 b8bb 2814 823c 57ca 063b 32bc 19bc
000003b0: 27d5 273c 68de ab39 c054 563b 66ca 88bc
000003c0: 3a2f 573c 29eb abbc 6dbc 54ba 2820 c53b
000003d0: 0b95 5abc 5fef 003b c310 a438 5b9c 40bb
000003e0: cbac d83b c370 faba b3c5 34bb f485 9f3b
000003f0: 8f3e 243b cd3d 683b 0826 163c 0ced cb3b

action_model._discrete_distribution.branches.3.bias f4 [9]
0.0 0.0 0.0 0.0 0.0 0.0 0.0 0.0
0.0
00000000: 0000 0000 0000 0000 0000 0000 0000 0000
00000010: 0000 0000 0000 0000 0000 0000 0000 0000
00000020: 0000 0000
