results/ppo/BadChessPlayer/BadChessPlayer-1792.onnx (onnx, 304125 bytes, 40 tensors)

action_model._discrete_distribution.branches.0.bias f4 [11]
000000 00 00 00 00 00 00 00 00 00 00 00 00 00 00 00 00
       0.0 0.0 0.0 0.0
000010 00 00 00 00 00 00 00 00 00 00 00 00 00 00 00 00
       0.0 0.0 0.0 0.0
000020 00 00 00 00 00 00 00 00 00 00 00 00
       0.0 0.0 0.0

action_model._discrete_distribution.branches.0.weight f4 [11, 128]
000000 5f 0a c9 3b f8 94 5f bb cf eb 23 3c 3f d6 bb bc
       0.0061352695 -0.0034115892 0.010004952 -0.022929309
000010 0b b4 45 3c 25 cb a0 ba 73 bc 70 3c aa 91 47 b8
       0.012066851 -0.0012267573 0.014693367 -4.7580957e-05
000020 b8 70 88 3c 22 7c 45 ba 53 92 16 ba 50 2b 6f bc
       0.016655311 -0.0007533451 -0.000574385 -0.014597729
000030 1a a8 d9 3b 83 5a 12 bc cb e3 d9 39 d2 16 50 bb
       0.0066423537 -0.0089327125 0.00041559184 -0.0031751883
000040 75 ea 32 bc 64 ff 02 bb 68 fe f8 b9 75 ae 87 3b
       -0.010920157 -0.001998865 -0.00047491794 0.00414067
000050 98 12 cf ba a3 fa 20 3c 1f 64 3a 3a ce 11 27 bb
       -0.0015798388 0.009825381 0.0007110256 -0.002549279
000060 8f db 33 bb 63 7d 08 3c a3 ae 8e 3b 90 82 d1 3b
       -0.00274441 0.008330676 0.0043543144 0.006393738
000070 3d 7f 08 bb e1 33 2b 3b 22 04 29 bc bf 60 bf bb
       -0.0020827793 0.0026123452 -0.010315927 -0.0058403905
000080 5a 95 b4 bb 68 06 4e 3c 9e 23 04 3a a7 45 35 39
       -0.005510968 0.01257477 0.0005040708 0.00017287453
000090 32 8d 19 bc 14 fc 11 3c eb c1 23 bb cb 48 1c bc
       -0.0093720425 0.008910198 -0.002498741 -0.00953884
0000a0 91 e4 86 bb eb 91 cb 3a f1 e7 98 3b f5 6c 82 bb
       -0.0041166027 0.0015531158 0.0046663214 -0.003980274
0000b0 b3 72 48 bc 0f 18 be 3b 5a a1 6f 3c 5d 53 80 3c
       -0.012234378 0.005801208 0.014625872 0.01566475
0000c0 03 57 69 3b b3 6e 33 3c af 4a b4 bb ca ad 6f bc
       0.0035604842 0.010951686 -0.005502067 -0.014628837
0000d0 b4 6f a7 bc d7 2a c2 bb 60 ea e1 3b 6f 22 43 3c
       -0.020439006 -0.005925517 0.0068943948 0.011910065
0000e0 b0 be 3f b9 25 70 65 3c 0b a2 76 bc 7d c9 db bb
       -0.00018286216 0.014003788 -0.0150532825 -0.006707369
0000f0 51 cd 8b bb 8f a7 30 bb b8 c2 09 bc ca 4d 93 bb
       -0.004266419 -0.0026955341 -0.008408241 -0.004495357
000100 08 87 98 3b 87 c0 6a ba d3 f9 e6 bb 23 f9 70 3c
       0.004654769 -0.00089550804 -0.0070488243 0.014707836
000110 30 bb ab 3b f5 8f 6c bc ea 00 19 3b b3 22 3a 3c
       0.0052408203 -0.014438619 0.0023346492 0.011360812
000120 ba b1 15 bb bc cf ba bb fb cd 3d bc f2 38 30 bc
       -0.002284153 -0.0057010334 -0.011584754 -0.010755764
000130 47 14 d9 3b c4 23 37 3c 5f cf 1b bb cb 3a 11 bb
       0.0066247317 0.011177961 -0.0023774726 -0.0022160287
000140 48 c3 54 b9 7b 2e 81 3b ca c4 89 3c d7 b1 8e bb
       -0.00020290643 0.0039423085 0.01681747 -0.0043546963
000150 43 d4 8e bc 33 97 15 3c ec ae 3d 3b 13 28 a7 ba
       -0.017435199 0.009130287 0.0028943373 -0.0012753032
000160 21 ca a3 3a 5f e9 c8 3b a1 13 00 3a 6c 7f 8a bb
       0.0012496152 0.0061313356 0.00048857374 -0.0042266157
000170 3b c5 13 bc 1a 20 24 ba 0b c6 82 bc 8e c2 43 3c
       -0.009019191 -0.0006260887 -0.015963575 0.011948241
000180 40 da 36 bb 44 62 3e bc cc 0f 12 3c b6 93 91 3b
       -0.0027901083 -0.011620108 0.008914899 0.0044426573
000190 b3 7d fa bb 22 c8 69 bc 1e 00 88 bb 7b 72 a9 ba
       -0.007644379 -0.014268907 -0.0041504046 -0.0012927795
0001a0 13 fd e0 bb 8b f1 42 bc 82 46 4f bb cf 76 54 ba
       -0.0068661063 -0.011898409 -0.003162772 -0.0008104862
0001b0 40 44 3d 3c 30 f3 9e 3c 5d e5 d1 3b e3 c2 e1 bb
       0.011551917 0.01940307 0.006405516 -0.0068896874
0001c0 11 4f 04 bc 86 eb a1 ba f6 f9 88 3b cf 3c 05 ba
       -0.0080754915 -0.0012353517 0.0041801883 -0.00050826085
0001d0 3d 5a e7 3b 7d 1e d9 bb c3 67 b5 3b 21 d1 b3 38
       0.007060318 -0.006625949 0.005536051 8.5743384e-05
0001e0 6f 68 25 bc 43 f4 b6 bb c1 93 cc bb cc be 01 bb
       -0.0100957 -0.0055833175 -0.0062431996 -0.0019797562
0001f0 4a c1 94 bc 27 a6 e3 3b f0 2a 31 3b 2d 13 09 bc
       -0.018158574 0.006947297 0.002703365 -0.008366388
000200 34 20 02 bc dd 8a 69 3c 5f 79 25 bb ef 0e 18 3c
       -0.007942248 0.014254299 -0.0025249345 0.009280904
000210 78 48 9c bb 03 b1 43 bc 52 17 3b 3a 67 a5 47 bb
       -0.004769381 -0.011944058 0.0007136959 -0.0030463578
000220 44 ec a4 b9 33 ea 9c 3c 95 14 ca bb 27 c9 c5 3b
       -0.0003145655 0.019154644 -0.0061670044 0.006035942
000230 c0 a1 8b bb 92 aa 51 bb da b5 af 3b 69 f8 c2 3b
       -0.0042612255 -0.0031992537 0.0053622546 0.005950023
000240 5c 2d b6 ba 0e ed 26 bc 2a 4c 4e bb 20 af 50 3c
       -0.0013899016 -0.010188354 -0.0031478503 0.012737066
000250 54 f4 9e 3b 32 c1 15 bc 1f ce 39 bb 69 4c 00 3c
       0.0048509035 -0.0091403 -0.0028351618 0.007830718
000260 82 b3 c5 3b 0f 1d bb 3b d5 d6 35 3b d3 a5 88 3b
       0.006033362 0.005710251 0.0027746458 0.0041701584
000270 d7 c2 e9 bb 83 9c ba b8 5f 6d 88 bc b7 77 42 bc
       -0.0071338224 -8.898324e-05 -0.016653715 -0.011869363
000280 d3 97 22 3a 37 ca a7 3b b7 9f 3b 3c f1 47 c4 39
       0.0006202433 0.0051205414 0.011451653 0.00037437634
000290 37 b0 33 bc 9b 7e 0c 3c e3 07 f7 3b eb 09 ac 3b
       -0.010967306 0.008575107 0.007538782 0.0052502058
0002a0 1f ab d4 3b 6f 90 fb bb 82 e1 0a bc ce 5a 34 3b
       0.006490126 -0.00767713 -0.008476617 0.0027519944
0002b0 da cb 15 3a f1 d0 0f b8 ef b8 43 bb d5 2a 4e bc
       0.0005714275 -3.428845e-05 -0.0029864868 -0.012583454
0002c0 46 b5 92 3c b3 69 78 bc 2a ff 66 bc 08 48 e8 3b
       0.017908704 -0.015161919 -0.014098922 0.007088665
0002d0 cf a0 51 bb 1f 85 b8 3b d8 e8 7a bc 40 4c ea bb
       -0.0031986719 0.0056311036 -0.015314303 -0.007150203
0002e0 aa f7 72 3b e7 5d 06 3c 19 ea 08 3c a3 6d 9d bb
       0.0037073889 0.008201099 0.0083565945 -0.0048043295
0002f0 7f f3 78 b9 78 d6 7e b9 6a 4e 05 bc 2b e4 fd 3a
       -0.00023741832 -0.00024303223 -0.008136371 0.0019370368
000300 98 19 e5 3c 8f bb 43 3b ba 38 4f bc d5 d9 53 3c
       0.027966306 0.0029866432 -0.012647802 0.012930353
000310 5b 2c a1 bc 5b 29 d3 3a ef 9f c4 bb 93 e0 3d bb
       -0.01967447 0.0016110347 -0.006000511 -0.0028972968
000320 77 11 e0 39 93 10 d4 bc 4e 5f 89 3b 42 09 22 bc
       0.00042737622 -0.02588681 0.0041922694 -0.009889903
000330 fd 79 93 3c 45 db 41 3c cc ab 98 bc 5c de 2f 3c
       0.018002504 0.011832063 -0.018636607 0.010734167
000340 90 23 55 bc 9d 75 22 bc 55 1f 18 bb eb eb 85 bc
       -0.013008967 -0.0099157365 -0.0023212035 -0.016347846
000350 88 fd c6 3b 99 72 8f bb a0 cf 3d bb e4 0a a9 3b
       0.0060727037 -0.004377675 -0.0028962865 0.005158769
000360 0a 28 5e 3c e3 61 cc 3b c2 86 c5 bb de 0f 13 3c
       0.013559351 0.006237255 -0.0060280273 0.008975951
000370 a3 ba 22 bb fd ca dc bb 9b 89 88 39 f2 c3 29 bb
       -0.0024830482 -0.0067380653 0.00026042465 -0.0025904146
000380 b3 de 8b bc 7d 07 5c 3c a6 e4 11 bc da 00 e9 ba
       -0.017073965 0.01342952 -0.008904612 -0.0017776743
000390 0a 6d 28 3c d2 12 fa 3b 3f f7 41 3c f0 d8 0f bb
       0.010279903 0.007631638 0.011838733 -0.0021949373
0003a0 1c 84 9e 3b 7b 4e 08 ba 6a 4d 58 bb bf 15 72 bc
       0.004837526 -0.0005199683 -0.0033005127 -0.0147756925
0003b0 aa 9b 42 3c bb 8f 09 bc a6 25 03 bc a7 5e 22 bc
       0.0118779335 -0.008396084 -0.008004582 -0.009910262
0003c0 3d cc c2 ba 30 a3 ab 3a 93 7c 16 bc 52 48 3a 3c
       -0.0014861893 0.0013094898 -0.009184974 0.011369782
0003d0 05 ca 20 bb 16 2c c3 bc 02 44 6a bb 5b fe 85 bc
       -0.0024534476 -0.023824733 -0.0035746102 -0.016356638
0003e0 6f cb 5c 3b 6f 46 b9 3a b8 0b 12 3b ad 6f 73 bc
       0.0033690592 0.0014135371 0.0022284817 -0.014858169
0003f0 7a 32 d7 ba f2 1a b2 bb 05 e7 d8 bb 9d ce 5c 3c
       -0.0016418241 -0.005435341 -0.0066193365 0.013476995

action_model._discrete_distribution.branches.1.bias f4 [29]
000000 00 00 00 00 00 00 00 00 00 00 00 00 00 00 00 00
       0.0 0.0 0.0 0.0
000010 00 00 00 00 00 00 00 00 00 00 00 00 00 00 00 00
       0.0 0.0 0.0 0.0
000020 00 00 00 00 00 00 00 00 00 00 00 00 00 00 00 00
       0.0 0.0 0.0 0.0
000030 00 00 00 00 00 00 00 00 00 00 00 00 00 00 00 00
       0.0 0.0 0.0 0.0
000040 00 00 00 00 00 00 00 00 00 00 00 00 00 00 00 00
       0.0 0.0 0.0 0.0
000050 00 00 00 00 00 00 00 00 00 00 00 00 00 00 00 00
       0.0 0.0 0.0 0.0
000060 00 00 00 00 00 00 00 00 00 00 00 00 00 00 00 00
       0.0 0.0 0.0 0.0
000070 00 00 00 00
       0.0

action_model._discrete_distribution.branches.1.weight f4 [29, 128]
000000 08 2c 63 bc 1a 41 1d bc d7 2f 74 3c 65 29 d8 ba
       -0.013865478 -0.009598041 0.014903984 -0.0016491829
000010 40 e1 a3 bb 87 1f 15 bc 04 35 bf 3b 90 22 ef 39
       -0.005001217 -0.009101755 0.0058351774 0.00045611383
000020 e0 f2 61 ba 93 4a 3c bb af f5 3d bb 5f 52 1c bc
       -0.000861926 -0.0028730973 -0.002898555 -0.009541123
000030 d3 0d 24 bc db 6d c9 3b cf d1 b8 bb dc 83 8d bb
       -0.010013062 0.006147129 -0.0056402455 -0.0043186974
000040 63 17 40 3c a5 ef 58 3b cb 36 92 3c 7b 42 50 3c
       0.011724326 0.0033101824 0.017848393 0.012711163
000050 67 33 ad ba d8 aa 70 bc 69 69 84 bb f4 53 02 bc
       -0.0013214172 -0.01468917 -0.004040886 -0.007954586
000060 0a 6d 9d 3b 1e 0b 25 bc 2b 75 48 bb 05 c4 31 bc
       0.0048042582 -0.010073451 -0.0030587416 -0.010849957
000070 63 b4 2b 3c e2 38 52 bb 9b 71 86 3c 5b 3b b5 bb
       0.010480019 -0.0032077362 0.016411593 -0.0055307574
000080 e1 22 a5 bb 86 15 34 ba f2 9b 83 bb 45 f4 df ba
       -0.0050395583 -0.00068696623 -0.004016393 -0.0017086348
000090 ad 3a e3 bb 06 8b 24 3c 5b 96 52 bb a3 73 cb bb
       -0.006934485 0.010042911 -0.0032133076 -0.0062088533
0000a0 46 10 19 bc fa aa b2 bb d1 7f 4c bc 26 79 36 3c
       -0.009342259 -0.005452511 -0.012481646 0.0111372825
0000b0 d5 d6 65 bb c2 d5 ee 3b 53 d4 5d bb b1 f0 39 bc
       -0.0035070677 0.0072886655 -0.003384848 -0.011348889
0000c0 43 77 57 ba 13 fc d5 ba 60 42 77 bc 71 9f 39 3c
       -0.00082193705 -0.0016325734 -0.015091509 0.011329518
0000d0 6e 85 c8 b9 fd d4 76 3c 49 73 30 3c 09 2e 2c bb
       -0.00038246386 0.015065429 0.010769674 -0.0026272556
0000e0 58 dc a3 bb bb af c5 3b 93 27 e9 3b 50 2a 22 3c
       -0.0050006323 0.0060329116 0.0071153133 0.009897783
0000f0 fb 3f 7f bb 3c 82 0a 3c 25 6d de ba d3 ed b0 bb
       -0.0038948047 0.008453902 -0.0016969783 -0.0053994446
000100 47 92 a5 bb 78 a6 e8 3b 21 87 93 bb 90 ae d7 b9
       -0.005052838 0.0070999227 -0.0045021926 -0.00041138055
000110 ba cc 3e 3c 03 e9 e9 bb ff 15 15 3c f2 29 0b bc
       0.01164549 -0.007138373 0.009099483 -0.008493887
000120 f2 86 f0 bb 7f ee 87 3c ab 51 1f 3b 57 80 03 bb
       -0.0073403055 0.016593216 0.0024310153 -0.002006551
000130 85 70 fb ba 62 f1 12 bb 9f c9 9b b9 6a 76 f8 ba
       -0.0019183314 -0.0022421707 -0.00029714123 -0.0018956189
000140 8c 34 26 3a 4d 45 de bb 5f 5f 01 bc 53 2e bd bb
       0.00063402276 -0.0067831636 -0.007896273 -0.0057733445
000150 0b f9 1d bc 53 0d 62 3b 0d 7d 43 bc b7 26 7a bb
       -0.009641896 0.0034492805 -0.01193167 -0.0038170049
000160 9d 70 33 3c f8 11 79 bc 6e 51 2f bc 5b bf 8d 3c
       0.010952142 -0.015202038 -0.010700567 0.01730316
000170 b7 69 6c ba f8 a0 49 bc 19 9c ab bc 00 03 7d bb
       -0.0009018438 -0.012306444 -0.020948457 -0.0038606524
000180 72 9e e3 ba ee 11 32 3b da b7 e5 3b 18 1b 15 3c
       -0.0017365946 0.0027171331 0.007010442 0.009100698
000190 37 7d d1 3b df 5c 21 3c c6 61 38 bc 5b 4e 2e bb
       0.0063931006 0.009848802 -0.01125378 -0.0026596996
0001a0 7f 33 82 bc 2f ef d7 bb 5d fd b6 39 b7 60 5a 3b
       -0.015893696 -0.006589792 0.00034902515 0.0033321807
0001b0 a3 64 21 3c ca 21 58 3b 8e 3a 8a 3b 6d d6 86 b9
       0.009850654 0.0032979124 0.004218406 -0.0002571823
0001c0 ef 97 84 3b ab c9 cf bb 7d 86 24 3c cd 3a 08 3c
       0.004046432 -0.0063411794 0.01004183 0.0083148
0001d0 65 31 08 3c c7 bd be ba ad 93 96 3b 82 22 a1 3b
       0.008312558 -0.0014552408 0.004595241 0.0049174437
0001e0 c5 d1 e6 b8 66 14 29 bc 08 70 3a bc c3 25 15 bc
       -0.00011006327 -0.010319805 -0.011379249 -0.009103241
0001f0 d5 96 9f b7 0f 3e a7 3a 28 8f 12 bc ec e6 11 3b
       -1.9024514e-05 0.0012759584 -0.008945264 0.0022262884
000200 b5 93 57 bb d0 4f 56 bb 85 14 16 3c f5 27 c9 3c
       -0.0032894437 -0.003270138 0.009160166 0.024555186
000210 3e 08 37 3b 7d 73 7a 3c 19 48 a5 bc 61 93 35 3c
       0.0027928497 0.015286324 -0.02017598 0.011082501
000220 4a 2e 53 bc 66 bc 9f bb ab cc f7 bb 2f 6f fa bb
       -0.012889454 -0.0048747538 -0.00756224 -0.0076426486
000230 e3 b0 13 3c 59 c2 15 bc 52 c2 68 3c 12 08 f8 3a
       0.009014341 -0.009140574 0.014206486 0.0018923304
000240 aa fd 0c 3c 4f cf 06 bc cf b1 16 bc cb db ca bb
       0.0086054 -0.008228137 -0.009197666 -0.006190752
000250 0d 66 e5 3b c0 0a 75 3b bf 54 47 3b 71 87 21 3c
       0.007000691 0.003739044 0.0030415503 0.009858952
000260 9a 73 34 bc 67 ad 0b 3c e8 44 4c ba f7 3a 5d 3c
       -0.01101389 0.008525229 -0.000779225 0.013502828
000270 a3 3d d1 bb 18 e7 82 3b 38 ce 0f 3b 60 de fd 3b
       -0.0063855215 0.0039948337 0.0021942984 0.0077474564
000280 f7 e7 58 3a 37 95 16 bc 58 b8 f5 ba 0b 99 1d 3c
       0.00082743115 -0.009190849 -0.0018746955 0.009619008
000290 db 61 5a 3c 57 1c 37 ba 11 ee 19 bc 63 64 b9 bb
       0.013328995 -0.0006985119 -0.009395138 -0.005657719
0002a0 f7 06 55 3c 76 67 be 3b f7 16 5c b9 98 57 0d bb
       0.013002149 0.0058106733 -0.0002098939 -0.0021567103
0002b0 97 2b f9 bb ca 77 58 bc 04 3a 11 3c cf 11 45 bc
       -0.0076040733 -0.013212154 0.00886393 -0.012028172
0002c0 8c f6 48 3b 53 30 46 bc e7 57 64 bc 87 cb a6 3b
       0.0030664532 -0.012096482 -0.013936973 0.0050901803
0002d0 c3 bd 09 bc 83 5a 25 3c ac 0a 8b bb 0f 69 13 bc
       -0.008407059 0.01009238 -0.0042432155 -0.008997216
0002e0 b8 cd d2 3c 65 29 7a bb 83 1c b6 3b 51 0a 2e 3b
       0.02573286 -0.0038171646 0.005557598 0.0026556442
0002f0 ca 5a bb 3a 9b 86 c5 3b 32 2b 51 bc 47 62 78 3b
       0.0014294025 0.006028009 -0.012766646 0.0037900375
000300 4b 9b 5a 3c 06 87 9f 3b d9 36 12 bc aa 72 dc 3a
       0.013342689 0.004868391 -0.0089242095 0.001681884
000310 0a 99 5f 3c 25 d1 16 bb c2 4e 3b 3c cf e3 a6 bc
       0.013647327 -0.0023012843 0.011432352 -0.0203723
000320 17 33 42 bb 6b 01 80 3b c2 3d dc 3a 72 e0 b7 ba
       -0.0029632503 0.003906419 0.0016803073 -0.0014028682
000330 5b e7 b3 ba 2b b4 54 bc 3a ea eb ba bc 54 c8 3a
       -0.0013725566 -0.0129824085 -0.0017998882 0.0015284042
000340 22 4a 34 3c f8 82 9b 3b db 09 a3 3b 9c 27 18 bb
       0.011004003 0.0047458373 0.00497554 -0.0023216968
000350 9e 03 95 bb e5 3f cb 3a 9b c0 4d 3c b3 6d 23 3c
       -0.0045475503 0.0015506713 0.012558128 0.009974885
000360 98 b2 8d ba bc b6 06 bc 1b cf 41 3c 23 4b 1c 3c
       -0.0010810671 -0.008222278 0.011829163 0.009539398
000370 f6 61 bb ba bf 7f 76 bc d8 9a 56 bc 33 71 a6 ba
       -0.0014296162 -0.0150451055 -0.013098441 -0.0012698531
000380 08 f5 a7 bc d8 00 e6 3a 5f 20 2d bc 4f be 6f 3b
       -0.020502582 0.0017547859 -0.0105668 0.0036581939
000390 f1 4e 0f bc 60 f7 89 3c 10 6d 23 bc 8f bc 39 bc
       -0.008746848 0.01684159 -0.009974733 -0.01133646
0003a0 97 67 94 3c ef 35 8c bb 65 9c 14 bc 77 95 a3 3a
       0.018115802 -0.0042788903 -0.0090704905 0.0012480457
0003b0 0f e4 28 3c ad b3 b5 3b a7 6c 26 3c 99 d7 a5 bb
       0.01030828 0.0055451007 0.010157741 -0.0050611016
0003c0 88 92 e4 bb 83 4e 94 3b 13 b0 9c 3c 3f c9 f7 3b
       -0.0069754757 0.004525961 0.019126927 0.007561832
0003d0 38 8b 4e 3b 32 c9 6e 3b 04 3f a7 3b 95 1a e4 ba
       0.0031516086 0.003643584 0.0051039476 -0.0017402942
0003e0 3f 82 08 3c 2a 6f cd bb ce ad 88 3c 27 4b 93 bb
       0.008331834 -0.0062693553 0.016684439 -0.004495043
0003f0 5a a6 d4 3b f3 30 76 39 3c d0 30 bc 39 58 33 bc
       0.006489557 0.00023478623 -0.010791834 -0.010946327

action_model._discrete_distribution.branches.10.bias f4 [5]
000000 00 00 00 00 00 00 00 00 00 00 00 00 00 00 00 00
       0.0 0.0 0.0 0.0
000010 00 00 00 00
       0.0

action_model._discrete_distribution.branches.10.weight f4 [5, 128]
000000 28 43 c0 3b 59 d3 2e 3b c5 96 5a bc d7 d3 a2 3b
       0.0058673806 0.0026676266 -0.01334161 0.004969101
000010 17 49 96 bb fc 22 38 3b 52 75 68 bc 1a 9d f0 39
       -0.0045863497 0.0028097024 -0.014188128 0.00045893417
000020 c6 7e 9a bb 07 de 5a 3b c0 a5 ca 3b dd 5e 16 3c
       -0.0047148196 0.0033396499 0.0061843097 0.009177891
000030 af 63 d6 39 15 6e 84 bb b8 42 42 bc 9b c0 ba 3b
       0.0004089153 -0.004041443 -0.011856727 0.00569923
000040 3b e2 3b bc a7 b2 9c 3b 4e de c0 ba 38 41 92 3b
       -0.011467512 0.004782039 -0.001471469 0.004463341
000050 96 f3 90 3c ef 95 02 ba 4f ba 95 bb 4f f4 74 bc
       0.017694276 -0.00049814483 -0.004569329 -0.014950826
000060 ee 5e 89 bc aa 99 dc 3a 40 53 6c 3b da 86 4a 3c
       -0.016768899 0.0016830463 0.0036060363 0.012361253
000070 86 77 bd bb 3b a7 80 3c bf 97 98 ba 15 50 fc 38
       -0.0057820706 0.015704742 -0.0011641904 0.00012031213
000080 f8 2e 9f bc cf 9d f4 bb 03 61 b9 bc d9 d3 0e bb
       -0.019431576 -0.0074651013 -0.022629267 -0.0021793752
000090 15 5d ac bb 90 ed 65 bc 37 90 e4 ba b7 ed 2e bb
       -0.0052601197 -0.01403369 -0.0017437999 -0.0026691982
0000a0 d3 dc af 3c e7 e4 8c bb 8e 6d bf bb ef b2 6d 3c
       0.021467602 -0.004299748 -0.0058419174 0.014507993
0000b0 db 17 d6 3b a6 d2 10 38 9f 7b 5b bb cb 42 95 3b
       0.0065336055 3.4528457e-05 -0.0033490432 0.0045550815
0000c0 95 12 8a 3c 4d 81 42 3c c3 ee e2 bb 9f 12 29 3c
       0.016854564 0.011871648 -0.0069254353 0.010319381
0000d0 63 7b d7 bb 66 89 11 3b 0d c0 68 39 37 5f 09 bc
       -0.006575988 0.002220714 0.00022196789 -0.008384517
0000e0 2d 07 cc bb e1 07 b7 3b 8b ec 01 3c 42 ec e3 bb
       -0.0062264414 0.005585656 0.007929931 -0.0069556544
0000f0 49 04 00 3c f7 05 15 3c 08 72 78 3b a8 f4 7b bc
       0.007813522 0.00909566 0.0037909765 -0.015378155
000100 b3 24 bc bb ae 77 81 bb 11 8c 42 bb da c0 5c bc
       -0.0057416796 -0.0039510345 -0.0029685537 -0.013473714
000110 d2 a0 7c 3b 9d cb 3f 3a 5d fa f4 3a 61 51 46 bb
       0.0038548005 0.00073164125 0.0018690337 -0.0030260908
000120 ea b8 f1 3b a7 b4 2d 3a 3c ad 12 bc b7 37 27 bc
       0.00737678 0.00066263456 -0.008952435 -0.010206155
000130 5b ea 1b bc a8 28 b3 3b 50 8e c6 3b 22 de 17 bb
       -0.009516324 0.005467493 0.0060594454 -0.0023173173
000140 9f 29 0e bb c9 0f 96 3b 6b 6e 70 bc ca 88 55 bb
       -0.0021692289 0.0045795185 -0.014674763 -0.0032582753
000150 6b 22 40 3c 85 38 8d 3b 49 e1 3e 3c 77 bd 86 b8
       0.011726956 0.004309716 0.011650392 -6.4249085e-05
000160 89 ae 0b 3c 38 33 1e bc f2 22 d2 3b 27 21 25 3c
       0.008525499 -0.009655766 0.006412857 0.010078705
000170 76 d3 a1 bc 04 24 14 bc 20 9e cf 3a 5d e9 e4 3b
       -0.019754153 -0.00904179 0.0015839972 0.006985827
000180 90 52 4c bb 4a 12 51 bb fd 0e 0d 3b f4 ce 09 3b
       -0.003117714 -0.003190177 0.0021523826 0.0021027895
000190 83 af a1 ba a2 89 06 bc 3a e4 77 3b bf d2 71 3c
       -0.0012335632 -0.008211525 0.0037825243 0.014759718
0001a0 57 a2 e5 bb cb f9 4c 3b b0 8c 96 3c 1d 76 9a bb
       -0.007007878 0.0031276818 0.018377632 -0.004713787
0001b0 48 b8 72 3b 12 23 60 bb fe 54 04 bc 15 e0 44 3c
       0.003703611 -0.003420059 -0.008076904 0.012016316
0001c0 a1 fd 82 bc f1 18 11 3c d0 9b 47 3c 43 ef df bb
       -0.01599008 0.008856044 0.012183145 -0.006833942
0001d0 4a 82 32 3c b7 de 10 3c 45 7c 69 bb 21 91 8e 3b
       0.010895321 0.008842162 -0.003562705 0.004350797
0001e0 dd c7 5a 3c f9 6c 01 bc 97 be 8d 3a cf 62 03 3c
       0.013353315 -0.007899516 0.0010814246 0.008019163
0001f0 0f a4 e2 3b 87 0b 32 ba 78 14 43 3c 7a 69 cd bb
       0.00691653 -0.0006791879 0.011906736 -0.0062686773
000200 fb f0 3a bc e7 11 ae ba 4b c8 10 bc df db 64 39
       -0.011409993 -0.0013280482 -0.008836816 0.00021825683
000210 8a d0 68 3b 50 c3 20 3c 2d 10 5b bc c2 ca 79 3b
       0.003552469 0.009812191 -0.013370556 0.0038115238
000220 27 c5 54 3c 23 5a 0d 3c ad 42 06 bb 47 ab ab 3b
       0.012986458 0.008627447 -0.002048652 0.0052389237
000230 c3 54 68 bb 5b 14 55 3c 6d e0 d4 3b 5d 69 27 3b
       -0.0035450913 0.013005341 0.00649648 0.002554498
000240 45 2d 9d 3a fd ca 5b ba 00 f1 f0 3b 47 c0 0b bc
       0.0011991641 -0.00083844346 0.007352948 -0.008529729
000250 c3 c3 2e 3c 1a 79 5f 3c 7c 32 38 bb 03 25 02 bc
       0.01066679 0.013639713 -0.0028106263 -0.007943395
000260 5f 42 1d bc 62 30 7d ba 3a 27 97 bc dd 2c 5b 3c
       -0.009598344 -0.00096583937 -0.018451322 0.013377395
000270 98 68 e5 3b 87 7b 25 3b fa 48 5f bb b3 12 8a 3b
       0.007000994 0.002525063 -0.0034070597 0.004213655
000280 f0 90 3a 3c e8 59 e7 ba 42 8f 42 bb 70 b3 3a b8
       0.011387095 -0.0017650696 -0.002968744 -4.451297e-05
000290 53 b3 8d bb 37 d1 2e bc ec 8d 85 bb ed a8 fb 3b
       -0.0043243556 -0.010669998 -0.0040757563 0.0076800496
0002a0 b3 54 80 bb c0 21 81 ba e1 47 92 3c 22 78 da 3b
       -0.003916347 -0.0009851977 0.01785654 0.006667153
0002b0 f0 f6 c2 3b c9 da 13 3c 70 42 dc 3b a9 1e a7 3b
       0.0059498474 0.00902433 0.006721787 0.0051000905
0002c0 30 00 92 b9 55 6d 1f bc 18 4a a3 3b 54 15 0c 3c
       -0.0002784743 -0.009730657 0.004983198 0.008550007
0002d0 85 e8 3b bb da d2 d2 3a 48 65 07 bc 99 67 24 3c
       -0.0028672528 0.0016084567 -0.008263893 0.010034465
0002e0 d8 f7 8b bb 7b 54 1b bc ef ec 9e bc 12 74 67 3c
       -0.0042714886 -0.009480591 -0.019400088 0.014126794
0002f0 43 ed 84 bb 9b 5d b5 3c 8f c8 8f bc cb ee 3d 3c
       -0.004056604 0.022139361 -0.017551688 0.011592577
000300 18 54 17 3b 94 39 87 3c cb 88 4f 3c ce b0 a0 bb
       0.0023090895 0.016506948 0.012666891 -0.0049038893
000310 fb a4 c2 bb 5f 31 23 bc ea 5e 05 bc 1f c8 20 b9
       -0.0059400774 -0.009960501 -0.008140305 -0.0001533334
000320 6f a9 74 bc 33 c2 ff 3b cd a6 5b 3a a3 13 d6 3b
       -0.014932974 0.007805133 0.0008379042 0.0065331026
000330 d4 cd 09 bb 37 01 41 ba a0 65 28 bc 75 b6 0f 3b
       -0.0021027224 -0.0007362547 -0.010278136 0.0021928821
000340 4b 10 1b 3b e9 a4 05 3c 48 c7 be 3a 5b 64 67 3c
       0.0023660834 0.008156993 0.001455524 0.014123048
000350 ff 14 11 bb 4a 93 28 3b c1 50 a2 3b 33 c8 75 bb
       -0.0022137759 0.0025722557 0.0049534743 -0.0037503361
000360 9f b6 5b bc f3 88 97 bb 13 7f 3f 3b a8 d5 8b bb
       -0.0134102395 -0.00462448 0.002922003 -0.004267413
000370 8d 6f c4 3b e1 d0 25 3b cf e9 94 3a 15 e6 29 bc
       0.005994743 0.0025301503 0.0011361184 -0.010369797
000380 b3 39 49 bc b7 20 d6 3b 7b e3 86 3b ca ac 11 bc
       -0.012281823 0.0065346616 0.0041164733 -0.008891294
000390 bf f3 ab 3b d3 2f b2 ba c3 a6 80 3c 82 67 27 3c
       0.0052475627 -0.0013594575 0.015704518 0.010217549
0003a0 6c d1 10 3c 8d ff 6a bb 45 64 06 bc b5 b4 92 bb
       0.008838993 -0.0035857887 -0.008202617 -0.0044771084
0003b0 de 8e 96 3b bb 32 de 3b ad 19 68 ba 9e 9e 93 bb
       0.004594668 0.00678095 -0.00088539236 -0.0045049926
0003c0 6d 43 6f bb 3e f5 b8 bb c7 eb 97 3a 3b 94 4a 3c
       -0.0036508695 -0.0056444695 0.0011590653 0.012364442
0003d0 b9 d2 36 3b a2 70 da b9 ea e4 2a ba d3 da 47 3b
       0.0027896597 -0.00041664118 -0.0006519096 0.003049542
0003e0 bd 30 e8 bb de b6 94 ba c7 10 34 3c 4c 5f 37 3c
       -0.007085888 -0.0011346003 0.010990328 0.011192154
0003f0 d0 18 23 3c a7 ae f3 bb 0f 67 5f bb a7 26 67 bc
       0.009954646 -0.0074365917 -0.0034088527 -0.0141083365

action_model._discrete_distribution.branches.11.bias f4 [5]
000000 00 00 00 00 00 00 00 00 00 00 00 00 00 00 00 00
       0.0 0.0 0.0 0.0
000010 00 00 00 00
       0.0

action_model._discrete_distribution.branches.11.weight f4 [5, 128]
000000 75 a8 19 bc 75 65 df b8 ff 3e 7c 3c 9e 55 27 bb
       -0.009378542 -0.000106523665 0.015395879 -0.002553321
000010 d8 a3 cf 3b 2b d2 e2 3b 7b 21 e3 bb 8b a0 e4 bb
       0.0063366704 0.0069220266 -0.0069314814 -0.006977146
000020 65 55 a3 bc 6b ff d2 3b c5 13 cf 3b b2 85 52 3a
       -0.01993818 0.0064391396 0.0063194954 0.00080307864
000030 a1 12 cb 3a 83 6e 09 bc 3a d9 9d 3b 4f 3c 8b 3a
       0.0015493223 -0.008388164 0.004817155 0.0010622832
000040 71 27 04 b8 1d 56 d5 3b 44 bb 43 3c 08 1c 78 3a
       -3.1507985e-05 0.0065105096 0.011946503 0.0009464626
000050 3b 67 d7 3b 40 5e 29 bc 1d 95 8f bc 83 c2 37 bc
       0.0065735853 -0.010337412 -0.017527157 -0.011215809
000060 cb 4d 9b ba 83 80 ce bb 97 dc a3 b9 31 c0 2f bc
       -0.0011848746 -0.006301941 -0.00031254135 -0.010726974
000070 25 89 54 bb fb 12 c4 3b ba 0f f5 ba 7a 0d 98 3c
       -0.0032430377 0.005983708 -0.0018696703 0.018561114
000080 1a d9 ee 3b 2b 5e 90 3c d8 47 0d 3c 43 f4 28 3c
       0.007289064 0.017623028 0.008623086 0.010312143
000090 02 54 be 39 05 a8 f5 b9 80 8b ca ba a7 dd 9f bc
       0.00036302215 -0.00046855226 -0.0015452951 -0.019514872
0000a0 25 4f 4d bc b0 2e 6b bb 13 5d 21 3a e5 58 56 3c
       -0.012531077 -0.0035885982 0.0006155532 0.013082718
0000b0 4f 07 11 3a 0d cb 5d b9 8f 99 ca 3c 48 63 92 bc
       0.00055324 -0.00021151845 0.024731426 -0.017869607
0000c0 c7 92 33 3a 6e 39 3c bb ec 2c 15 3a 24 31 a2 3c
       0.00068501796 -0.0028720754 0.0005690593 0.019798823
0000d0 79 09 13 3c bb 1a b4 39 e3 14 a1 3b 88 01 62 3b
       0.008974426 0.0003435219 0.00491582 0.0034485776
0000e0 6b 27 36 3c a8 fa 16 bb db b1 a9 bb a5 c4 44 3c
       0.011117796 -0.0023037586 -0.0051786727 0.012009774
0000f0 a2 f4 1b 3c 8a 04 58 3c c9 63 b7 3b f3 4b 5a 3c
       0.009518774 0.013184676 0.005596612 0.013323772
000100 15 e6 50 bc b4 9e 27 3c ba 58 d5 3b 17 89 16 3c
       -0.012750168 0.010230709 0.006510821 0.009187958
000110 6f eb 23 3c 95 10 52 ba 19 27 91 3b db 6c 00 3c
       0.010004862 -0.0008013335 0.0044297096 0.007838453
000120 35 8e b1 3b b9 9b 16 bc 87 e9 93 bc 27 e1 f1 ba
       0.0054185637 -0.009192401 -0.01805569 -0.0018453941
000130 46 14 0f 3c 9c d6 40 3a 0f 30 b8 bb ca 35 aa bb
       0.008732861 0.0007356198 -0.0056209634 -0.0051944004
000140 33 28 82 bc e0 57 8e b9 c6 46 2a bb ce bd 2d 3c
       -0.01588831 -0.00027149823 -0.0025982126 0.010604335
000150 a3 dc a6 3c 62 17 5a bc 29 11 12 3c 83 90 9a 3a
       0.02036888 -0.013311239 0.008915224 0.0011792335
000160 2e 27 ae ba cb 1d c2 3b 2a 26 dc 3a c3 ac 65 3b
       -0.0013286823 0.0059239618 0.0016796042 0.00350456
000170 b7 04 33 bc c2 9d 73 bc b3 56 8e 3c 03 f0 f9 3b
       -0.010926417 -0.014869155 0.017375326 0.0076274886
000180 f3 cf 43 3a 4a d1 75 bc 23 1e d7 bb c1 58 04 bb
       0.00074696465 -0.015003512 -0.006564872 -0.0020194503
000190 a3 21 37 bc b2 8f 13 bb 02 d3 69 3c fb 40 19 3c
       -0.011177453 -0.002251607 0.0142715 0.009353871
0001a0 3b 3d 98 bc 48 4d c2 3b cf 2f f4 bb c4 1b 16 3c
       -0.018583884 0.005929623 -0.0074519883 0.009161893
0001b0 79 f2 c4 bb 37 ed b4 bc 88 44 83 bb 16 65 3b 3c
       -0.0060103503 -0.02208577 -0.0040059723 0.011437675
0001c0 08 cb 6c bb 0a 20 ad bb fc 95 10 bc ac e1 c7 bb
       -0.0036131758 -0.0052833604 -0.008824822 -0.0060999
0001d0 ee 8d 80 bb bc af 42 3b 47 c8 2a 3b 97 dc 85 3c
       -0.0039231693 0.0029706797 0.0026059316 0.016340537
0001e0 9e 48 86 bb fa f4 64 bc bb 76 a5 3b ad 39 f9 3b
       -0.004098012 -0.013974423 0.005049554 0.0076057524
0001f0 0f 8c 21 3b 60 5e 7f 3b 37 ef 8a bb 38 14 39 bb
       0.0024650132 0.0038966164 -0.0042399424 -0.002824081
000200 4f 49 00 3b 0f 6f 2f bb 1d 05 e6 ba e0 9f fa bb
       0.0019574945 -0.0026769077 -0.0017549131 -0.007648453
000210 f9 77 00 bb 07 8c 3a bb eb 78 09 3b 54 49 49 3a
       -0.001960276 -0.002846481 0.0020976614 0.0007678468
000220 db eb 32 3c c0 11 6a 3c 41 ae 14 bc ed c5 71 bc
       0.01092049 0.0142864585 -0.0090747485 -0.014756662
000230 45 fa 66 3b e5 c3 96 ba c8 68 3d 3b 02 ba 4f 3a
       0.0035244387 -0.0011502473 0.0028901566 0.00079241407
000240 ef 96 f0 bb 13 4c e9 bb 3c 2e 03 bc c9 69 be 3b
       -0.0073422114 -0.0071196645 -0.008006629 0.0058109504
000250 52 2c 5b bc e7 57 15 bb 1e 49 be bb fe 55 0d bc
       -0.013377266 -0.002278799 -0.005807056 -0.008626459
000260 b1 5f 1a bc d0 da 1a bb cf 99 5e bc 87 6d 42 bc
       -0.009422229 -0.0023628958 -0.0135864755 -0.011866934
000270 23 8b 4c 3c e1 f9 0b bb 93 a2 db bb 29 a5 13 bc
       0.012484345 -0.0021358656 -0.00670273 -0.009011545
000280 a7 4f 55 bb 53 9a b4 bb 72 58 1d 3b 38 04 18 bb
       -0.0032548697 -0.005511561 0.0024009016 -0.0023195874
000290 56 b0 35 bc 37 79 97 bb bb f0 c3 bb 79 9f 13 3c
       -0.011089405 -0.004622604 -0.005979625 0.009010189
0002a0 bb cb 2b 3c 37 fb de 3b de 57 9f bb 7c f5 b0 bb
       0.010485585 0.0068048495 -0.0048627695 -0.005400358
0002b0 13 8f 95 3b 6b e0 b7 3b 06 84 98 3b fa 4e 24 bc
       0.004564175 0.0056114695 0.0046544103 -0.010028595
0002c0 f6 a5 b9 3c 12 55 dc 3a 93 ba e6 3b 5b ec a4 3c
       0.022662144 0.0016810021 0.0070412843 0.020132234
0002d0 23 70 cd ba 47 ff 25 bc e2 b1 43 bc eb a0 a9 ba
       -0.0015673678 -0.010131664 -0.011944266 -0.0012941634
0002e0 77 d0 8f bb e3 51 ec 3b e3 35 13 3c b1 e9 9d bb
       -0.0043888646 0.00721191 0.008985016 -0.004819118
0002f0 5a a3 0c 3b 66 d5 1f bc 8d 07 ae bb 3a 76 0f bc
       0.002145967 -0.009755468 -0.0053109587 -0.008756215
000300 68 cc 36 bc f9 f6 87 3b 27 e9 97 39 9f dc 75 3b
       -0.011157133 0.0041493145 0.00028974676 0.0037515534
000310 47 3e 9b ba de b9 15 bc 51 7a cb 3b 4a f7 f0 bb
       -0.0011844122 -0.0091385525 0.0062096496 -0.007353698
000320 32 c1 cc bb 7a ef aa 3b 73 04 a3 bb 3d a6 5a 3b
       -0.0062486166 0.005216536 -0.0049748956 0.0033363246
000330 0f 85 b1 bb 1a 12 1e bc ce da 3e bb 5b c6 17 bc
       -0.005417473 -0.00964787 -0.0029122117 -0.0092636
000340 f3 62 04 bb 1a 25 d0 3b 08 24 1a 3c e3 ae ee bb
       -0.002020058 0.006352079 0.009408005 -0.0072840317
000350 93 1e 76 bc b9 50 b2 bb 33 3a d5 bb 2b 93 f7 bb
       -0.015021938 -0.005441752 -0.006507182 -0.0075553856
000360 11 7d 05 bb 64 16 bb 3a 9b 9a bc bb c1 8a ba bb
       -0.0020368735 0.0014273641 -0.005755735 -0.0056928103
000370 77 42 8e 3c f0 80 ac bb ea cd 1c ba 2e 10 03 39
       0.017365677 -0.005264394 -0.00059816113 0.00012499161
000380 7b f4 e7 3b cf ec ab 3b a7 2e 1f bc 7e fd 94 3b
       0.007078705 0.0052467356 -0.009715713 0.00454682
000390 45 c9 95 ba d3 a3 6b 3c ed 93 50 3c e3 f2 89 bb
       -0.0011427781 0.01438232 0.012730581 -0.0042098626
0003a0 8c b9 26 bc aa 80 18 bc 52 7f 71 3b 80 84 5a bc
       -0.010176074 -0.00930802 0.003684957 -0.0133372545
0003b0 d2 8f d9 3b 56 89 84 bc 93 ac a9 3b 4f d9 04 ba
       0.006639459 -0.016178768 0.005178043 -0.0005067782
0003c0 af 62 16 3a f0 75 2d 3b 9d 98 cc 3b f2 3d 18 bb
       0.0005736751 0.0026468001 0.006243779 -0.0023230282
0003d0 63 e3 43 3c 4a 41 f3 3b 2a 23 d4 b9 cd 96 61 3a
       0.011956069 0.0074235545 -0.0004046199 0.000860554
0003e0 f3 2c ed 3b a8 52 fb bb 77 be cf 3b a3 61 26 3c
       0.0072380244 -0.0076697655 0.006339844 0.010155114
0003f0 e2 c8 4f bc 05 db 18 3b c2 6e 7c ba 0f c2 58 3c
       -0.012682172 0.0023323905 -0.00096295413 0.013229861

action_model._discrete_distribution.branches.12.bias f4 [5]
000000 00 00 00 00 00 00 00 00 00 00 00 00 00 00 00 00
       0.0 0.0 0.0 0.0
000010 00 00 00 00
       0.0

action_model._discrete_distribution.branches.12.weight f4 [5, 128]
000000 ee 70 0d 3c c8 f8 f3 bb dc 3c 84 bb da 93 37 3b
       0.008632882 -0.0074454285 -0.0040355753 0.002801171
000010 df 83 a4 3c 39 d3 34 3c a5 5f 64 bc 57 45 13 3b
       0.020082412 0.0110366875 -0.013938819 0.002247175
000020 ef 57 2c bc 2f ac 26 bc 48 0b 0b bc 08 94 ee bb
       -0.010519012 -0.010172888 -0.008486576 -0.0072808303
000030 f7 c2 3b 3c b8 cb d5 bb 93 30 c1 3b eb b4 6a 3b
       0.011460057 -0.0065245293 0.005895683 0.0035813402
000040 c0 18 5b 3a db 1e a9 bb 58 e6 da 3b 5e 18 a4 3c
       0.0008357875 -0.005161149 0.006680291 0.02003115
000050 72 53 95 ba ef 83 36 bc b7 ff df bb 19 db 93 ba
       -0.0011392666 -0.011139854 -0.0068359035 -0.0011280506
000060 08 d5 c2 3b b0 29 06 3b 6a a9 65 bb ab ab 8d 3b
       0.0059458055 0.0020471625 -0.0035043606 0.004323443
000070 44 8e 0f 3c dd ec e8 bb 17 f9 8c bc 97 8e 42 ba
       0.008761946 -0.0071083144 -0.017208619 -0.000742176
000080 8b 5d 07 bc a2 e4 d5 39 82 32 56 bc c0 c7 f8 3c
       -0.0082620485 0.0004079687 -0.013073565 0.030368686
000090 a3 f9 10 bc bf 68 e1 3b 46 77 8a 3c fe 63 01 bc
       -0.0088485805 0.006878942 0.016902577 -0.007897375
0000a0 19 f7 ca 3b 7e 29 05 3c 93 28 04 bb 2b d6 08 b9
       0.006194007 0.008127568 -0.0020165786 -0.00013049754
0000b0 d7 11 c8 bb 53 94 35 3c ec 48 c3 3b a2 f1 0d bb
       -0.0061056423 0.0110827265 0.0059596207 -0.0021658917
0000c0 d7 e0 14 3c 6f ea 00 ba 85 1f fb 3b 13 ee 38 3c
       0.009086809 -0.0004917746 0.0076636695 0.01128723
0000d0 f5 3c 6b bb 2d dc e6 bc 37 3f 05 3c db c5 5c 3c
       -0.0035894488 -0.02818116 0.008132747 0.013474907
0000e0 90 a9 10 b9 23 3d 8c bc 4f f6 72 3b e4 bf 9f 3c
       -0.00013796077 -0.017118996 0.003707308 0.01950068
0000f0 12 94 5a 3b ed cc 1e 3c 50 66 12 3c c2 83 8f ba
       0.0033352417 0.009692413 0.008935526 -0.0010949301
000100 67 7d 26 3c 58 9f 0f bc 3e 17 15 3c 23 91 0c bc
       0.010161734 -0.008766018 0.00909978 -0.008579525
000110 53 8a 88 3a 43 80 8b ba 33 2f 8a 3a d7 61 10 bc
       0.00104172 -0.0010643083 0.0010542631 -0.008812389
000120 e8 4c 46 3c 15 76 63 bc d3 53 25 bc 7d 25 79 3b
       0.012103297 -0.013883133 -0.010090786 0.003801673
000130 6c dd 09 bc a2 52 eb 39 84 63 04 bc 5c ea 2c bc
       -0.0084146075 0.0004488426 -0.008080367 -0.0105539225
000140 72 c1 eb 3b 91 91 97 3c aa 51 cd b9 2e 77 86 3b
       0.0071946913 0.018502029 -0.0003916149 0.004103563
000150 b7 fb 6d 3c bd e7 0f bc 70 e3 82 bb dd fa 7b 3c
       0.0145253455 -0.008783278 -0.003994398 0.015379635
000160 0a bf 5c 3c f6 68 a5 3b c4 36 35 3c 4b e5 85 3a
       0.013473282 0.0050479127 0.01106042 0.0010215429
000170 eb 40 7f bc 97 ef 1e bc eb 9d e5 3b fd ee 3c 3c
       -0.0155794425 -0.009700677 0.0070073507 0.011531589
000180 df ad b6 bb 64 17 08 3c 5b 6c c9 3b f3 73 fc bb
       -0.0055749263 0.008306358 0.00614695 -0.007704252
000190 f0 92 2f bc 32 ad 0b bb 9c 71 85 bb c3 9b ef bb
       -0.010716185 -0.002131295 -0.004072381 -0.0073122694
0001a0 c3 e4 66 3a 87 16 47 bc dd 60 4b bc ab 14 aa ba
       0.0008807892 -0.012151367 -0.012413231 -0.001297613
0001b0 06 3c 06 bc 6d 27 af ba 1f 11 d5 bb f3 04 f8 bb
       -0.008193022 -0.001336319 -0.006502285 -0.0075689494
0001c0 6a fb 99 3b f9 e4 93 bc df b0 86 bb 6f c0 8b 3a
       0.0046991603 -0.018053519 -0.00411044 0.0010662208
0001d0 27 ff 95 3b df 30 d1 bb ff eb a8 bc c4 6d 45 bc
       0.0045775357 -0.0063839997 -0.020620344 -0.012050096
0001e0 60 96 e7 ba 47 a0 9b bb 0f 8e 64 bb cf 61 0d 3b
       -0.0017668717 -0.004749331 -0.0034874713 0.002157319
0001f0 38 70 d7 3a 47 09 b3 ba 10 34 56 bc d8 1a d3 b9
       0.0016436642 -0.0013659381 -0.013073936 -0.00040265056
000200 92 d0 fc 3b c3 e9 5d bb f7 4d 2e bc 56 0b 00 bc
       0.007715293 -0.0033861257 -0.010638705 -0.007815203
000210 1f 0e a0 3c 6e 42 b3 3a cb 5f 61 bc 87 fa b9 bc
       0.019537983 0.0013676414 -0.013755749 -0.022702469
000220 9d 4c 41 bc db 32 36 3b 53 90 cd bb 93 59 98 3b
       -0.011798051 0.0027801308 -0.0062733083 0.00464935
000230 ab cc e8 bb a8 5e e6 3b 0f 5c a9 3a 67 9b bb 3b
       -0.0071044764 0.007030327 0.0012921112 0.0057253125
000240 bc 6a b2 3b de 33 bb ba c2 a6 aa ba 91 5a 0c 3b
       0.0054448526 -0.0014282425 -0.0013019668 0.0021416286
000250 f7 cb 5f 3b 5f 8b ee b9 95 42 51 3c 3b eb bb 3b
       0.0034148672 -0.00045498737 0.012772222 0.0057348288
000260 5e 93 20 3c 36 b0 3c bb e1 33 47 bc db 01 8a bb
       0.00980076 -0.0028791553 -0.012158365 -0.004211647
000270 d8 4d 94 3b 03 0f 1b 3b db c1 81 bc cd 31 28 3c
       0.0045258813 0.002366007 -0.015839508 0.01026578
000280 23 64 ae 3b e8 9f 17 bc c3 f2 c6 bb 64 f8 99 bc
       0.005321996 -0.009254433 -0.00607142 -0.0187952
000290 bd 5a 9c ba fd 8a 39 3c 44 63 1a ba fc 79 06 3c
       -0.0011928898 0.011324641 -0.00058894255 0.008207794
0002a0 cb 2b cd bb ae e3 12 3c ac a6 a6 bb af bf b2 bb
       -0.006261324 0.008965416 -0.005085787 -0.0054549794
0002b0 90 7e 0a 3c 38 b8 01 bc c5 3e 81 3b a1 38 a6 3b
       0.008453026 -0.007917456 0.0039442503 0.0050726687
0002c0 3a 14 78 bc 97 1c 6d 3c 9b 61 5e 3c 6b 9f 99 b8
       -0.015141541 0.014472148 0.013573076 -7.3253024e-05
0002d0 8c 4f 0c bc e6 3f 84 bc 7f e0 d1 3b 45 f4 fe 3a
       -0.008563887 -0.01614375 0.006404936 0.001945146
0002e0 85 8c f7 3b 6c 5d 25 bc af 4d 85 3b f8 cb 4c ba
       0.007554593 -0.010093074 0.0040680985 -0.0007812376
0002f0 cc 03 02 bc c3 80 4b 3c df 6b 1b bb e2 5d 35 3c
       -0.007935476 0.012420836 -0.002371542 0.011069747
000300 63 a5 3a bc 97 4f b3 3b 11 da 1a 3b 12 c1 99 3b
       -0.01139197 0.0054721343 0.0023628513 0.004692205
000310 83 28 ba bb f8 4a 86 bb a8 dd d6 bb 85 83 33 3c
       -0.005681099 -0.0040982924 -0.006557185 0.01095665
000320 83 da 34 3a 06 2d 81 3b 5b 3c 44 3a f8 5f ee bb
       0.0006899016 0.003942135 0.00074858003 -0.007274624
000330 93 8a 47 bc e7 4e ed 3a b2 87 9b bb 60 19 7c 3b
       -0.012179035 0.001810518 -0.0047464008 0.0038467273
000340 e8 04 5d 3c ba 11 9f bb 42 5c 6f 37 d5 7b 5d 3a
       0.013489939 -0.004854408 1.4266991e-05 0.00084489334
000350 31 d1 18 3c eb e5 cb 39 ab 20 22 3c 80 4d 27 bc
       0.009327219 0.0003889048 0.009895484 -0.0102113485
000360 23 c7 cb bb 70 72 c2 ba 3e 9d b2 bb 7d 3c 25 3c
       -0.0062188073 -0.001483513 -0.0054508736 0.010085222
000370 d3 d6 e4 3b 32 eb 69 ba 47 94 87 ba f7 a9 f0 bb
       0.006983617 -0.00089232915 -0.0010343873 -0.00734448
000380 8d 43 34 3c 82 8b 5e bc c5 4b f5 3b 0a 2b 0c 38
       0.0110024335 -0.013583066 0.007485839 3.3418684e-05
000390 ab 15 10 3a c0 37 24 3c 33 6c f2 3b 77 ff 0e 3b
       0.0005496393 0.010023057 0.0073981523 0.002181975
0003a0 c5 97 6e b8 32 aa bb 3b 20 e0 3c bc 3f ad 6a 3b
       -5.688497e-05 0.005727076 -0.011528045 0.003580883
0003b0 9e 2c c9 bb 19 da 0d bb 53 3a 3d 3c 11 6a 8b 3a
       -0.006139352 -0.002164489 0.01154955 0.0010636469
0003c0 93 24 20 3a 1f e1 0f b9 2c 9f 05 bc bf c6 14 38
       0.00061089656 -0.00013721407 -0.008155625 3.5471046e-05
0003d0 4c c1 ba b9 73 9b fc 3a af 7f e3 bb 77 27 24 bc
       -0.00035620702 0.0019272402 -0.0069427113 -0.010019175
0003e0 3f f7 91 bb 88 b3 d2 3b 8f c5 82 bc 35 8d 7b bc
       -0.004454523 0.006430093 -0.015963344 -0.015353491
0003f0 46 ff a1 bb 0b 79 38 3c 94 2f 40 bb 62 dc 72 3b
       -0.004943761 0.011259328 -0.0029325234 0.0037057628

action_model._discrete_distribution.branches.13.bias f4 [5]
000000 00 00 00 00 00 00 00 00 00 00 00 00 00 00 00 00
       0.0 0.0 0.0 0.0
000010 00 00 00 00
       0.0

action_model._discrete_distribution.branches.13.weight f4 [5, 128]
000000 30 42 1d bb b8 3d c6 3a a1 db 2f bc 6e fb 05 3c
       -0.002399575 0.0015124595 -0.010733516 0.008177621
000010 75 0c 92 39 78 f0 73 39 8f 8f 15 3c 20 1e 1d bc
       0.0002785657 0.00023263867 0.009128465 -0.009589702
000020 d7 9b 69 ba 83 b5 da bb 27 12 24 3c a2 00 c7 bb
       -0.00089114666 -0.00667447 0.0100140935 -0.0060730735
000030 f3 d8 99 bb 0e 20 c0 3c e8 a5 07 bc 24 08 10 bb
       -0.004695052 0.023452785 -0.008279301 -0.0021977508
000040 55 0b ed 3b 06 1e 05 bc 45 29 96 3c f3 8a 1a 3b
       0.007234017 -0.008124834 0.018330226 0.0023581355
000050 b5 10 ff ba a5 1f 93 3b c8 50 b7 3b bb e5 f5 bb
       -0.0019459935 0.0044898563 0.0055943467 -0.0075041926
000060 49 fb 10 3c 03 19 2c 3c 6b 5a c8 ba 25 4a 11 bb
       0.008848974 0.01050401 -0.0015285736 -0.0022169438
000070 d4 7e 44 3c 52 cf 3f 3c ab 86 da bb 53 68 30 3b
       0.011993129 0.011707144 -0.0066688857 0.002691765
000080 af cc 40 3c 76 42 a0 3a 59 9e a4 bb 28 3b 81 bb
       0.01176755 0.0012226838 -0.0050237593 -0.0039438196
000090 42 d4 03 bc f3 9b 21 bb 21 68 92 3c 68 e7 04 bc
       -0.008046212 -0.0024659603 0.017871918 -0.008111812
0000a0 e5 41 ec 3b a5 0c ea b9 02 04 55 bc 5f ad 1a bc
       0.0072100037 -0.0004464138 -0.013001444 -0.009440749
0000b0 a0 d8 8d bb 62 54 b2 3c 04 67 30 3c 22 9e e6 b9
       -0.004328802 0.021768752 0.010766748 -0.00043986837
0000c0 b1 5f 94 3c 2d ef 5e bc c3 3f 83 bb e3 7c 29 bc
       0.018112035 -0.013606829 -0.0040054037 -0.010344717
0000d0 45 be 4d bc e5 ca e0 3a 3b 35 10 bb b0 78 73 3b
       -0.012557571 0.0017150311 -0.0022004384 0.0037150793
0000e0 85 be 4b 3c 77 54 c3 3b 23 ee 72 bb 9f 87 6c 3b
       0.01243556 0.0059609967 -0.003706821 0.0036091579
0000f0 09 56 8a 3b d2 66 76 bb 2b 5c 05 bc 41 84 2e bb
       0.004221682 -0.0037597907 -0.00813965 -0.0026629122
000100 63 48 2b 3b 30 20 60 bb 83 4f 03 3b fb 6d fb 3b
       0.0026135675 -0.0034198873 0.0020036406 0.007673023
000110 a0 cd f3 bb 84 e5 a2 bb 74 16 37 bc 3f 49 15 bc
       -0.007440284 -0.004971208 -0.011174787 -0.0091117015
000120 ac 94 c0 bb 03 33 95 bb 19 69 a1 3c 1a aa 19 3b
       -0.005877098 -0.0045532 0.019703435 0.0023447336
000130 42 e8 e9 bb 4a c9 28 3b a9 b8 20 3c 0b 92 fa bb
       -0.007138283 0.0025754743 0.009809651 -0.007646804
000140 cd d3 ac 3c 1b 2e 9f bc b8 d6 cd bb 95 2f 99 bb
       0.021097088 -0.019431164 -0.0062817 -0.0046748617
000150 c8 c4 fa bb 0f f5 a3 bb 98 31 ed 3b 5d ff 33 3a
       -0.0076528527 -0.0050035785 0.007238578 0.000686636
000160 47 87 d8 3b b1 f2 00 bc 37 0c 2f bb 0f 04 b5 ba
       0.006607923 -0.007870362 -0.0026710161 -0.0013810414
000170 e8 c5 30 bb 85 af 01 bc be e3 8c bb 01 3e 0c 3b
       -0.002697343 -0.007915382 -0.00429961 0.0021399262
000180 30 6a f6 bb 9f 38 90 3a 6c 19 93 39 32 ae 71 3b
       -0.0075199828 0.0011003203 0.00028056966 0.003687751
000190 1d 6b 3a bb bc d7 a2 3c 60 9a e6 3a 2b 58 55 bc
       -0.0028445192 0.01987826 0.0017593615 -0.013021509
0001a0 37 58 ec 3a 4f ba 5f bc 9a a3 f9 bb f3 b3 ad bb
       0.0018031661 -0.013655259 -0.00761838 -0.0053009926
0001b0 a0 de a4 b9 1f 07 2b bc 9a 5b 0c 3c a0 89 e6 3a
       -0.00031446386 -0.0104387095 0.008566761 0.0017588623
0001c0 3b 1d 88 3b 52 87 c0 3b 87 d6 69 bc aa c1 b7 38
       0.004153875 0.0058755064 -0.014272339 8.762193e-05
0001d0 a5 41 ce bc d1 c0 29 3b 76 7c a9 bb 6a 0d 8d bc
       -0.025177786 0.002590228 -0.0051723076 -0.01721831
0001e0 5a f9 0b 3a 7d e7 e8 3b 60 67 5b 3c 9f 6e b6 3b
       0.00053395855 0.0071076737 0.013391346 0.0055673863
0001f0 bf e0 5a 3b 9b a7 63 3c 67 38 e0 3b 42 77 64 3c
       0.003339812 0.013894941 0.006842661 0.013944449
000200 28 ef 49 bc 76 80 3e b9 58 48 4b b9 5b 63 19 3c
       -0.012325086 -0.00018167667 -0.00019386539 0.009362067
000210 50 9c 26 3b 77 50 2b bc 79 00 35 3c 6f ca e5 3b
       0.002542276 -0.010456196 0.011047476 0.0070126574
000220 87 a5 08 3c 3b b5 33 bc 35 37 ac 3b 53 ad 1f 3c
       0.008340246 -0.010968502 0.0052556046 0.009745914
000230 e8 e6 89 bc e2 b6 50 3b 0d a1 57 ba a7 17 2c bc
       -0.016833737 0.0031847288 -0.00082255976 -0.010503686
000240 eb 2b c5 ba 7f 03 68 b9 3f ea 3b 3c 7f 57 bb 3a
       -0.0015042996 -0.00022126547 0.011469423 0.0014293044
000250 9d fa f1 3a 9b 7d 34 3b 55 dd a1 3b 22 00 4d bb
       0.0018461529 0.0027540687 0.004939715 -0.0031280597
000260 c8 3f 05 bc 63 90 ed bb 60 73 74 bc 30 70 ec 3b
       -0.008132882 -0.0072498783 -0.014920086 0.007215522
000270 37 ba 98 3b ee c4 92 bb a2 18 01 3c 33 7f f8 3b
       0.0046608704 -0.0044790423 0.007879408 0.0075835227
000280 10 b1 15 3b d5 6b 51 bb fb 4b 8c b9 02 68 db bb
       0.0022841133 -0.0031955142 -0.0002675949 -0.0066957483
000290 21 25 85 bc cd 0a 21 bb 53 f4 d9 bb 0b a0 0e 3c
       -0.016253056 -0.0024573088 -0.00665144 0.008705149
0002a0 d7 6b 0f bc 15 ab 70 ba 86 66 10 bb f2 95 4e bc
       -0.008753738 -0.00091807666 -0.0022033765 -0.012608992
0002b0 ad 30 20 bc d7 0d f6 3b 88 0a d0 bb 2c 65 2c 3b
       -0.00977723 0.007508974 -0.0063489117 0.002630542
0002c0 50 11 56 bc bb c8 13 bc 11 8a aa 3b b3 e0 1b 3b
       -0.013065651 -0.009020026 0.005204447 0.0023785054
0002d0 b2 6a 99 bb b8 7c 13 bb c8 4f 0a 3c a3 5a 0c 38
       -0.0046819085 -0.0022504758 0.008441873 3.3463013e-05
0002e0 20 57 39 bc 20 df 87 bb 99 5d 05 3c 56 db c2 bb
       -0.011312276 -0.0041464716 0.008139991 -0.005946557
0002f0 6d cf d9 3b e8 3b 1a bb ad 0d ad 3b 90 dc 93 bc
       0.0066470415 -0.0023534242 0.0052811713 -0.018049508
000300 db 4a 74 bc 4a 57 4d bc 0b 6f 24 bc 2b 7d 48 bc
       -0.014910425 -0.012533018 -0.01003624 -0.012236874
000310 08 ea a3 3c 86 4f 85 bb 77 8b 23 3c ff 8b 56 3b
       0.020009056 -0.004068318 0.0099819815 0.0032737253
000320 83 08 a4 bb b9 bf 9f bc 9c 65 2b 3c ab 43 81 3b
       -0.0050058975 -0.0195006 0.010461237 0.003944834
000330 6d 3e 42 bc 9c 66 2e 3c cb 75 c4 3b af c2 95 bb
       -0.011855704 0.010644581 0.0059954873 -0.0045703272
000340 07 6f 6f 3c 1d f6 84 bb d2 1f 61 bb c1 6a 13 bc
       0.014613873 -0.0040576593 -0.0034351242 -0.00899762
000350 33 7a 83 3b 0b f1 da bb 8f 0e 9c bc 2e 12 a4 bb
       0.00401237 -0.0066815666 -0.01904991 -0.00500705
000360 c8 b8 15 bc 6e 26 b4 3b 4a 83 be bb 97 88 ed bb
       -0.009138294 0.0054977452 -0.0058139907 -0.007248949
000370 ef 4b 81 3b 1b 2f b6 3a ea f4 e0 3b df fe 8f bb
       0.0039458196 0.0013899537 0.0068651335 -0.0043943967
000380 73 8d 4f bb 93 3a d7 3b d7 54 53 bc 4a 58 3d bb
       -0.0031670004 0.006568262 -0.012898645 -0.0028891736
000390 32 2f f3 ba 41 c2 c6 39 82 0d da 3b 75 2a 08 3a
       -0.0018553494 0.00037910233 0.0066544423 0.0005194315
0003a0 37 f5 b5 3b 9c 45 8f bc 60 68 93 bc a7 de 80 bb
       0.0055529135 -0.017489247 -0.017994106 -0.003932792
0003b0 bf ac b7 bb 05 50 7a 3b 04 f6 46 3c f0 56 f6 3b
       -0.0056053097 0.0038194668 0.012143616 0.007517688
0003c0 1e 03 49 3b 3b 09 24 bc 2f 31 0e 3c e7 25 38 ba
       0.0030672024 -0.010011966 0.0086787185 -0.0007024691
0003d0 64 c3 87 3b 6e e8 be bb e0 59 36 3a b7 46 ec 3a
       0.0041431654 -0.0058260476 0.00069561414 0.0018026446
0003e0 18 b8 79 3a d7 74 9f 3c d7 69 e8 3a d4 89 a6 bb
       0.00095260283 0.019464893 0.0017731738 -0.0050823484
0003f0 35 19 bb bb 74 25 2f bc b7 97 c1 3b ce 04 a4 bb
       -0.005709792 -0.010690082 0.0059079784 -0.0050054556

action_model._discrete_distribution.branches.14.bias f4 [5]
000000 00 00 00 00 00 00 00 00 00 00 00 00 00 00 00 00
       0.0 0.0 0.0 0.0
000010 00 00 00 00
       0.0
