results/ppo/BadChessPlayer/BadChessPlayer-1309.onnx (onnx, 126206 bytes, 14 tensors)

action_model._discrete_distribution.branches.0.bias f4 [9]
0.0 0.0 0.0 0.0 0.0 0.0 0.0 0.0
0.0
00000000: 0000 0000 0000 0000 0000 0000 0000 0000
00000010: 0000 0000 0000 0000 0000 0000 0000 0000
00000020: 0000 0000

action_model._discrete_distribution.branches.0.weight f4 [9, 128]
0.0055949953 0.0063599185 0.007866511 0.0012448065 -0.002124761 -0.0025484783 0.006589327 0.006699379
0.014279661 0.0010332599 0.0049774228 -0.0032044419 0.003640246 -0.017025651 0.012035566 0.0035277586
-0.009575951 -0.014520978 0.0011422456 -0.005571773 0.016238254 -0.007726212 0.0018918026 -0.008891243
-0.015403514 -0.0017039723 -0.010601819 0.012135163 -0.012463997 0.006106036 -0.0129858805 0.008663024
0.012007674 0.010080325 0.007567783 -0.009733418 0.007892419 0.010196968 -0.019339088 -0.016917115
0.003971948 0.007797728 0.0017327898 0.014090165 0.0010105355 0.0010666394 -0.007035553 0.00013756719
0.0052549965 0.00196785 0.001600868 0.016419975 -0.012810133 0.011915998 0.012480052 -0.003946878
-0.012783448 0.010621533 0.010668981 -0.01191385 0.012457575 0.018199839 -0.00020999699 0.0143552525
-0.014336719 -0.008080905 0.0072953864 -0.012227695 -0.0012772563 0.00457438 0.0022731677 0.0044366927
-0.0005653707 -0.0037567762 -0.0017143934 0.00050905807 -0.01950388 -0.0017435661 0.010002908 0.00046980093
-0.0041048373 -0.0033002072 0.0017966826 -0.0031472717 -0.018566664 -0.0077170855 -0.0066445046 -0.0034612946
-0.0009563579 0.0026669677 -0.013021665 0.008204782 -0.0064024418 -0.0083183665 -0.0018599998 -0.00556556
-0.0018981816 -0.005641435 0.0131494915 0.012087799 0.00596868 0.0026050808 -0.0070275674 -0.006099238
0.004629303 -0.0047058095 0.01738863 -0.0039948258 -0.012847415 -0.0010640292 0.011740797 -0.020081162
-0.002533285 0.008298071 -0.01601781 -0.0062255114 -0.009943952 -0.009429476 0.003191419 0.0009679488
-0.0010608127 -0.010377725 -0.0007639676 -0.021567035 -0.00069602235 -0.0068446742 0.0023611595 0.013565137
-0.0003935523 -0.0027251418 -0.0019428792 0.009698782 0.0044017383 -0.0071045244 -0.008385968 -0.010544777
0.018884566 -0.0027374795 -0.011706906 -0.002213488 -0.014004308 -0.0034155746 0.0069719637 0.0024737653
0.0043617464 0.013520247 0.023578204 -0.01505871 0.0055181286 -0.008864665 0.002312716 -0.0009213456
0.007988448 -0.0005183739 -0.025611997 -0.0069780904 -0.0038071647 0.0040293816 -0.0063827108 -0.0045642005
-0.0068902518 0.0021051923 -0.008031073 0.002820444 -0.0023477224 -0.016695745 -0.0041594054 0.0040492765
-0.0060250023 0.0017344712 0.00072284596 0.002532199 -0.0076721907 -0.00088516204 -0.0013654523 -0.0055941553
-0.011289235 -0.03260928 -0.008618723 0.005114588 0.00499234 0.008004166 0.0018051891 0.0063435896
0.00019165134 0.0015258911 -0.012090909 -0.00725802 0.020912228 -0.009551978 -0.0055413824 0.0056274547
0.007408481 -0.015456013 0.008076461 0.016024312 -0.011664408 -0.011174289 0.013173222 0.0042705857
0.00954105 -0.0045434916 0.0060951128 0.0029941308 0.005585139 -0.0032747162 0.0046602865 0.0076498957
0.014401801 -0.012870341 0.009838348 0.023284411 -0.0064149904 0.007362563 -0.009149395 0.0025019723
-0.016288659 0.0014433707 -0.0056346427 -0.006893319 -0.0020036506 0.012561196 -0.0035037657 -0.012583056
0.014140393 -0.003994587 0.009125578 -0.01067204 0.010551497 0.01674621 0.00063686015 -0.0066556297
-0.010701514 -0.004769675 -0.0036729095 0.008459642 0.0054704924 0.0023656213 -0.012555142 -0.00078815845
0.004114496 0.0007177693 -0.005419745 -0.007256695 -0.002296904 0.0050113453 0.009557071 0.009811009
-0.0139276935 0.0068397257 -0.003418925 -0.0030350862 -0.0013711648 -0.004504379 0.015084865 0.002748329
00000000: 3956 b73b dd66 d03b 8ae2 003c c628 a33a
00000010: 933f 0bbb 5f04 27bb 48eb d73b 7786 db3b
00000020: 3df5 693c 736e 873a a619 a33b 9d01 52bb
00000030: 3291 6e3b 6179 8bbc d330 453c f831 673b
00000040: 73e4 1cbc 65e9 6dbc 67b7 953a 6b93 b6bb
00000050: 1606 853c 2a2c fdbb 5df6 f73a 93ac 11bc
00000060: 055f 7cbc d357 dfba 40b3 2dbc 90d2 463c
00000070: cb35 4cbc 2415 c83b bbc2 54bc 5bef 0d3c
00000080: d6bb 443c f327 253c 2afb f73b ea78 1fbc
00000090: 344f 013c 2f11 273c 026d 9ebc c395 8abc
000000a0: 1d27 823b 1584 ff3b c71e e33a 6fda 663c
000000b0: f273 843a 7bce 8b3a 7f8a e6bb e93f 1039
000000c0: 1b32 ac3b 0bf7 003b 37d4 d13a 2f83 863c
000000d0: 98e1 51bc 513b 433c 2279 4c3c d054 81bb
000000e0: ab71 51bc f005 2e3c f3cc 2e3c 4f32 43bc
000000f0: db1a 4c3c d417 953c a332 5cb9 4b32 6b3c
00000100: 8fe4 6abc c665 04bc 230e ef3b ac56 48bc
00000110: 9c69 a7ba aee4 953b 6df9 143b ad61 913b
00000120: 6335 14ba 3f34 76bb 7fb5 e0ba 4f72 053a
00000130: 9ac6 9fbc 5f88 e4ba 3de3 233c 9d4f f639
00000140: df81 86bb 4a48 58bb aa7e eb3a 7542 4ebb
00000150: 1e19 98bc 9bdf fcbb 25ba d9bb e3d6 62bb
00000160: 18b4 7aba 4bc8 2e3b d258 55bc 5a6d 063c
00000170: 93cb d1bb c249 08bc 3dcb f3ba 4d5f b6bb
00000180: 68cc f8ba c9db b8bb f770 573c e70b 463c
00000190: eb94 c33b 01ba 2a3b 8247 e6bb 1edc c7bb
000001a0: 68b1 973b 3133 9abb 9a72 8e3c 07e7 82bb
000001b0: f77d 52bc e576 8bba 795c 403c 4081 a4bc
000001c0: 7805 26bb a2f4 073c c837 83bc 60ff cbbb
000001d0: f5eb 22bc 177e 1abc 2027 513b f2bd 7d3a
000001e0: f80a 8bba 5507 2abc ff44 48ba 5aad b0bc
000001f0: 4575 36ba 4a49 e0bb afbd 1a3b 4f40 5e3c
00000200: b255 ceb9 4b98 32bb 35a8 feba a4e7 1e3c
00000210: 753c 903b 12cd e8bb 4d65 09bc 00c4 2cbc
00000220: ceb3 9a3c 4967 33bb 53ce 3fbc 2b10 11bb
00000230: 5372 65bc d5d7 5fbb 1275 e43b e51e 223b
00000240: fbec 8e3b 0784 5d3c 1427 c13c cfb8 76bc
00000250: 6bd1 b43b 1a3d 11bc f090 173b 7586 71ba
00000260: fbe1 023c 7ce3 07ba 40d0 d1bc 77a8 e4bb
00000270: a081 79bb e708 843b 0f26 d1bb 4a8f 95bb
00000280: 9fc7 e1bb 44f7 093b c394 03bc 33d7 383b
00000290: 3fdc 19bb 84c5 88bc 9f4b 88bb cbaf 843b
000002a0: 626d c5bb 3257 e33a 5f7d 3d3a 40f3 253b
000002b0: 0067 fbbb 380a 68ba faf8 b2ba 2d4f b7bb
000002c0: 7cf6 38bc 4f91 05bd 8b35 0dbc 4698 a73b
000002d0: c996 a33b e823 033c 189c ec3a e3dd cf3b
000002e0: 04f6 4839 6900 c83a f318 46bc afd4 edbb
000002f0: 1f50 ab3c e67f 1cbc 7c94 b5bb 8366 b83b
00000300: d8c2 f23b 383b 7dbc 2253 043c 6b45 833c
00000310: 131c 3fbc 5d14 37bc 7fd4 573c 45f0 8b3b
00000320: 1052 1c3c 92e1 94bb 83b9 c73b 2e39 443b
00000330: 8b03 b73b 9f9c 56bb 51b5 983b faab fa3b
00000340: 88f5 6b3c 1fde 52bc 0631 213c f3be be3c
00000350: d734 d2bb a841 f13b 58e7 15bc 21f8 233b
00000360: cb6f 85bc 7c2f bd3a cfa2 b8bb 5ae1 e1bb
00000370: ae4f 03bb 7acd 4d3c 6f9f 65bb 2a29 4ebc
00000380: 1bad 673c 06e5 82bb 7383 153c c8d9 2ebc
00000390: 30e0 2c3c 592f 893c f6f2 263a 7817 dabb
000003a0: 6755 2fbc ef4a 9cbb 32b5 70bb 4f9a 0a3c
000003b0: d141 b33b 8a08 1b3b 15b4 4dbc 6b9c 4eba
000003c0: e5d2 863b af28 3c3a 1e98 b1bb 92c9 edbb
000003d0: a887 16bb 3636 a43b 4395 1c3c 5bbe 203c
000003e0: fb30 64bc c71f e03b 0b10 60bb 4ce8 46bb
000003f0: a8b8 b3ba 7899 93bb 8226 773c 4f1d 343b

action_model._discrete_distribution.branches.1.bias f4 [29]
0.0 0.0 0.0 0.0 0.0 0.0 0.0 0.0
0.0 0.0 0.0 0.0 0.0 0.0 0.0 0.0
0.0 0.0 0.0 0.0 0.0 0.0 0.0 0.0
0.0 0.0 0.0 0.0 0.0
00000000: 0000 0000 0000 0000 0000 0000 0000 0000
00000010: 0000 0000 0000 0000 0000 0000 0000 0000
00000020: 0000 0000 0000 0000 0000 0000 0000 0000
00000030: 0000 0000 0000 0000 0000 0000 0000 0000
00000040: 0000 0000 0000 0000 0000 0000 0000 0000
00000050: 0000 0000 0000 0000 0000 0000 0000 0000
00000060: 0000 0000 0000 0000 0000 0000 0000 0000
00000070: 0000 0000

action_model._discrete_distribution.branches.1.weight f4 [29, 128]
-0.0025293648 -0.0011907012 -0.0043545268 -0.00638697 0.0059850533 0.0053524557 0.01181719 -0.013303868
0.0080817295 -0.0070100883 0.01019848 -0.012085392 -0.015113543 0.0043534953 0.016368754 -0.018820878
0.014181365 0.011720103 -0.0063188495 0.0044543026 -0.006328968 -0.0028227915 -0.0021311638 0.00034593532
-0.0017081712 -0.012521756 -8.7302054e-05 -0.0074910806 -0.028085658 -0.0077171563 0.0008485651 0.0040974244
-0.013426584 0.0018640052 -0.00080202194 -0.022048365 0.0012108062 -0.004751849 0.0028726293 -0.005628819
-0.0122320615 0.002190449 -0.007939468 0.0041087377 -0.016146503 0.0057402807 -0.018928317 0.017836142
-0.0078592785 0.008862237 -0.0019852538 0.00087949645 0.019190777 -0.008227839 -0.010270183 -0.004316915
0.01596219 0.0017292338 0.0033709758 -0.0047547277 0.001694939 -0.02227851 0.0044162744 -0.0049165203
-0.006912615 0.0030410222 -0.019810198 -0.0010380812 -0.0032224238 -0.011098809 0.0038741732 0.00154973
0.008881997 -0.013442039 -0.00080975407 -0.009823566 -0.0059266197 -0.0076715522 0.00359011 -0.016000358
0.024178924 -0.0029683828 0.004243934 0.013354728 0.004406924 0.002735067 0.0008068899 0.005021019
0.010716795 0.0026095419 -0.0046355794 0.016447738 0.00909925 -0.0027541963 -0.002160522 0.0069422326
-0.013214908 -0.0073052286 -0.010238763 0.012961554 -0.005480194 0.0008443175 -0.01227316 0.004504741
0.00270427 0.013312198 -0.016966749 -0.0026942191 -0.0074147023 -0.00021051875 0.003748479 0.006114214
-0.0017607186 0.0020981005 0.0029528812 0.03406256 0.0020465644 0.0041704136 0.005181489 -0.0040690415
0.018137764 -0.004653714 0.015215141 -0.005857201 -0.0038541544 0.0026781491 -0.0018842694 -0.0006721173
0.00074423 -0.0025773998 -0.0096940305 -0.0060701664 -0.0057431036 -0.02166186 0.006065783 -0.01205032
-0.0001737586 -0.015091384 0.012272523 -0.010033321 -0.0014485974 0.007670457 -0.0067150975 0.008195824
0.005204579 -0.008916933 -0.004504404 -0.011273851 0.0041880757 -0.009015532 -0.004360477 0.005206909
-0.013116727 0.0029404531 0.004057813 0.010743462 0.0029923264 0.004569068 0.0029865806 0.0016296143
0.0038780726 0.00630545 0.015113338 0.006563241 -0.0021994323 0.019066399 -0.010838679 0.010776164
-0.007281928 -0.0034021393 -0.012061638 0.008452405 -0.003983635 -0.009940064 0.0002739377 -0.016286878
0.0060161958 0.009939085 0.004089051 0.010423513 0.0009045436 -0.013025313 -0.015375877 -0.0041771024
-0.004760992 -0.0077813016 -0.0048084036 -0.006544538 0.004045349 0.019196838 0.0063772365 -0.008209098
0.011436085 0.0019984285 -0.0030425938 0.0010984442 0.00661418 -0.009901639 -0.004202546 -0.010700467
0.0013394601 -0.0015159278 -0.0060889944 0.013195959 0.014615792 -0.029779533 -0.0014585619 0.0005652017
-0.0038975633 -0.007989722 -0.0026681002 -0.0072341496 0.008760341 -0.0025412643 0.009798962 -0.0026467992
-0.009630179 0.015603863 0.011695835 -0.0039207633 0.010510962 0.011689263 -0.0031203937 0.0015580674
-0.0051504406 0.0026019372 -0.0009637307 0.0121877445 0.005011716 -0.0077004503 -0.011062446 -0.0043591037
0.010901975 0.0026910258 0.018687956 0.00035984282 0.0152183315 0.01356329 -0.0057245614 0.01086791
-0.009092676 0.002056319 0.0073291915 -0.028469345 0.0031236063 -0.00959679 -0.0099916 0.010588254
0.0012885612 -0.0019864193 0.0021110848 0.0056339446 0.0030262212 0.004068158 0.016685445 -0.008648635
00000000: b3c3 25bb 4d11 9cba 6bb0 8ebb ca49 d1bb
00000010: 441e c43b a763 af3b e39c 413c 77f8 59bc
00000020: 3b69 043c e2b4 e5bb 8717 273c cf01 46bc
00000030: cb9e 77bc c4a7 8e3b c417 863c 3e2e 9abc
00000040: f558 683c ad05 403c 5a0e cfbb 66f5 913b
00000050: 3b63 cfbb 95fe 38bb ffaa 0bbb a75e b539
00000060: b7e4 dfba 0d28 4dbc ef15 b7b8 bd77 f5bb
00000070: e513 e6bc 33e0 fcbb 3d72 5e3a b043 863b
00000080: 2dfb 5bbc a351 f43a c83e 52ba c69e b4bc
00000090: eab3 9e3a 66b5 9bbb b942 3c3b f571 b8bb
000000a0: fc68 48bc a38d 0f3b 8b14 02bc 97a2 863b
000000b0: ac45 84bc f718 bc3b 8f0f 9bbc 1a1d 923c
000000c0: 34c4 00bc eb32 113c 081b 02bb 028e 663a
000000d0: fa35 9d3c 0fce 06bc 4544 28bc e874 8dbb
000000e0: 24c3 823c 75a7 e23a 97eb 5c3b 8ccd 9bbb
000000f0: b728 de3a 6c81 b6bc 65b6 903b c31a a1bb
00000100: 3883 e2bb e34b 473b ff48 a2bc 3a10 88ba
00000110: 4d2f 53bb c7d7 35bc d7e5 7d3b 4f20 cb3a
00000120: cc85 113c ff3b 5cbc ad45 54ba 06f3 20bc
00000130: 1734 c2bb a561 fbbb 0d48 6b3b 2f13 83bc
00000140: e112 c63c 3389 42bb b310 8b3b cacd 5a3c
00000150: f567 903b cf3e 333b 7785 533a 5c87 a43b
00000160: 7f95 2f3c d904 2b3b 0fe6 97bb 68bd 863c
00000170: 0515 153c bf7f 34bb 8b97 0dbb ab7b e33b
00000180: 5783 58bc b360 efbb 7cc0 27bc b35c 543c
00000190: 3393 b3bb 3055 5d3a 5d15 49bc 829c 933b
000001a0: 1f3a 313b 681b 5a3c dafd 8abc 7f91 30bb
000001b0: 08f7 f2bb b2be 5cb9 0ba9 753b bf59 c83b
000001c0: eac7 e6ba 4980 093b 2085 413b 2f85 0b3d
000001d0: a71f 063b f7a7 883b 7bc9 a93b 9855 85bb
000001e0: a695 943c 2f7e 98bb ed48 793c c3ed bfbb
000001f0: fb95 7cbb e383 2f3b 97f9 f6ba 0731 30ba
00000200: 6e18 433a 98e9 28bb b6d3 1ebc 3fe8 c6bb
00000210: a530 bcbb 3774 b1bc 7ac3 c63b b56e 45bc
00000220: f832 36b9 da41 77bc b112 493c cc62 24bc
00000230: ddde bdba 7558 fb3b 520a dcbb c747 063c
00000240: 2c8b aa3b 5418 12bc ae99 93bb f5b5 38bc
00000250: 203c 893b e2b5 13bc 55e2 8ebb b89e aa3b
00000260: 8ae7 56bc 9eb4 403b 67f7 843b 5805 303c
00000270: e81a 443b 1fb8 953b 82ba 433b c898 d53a
00000280: 4327 7e3b f39d ce3b ef9d 773c 7510 d73b
00000290: 5a24 10bb 2331 9c3c b794 31bc 828e 303c
000002a0: 3d9d eebb 6df6 5ebb 2d9e 45bc f57b 0a3c
000002b0: 2789 82bb a6db 22bc 4c9f 8f39 0f6c 85bc
000002c0: 8223 c53b 8bd7 223c 72fd 853b 62c7 2a3c
000002d0: e51e 6d3a 1f68 55bc 1aeb 7bbc 13e0 88bb
000002e0: 1802 9cbb 4afa febb d08f 9dbb 9073 d6bb
000002f0: d98e 843b b042 9d3c 23f8 d03b 747f 06bc
00000300: 6b5e 3b3c 11f8 023b 4166 47bb acf9 8f3a
00000310: c3bb d83b 7c3a 22bc 83b5 89bb 0351 2fbc
00000320: d390 af3a 19b2 c6ba 3086 c7bb dd33 583c
00000330: 1377 6f3c 35f4 f3bc 372d bfba 0b2a 143a
00000340: 436e 7fbb 53e7 02bc 4bdb 2ebb 720c edbb
00000350: 8987 0f3c 578b 26bb d38b 203c ec75 2dbb
00000360: e6c7 1dbc 58a7 7f3c e39f 3f3c bf79 80bb
00000370: 2c36 2c3c 5384 3f3c 857f 4cbb 1138 cc3a
00000380: 07c5 a8bb 4385 2a3b dfa2 7cba 1baf 473c
00000390: 5239 a43b 0f54 fcbb 433f 35bc d0d6 8ebb
000003a0: 339e 323c ec5b 303b 7c17 993c 49a9 bc39
000003b0: 4f56 793c 9038 5e3c 1a95 bbbb 520f 323c
000003c0: 73f9 14bc 4fc3 063b b729 f03b 8b38 e9bc
000003d0: 6bb5 4c3b db3b 1dbc cfb3 23bc 5b7a 2d3c
000003e0: f0e4 a83a 962e 02bb 205a 0a3b f49c b83b
000003f0: 9153 463b 2f4e 853b eaaf 883c 01b3 0dbc

action_model._discrete_distribution.branches.2.bias f4 [29]
0.0 0.0 0.0 0.0 0.0 0.0 0.0 0.0
0.0 0.0 0.0 0.0 0.0 0.0 0.0 0.0
0.0 0.0 0.0 0.0 0.0 0.0 0.0 0.0
0.0 0.0 0.0 0.0 0.0
00000000: 0000 0000 0000 0000 0000 0000 0000 0000
00000010: 0000 0000 0000 0000 0000 0000 0000 0000
00000020: 0000 0000 0000 0000 0000 0000 0000 0000
00000030: 0000 0000 0000 0000 0000 0000 0000 0000
00000040: 0000 0000 0000 0000 0000 0000 0000 0000
00000050: 0000 0000 0000 0000 0000 0000 0000 0000
00000060: 0000 0000 0000 0000 0000 0000 0000 0000
00000070: 0000 0000

action_model._discrete_distribution.branches.2.weight f4 [29, 128]
-0.00045331332 -0.01681344 -0.0038405643 -0.015746098 -0.0073827947 -0.011245199 0.0031752072 -0.014716198
0.0011348029 0.0114351 -0.0055023334 -0.0024103904 -0.0009427418 -0.0066453083 0.00670303 0.0069519538
-0.00080884557 0.0019316484 0.002935805 -0.011952502 -0.019302195 0.0023026345 -9.385677e-05 0.0136452485
-0.013450021 0.01186997 0.017910883 -0.016951708 -0.0018052418 -9.6658936e-05 8.5624524e-05 0.006547421
0.002591722 0.014355033 0.0066434997 -0.0012685078 -0.0071682977 -0.006044157 0.017648483 -0.00760063
0.0068867505 -0.003498222 -0.0038279821 -0.013066142 0.012277202 -0.012329572 -0.0014581988 -0.0063181813
-0.0064203218 -0.0052198404 0.01717929 -0.0053301407 -0.007337184 -0.0033989728 0.005951459 -0.0005320285
0.01594909 0.009551283 -0.00084670645 -0.005194563 0.010234765 -0.0045703966 0.0027548012 0.01653841
-0.0048763696 -0.008039587 4.0528113e-05 0.0019337352 0.012230042 0.009544876 0.019836893 -0.0037531697
-0.0034290794 0.0011954857 0.0046833954 -0.006437499 0.0026806586 0.0039994824 -0.0038372863 -0.0048503107
0.0032600847 0.008028574 -0.002760749 0.00023930984 0.015174225 -0.013587564 -0.0043304623 -0.0071502104
0.0018019092 -0.00084487995 0.014103288 -0.005749618 -0.009003875 -0.0068296143 0.006524298 0.004676089
-0.011752478 0.002617352 -0.0059394944 -0.011210461 -0.014492917 0.013663086 0.0069655105 -0.015235904
0.0012477757 -0.0019393221 0.008164356 0.0014030855 -0.014932843 -0.020813134 0.0013622247 -0.004646865
-0.0039181774 0.0027577516 0.0015693117 -0.0066787847 -0.0065107294 0.022914808 -0.009066599 -0.0029366352
0.0054037306 -0.008813697 -0.007516581 0.011276846 0.00979693 -0.0060701356 -0.01046358 0.0041723466
-0.0057998276 -0.0019132942 0.011284153 -0.011985429 0.003935639 -0.0052446793 -0.00069127535 0.0015575471
-0.006197873 -0.0047598844 0.006132699 -0.0047098487 0.0047187703 -0.0046839113 0.018673513 0.004834225
-0.0038284813 -0.012896009 0.016610255 -0.004924082 -0.011872749 -0.0054756408 -0.005460206 0.0011781895
0.009888364 -0.011831466 0.005004795 0.0044344654 0.007572319 0.01803015 -0.00047672656 0.0019017061
-0.00019688814 0.0011461584 0.007036544 -0.00038467764 -0.0048793186 0.011866532 0.0077383677 -0.00055721274
-0.007997001 -0.0034220347 -0.009377657 0.00993153 0.0148977935 0.014416589 0.0039940174 -0.014560202
0.0039330083 -0.007874001 0.0029693206 -0.010501645 -0.0056282966 -0.011861574 -0.011274799 0.018773407
-0.014163169 0.013137643 0.0059645204 -0.0007549047 0.024634434 0.003229654 -0.0003871942 0.026530106
0.0016277457 0.002319737 -0.00017679506 -0.0017915054 -0.0011824883 0.0068746745 -0.014913032 0.008623965
-0.005716399 -0.009124238 -0.010974639 0.004909596 0.004077136 0.005755422 -0.008092525 -0.0023187795
-0.0008794926 -0.00062592345 0.004266586 -0.012671362 0.0026995977 -0.0104424795 0.009231347 -0.008687775
0.0068058777 -0.0017620666 0.005753042 0.003929924 -0.0034855397 0.013276947 0.0015971436 0.007937449
-0.006988898 0.009369756 0.00351583 0.0119743785 0.004836677 0.014791772 0.009008004 0.0077661597
-0.0013961218 -0.001357986 -0.0018669165 0.0006594683 -0.016906017 -0.0033906568 -0.004028348 -0.0048346724
0.00823437 0.0042006997 -0.013032681 -0.00556766 0.0068160617 -0.029201487 -0.0027731978 -0.005786491
0.0035891533 0.007678456 0.0028257961 0.0008197715 0.0055675996 -0.010416471 0.0092454925 0.0049347547
00000000: afaa edb9 57bc 89bc fab1 7bbb f6fd 80bc
00000010: 5feb f1bb c83d 38bc 2317 503b 351c 71bc
00000020: abbd 943a 495a 3b3c eb4c b4bb a4f7 1dbb
00000030: 5522 77ba e3c0 d9bb 17a5 db3b 37cd e33b
00000040: b508 54ba 5d2f fd3a a266 403b 6dd4 43bc
00000050: a31f 9ebc cce7 163b f8d4 c4b8 5290 5f3c
00000060: 7a5d 5cbc 437a 423c d8b9 923c 4fde 8abc
00000070: dd9d ecba 5fb5 cab8 5191 b338 c08b d63b
00000080: e1d9 293b 5f31 6b3c b7b1 d93b 0f44 a6ba
00000090: 0ae4 eabb 100e c6bb 8d93 903c b50e f9bb
000000a0: 40aa e13b 6d42 65bb e2de 7abb 5f13 56bc
000000b0: 5126 493c f901 4abc 0821 bfba bf08 cfbb
000000c0: 9061 d2bb 320b abbb 95bb 8c3c 76a8 aebb
000000d0: c36c f0bb 4dc1 5ebb 7504 c33b d477 0bba
000000e0: aaa7 823c fc7c 1c3c 82f5 5dba 2737 aabb
000000f0: b7af 273c 44c3 95bb e589 343b 8f7b 873c
00000100: f4c9 9fbb 79b8 03bc bbfc 2938 6375 fd3a
00000110: 8460 483c 1d62 1c3c fb80 a23c bdf7 75bb
00000120: 68ba 60bb d8b1 9c3a 2b77 993b a8f1 d2bb
00000130: fdad 2f3b 170e 833b fb7a 7bbb 5bef 9ebb
00000140: 25a7 553b 488a 033c afed 34bb 3fef 7a39
00000150: 509d 783c 609e 5ebc 8de6 8dbb 504c eabb
00000160: 0a2e ec3a ef7a 5dba 7a11 673c 4b67 bcbb
00000170: fd84 13bc f5ca dfbb c7c9 d53b e139 993b
00000180: 778d 40bc e187 2b3b 17a0 c2bb 15ac 37bc
00000190: b373 6dbc 23db 5f3c f03e e43b 03a0 79bc
000001a0: 688c a33a da30 feba cbc3 053c bde7 b73a
000001b0: e2a8 74bc 4e80 aabc ad8c b23a bb44 98bb
000001c0: 0e64 80bb 65bb 343b 5db1 cd3a b5d9 dabb
000001d0: f557 d5bb d6b7 bb3c 138c 14bc 9074 40bb
000001e0: c711 b13b 5367 10bc a74d f6bb 85c2 383c
000001f0: 4d83 203c fde7 c6bb 6f6f 2bbc 2eb8 883b
00000200: 7b0c bebb 80c7 faba 2be1 383c 885e 44bc
00000210: 88f6 803b 8fdb abbb b436 35ba 9c26 cc3a
00000220: 8717 cbbb cef8 9bbb cff4 c83b 1355 9abb
00000230: ea9f 9a3b 7f7b 99bb 32f9 983c 6b68 9e3b
00000240: 42e7 7abb c849 53bc 3b12 883c 325a a1bb
00000250: eb85 42bc 016d b3bb 87eb b2bb 7b6d 9a3a
00000260: ce02 223c c4d8 41bc 43ff a33b fe4e 913b
00000270: 3721 f83b f7b3 933c 28f1 f9b9 ab42 f93a
00000280: c273 4eb9 b23a 963a cf92 e63b 8fae c9b9
00000290: b1e2 9fbb d86b 423c 2292 fd3b ea11 12ba
000002a0: da05 03bc 3744 60bb bfa4 19bc dbb7 223c
000002b0: e015 743c 8f33 6c3c 3fe0 823b ea8d 6ebc
000002c0: 77e0 803b f401 01bc ef98 423b 170f 2cbc
000002d0: 936d b8bb 0c57 42bc efb9 38bc b0ca 993c
000002e0: a30c 68bc 453f 573c 0672 c33b cce4 45ba
000002f0: 27ce c93c 9aa8 533b 5300 cbb9 aa55 d93c
00000300: 155a d53a bb06 183b 1062 39b9 f2d0 eaba
00000310: b9fd 9aba f344 e13b ca55 74bc 884b 0d3c
00000320: a150 bbbb d47d 15bc f9ce 33bc ade0 a03b
00000330: 7f99 853b fb97 bc3b 8396 04bc aaf6 17bb
00000340: c08d 66ba 0315 24ba b8ce 8b3b 8b9b 4fbc
00000350: bceb 303b ef16 2bbc 133f 173c 2b57 0ebc
00000360: d703 df3b 25f5 e6ba 0484 bc3b 98c6 803b
00000370: a76d 64bb 8d87 593c 3f57 d13a 130c 023c
00000380: 2003 e5bb 9b83 193c d769 663b 2f30 443c
00000390: fd7c 9e3b 3059 723c 4f96 133c 457b fe3b
000003a0: 13fe b6ba 73fe b1ba 53b3 f4ba 2be0 2c3a
000003b0: 7d7e 8abc c835 5ebb 3b00 84bb 2c6c 9ebb
000003c0: 73e9 063c 06a6 893b 0787 55bc eb70 b6bb
000003d0: 4559 df3b f537 efbc 8abe 35bb 9b9c bdbb
000003e0: 0038 6b3b 8f9b fb3b fe30 393b efe5 563a
000003f0: 6970 b63b d9a9 2abc 687a 173c b9b3 a13b

action_model._discrete_distribution.branches.3.bias f4 [9]
0.0 0.0 0.0 0.0 0.0 0.0 0.0 0.0
0.0
00000000: 0000 0000 0000 0000 0000 0000 0000 0000
00000010: 0000 0000 0000 0000 0000 0000 0000 0000
00000020: 0000 0000

action_model._discrete_distribution.branches.3.weight f4 [9, 128]
0.0041277204 0.0121749 0.007905952 0.0030834712 -0.0032058873 -0.00013053887 -0.003868657 -0.01608613
-0.009015919 -0.014858938 -0.009885574 0.0035070584 -0.003650574 0.0074039334 0.0053074816 -0.018514128
-0.0054940404 0.00207003 0.0091935145 0.005443546 -0.007869424 0.0017075259 -0.013163595 -0.0059551173
-0.007629408 -0.0048396504 -0.0029575974 0.0059556854 0.014232191 -0.010786349 -0.007494858 -0.01913328
0.003510081 0.0007522888 0.008611476 -0.0045034974 0.0044521275 -0.007424404 -0.006104752 0.0017520868
0.00062573695 0.00018244433 0.0030571518 0.0007493259 0.006559351 0.011532668 0.0033052512 -0.008921373
-0.003044368 0.010214274 -0.006529697 -0.015964705 -0.0022113963 0.0034143303 0.009779701 0.0017266391
0.0030907737 0.00649499 -0.006961318 -0.005523284 -0.01185483 0.012387948 -0.012463492 0.0032050447
-0.000115058654 0.010103469 0.0047839154 -0.0132812485 -0.0017584419 -7.1237955e-05 -0.008564923 0.002161936
-0.019232674 0.0055886437 0.008651521 0.016083825 -0.0072033466 0.00064622675 -0.0023657351 0.00046602535
0.008975449 -0.0077566216 3.5737125e-05 -0.0003458764 0.0010237204 -0.0026302692 0.0060989293 0.011586904
0.005871214 -0.004364373 0.0046432246 0.011783811 -0.0005378653 -0.009337439 0.0032201093 -0.0073896046
0.00097189844 -0.0103528565 -0.021658838 -0.002715363 0.0097425375 -0.010424571 0.006553169 0.011832257
-0.0019437935 0.0027126567 0.004398936 0.0030828211 -0.0029002842 0.012244521 -0.0038668711 0.0059709055
-0.012386844 0.009317322 0.012614861 -0.0016231046 0.016844157 0.00043959587 -0.0064802873 -0.000253999
-0.005580198 0.0133710755 -0.00030044938 -0.008162946 0.0042955354 -0.009578922 0.003992874 0.008947013
0.009544313 0.008690516 -0.024155444 -0.003691079 -0.0027286725 -0.0077426396 -0.003305643 0.011604928
0.0024656581 -0.0035523244 -0.012284603 0.0018459968 0.00014391202 -0.0006771334 -0.003397674 -0.005250589
0.011513618 -0.0039090565 -0.007166105 -0.014311199 0.014037524 0.009795289 -0.00486928 -0.0035362807
0.006369167 0.0009677698 -0.0066004493 0.018581081 -0.0012944444 0.0033544363 0.0033859152 -0.001837754
-0.010220747 -0.012278947 0.0017886175 -0.009866097 0.0052167117 0.0055435244 -0.00088921154 -0.0012471171
0.015047594 0.0119092595 0.0029016554 -0.010876105 -0.019059045 0.011415052 0.002543642 0.0064683952
0.0034574026 0.020972226 0.01626925 -0.004163221 -0.00617539 0.0015226718 0.0043796166 -0.018288141
0.0036460266 -0.004784941 -4.0585954e-05 -0.0016074777 0.003348707 0.0048086257 -4.6362646e-05 -0.011525166
-0.0008035035 0.012232771 -0.010246348 -0.0009460789 -0.015314604 0.0080055995 0.0051447353 -0.015413408
-0.010497737 -0.0019699184 -0.0232205 -0.0010953955 -0.0075673694 0.012309867 -0.0068335817 0.0021338458
0.008982571 -0.01547457 -0.019160952 -0.00656436 -0.004401447 0.012143414 -0.017507631 -0.0056538363
-0.002890648 -0.0059567033 0.011687308 0.0016234657 0.0059555355 0.0077414657 -0.0097795585 0.0019322162
-0.0021439402 0.0028083816 0.0024042847 0.0012961577 0.0041416977 0.0016040774 -0.005022125 0.004665329
-0.011507487 0.0049758083 -0.026094705 0.0043504825 0.00043174374 0.0118191065 -0.0026350573 -0.0020177404
-0.0022725777 0.007524868 0.004936272 -0.012409851 0.007398221 -0.0034318746 -0.0035168638 0.004146026
0.01459756 -0.008543179 -0.011218843 -0.0064102644 -0.0036760417 -0.004540163 0.002541 -0.0009244652
00000000: d441 873b 3b79 473c f787 013c 1014 4a3b
00000010: dd19 52bb 43e1 08b9 4b89 7dbb 0fc7 83bc
00000020: 81b7 13bc e772 73bc 1af7 21bc add6 653b
00000030: 783e 6fbb b29c f23b 62ea ad3b f1aa 97bc
00000040: 5a07 b4bb 57a9 073b 65a0 163c c65f b23b
00000050: c2ee 00bc 10cf df3a 1fac 57bc 2523 c3bb
00000060: 1d00 fabb ee95 9ebb 40d4 41bb e927 c33b
00000070: 232e 693c 3ab9 30bc 6d97 f5bb 65bd 9cbc
00000080: 6309 663b 3f35 453a 2617 0d3c 1392 93bb
00000090: 27e3 913b 6a48 f3bb 5f0a c8bb 47a6 e53a
000000a0: 7f08 243a 874e 3f39 7f5a 483b 696e 443a
000000b0: d3ef d63b 84f3 3c3c ea9c 583b f32a 12bc
000000c0: 0584 47bb c559 273c 12f7 d5bb 6ac8 82bc
000000d0: 13ed 10bb f5c2 5f3b 0a3b 203c 6550 e23a
000000e0: 948e 4a3b edd3 d43b c51b e4bb aafc b4bb
000000f0: c33a 42bc d2f6 4a3c ad33 4cbc ba0b 523b
00000100: a54b f1b8 0589 253c 64c2 9c3b 9899 59bc
00000110: 857b e6ba 9665 95b8 e453 0cbc 44af 0d3b
00000120: d78d 9dbc f120 b73b 1cbf 0d3c 3ac2 833c
00000130: 0d0a ecbb 8b67 293a 730a 1bbb dd54 f439
00000140: c30d 133c 422b febb 72e4 1538 bf56 b5b9
00000150: 5b2e 863a 9860 2cbb 87d9 c73b ffd6 3d3c
00000160: 5063 c03b 0403 8fbb 3126 983b e310 413c
00000170: 87ff 0cba 0ffc 18bc 7808 533b 7f24 f2bb
00000180: 00c7 7e3a 079f 29bc e06d b1bc 3bf4 31bb
00000190: 2a9f 1f3c d2cb 2abc f7bb d63b 15dc 413c
000001a0: e3c6 feba d4c6 313b f324 903b 2809 4a3b
000001b0: b212 3ebb 3e9d 483c 556b 7dbb 96a7 c33b
000001c0: 30f2 4abc aea7 183c 90ae 4e3c 5abe d4ba
000001d0: c2fc 893c 8f79 e639 9758 d4bb 2b2b 85b9
000001e0: 18da b6bb 5b12 5b3c a285 9db9 e1bd 05bc
000001f0: 90c1 8c3b e9f0 1cbc a8d6 823b 7e96 123c
00000200: c05f 1c3c ab62 0e3c a3e1 c5bc 08e6 71bb
00000210: 87d3 32bb f8b5 fdbb 7da3 58bb 9922 3e3c
00000220: e196 213b 1dce 68bb 5c45 49bc 60f5 f13a
00000230: 17e7 1639 a781 31ba 83ab 5ebb 220d acbb
00000240: 9da3 3c3c 8b17 80bb a5d1 eabb 8579 6abc
00000250: a5fd 653c 6b7c 203c 7b8e 9fbb f2c0 67bb
00000260: 72b4 d03b efb1 7d3a 9548 d8bb 5a37 983c
00000270: 59aa a9ba 1ad6 5b3b 3be6 5d3b cbe0 f0ba
00000280: ec74 27bc a32d 49bc 0b70 ea3a 69a5 21bc
00000290: f3f0 aa3b 74a6 b53b fa19 69ba 4e76 a3ba
000002a0: 2f8a 763c 0e1f 433c b329 3e3b b131 32bc
000002b0: b721 9cbc 3306 3b3c 3bb3 263b d5f4 d33b
000002c0: 9795 623b f2cd ab3c 1747 853c a16b 88bb
000002d0: ed5a cabb 6394 c73a e382 8f3b 03d1 95bc
000002e0: 2df2 6e3b ffca 9cbb d63a 2ab8 00b2 d2ba
000002f0: fb75 5b3b ad91 9d3b 8375 42b8 0dd4 3cbc
00000300: 35a2 52ba f66b 483c 4ce0 27bc 4802 78ba
00000310: 1bea 7abc eb29 033c 2b95 a83b 8588 7cbc
00000320: b3fe 2bbc bf19 01bb eb38 bebc 6093 8fba
00000330: b2f7 f7bb 53af 493c 3dec dfbb fed7 0b3b
00000340: a22b 133c 0d89 7dbc 6ef7 9cbc d819 d7bb
00000350: 033a 90bb 2bf5 463c 2a6c 8fbc d143 b9bb
00000360: 0771 3dbb 7330 c3bb 1f7c 3f3c 78ca d43a
00000370: a726 c33b 1fac fd3b 713a 20bc 6b42 fd3a
00000380: 5981 0cbb d30c 383b 3491 1d3b d6e3 a93a
00000390: 14b7 873b e83f d23a a390 a4bb 9edf 983b
000003a0: e689 3cbc 1b0c a33b 90c4 d5bc 7e8e 8e3b
000003b0: aa5b e239 eda4 413c edb0 2cbb 113c 04bb
000003c0: 87ef 14bb 2b93 f63b 73c0 a13b b052 4bbc
000003d0: c76c f23b 4de9 60bb 2f7b 66bb 63db 873b
000003e0: 9b2a 6f3c b1f8 0bbc 3dcf 37bc 320d d2bb
000003f0: bfe9 70bb a6c5 94bb e886 263b cf57 72ba

action_model._discrete_distribution.branches.4.bias f4 [9]
0.0 0.0 0.0 0.0 0.0 0.0 0.0 0.0
0.0
00000000: 0000 0000 0000 0000 0000 0000 0000 0000
00000010: 0000 0000 0000 0000 0000 0000 0000 0000
00000020: 0000 0000

action_model._discrete_distribution.branches.4.weight f4 [9, 128]
-0.002204883 -0.010808782 -0.012464815 0.004270805 -0.00045823606 -0.021733433 -0.006581295 0.0036314093
0.0023240168 0.0021948337 -0.005184974 0.019084444 -0.0096980985 -0.0073776604 -0.009353191 -0.0044740746
-0.0059472723 0.009206283 0.010938253 -0.0027906436 -0.008946702 0.0020748524 0.0067719086 0.0004757809
0.007915917 0.021852596 -0.012735577 -0.003759446 -0.005074869 -0.0009360672 -0.010665823 -0.013309667
-0.0053692474 0.013614841 0.009944645 -0.0027960164 -0.013995351 0.017946325 0.002556145 -0.017107503
0.009666017 -0.012843417 -0.0053427857 0.0058629913 0.0069583277 -0.0006379684 0.0020191052 0.0048386133
-5.8635574e-06 -0.007099175 -0.008084389 -0.014955483 0.004442091 0.005945271 0.023513984 0.000176687
-0.01624462 -0.0071863197 0.0045223176 -0.002643803 0.020396745 -0.0005607686 0.0108861765 0.014679263
-0.00967099 0.008424899 -0.015461015 -0.012295346 0.013506994 0.013344489 -0.0033685174 -0.016021224
-0.0061140517 -0.0097723445 -0.00097542064 -0.0010336565 0.0028852911 0.0014724295 -0.012931565 0.006953834
3.7028924e-06 0.004560591 -0.010582803 -0.0026649672 0.0054783365 -0.0038277393 0.02104087 0.0075246333
-0.0138416765 0.0063211895 0.004504529 0.009696914 -0.0008281775 0.0070908475 -0.005947874 0.0021900244
0.004709109 0.005919966 0.0007776309 0.0028645343 -0.0056122136 -0.009736764 -0.0031171113 -0.019626677
-0.007778366 -0.0014740786 0.0052595134 0.002556512 -0.003649689 -0.014395556 -0.0055703847 -0.01552211
-0.0092147505 0.0073922174 0.0019476189 -0.0036055166 -0.0061806734 -0.007805036 -0.0059010386 0.008113237
0.018339714 0.0075435787 0.0008950241 0.0083776815 -0.010933182 -0.011098775 0.012409522 0.0025383115
-0.0055705826 0.0012677949 -0.0146564515 0.0003331739 0.0041613746 -0.013177243 0.0012894237 0.013781415
0.010686639 -0.004976152 -0.014695591 -0.0074749114 -0.002697809 -0.0019641872 0.00072862755 0.008985862
-0.0019331782 0.0013282993 0.0026096362 0.008899123 0.013517365 0.0028929643 0.0037819762 -0.0077542337
0.011534195 -0.005027534 -0.006026245 -0.0028271058 0.0055584502 0.009970731 -0.008762177 -0.009194429
0.015619092 0.007704656 0.0063544847 -0.007084062 -0.004991817 -0.0052043344 -0.004303954 -0.021957906
-0.007935158 0.022151494 -0.006346705 0.007449606 -0.011423132 -0.007825113 -0.0040894113 0.011688914
0.009109371 -0.013423844 -0.01437328 -0.005071142 0.0070248134 0.008217319 -0.0044843005 0.009648512
-0.00043361253 -0.017645884 0.0011169821 0.0024632039 -0.012657835 0.017725289 -0.009317548 -0.007425596
-0.0020574592 -0.0070990953 0.005025747 -0.0018150978 -0.004798203 -0.000646437 -0.00034437582 -0.0023765177
0.0037601178 -0.006138289 -0.008149264 0.0050329133 0.0051847035 0.0020844282 -0.011637433 0.007663873
0.013765821 -0.002711796 -0.006524592 -0.011437854 -0.006930796 -0.0004096185 -0.008598654 -0.007654102
0.001565655 -0.0073179672 0.0005056238 -0.001540187 -0.022116287 0.007229481 -0.011216221 -0.00055613765
-0.0061921887 -0.006161267 0.004342803 -0.011792398 -0.0076776515 -0.0031466794 0.010819343 0.0068627135
0.010140519 0.014012071 -0.0036375185 -0.009785665 0.0037367605 0.0051136217 -0.0067902594 0.004911331
-0.013334716 0.00066144776 -0.0057715825 0.0006183523 0.018324992 -0.015538392 0.00651572 0.004570169
-0.0019116721 0.01284813 0.0036316214 -0.003450652 0.019289698 0.0019053351 0.008972145 0.009511161
00000000: cc7f 10bb 5117 31bc 3939 4cbc 1cf2 8b3b
00000010: 673f f0b9 500a b2bc e7a7 d7bb f0fc 6d3b
00000020: 884e 183b 33d7 0f3b b7e6 a9bb fb56 9c3c
00000030: c6e4 1ebc 4dc0 f1bb 203e 19bc 429b 92bb
00000040: 56e1 c2bb f3d5 163c 5c36 333c 3be3 36bb
00000050: 3095 12bc 3ffa 073b e3e6 dd3b 3b72 f939
00000060: c3b1 013c 3704 b33c e2a8 50bc 0a61 76bb
00000070: 164b a6bb 6862 75ba b4bf 2ebc ca10 5abc
00000080: 83f0 afbb c810 5f3c ddee 223c 5f3d 37bb
00000090: c24c 65bc 2c04 933c ff84 273b 0925 8cbc
000000a0: 375e 1e3c 326d 52bc 8912 afbb 561e c03b
000000b0: af02 e43b 563d 27ba f752 043b 3b8d 9e3b
000000c0: 93bf c4b6 32a0 e8bb 6374 04bc d807 75bc
000000d0: f68e 913b 8cd0 c23b 66a0 c03c 0e45 3939
000000e0: 7013 85bc 387b ebbb f32f 943b a743 2dbb
000000f0: 1317 a73c 8b00 13ba ef5b 323c 4b81 703c
00000100: 1273 1ebc 9608 0a3c 3250 7dbc 6b72 49bc
00000110: 704c 5d3c d8a2 5a3c 58c2 5cbb f13e 83bc
00000120: 6258 c8bb 2f1c 20bc 5fb3 7fba c27b 87ba
00000130: 2717 3d3b 89fe c03a eade 53bc fddc e33b
00000140: 357f 7836 0371 953b 7e63 2dbc bba6 2ebb
00000150: 9e83 b33b cfda 7abb e75d ac3c 3391 f63b
00000160: 33c8 62bc fb21 cf3b ba9a 933b cedf 1e3c
00000170: 0d1a 59ba 575a e83b 62e6 c2bb 8386 0f3b
00000180: df4e 9a3b 46fc c13b edd9 4b3a e9ba 3b3b
00000190: a9e6 b7bb f386 1fbc 7348 4cbb 20c8 a0bc
000001a0: aae1 febb df35 c1ba ff57 ac3b 278b 273b
000001b0: 9f2f 6fbb 57db 6bbc c687 b6bb 7350 7ebc
000001c0: 77f9 16bc 6a3a f23b 3f47 ff3a 884a 6cbb
000001d0: 3f87 cabb 63c1 ffbb 805d c1bb 62ed 043c
000001e0: 2b3d 963c 2030 f73b 0da0 6a3a 8b42 093c
000001f0: 1721 33bc a3d7 35bc 4f51 4b3c cd59 263b
00000200: 6f89 b6bb 232c a63a 9d21 70bc d8ad ae39
00000210: 245c 883b 5de5 57bc e101 a93a 72cb 613c
00000220: 0317 2f3c fd0e a3bb c7c5 70bc 1af0 f4bb
00000230: b9cd 30bb 98b9 00bb 5e01 3f3a 7039 133c
00000240: b262 fdba 541a ae3a 6e06 2b3b a1cd 113c
00000250: f077 5d3c e397 3d3b 08db 773b 3a17 febb
00000260: ecf9 3c3c 03be a4bb cf77 c5bb f746 39bb
00000270: a923 b63b 475c 233c 3c8f 0fbc 3ba4 16bc
00000280: 38e7 7f3c 5777 fc3b 4839 d03b 6b21 e8bb
00000290: 6592 a3bb 1f89 aabb 2f08 8dbb 11e1 b3bc
000002a0: 7702 02bc 0d77 b53c 05f8 cfbb d31b f43b
000002b0: 1728 3bbc e734 00bc 7800 86bb dc82 3f3c
000002c0: 793f 153c afef 5bbc e87d 6bbc d32b a6bb
000002d0: 6830 e63b efa1 063c 0af1 92bb cb14 1e3c
000002e0: 7d56 e3b9 1a8e 90bc b367 923a b46d 213b
000002f0: cf62 4fbc a034 913c a1a8 18bc 6a52 f3bb
00000300: 70d6 06bb 879f e8bb 06af a43b 93e8 edba
00000310: 3e3a 9dbb a775 29ba 578d b4b9 5abf 1bbb
00000320: 4f6c 763b b323 c9bb 7e84 05bc 23eb a43b
00000330: 72e4 a93b e79a 083b efaa 3ebc 3a21 fb3b
00000340: 0a8a 613c 63b8 31bb 3fcc d5bb d665 3bbc
00000350: bb1b e3bb 10c2 d6b9 5ee1 0cbc 43cf fabb
00000360: aa36 cd3a 8fcb efbb d78b 043a 1ae0 c9ba
00000370: 372d b5bc 48e5 ec3b 3ec4 37bc c4c9 11ba
00000380: d8e7 cabb 74e4 c9bb 124e 8e3b e734 41bc
00000390: cf94 fbbb 8538 4ebb 9d43 313c 9de0 e03b
000003a0: 6b24 263c e392 653c 6f63 6ebb 0e54 20bc
000003b0: 70e4 743b 2b90 a73b d380 debb 3bef a03b
000003c0: da79 5abc 0265 2d3a 8b1f bdbb ec18 223a
000003d0: 4b1e 963c bd94 7ebc d281 d53b 5bc1 953b
000003e0: 1291 faba f780 523c 7f00 6e3b 5524 62bb
000003f0: 6e05 9e3c 70bc f93a e7ff 123c b3d4 1b3c

network_body.linear_encoder.seq_layers.0.bias f4 [128]
0.0 0.0 0.0 0.0 0.0 0.0 0.0 0.0
0.0 0.0 0.0 0.0 0.0 0.0 0.0 0.0
0.0 0.0 0.0 0.0 0.0 0.0 0.0 0.0
0.0 0.0 0.0 0.0 0.0 0.0 0.0 0.0
0.0 0.0 0.0 0.0 0.0 0.0 0.0 0.0
0.0 0.0 0.0 0.0 0.0 0.0 0.0 0.0
0.0 0.0 0.0 0.0 0.0 0.0 0.0 0.0
0.0 0.0 0.0 0.0 0.0 0.0 0.0 0.0
0.0 0.0 0.0 0.0 0.0 0.0 0.0 0.0
0.0 0.0 0.0 0.0 0.0 0.0 0.0 0.0
0.0 0.0 0.0 0.0 0.0 0.0 0.0 0.0
0.0 0.0 0.0 0.0 0.0 0.0 0.0 0.0
0.0 0.0 0.0 0.0 0.0 0.0 0.0 0.0
0.0 0.0 0.0 0.0 0.0 0.0 0.0 0.0
0.0 0.0 0.0 0.0 0.0 0.0 0.0 0.0
0.0 0.0 0.0 0.0 0.0 0.0 0.0 0.0
00000000: 0000 0000 0000 0000 0000 0000 0000 0000
00000010: 0000 0000 0000 0000 0000 0000 0000 0000
00000020: 0000 0000 0000 0000 0000 0000 0000 0000
00000030: 0000 0000 0000 0000 0000 0000 0000 0000
00000040: 0000 0000 0000 0000 0000 0000 0000 0000
00000050: 0000 0000 0000 0000 0000 0000 0000 0000
00000060: 0000 0000 0000 0000 0000 0000 0000 0000
00000070: 0000 0000 0000 0000 0000 0000 0000 0000
00000080: 0000 0000 0000 0000 0000 0000 0000 0000
00000090: 0000 0000 0000 0000 0000 0000 0000 0000
000000a0: 0000 0000 0000 0000 0000 0000 0000 0000
000000b0: 0000 0000 0000 0000 0000 0000 0000 0000
000000c0: 0000 0000 0000 0000 0000 0000 0000 0000
000000d0: 0000 0000 0000 0000 0000 0000 0000 0000
000000e0: 0000 0000 0000 0000 0000 0000 0000 0000
000000f0: 0000 0000 0000 0000 0000 0000 0000 0000
00000100: 0000 0000 0000 0000 0000 0000 0000 0000
00000110: 0000 0000 0000 0000 0000 0000 0000 0000
00000120: 0000 0000 0000 0000 0000 0000 0000 0000
00000130: 0000 0000 0000 0000 0000 0000 0000 0000
00000140: 0000 0000 0000 0000 0000 0000 0000 0000
00000150: 0000 0000 0000 0000 0000 0000 0000 0000
00000160: 0000 0000 0000 0000 0000 0000 0000 0000
00000170: 0000 0000 0000 0000 0000 0000 0000 0000
00000180: 0000 0000 0000 0000 0000 0000 0000 0000
00000190: 0000 0000 0000 0000 0000 0000 0000 0000
000001a0: 0000 0000 0000 0000 0000 0000 0000 0000
000001b0: 0000 0000 0000 0000 0000 0000 0000 0000
000001c0: 0000 0000 0000 0000 0000 0000 0000 0000
000001d0: 0000 0000 0000 0000 0000 0000 0000 0000
000001e0: 0000 0000 0000 0000 0000 0000 0000 0000
000001f0: 0000 0000 0000 0000 0000 0000 0000 0000

network_body.linear_encoder.seq_layers.0.weight f4 [128, 20]
-0.11840262 -0.06031215 -0.16440596 -0.4008197 0.4721449 0.17726342 -0.24226543 -0.035428952
-0.22941732 0.43734634 -0.21616508 -0.21460176 -0.09182995 0.076614246 0.086058825 -0.019832859
-0.16281608 -0.20555586 -0.3424965 0.16701186 0.0712627 0.022541177 0.03332737 0.341279
-0.07812558 -0.115939625 -0.08504196 0.4533204 0.12793507 0.239965 -0.20513424 -0.07666872
0.14059268 -0.0631632 0.3531445 0.40953884 -0.011928844 0.17029408 -0.067646585 0.3153552
0.26237842 0.05622326 -0.024259388 -0.1999897 -0.043112215 -0.021692334 -0.041014396 0.006820552
0.3908863 -0.07259696 0.64589965 0.10797998 0.24423775 -0.1338392 0.021429611 0.09161232
0.47940755 0.2420587 0.0048723198 -0.02058082 -0.018560417 -0.100244 -0.19002111 -0.17788468
-0.120803654 -0.11863397 0.082090236 -0.34163725 0.004872505 -0.09882439 0.087512 -0.09221234
0.07795899 0.12386306 -0.034261137 -0.13317922 -0.3118623 -0.3070343 -0.22420236 0.11569528
0.16944288 0.44233793 0.120281436 0.1203245 0.2697668 -0.057869125 0.087503545 0.012476019
0.21179998 0.17268579 0.18645555 -0.01655702 0.11722596 0.11040356 -0.087245755 -0.027720032
-0.0068861363 0.25646564 -0.2135568 -0.3577796 0.09929301 0.16206679 0.054527353 0.14233918
0.28229332 -0.18948255 0.27995947 0.253872 0.03895359 -0.24733603 -0.08550105 -0.14784004
0.17692147 -0.04703363 0.1414564 -0.37502977 0.39856887 -0.28962642 -0.2448547 -0.08378031
-0.0007832822 0.089278415 -0.1515292 -0.0398813 0.3489778 -0.048655998 -0.52633256 0.08990889
-0.082429 -0.2144464 0.4842981 0.2843464 0.1993157 -0.12572965 0.3359816 -0.022560371
-0.27484772 -0.1138483 -0.19213596 -0.2995865 0.41707793 0.1133806 -0.0771872 0.117371105
0.21330775 -0.14525492 -0.06992057 0.31614482 0.09703714 -0.53309494 -0.08954026 -0.181196
0.3998051 0.45521837 0.1834048 0.16693509 0.026420128 -0.07538606 0.2362806 0.20798038
0.14821096 0.19157651 -0.3157392 -0.17367265 0.23676229 0.4336649 -0.108775295 -0.16940978
-0.1581163 0.29176134 0.09040838 0.049915284 -0.27815178 -0.30257788 -0.20867538 -0.20821905
0.19502115 -0.010903495 -0.08480203 -0.27175915 0.066009976 0.21866715 -0.16836587 -0.36480486
0.20548923 0.17784385 0.20547219 0.20763315 -0.5572371 -0.08276889 0.9372957 -0.21973243
0.4979621 -0.18762435 0.3590738 -0.17033437 0.118603595 -0.008016847 0.19398767 0.42121387
-0.0065201004 -0.15129296 -0.23833822 0.18384396 0.22377078 -0.18539618 -0.15567683 -0.05903021
-0.43519258 -0.14571972 -0.15481521 0.22099522 -0.026612593 -0.24910502 0.008264539 0.28608707
-0.13596353 0.2615706 0.44130245 0.022008998 -0.16890714 0.14214988 -0.3032711 0.009929691
0.03540861 -0.14688586 0.13639396 -0.0016445072 0.1479271 0.27551872 0.24066307 -0.05109488
-0.088207 -0.14743283 0.10224275 -0.11598403 -0.416647 0.17898579 -0.3299933 -0.051690076
0.07588743 -0.07268869 -0.41591084 -0.06114363 -0.055938557 0.40902358 -0.18767768 0.26732233
0.023470528 0.20232959 -0.16158602 -0.14504747 -0.022175988 0.13634479 0.12481194 0.24017043
00000000: 137d f2bd df09 77bd 095a 28be 3d38 cdbe
00000010: fabc f13e 8b84 353e 6e14 78be f31d 11bd
00000020: 60ec 6abe dceb df3e 615a 5dbe 90c0 5bbe
00000030: 5711 bcbd eee7 9c3d 9c3f b03d 8578 a2bc
00000040: 42b9 26be 3c7d 52be b45b afbe 2805 2b3e
00000050: 2ef2 913d 46a8 b83c 4882 083d 1fbc ae3e
00000060: 4e00 a0bd c171 edbd 7b2a aebd 9d19 e83e
00000070: 6901 033e 63b9 753e b60e 52be 7d04 9dbd
00000080: 87f7 0f3e b55b 81bd 5bcf b43e 13af d13e
00000090: 3371 43bc 9261 2e3e 4b8a 8abd 3d76 a13e
000000a0: 7756 863e 5c4a 663d a0bb c6bc 1aca 4cbe
000000b0: 6f96 30bd 1fb4 b1bc b6fe 27bd f07e df3b
000000c0: 4022 c83e b7ad 94bd ae59 253f 9c24 dd3d
000000d0: 7619 7a3e 250d 09be 278d af3c 3d9f bb3d
000000e0: e874 f53e 3cde 773e fba7 9f3b 1c99 a8bc
000000f0: 040c 98bc ba4c cdbd e594 42be 6727 36be
00000100: e867 f7bd 5ef6 f2bd ed1e a83d 14eb aebe
00000110: 89a9 9f3b 7164 cabd 7e39 b33d d3d9 bcbd
00000120: f7a8 9f3d eaab fd3d 6855 0cbd 2260 08be
00000130: 6aac 9fbe 9a33 9dbe 4e95 65be a6f1 ec3d
00000140: 6f82 2d3e 1e7a e23e 1d56 f63d b16c f63d
00000150: e01e 8a3e 2d08 6dbd 0f35 b33d 3768 4c3c
00000160: 18e2 583e 8bd4 303e 34ee 3e3e 96a2 87bc
00000170: 2a14 f03d 431b e23d e7ad b2bd 1f15 e3bc
00000180: 19a5 e1bb 774f 833e a2ae 5abe e32e b7be
00000190: 225a cb3d d6f4 253e 1358 5f3d 5dc1 113e
000001a0: c088 903e b707 42be d956 8f3e 83fb 813e
000001b0: cd8d 1f3d a845 7dbe 2d1b afbd 6163 17be
000001c0: e72a 353e 56a6 40bd f2d9 103e e703 c0be
000001d0: 3811 cc3e ea49 94be 31bb 7abe 0395 abbd
000001e0: 2e55 4dba 9ad7 b63d 782a 1bbe 935a 23bd
000001f0: 38ad b23e 834b 47bd bbbd 06bf 2722 b83d
00000200: 89d0 a8bd d697 5bbe ecf5 f73e da95 913e
00000210: 6a19 4c3e 46bf 00be c805 ac3e 87d0 b8bc
00000220: d7b8 8cbe 4c29 e9bd 4abf 44be 6763 99be
00000230: 3d8b d53e 1734 e83d 5314 9ebd 4360 f03d
00000240: 596d 5a3e b5bd 14be 8432 8fbd bcdd a13e
00000250: 68bb c63d e978 08bf e260 b7bd 728b 39be
00000260: 41b3 cc3e 6212 e93e 78ce 3b3e 08f1 2a3e
00000270: 066f d83c 0264 9abd 8bf3 713e cff8 543e
00000280: 9dc4 173e a22c 443e 92a8 a1be 3ed7 31be
00000290: d071 723e 5309 de3e 95c5 debd c279 2dbe
000002a0: 3de9 21be be61 953e 0728 b93d f873 4c3d
000002b0: e969 8ebe 7deb 9abe 00af 55be 6037 55be
000002c0: a0b3 473e 93a4 32bc b0ac adbd 0424 8bbe
000002d0: 3d30 873d 48ea 5f3e 1a68 2cbe b4c7 babe
000002e0: c56b 523e b31c 363e 4d67 523e c99d 543e
000002f0: 17a7 0ebf bc82 a9bd 9cf2 6f3f 8a01 61be
00000300: e3f4 fe3e 9920 40be 85d8 b73e 226c 2ebe
00000310: 71e6 f23d 1859 03bc b4a4 463e 58a9 d73e
00000320: 91a6 d5bb 8bec 1abe ef0e 74be 9741 3c3e
00000330: 2b24 653e 7fd8 3dbe bf69 1fbe a9c9 71bd
00000340: 90d1 debe 8d37 15be e187 1ebe 924c 623e
00000350: a702 dabc 6315 7fbe fd67 073c 017a 923e
00000360: 063a 0bbe 95ec 853e 65f2 e13e 374c b43c
00000370: fef5 2cbe bd8f 113e 5a46 9bbe 25b0 223c
00000380: 9e08 113d 3f69 16be dcaa 0b3e 818c d7ba
00000390: 347a 173e ca10 8d3e 6170 763e dd48 51bd
000003a0: dfa5 b4bd a2f8 16be a664 d13d 0989 edbd
000003b0: c152 d5be 0d48 373e e2f4 a8be f9b8 53bd
000003c0: de6a 9b3d cfdd 94bd 44f2 d4be be71 7abd
000003d0: d41f 65bd 8a6b d13e 942e 40be 79de 883e
000003e0: 4445 c03c 7d2f 4f3e ce76 25be 5387 14be
000003f0: 6baa b5bc f89d 0b3e 679d ff3d 3def 753e

network_body.linear_encoder.seq_layers.2.bias f4 [128]
0.0 0.0 0.0 0.0 0.0 0.0 0.0 0.0
0.0 0.0 0.0 0.0 0.0 0.0 0.0 0.0
0.0 0.0 0.0 0.0 0.0 0.0 0.0 0.0
0.0 0.0 0.0 0.0 0.0 0.0 0.0 0.0
0.0 0.0 0.0 0.0 0.0 0.0 0.0 0.0
0.0 0.0 0.0 0.0 0.0 0.0 0.0 0.0
0.0 0.0 0.0 0.0 0.0 0.0 0.0 0.0
0.0 0.0 0.0 0.0 0.0 0.0 0.0 0.0
0.0 0.0 0.0 0.0 0.0 0.0 0.0 0.0
0.0 0.0 0.0 0.0 0.0 0.0 0.0 0.0
0.0 0.0 0.0 0.0 0.0 0.0 0.0 0.0
0.0 0.0 0.0 0.0 0.0 0.0 0.0 0.0
0.0 0.0 0.0 0.0 0.0 0.0 0.0 0.0
0.0 0.0 0.0 0.0 0.0 0.0 0.0 0.0
0.0 0.0 0.0 0.0 0.0 0.0 0.0 0.0
0.0 0.0 0.0 0.0 0.0 0.0 0.0 0.0
00000000: 0000 0000 0000 0000 0000 0000 0000 0000
00000010: 0000 0000 0000 0000 0000 0000 0000 0000
00000020: 0000 0000 0000 0000 0000 0000 0000 0000
00000030: 0000 0000 0000 0000 0000 0000 0000 0000
00000040: 0000 0000 0000 0000 0000 0000 0000 0000
00000050: 0000 0000 0000 0000 0000 0000 0000 0000
00000060: 0000 0000 0000 0000 0000 0000 0000 0000
00000070: 0000 0000 0000 0000 0000 0000 0000 0000
00000080: 0000 0000 0000 0000 0000 0000 0000 0000
00000090: 0000 0000 0000 0000 0000 0000 0000 0000
000000a0: 0000 0000 0000 0000 0000 0000 0000 0000
000000b0: 0000 0000 0000 0000 0000 0000 0000 0000
000000c0: 0000 0000 0000 0000 0000 0000 0000 0000
000000d0: 0000 0000 0000 0000 0000 0000 0000 0000
000000e0: 0000 0000 0000 0000 0000 0000 0000 0000
000000f0: 0000 0000 0000 0000 0000 0000 0000 0000
00000100: 0000 0000 0000 0000 0000 0000 0000 0000
00000110: 0000 0000 0000 0000 0000 0000 0000 0000
00000120: 0000 0000 0000 0000 0000 0000 0000 0000
00000130: 0000 0000 0000 0000 0000 0000 0000 0000
00000140: 0000 0000 0000 0000 0000 0000 0000 0000
00000150: 0000 0000 0000 0000 0000 0000 0000 0000
00000160: 0000 0000 0000 0000 0000 0000 0000 0000
00000170: 0000 0000 0000 0000 0000 0000 0000 0000
00000180: 0000 0000 0000 0000 0000 0000 0000 0000
00000190: 0000 0000 0000 0000 0000 0000 0000 0000
000001a0: 0000 0000 0000 0000 0000 0000 0000 0000
000001b0: 0000 0000 0000 0000 0000 0000 0000 0000
000001c0: 0000 0000 0000 0000 0000 0000 0000 0000
000001d0: 0000 0000 0000 0000 0000 0000 0000 0000
000001e0: 0000 0000 0000 0000 0000 0000 0000 0000
000001f0: 0000 0000 0000 0000 0000 0000 0000 0000
