results/ppo/BadChessPlayer/BadChessPlayer-6721.pt (torch, 411735 bytes, 45 tensors)

network_body.linear_encoder.seq_layers.0.weight f4 [128, 72]
-0.14178124 0.09356917 -0.0024880676 -0.08067311 0.047390163 -0.07600305 -0.2577256 -0.051480327
-0.004951568 -0.07548973 -0.005782741 -0.15344113 -0.31768432 -0.021381898 -0.03357098 0.11949663
-0.096620075 -0.09530233 -0.24269836 0.116423555 0.096334234 0.22874169 -0.07774797 0.12085696
0.13229665 0.122303255 -0.044036962 0.07256823 0.042938452 -0.07972077 -0.032296665 0.049412075
-0.22417471 -0.15391752 -0.12938577 0.08764652 -0.0077508697 0.036543477 0.23120973 -0.076932944
0.19819096 0.06555207 0.06927579 0.014409688 -0.04073509 -0.073893175 0.22911136 0.04575937
-0.07284052 0.029122895 0.010101123 -0.1478376 -0.030182391 0.025279034 0.06271334 -0.12318334
-0.045039784 0.0155143 0.1860108 -0.12140708 -0.06409266 0.15944608 0.0056507546 -0.009283656
-0.16351436 0.04511099 -0.037669215 0.039043553 -0.03702527 0.19082019 0.007854384 0.07859592
0.106502846 0.21704687 -0.06280578 0.046606682 0.050527494 0.11551214 0.29212123 0.09327301
-0.04658606 0.07838429 0.14539994 -0.19062376 0.044885535 -0.30205965 -0.01532141 0.037321955
0.07504649 0.15282807 -0.14889948 0.04166232 -0.030724986 0.08446599 0.18457578 0.010363491
0.026076501 -0.08816357 -0.18649706 0.026715728 -0.009779544 0.0055891643 0.1389449 -0.10168587
-0.0069210846 -0.3050096 0.26348728 0.00816346 0.06868977 0.039323933 0.11338341 -0.05309005
-0.20613518 -0.09710268 -0.045731816 0.047418915 -0.068457894 0.25484106 -0.054551147 0.16033946
-0.043448217 -0.09498722 -0.2075662 0.05011344 0.016924197 0.08190684 0.14054453 -0.027753621
0.19500314 0.0877732 -0.14414684 -0.05774853 -0.11166272 -0.026482714 0.01828856 0.0050212583
0.122452244 0.09316393 0.044861466 -0.03424262 0.073624685 0.017481865 -0.22937557 -0.14362389
-0.143785 -0.055872127 0.07405202 -0.07877354 0.0545214 -0.031129757 0.065081 -0.19909295
0.08741985 0.15675116 -0.26221195 -0.21204531 0.3981152 0.056570698 0.048961014 0.07256823
-0.10907744 -0.07744962 -0.024522679 -0.1245376 0.055077266 -0.16308953 0.077696905 -0.0748306
-0.10500076 -0.07649833 -0.13630792 -0.33101463 0.12628284 -0.28415197 0.087653235 0.300181
0.04068298 -0.026775772 0.030279258 -0.26048774 -0.06642555 -0.0320432 -0.09166336 0.07530652
0.12702541 -0.07756154 -0.018879008 0.16889371 0.0088909175 -0.019626211 -0.11220942 0.036849167
0.012371268 -0.028910078 -0.017665548 0.0821951 -0.0710317 0.05413678 -0.08803939 0.09436649
-0.092361785 -0.014214948 -0.056237392 -0.050253224 -0.07148452 -0.109006844 -0.08519131 0.075185254
-0.264414 -0.23636504 0.10828833 0.019850664 -0.15298995 -0.22563867 0.09920925 0.010596835
-0.00999877 0.028634943 0.0072531244 -0.07693537 -0.16902764 -0.028929593 0.094367824 -0.12881684
-0.074818105 -0.08736584 -0.10510467 0.020563794 -0.16647106 -0.02947686 0.0037787121 0.13070895
-0.019841284 0.2105123 -0.12251367 0.10334967 -0.11090753 -0.012612257 -0.06823464 -0.10844447
-0.009509941 0.058725554 0.10927738 -0.0030134106 0.117542356 -0.030182427 0.017818388 -0.011674614
-0.09568014 -0.18863353 -0.1102787 -0.0036548572 0.090371355 -0.28455883 -0.17381829 -0.10916009
00000000: 1a2f 11be 31a1 bf3d d90e 23bb f237 a5bd
00000010: 301c 423d 7da7 9bbd 9cf4 83be 09dd 52bd
00000020: c340 a2bb 5c9a 9abd 267d bdbb ac1f 1dbe
00000030: 85a7 a2be 1729 afbc b981 09bd a6ba f43d
00000040: bfe0 c5bd de2d c3bd eb85 78be 796f ee3d
00000050: e24a c53d 433b 6a3e 543a 9fbd db83 f73d
00000060: c678 073e 217a fa3d 1a60 34bd a79e 943d
00000070: 3be0 2f3d a544 a3bd 8249 04bd 5164 4a3d
00000080: 0e8e 65be 8e9c 1dbe b47d 04be 0580 b33d
00000090: 02fb fdbb 9dae 153d 3ec2 6c3e 058f 9dbd
000000a0: 92f2 4a3e 2a40 863d 77e0 8d3d 9d16 6c3c
000000b0: d6d9 26bd 4e55 97bd 2b9c 6a3e 2d6e 3b3d
000000c0: 692d 95bd 2393 ee3c 2e7f 253c bd62 17be
000000d0: 1041 f7bc fa15 cf3c da6f 803d 8c47 fcbd
000000e0: a37b 38bd b12f 7e3c 9d79 3e3e 46a4 f8bd
000000f0: 0343 83bd d545 233e f729 b93b 7a1a 18bc
00000100: 4f70 27be 4dc6 383d 094b 1abd 22ec 1f3d
00000110: cfa7 17bd 5e66 433e adaf 003c e6f6 a03d
00000120: 2a1e da3d 8941 5e3e 51a0 80bd a6e6 3e3d
00000130: ebf5 4e3d a191 ec3d ea90 953e eb05 bf3d
00000140: 06d1 3ebd f187 a03d b9e3 143e e032 43be
00000150: e5d9 373d 90a7 9abe a706 7bbc e8de 183d
00000160: f9b1 993d f67e 1c3e 1b79 18be 1ca6 2a3d
00000170: f7b2 fbbc 81fc ac3d 6f01 3d3e a2cb 293c
00000180: 639e d53c 1a8f b4bd 16f9 3ebe f1da da3c
00000190: 613a 20bc 4f25 b73b 9247 0e3e ae40 d0bd
000001a0: 44ca e2bb 382a 9cbe cee7 863e 08c0 053c
000001b0: 39ad 8c3d 2212 213d 9035 e83d f474 59bd
000001c0: 1a15 53be c5dd c6bd 4951 3bbd 563a 423d
000001d0: a733 8cbd 877a 823e 0671 5fbd 0730 243e
000001e0: c2f6 31bd a988 c2bd 3c8c 54be c043 4d3d
000001f0: 9da4 8a3c c6be a73d e8ea 0f3e 905b e3bc
00000200: e7ae 473e 6fc2 b33d 3b9b 13be b989 6cbd
00000210: 6daf e4bd 47f2 d8bc e4d1 953c 5e89 a43b
00000220: 3ec8 fa3d bbcc be3d a8c0 373d fd41 0cbd
00000230: 8ac8 963d 2136 8f3c 6ee1 6abe 2412 13be
00000240: 603c 13be 2cda 64bd 96a8 973d 0654 a1bd
00000250: d551 5f3d d503 ffbc 3049 853d 06df 4bbe
00000260: 2e09 b33d 6083 203e a540 86be 6822 59be
00000270: c1d5 cb3e adb6 673d 588b 483d a79e 943d
00000280: fe63 dfbd e89d 9ebd c9e3 c8bc 920d ffbd
00000290: b398 613d f100 27be 8e1f 9f3d c940 99bd
000002a0: a30a d7bd 28ab 9cbd 4e94 0bbe c07a a9be
000002b0: 4a50 013e 5e7c 91be 8a83 b33d 53b1 993e
000002c0: 32a3 263d dd58 dbbc 350c f83c a65e 85be
000002d0: 1e0a 88bd bb3f 03bd 00ba bbbd 4e3a 9a3d
000002e0: f312 023e 96d8 9ebd 26a8 9abc 79f2 2c3e
000002f0: 36ab 113c 26c7 a0bc 0dce e5bd 27ef 163d
00000300: dcb0 4a3c d4d4 ecbc 57b7 90bc e855 a83d
00000310: 1179 91bd 87be 5d3d ff4d b4bd 3843 c13d
00000320: 2d28 bdbd d0e5 68bc 2e59 66bd 53d6 4dbd
00000330: 7a66 92bd fb3e dfbd c878 aebd bafa 993d
00000340: 4661 87be ad09 72be 46c6 dd3d dc9d a23c
00000350: 66a9 1cbe d30d 67be 382e cb3d 599e 2d3c
00000360: e2d1 23bc d493 ea3c 9eab ed3b 4b90 9dbd
00000370: 9515 2dbe c1fd ecbc eb43 c13d 90e8 03be
00000380: 3c3a 99bd ddec b2bd 1e41 d7bd 6775 a83c
00000390: 6477 2abe 7579 f1bc 45a4 773b 91d8 053e
000003a0: 308a a2bc 8990 573e 72e8 fabd fea8 d33d
000003b0: 7d23 e3bd a4a3 4ebc 9abe 8bbd 2218 debd
000003c0: 95cf 1bbc 358a 703d d2cc df3d a47c 45bb
000003d0: 0cba f03d 2341 f7bc def7 913c e146 3fbc
000003e0: f3f3 c3bd 2629 41be cdd9 e1bd 5486 6fbb
000003f0: 9e14 b93d b2b1 91be 6cfd 31be 538f dfbd

network_body.linear_encoder.seq_layers.0.bias f4 [128]
0.0 0.0 0.0 0.0 0.0 0.0 0.0 0.0
0.0 0.0 0.0 0.0 0.0 0.0 0.0 0.0
0.0 0.0 0.0 0.0 0.0 0.0 0.0 0.0
0.0 0.0 0.0 0.0 0.0 0.0 0.0 0.0
0.0 0.0 0.0 0.0 0.0 0.0 0.0 0.0
0.0 0.0 0.0 0.0 0.0 0.0 0.0 0.0
0.0 0.0 0.0 0.0 0.0 0.0 0.0 0.0
0.0 0.0 0.0 0.0 0.0 0.0 0.0 0.0
0.0 0.0 0.0 0.0 0.0 0.0 0.0 0.0
0.0 0.0 0.0 0.0 0.0 0.0 0.0 0.0
0.0 0.0 0.0 0.0 0.0 0.0 0.0 0.0
0.0 0.0 0.0 0.0 0.0 0.0 0.0 0.0
0.0 0.0 0.0 0.0 0.0 0.0 0.0 0.0
0.0 0.0 0.0 0.0 0.0 0.0 0.0 0.0
0.0 0.0 0.0 0.0 0.0 0.0 0.0 0.0
0.0 0.0 0.0 0.0 0.0 0.0 0.0 0.0
00000000: 0000 0000 0000 0000 0000 0000 0000 0000
00000010: 0000 0000 0000 0000 0000 0000 0000 0000
00000020: 0000 0000 0000 0000 0000 0000 0000 0000
00000030: 0000 0000 0000 0000 0000 0000 0000 0000
00000040: 0000 0000 0000 0000 0000 0000 0000 0000
00000050: 0000 0000 0000 0000 0000 0000 0000 0000
00000060: 0000 0000 0000 0000 0000 0000 0000 0000
00000070: 0000 0000 0000 0000 0000 0000 0000 0000
00000080: 0000 0000 0000 0000 0000 0000 0000 0000
00000090: 0000 0000 0000 0000 0000 0000 0000 0000
000000a0: 0000 0000 0000 0000 0000 0000 0000 0000
000000b0: 0000 0000 0000 0000 0000 0000 0000 0000
000000c0: 0000 0000 0000 0000 0000 0000 0000 0000
000000d0: 0000 0000 0000 0000 0000 0000 0000 0000
000000e0: 0000 0000 0000 0000 0000 0000 0000 0000
000000f0: 0000 0000 0000 0000 0000 0000 0000 0000
00000100: 0000 0000 0000 0000 0000 0000 0000 0000
00000110: 0000 0000 0000 0000 0000 0000 0000 0000
00000120: 0000 0000 0000 0000 0000 0000 0000 0000
00000130: 0000 0000 0000 0000 0000 0000 0000 0000
00000140: 0000 0000 0000 0000 0000 0000 0000 0000
00000150: 0000 0000 0000 0000 0000 0000 0000 0000
00000160: 0000 0000 0000 0000 0000 0000 0000 0000
00000170: 0000 0000 0000 0000 0000 0000 0000 0000
00000180: 0000 0000 0000 0000 0000 0000 0000 0000
00000190: 0000 0000 0000 0000 0000 0000 0000 0000
000001a0: 0000 0000 0000 0000 0000 0000 0000 0000
000001b0: 0000 0000 0000 0000 0000 0000 0000 0000
000001c0: 0000 0000 0000 0000 0000 0000 0000 0000
000001d0: 0000 0000 0000 0000 0000 0000 0000 0000
000001e0: 0000 0000 0000 0000 0000 0000 0000 0000
000001f0: 0000 0000 0000 0000 0000 0000 0000 0000

network_body.linear_encoder.seq_layers.2.weight f4 [128, 128]
-0.12150098 0.120401785 -0.10202376 -0.1296039 -0.18482804 0.0007347007 0.054251723 0.080707364
0.09375427 -0.15968962 0.1460102 -0.1133615 -0.2398465 -0.042746495 -0.08055058 0.09298494
-0.08413558 0.05463173 -0.009086341 0.03794252 0.01905606 0.15824573 0.00066237734 0.013403028
0.035339348 0.018033274 -0.1793136 -0.084697925 -0.019073738 0.1339471 -0.14154191 -0.1201964
-0.0050484734 -0.14001969 0.0077990103 0.013839043 0.023235844 0.2221744 -0.07834307 0.09434195
0.11144267 -0.17578974 0.07005112 0.0539677 0.15149762 0.14390405 -0.011279745 0.017685575
-0.11346462 -0.010656261 0.09623237 0.19161148 0.07897173 0.01761412 0.1956261 0.064381294
0.011367064 -0.031415924 -0.024065413 0.005291193 -0.07301882 0.058667764 -0.1467012 -0.12710674
-0.00895897 0.0058462117 0.034672827 -0.11587356 0.023519076 -0.023846807 0.0031378858 -0.039535742
0.080523916 0.13638319 0.08859731 -0.059321493 0.02761693 -0.06896747 0.033503678 -0.05835995
-0.053601366 -0.014003825 -0.0816122 0.05047482 0.05081608 0.09655572 0.010879057 0.06490289
-0.1378779 -0.013074701 0.100201294 0.014292603 -0.041438337 -0.013042873 -0.02604933 -0.032449123
-0.0017954911 0.011893086 -0.04997479 -0.111851394 0.049925223 -0.033396468 0.0017434328 0.11087036
0.046826735 -0.035465807 0.09271614 -0.057346076 -0.094147325 0.020644857 -0.05968458 -0.046406813
-0.20922302 -0.07235498 0.027555503 0.037352074 -0.021939391 -0.028364081 -0.04298796 0.05273745
0.04988062 -0.08037704 -0.042814218 0.29689938 -0.022043843 0.12499017 -0.06507325 -0.0656302
0.10079183 -0.056093894 -0.07478887 -0.08303554 0.032545075 0.031596933 0.010430482 0.09067866
0.057028424 -0.14043581 -0.019743592 -0.16490363 0.06582015 0.14408492 -0.18384948 0.01000898
0.13457665 0.109780386 0.13322958 0.07671408 0.025290215 -0.01642279 -0.077325955 -0.18874978
0.0534667 0.06939613 -0.07890336 0.0042327926 0.017594196 0.015007089 0.124879256 0.04182685
0.041916233 0.24064285 -0.08381294 0.016744256 -0.07772739 -0.031984773 -0.018754644 -0.013415737
0.0478194 0.009236133 -0.059074245 0.031474408 0.08195348 0.001486351 0.047019746 0.02690118
-0.025067613 0.13392226 0.11085001 -0.10532028 0.051538605 -0.087609634 -0.153559 -0.09027574
0.023039795 -0.007162655 -0.05909676 0.026096309 -0.010034754 0.08465954 0.002831827 -0.19732307
-0.12548673 0.1090511 -0.12886564 0.11199741 -0.051766343 0.06031715 -0.095006995 -0.031822827
-0.023395514 0.020061439 0.044963006 -0.057343356 -0.047386635 0.013078176 0.039353963 -0.17012517
0.11232139 -0.13625501 -0.03855713 -0.041525334 0.031040842 -0.034012362 -0.04227802 0.092824176
-0.19715853 0.026150102 0.04062107 0.09471559 -0.02826454 0.026972476 -0.05146635 -0.0047774115
0.07568598 0.059878737 0.09837693 0.0012783742 -0.10232822 -0.086361766 0.054751195 -0.11980213
-0.14917912 0.15002608 0.028276285 0.02027633 -0.09628737 0.024942467 -0.042088307 0.09979018
-0.11363075 0.15780193 -0.117105745 -0.20202166 0.05113333 -0.0065848827 0.12193446 0.17234954
0.038878962 -0.052607734 -0.12983523 -0.06593633 0.08741248 -0.013629676 0.04442207 -0.053920943
00000000: 81d5 f8bd 3695 f63d d5f1 d0bd e2b6 04be
00000010: 9043 3dbe ee98 403a 0e37 5e3d e749 a53d
00000020: 3d02 c03d ad85 23be b383 153e 132a e8bd
00000030: 529a 75be f316 2fbd b4f7 a4bd e36e be3d
00000040: 464f acbd 85c5 5f3d e0de 14bc 9e69 1b3d
00000050: 741b 9c3c 2b0b 223e 64a3 2d3a 6098 5b3c
00000060: febf 103d 84ba 933c fc9d 37be 1b76 adbd
00000070: 8740 9cbc 6e29 093e 5df0 10be 8829 f6bd
00000080: aa6d a5bb 5261 0fbe d78e ff3b 27bd 623c
00000090: 1959 be3c b081 633e 5572 a0bd 5a36 c13d
000000a0: 0e3c e43d 3a02 34be f676 8f3d 3c0d 5d3d
000000b0: 3122 1b3e 955b 133e aece 38bc 57e1 903c
000000c0: 2460 e8bd 9997 2ebc 7a15 c53d cd35 443e
000000d0: eebb a13d 7d4b 903c 3552 483e 57da 833d
000000e0: ec3c 3a3c fcad 00bd d424 c5bc be61 ad3b
000000f0: e48a 95bd 9c4d 703d d738 16be 4528 02be
00000100: a5c8 12bc 9491 bf3b 1805 0e3d 1e4f edbd
00000110: 14ab c03c 615a c3bc fda4 4d3b 3bf0 21bd
00000120: b9e9 a43d 09a8 0b3e 8272 b53d 18fb 72bd
00000130: e63c e23c d13e 8dbd 273b 093d d80a 6fbd
00000140: 1b8d 5bbd 4d70 65bc 4c24 a7bd afbe 4e3d
00000150: 8624 503d 01bf c53d 133e 323c ceeb 843d
00000160: dd2f 0dbe 4537 56bc 5636 cd3d 862b 6a3c
00000170: 3fbb 29bd c6b1 55bc 6865 d5bc 5fe9 04bd
00000180: af56 ebba 38db 423c 5eb2 4cbd 5812 e5bd
00000190: 647e 4c3d bcca 08bd e683 e43a 0010 e33d
000001a0: 64cd 3f3d 9844 11bd f6e1 bd3d b8e3 6abd
000001b0: 50d0 c0bd 671f a93c d177 74bd 1215 3ebd
000001c0: 8f3e 56be d92e 94bd 14bc e13c 7dfe 183d
000001d0: 3dba b3bc ca5b e8bc 2514 30bd 3903 583d
000001e0: 9f4f 4c3d b89c a4bd f65d 2fbd 3203 983e
000001f0: 4a95 b4bc d9fa ff3d 2045 85bd 2069 86bd
00000200: f26b ce3d b6c2 65bd e82a 99bd 8a0e aabd
00000210: fc4d 053d c96b 013d 9de4 2a3c bcb5 b93d
00000220: a396 693d 68ce 0fbe 50bd a1bc 7fdc 28be
00000230: b7cc 863d ff8a 133e 0a43 3cbe b4fc 233c
00000240: 76ce 093e 8ad4 e03d 566d 083e 461c 9d3d
00000250: 6d2d cf3c 1689 86bc 125d 9ebd 9f47 41be
00000260: e6ff 5a3d 8f1f 8e3d 1698 a1bd 3db3 8a3b
00000270: b421 903c 4be0 753c b2c0 ff3d a252 2b3d
00000280: 5bb0 2b3d 146b 763e 1ea6 abbd 402b 893c
00000290: 8a2f 9fbd 7702 03bd 57a3 99bc aecd 5bbc
000002a0: 46de 433d 2653 173c d6f7 71bd 4feb 003d
000002b0: 3ad7 a73d aad1 c23a c797 403d dd5f dc3c
000002c0: 985a cdbc eb22 093e 5405 e33d 29b2 d7bd
000002d0: 251a 533d ae6c b3bd 923e 1dbe 7de2 b8bd
000002e0: f4bd bc3c b4b4 eabb 720f 72bd edc7 d53c
000002f0: cf68 24bc fb61 ad3d 2c96 393b 0f0f 4abe
00000300: 987f 00be 2f56 df3d 5bf5 03be e65e e53d
00000310: f208 54bd 1e0f 773d 0793 c2bd a758 02bd
00000320: f3a7 bfbc e357 a43c 212b 383d dee0 6abd
00000330: 7d18 42bd d945 563c 9f31 213d 4b35 2ebe
00000340: c208 e63d 6f86 0bbe 15ee 1dbd 7816 2abd
00000350: 5d49 fe3c 8c50 0bbd b82b 2dbd 9a1a be3d
00000360: ede3 49be bd38 d63c 4762 263d 3ffa c13d
00000370: 098b e7bc 62f5 dc3c 61ce 52bd d58b 9cbb
00000380: 4001 9b3d 6843 753d d879 c93d 1f8f a73a
00000390: 7591 d1bd 70de b0bd ca42 603d d25a f5bd
000003a0: 69c2 18be 70a0 193e aba3 e73c 8c1a a63c
000003b0: 5032 c5bd 2554 cc3c ca64 2cbd cb5e cc3d
000003c0: 3db7 e8bd d496 213e 23d5 efbd c4de 4ebe
000003d0: 2f71 513d 00c6 d7bb c6b8 f93d 667c 303e
000003e0: 8c3f 1f3d 357b 57bd 87f3 04be a009 87bd
000003f0: 5005 b33d 014f 5fbc ebf3 353d 35dc 5cbd

network_body.linear_encoder.seq_layers.2.bias f4 [128]
0.0 0.0 0.0 0.0 0.0 0.0 0.0 0.0
0.0 0.0 0.0 0.0 0.0 0.0 0.0 0.0
0.0 0.0 0.0 0.0 0.0 0.0 0.0 0.0
0.0 0.0 0.0 0.0 0.0 0.0 0.0 0.0
0.0 0.0 0.0 0.0 0.0 0.0 0.0 0.0
0.0 0.0 0.0 0.0 0.0 0.0 0.0 0.0
0.0 0.0 0.0 0.0 0.0 0.0 0.0 0.0
0.0 0.0 0.0 0.0 0.0 0.0 0.0 0.0
0.0 0.0 0.0 0.0 0.0 0.0 0.0 0.0
0.0 0.0 0.0 0.0 0.0 0.0 0.0 0.0
0.0 0.0 0.0 0.0 0.0 0.0 0.0 0.0
0.0 0.0 0.0 0.0 0.0 0.0 0.0 0.0
0.0 0.0 0.0 0.0 0.0 0.0 0.0 0.0
0.0 0.0 0.0 0.0 0.0 0.0 0.0 0.0
0.0 0.0 0.0 0.0 0.0 0.0 0.0 0.0
0.0 0.0 0.0 0.0 0.0 0.0 0.0 0.0
00000000: 0000 0000 0000 0000 0000 0000 0000 0000
00000010: 0000 0000 0000 0000 0000 0000 0000 0000
00000020: 0000 0000 0000 0000 0000 0000 0000 0000
00000030: 0000 0000 0000 0000 0000 0000 0000 0000
00000040: 0000 0000 0000 0000 0000 0000 0000 0000
00000050: 0000 0000 0000 0000 0000 0000 0000 0000
00000060: 0000 0000 0000 0000 0000 0000 0000 0000
00000070: 0000 0000 0000 0000 0000 0000 0000 0000
00000080: 0000 0000 0000 0000 0000 0000 0000 0000
00000090: 0000 0000 0000 0000 0000 0000 0000 0000
000000a0: 0000 0000 0000 0000 0000 0000 0000 0000
000000b0: 0000 0000 0000 0000 0000 0000 0000 0000
000000c0: 0000 0000 0000 0000 0000 0000 0000 0000
000000d0: 0000 0000 0000 0000 0000 0000 0000 0000
000000e0: 0000 0000 0000 0000 0000 0000 0000 0000
000000f0: 0000 0000 0000 0000 0000 0000 0000 0000
00000100: 0000 0000 0000 0000 0000 0000 0000 0000
00000110: 0000 0000 0000 0000 0000 0000 0000 0000
00000120: 0000 0000 0000 0000 0000 0000 0000 0000
00000130: 0000 0000 0000 0000 0000 0000 0000 0000
00000140: 0000 0000 0000 0000 0000 0000 0000 0000
00000150: 0000 0000 0000 0000 0000 0000 0000 0000
00000160: 0000 0000 0000 0000 0000 0000 0000 0000
00000170: 0000 0000 0000 0000 0000 0000 0000 0000
00000180: 0000 0000 0000 0000 0000 0000 0000 0000
00000190: 0000 0000 0000 0000 0000 0000 0000 0000
000001a0: 0000 0000 0000 0000 0000 0000 0000 0000
000001b0: 0000 0000 0000 0000 0000 0000 0000 0000
000001c0: 0000 0000 0000 0000 0000 0000 0000 0000
000001d0: 0000 0000 0000 0000 0000 0000 0000 0000
000001e0: 0000 0000 0000 0000 0000 0000 0000 0000
000001f0: 0000 0000 0000 0000 0000 0000 0000 0000

action_model._discrete_distribution.branches.0.weight f4 [11, 128]
0.0013072273 1.994203e-05 0.0047799624 -0.0047847 -0.0106540695 -0.017094117 0.005166048 0.0019952434
0.0013224402 0.0042548063 0.008395768 0.009021352 -0.00024855946 0.007413704 -0.0045159394 0.01142552
0.0038251993 -0.00093326264 -0.009078487 0.01121513 -0.001149446 -0.002961082 0.0032089506 0.0027108577
0.020583572 0.005873473 -0.0018744123 0.004731937 0.0011547556 0.0031928632 -0.0022749612 0.0018253255
0.0016378794 0.0020071734 -0.010301269 0.008830902 -0.004539521 -0.011191798 -0.006193794 0.00021925545
-0.0048276186 0.0036407844 0.0025218185 0.003788707 -0.0021445488 0.0056579174 0.015687216 -0.008235753
-0.014938843 -0.0004400631 -0.0051434184 -0.010636755 -0.0027819597 0.0140969055 -0.0042856177 -0.008058945
0.012036312 0.0069141886 -0.008069989 0.0137425605 -0.006852291 0.016528782 -0.016732903 -0.014929024
0.0077158096 -0.00617684 -0.0067764707 0.013090655 0.005866787 0.0068063447 0.003782546 0.0047155223
-0.009305962 0.007489702 -0.00044568648 -0.0055677798 0.00060831005 -0.0045486293 -0.011810738 -0.006126191
-0.010280689 -0.0056363116 0.008502481 -0.0024013163 0.005790412 0.0071626925 0.0034370609 -0.000758818
0.014902337 0.005814714 0.009230207 0.011733634 -0.008394207 0.008303961 0.006845027 -0.007125471
0.00077950186 -0.00043704786 -0.010621399 -0.001990032 -0.00993015 0.017650275 -0.009059507 -0.0022686261
0.0008132276 -0.0071980953 0.011872622 0.0015437286 0.015489928 0.010034036 0.011465638 0.01689044
0.0055523235 -0.0035250373 -0.011331764 1.5474752e-05 0.006179761 -0.01924841 0.003627138 0.013920411
0.005953532 -0.006939757 0.0047852523 -0.0063707666 -0.0049026827 0.005055552 -0.012940747 0.008478832
-0.0069468045 0.0007741658 0.011238667 -0.0049681826 -0.005180855 -0.0073679234 0.010382924 -0.0019452687
0.009140811 0.005072988 0.016452985 -0.009710835 -0.00819578 -0.01091512 0.0007335143 0.009457708
-0.022668691 -0.0074340315 -0.0065037347 0.0057677072 -0.0035484068 0.0026070864 -0.015806915 -0.0066349446
0.009166344 0.015119239 -0.0048847944 -0.00028134484 -0.004224551 -0.012690614 -0.004501806 -0.0070379064
0.012095452 0.0009356811 0.011637401 -0.009993788 0.002830575 -0.0046698838 -0.0005713889 0.00028563436
-0.004603733 -0.003154312 0.012640891 -0.0013467598 -0.0028460887 0.0025110014 0.009978546 -3.7129877e-05
0.006212659 -0.0032754359 0.020034952 0.004731208 -0.000810609 0.0076354514 -0.0074843727 -0.0050840913
0.0055197426 0.007375728 0.0052357735 -0.0042849537 0.0060560866 0.004597489 -0.00047276772 -0.0037381984
-0.007527406 -0.0008130087 0.017797792 0.006588003 0.005734609 0.0041436083 -0.008551999 -0.0061711255
-0.0010126476 -0.0063877786 -0.0057674693 -0.008047461 0.012221709 -0.0048868344 0.0014878251 -0.0050356183
0.022176078 0.014415222 -0.00090220274 0.010479304 -0.005420506 0.012155911 0.0077411956 0.0005631898
-0.015603485 0.00024412111 -0.0010012512 -0.00091276004 0.008114322 -0.0042831167 -0.0076701576 -0.006597818
0.0041131484 0.014597947 0.017964024 -0.0025454091 -0.0066415444 0.0073416517 -0.007668131 -0.0054446748
0.010846565 0.00859437 0.0069240406 0.011261963 -0.0010370469 4.346186e-05 0.016929459 0.0155688375
-0.0074790716 -0.0037366326 -0.008140441 0.0024975676 -7.4175725e-05 -0.00674146 0.006952318 -1.884172e-05
0.004393159 -0.00057769107 -0.0054230075 0.0075783157 0.0060154037 -0.0033714015 0.009072644 0.007612228
00000000: 4557 ab3a 2f49 a737 3ba1 9c3b f9c8 9cbb
00000010: 688e 2ebc f608 8cbc f447 a93b a1c2 023b
00000020: bb55 ad3a e76b 8b3b 678e 093c 4bce 133c
00000030: 1651 82b9 a8ee f23b 72fa 93bb 1b32 3b3c
00000040: 32b0 7a3b 32a6 74ba efbd 14bc aabf 373c
00000050: 02a9 96ba b60e 42bb 424d 523b a5a8 313b
00000060: e19e a83c 4376 c03b d7ae f5ba 5d0e 9b3b
00000070: 2b5b 973a 5b3f 513b 8417 15bb c33f ef3a
00000080: 1dae d63a c88a 033b a7c6 28bc 7daf 103c
00000090: 43c0 94bb ce5d 37bc 4ff5 cabb f0e7 6539
000000a0: 0031 9ebb 3a9a 6e3b 1845 253b f54b 783b
000000b0: 8f8b 0cbb 0d66 b93b 7a82 803c 40ef 06bc
000000c0: 0dc2 74bc 45b8 e6b9 1f8a a8bb c945 2ebc
000000d0: 8a51 36bb b5f6 663c 5e6e 8cbb aa09 04bc
000000e0: f433 453c 6b90 e23b fd37 04bc 7a28 613c
000000f0: 2f89 e0bb 5e67 873c 7113 89bc dd98 74bc
00000100: e7d4 fc3b 1767 cabb 280d debb 307a 563c
00000110: 2d3e c03b c207 df3b 97e4 773b ab84 9a3b
00000120: 0978 18bc 2d6c f53b 07ab e9b9 ec71 b6bb
00000130: ff76 1f3a ab0c 95bb d381 41bc 37be c8bb
00000140: 5670 28bc cfb0 b8bb fd4d 0b3c 675f 1dbb
00000150: 7fbd bd3b 05b5 ea3b 5040 613b 6aeb 46ba
00000160: ef28 743c 5b89 be3b 4b3a 173c 6e3e 403c
00000170: db87 09bc 560d 083c 404c e03b c87c e9bb
00000180: 7c57 4c3a 9223 e5b9 6005 2ebc 326b 02bb
00000190: 11b2 22bc 4f97 903c 546e 14bc 3bad 14bb
000001a0: c82e 553a 00de ebbb 6385 423c f056 ca3a
000001b0: 78c9 7d3c cc65 243c 5fda 3b3c d25d 8a3c
000001c0: 44f0 b53b 5004 67bb dda8 39bc c7cf 8137
000001d0: 987f ca3b d7ae 9dbc 47b5 6d3b 6f12 643c
000001e0: d915 c33b e766 e3bb 9bcd 9c3b ddc1 d0bb
000001f0: afa6 a0bb 0ba9 a53b 6d05 54bc cdea 0a3c
00000200: 05a2 e3bb 63f1 4a3a 6322 383c 23cc a2bb
00000210: 29c4 a9bb 9f6e f1bb 241d 2a3c 63f8 feba
00000220: 57c3 153c 4f3b a63b 69c8 863c 321a 1fbc
00000230: 9847 06bc 55d5 32bc 5049 403a 81f4 1a3c
00000240: b1b3 b9bc 2d99 f3bb 481d d5bb 09ff bc3b
00000250: 638c 68bb a7db 2a3b 817d 81bc f369 d9bb
00000260: 6f2e 163c afb6 773c a010 a0bb 7781 93b9
00000270: 1a6e 8abb 4bec 4fbc e383 93bb 3d9e e6bb
00000280: 012c 463c 7f48 753a ccaa 3e3c fcbc 23bc
00000290: 2b81 393b d305 99bb 43c9 15ba 32c1 9539
000002a0: e9da 96bb 93b8 4ebb bd1b 4f3c c385 b0ba
000002b0: 7285 3abb 9d8f 243b 0e7d 233c e7bb 1bb8
000002c0: 9093 cb3b b2a8 56bb 5720 a43c 4008 9b3b
000002d0: 0d7f 54ba cf32 fa3b 783f f5bb 7398 a6bb
000002e0: f5de b43b 17b0 f13b da90 ab3b cc68 8cbb
000002f0: 2372 c63b 88a6 963b cfdd f7b9 90fc 74bb
00000300: 75a8 f6bb 1720 55ba adcc 913c 2de0 d73b
00000310: 63e9 bb3b 1bc7 873b af1d 0cbc 2737 cabb
00000320: d1ba 84ba 9250 d1bb 0afd bcbb 7fd9 03bc
00000330: 903d 483c bd21 a0bb 2003 c33a d401 a5bb
00000340: 9baa b53c d32d 6c3c cd81 6cba 63b1 2b3c
00000350: 809e b1bb 9629 473c dba9 fd3b 07a3 133a
00000360: c2a5 7fbc c3fa 7f39 6a3c 83ba 4a46 6fba
00000370: eff1 043c 6359 8cbb f255 fbbb 8232 d8bb
00000380: 97c7 863b 3a2c 6f3c 4a29 933c e1d0 26bb
00000390: 50a1 d9bb 3d92 f03b f244 fbbb 3e69 b2bb
000003a0: cab5 313c 67cf 0c3c 10e3 e23b 1984 383c
000003b0: 85ed 87ba d14a 3638 a6af 8a3c 7014 7f3c
000003c0: 0013 f5bb 4be2 74bb 7c5f 05bc 3bae 233b
000003d0: ca8e 9bb8 77e7 dcbb 45d0 e33b 490e 9eb7
000003e0: 7df4 8f3b 3170 17ba 7cb3 b1bb 8553 f83b
000003f0: dd1c c53b bbf2 5cbb 6da5 143c ff6f f93b

action_model._discrete_distribution.branches.0.bias f4 [11]
0.0 0.0 0.0 0.0 0.0 0.0 0.0 0.0
0.0 0.0 0.0
00000000: 0000 0000 0000 0000 0000 0000 0000 0000
00000010: 0000 0000 0000 0000 0000 0000 0000 0000
00000020: 0000 0000 0000 0000 0000 0000

action_model._discrete_distribution.branches.1.weight f4 [29, 128]
-0.0044962964 -0.014044233 -0.0022081602 -0.011698137 0.0024729432 -0.015772445 -0.009713735 -0.0044273487
-0.0022445733 0.004861292 0.0012497252 -0.007138838 -0.01015105 0.0021471423 0.0045289057 0.0020725827
-0.006242789 0.001289769 0.008505183 -0.0019981056 -0.0056756833 -0.008981942 0.0035117406 -0.00051930745
-0.0026140655 0.017983574 -0.0052472553 0.0017509053 0.006318749 -0.001994343 0.003535134 0.0003891822
-0.0018126218 -0.0005789019 -0.00070579833 -0.005188526 0.0032737062 0.009239561 -0.004646807 -0.0078782225
0.0036263985 0.0038976108 0.017633704 -0.01571591 -0.010896931 -0.004892096 0.008283787 0.0007656115
0.0029496036 -0.008686509 -0.0031364043 0.012373331 0.008872328 0.010606999 -0.001073311 0.0043095793
0.0059768627 0.006616905 -0.009384294 -0.00018086539 -0.0040084287 0.006151886 0.018452143 -0.005627834
0.0022088343 0.01914552 0.0010305849 0.0051656663 0.0037173163 0.012289292 -0.002927154 -0.013001929
0.0032815423 0.00023554357 -0.013765462 0.002334596 -0.00044743202 0.011342257 -0.00023143626 -0.00073667354
-0.0013293709 -0.001784657 0.0020184375 -0.010146006 -0.0070386454 -0.0075290888 0.003149451 -0.0010125336
-0.0014401386 0.01332147 0.0061361953 -0.011745959 -0.0052237767 0.005321156 0.015181971 0.0012495697
-0.012273279 0.010632971 -0.0086925505 0.009823634 0.007190483 -0.0023891574 -0.0059731514 0.009312939
0.0033449808 -0.00057636347 0.0021110647 0.014982815 -0.010414966 0.004932213 -0.00022246245 -0.014362114
0.008351664 -0.0005109535 -0.014743206 0.010394304 -0.017160026 -0.009678569 -0.006960889 0.011937692
-0.005381148 0.017480223 0.008037616 -0.0047083246 0.0005975161 0.0041958196 -0.0014829122 0.0023567595
-0.0024321158 0.011274293 -0.030047853 -0.009852405 -0.015961869 0.000127066 -0.011816791 -0.0009106737
-0.007138786 0.0021296085 -0.008910184 0.0073481263 0.0038858762 0.01057946 0.0031679645 0.0039463863
0.00703868 0.0014520384 0.011728199 0.005408554 0.002789491 -0.008070445 -0.021982018 -0.0020236312
0.012369859 0.0057965033 -0.0057511763 0.019876081 0.0033816532 -0.034115415 -0.0067410776 -0.003551495
-0.008619412 -0.008075389 -0.0039274874 -0.011249097 -0.008485661 -0.0043689567 0.01472123 0.003994521
-0.005629314 0.005352698 0.005807042 0.00942358 0.007612006 0.0059173205 -0.020458331 -0.007619157
0.008856765 -0.0044091903 0.008988054 0.000622105 0.014677189 0.0078788055 0.0011003511 0.00027371207
0.017753607 0.004109222 0.009011823 -0.00019883476 0.001758763 0.0014268148 -0.0003853717 0.00548008
-0.015149809 0.008344363 0.0014473594 -0.00094154105 -0.0006342129 -0.004383509 -0.010078061 -0.01000593
-0.015915116 -0.0071059847 -0.007353391 0.009536519 -0.007449017 0.007504729 0.003393126 -0.0008081989
0.0026285278 -0.009192246 -0.0057483427 -0.0119708525 -0.007149581 -0.006531834 -0.0068988614 -0.0065231747
-0.00089411635 -0.012228519 -0.006093916 0.002609384 0.021986825 -0.0027893407 0.00924567 -0.005011483
-0.008940302 -0.0066769063 -0.009876784 -0.009708388 0.0005139675 0.024764873 0.013314678 -0.0056041917
0.0014359736 -0.00031470013 0.010735373 0.011596352 -0.007871722 0.0038399994 -0.0018899508 0.0132426275
-0.0055908314 -0.004731044 -0.0046780086 0.0052492046 0.0009972596 -0.014372337 -0.007149557 0.006507225
0.015974231 -0.015478204 0.0051455405 -0.004287507 0.010969995 -0.0019552396 0.0030772262 -0.0045442027
00000000: ab55 93bb c819 66bc c8b6 10bb 8ba9 3fbc
00000010: 1a11 223b 3735 81bc 5c26 1fbc 4b13 91bb
00000020: b119 13bb 794b 9f3b d2cd a33a eaec e9bb
00000030: 9750 26bc 12b7 0c3b 3767 943b 2bd4 073b
00000040: 4f90 ccbb 770d a93a 5359 0b3c a6f2 02bb
00000050: 15fb b9bb ff28 13bc 3b25 663b 2222 08ba
00000060: be50 2bbb 4a52 933c 2bf1 abbb a27e e53a
00000070: 820d cf3b 86b3 02bb b5ad 673b 270b cc39
00000080: 7f95 edba 73c1 17ba 5305 39ba 8304 aabb
00000090: ad8b 563b 8761 173c 3e44 98bb a913 01bc
000000a0: dfa8 6d3b 0f6f 7f3b 8f74 903c a7be 80bc
000000b0: 0b89 32bc e04d a0bb b9b8 073c 51b3 483a
000000c0: 234e 413b dc51 0ebc 228c 4dbb 83b9 4a3c
000000d0: 3e5d 113c fac8 2d3c 57ae 8cba 5f37 8d3b
000000e0: 8fd9 c33b 9fd2 d83b 95c0 19bc afa6 3db9
000000f0: 2359 83bb c395 c93b f328 973c b169 b8bb
00000100: 17c2 103b 11d7 9c3c b114 873a c044 a93b
00000110: 389e 733b 0759 493c 7fd5 3fbb 0b06 55bc
00000120: 250f 573b 3ffc 7639 8888 61bc 0500 193b
00000130: 4f95 eab9 e0d4 393c b3ad 72b9 531d 41ba
00000140: 493e aeba 27eb e9ba c347 043b 6f3b 26bc
00000150: 70a4 e6bb 93b6 f6bb 0567 4e3b fdb6 84ba
00000160: 08c3 bcba 4b42 5a3c 2312 c93b 1f72 40bc
00000170: 372c abbb 175d ae3b cdbd 783c 9ac8 a33a
00000180: dd15 49bc ea35 2e3c 336b 0ebc 4ff3 203c
00000190: 259e eb3b 6993 1cbb 6dba c3bb 4c95 183c
000001a0: 7737 5b3b 1917 17ba ca59 0a3b 7b7a 753c
000001b0: 89a3 2abc 679e a13b cf44 69b9 124f 6bbc
000001c0: 6bd5 083c 82f1 05ba 7d8d 71bc df4c 2a3c
000001d0: 2f93 8cbc dc92 1ebc 2b18 e4bb 4f96 433c
000001e0: 5754 b0bb af32 8f3c 34b0 033c 4a48 9abb
000001f0: a0a2 1c3a 167d 893b 475e c2ba dd73 1a3b
00000200: 2264 1fbb d0b7 383c ea26 f6bc fb6b 21bc
00000210: 77c2 82bc 053d 0539 379b 41bc 47ba 6eba
00000220: 7aec e9bb e790 0b3b 05fc 11bc 8dc8 f03b
00000230: 2faa 7e3b 7955 2d3c a09d 4f3b b050 813b
00000240: baa4 e63b 5352 be3a a227 403c 3d3a b13b
00000250: e5cf 363b e639 04bc a213 b4bc e69e 04bb
00000260: f3aa 4a3c 98f0 bd3b 5d74 bcbb 2ad3 a23c
00000270: ba9e 5d3b 9bbc 0bbd 42e4 dcbb 33c0 68bb
00000280: 6f38 0dbc a34e 04bc 27b2 80bb 224e 38bc
00000290: 7107 0bbc 7729 8fbb 5031 713c 79e4 823b
000002a0: 1c76 b8bb af65 af3b 0049 be3b 5c65 1a3c
000002b0: 226e f93b 15e6 c13b 3b98 a7bc 1faa f9bb
000002c0: f71b 113c f87a 90bb a142 133c c314 233a
000002d0: 9878 703c 1b16 013c a839 903a 0381 8f39
000002e0: 0370 913c a7a6 863b 53a6 133c 4d7e 50b9
000002f0: 4b86 e63a f603 bb3a b70b cab9 3e92 b33b
00000300: e836 78bc ccb6 083c 53b5 bd3a c0d1 76ba
00000310: 4f41 26ba 8aa3 8fbb 741e 25bc eaef 23bc
00000320: 6b60 82bc 52d9 e8bb b7f4 f0bb 0f3f 1c3c
00000330: e216 f4bb 3bea f53b 355f 5e3b 4fdd 53ba
00000340: 6143 2c3b 139b 16bc 985c bcbb 6521 44bc
00000350: 0847 eabb ff08 d6bb d80f e2bb 5bc0 d5bb
00000360: 2263 6aba 205a 48bc 79af c7bb 3302 2b3b
00000370: b71d b43c 5fcd 36bb 277b 173c 5e37 a4bb
00000380: 587a 12bc f3c9 dabb 3cd2 21bc ee0f 1fbc
00000390: c6bb 063a b4df ca3c cf25 5a3c 5ea3 b7bb
000003a0: 4737 bc3a 56fe a4b9 6be3 2f3c a0fe 3d3c
000003b0: 65f8 00bc 80a8 7b3b 3ab8 f7ba 9bf7 583c
000003c0: 4b33 b7bb e006 9bbb fb49 99bb 8501 ac3b
000003d0: 7bb6 823a f379 6bbc d546 eabb 8f3a d53b
000003e0: 64dc 823c 4b98 7dbc ec9b a83b 377e 8cbb
000003f0: 7ebb 333c 7a23 00bb 4aab 493b 89e7 94bb

action_model._discrete_distribution.branches.1.bias f4 [29]
0.0 0.0 0.0 0.0 0.0 0.0 0.0 0.0
0.0 0.0 0.0 0.0 0.0 0.0 0.0 0.0
0.0 0.0 0.0 0.0 0.0 0.0 0.0 0.0
0.0 0.0 0.0 0.0 0.0
00000000: 0000 0000 0000 0000 0000 0000 0000 0000
00000010: 0000 0000 0000 0000 0000 0000 0000 0000
00000020: 0000 0000 0000 0000 0000 0000 0000 0000
00000030: 0000 0000 0000 0000 0000 0000 0000 0000
00000040: 0000 0000 0000 0000 0000 0000 0000 0000
00000050: 0000 0000 0000 0000 0000 0000 0000 0000
00000060: 0000 0000 0000 0000 0000 0000 0000 0000
00000070: 0000 0000

action_model._discrete_distribution.branches.2.weight f4 [29, 128]
0.005725543 -0.0030263306 0.002089886 0.010126258 -0.008070285 0.005422999 0.012463617 0.001529789
-0.0031554382 0.008436773 -0.0037261464 -0.017848246 0.0074149477 0.00025912697 -0.002486791 -0.014431124
0.004348866 0.005572003 -0.009464986 -0.010797062 -0.0075033135 -0.0044335467 -0.01307296 -0.017289279
-0.002535486 0.0028653832 0.003550423 -0.014198422 -0.0019255392 0.0025816502 -0.011831014 0.00646018
0.020177983 0.008814485 0.0029789621 -0.004105856 -0.017174585 -0.002036418 -0.012505367 0.0025927387
0.002341639 0.008890766 0.0027542282 -0.011676478 -0.0045083268 0.00305127 0.0034608615 0.0040867995
0.0040274486 0.009235706 0.0051446436 0.0038452519 -0.008400247 -0.004542298 -0.0022318058 -0.010358356
0.007523769 0.013186321 -0.013576607 -0.0048142695 -0.009299616 0.0045339516 -0.005890478 -0.0050144573
-0.004535961 0.008189581 -0.0036018647 -0.00137359 0.013674663 0.0011678695 -0.0028997913 0.014411493
-0.000902183 0.001425138 0.0009549171 -0.003994757 -0.003438855 0.0016436412 -0.004516232 0.0031220948
0.0019133227 0.0055985674 -0.0022363297 0.015559139 -0.009746152 -0.0012588565 -0.0100888265 -0.0022947178
-0.022962755 0.0007287965 -0.0044630016 -0.0039627594 -0.008854235 -0.00071340956 -0.016602961 0.0015573909
0.01284554 -0.005562364 0.0007104009 0.006289869 -0.011932484 0.0047105276 0.0026382855 0.00042231643
0.013626567 0.0021779747 0.0073693967 0.007911195 0.0007671034 0.01173834 0.0013991527 -0.005349501
-0.0007283857 0.002135614 -0.01187252 -0.0068535716 -7.616809e-05 -0.0019174591 -0.005576094 0.004699636
-0.0021605063 0.0020101403 0.00810979 0.011433008 0.0029733777 0.008181806 -0.0070637423 0.020036655
0.0036808753 2.9884905e-05 0.0041367547 -0.004398075 -0.010274073 0.01192104 -0.003524713 -0.0029513303
-0.015803823 -0.0052445508 0.009200656 -0.014361411 0.0044375258 -0.018676808 0.012754137 -0.006069178
0.008138918 0.0054522827 0.0027191213 -0.013860804 0.0049150046 0.022927936 -7.516204e-05 -0.01165308
-0.0018323724 0.010042093 -0.00011814018 0.008149191 -0.003074153 0.00062448275 0.013371508 -0.010762935
0.009731005 -0.0013939228 -0.0055042654 -0.0061385026 0.0120085925 -0.0016166872 -0.001438396 -0.02500462
0.0032678812 0.004851701 -0.021039305 0.0030167939 -0.0068515004 -0.0003942414 -0.012780136 -0.0005377587
-0.0021004064 -0.009389992 -0.0017420499 -0.005524739 -0.011258023 0.0064849877 0.0036411216 -0.0070184986
-0.0014871875 -0.018662738 -0.0025516318 -0.008442961 -0.006471265 0.011195555 -0.006069348 -0.00073712383
-0.014275006 0.003517427 -0.0071726083 0.006324824 0.008883778 0.008899832 0.0026091554 0.01688721
-0.0011569053 0.00085428025 -2.8839626e-05 0.0108253285 -0.0031392218 -0.0015584201 -0.0021813654 -0.009718911
-0.0051776934 0.01373445 0.0044723805 0.002243093 0.0001016267 0.0040826993 0.01720322 -0.0001130373
-0.0026503194 0.006409819 0.0007388857 -0.014655927 -0.00984428 0.0007239145 -0.011002895 0.0032008
0.0010985326 -0.0063420394 -0.013332876 -0.0063379044 -0.006410233 -0.00056717003 -0.008819323 -0.0049701664
-0.0013451803 0.008191305 0.014466113 -0.008030528 0.0076551843 0.00045588697 0.009124826 -0.001611849
-0.008538815 0.010278462 0.0034830533 -0.0015747326 -0.0013035465 -0.007207624 0.00038918082 0.00650313
0.012963319 -0.006022675 -0.00975163 -0.0018110186 -0.0029362799 -0.00052715564 -0.0046204044 -0.002247968
00000000: 569d bb3b 6755 46bb 78f6 083b 9be8 253c
00000010: 3b39 04bc 6ab3 b13b 3334 4c3c 3383 c83a
00000020: 78cb 4ebb 643a 0a3c 5d32 74bb 7c36 92bc
00000030: 17f9 f23b 6fdb 8739 6ef9 22bb 8570 6cbc
00000040: ef80 8e3b 5995 b63b 0713 1bbc 29e6 30bc
00000050: 5bde f5bb 4947 91bb f82f 56bc 3fa2 8dbc
00000060: 652a 26bb 27c9 3b3b 37ae 683b 80a0 68bc
00000070: 6062 fcba e730 293b dfd6 41bc ebaf d33b
00000080: 4c4c a53c a16a 103c b13a 433b 6b8a 86bb
00000090: b7b1 8cbc 6d75 05bb 50e3 4cbc f0ea 293b
000000a0: 2f76 193b 93aa 113c 4880 343b b34e 3fbc
000000b0: 96ba 93bb d1f7 473b 9fcf 623b 8fea 853b
000000c0: b0f8 833b 5c51 173c 6694 a83b 9f00 7c3b
000000d0: 31a1 09bc 8fd7 94bb 7d43 12bb 18b6 29bc
000000e0: f389 f63b 700b 583c 6b70 5ebc 05c1 9dbb
000000f0: 6b5d 18bc 8b91 943b e904 c1bb 5150 a4bb
00000100: 66a2 94bb 982d 063c 430d 6cbb 080a b4ba
00000110: b20b 603c 3313 993a 6d0a 3ebb 2f1e 6c3c
00000120: 7a80 6cba b2cb ba3a 6753 7a3a 73e6 82bb
00000130: 6a5e 61bb 726f d73a e6fc 93bb 0f9c 4c3b
00000140: 75c8 fa3a 3074 b73b 638f 12bb c2eb 7e3c
00000150: 53ae 1fbc 3700 a5ba 9b4b 25bc fa62 16bb
00000160: 631c bcbc b50c 3f3a 5f3e 92bb 09da 81bb
00000170: 5a11 11bc 1b04 3bba ef02 88bc 5e21 cc3a
00000180: 1a76 523c 7e44 b6bb 333a 3a3a 3f1b ce3b
00000190: 7780 43bc c55a 9a3b 16e7 2c3b 5a6a dd39
000001a0: f741 5f3c 5abc 0e3b fb7a f13b f59d 013c
000001b0: 7017 493a 2b52 403c c663 b73a de4a afbb
000001c0: 23f1 3eba a8f5 0b3b f584 42bc ed93 e0bb
000001d0: 6fbc 9fb8 4053 fbba abb7 b6bb 67ff 993b
000001e0: 4897 0dbb 8fbc 033b edde 043c 8351 3b3c
000001f0: 00dd 423b fb0c 063c f776 e7bb e923 a43c
00000200: d73a 713b 58b1 fa37 9d8d 873b ba1d 90bb
00000210: 9654 28bc 7750 433c dffe 66bb 1b6b 41bb
00000220: 0577 81bc 7bda abbb 59be 163c 204c 6bbc
00000230: aa68 913b 1b00 99bc baf6 503c f5df c6bb
00000240: 1959 053c 10a9 b23b 4933 323b 6d18 63bc
00000250: 0c0e a13b 5ed3 bb3c 50a0 9db8 8fec 3ebc
00000260: 372c f0ba 9787 243c 07c2 f7b8 2f84 053c
00000270: bb77 49bb 54b4 233a 2b14 5b3c 0557 30bc
00000280: cb6e 1f3c 4ab4 b6ba 205d b4bb 7e25 c9bb
00000290: b0bf 443c 05e7 d3ba 9088 bcba 7dd6 ccbc
000002a0: f329 563b 05fb 9e3b 9f5a acbc 67b5 453b
000002b0: 8d82 e0bb 2fb2 ceb9 c763 51bc 60f8 0cba
000002c0: f9a6 09bb 7bd8 19bc 7f55 e4ba df08 b5bb
000002d0: 9273 38bc 0580 d43b e29f 6e3b 6ffb e5bb
000002e0: bbed c2ba 99e2 98bc 4739 27bb 5854 0abc
000002f0: e80c d4bb 906d 373c 62e1 c6bb 8b3b 41ba
00000300: b7e1 69bc a284 663b 3308 ebbb 7840 cf3b
00000310: 448d 113c 9ad0 113c 5dfe 2a3b 0c57 8a3c
00000320: 4da3 97ba c7f1 5f3a a0ec f1b7 b85c 313c
00000330: 67bb 4dbb e743 ccba 3df5 0ebb 113c 1fbc
00000340: a4a9 a9bb 7506 613c 0c8d 923b db00 133b
00000350: 6b20 d538 2ac8 853b c4ed 8c3c 700e edb8
00000360: fbb0 2dbb 7509 d23b c8b1 413a 6a1f 70bc
00000370: e749 21bc 14c5 3d3a 7d45 34bc 83c4 513b
00000380: a3fc 8f3a e2d0 cfbb 2372 5abc 32ae cfbb
00000390: ef0c d2bb 23ae 14ba ec7e 10bc c7dc a2bb
000003a0: c350 b0ba d334 063c 4703 6d3c 7a92 03bc
000003b0: 57d8 fa3b 1d04 ef39 4b80 153c ad44 d3ba
000003c0: 63e6 0bbc ff66 283c f043 643b 4267 ceba
000003d0: c3db aaba ef2d ecbb f70a cc39 3518 d53b
000003e0: 1a64 543c dc59 c5bb 4dc5 1fbc b35f edba
000003f0: 9a6e 40bb d130 0aba c366 97bb a552 13bb

action_model._discrete_distribution.branches.2.bias f4 [29]
0.0 0.0 0.0 0.0 0.0 0.0 0.0 0.0
0.0 0.0 0.0 0.0 0.0 0.0 0.0 0.0
0.0 0.0 0.0 0.0 0.0 0.0 0.0 0.0
0.0 0.0 0.0 0.0 0.0
00000000: 0000 0000 0000 0000 0000 0000 0000 0000
00000010: 0000 0000 0000 0000 0000 0000 0000 0000
00000020: 0000 0000 0000 0000 0000 0000 0000 0000
00000030: 0000 0000 0000 0000 0000 0000 0000 0000
00000040: 0000 0000 0000 0000 0000 0000 0000 0000
00000050: 0000 0000 0000 0000 0000 0000 0000 0000
00000060: 0000 0000 0000 0000 0000 0000 0000 0000
00000070: 0000 0000

action_model._discrete_distribution.branches.3.weight f4 [9, 128]
-0.0040513114 0.011069853 -0.0011220957 0.023755943 0.006918683 -0.014493726 -0.0061146384 -0.005470411
0.017290026 0.00017443394 -0.0016214427 0.008403312 -0.012713367 -0.0025948326 0.0066521987 -0.005679961
-0.00090163806 0.00082071795 -0.0009612284 0.00827299 -0.0024854054 0.00090798986 -0.011574449 0.0038896338
-0.008371082 0.012293627 0.006458475 -0.0070361905 0.0047836737 0.0012273734 -0.018103367 -0.0011635277
0.0070799193 0.0092049595 0.009572652 -0.00926732 0.00027328168 -0.0029238549 -0.011167428 -0.0007724984
-0.0053825635 0.00020685345 -0.016002724 0.012926674 -0.003627531 -0.004572625 -0.01622278 0.012278659
-0.008236736 -0.010780144 0.0017545916 -0.008213552 -0.00015405074 0.008898408 -0.004495652 0.009702533
-0.0008075787 0.0070702354 0.01084816 0.0049142446 0.0052183615 0.005642501 0.0017829261 0.009640004
-0.0015255631 -0.00048560725 0.0071501187 -0.012730749 -0.0012985771 -0.0054933536 0.010047598 -0.008244708
-0.0049088104 0.015205934 -0.010110675 -0.003253482 -0.0058184112 0.0062181423 0.0020115506 0.005707036
0.00085177115 0.0022078159 0.005527628 -0.00047683038 -0.0021269054 0.0001818452 -0.005857025 0.0061529465
-0.0041641365 0.011588641 0.014215848 0.001424935 -0.0075797834 0.0032025245 -0.008705147 0.0071092932
0.0073210495 0.0052186293 0.012149318 -0.0032339492 -0.0014883889 0.0032964372 -0.011164492 0.0042182016
0.0021276819 0.007720577 0.015050706 0.019348463 0.0022080787 -0.005584854 0.008345037 0.0113936355
0.0029382838 0.007870934 -0.0064710076 0.009257219 0.0051203608 -0.013406179 -0.015446288 0.011939697
-0.003510395 0.0060084783 0.018974198 -0.004060546 0.003553714 0.0103875995 -0.0029755489 -0.01397042
-0.0041752844 -0.009848349 0.0032811153 0.0049966597 0.007248778 -0.0025915883 0.006493795 0.007499932
0.0007616989 -0.0074509257 0.0064759473 -0.00885651 0.00434392 -0.0019145639 6.2810075e-05 0.0045955763
-0.008642215 -0.0007928954 -0.011067679 -0.008146476 0.012045312 0.002376723 -0.017579928 -0.008938025
0.0019060184 -0.011297965 0.000441676 0.014038193 -0.003795908 0.006162002 0.013108029 -0.012582398
0.005883312 0.007447365 -0.012492067 -0.009882877 0.0034915772 -0.008782965 -0.00390207 0.0067274417
-0.0077806585 0.008740953 0.0005541576 0.001553161 0.005703936 -0.0009306368 -0.015619089 -8.44254e-05
-0.018347269 0.00040145146 -0.004681379 0.0022879618 0.0033703756 -0.0044087586 -0.0006927215 -0.006924601
-0.0028730428 0.006251622 0.0055534695 -0.006415102 0.012604482 -0.011635343 -0.007799269 0.012271976
-0.0042598075 0.019866185 0.0052719614 0.004299043 0.00020999524 0.013763003 0.008432591 -0.00081717
0.0047387187 0.006357445 -0.0049341894 -0.013942264 0.0047902674 0.004240397 0.0021126135 -0.00051920593
0.010487444 -0.013097832 0.014126315 -0.0064483136 0.0108702 -0.004539165 0.0038252536 -0.0019652343
-0.0009970303 -0.0070528844 0.009341705 0.0039056037 0.010932404 0.013860799 -0.00919921 0.010678819
0.004058431 -0.0083967885 0.011442586 0.0069399546 -0.0041906494 0.014993675 0.0018433332 3.0269157e-05
0.006339582 -0.0026165626 -0.019016013 0.0034352385 -0.00517546 -0.0043449565 0.013751641 0.011135845
-0.009585375 0.003159616 -0.008455867 0.0030341195 -0.00078317354 -0.00087148714 -0.011249498 -0.003699829
-0.004432959 -0.0016045282 -0.006230232 -0.011777933 0.00174628 0.0003848104 -0.0027088337 0.016550673
00000000: ddc0 84bb 545e 353c 4913 93ba d39b c23c
00000010: 1fb6 e23b 1877 6dbc 4e5d c8bb 2241 b3bb
00000020: d0a3 8d3c 41e8 3639 9786 d4ba 0cae 093c
00000030: ba4b 50bc 110e 2abb b0fa d93b f71e babb
00000040: e85b 6cba 7325 573a f2fa 7bba 6f8b 073c
00000050: 2fe2 22bb 2b06 6e3a c2a2 3dbc 3ae9 7e3b
00000060: dd26 09bc 356b 493c 9da1 d33b d88f e6bb
00000070: 5dc0 9c3b d1df a03a 834d 94bc 8381 98ba
00000080: abfe e73b 66d0 163c 9dd6 1c3c f5d5 17bc
00000090: 3f47 8f39 259e 3fbb 97f7 36bc 7d81 4aba
000000a0: 3760 b0bb cde6 5839 2518 83bc 67ca 533c
000000b0: dfbb 6dbb f5d5 95bb a3e5 84bc 6e2c 493c
000000c0: 60f3 06bc 339f 30bc 53fa e53a 2292 06bc
000000d0: ae88 21b9 a1ca 113c 4350 93bb 5ff7 1e3c
000000e0: b0b3 53ba 6fad e73b 7bbc 313c ac07 a13b
000000f0: cafe aa3b bbe4 b83b 13b1 e93a 1bf1 1d3c
00000100: 67f5 c7ba 1a99 feb9 8b4b ea3b a294 50bc
00000110: 0435 aaba 9701 b4bb ae9e 243c d014 07bc
00000120: 16da a0bb 4f22 793c 3fa7 25bc 5f38 55bb
00000130: 5fa8 bebb 8fc1 cb3b 38d4 033b 1602 bb3b
00000140: 6549 5f3a 01b1 103b 1b21 b53b 17ff f9b9
00000150: 8d63 0bbb b3ad 3e39 49ec bfbb a89e c93b
00000160: 4f73 88bb 49de 3d3c 97e9 683c e2c4 ba3a
00000170: d55f f8bb 72e1 513b 08a0 0ebc 13f5 e83b
00000180: 6ae5 ef3b 0901 ab3b ef0d 473c aaf0 53bb
00000190: 0b16 c3ba 0a09 583b 46eb 36bc d738 8a3b
000001a0: 9470 0b3b e5fc fc3b 3d97 763c ab80 9e3c
000001b0: 6ab5 103b 2701 b7bb 9fb9 083c 5fac 3a3c
000001c0: 3990 403b 17f5 003c bf0a d4bb 97ab 173c
000001d0: b3c8 a73b 97a5 5bbc 6d12 7dbc b89e 433c
000001e0: a80e 66bb c5e2 c43b c76f 9b3c 540e 85bb
000001f0: 6de5 683b c030 2a3c 6d01 43bb 30e4 64bc
00000200: d3d0 88bb f85a 21bc fb07 573b 05bb a33b
00000210: 2887 ed3b a3d7 29bb e7c9 d43b fdc1 f53b
00000220: bfac 473a e526 f4bb 2f34 d43b e51a 11bc
00000230: 7157 8e3b 1bf2 faba e7b8 8338 7d96 963b
00000240: 1498 0dbc 4fda 4fba 3655 35bc cc78 05bc
00000250: b359 453c ccc2 1b3b c803 90bc cb70 12bc
00000260: 5dd3 f93a 1a1b 39bc c090 e739 7300 663c
00000270: c5c4 78bb 9fea c93b 0fc3 563c 6726 4ebc
00000280: ccc8 c03b 0709 f43b 87ab 4cbc caeb 21bc
00000290: f2d2 643b 6de6 0fbc dfb9 7fbb df71 dc3b
000002a0: e5f4 febb 3736 0f3c e344 113a 6f93 cb3a
000002b0: 15e8 ba3b faf5 73ba 35e7 7fbc 8b0d b1b8
000002c0: 034d 96bc e779 d239 4166 99bb a1f1 153b
000002d0: 85e1 5c3b 5977 90bb c197 35ba c3e7 e2bb
000002e0: a949 3cbb 68da cc3b e1f9 b53b c735 d2bb
000002f0: 0783 4e3c 2aa2 3ebc 0391 ffbb 6610 493c
00000300: db95 8bbb 69be a23c 6bc0 ac3b fdde 8c3b
00000310: 2b32 5c39 387e 613c da28 0a3c 5a37 56ba
00000320: 4147 9b3b 1d52 d03b fbae a1bb 186e 64bc
00000330: adf7 9c3b 07f3 8a3b c673 0a3b 521b 08ba
00000340: 87d3 2b3c 4a98 56bc 0f72 673c 604c d3bb
00000350: ec18 323c 47bd 94bb 1bb1 7a3b 29cb 00bb
00000360: c9ae 82ba e21b e7bb f30d 193c 28f5 7f3b
00000370: d31d 333c 6818 633c 49b8 16bc 37f6 2e3c
00000380: 96fc 843b af92 09bc af79 3b3c 8f68 e33b
00000390: b751 89bb 08a8 753c 009c f13a 85ea fd37
000003a0: 45bc cf3b a37a 2bbb 78c7 9bbc bd21 613b
000003b0: e896 a9bb 2360 8ebb 904e 613c 1f73 363c
000003c0: fa0b 1dbc 8f11 4f3b 7a8a 0abc 14d8 463b
000003d0: e34d 4dba 8374 64ba d14f 38bc d578 72bb
000003e0: 5b42 91bb 084f d2ba f926 ccbb 3bf8 40bc
000003f0: 6fe3 e43a 61c0 c939 b086 31bb 4795 873c

action_model._discrete_distribution.branches.3.bias f4 [9]
0.0 0.0 0.0 0.0 0.0 0.0 0.0 0.0
0.0
00000000: 0000 0000 0000 0000 0000 0000 0000 0000
00000010: 0000 0000 0000 0000 0000 0000 0000 0000
00000020: 0000 0000
