results/ppo/BadChessPlayer/BadChessPlayer-6373.onnx (onnx, 531034 bytes, 42 tensors)

action_model._discrete_distribution.branches.0.bias f4 [11]
000000 00 00 00 00 00 00 00 00 00 00 00 00 00 00 00 00
       0.0 0.0 0.0 0.0
000010 00 00 00 00 00 00 00 00 00 00 00 00 00 00 00 00
       0.0 0.0 0.0 0.0
000020 00 00 00 00 00 00 00 00 00 00 00 00
       0.0 0.0 0.0

action_model._discrete_distribution.branches.0.weight f4 [11, 128]
000000 28 0f c0 bb d2 11 0a bc 7c 38 c5 3b ff 16 68 bc
       -0.0058611818 -0.0084271 0.0060186964 -0.014165639
000010 4b 99 8d bb 9f 99 26 ba e7 d0 a7 b9 d4 ef 1a 3b
       -0.0043212525 -0.0006355289 -0.00032008367 0.0023641484
000020 81 86 2b bb 7e 58 c4 3a 88 73 9b 3b 76 5e ab bc
       -0.00261727 0.0014979986 0.004743997 -0.020919066
000030 93 df ed bc b3 bf 4b bc 84 c7 ba bb b3 16 a3 3b
       -0.029037273 -0.012435841 -0.0057000536 0.004977071
000040 ec bd a2 3b 9f 31 6d ba ba 52 59 bc ca df 74 bc
       0.004966488 -0.00090482266 -0.013264352 -0.014945934
000050 0f e3 0d 3c eb af 9a 3b 9b 9b 04 bc c3 d7 a3 3a
       0.008660092 0.004720678 -0.00809374 0.0012500215
000060 d3 79 0c bc 0f 44 db ba f7 21 b6 bb 5b 21 ad 3b
       -0.008573967 -0.0016728657 -0.005558248 0.0052835173
000070 60 e7 e2 bb f2 26 fc bb 49 d1 01 bb 0c d4 1c bb
       -0.0069245547 -0.0076950723 -0.0019808582 -0.00239301
000080 6f fc 28 bc c3 ad bf bb 03 e3 7f bb 43 09 62 3b
       -0.010314091 -0.0058495714 -0.0039045222 0.0034490384
000090 1f 59 c8 bb bf eb ad bb b7 27 3f 3c f0 55 be ba
       -0.0061141397 -0.005307644 0.011667184 -0.0014521461
0000a0 75 48 01 3c 7d 17 0a 3c 3b 0f 7f 3b 0b dc cf 3b
       0.00789081 0.008428452 0.003891899 0.00634337
0000b0 6a 60 de bb e3 ab 0f bc 54 bd 4a 3c 74 e8 8d 38
       -0.006786396 -0.008769008 0.012374241 6.766702e-05
0000c0 8f 71 1c ba 84 ac c1 bb 44 2a aa 3a 92 97 d2 bb
       -0.0005967849 -0.005910458 0.0012982567 -0.00642676
0000d0 98 4a 22 bc 58 38 e4 3b e3 7d c4 bb 32 c0 88 bc
       -0.00990548 0.0069647245 -0.005996452 -0.016693208
0000e0 d7 94 06 3a a3 ec f5 3a a3 d1 30 3c 2f c2 89 bb
       0.0005133873 0.001876254 0.010792169 -0.0042040567
0000f0 47 8a 1f 3c ea f2 61 bb 47 8c e3 bb 55 3e 34 3c
       0.009737558 -0.0034477063 -0.0069442126 0.011001189
000100 48 fb 52 3c 75 b5 90 3b f9 d6 c0 3b 3f 6f 17 bb
       0.012877293 0.0044161626 0.0058850017 -0.002310708
000110 be 5f 9b 3b cf 34 4e 3b 47 74 86 bb f0 ff 00 3c
       0.004741638 0.0031464582 -0.004103217 0.00787352
000120 03 18 65 3b 43 25 92 bb 75 9b 53 bc 13 76 65 bb
       0.003495694 -0.0044600083 -0.012915482 -0.0035013005
000130 ef 52 2f bb 31 28 81 bb 5f 5e 10 bb ea 44 d9 ba
       -0.0026752313 -0.0039415588 -0.0022028906 -0.0016576324
000140 7b a3 2a 3b 77 2d 07 3c e7 b7 20 bc 85 0f 1c bb
       0.0026037383 0.008250586 -0.009809471 -0.0023812961
000150 63 81 62 bc 8d 54 40 bc d5 de 09 3c d4 9b a6 3a
       -0.0138247935 -0.0117389085 0.008414944 0.0012711235
000160 75 df 8a bc 25 4c 31 3c 30 fc be ba dd b5 05 3c
       -0.016952256 0.010821377 -0.0014571007 0.008161035
000170 12 56 d9 b9 8a 09 38 3c 83 67 86 bb 6a 91 fe 3a
       -0.00041453593 0.011232743 -0.004101695 0.0019421999
000180 2b 0a 8e bc a7 77 3e 3a f4 02 12 3c a9 7c 0e bc
       -0.017338833 0.00072657544 0.008911837 -0.0086967135
000190 cf 40 b9 3c 5b 8c 86 bc 08 24 13 3c 68 54 61 3c
       0.022613911 -0.016424349 0.0089807585 0.013753034
0001a0 1d 87 cf ba 4f 07 58 3c be 31 02 bc ae 3d 88 3c
       -0.0015833114 0.013185336 -0.00794643 0.016630974
0001b0 72 8b 7a b9 37 89 07 bc 50 d4 19 bc 36 79 cc bb
       -0.00023893805 -0.008272461 -0.009388998 -0.0062400354
0001c0 93 e4 11 3b dd ff 9d 3b 54 cd bd 3c 38 1f 9f 3c
       0.0022261485 0.004821761 0.023169197 0.019424066
0001d0 eb f0 19 3c 92 6d 4a bc 03 f8 8f 3c 3a 86 a1 3a
       0.009395818 -0.012355225 0.017574316 0.0012323328
0001e0 1b bc c5 3b ca 6a 38 bc 5f 63 0d bc df d9 f0 bb
       0.006034387 -0.011255929 -0.008629649 -0.007350191
0001f0 14 ae 93 bb 7e b8 96 bb 80 be bd 3b 67 bd 1e 3c
       -0.0045068357 -0.00459963 0.0057905316 0.009688712
000200 6f 56 39 bc 18 30 23 3c 6a 78 9a bb e3 b0 7b bc
       -0.011312111 0.009960197 -0.0047140615 -0.015361997
000210 9c be 13 ba a5 08 6a bb 3d 62 e2 bb a6 c7 c6 bb
       -0.0005636008 -0.003571072 -0.0069086836 -0.0060662804
000220 4b 9a cf 3b 3c c6 34 3b 57 33 fe bb 99 8a 2e bc
       0.006335532 0.0027583977 -0.007757585 -0.010653161
000230 10 cc 94 3a c7 98 83 3b e3 2c d3 bb ee 67 88 3c
       0.0011352319 0.004016015 -0.00644456 0.01665112
000240 2b da 63 3a cf 2d 9b 3b e7 ee 89 3c 27 93 95 3c
       0.00086918724 0.0047356854 0.01683755 0.018258644
000250 a4 9c 21 3c e9 61 38 3c d2 a0 1f 3b ca 15 ce 3b
       0.009864006 0.011253812 0.002435733 0.0062892186
000260 aa c8 6c 3c c8 50 ac bb 13 13 1e 3c 7e 8b 0a bb
       0.014452139 -0.0052586533 0.009648102 -0.0021140273
000270 18 3c 20 3b 1f 0c 33 bc 25 61 a5 3b 73 56 bc bb
       0.0024449881 -0.010928183 0.005046981 -0.0057476102
000280 2f 74 a6 bc 5d e8 6b bb 5f a2 c9 3b ac 11 31 bc
       -0.020319073 -0.0035996654 0.0061533893 -0.010807436
000290 af 88 0e 3c ac c3 96 3b 84 65 26 bc 2d 00 9c 3b
       0.00869958 0.0046009626 -0.010156039 0.004760763
0002a0 4d 9f 1b 3c a5 07 e1 3b e8 bf f2 bb 7a db d6 bb
       0.0094984295 0.0068673664 -0.007408131 -0.0065569254
0002b0 67 07 2e bb 78 11 0a bb a0 d9 e3 b6 bd d0 5e 3c
       -0.0026554705 -0.002106754 -6.790462e-06 0.013599572
0002c0 6d 39 0c bc fb 0a c4 bb a7 a0 98 38 a3 e7 37 3b
       -0.008558613 -0.0059827543 7.2778486e-05 0.002806165
0002d0 8b 04 5d 3a 66 7e 1d bb 1a 38 e8 b9 50 ba 6d 3b
       0.0008431158 -0.0024031638 -0.00044292287 0.003627438
0002e0 0b c2 2e bc e2 8c 2b bc 5a 48 1f 3c 7a 4b 8d 3a
       -0.010666381 -0.010470601 0.00972184 0.001077994
0002f0 c0 09 54 bc cb 92 d9 bb 39 97 9d bb f1 da ad 3b
       -0.012941778 -0.0066398135 -0.004809287 0.005305641
000300 30 b3 ce bb f5 03 6a 3b d3 ef 05 3b c2 65 3b 3b
       -0.006307982 0.0035707925 0.0020437136 0.0028594588
000310 48 2a c5 bb 67 97 b6 3c 3f ee d0 3b 49 ce b0 3b
       -0.006017003 0.022288991 0.0063760574 0.005395685
000320 9f 86 e5 bb 63 9b 70 3c 3b b1 20 3c c2 b2 49 3c
       -0.0070045735 0.014685485 0.00980788 0.012310686
000330 bb e0 96 ba 0f 2b a2 3c 85 c5 78 3b 5f 36 0d 3c
       -0.0011511067 0.019795923 0.0037959528 0.00861892
000340 0f ce ea bb 9a 21 62 ba a2 e2 69 39 d0 36 a0 3b
       -0.0071656774 -0.0008626223 0.00022305039 0.0048893467
000350 8f 7e 86 bc 45 db 62 3b aa 86 2c 3b 30 c2 4f bc
       -0.01641777 0.0034615558 0.0026325383 -0.012680575
000360 12 94 74 bb 52 7a 53 bc 55 d6 55 ba 33 1b 67 bc
       -0.0037319702 -0.012907581 -0.0008157243 -0.014105606
000370 a8 d1 97 3b ef c7 eb 3b e9 b9 0c bc ff e0 83 3b
       0.0046331473 0.007195465 -0.008589246 0.0040246244
000380 75 65 8d ba b7 3b 85 3c c2 28 2f bc 97 35 fb 3b
       -0.0010787683 0.016263826 -0.01069087 0.0076663005
000390 9f 6f a2 3c 0c b1 42 3b b0 fc 1b 3b 27 ba 2a 3c
       0.019828616 0.002970758 0.0023801737 0.010420359
0003a0 2d f1 18 3b e7 ba 41 3b b3 fd 4e bb 62 04 0c 3c
       0.0023337111 0.0029560865 -0.0031584322 0.008545967
0003b0 03 a6 40 3b 05 6d af bb 50 8d 13 bc 93 3e 28 bb
       0.0029395826 -0.0053535723 -0.0090058595 -0.0025672063
0003c0 ce 78 c7 3b 82 31 f4 3b bd c0 2c 3c 5f 4d 3a bc
       0.006087399 0.007452191 0.010543999 -0.011370986
0003d0 ee 61 40 3b 30 1a 2c bc 43 de 91 bb 1b ed dc 3a
       0.0029355246 -0.01050429 -0.0044515445 0.0016855331
0003e0 c3 a6 c2 bb 82 95 eb 3b 27 16 10 3c 5e cd c9 3b
       -0.0059402897 0.0071894536 0.008794344 0.006158515
0003f0 02 59 6d 3b 2d 45 72 3c df 61 66 bc 5b 5e 25 3c
       0.0036216383 0.014787001 -0.01406142 0.010093297

action_model._discrete_distribution.branches.1.bias f4 [29]
000000 00 00 00 00 00 00 00 00 00 00 00 00 00 00 00 00
       0.0 0.0 0.0 0.0
000010 00 00 00 00 00 00 00 00 00 00 00 00 00 00 00 00
       0.0 0.0 0.0 0.0
000020 00 00 00 00 00 00 00 00 00 00 00 00 00 00 00 00
       0.0 0.0 0.0 0.0
000030 00 00 00 00 00 00 00 00 00 00 00 00 00 00 00 00
       0.0 0.0 0.0 0.0
000040 00 00 00 00 00 00 00 00 00 00 00 00 00 00 00 00
       0.0 0.0 0.0 0.0
000050 00 00 00 00 00 00 00 00 00 00 00 00 00 00 00 00
       0.0 0.0 0.0 0.0
000060 00 00 00 00 00 00 00 00 00 00 00 00 00 00 00 00
       0.0 0.0 0.0 0.0
000070 00 00 00 00
       0.0

action_model._discrete_distribution.branches.1.weight f4 [29, 128]
000000 ff 6c 72 bb 47 e4 ad ba d1 17 25 bb b8 2d d7 bb
       -0.0036991236 -0.0013266884 -0.0025191198 -0.0065667294
000010 70 b9 68 3a a8 b0 6f bb cb c9 57 bc ab b7 05 3c
       0.000887773 -0.0036573801 -0.01317067 0.008161466
000020 e1 df 95 3b b5 af 21 ba 58 ee c4 3b 0d cb 5d bc
       0.0045738076 -0.0006167845 0.006009858 -0.013537181
000030 93 bc e5 3b fb 6d 8d bc c2 52 53 bc 57 10 1c bb
       0.007011005 -0.017264357 -0.012898149 -0.002381345
000040 dc 6f 09 3c 40 a2 54 bc 2a 21 14 3a 49 3b 41 ba
       0.008388486 -0.012978137 0.0005650694 -0.00073712
000050 52 cc 0c 3b 33 7c 38 3c 97 7d d0 3b 8d f0 52 3b
       0.002148409 0.01126008 0.0063626277 0.0032186836
000060 5d 22 ee 39 b7 31 83 3b bb 51 a3 bb a0 00 00 3b
       0.000454205 0.004003729 -0.0049841083 0.0019531623
000070 c0 28 0b bc 43 ed 0d b9 b5 2a f4 3b d5 16 39 bc
       -0.008493602 -0.00013535195 0.00745138 -0.0112969475
000080 d2 29 60 39 eb c7 ec bb 77 7f a8 3a 47 f1 f5 bb
       0.00021377884 -0.0072259805 0.001285537 -0.007505569
000090 cb 7e be bb eb db 51 bc f0 fe c7 bb 4d 3c 01 bc
       -0.0058134547 -0.01280878 -0.006103389 -0.007887912
0000a0 ab 5b d6 3b ca 48 ab bb f3 4d c0 bb af e3 30 3c
       0.0065416894 -0.005227183 -0.0058686673 0.0107964715
0000b0 08 07 c5 bb 23 dc 59 bc b6 22 00 3c ed f8 6a 39
       -0.006012801 -0.013297114 0.007820776 0.00022408711
0000c0 32 85 fb bc 47 35 a1 3b 1d 98 dc bb 2c ce 3d 3b
       -0.03070316 0.004919681 -0.0067320005 0.0028962
0000d0 9e a5 8c bb 21 56 21 3c ff 02 39 bc ed 12 a9 ba
       -0.004292204 0.009847195 -0.011292218 -0.0012899317
0000e0 ce 7e 8f bb f5 57 f9 3b 13 e5 5d 3c 7e b7 b8 bb
       -0.00437913 0.0076093622 0.013543385 -0.0056371083
0000f0 f5 e6 91 3b b7 75 74 bb c3 a9 8a ba 41 ec 26 3c
       0.004452581 -0.0037301609 -0.0010579157 0.010188163
000100 3a ee 80 3c 75 28 fa bb 57 06 2b bb ca f3 da 3b
       0.015738595 -0.0076342174 -0.0026096308 0.006681894
000110 7f bb 35 3a c2 a5 90 3b 7f ec e6 3b c6 b6 9c 3a
       0.0006932541 0.004414291 0.0070472355 0.0011956326
000120 0b 54 2d bc f2 a7 e4 39 62 15 05 3b 45 5a 0f 3c
       -0.010579119 0.00043612678 0.0020306935 0.008749549
000130 dd ca fb ba 98 75 2e 3c 3f 02 81 3c 6d d1 2c 3c
       -0.0019210238 0.010648154 0.015748141 0.010547978
000140 1b 50 7d 3b d8 2b 9c 3c ef e5 89 3c bc 0a ae bb
       0.0038652483 0.019063875 0.016833274 -0.005311338
000150 5f 1b 20 bc c8 78 d8 3b 57 68 b8 ba eb c7 26 bc
       -0.009772151 0.006606195 -0.0014069182 -0.0101795
000160 1a dc 7d bb 05 40 fb 3b 73 91 74 bc d9 6d b6 bb
       -0.0038735927 0.007667544 -0.014927256 -0.005567294
000170 74 88 9c 3a f7 0f 5c 3b e0 22 08 bc bb 03 93 bc
       0.0011942522 0.0033578852 -0.008309096 -0.017946115
000180 c1 07 97 bb ef 63 b4 bb 6a ca 5d 39 ff 07 c0 bb
       -0.0046090786 -0.005505077 0.00021151608 -0.005860328
000190 17 df 66 39 27 53 f3 bb 43 47 54 bc 7f 11 04 bc
       0.00022017617 -0.007425684 -0.012956443 -0.008060812
0001a0 56 8b 9c bb 3e c2 92 3b be 88 15 ba f3 f3 64 bb
       -0.0047773523 0.004478722 -0.0005704275 -0.0034935444
0001b0 1c 42 15 bb ff df 06 bc d4 8e 8a 3b 3a 7b 51 3b
       -0.0022775 -0.008232116 0.004228452 0.0031964318
0001c0 d3 0d 1b 3c 1f d6 2d 3c 1c 52 15 3c b7 5d 72 3b
       0.009463745 0.0106101325 0.009113815 0.0036982128
0001d0 df 6c 22 3c 3b e5 4f bb 15 cb 18 3b 7f f0 f0 3a
       0.009913652 -0.0031722325 0.0023314406 0.001838222
0001e0 47 c9 80 3c 67 6b 26 3c e5 e5 8d 3a 3a 4c 6e bb
       0.015720977 0.010157443 0.001082596 -0.0036361353
0001f0 fc a1 3e bc a7 a8 cd ba a3 f7 2a 3b 35 aa 56 ba
       -0.0116353 -0.0015690521 0.0026087544 -0.0008188815
000200 b3 41 03 3c da 84 eb bb 83 05 99 ba 37 b7 49 bc
       0.008011269 -0.007187468 -0.0011674616 -0.012311748
000210 ba f4 5c b9 20 fd ad bb 93 e2 60 3c d1 8b 27 bc
       -0.00021072003 -0.005309716 0.0137258945 -0.010226206
000220 95 b5 e9 bb a5 72 41 bb 27 70 ad 3b 07 aa 5c bc
       -0.007132242 -0.0029517796 0.0052929106 -0.013468272
000230 46 79 37 3c 45 b1 be bb 14 4f 22 3a 29 b7 07 3c
       0.011198347 -0.005819472 0.0006191593 0.008283415
000240 a4 4c 3a 3b 0b df 45 3c 36 33 08 bb 7b 1a ef 39
       0.002842703 0.012077103 -0.0020782477 0.00045605362
000250 d4 2f 87 3c 92 c4 a3 3b 27 11 28 3c ae 7e 0e 3c
       0.016502298 0.0049977982 0.010257996 0.008697195
000260 1a e0 2a bb fa a7 19 ba f0 b1 45 ba c0 3e b6 bb
       -0.0026073516 -0.0005861517 -0.00075414684 -0.0055616796
000270 b1 be 09 3c c3 e7 7c bb bb 5d 1f 3c 4a c3 db 3a
       0.008407281 -0.003859029 0.009726937 0.0016766575
000280 ab 0b 4e 39 b3 1a 0a bb 92 01 15 3b ea e6 0d bb
       0.00019650038 -0.0021073043 0.0022736532 -0.0021652528
000290 42 eb 09 3b 1a f2 04 bc 37 4a 0b 3c 0f d3 aa bb
       0.0021044766 -0.008114362 0.008501581 -0.0052131484
0002a0 2b df a3 3b a0 c8 15 bc db 98 41 bc eb d4 1a 3c
       0.005000969 -0.009142071 -0.011816229 0.009450178
0002b0 6d 8a 24 bc c5 4b 5b 3b 32 02 85 3c 91 6a 10 bb
       -0.010042769 0.003346191 0.016236398 -0.0022036175
0002c0 57 17 6c bb 4b 2b 17 bc 6f 34 06 bc 36 e1 0d bb
       -0.0036024654 -0.00922663 -0.008191212 -0.0021649129
0002d0 12 c6 87 3b b7 69 57 bb 72 23 85 3b bb 29 5b 39
       0.004143485 -0.0032869407 0.0040630633 0.00020901013
0002e0 17 8e 12 bc 2d 38 e6 ba 2f 1c 91 ba 60 8e 57 bc
       -0.00894501 -0.0017564349 -0.0011071021 -0.013156503
0002f0 07 02 2f bb 2f 3d 66 bc da 34 a3 bb d1 86 3f 37
       -0.002670409 -0.014052673 -0.0049806656 1.14158765e-05
000300 57 1a 7c bc ad 39 82 3b 90 6a 2c 3b 48 a2 93 b9
       -0.015387139 0.0039741606 0.0026308633 -0.00028158934
000310 c3 3b 0c 3c 71 3d 14 bc 7d c6 4e 3b 68 d3 6e ba
       0.00855917 -0.009047852 0.0031551414 -0.00091104815
000320 35 d2 42 bc 41 49 04 3b 83 22 13 bc 77 f6 04 3c
       -0.011890938 0.0020185264 -0.008980396 0.008115402
000330 97 fc 16 3c 1e 70 9b ba 72 4f 2b 3b 0a 25 6e 3b
       0.009215496 -0.0011858975 0.0026139882 0.0036337995
000340 3b 22 a8 bb 07 6e c3 3a 37 c6 93 bb 8b 67 17 bc
       -0.0051310337 0.001491011 -0.004509713 -0.009240995
000350 05 c0 f2 bb 81 44 97 3b 38 ef 8a 3b f0 d4 07 bc
       -0.0074081444 0.0046163206 0.004239943 -0.008290514
000360 d1 76 46 ba 95 7e bb 3b a6 d6 05 bc 4f c3 8d bb
       -0.00075708056 0.005721877 -0.008168852 -0.004326261
000370 3b 00 bd 3a e8 08 e1 bb 2f f4 dc 3a 2e c0 39 bb
       0.0014419624 -0.006867517 0.001685744 -0.0028343308
000380 0d 3b 5c bc be 68 10 3c ca 56 d3 3b c3 a4 5a ba
       -0.013441813 0.008814035 0.006449555 -0.00083405914
000390 15 6f 21 ba 60 1e ea b8 98 47 5b 3c ba 05 16 bb
       -0.0006158215 -0.00011163647 0.0133837685 -0.0022891597
0003a0 cb 0a a2 ba 4e dd c8 bb 3d 8d d5 3b e3 ab 83 3c
       -0.0012362836 -0.006129897 0.006517081 0.016073173
0003b0 91 0a 42 3c 22 e2 68 bb 1f 45 b2 3b c7 1d b4 bc
       0.01184334 -0.0035535176 0.005440369 -0.021986855
0003c0 a7 29 8f 38 eb 16 d9 3b 51 2f 32 3c 03 c8 a5 bb
       6.82653e-05 0.0066250465 0.010875539 -0.0050592436
0003d0 c7 e9 56 bb c3 61 4e 3a 88 7d b8 3b 57 c3 52 bc
       -0.003279315 0.0007872844 0.005630199 -0.012863955
0003e0 67 17 c1 3b f1 c0 3c bc 2d d0 6e bc a5 68 81 3b
       0.0058926824 -0.01152061 -0.014576 0.003949242
0003f0 50 66 81 3b 38 3f 77 3b db 18 01 bc 47 6e 26 ba
       0.003948964 0.003772689 -0.007879461 -0.000634883

action_model._discrete_distribution.branches.10.bias f4 [57]
000000 00 00 00 00 00 00 00 00 00 00 00 00 00 00 00 00
       0.0 0.0 0.0 0.0
000010 00 00 00 00 00 00 00 00 00 00 00 00 00 00 00 00
       0.0 0.0 0.0 0.0
000020 00 00 00 00 00 00 00 00 00 00 00 00 00 00 00 00
       0.0 0.0 0.0 0.0
000030 00 00 00 00 00 00 00 00 00 00 00 00 00 00 00 00
       0.0 0.0 0.0 0.0
000040 00 00 00 00 00 00 00 00 00 00 00 00 00 00 00 00
       0.0 0.0 0.0 0.0
000050 00 00 00 00 00 00 00 00 00 00 00 00 00 00 00 00
       0.0 0.0 0.0 0.0
000060 00 00 00 00 00 00 00 00 00 00 00 00 00 00 00 00
       0.0 0.0 0.0 0.0
000070 00 00 00 00 00 00 00 00 00 00 00 00 00 00 00 00
       0.0 0.0 0.0 0.0
000080 00 00 00 00 00 00 00 00 00 00 00 00 00 00 00 00
       0.0 0.0 0.0 0.0
000090 00 00 00 00 00 00 00 00 00 00 00 00 00 00 00 00
       0.0 0.0 0.0 0.0
0000a0 00 00 00 00 00 00 00 00 00 00 00 00 00 00 00 00
       0.0 0.0 0.0 0.0
0000b0 00 00 00 00 00 00 00 00 00 00 00 00 00 00 00 00
       0.0 0.0 0.0 0.0
0000c0 00 00 00 00 00 00 00 00 00 00 00 00 00 00 00 00
       0.0 0.0 0.0 0.0
0000d0 00 00 00 00 00 00 00 00 00 00 00 00 00 00 00 00
       0.0 0.0 0.0 0.0
0000e0 00 00 00 00
       0.0

action_model._discrete_distribution.branches.10.weight f4 [57, 128]
000000 93 08 84 bc 49 61 26 3c 5d ea 71 bc a0 c9 ee 3b
       -0.01611737 0.0101550305 -0.014765349 0.007287219
000010 bb c4 96 bb 1f 43 e9 3b 99 e2 14 3c 65 69 5a bb
       -0.004601089 0.007118597 0.009087228 -0.003332698
000020 45 1c 0a 3c 9d 98 a8 bc 6d 6e ed 3b 0e 96 0b 3c
       0.008429592 -0.020580584 0.00724583 0.008519663
000030 3a fb 57 3b 9e ce 82 bc 86 c5 ca 3b ef 68 89 3b
       0.003295614 -0.015967663 0.0061880974 0.0041934173
000040 aa 82 a8 ba 0b 92 19 ba 05 ab f7 3b 3d fd 05 bc
       -0.0012856324 -0.0005858249 0.007558229 -0.0081780525
000050 ee 1a 98 3b a2 0d 75 3c 6a 5f ae bc 6f c9 63 3c
       0.004641882 0.014956864 -0.021285731 0.013903006
000060 e3 4a 62 3b 91 d0 05 bb e3 cc 23 3b 45 7a 0f bb
       0.00345295 -0.0020418505 0.0024993948 -0.0021892947
000070 f0 6d 91 3c d3 5e ab 39 ba c9 20 3c 83 22 23 ba
       0.017752618 0.0003268631 0.00981372 -0.0006223099
000080 8f ce 3d bb 19 c2 b4 39 61 19 1c bc 2e f9 09 bc
       -0.002896223 0.0003447689 -0.009527535 -0.0084212255
000090 cd c2 71 bc 0b 63 71 3b db 4b 08 bc 4e fd c3 3b
       -0.014755917 0.0036832716 -0.008318867 0.005981124
0000a0 08 35 e8 bb af fb 3f 3b 30 6b cb 3b 93 06 f2 bb
       -0.0070864 0.0029294302 0.006207846 -0.0073860376
0000b0 2a 81 08 bc b4 68 42 3c f3 c8 40 bc 1a 3d 76 3c
       -0.008331576 0.0118657835 -0.01176666 0.015029216
0000c0 e3 55 c6 3a 3a 71 0c bc bc ec b4 39 77 b3 ac 3a
       0.0015131797 -0.008571917 0.00034508656 0.0013176043
0000d0 fb 70 8c 3c 73 64 06 3b 17 35 78 3b ed 08 07 3c
       0.017143717 0.002050665 0.003787344 0.008241874
0000e0 eb 90 a2 3b bd ec 8e 3b 9a 84 75 bb af e5 f2 bb
       0.004961123 0.0043617175 -0.003746307 -0.0074126343
0000f0 41 bb 80 3c e6 ea 44 3b 2e 0e 85 bb 9f 6f a0 3b
       0.01571429 0.0030047237 -0.0040605282 0.004896119
000100 75 a9 ef 39 e7 e7 3c ba 2a 7a 13 3c c7 4a ce 3b
       0.00045711888 -0.0007206187 0.009001294 0.0062955352
000110 1b 3b 00 bc e8 0c 78 3b 93 73 79 3c b3 65 90 3a
       -0.007826592 0.003784949 0.015225309 0.0011016637
000120 f7 b1 4f bc 72 c6 1c 3c 67 72 12 bb 3a 40 7c 3b
       -0.0126767075 0.009568797 -0.002234602 0.003849043
000130 bb fe 1f bc 2c 60 8a bc b9 5f a3 ba f2 dc 20 bc
       -0.009765322 -0.016891561 -0.0012464441 -0.0098183025
000140 2d 1f 9a 3b 12 3e 46 3b 90 b9 a5 ba 73 e5 05 bc
       0.0047034235 0.00302494 -0.0012643803 -0.008172381
000150 7e 47 a7 ba 40 a2 38 3c c7 cf 38 3b fb 8d c6 b7
       -0.0012762395 0.011269152 0.0028200017 -2.3669554e-05
000160 d7 00 c1 3b 5f 84 d3 ba d3 29 1d bb 1c 75 99 ba
       0.0058899927 -0.0016137472 -0.0023981228 -0.0011707875
000170 8b 82 2a 3a 24 3b 0e bc 00 f9 97 3b 75 3d d8 bb
       0.0006504438 -0.008681092 0.0046378374 -0.006599123
000180 4c 40 81 ba b1 0a c0 bb 87 ad a4 bc 3d 3b 71 bc
       -0.0009861081 -0.0058606495 -0.020102276 -0.014723596
000190 16 fd 27 bc c2 db 1a 3b e6 90 01 3c b0 fb a8 bb
       -0.0102532115 0.002362952 0.007908082 -0.0051569566
0001a0 8f 97 b0 bb a1 ef 86 bb 61 38 84 3a 1b a0 81 3c
       -0.005389161 -0.0041179215 0.0010087603 0.015823415
0001b0 f7 4b 43 3b b6 57 bc bb 9c 6a 1f 3c d3 83 00 bc
       0.0029799917 -0.0057477606 0.0097300075 -0.007843929
0001c0 cb 1d 2e 3a aa c4 b1 bb 83 d8 6d 3b ed 8e db bb
       0.0006642013 -0.0054250555 0.003629238 -0.0067003877
0001d0 03 b3 52 3b 68 d2 ea bb 13 30 a3 ba 7e 77 8d 3b
       0.0032150156 -0.0071661957 -0.001245024 0.004317223
0001e0 df de 54 3c 5b 1b c7 3b 27 68 6f 3b 63 49 2a ba
       0.01299259 0.006076259 0.0036530585 -0.0006495921
0001f0 1a 64 8b bc 9b 98 1c 3c 03 a0 eb 3b cf e8 80 3c
       -0.017015506 0.009557868 0.0071907057 0.015736012
000200 49 7a 20 3c 8b 29 da ba cd df 10 bc 4f f4 b9 ba
       0.00979478 -0.0016644461 -0.008842421 -0.001418719
000210 28 68 57 3b 90 29 22 3c e3 c5 b9 bb 08 ce d4 bb
       0.0032868478 0.009897605 -0.005669342 -0.0064942874
000220 fd 90 06 39 1b 72 a8 3a bf 9c 0e 3c 67 3e 3c 3c
       0.00012833248 0.0012851389 0.008704363 0.011489487
000230 69 ac b6 bb 50 e9 5e ba 16 68 28 3c 56 0f ab 3b
       -0.005574752 -0.0008503394 0.010278722 0.005220334
000240 a2 f6 bc 3b e0 48 80 ba 9f 44 15 3b ab 2a 8d 3c
       0.0057667056 -0.0009787343 0.0022776497 0.01723226
000250 57 79 0b 3b 6f 86 1f bc c7 a9 00 ba 0f 25 91 3b
       0.002128204 -0.009736641 -0.00049081113 0.0044294666
000260 d8 fb 0a 3b fd b7 1c 3c 8a 50 1c 3c d7 5c cc ba
       0.002120724 0.009565351 0.009540686 -0.0015591633
000270 4b a4 60 3c 7b a2 26 3c 13 e5 59 3b b8 fd dc b7
       0.0137110455 0.010170574 0.003324811 -2.634419e-05
000280 18 1c fc bb 66 e6 9f bc 8b 66 48 3c 7c 1b 33 3c
       -0.0076937787 -0.019519042 0.012231479 0.010931846
000290 82 b4 f1 bb 5f 61 8f bb 3a 87 c3 bb db 54 55 bc
       -0.0073762545 -0.004375621 -0.005967048 -0.013020719
0002a0 74 93 1b 3c 8f 42 e8 bb 29 d0 bb bb 35 f9 65 bc
       0.009495605 -0.0070880125 -0.0057316017 -0.014036466
0002b0 5c d4 c2 3b 21 09 07 3c 0c db a5 3c 8d 41 58 3c
       0.0059457254 0.008241923 0.020246051 0.013199222
0002c0 80 9a ce 3b 5e f1 34 bb 00 23 30 bc 30 d8 e9 3b
       0.006305039 -0.0027609686 -0.010750532 0.0071363673
0002d0 50 1b 52 bb a3 1b 21 3c fa b5 68 3c 28 51 13 bb
       -0.0032059737 0.009833249 0.014203543 -0.0022478793
0002e0 cd 3a 7d 3a 27 f7 72 bb ae 75 b6 3b 98 fe 80 bc
       0.0009659946 -0.0037073584 0.0055682277 -0.0157464
0002f0 0b 28 14 3c 79 82 a1 3b 02 96 5e bc cd d0 e2 3a
       0.00904275 0.0049288836 -0.013585569 0.0017304659
000300 9b 65 a0 3c c7 fa 99 bb 9b 6d 19 3c da 60 a6 ba
       0.0195797 -0.0046990844 0.009364511 -0.0012693659
000310 63 f4 8f 3b 97 21 f4 bb 63 9d 83 bb 88 ae 5e bb
       0.004393147 -0.0074502933 -0.0040165647 -0.003397854
000320 4a dd 5f 3c 00 d5 d2 3c ef 4b 0b 3c 88 62 c5 b9
       0.013663599 0.025736332 0.008501991 -0.0003764818
000330 23 cf a5 3b 75 07 95 bc 1d ed 55 3b 73 c6 2d bc
       0.005060093 -0.018192032 0.0032642551 -0.010606396
000340 bc c0 85 3b 7e 9c 8f bc d7 ff 82 b9 aa ab 07 bb
       0.0040818136 -0.017530676 -0.00024986148 -0.0020701685
000350 c4 f5 34 3b 4b 19 48 bc e2 80 e5 bb bb 0a 39 3a
       0.0027612308 -0.012213062 -0.0070038894 0.0007058789
000360 be 87 40 bb cf c5 14 bb 18 2f 54 bc d3 a4 25 39
       -0.0029377784 -0.002270091 -0.012950681 0.00015797028
000370 68 2f f7 bb 94 a3 06 bb 03 2a 94 3c c1 ca 02 bc
       -0.007543493 -0.0020544278 0.018086439 -0.007982911
000380 af ad cf ba 5c aa 1e 3a 2d cc 97 3b 4a 71 94 3b
       -0.0015844608 0.0006052607 0.004632494 0.0045301067
000390 ba e8 41 3c ab 88 91 3c 2a 38 b9 bb ab db 78 3b
       0.0118352715 0.017765364 -0.005652447 0.003797273
0003a0 0c 44 9d 39 2b 56 3f bc ed 01 03 3c b9 5c 3c 3c
       0.00029996072 -0.011678259 0.007996065 0.011496716
0003b0 a5 07 9b bb bf dd ba 3b 08 31 ea bb c8 e6 7f bc
       -0.004731136 0.0057027037 -0.0071469583 -0.015618987
0003c0 37 1d e4 bb ed d0 b8 ba 62 16 27 bc e4 aa ae bc
       -0.0069614905 -0.0014100351 -0.010198208 -0.021321721
0003d0 d4 84 20 3c 0a fd e4 3a 63 a0 3b bc c2 fa c5 3a
       0.009797294 0.0017470431 -0.011451813 0.0015104639
0003e0 4e be 97 3a ad 6b ee ba e1 9d 8f bb 48 8e 4d bc
       0.0011577101 -0.0018190049 -0.0043828343 -0.0125461295
0003f0 0e 57 02 3a d0 33 7f bc 1b 7f 8d 3c 3f 72 0d bb
       0.00049720786 -0.015576318 0.017272523 -0.0021582989

action_model._discrete_distribution.branches.11.bias f4 [5]
000000 00 00 00 00 00 00 00 00 00 00 00 00 00 00 00 00
       0.0 0.0 0.0 0.0
000010 00 00 00 00
       0.0

action_model._discrete_distribution.branches.11.weight f4 [5, 128]
000000 ff 7d 68 bb 7b 03 e5 bb 33 2f 9e bb fd 7b e7 ba
       -0.003547549 -0.0069889403 -0.004827404 -0.0017660853
000010 e4 29 ca 3b 13 7e e4 bb 29 e1 ba bc 5c e3 10 3c
       0.0061695445 -0.006973037 -0.022812443 0.008843269
000020 71 5a 23 bb b0 0c 25 bc 86 0d 17 bc da e6 52 b9
       -0.0024925733 -0.010073826 -0.009219533 -0.0002011316
000030 4f 20 20 bb aa b9 73 b9 e6 4e 17 3a f2 21 53 3c
       -0.002443332 -0.00023243451 0.00057719497 0.012886511
000040 47 6d 75 3b ea 01 b4 bb 47 30 11 bc 70 74 bb bb
       0.0037449168 -0.0054933922 -0.008861608 -0.0057206675
000050 e7 94 af 3b 07 8f 14 3c 85 f9 e8 ba db ae e6 bb
       0.0053583267 0.0090673035 -0.0017774558 -0.0070398874
000060 98 37 63 bb 79 48 4b bc f2 d9 9e 3a f2 b7 82 3b
       -0.0034670588 -0.012407416 0.0012119396 0.003989213
000070 cb 4b 04 bd ef 46 d1 bb c6 49 1a 3b 60 ba 7d 3b
       -0.032298844 -0.00638663 0.0023542508 0.0038715824
000080 8e 08 2d 3a 6f 1f 0c 3c 83 fd b0 bb 18 ac 75 bc
       0.0006600701 0.008552416 -0.0054013147 -0.014994644
000090 f0 51 17 bc c7 31 b6 b8 f8 f5 f0 bb c2 fc 25 3c
       -0.009235844 -8.687708e-05 -0.0073535405 0.010131063
0000a0 c5 cf 6a 3c 6d f9 fc 3b 33 58 92 3b c7 ff e7 3b
       0.014331763 0.0077201636 0.0044660806 0.0070800516
0000b0 01 69 28 ba 83 d0 5e 3b c9 74 32 bb 68 54 1b ba
       -0.0006424338 0.0033998794 -0.0027230254 -0.0005925358
0000c0 5b 77 f4 bb 07 3e d4 3b d8 41 df 3b 7f 3c fc bb
       -0.0074605173 0.006477121 0.006813269 -0.0076976414
0000d0 cd 91 bc bb 83 3b 9e 3b c5 c9 67 3c 2b 04 9d 3c
       -0.0057546855 0.0048288717 0.014147227 0.019167027
0000e0 c3 de 7f bc bd b7 83 3c 23 e7 9c 3c 5e 90 00 bc
       -0.015617075 0.016078824 0.019153183 -0.00784692
0000f0 23 68 18 3c d9 25 96 3c cb 79 8d bb 6c b4 8a 3a
       0.009302172 0.018328594 -0.0043174974 0.0010582334
000100 3b 0b e8 3b 98 06 76 bb 6b 7e b8 3a 7a cd 0d 3b
       0.007081417 -0.0037540551 0.0014075761 0.0021637366
000110 15 ad 15 bc 43 be fa bb 6f 08 fa 3b a2 f8 0c bc
       -0.009135504 -0.0076520755 0.0076304 -0.008604201
000120 d4 43 92 ba bc 5e 16 3c c3 20 74 3b bb c7 96 3c
       -0.001115913 0.00917786 0.0037250973 0.018405786
000130 91 17 49 3b f2 da a4 3c 70 dd 03 bc 6c 63 95 3b
       0.0030684213 0.020123933 -0.0080484 0.004558971
000140 45 51 a3 ba ab 80 1d bc e0 77 70 ba 32 bf 88 3c
       -0.0012460133 -0.009613196 -0.0009173136 0.016692732
000150 56 4c 36 3c e7 e2 05 3b 83 d3 aa ba bd d1 3a bc
       0.011126598 0.0020429434 -0.0013033006 -0.011402545
000160 46 5b 36 bb a7 ba 74 3a b5 9c 7f 3b e7 63 2f 3a
       -0.00278254 0.00093356747 0.0039003317 0.0006690607
000170 9d d5 de ba ce 5b ac bb b1 e3 a2 bb 03 2d a6 3b
       -0.0017000918 -0.0052599674 -0.0049709906 0.005071284
000180 52 52 d1 3b 1c 55 9a 3c 2a a0 f3 bb 3f b4 78 3c
       0.006387987 0.018839411 -0.0074348645 0.015179693
000190 6d 86 75 3c 22 5b 5f bb ba 33 db bb 6a 4f be 39
       0.014985663 -0.003408142 -0.006689516 0.00036298792
0001a0 b9 4f a4 bc 88 ee 81 b9 da 09 96 bb 0d 6e 99 3b
       -0.020057546 -0.00024782517 -0.004578811 0.0046823085
0001b0 27 51 81 3b 9a 8b 2f bb 27 83 9e 3b ba b7 2e 3c
       0.0039464417 -0.002678609 0.004837412 0.010663921
0001c0 13 1d 6d 3b 6f d2 0e bb 3b 2b e0 ba 53 11 ca bb
       0.003618066 -0.0021792909 -0.0017102727 -0.006166616
0001d0 10 9f 5a 3a ff 9f 46 bc 5d ac 3e 3c 27 66 85 3b
       0.0008339742 -0.012123107 0.011637774 0.0040710154
0001e0 2f 49 b6 ba d1 c4 13 3b 68 7a 96 bb 37 ec 01 3c
       -0.0013907308 0.0022547732 -0.0045922287 0.007929853
0001f0 b8 36 12 3b f2 d8 d8 3b 2b e2 0c bb 05 4b 7c ba
       0.0022310447 0.006617659 -0.0021497111 -0.0009624216
000200 38 10 eb b9 07 26 08 bc 3d 78 97 bb cb 57 d1 39
       -0.00044834777 -0.008309848 -0.004622488 0.00039928997
000210 7d 11 db bb c2 62 d8 ba 26 87 c9 3a 88 71 70 3c
       -0.0066854344 -0.0016508924 0.001537536 0.014675505
000220 2b e4 77 3b b8 35 12 3c 47 11 18 bb 34 8d 91 bb
       0.0037825208 0.00892394 -0.0023203657 -0.0044418816
000230 b0 45 ac bc 9d ec d0 3b 8f 90 39 bb 4d f4 d4 3a
       -0.021029323 0.0063758628 -0.0028314923 0.0016247124
000240 c0 a6 f5 bb db 99 01 3b 33 bf be 3b 9e c4 0e 3c
       -0.007496685 0.0019775543 0.0058211326 0.008713869
000250 13 89 de bb 5d a4 63 3b 78 c6 60 bb d4 de 17 3c
       -0.006791243 0.003473542 -0.0034297984 0.009269435
000260 90 3f ea 3b f7 b6 00 3c 82 14 88 3b df d8 36 3c
       0.0071486905 0.007856122 0.0041528353 0.011160105
000270 5a 64 fe bb ff 01 6c 3c 26 b3 b2 bc dc 5c 3a 3c
       -0.0077634277 0.014404773 -0.02181394 0.011374678
000280 65 e0 c2 3a ab 1b 3f bb 30 8e ad 3b a6 a8 3e b9
       0.00148679 -0.0029160779 0.005296491 -0.00018182638
000290 aa 98 7a 3c 4a cb d9 bb fe 36 bb bb 1a 96 dd ba
       0.015295187 -0.0066465484 -0.0057133427 -0.0016905696
0002a0 10 fc 4c bc 0b 6c b2 ba 33 8a da bb 7a e8 15 3c
       -0.012511268 -0.0013612522 -0.0066693067 0.009149665
0002b0 c9 fe 05 3b 29 df 4a bc dd d6 1f 3b 8f e7 db 3b
       0.0020446053 -0.012382307 0.0024389543 0.0067109535
0002c0 cc 8c a5 bb ea cb 68 bc 06 8b 80 3b eb 7c fc 3a
       -0.0050521847 -0.014208773 0.003922823 0.0019263303
0002d0 43 ab 2c bb ff aa 09 bc 33 b9 0b 3c 1d 60 d7 bb
       -0.0026347197 -0.008402585 0.008528042 -0.006572737
0002e0 fb 90 7e bc 7f ad ff bb f7 5d 79 ba eb 81 81 3b
       -0.015537496 -0.007802665 -0.0009512598 0.003952255
0002f0 f3 93 16 bc b8 d7 31 3b d5 db c7 3b e9 1d c4 3a
       -0.009190547 0.0027136635 0.006099204 0.0014962527
000300 f4 70 ae 39 d0 11 56 3b c2 43 c8 b7 7c 46 8a bb
       0.00033272023 0.0032664426 -2.387341e-05 -0.004219828
000310 e7 19 29 bb 36 b4 9c ba 03 fc 95 3a 3a 38 db bb
       -0.0025802793 -0.0011955563 0.0011442903 -0.0066900523
000320 10 4f 5c bc 38 a9 1a 39 16 96 95 3c 9b 09 9b 3b
       -0.013446584 0.00014749623 0.018260043 0.0047313697
000330 77 63 61 3a 20 e4 4e 3c 4f 89 07 3c 55 7f 36 3b
       0.000859789 0.012627631 0.008272483 0.0027846892
000340 ff 79 c4 3c 3c 79 2d 3b 60 41 1c bc a7 25 0e 3c
       0.023983954 0.0026469966 -0.009537071 0.008675969
000350 9f 5e 38 3b 52 fd e5 bb 33 c1 b3 3c bc 43 ac bc
       0.002813257 -0.0070187235 0.02194271 -0.021028392
000360 56 d1 9a bb 37 87 67 bb ba 06 e1 bb 43 29 e3 3a
       -0.004724662 -0.0035328397 -0.006867257 0.0017331023
000370 3c f2 b6 bb 2f e3 82 bc a0 a9 9a 3b 07 ba 82 bb
       -0.005583076 -0.01597747 0.004719928 -0.0039894613
000380 1a d7 8f bc 20 b7 04 3c 50 c5 56 3b 20 5b 06 3c
       -0.017558623 0.008100301 0.0032771416 0.008200437
000390 6b cd d8 bc 06 f5 a0 3c 9d 85 cd bb 1a c4 89 bb
       -0.026465138 0.019648086 -0.0062720315 -0.0042042853
0003a0 5b 71 6a bc c0 2d 83 3b b3 51 69 3b 75 8e 38 bc
       -0.014309253 0.0040032566 0.0035601675 -0.011264433
0003b0 1d a0 0b bc 0f 9d 69 3b 05 28 38 3c c1 37 cc ba
       -0.008522061 0.0035646593 0.01124001 -0.0015580581
0003c0 57 7d 80 3b c5 f2 d5 ba 7d 1e 62 3c 24 b4 4a 3a
       0.0039211917 -0.0016322961 0.013801214 0.00077325315
0003d0 dd 0e a6 bb e2 fa fd bb a0 8f 28 bb b5 3a 4e bc
       -0.00506769 -0.007750855 -0.0025720373 -0.012587239
0003e0 77 f7 4a bb e3 88 dc bc f2 66 cb 3a eb 28 a5 bb
       -0.0030970254 -0.026920741 0.0015518351 -0.005040278
0003f0 2a 32 c6 b9 f2 ef 73 bb 9e eb 0a ba 8f 8d d9 bb
       -0.00037802878 -0.0037221876 -0.0005299392 -0.0066391896

action_model._discrete_distribution.branches.12.bias f4 [5]
000000 00 00 00 00 00 00 00 00 00 00 00 00 00 00 00 00
       0.0 0.0 0.0 0.0
000010 00 00 00 00
       0.0

action_model._discrete_distribution.branches.12.weight f4 [5, 128]
000000 fe d5 bc 3a 00 48 0f bb bc 81 33 bb 5b 6b 86 3c
       0.0014407036 -0.0021862984 -0.002739056 0.016408613
000010 43 df 5f bc e6 67 42 3c 4f a8 08 bc 5b fe c8 3b
       -0.01366407 0.011865592 -0.008340909 0.006133837
000020 ef 1d 33 bb 8d c2 d0 bb bf 3f c1 39 8b 9a fc b9
       -0.0027331074 -0.0063708485 0.00036859323 -0.0004818033
000030 12 63 71 3c b5 58 21 3b eb d6 88 3b cf d3 8a 3c
       0.014733093 0.0024619524 0.004176011 0.016946701
000040 e2 ea 92 bc d6 f7 1c 3c 88 dd 30 bc 6d 3d 1f 3b
       -0.017934266 0.009580573 -0.010795005 0.0024298087
000050 e9 71 b2 3c d6 18 91 b9 fd 70 be bb b3 dd ab bb
       0.021782832 -0.0002767506 -0.005811809 -0.0052449345
000060 ea 9a dd bb 6d 8a 94 bb 6b 70 b6 3c 2b fa 1c 3c
       -0.006762852 -0.004533103 0.022270402 0.009581129
000070 40 8c 00 bc 7d 43 11 3c 16 68 05 3c 6b 31 bb 3b
       -0.007845938 0.008866188 0.008142492 0.005712678
000080 44 8f 9f 3b 24 76 0c bc 15 a2 dc 3b 0a d9 9a bc
       0.0048693735 -0.008573089 0.006733189 -0.01890232
000090 1f 48 b6 3b f0 d9 ba 3a 9f bf 6c bc 23 6b 1a 3c
       0.0055627967 0.0014255624 -0.014449983 0.009424957
0000a0 d5 e5 e8 3b 1a d9 e2 3b a7 5d cf bb 42 44 a2 3c
       0.0071074762 0.006922853 -0.006328303 0.019807938
0000b0 be 15 11 bc 20 60 e1 bb 82 54 78 3b 40 38 31 3c
       -0.008855281 -0.006877914 0.0037892167 0.010816634
0000c0 d6 9a 02 3b 6b ba 9f bb fd 0c 7b bb c8 f8 c6 b9
       0.0019928715 -0.0048745177 -0.0038307302 -0.0003795086
0000d0 9b 79 11 bc 67 33 5e bc 22 a6 b8 3b 81 14 0a bc
       -0.008879091 -0.01356206 0.005635039 -0.00842774
0000e0 4b e3 80 bc a2 b0 9e 3a 2a e1 79 3c 43 97 e8 bb
       -0.015733382 0.0012107084 0.015251437 -0.00709811
0000f0 a3 49 2d 3c f3 47 9d ba cb 8f b4 3b 18 da fa 3b
       0.010576638 -0.0011999592 0.0055103055 0.0076553933
000100 94 62 30 39 a0 45 49 bc 23 4f 48 bc 35 05 62 3c
       0.00016821391 -0.012284666 -0.012225899 0.013795187
000110 0e b7 92 39 15 2a af 3b 78 0f 27 3c 88 ea b1 3b
       0.00027983676 0.0053455927 0.010196559 0.0054295696
000120 0c 3c c3 3b fd 58 62 ba a5 e5 8b 3c c3 76 87 3c
       0.005958086 -0.0008634476 0.017077276 0.016536122
000130 fd 76 62 bb 69 35 47 3c 12 2a b4 bc b2 55 db bb
       -0.0034555786 0.01215873 -0.021992717 -0.0066935653
000140 2c 5a 1b 3c 8b 51 60 3c 60 dc 3a bc e7 34 a2 3b
       0.009481948 0.013691316 -0.011405081 0.004950154
000150 36 44 83 bb cc 24 9f bb d0 00 72 bb 4f c7 fe 39
       -0.004005934 -0.0048566815 -0.0036926754 0.00048595152
000160 93 b1 1a bc aa 0e 45 3c a7 d7 83 ba 0a 48 86 3c
       -0.009441751 0.012027422 -0.0010058776 0.016391773
000170 a2 6c 96 3c 38 fb 77 bb 93 ff b9 3b 92 4d 4e bc
       0.018362347 -0.0037838947 0.005676219 -0.012591736
000180 a5 ba e9 3b 66 81 2d 3c 17 00 89 3b d6 f1 29 bc
       0.0071328455 0.010589933 0.004180919 -0.0103726
000190 08 be 13 bc 3f ec b3 bb 0d b4 d6 bb da be 7b bc
       -0.009017475 -0.005490809 -0.0065522254 -0.015365327
0001a0 72 90 04 bc 77 52 0d bc 58 36 d0 3b c6 3c 83 bc
       -0.008091079 -0.008625618 0.0063541345 -0.01602019
0001b0 f7 ea 84 ba a7 61 96 3c e0 25 fe 3a 18 1b 04 3b
       -0.0010140826 0.018357111 0.001938995 0.002015775
0001c0 c7 cf 2a bc 47 77 34 bb 42 c2 33 bc ff c3 5c bc
       -0.010425515 -0.0027536915 -0.010971608 -0.0134744635
0001d0 28 09 ff 39 5d 20 dd bb e0 88 5a 3c f2 b8 f3 bb
       0.00048644212 -0.006748243 0.013338298 -0.0074378187
0001e0 b0 31 a4 bc 2a bd 2c bb 27 7a 86 3b 88 fc eb ba
       -0.020043224 -0.0026357868 0.004103917 -0.0018004337
0001f0 0d 5e 4d 3c 2b d3 52 bc 6a 39 51 3b c4 7c 18 3c
       0.0125346305 -0.012867729 0.003192509 0.00930709
000200 fb cc f4 3b 97 6d bc 3b e7 f7 a2 ba b7 a7 2a bc
       0.0074707246 0.005750369 -0.00124335 -0.010415963
000210 53 7b e5 38 97 8a 17 3c 5a 4f 36 bb b9 a3 06 3c
       0.00010942542 0.009249351 -0.0027818293 0.008217745
000220 46 5d 35 39 13 a9 d3 3b df e0 f7 bb 7b c6 27 3a
       0.00017296252 0.006459364 -0.0075646485 0.00064001203
000230 0d b2 62 bc 9a f7 22 bc ab cc 03 ba 5a 27 d0 3b
       -0.013836396 -0.009946728 -0.00050277513 0.0063523473
000240 36 85 09 3b b0 c6 f3 3b df 17 e4 3b ac bc 27 bc
       0.002098394 0.007439457 0.0069608535 -0.010237854
000250 16 91 4a bb 76 83 39 bc 29 ec a1 bb 83 44 9c bb
       -0.0030909232 -0.011322847 -0.0049414826 -0.0047689094
000260 ba c2 66 3c e3 6c 75 bc 7a 3e 01 3c c3 21 0c 3b
       0.014084512 -0.014979574 0.007888431 0.0021382428
000270 76 9b 3d 39 28 38 16 3b 18 e8 1f bc 6e 1e 04 bc
       0.00018082358 0.0022921655 -0.009759925 -0.008063896
000280 09 4d 4c bc 7f 7a 9f 3b 25 54 2c bb 74 86 90 3b
       -0.0124695385 0.0048668976 -0.0026295271 0.0044105593
000290 93 cf 16 bb 5d 64 fb 3b c0 7d 66 bb b8 0d 55 bb
       -0.0023011907 0.0076718763 -0.0035170168 -0.0032509398
0002a0 9b 49 72 3c 21 55 31 3b 3d d1 38 39 78 71 d1 bc
       0.014788057 0.0027058797 0.00017625555 -0.025566801
0002b0 28 a6 d4 3a d2 23 6d 3c 77 5d 8d 3b fa e9 f9 bb
       0.0016223835 0.014473872 0.0043141204 -0.007626769
0002c0 d3 6f 7c 3b 11 01 94 3b c0 ef 65 3b af 1f b1 3a
       0.00385188 0.0045167287 0.003508553 0.0013513471
0002d0 31 a3 a9 3b a7 95 60 bb b5 e1 4b 3c 12 23 dc bb
       0.0051769246 -0.0034268887 0.0124439495 -0.006718048
0002e0 42 95 e6 3b fb c2 dc ba ab d9 05 bc 53 bd 20 3b
       0.007036836 -0.0016842777 -0.008169572 0.0024526909
0002f0 e5 ec d2 3b bf e4 77 ba 34 65 8a 3b a7 01 99 bb
       0.0064369314 -0.0009456388 0.00422349 -0.0046693864
000300 1b b5 f9 bb ea f2 78 3c b8 62 bd bb 1a e1 4e ba
       -0.0076204664 0.015194634 -0.0057795905 -0.0007891819
000310 16 2a 88 3c 9f a9 7d bc 98 54 e2 bb fe a4 ad b9
       0.01662163 -0.015482335 -0.006907057 -0.0003312006
000320 03 f7 82 bc 63 e1 19 b8 3b d2 14 3a 3c d1 33 3c
       -0.015986925 -3.668795e-05 0.0005677079 0.010975178
000330 eb 8c 28 3c c3 84 23 3a 0b 95 94 bc 3b 07 34 3b
       0.010287504 0.00062377396 -0.018137475 0.002747013
000340 81 64 9e bb 4b df 4c 3c e3 ab d9 bb 23 f1 55 3c
       -0.0048337583 0.012504409 -0.006642805 0.01305798
000350 f5 41 d4 3b a8 7e bf 3b b3 19 6f 3b 22 56 54 bb
       0.0064775893 0.005843956 0.0036483824 -0.0032399972
000360 3a 21 89 bc 7b 88 33 39 5a 32 e8 bb cb 0c d4 3b
       -0.016739476 0.00017121613 -0.0070860805 0.0064712516
000370 3d 10 8b 3b 5f c8 5b bc 20 b9 71 bb dd b8 7d 3b
       0.004243879 -0.013414471 -0.0036884025 0.0038714923
000380 47 23 83 bc d8 0d 6e bc 0d c0 51 bc a7 a7 2d bc
       -0.016008032 -0.014529668 -0.012802136 -0.010599053
000390 d3 53 36 bb 1f 38 e4 bb 6d 13 37 bb 5b 9f 8e bb
       -0.002782096 -0.006964698 -0.0027935163 -0.0043524927
0003a0 8d 30 6f 3c 0d 1b 59 bb 7f d3 bc 3b c0 b3 63 3a
       0.014598978 -0.0033127696 0.005762517 0.00086861476
0003b0 42 f3 f6 ba 7a 7e 8b 3a ff 64 2e 3b 43 6d bc 3b
       -0.0018840807 0.0010642551 0.0026610491 0.0057503297
0003c0 6f fd bf 3b fb 36 58 3c 7b dd d8 3b 94 3d a2 bb
       0.005859069 0.013196702 0.0066181994 -0.0049511883
0003d0 bd 99 21 3b 3f 48 85 3b d0 c9 0f 3c 8a 71 6b 3a
       0.0024658286 0.0040674503 0.008776143 0.0008981457
0003e0 b0 8f cd 3b 2a 66 cf bb 84 78 bc 3b 79 74 25 bc
       0.0062732324 -0.0063293176 0.0057516713 -0.01009857
0003f0 1f 3e 57 3c 9b e3 da 3b 8f 91 28 ba e6 39 1b 3c
       0.013137369 0.0066799647 -0.00064303813 0.009474253

action_model._discrete_distribution.branches.13.bias f4 [5]
000000 00 00 00 00 00 00 00 00 00 00 00 00 00 00 00 00
       0.0 0.0 0.0 0.0
000010 00 00 00 00
       0.0

action_model._discrete_distribution.branches.13.weight f4 [5, 128]
000000 d5 e7 0d 38 4a ae 4d bb fd 61 10 bc 24 91 b2 b9
       3.383293e-05 -0.0031384402 -0.008812425 -0.00034058944
000010 21 f3 a1 3b 2b 28 90 bb 48 bc 6b 3c 78 1f 80 bb
       0.0049423133 -0.0043993196 0.0143881515 -0.0039100014
000020 36 2e 01 3c c1 69 95 bb 2b f1 fd 3b f3 da 5e 3a
       0.007884553 -0.004559726 0.0077496967 0.0008501254
000030 09 62 bd 3b ab 7a 25 bb d3 79 96 bb 15 f6 e8 ba
       0.005779509 -0.0025250118 -0.0045921593 -0.0017773533
000040 ae 5c 10 bb cf 00 60 bb 87 e0 d5 bb be 38 99 3b
       -0.0022027898 -0.003418017 -0.00652701 0.0046759536
000050 25 ff e5 3a 4e 57 32 bc 32 74 fe 3a 6b 1c 22 3a
       0.0017547352 -0.010885073 0.0019413291 0.0006184044
000060 4b 9b 35 bc a7 9b 38 bc 37 83 92 ba 55 0e 77 3b
       -0.011084388 -0.011267579 -0.0011178021 0.0037697752
000070 2b 43 7e 3a 26 d9 04 3c d5 72 13 bc 5a e0 05 ba
       0.000969934 0.008108413 -0.008999546 -0.00051069784
000080 d2 c7 d3 3b 88 d7 54 3c b2 44 cf 3b 87 00 cf 3b
       0.0064630294 0.01299084 0.006325328 0.0063172015
000090 f3 26 2f bc eb ba 0e bc c0 65 85 3c 03 45 90 b9
       -0.010690439 -0.008711557 0.01628387 -0.00027517238
0000a0 cd dc 92 bb f0 c3 60 3b 86 f0 1b bc 08 96 b9 3b
       -0.004481888 0.0034296475 -0.0095177945 0.005663637
0000b0 37 fd 2b 3c 9a 78 41 bc 69 52 20 bb 1b 72 40 bc
       0.010497383 -0.011808539 -0.0024463183 -0.011745955
0000c0 35 40 18 3c 63 a7 ae bb fb 62 67 bb 9f 1b 64 bc
       0.009292652 -0.0053300126 -0.00353068 -0.013922601
0000d0 df 69 00 3c ca 17 ef ba 52 6f 35 3b b8 46 b6 ba
       0.007837742 -0.0018241343 0.002768476 -0.0013906574
0000e0 6a 6b f3 ba da c4 43 3c fa 9d 4f 3c c3 f1 e7 3a
       -0.0018571441 0.011948789 0.012671942 0.0017695952
0000f0 67 07 8f bb 9b fe 78 bc fb ea 84 3b 8d de f0 3b
       -0.004364896 -0.015197421 0.004056332 0.007350749
000100 57 96 d2 bb 98 ce 35 bc 04 ee b4 bb 80 57 14 3c
       -0.0064266133 -0.011096619 -0.0055215377 0.009054065
000110 2f 27 f3 bb 98 7b d5 ba fa 14 fb bb 01 f6 ba 3b
       -0.0074204425 -0.0016287444 -0.0076624127 0.0057055955
000120 6d 3f 8d bb 58 24 1a 3b 80 a2 e4 ba a2 1d aa 3b
       -0.0043105395 0.0023520198 -0.0017443448 0.005191521
000130 ee e2 94 3b 16 94 4a 3b 94 fb 3c 3b bd 06 78 3c
       0.0045436537 0.003091102 0.0028836476 0.015138325
000140 91 63 30 3c 49 bf 1b bc 70 7f e8 3c 3b 32 0c 3c
       0.010765926 -0.009506055 0.02838108 0.008556898
000150 4c d5 05 3b 33 2c 9a 3b 47 e4 56 3c 4f 4f 8e bb
       0.0020421324 0.004704976 0.013115949 -0.0043429504
000160 ea 21 91 3b 7c e2 c3 ba 03 51 25 3a 37 49 93 bb
       0.0044290917 -0.0014944817 0.0006306322 -0.004494812
000170 cd e5 1c bc 30 2e 59 bc b2 47 49 3c 57 52 3e 3a
       -0.009576273 -0.013255641 0.01228516 0.00072601944
000180 e7 8b 95 3c 6a 42 54 bc 38 99 31 3c 08 ee be 3b
       0.018255187 -0.0129552875 0.010839753 0.0058267154
000190 e3 62 f8 bb 02 6c e2 bb 14 65 31 3c 19 3e cb bb
       -0.0075801476 -0.006909848 0.010827322 -0.006202471
0001a0 1b 0f 71 bb 1f 12 3b ba 99 dd b6 3b 1d 27 9a bb
       -0.0036782685 -0.0007136184 0.0055806157 -0.0047043697
0001b0 10 03 6b bb 65 99 76 3c fb da 2b bb a8 e9 d1 3b
       -0.003585998 0.015051221 -0.0026223052 0.006406028
0001c0 03 1e 1f bc 9d 55 09 bc fb af 4b bb eb c9 2a 3c
       -0.009711745 -0.008382228 -0.0031080234 0.010424118
0001d0 43 b1 1b 3a 8f 57 21 3a 34 e2 c1 3b 35 ed 9a 3b
       0.0005939195 0.000615471 0.005916858 0.0047279843
0001e0 03 ff f0 3b 53 9b 96 bb af 20 ac bb a3 75 07 bc
       0.0073546185 -0.004596153 -0.0052529196 -0.008267793
0001f0 85 ce 1f bc dd 55 85 bb 8b 14 f0 3b 95 e9 5d 3c
       -0.009753828 -0.0040690736 0.0073266677 0.01354446
000200 0d e2 e3 bb 36 53 9a bb 9a 6a 37 bc 66 5e 03 3c
       -0.0069544376 -0.0047096265 -0.011194849 0.008018112
000210 8b 6a 23 bc c8 e3 03 bc f7 b4 9e bb 7b bd 83 bb
       -0.009974132 -0.008049913 -0.00484335 -0.0040203906
000220 8f 6a 3a 3b e0 ad e6 bb 5b 07 e3 3b 48 3f 24 3b
       0.0028444862 -0.0070397705 0.006928367 0.0025062133
000230 9f 32 ac 3b 60 8e 8e bb f3 fe c4 bb dd e7 60 bc
       0.005255058 -0.0043504685 -0.0060118376 -0.0137271555
000240 0e b8 29 bc 90 ec 5e bb f9 78 36 39 38 7b 1f bc
       -0.010358823 -0.0034015514 0.00017401938 -0.0097339675
000250 d5 f3 07 bc ca e6 94 bb e7 44 32 3c 21 65 26 bb
       -0.00829788 -0.0045441138 0.010880685 -0.0025389867
000260 c3 7f 8b 3b 4e 3c 15 bc 26 ac a8 3a 35 e7 83 b9
       0.0042571737 -0.009108616 0.0012868687 -0.0002515853
000270 40 ad 83 bc 65 7a ee bb 61 37 40 3a 3e 1f 33 3b
       -0.016073823 -0.007277774 0.0007332471 0.0027331854
000280 bf 5c 54 3c 87 0c 6b bb b3 f6 29 bb fd 56 1e bc
       0.0129615655 -0.0035865621 -0.0025934398 -0.009664294
000290 2b 16 fb bb 23 bd 50 bb 40 ad 7f 3a df bf 58 3c
       -0.0076625547 -0.0031851016 0.0009753294 0.013229339
0002a0 a1 c3 b5 3b da 27 96 bb 7a 99 01 3c eb 3a 66 bc
       0.0055470024 -0.0045823874 0.007910127 -0.014052133
0002b0 04 a2 81 bc b6 95 1c bb 8b f9 1c bc 2b ff 4a 3a
       -0.015824325 -0.0023892946 -0.00958098 0.00077437115
0002c0 d8 ef 70 bc a3 c2 2d 3a 3e 2f 9f bc b5 83 fd 3a
       -0.014705621 0.00066284294 -0.019431707 0.001934162
0002d0 43 fe f6 3b 42 78 02 bc c3 3a 06 3c 4f 2c 20 ba
       0.0075376346 -0.007963242 0.008192721 -0.0006110118
0002e0 d8 31 9d ba b5 f5 24 3c 6a 17 da 3c c0 cd fe bb
       -0.0011993004 0.010068347 0.026622493 -0.007775992
0002f0 6b 40 91 3b b6 a1 c6 3c e3 1a 57 3c 40 fd f2 bb
       0.004432728 0.024247032 0.013128969 -0.0074154437
000300 0e ea 25 bc 32 96 71 3c cf 97 30 3b e7 74 f0 bb
       -0.010126604 0.014745282 0.0026945954 -0.0073381546
000310 aa 80 62 3c fb a1 aa 3b 67 cc 8e bb 05 19 77 3a
       0.013824621 0.005207298 -0.0043578628 0.00094260304
000320 d3 5e a1 bb df e6 03 3c ba 26 12 bc 18 c3 81 3c
       -0.004924634 0.008050649 -0.008920366 0.015840098
000330 a5 c3 53 b9 a3 c6 12 3c ba d4 d2 3b df 7f 24 3a
       -0.00020195411 0.0089584915 0.0064340504 0.0006275158
000340 af fa 3b bc 98 b8 da bb 72 d3 eb bb 5a 2a c5 bb
       -0.011473342 -0.0066748373 -0.007196837 -0.0060170116
000350 47 b9 5c bb a5 f1 69 bb b0 51 54 3c 23 9f 02 bc
       -0.003367977 -0.003569701 0.012958929 -0.007972511
000360 8d f8 b6 ba 1b 43 90 3c e7 82 8d 3b 37 f7 a1 bb
       -0.0013959572 0.017610123 0.0043185833 -0.0049428004
000370 a8 45 13 bc ab 65 6b 3c bf e5 a4 3a c3 f5 c0 bb
       -0.008988775 0.014367501 0.0012580677 -0.005888672
000380 85 e4 d2 bb 63 f0 ca bb a9 e6 a4 bb a7 76 68 bb
       -0.006435933 -0.006193207 -0.0050323796 -0.0035471113
000390 53 cd 73 ba 2b 5f da b8 63 9b 98 bb 8d c4 92 b9
       -0.000930031 -0.000104127765 -0.0046571954 -0.00027993732
0003a0 f8 b7 74 3c 00 26 85 3c a7 f6 16 bc d8 66 a9 bc
       0.01493644 0.016253471 -0.00921408 -0.020678923
0003b0 bd 1f 5e bb 0a dc 97 bb 10 7e 25 3b 55 04 09 3b
       -0.003389343 -0.004634385 0.002525214 0.0020907123
0003c0 e2 3f 67 ba 35 99 cd bb d8 bf ff 3a 4e fc 25 3b
       -0.000882147 -0.006274367 0.001951213 0.0025327387
0003d0 77 96 40 bc 9a f8 d8 3b e8 7a 9c bc c7 ae 59 ba
       -0.011754624 0.0066214325 -0.019101575 -0.0008303937
0003e0 3d 36 fc bb e2 20 c7 3b a3 57 12 bc 17 7f fe bb
       -0.0076968954 0.006076918 -0.008932027 -0.007766615
0003f0 53 84 b0 3b 97 7a 54 bb 08 6a 10 bc 3b 33 cf 3c
       0.005386868 -0.0032421702 -0.008814342 0.025292983

action_model._discrete_distribution.branches.14.bias f4 [5]
000000 00 00 00 00 00 00 00 00 00 00 00 00 00 00 00 00
       0.0 0.0 0.0 0.0
000010 00 00 00 00
       0.0
