results/ppo/BadChessPlayer/BadChessPlayer-1433.onnx (onnx, 75462 bytes, 6 tensors)

action_model._discrete_distribution.branches.0.bias f4 [9]
000000 00 00 00 00 00 00 00 00 00 00 00 00 00 00 00 00
       0.0 0.0 0.0 0.0
000010 00 00 00 00 00 00 00 00 00 00 00 00 00 00 00 00
       0.0 0.0 0.0 0.0
000020 00 00 00 00
       0.0

action_model._discrete_distribution.branches.0.weight f4 [9, 128]
000000 d3 85 a0 bb 37 0c 09 bb 88 83 ec 3b cb cf b3 bb
       -0.0048987656 -0.0020911822 0.007217828 -0.0054874173
000010 81 9b 37 bc 80 d3 31 bb 35 6b 18 3c 0f 5b 3a bc
       -0.011206509 -0.002713412 0.009302904 -0.011374249
000020 95 73 52 3a 1a 07 d3 3b 4f 61 06 3c 4f 49 8a 3c
       0.00080280873 0.0064400556 0.008201911 0.01688066
000030 a2 e4 38 3b f5 55 f9 3b 30 57 5b 3c 30 83 65 3a
       0.0028212448 0.007609124 0.013387486 0.0008755205
000040 58 f9 d6 bb 10 1c e3 3a 43 ab a7 bb 0c 91 82 bc
       -0.006560486 0.0017327089 -0.0051168515 -0.015938304
000050 98 ee 20 3a 53 a6 b0 bb f8 7a 6e bb 08 48 1f bc
       0.0006139069 -0.005390921 -0.0036389213 -0.009721763
000060 87 1f 93 bb 3a 4b 5b 3b 42 3b 45 bc b6 50 cb bb
       -0.0044898423 0.0033461587 -0.012038054 -0.00620469
000070 ef 92 40 bc 98 a8 18 3c 93 52 df 3b c1 ba bd 3c
       -0.011753782 0.00931754 0.0068152635 0.02316034
000080 a1 a1 13 3b 65 71 eb bb 07 6e d1 3b 15 ce f2 3a
       0.0022526758 -0.0071851485 0.00639129 0.0018524552
000090 ab 22 d3 3b f9 92 9a bb 9b 0f cf bb ba 4f fc b9
       0.0064433417 -0.0047172275 -0.006318999 -0.00048124586
0000a0 df 08 f1 bb 8f 35 40 bc 45 98 4e bc cb 79 44 3b
       -0.007355794 -0.011731519 -0.012609546 0.002997982
0000b0 13 56 67 3c a3 97 d4 bb b2 4d c4 3b 6b af 10 ba
       0.014119643 -0.006487803 0.0059907073 -0.00055193034
0000c0 38 1f 00 3c 23 35 25 ba 37 c9 2e 3b 03 d1 7a 3b
       0.007819943 -0.00063021685 0.0026670226 0.0038271553
0000d0 25 00 21 3c 7f fd 2f 3c 74 69 97 ba 7b 80 04 3b
       0.009826695 0.0107415905 -0.0011551813 0.0020218182
0000e0 9f 8b a0 bc f5 89 f5 bb 32 72 bd 3b 52 51 6f bc
       -0.019597827 -0.0074932524 0.0057814354 -0.014606791
0000f0 7f 3b 3b bc db 52 5b 3c 1c 1d 9d ba db 3d 9b bc
       -0.011427759 0.0133864535 -0.0011986825 -0.018950393
000100 2d 10 90 3b fb b1 fd 3b 9c 5f 06 bc f6 0a 0f bb
       0.0043964596 0.007742164 -0.008201506 -0.0021826602
000110 46 80 05 3c eb e5 12 3c 6e f4 40 bc e1 a3 b7 3b
       0.008148259 0.0089659495 -0.011777027 0.0056042527
000120 4f 7d 1f 3c 9f 95 fe 3a 83 5c df 3a de 32 2d 3c
       0.009734466 0.0019423253 0.001704112 0.01057121
000130 0b f3 36 3c 03 82 a4 bb 51 20 12 bc d2 43 db 39
       0.011166344 -0.0050203814 -0.008918838 0.00041821465
000140 2b 3d 81 3b 04 ef 25 3c 53 e3 f5 bb ed 64 ab bb
       0.0039440594 0.010127787 -0.007503906 -0.005230537
000150 f3 25 d2 3a 28 b2 71 3c 6d 4a ec 3b 6b d1 18 bc
       0.0016033038 0.014751948 0.0072110207 -0.009327273
000160 6e d8 c0 bc f0 9d f4 3b 3a 00 71 bb 25 eb af ba
       -0.023540702 0.0074651167 -0.0036773817 -0.0013421519
000170 25 8a f7 3b a3 9f b0 3b 83 37 97 3b 85 d8 e5 bb
       0.00755431 0.005390124 0.004614772 -0.0070143365
000180 b7 00 72 bc f5 aa 8a 3b 05 6d 35 b8 ff c1 58 bb
       -0.014770678 0.0042318054 -4.3255295e-05 -0.0033074615
000190 f8 91 74 bc 11 f3 be bc 2f ea 00 3c e3 b9 39 3b
       -0.01492738 -0.023309262 0.007868334 0.0028339557
0001a0 15 f6 f7 bb af 0c 0c bc 9f b5 03 bb cd 22 a9 bb
       -0.007567177 -0.008547946 -0.0020097268 -0.0051616193
0001b0 b3 e3 1c bc f5 91 fd 39 3f f5 06 bb 94 c9 be bb
       -0.009575772 0.00048364667 -0.0020592955 -0.00582237
0001c0 95 13 62 bc 11 30 90 3a 18 e1 eb bb 63 10 0f 3c
       -0.013798614 0.0011000653 -0.007198464 0.008731934
0001d0 e7 71 45 3b b4 6a 01 ba 57 da 3a bc f7 f4 3e 3c
       0.0030127706 -0.00049368595 -0.011404595 0.011655084
0001e0 de 2b b1 3b 53 40 e2 3b 13 55 a6 ba d3 d9 16 3b
       0.0054068407 0.0069046407 -0.0012690149 0.0023018017
0001f0 80 fa 30 bb ce de cb bb a1 d6 1c 3c 8f d3 9d bb
       -0.0027004778 -0.0062216287 0.009572656 -0.0048164795
000200 d3 c1 5e 3a 6d b1 8a 38 5d f9 f1 3b fa db 8d 3b
       0.000849751 6.613401e-05 0.0073844627 0.0043292018
000210 80 ee 2c bc c9 2d 82 bb e3 aa 98 ba 32 bc 82 3b
       -0.01055491 -0.003972743 -0.0011647608 0.00398972
000220 93 3b f3 3b 71 13 95 3c 3d 65 be 3b a5 be da ba
       0.0074228733 0.018197747 0.0058104084 -0.0016688897
000230 df 17 67 3c 54 17 4c 3c 76 24 00 bc 72 7b 42 3c
       0.014104812 0.012456734 -0.007821193 0.011870252
000240 f7 a2 04 bc ca a1 c6 ba c3 1f 7d bb 13 10 55 bc
       -0.0080954945 -0.0015154418 -0.0038623668 -0.013004321
000250 6f b7 2c 3b be 33 22 39 b6 d5 91 3b 56 8f b0 bb
       0.0026354452 0.000154688 0.004450525 -0.0053881807
000260 83 71 36 bc d4 89 1a bc 7b 50 3a 3b ef b1 91 3c
       -0.011135462 -0.009432275 0.0028429318 0.01778504
000270 f3 dc d5 3b 7b d6 a3 bb 7c d6 2d 3c 22 c7 76 bc
       0.0065265833 -0.0049999333 0.010610219 -0.015062125
000280 72 fc 6d 3b 77 0f dc 3b 3f 52 02 bc 83 d6 1a 3b
       0.00363138 0.0067157107 -0.007954179 0.0023626394
000290 43 4d a8 3c 95 dc 46 bb 28 de 55 bc 1b 18 1a 3c
       0.020544654 -0.003034388 -0.013053454 0.009405161
0002a0 77 4d 6e 3c 0f 49 9d 3a 4f 40 6c 3c b0 89 6c bc
       0.014544836 0.0011999923 0.014419629 -0.014437124
0002b0 bf 96 24 bc 2c c7 bb 3b 5e a1 2f 3b 1a 9e 34 3b
       -0.010045706 0.0057305302 0.0026799063 0.0027560056
0002c0 f7 5c 5a 3b bb 3a 60 bb 5d 8c 9e 3c f1 39 ac 3a
       0.0033319572 -0.0034214694 0.01935404 0.0013139826
0002d0 e3 ba 7b 37 7e a6 38 3c d2 cf 9f 3c 86 0e 29 3c
       1.5004279e-05 0.011270164 0.019508276 0.010318404
0002e0 0d d1 17 3b 60 09 54 bc e3 f4 78 bc 0a bb 8d 3c
       0.0023165375 -0.012941688 -0.015195104 0.017301101
0002f0 bd 64 4d bc d0 3b ce b9 c0 f4 1b 3c ba c1 55 bc
       -0.012536225 -0.00039335946 0.009518802 -0.013046676
000300 c5 a8 56 3c 59 29 05 3c b7 1e fa 3b e3 ad aa bc
       0.013101761 0.008127534 0.007633056 -0.020834869
000310 0d 19 a8 bc bb a9 1b bb 95 1c 70 bc b8 55 83 3b
       -0.020519758 -0.002375229 -0.014655252 0.004008021
000320 ce 78 a7 ba b0 dc d1 ba 53 56 26 3c ea 20 04 3c
       -0.0012777091 -0.0016011205 0.010152417 0.008064488
000330 f8 c7 e2 ba db 5d 37 3c 3f 7f 55 3c 70 bc 7a 3c
       -0.0017302027 0.0111918105 0.013030826 0.015303716
000340 d5 86 ff ba eb 7b 15 3c 8e f6 1c bc 22 05 fc bb
       -0.0019495139 0.009123783 -0.009580268 -0.0076910416
000350 2f 40 4e 3c 0b 0c 9b bb 2a 74 5e bb db e2 c0 3b
       0.012588545 -0.0047316602 -0.003394375 0.0058864183
000360 47 05 bf 37 9f bf da ba f5 fb db ba f3 27 ab bb
       2.2771432e-05 -0.0016689188 -0.0016783463 -0.005223268
000370 31 2a 32 ba 46 a5 0c bc 5b 56 bd ba b0 b5 b4 3b
       -0.0006796448 -0.008584326 -0.0014445292 0.005514823
000380 28 98 d9 3b 05 eb c6 bb de 9d 89 ba 0e bd 45 b9
       0.006640453 -0.006070497 -0.0010499319 -0.00018857812
000390 a5 e1 ae ba 76 1a c0 bb 90 d2 7d bb bb d6 a5 3b
       -0.0013342394 -0.0058625294 -0.0038730241 0.0050609983
0003a0 0b f3 3b b8 15 fc 3b 3c 62 5a d7 3b 70 22 7b 3c
       -4.4810626e-05 0.011473675 0.006572054 0.015328035
0003b0 65 cf f0 bc c0 1e 4e 3b 5a 43 7c 3a 83 2b 61 3b
       -0.029395768 0.0031451434 0.0009623073 0.003435821
0003c0 07 68 49 3c 17 c4 8d bc 26 47 80 3c 27 eb 3b bb
       0.012292868 -0.017305417 0.015658926 -0.0028674097
0003d0 98 f9 d3 bc e7 20 87 3a 0c bb 39 bc c6 9f 14 bc
       -0.025875852 0.0010309488 -0.011336099 -0.009071296
0003e0 b7 d1 97 bb b2 c9 e0 b9 40 12 26 bc 62 71 da bb
       -0.0046331543 -0.00042874884 -0.010136187 -0.0066663483
0003f0 ed 97 d4 3c 88 7f c4 3b 3d 11 74 3c 6b 1f 37 3a
       0.02595135 0.005996648 0.014896688 0.00069855776

network_body.linear_encoder.seq_layers.0.bias f4 [128]
000000 00 00 00 00 00 00 00 00 00 00 00 00 00 00 00 00
       0.0 0.0 0.0 0.0
000010 00 00 00 00 00 00 00 00 00 00 00 00 00 00 00 00
       0.0 0.0 0.0 0.0
000020 00 00 00 00 00 00 00 00 00 00 00 00 00 00 00 00
       0.0 0.0 0.0 0.0
000030 00 00 00 00 00 00 00 00 00 00 00 00 00 00 00 00
       0.0 0.0 0.0 0.0
000040 00 00 00 00 00 00 00 00 00 00 00 00 00 00 00 00
       0.0 0.0 0.0 0.0
000050 00 00 00 00 00 00 00 00 00 00 00 00 00 00 00 00
       0.0 0.0 0.0 0.0
000060 00 00 00 00 00 00 00 00 00 00 00 00 00 00 00 00
       0.0 0.0 0.0 0.0
000070 00 00 00 00 00 00 00 00 00 00 00 00 00 00 00 00
       0.0 0.0 0.0 0.0
000080 00 00 00 00 00 00 00 00 00 00 00 00 00 00 00 00
       0.0 0.0 0.0 0.0
000090 00 00 00 00 00 00 00 00 00 00 00 00 00 00 00 00
       0.0 0.0 0.0 0.0
0000a0 00 00 00 00 00 00 00 00 00 00 00 00 00 00 00 00
       0.0 0.0 0.0 0.0
0000b0 00 00 00 00 00 00 00 00 00 00 00 00 00 00 00 00
       0.0 0.0 0.0 0.0
0000c0 00 00 00 00 00 00 00 00 00 00 00 00 00 00 00 00
       0.0 0.0 0.0 0.0
0000d0 00 00 00 00 00 00 00 00 00 00 00 00 00 00 00 00
       0.0 0.0 0.0 0.0
0000e0 00 00 00 00 00 00 00 00 00 00 00 00 00 00 00 00
       0.0 0.0 0.0 0.0
0000f0 00 00 00 00 00 00 00 00 00 00 00 00 00 00 00 00
       0.0 0.0 0.0 0.0
000100 00 00 00 00 00 00 00 00 00 00 00 00 00 00 00 00
       0.0 0.0 0.0 0.0
000110 00 00 00 00 00 00 00 00 00 00 00 00 00 00 00 00
       0.0 0.0 0.0 0.0
000120 00 00 00 00 00 00 00 00 00 00 00 00 00 00 00 00
       0.0 0.0 0.0 0.0
000130 00 00 00 00 00 00 00 00 00 00 00 00 00 00 00 00
       0.0 0.0 0.0 0.0
000140 00 00 00 00 00 00 00 00 00 00 00 00 00 00 00 00
       0.0 0.0 0.0 0.0
000150 00 00 00 00 00 00 00 00 00 00 00 00 00 00 00 00
       0.0 0.0 0.0 0.0
000160 00 00 00 00 00 00 00 00 00 00 00 00 00 00 00 00
       0.0 0.0 0.0 0.0
000170 00 00 00 00 00 00 00 00 00 00 00 00 00 00 00 00
       0.0 0.0 0.0 0.0
000180 00 00 00 00 00 00 00 00 00 00 00 00 00 00 00 00
       0.0 0.0 0.0 0.0
000190 00 00 00 00 00 00 00 00 00 00 00 00 00 00 00 00
       0.0 0.0 0.0 0.0
0001a0 00 00 00 00 00 00 00 00 00 00 00 00 00 00 00 00
       0.0 0.0 0.0 0.0
0001b0 00 00 00 00 00 00 00 00 00 00 00 00 00 00 00 00
       0.0 0.0 0.0 0.0
0001c0 00 00 00 00 00 00 00 00 00 00 00 00 00 00 00 00
       0.0 0.0 0.0 0.0
0001d0 00 00 00 00 00 00 00 00 00 00 00 00 00 00 00 00
       0.0 0.0 0.0 0.0
0001e0 00 00 00 00 00 00 00 00 00 00 00 00 00 00 00 00
       0.0 0.0 0.0 0.0
0001f0 00 00 00 00 00 00 00 00 00 00 00 00 00 00 00 00
       0.0 0.0 0.0 0.0

network_body.linear_encoder.seq_layers.0.weight f4 [128, 4]
000000 57 11 b4 be 8f ad 99 bf f4 d3 30 bf 23 0d 1e bf
       -0.3516948 -1.2006091 -0.69073415 -0.61738795
000010 a6 1d d9 3e f1 3b 71 bf 25 9c 88 be be 68 98 be
       0.42405432 -0.9423209 -0.2668163 -0.29767412
000020 b3 fc 95 be 37 22 6f 3e 3e 84 84 bf f7 0a 8f 3f
       -0.29294357 0.23352896 -1.0352857 1.1175221
000030 98 1c 13 bd 84 de 1c 3d ff 27 a9 be fb dd 79 3e
       -0.03591594 0.038298145 -0.33038327 0.24401085
000040 81 b7 e1 be 36 dd dd be de d0 c0 3e 0c e3 47 3f
       -0.44085315 -0.43332833 0.37659353 0.7808082
000050 09 4e d9 be 9b b8 32 3e 80 dc e2 3e 3b 95 92 3d
       -0.4244235 0.17453234 0.44308853 0.0715737
000060 cc 5a 9f 3d 79 3f 16 3c eb 3d 6b 3f 0a 46 af bd
       0.0778099 0.0091704065 0.91891354 -0.08558281
000070 d6 61 a7 be e4 32 7d 3d ef e4 af be 8e 98 14 bf
       -0.3269183 0.06181611 -0.3435435 -0.5804528
000080 5c 72 72 3d fe 89 49 be be 75 e4 bd db 1c 0f bf
       0.059191093 -0.19681546 -0.1115527 -0.55903405
000090 cf 29 ae be fa 64 33 3c 87 67 17 be 38 6b a6 3d
       -0.34016272 0.010949368 -0.14785586 0.08125919
0000a0 cd 12 9e 3e d6 c3 1f be 31 0e 21 3f 30 27 f4 be
       0.3087372 -0.15602049 0.6291228 -0.47686148
0000b0 81 2b 87 3e 57 52 a1 3e e9 93 5a 3d 73 55 74 bf
       0.26400378 0.31508133 0.053363714 -0.95442885
0000c0 72 e4 50 3e 3a 3c 51 be e3 4a 52 3e 5b 7b 87 be
       0.20399645 -0.20433131 0.2053638 -0.264613
0000d0 0c 67 24 3e 44 63 a1 3d 58 77 ad be 55 37 1a bf
       0.16054934 0.078802615 -0.33880115 -0.6024068
0000e0 60 1e 23 3e 44 0b 82 be a7 35 a2 bf 02 a8 62 3f
       0.15929556 -0.2539922 -1.2672623 0.8853761
0000f0 3f e7 87 3e 80 29 28 bf 2c bc ce 3e e9 fc 8b 3d
       0.26543614 -0.65688324 0.4037794 0.06835348
000100 36 56 50 3e 7b 04 1b bf e8 f6 57 bf e2 bc 57 3f
       0.20345387 -0.6055371 -0.84361124 0.8427259
000110 5d 34 24 bf 28 33 85 be ac 0c 9f 3e 68 1f f4 3e
       -0.641424 -0.26015592 0.31064355 0.4768021
000120 e6 de 85 be 2c 4a bf be 8d f5 fe 3d 31 26 78 bf
       -0.2614662 -0.37361276 0.12449179 -0.96933275
000130 2e e4 ea bd d2 db 31 3f dc 38 06 bf 34 8e 21 3f
       -0.11469303 0.69476044 -0.5243051 0.6310761
000140 88 bf e9 3e 54 22 00 3e 7a 11 59 bf 27 7f ce be
       0.4565394 0.12513095 -0.8479229 -0.40331385
000150 53 37 16 be 43 84 91 be 59 41 9c be 7e 2a a7 be
       -0.14669542 -0.2842122 -0.30518606 -0.32649606
000160 58 e6 71 3e 15 57 46 be 35 90 3d bf a7 9d ea bf
       0.23623025 -0.19369157 -0.7404817 -1.8329362
000170 48 25 06 3d 59 dc f9 3e 54 82 ad bd 20 a9 2b 3e
       0.032750398 0.48800924 -0.08472124 0.16763735
000180 33 86 1e bc 51 61 81 3e 1b 86 5c bf 30 b7 f3 3e
       -0.00967555 0.2526956 -0.8614213 0.47600698
000190 84 d2 c3 be e3 46 8b bf da 5f c6 be 64 48 e9 3d
       -0.38246548 -1.0881008 -0.38745004 0.113907605
0001a0 3c 3c 7d bf 07 31 5a bf fd 5e 84 be 67 ea f3 be
       -0.98920035 -0.8523106 -0.2585372 -0.47639772
0001b0 a3 9c 1d 3e 02 08 35 bf b9 2e fc 3d 47 76 6a bf
       0.15391783 -0.70715344 0.12313599 -0.91586727
0001c0 3b 94 2a 3e 3f 48 88 bf d8 79 61 be 51 a2 19 be
       0.16658108 -1.0647048 -0.22019136 -0.15003325
0001d0 7d 37 6b 3e ad 05 b4 3f ac a2 c7 3e 9e 5d 67 3d
       0.22970386 1.4064232 0.38991296 0.056485765
0001e0 62 60 ad 3e 1e f7 6c bf bf e7 35 3e 95 ed 1c be
       0.33862597 -0.9256457 0.17764185 -0.15325005
0001f0 90 66 8d bf 43 1f 02 3f 99 12 e6 be 78 fe d2 be
       -1.1046925 0.5082895 -0.44936064 -0.4120977
000200 93 25 53 be 9c 77 17 3f fb 3b b6 be ad 21 5c 3f
       -0.20619802 0.59166884 -0.35592636 0.85988885
000210 e1 3c 0f 3d 28 14 52 3c 6f 0c 13 3d 9a 08 75 bf
       0.034970168 0.012822188 0.03590053 -0.9571625
000220 33 d1 71 3f c9 ec 52 bf 7e 3c 3b 3f 96 28 c7 be
       0.9445984 -0.82392555 0.7313918 -0.38898152
000230 55 a0 82 3e 7d 2b 39 bf 47 c1 e1 bd b2 9e 4d be
       0.2551295 -0.7233198 -0.11023193 -0.20080069
000240 9b 62 79 bf b1 72 d0 be 43 4d dc bc 44 a8 0d 3f
       -0.97416085 -0.40712503 -0.02689231 0.5533488
000250 52 80 be 3e 1e 90 8c bd 57 85 84 3e 2d 5e 30 3f
       0.37207276 -0.06863426 0.2588298 0.688937
000260 a9 1d 43 bf f8 85 7d be d9 56 07 bf 4a 56 04 3f
       -0.7621713 -0.24758136 -0.52866894 0.51694167
000270 10 30 16 bf e2 80 45 3e 20 48 90 bc 37 9e 0c 3f
       -0.5866709 0.19287446 -0.017612517 0.54928917
000280 2e ad 3b bf 16 8d 1d bf b6 29 06 be 1d 56 24 3f
       -0.73311126 -0.61543405 -0.13101849 0.641939
000290 11 3e ae 3e 4f 33 76 3e 60 47 ed 3e ed 2c c5 bd
       0.34031728 0.2404301 0.46343517 -0.096277095
0002a0 de 79 52 3e 55 e2 05 3f 1a 25 4c 3e 43 7a 00 be
       0.20554301 0.5229848 0.19936028 -0.12546639
0002b0 5f d9 43 bf 44 26 14 bf 5f 2d 1a bc 1a 38 d6 be
       -0.76503557 -0.5787089 -0.009410231 -0.41839677
0002c0 78 81 a1 bd 40 43 f0 be be 5e b7 3f 90 02 e5 3c
       -0.07886022 -0.46926308 1.4325788 0.027955323
0002d0 75 03 90 be d5 a0 df 3e 89 98 30 3f fa 51 0a bf
       -0.28127638 0.43677393 0.6898275 -0.54031336
0002e0 8c 73 7d bf 00 4b cd 3d 01 fc 98 3e 5e d6 ee 3d
       -0.99004436 0.10024071 0.29879764 0.11661981
0002f0 19 da 8d be 5d e7 17 3e b4 7e 82 3c a1 2d 8c 3e
       -0.27705458 0.14834352 0.015929557 0.27378562
000300 c2 6c ba 3e 2f a3 20 bf 0f e9 43 3f 14 02 97 bf
       0.364111 -0.62749 0.76527494 -1.1797509
000310 b6 54 04 3f 8f d2 47 bf 83 55 ed be 62 80 83 3e
       0.5169176 -0.7805566 -0.46354303 0.25683886
000320 36 50 1d be c2 bf 52 bd 3c ff 50 bc b7 b3 45 3f
       -0.1536263 -0.051452406 -0.012756165 0.7722735
000330 17 77 10 3d 43 ae 1a 3e 31 f7 9a 3e a2 76 05 bf
       0.035269823 0.15105538 0.30266717 -0.52134144
000340 75 cf 96 3e 60 31 31 3e 50 03 82 be 40 35 2c be
       0.29455152 0.17303991 -0.25393152 -0.16817188
000350 c5 b0 1f bf 96 14 07 3e 14 eb e0 3e 78 b6 bf be
       -0.62379104 0.13191447 0.4392935 -0.374439
000360 73 ef 87 bd 14 34 82 3f 49 3a a9 be 16 d1 5b 3f
       -0.06637468 1.0172143 -0.3305228 0.85865915
000370 02 c4 76 bf b8 40 4b bf e2 e6 62 be 39 db d1 3e
       -0.96392834 -0.7939563 -0.22158387 0.40987566
000380 99 43 d0 3d 51 fa da 3e cd 91 50 3e 6b 43 43 3f
       0.10169143 0.427691 0.20368119 0.76274747
000390 83 c2 e2 3d 40 48 1d 3e 6c 5d 9c be 70 c3 05 3f
       0.110722564 0.15359592 -0.30540025 0.5225134
0003a0 e7 04 a4 3d 60 52 23 bf 6f 22 16 bf 24 28 f1 be
       0.080087475 -0.6379757 -0.5864629 -0.47100937
0003b0 db be 2e 3e 86 0d 71 bf d5 b2 38 3f 78 3a 80 be
       0.17064993 -0.9416126 0.72147876 -0.25044608
0003c0 c7 bd 8d be f2 82 8e 3e 0b d1 23 bf 10 86 8b bf
       -0.2768385 0.27834278 -0.6399085 -1.0900288
0003d0 52 bd f7 3e 2f 3b 3d 3e 7a b6 9f 3e e5 e6 81 be
       0.48386627 0.18479608 0.31193906 -0.2537147
0003e0 e7 f7 21 3f 37 61 9f 3f 10 ed 9b 3e 16 99 ef 3e
       0.63268894 1.2451543 0.30454302 0.46796483
0003f0 01 ba 0c be 47 93 da be af 4c 89 3f 6d 2f d4 3c
       -0.1374283 -0.4269049 1.0726527 0.02590152

network_body.linear_encoder.seq_layers.2.bias f4 [128]
000000 00 00 00 00 00 00 00 00 00 00 00 00 00 00 00 00
       0.0 0.0 0.0 0.0
000010 00 00 00 00 00 00 00 00 00 00 00 00 00 00 00 00
       0.0 0.0 0.0 0.0
000020 00 00 00 00 00 00 00 00 00 00 00 00 00 00 00 00
       0.0 0.0 0.0 0.0
000030 00 00 00 00 00 00 00 00 00 00 00 00 00 00 00 00
       0.0 0.0 0.0 0.0
000040 00 00 00 00 00 00 00 00 00 00 00 00 00 00 00 00
       0.0 0.0 0.0 0.0
000050 00 00 00 00 00 00 00 00 00 00 00 00 00 00 00 00
       0.0 0.0 0.0 0.0
000060 00 00 00 00 00 00 00 00 00 00 00 00 00 00 00 00
       0.0 0.0 0.0 0.0
000070 00 00 00 00 00 00 00 00 00 00 00 00 00 00 00 00
       0.0 0.0 0.0 0.0
000080 00 00 00 00 00 00 00 00 00 00 00 00 00 00 00 00
       0.0 0.0 0.0 0.0
000090 00 00 00 00 00 00 00 00 00 00 00 00 00 00 00 00
       0.0 0.0 0.0 0.0
0000a0 00 00 00 00 00 00 00 00 00 00 00 00 00 00 00 00
       0.0 0.0 0.0 0.0
0000b0 00 00 00 00 00 00 00 00 00 00 00 00 00 00 00 00
       0.0 0.0 0.0 0.0
0000c0 00 00 00 00 00 00 00 00 00 00 00 00 00 00 00 00
       0.0 0.0 0.0 0.0
0000d0 00 00 00 00 00 00 00 00 00 00 00 00 00 00 00 00
       0.0 0.0 0.0 0.0
0000e0 00 00 00 00 00 00 00 00 00 00 00 00 00 00 00 00
       0.0 0.0 0.0 0.0
0000f0 00 00 00 00 00 00 00 00 00 00 00 00 00 00 00 00
       0.0 0.0 0.0 0.0
000100 00 00 00 00 00 00 00 00 00 00 00 00 00 00 00 00
       0.0 0.0 0.0 0.0
000110 00 00 00 00 00 00 00 00 00 00 00 00 00 00 00 00
       0.0 0.0 0.0 0.0
000120 00 00 00 00 00 00 00 00 00 00 00 00 00 00 00 00
       0.0 0.0 0.0 0.0
000130 00 00 00 00 00 00 00 00 00 00 00 00 00 00 00 00
       0.0 0.0 0.0 0.0
000140 00 00 00 00 00 00 00 00 00 00 00 00 00 00 00 00
       0.0 0.0 0.0 0.0
000150 00 00 00 00 00 00 00 00 00 00 00 00 00 00 00 00
       0.0 0.0 0.0 0.0
000160 00 00 00 00 00 00 00 00 00 00 00 00 00 00 00 00
       0.0 0.0 0.0 0.0
000170 00 00 00 00 00 00 00 00 00 00 00 00 00 00 00 00
       0.0 0.0 0.0 0.0
000180 00 00 00 00 00 00 00 00 00 00 00 00 00 00 00 00
       0.0 0.0 0.0 0.0
000190 00 00 00 00 00 00 00 00 00 00 00 00 00 00 00 00
       0.0 0.0 0.0 0.0
0001a0 00 00 00 00 00 00 00 00 00 00 00 00 00 00 00 00
       0.0 0.0 0.0 0.0
0001b0 00 00 00 00 00 00 00 00 00 00 00 00 00 00 00 00
       0.0 0.0 0.0 0.0
0001c0 00 00 00 00 00 00 00 00 00 00 00 00 00 00 00 00
       0.0 0.0 0.0 0.0
0001d0 00 00 00 00 00 00 00 00 00 00 00 00 00 00 00 00
       0.0 0.0 0.0 0.0
0001e0 00 00 00 00 00 00 00 00 00 00 00 00 00 00 00 00
       0.0 0.0 0.0 0.0
0001f0 00 00 00 00 00 00 00 00 00 00 00 00 00 00 00 00
       0.0 0.0 0.0 0.0

network_body.linear_encoder.seq_layers.2.weight f4 [128, 128]
000000 9e 6b 12 bc 5e 11 38 3d e0 d1 79 3d e1 81 94 bc
       -0.008936791 0.044938438 0.060991168 -0.018128337
000010 f1 90 bb bd 68 0a 8f 3b 72 2e 77 3d a9 59 3e be
       -0.09158505 0.004365254 0.060347028 -0.1858889
000020 d0 e6 95 bd ae 16 fa bc ac a2 ca 3d cf 0f 8d bd
       -0.073194146 -0.030528393 0.098943084 -0.06887781
000030 b9 4e 8e 3d 93 a2 a8 bc 0e 0a 65 3c 99 0a aa 3d
       0.06948609 -0.020585334 0.013979448 0.083028026
000040 50 78 92 bd 3c c0 72 3d f1 6c f9 bd 56 90 ca bd
       -0.07151854 0.05926536 -0.12178982 -0.09890811
000050 a7 ac c4 bd 8b 30 17 3d 47 40 d4 bc a6 83 a3 3d
       -0.09603243 0.03691153 -0.025909556 0.07984094
000060 b4 ab d4 bc e5 27 5e 3d 32 50 df bc c2 44 aa bb
       -0.02596078 0.054237265 -0.02725992 -0.005196185
000070 6a 95 77 3d d8 2c f2 3b 0a 74 2e bd a9 c3 06 3e
       0.060445227 0.0073905997 -0.042591132 0.13160576
000080 10 3a 1e be c8 86 65 3c 2c 03 82 bd ed e9 a9 bd
       -0.15451837 0.014009185 -0.06348261 -0.08296571
000090 da 94 31 bd 77 d8 0b bd f7 00 d9 3d a1 62 6c 3d
       -0.043354847 -0.034141984 0.10595887 0.057711247
0000a0 9b 63 fd 3c 6d 39 64 3e 51 d4 3f 3c 19 9f c5 bd
       0.030931285 0.22287531 0.011708335 -0.09649486
0000b0 b9 af e3 bd 12 d4 af 3d eb d5 ae 3d 50 f2 f6 3c
       -0.11117501 0.08585371 0.08536895 0.03014484
0000c0 b5 69 71 3d 1e 7b 14 be 19 79 a6 3d ae 72 80 be
       0.0589387 -0.1450009 0.08128566 -0.25087494
0000d0 b1 e4 fe bd 52 24 25 bd bf 9c aa bb 38 9e db bc
       -0.12445963 -0.04031784 -0.005206674 -0.026808843
0000e0 64 0a c7 3c 0d fe b4 3d 80 b9 1c be ad 44 1f 3c
       0.024296947 0.08837519 -0.15305138 0.009720963
0000f0 e3 fe 25 3d ab 95 da bb 5a 2a 92 3d 4c 22 a7 3d
       0.040526282 -0.006670674 0.07136984 0.081608385
000100 4d 88 74 bd fb 3b 51 be ff 1e 86 bc dc 53 40 3d
       -0.0597003 -0.20433037 -0.016372202 0.046954975
000110 9e cc 0c be 87 8d cb 3c ee 55 9b 3c e8 78 02 3d
       -0.1374993 0.024847759 0.018961873 0.031853586
000120 3d 9c 49 3d e2 2b 3e 3d fe 3a 17 3e 57 40 49 bd
       0.049221266 0.04642857 0.14768597 -0.049133625
000130 d6 e1 c1 3d 28 88 19 bd 8b 51 25 3e f3 cc ac bc
       0.09466903 -0.037483364 0.16144387 -0.021093821
000140 a2 d6 80 bc b7 a4 dd bd 0a 09 42 bd e7 a9 d1 bd
       -0.015727345 -0.108224325 -0.0473719 -0.102374844
000150 2c 40 a5 3b 29 48 28 be ab 7d 61 3d e5 bb c8 3d
       0.0050430503 -0.16433777 0.055051487 0.09801463
000160 29 60 87 3d 75 e7 d0 bd 43 c9 2e be 2f e7 9c 3d
       0.06610138 -0.10200397 -0.17068963 0.07661282
000170 ca 4f ce 3b e5 da 18 3d f7 24 0f be a4 38 c9 bd
       0.0062961327 0.03731813 -0.13978945 -0.098252565
000180 ed c6 e8 3c 65 5e 74 3d c1 ef 54 3d 34 5a 88 bd
       0.028415168 0.059660334 0.05198646 -0.0665783
000190 3c c3 df 3d e7 3b 33 3d cf a5 3d 3c 2c 3e e7 3d
       0.1092591 0.0437583 0.011575176 0.11291155
0001a0 33 58 06 3d 84 19 8f bc 59 85 07 3e a1 5a 30 be
       0.032798957 -0.017468221 0.13234462 -0.17222072
0001b0 e1 33 28 3e 9e 46 9f bd ac f8 8a bc 15 82 a3 bd
       0.1642604 -0.07777141 -0.01696428 -0.079837956
0001c0 2b db a3 bd 23 86 18 3d 78 10 08 bd 63 34 0d bd
       -0.08000787 0.037237298 -0.03321883 -0.034473788
0001d0 ba 07 cb 3c e2 62 c6 bd 8b 21 5f bc 39 5e e7 bb
       0.024783958 -0.09686829 -0.013618837 -0.0070607928
0001e0 94 55 18 be 94 4b b8 3c f2 f5 cd bd d1 1c b3 bd
       -0.14876395 0.022496976 -0.10056676 -0.08745731
0001f0 a0 ba e8 ba ad a3 3a 3c 1a 21 f6 3d 74 f4 16 3e
       -0.0017755814 0.011391562 0.12018032 0.14741689
000200 2d a6 f7 bc c9 37 d2 bd bd 12 3b bd 3f ea b2 3d
       -0.030230606 -0.102645464 -0.045672167 0.08736085
000210 5f 0a 39 bd de 30 b3 bd f4 be b4 bc fa a0 a4 bc
       -0.045175906 -0.08749555 -0.02206371 -0.02009629
000220 64 20 68 bd bf fd 0e 3e fa 3e 0a bd fa 44 de 3c
       -0.056671515 0.13963984 -0.033751465 0.0271325
000230 4b c5 9f 3b 0b d0 f7 3d 50 12 5e bd 1c c6 ec bd
       0.004875814 0.12100228 -0.054216683 -0.11561224
000240 15 3f 4f 3c ce f1 cf 3c f3 7e a4 3c 22 19 41 3d
       0.012649317 0.025383856 0.020080065 0.04714311
000250 0b 35 e9 3d c8 59 a1 bc 9c fc 3b 3d 5a 2e 51 3d
       0.1138707 -0.019696131 0.045895204 0.051069595
000260 b1 5a 9e bd e3 c5 e3 ba d6 b1 80 bd 3e b8 08 3d
       -0.07732142 -0.00173777 -0.062839195 0.033378832
000270 ac 54 55 3d 17 5a ee bd 49 48 4a 3d aa a5 43 3c
       0.052082703 -0.11638277 0.049385343 0.011941353
000280 a3 4a 83 bc 17 2f 80 bd db 0b 70 3c 39 f9 c7 3d
       -0.0160268 -0.06258982 0.014651264 0.09764332
000290 34 31 c3 bd 3f 47 b1 3d ea 3a 69 bd 35 65 9b bd
       -0.09530869 0.08656167 -0.05694095 -0.07587663
0002a0 c1 8c 1a bb 11 70 7b 3d 31 b4 61 3d 81 15 c7 bd
       -0.002358243 0.06138617 0.055103485 -0.097208984
0002b0 ff 60 65 3d 05 29 a2 3d 1d 89 2c 3c 78 a9 ab bd
       0.056000706 0.0791798 0.010530737 -0.08381933
0002c0 a1 ee ad 3c 22 4e 8c bd 4d d9 c6 3d 75 3c 8f 3d
       0.021231951 -0.0685084 0.097094156 0.06993953
0002d0 1b d9 38 3e 4d ff 04 3e 6b 47 aa 3d 9f 9c ae bd
       0.18051569 0.12988015 0.08314403 -0.08525967
0002e0 86 86 ce 3d de fe f6 3c 03 9d b6 bd 98 29 60 bd
       0.10084252 0.030150827 -0.08916666 -0.054727167
0002f0 bf 38 40 3d 36 74 39 3d 12 10 32 3e 5d a9 17 3e
       0.046929117 0.045276843 0.17388943 0.148107
000300 53 a3 89 bc b4 c8 0d be a6 95 0d be 88 53 a2 3c
       -0.016801512 -0.13846093 -0.13826618 0.019815221
000310 de 2c 88 bd f5 e2 27 3c 3f fa 93 be 1a 51 a3 bb
       -0.06649183 0.010246982 -0.2890186 -0.0049840333
000320 1f da 7c bd 9e c1 da 3c 3f 3e ad bc 92 2f 0a 3d
       -0.061731454 0.026703652 -0.021147845 0.033736773
000330 71 e5 aa 3d ee 8e 79 bb 12 2f 96 3d 0a 22 02 bd
       0.08344544 -0.0038079577 0.07333197 -0.031770743
000340 35 8f e2 bd af c1 83 bc e7 40 04 3e 4d a2 ad 3d
       -0.11062471 -0.016083566 0.12915383 0.08478222
000350 d3 3c 44 be 7f f0 01 bd 6d 95 c5 3c b1 d1 69 3e
       -0.19163828 -0.031723496 0.024119103 0.22833897
000360 76 59 a0 bd c3 3b 09 3e 89 a5 0c 3d 1e 43 da bd
       -0.07829563 0.13401704 0.034337554 -0.10657333
000370 ad 60 c9 3d cc c2 3e 3c bb 72 17 3d d8 f1 88 3d
       0.098328926 0.011643123 0.03697465 0.06686753
000380 ac 81 39 3d ea f3 33 be 89 60 c3 bc 50 d0 1f 3d
       0.04528968 -0.17573515 -0.023849742 0.03901702
000390 49 4f b0 bd 97 5b 55 3e 19 56 cc 3c 4d 78 a5 bd
       -0.086088724 0.2083572 0.024943398 -0.08079586
0003a0 e5 7f 9c 3d 92 b9 c2 bd e5 9f 60 bd dc a0 37 bd
       0.076415814 -0.09508051 -0.054839987 -0.04483114
0003b0 12 ed fe 3c 67 c0 83 3d e8 fc 10 be 0b b4 0e 3e
       0.031118903 0.06433182 -0.14158976 0.13935868
0003c0 bf 86 db 3d ca e0 f9 bc 0a 7c 1b bc 98 03 03 bd
       0.1071906 -0.030502696 -0.009490022 -0.03198585
0003d0 32 0c 21 3e 9e 94 16 3e d4 6d a6 bd 9e 50 03 3d
       0.15727308 0.1470513 -0.08126417 0.032059304
0003e0 7b 81 ea 3c 1b 22 ee 3c 1d 88 a4 bb 32 42 e6 3d
       0.028626194 0.029068997 -0.005021109 0.112430945
0003f0 69 25 29 3e 07 e2 e0 3d 59 5a 6a 3d e6 ff bd 3d
       0.16518177 0.10980611 0.05721507 0.092773244
