results/ppo/BadChessPlayer/BadChessPlayer-2313.onnx (onnx, 91257 bytes, 8 tensors)

action_model._discrete_distribution.branches.0.bias f4 [9]
0.0 0.0 0.0 0.0 0.0 0.0 0.0 0.0
0.0
00000000: 0000 0000 0000 0000 0000 0000 0000 0000
00000010: 0000 0000 0000 0000 0000 0000 0000 0000
00000020: 0000 0000

action_model._discrete_distribution.branches.0.weight f4 [9, 128]
0.0036410622 -0.010691787 0.0075941863 -0.004903018 -0.0037765105 0.00991115 -0.013245142 -0.0010832779
0.010516155 -0.0021854395 0.004221491 0.017550576 -0.0086731715 -2.058805e-06 0.012459523 -0.0053806053
0.0038174537 -0.015659532 0.00959198 0.006607181 -0.0007344435 0.006335599 0.015141161 -0.008224584
-0.0066347644 -0.009702664 -0.0013477568 -0.007888171 0.00018604884 -0.011008955 0.0050312327 0.00026015932
-0.0104625365 -0.000698679 -0.0065862113 -0.007845476 0.0028950921 -0.012860688 -0.00225396 0.0073980736
-0.00079306 0.00137921 0.0029643744 -0.0035269053 -0.009628886 0.0011746831 -0.0021942647 0.009519092
0.012229213 0.008509082 -0.0024454517 0.00041892417 0.009042437 -0.009383621 -0.0020594136 0.0014791904
0.008996741 0.008385995 0.010200671 -0.0053340546 -0.0030968233 0.013402782 -0.011607555 -0.0073118173
0.00079682417 0.009465939 0.008059586 0.0062549147 -0.0031605847 -0.019454725 -0.011594884 -0.0073131355
0.012492857 0.0074780323 0.0037751296 -0.002351831 -0.0060167303 -0.00053907157 0.005510852 -0.008582065
-0.015319498 0.015585816 -0.003614742 0.004247357 -0.0010032387 -0.0037478164 0.0072499188 0.003980299
0.008585164 0.00029094977 0.00039527687 0.010210178 0.009597669 -0.0015604655 0.011291138 0.024682887
0.0036007247 0.0019711785 -0.009605928 0.013468686 0.006606088 -0.009345732 -0.0005017418 -0.0028417325
0.00064519804 -0.0063413344 0.006712845 -0.0013001183 -0.014783131 -0.002224935 -0.0021369692 -0.01792053
0.012694853 -0.0060767774 -0.000106294836 0.007244238 0.0015250513 -0.0060590846 0.0059072226 0.0075359456
0.0027241323 0.0036278155 0.008712825 0.006008299 -0.002287976 0.02726365 -0.006220219 0.019022906
0.01621426 -0.010289962 -0.0063548693 -0.010544787 0.004738492 -0.006174636 -0.012759424 -0.0026728504
0.0068736486 -0.0044691446 0.008086185 -0.010472257 0.0010187594 -0.0003990327 0.013856815 0.009730034
0.004688132 0.0134529965 0.008447097 0.009737198 0.009767563 -0.012944408 0.006517265 -0.004626067
0.010592969 -0.0004590455 -0.009136797 0.0062750983 0.004725294 0.007291944 -0.01053065 -0.00077257847
-0.0041987076 0.009351506 0.0102795875 -0.0010933367 -0.015682403 -0.010986692 -0.0054996754 -0.015830306
0.007915323 0.0041459496 -0.009430944 -0.015130825 -0.0020248655 0.013732634 0.019302825 -0.0027550282
-0.013681302 -0.0022755968 0.0045756213 -0.0026666701 -0.0067310594 -0.0010335837 -0.012191509 -0.0012948699
-0.011239158 -0.0061368565 -0.0031583563 -0.010959951 0.0050245454 0.013710603 0.006734639 0.005998508
0.013965274 -0.011743748 -0.008264672 0.005621792 -0.025436271 -0.011515881 -0.008024765 -0.0022538286
-0.0074397284 -0.007456875 -0.00082095433 0.008098011 0.005518289 0.0058868495 0.011149227 0.013480348
0.0048724147 0.0066070952 0.011428855 -0.0043722293 0.0023656536 0.010424805 0.013828608 0.011255345
-0.010813201 0.005512058 -0.023081986 -0.0011306935 -0.0038728479 0.0024401837 -0.014616122 0.0046377545
0.0063012987 0.006127974 -0.00378684 -0.0050618355 -0.00033773613 -0.010576651 0.0012637847 -0.008372072
-0.010307631 -0.002254669 -0.014396573 0.0006468211 0.0075538615 -0.0049692416 -0.0058307224 -0.008838127
0.0017642252 -0.00083503965 -0.00783104 0.00025934217 -3.7300677e-05 0.003932389 0.006156594 0.0011376695
-0.005947056 0.013851878 -0.0018206111 0.012256164 0.00252062 -0.012729404 -0.014233373 0.00356596
00000000: e39e 6e3b 9b2c 2fbc a7d8 f83b 7fa9 a0bb
00000010: 557f 77bb 6062 223c 2702 59bc c6fc 8dba
00000020: f34b 2c3c 9739 0fbb 6f54 8a3b 3ac6 8f3c
00000030: eb19 0ebc 002a 0ab6 0723 4c3c ca4f b0bb
00000040: 3f2e 7a3b 6b48 80bc ae27 1d3c 0d81 d83b
00000050: ab87 40ba db9a cf3b a212 783c 68c0 06bc
00000060: 7068 d9bb ecf7 1ebc 37a7 b0ba 633d 01bc
00000070: 1b16 4339 e75e 34bc 0add a43b fe65 8839
00000080: 0f6b 2bbc 8e27 37ba 25d1 d7bb 508a 00bc
00000090: 96bb 3d3b a3b5 52bc 2cb7 13bb 8a6b f23b
000000a0: 5be5 4fba 9cc6 b43a f345 423b a723 67bb
000000b0: 7ac2 1dbc d3f7 993a a7cd 0fbb f7f5 1b3c
000000c0: 095d 483c ad69 0b3c df43 20bb 0da3 db39
000000d0: bb26 143c c2bd 19bc 3af7 06bb 65e1 c13a
000000e0: 1167 133c 6a65 093c b720 273c 4bc9 aebb
000000f0: 13f4 4abb 5897 5b3c 9d2d 3ebc f897 efbb
00000100: f7e1 503a 0717 1b3c 5b0c 043c 07f6 cc3b
00000110: d021 4fbb 845f 9fbc 78f8 3dbc 07a3 efbb
00000120: d7ae 4c3c 480a f53b 2a68 773b 2d21 1abb
00000130: fe27 c5bb 7b50 0dba 6194 b43b ca9b 0cbc
00000140: a2fe 7abc a75b 7f3c 4fe5 6cbb 6a2d 8b3b
00000150: 1b7f 83ba ed9d 75bb ba90 ed3b 2b6d 823b
00000160: caa8 0c3c 9e8a 9839 2a3d cf39 9748 273c
00000170: 8b3f 1d3c 8988 ccba 77fe 383c c433 ca3c
00000180: 23fa 6b3b e32e 013b 2f62 1dbc c3ab 5c3c
00000190: e277 d83b d71e 19bc 5287 03ba 5c3c 3abb
000001a0: 8222 293a f8ca cfbb 6df7 db3b bb68 aaba
000001b0: f234 72bc 37d0 11bb 650c 0cbb 13ce 92bc
000001c0: 13fe 4f3c b41f c7bb 9bea deb8 1361 ed3b
000001d0: 3be4 c73a 498b c6bb 6091 c13b 18f0 f63b
000001e0: 5b87 323b a5c0 6d3b 3dc0 0e3c 44e1 c43b
000001f0: def1 15bb 0558 df3c fbd2 cbbb edd5 9b3c
00000200: c5d3 843c 3b97 28bc 823c d0bb 0bc4 2cbc
00000210: 5a45 9b3b 9a54 cabb e70c 51bc fd2a 2fbb
00000220: 583c e13b e771 92bb eb7b 043c d493 2bbc
00000230: e587 853a 4335 d1b9 b207 633c b86a 1f3c
00000240: e79e 993b f569 5c3c b165 0a3c c588 1f3c
00000250: 2108 203c c814 54bc c88e d53b 4396 97bb
00000260: 228e 2d3c 0bac f0b9 81b2 15bc 579f cd3b
00000270: a4d6 9a3b 43f1 ee3b bf88 2cbc dd86 4aba
00000280: 5095 89bb 0f37 193c b76b 283c 4b4e 8fba
00000290: 6278 80bc 8701 34bc 9f36 b4bb 8fae 81bc
000002a0: 45af 013c bfda 873b 3f84 1abc 48e7 77bc
000002b0: 9bb3 04bb d7fe 603c f520 9e3c b48d 34bb
000002c0: 8a27 60bc 2e22 15bb 18ef 953b 4dc3 2ebb
000002d0: 3890 dcbb 5079 87ba e5be 47bc a0b8 a9ba
000002e0: 7224 38bc af17 c9bb 6dfc 4ebb 5e91 33bc
000002f0: f1a4 a43b 70a2 603c 3fae dc3b 228f c43b
00000300: 9bce 643c d968 40bc 8c68 07bc 0237 b83b
00000310: ba5f d0bc 1bad 3cbc 4e7a 03bc f8b4 13bb
00000320: f7c8 f3bb cd58 f4bb 5035 57ba 85ad 043c
00000330: c3d2 b43b 79e6 c03b 3fab 363c addc 5c3c
00000340: c7a8 9f3b 5580 d83b 1840 3b3c eb44 8fbb
00000350: 1509 1b3b cdcc 2a3c 6391 623c 5768 383c
00000360: da29 31bc 7e9e b43b 6f16 bdbc c733 94ba
00000370: 9bcf 7dbb 7deb 1f3b 7578 6fbc 4ef8 973b
00000380: 207b ce3b 2ccd c83b a22c 78bb c1dd a5bb
00000390: 2d12 b1b9 b149 2dbc 94a5 a53a 042b 09bc
000003a0: 57e1 28bc 12c3 13bb 9bdf 6bbc 6e8f 293a
000003b0: 6286 f73b 05d5 a2bb a50f bfbb cbcd 10bc
000003c0: 933d e73a 90e6 5aba c34d 00bc 51f8 8739
000003d0: 4c73 1cb8 45db 803b 41bd c93b db1d 953a
000003e0: 86df c2bb fdf2 623c 92a1 eeba 14ce 483c
000003f0: fc30 253b fd8e 50bc 1833 69bc e2b2 693b

action_model._discrete_distribution.branches.1.bias f4 [29]
0.0 0.0 0.0 0.0 0.0 0.0 0.0 0.0
0.0 0.0 0.0 0.0 0.0 0.0 0.0 0.0
0.0 0.0 0.0 0.0 0.0 0.0 0.0 0.0
0.0 0.0 0.0 0.0 0.0
00000000: 0000 0000 0000 0000 0000 0000 0000 0000
00000010: 0000 0000 0000 0000 0000 0000 0000 0000
00000020: 0000 0000 0000 0000 0000 0000 0000 0000
00000030: 0000 0000 0000 0000 0000 0000 0000 0000
00000040: 0000 0000 0000 0000 0000 0000 0000 0000
00000050: 0000 0000 0000 0000 0000 0000 0000 0000
00000060: 0000 0000 0000 0000 0000 0000 0000 0000
00000070: 0000 0000

action_model._discrete_distribution.branches.1.weight f4 [29, 128]
-0.0027242145 0.008252066 0.0054559 0.014384918 0.0065561444 -0.00035979433 -0.007130142 -0.0077424506
-0.012182109 0.0006876449 -0.010683472 -0.00029679877 -0.0035444088 -0.0042013354 -0.0081909625 -0.0004968283
-0.0051942393 -0.011854927 -0.006595824 0.0048092594 -0.0073286155 0.0009884572 -0.0050696945 -0.022813013
-0.012454311 -0.0019048797 -0.0024626292 -0.0076327124 0.0028561112 -0.01252342 0.0019435969 -0.0015391334
0.0020310492 0.0084474785 -0.0029288062 -0.005825246 0.0066925227 -0.00880924 -2.9944134e-05 0.0015046665
0.0065115965 -0.012333523 0.005402734 -0.011552923 0.0059689656 0.0012187179 -0.008153378 0.012916967
-0.0012573168 0.007601333 -0.009201431 -0.015046236 -0.016791372 -0.012374195 -0.0065746754 -0.013436668
-0.006722284 0.001085997 0.020634715 -0.012601986 0.0063746 0.0074106096 0.010275826 2.7639106e-05
-0.008486051 -0.007148648 -0.008576611 0.0045316583 0.0038247698 0.0014991916 -0.0057688393 -0.008405741
-0.0016785212 -0.002783057 0.0050074607 0.011357054 0.007953381 0.0009669605 0.002642597 -0.01277453
-0.006347354 -0.008462476 -0.01137194 0.0013757055 -0.00039547822 -0.013589703 -0.018369867 0.00037222306
0.0005541253 -0.00092290604 0.011963476 -0.0051921434 0.007978615 -0.0009153574 -0.0033121624 0.000771843
0.006516663 7.92901e-05 -0.01174508 0.0025964668 0.015213477 -0.0021532236 0.008484439 0.007672953
-0.0071645416 -0.006195706 0.0067356005 -0.0024490785 0.0058210823 0.008246499 -0.012117001 -0.0030171121
-0.004305803 0.0046051443 -0.00140412 -0.00072685734 0.017687337 -0.012908593 0.008434353 0.0043608584
-0.011619198 0.008346902 -0.007515402 -0.0019873125 -0.0019633612 0.011874569 -0.009248174 0.0064493655
0.00084476423 0.022141218 -0.0001054393 -0.0073687024 0.0024996854 -0.0017896582 0.00381694 -0.0019576151
-0.0084631415 0.0011203388 0.00022858975 0.0089995945 -0.008320465 0.0049219853 -0.009754962 0.013616929
0.013265117 0.0034822933 0.010841465 0.0061949245 0.005078276 0.011363357 0.015395549 -0.0055260053
0.011863958 -0.0111731915 0.0003405926 -0.006292 0.0076783495 -0.0067644627 0.007411048 0.0023212773
0.008004437 0.012030466 0.0072372146 -0.0045486125 -0.0016387163 -0.0058133253 -0.017795136 -0.018688805
-0.00081826653 0.018822065 0.0038404688 0.008323619 -0.0019661216 0.003618565 0.006912902 -0.0057119015
-0.0077338256 -0.0031300716 0.0022252405 0.0023386215 -0.017010465 -0.0004222212 0.017729571 0.005373792
-0.012282044 0.00986769 -0.0036015462 -0.008635501 0.0028083404 0.036025558 -0.0062798695 0.0029620861
-0.006422424 -0.00016491707 -0.0022037057 0.0034671507 -0.027515063 -0.0030330042 0.0035314385 -0.004838865
-0.0023603484 -0.0013545862 -0.0054782243 -0.01113408 0.02142937 -0.0051316093 0.0069923396 0.007955229
0.010213014 -0.012965547 0.019094858 -0.009811991 -0.009409582 0.0002949205 0.0051639467 0.0025508397
0.0035854883 0.0077330503 -0.010364546 0.007817938 -0.0032425348 0.010374362 -0.0005281118 -0.0062845806
0.008170216 0.014824125 0.0008118911 0.0063555352 -0.009794742 -0.0014029257 -0.005357063 -0.00047032975
-0.0057730325 0.010948308 -0.01336884 0.0038413063 -3.561589e-05 0.0020387105 -0.013771328 0.004322037
-0.0021161882 0.0012364642 -0.004008577 -0.004344952 0.008582597 0.016898371 -0.0031647047 -0.0020900476
-0.0046937377 -0.0007475975 0.0007022256 -0.000109712826 0.0039172764 -0.009346207 -0.002012939 0.01965455
00000000: bc88 32bb ac33 073c 68c7 b23b b8ae 6b3c
00000010: edd4 d63b c7a2 bcb9 f7a3 e9bb 62b4 fdbb
00000020: 7897 47bc 1143 343a bb09 2fbc a89b 9bb9
00000030: 5049 68bb 5bab 89bb 6333 06bc 953d 02ba
00000040: 7034 aabb 2b3b 42bc c821 d8bb fe96 9d3b
00000050: e224 f0bb 1f8f 813a ae1f a6bb 5be2 babc
00000060: 2b0d 4cbc 28ad f9ba 1064 21bb d51b fabb
00000070: 982d 3b3b 082f 4dbc 4ac0 fe3a bfbc c9ba
00000080: 5a1b 053b 4b67 0a3c 37f1 3fbb b5e1 bebb
00000090: f34c db3b a154 10bc 8a30 fbb7 3b38 c53a
000000a0: 3b5f d53b 8b12 4abc 6b09 b13b 7948 3dbc
000000b0: 5097 c33b 63bd 9f3a bf95 05bc b0a1 533c
000000c0: 8dcc a4ba 9a14 f93b 99c1 16bc 7d84 76bc
000000d0: 0f8e 89bc 23bd 4abc 6070 d7bb 7825 5cbc
000000e0: 9b46 dcbb 0358 8e3a 220a a93c 8f78 4ebc
000000f0: 05e2 d03b b3d4 f23b f05b 283c 87da e737
00000100: 1409 0bbc 353f eabb ea84 0cbc 4e7e 943b
00000110: fda8 7a3b 8680 c43a 8808 bdbb 3cb8 09bc
00000120: d301 dcba f363 36bb a015 a43b f012 3a3c
00000130: e64e 023c 9f7b 7d3a 6c2f 2d3b 434c 51bc
00000140: 77fd cfbb 32a6 0abc 6051 3abc 0451 b43a
00000150: 3058 cfb9 58a7 5ebc 677c 96bc ef26 c339
00000160: b842 113a 2def 71ba 7502 443c db22 aabb
00000170: bdb8 023c 98f4 6fba dd10 59bb 8255 4a3a
00000180: bb89 d53b 8c48 a638 706e 40bc 7c29 2a3b
00000190: f341 793c 191d 0dbb 5102 0b3c 656d fb3b
000001a0: 88c4 eabb 5905 cbbb 50b6 dc3b b880 20bb
000001b0: c7be be3b 531c 073c 6386 46bc beba 45bb
000001c0: b217 8dbb c0e6 963b 730a b8ba 928a 3eba
000001d0: 09e5 903c 907e 53bc 3e30 0a3c 88e5 8e3b
000001e0: 735e 3ebc 72c1 083c c343 f6bb 923d 02bb
000001f0: bcab 00bb 8d8d 423c a785 17bc 3355 d33b
00000200: 2b73 5d3a 8061 b53c 4b1f ddb8 2875 f1bb
00000210: c3d1 233b f792 eaba a025 7a3b 554b 00bb
00000220: fda8 0abc 55d8 923a 98b1 6f39 0973 133c
00000230: 8f52 08bc 9b48 a13b 47d3 1fbc 8a19 5f3c
00000240: ef55 593c 3037 643b 66a0 313c cbfe ca3b
00000250: ab67 a63b 602d 3a3c 9d3d 7c3c 7e13 b5bb
00000260: 0c61 423c c30f 37bc 9191 b239 1f2d cebb
00000270: aa9a fb3b 6da8 ddbb 60d8 f23b 9220 183b
00000280: 0b25 033c 6f1b 453c 2826 ed3b 870c 95bb
00000290: 32ca d6ba b57d bebb 1bc7 91bc 4419 99bc
000002a0: f080 56ba bb30 9a3c 60b0 7b3b ca5f 083c
000002b0: 0cda 00bb 7225 6d3b a085 e23b e72a bbbb
000002c0: 086c fdbb e321 4dbb 57d5 113b 8f43 193b
000002d0: 8859 8bbc 925d ddb9 9b3d 913c a216 b03b
000002e0: a03a 49bc 17ac 213c eb07 6cbb eb7b 0dbc
000002f0: 220c 383b 898f 133d 5dc7 cdbb 8f1f 423b
00000300: 3373 d2bb 97ed 2cb9 0c6c 10bb 2339 633b
00000310: 4567 e1bc 5ec5 46bb b56f 673b 578f 9ebb
00000320: 13b0 1abb 5f8c b1ba ad82 b3bb b76b 36bc
00000330: a58c af3c 0f27 a8bb ff1f e53b a656 023c
00000340: 7c54 273c 726d 54bc d26c 9c3c 79c2 20bc
00000350: a62a 1abc 8f9f 9a39 5336 a93b fd2b 273b
00000360: 83fa 6a3b 8765 fd3b 0fd0 29bc cf16 003c
00000370: b580 54bb 3af9 293c fc70 0aba e2ee cdbb
00000380: 5fdc 053c e3e0 723c 17d5 543a 1842 d03b
00000390: 207a 20bc 60e2 b7ba 4d8a afbb 9796 f6b9
000003a0: b52b bdbb 8860 333c fb08 5bbc 6dbe 7b3b
000003b0: 4562 15b8 e39b 053b 23a1 61bc e09f 8d3b
000003c0: bfaf 0abb db10 a23a 625a 83bb 1960 8ebb
000003d0: 059e 0c3c 746e 8a3c ef66 4fbb 2ef9 08bb
000003e0: edcd 99bb 6bfa 43ba 9015 383a a015 e6b8
000003f0: 7f5c 803b d520 19bc 83eb 03bb 9402 a13c

network_body.linear_encoder.seq_layers.0.bias f4 [128]
0.0 0.0 0.0 0.0 0.0 0.0 0.0 0.0
0.0 0.0 0.0 0.0 0.0 0.0 0.0 0.0
0.0 0.0 0.0 0.0 0.0 0.0 0.0 0.0
0.0 0.0 0.0 0.0 0.0 0.0 0.0 0.0
0.0 0.0 0.0 0.0 0.0 0.0 0.0 0.0
0.0 0.0 0.0 0.0 0.0 0.0 0.0 0.0
0.0 0.0 0.0 0.0 0.0 0.0 0.0 0.0
0.0 0.0 0.0 0.0 0.0 0.0 0.0 0.0
0.0 0.0 0.0 0.0 0.0 0.0 0.0 0.0
0.0 0.0 0.0 0.0 0.0 0.0 0.0 0.0
0.0 0.0 0.0 0.0 0.0 0.0 0.0 0.0
0.0 0.0 0.0 0.0 0.0 0.0 0.0 0.0
0.0 0.0 0.0 0.0 0.0 0.0 0.0 0.0
0.0 0.0 0.0 0.0 0.0 0.0 0.0 0.0
0.0 0.0 0.0 0.0 0.0 0.0 0.0 0.0
0.0 0.0 0.0 0.0 0.0 0.0 0.0 0.0
00000000: 0000 0000 0000 0000 0000 0000 0000 0000
00000010: 0000 0000 0000 0000 0000 0000 0000 0000
00000020: 0000 0000 0000 0000 0000 0000 0000 0000
00000030: 0000 0000 0000 0000 0000 0000 0000 0000
00000040: 0000 0000 0000 0000 0000 0000 0000 0000
00000050: 0000 0000 0000 0000 0000 0000 0000 0000
00000060: 0000 0000 0000 0000 0000 0000 0000 0000
00000070: 0000 0000 0000 0000 0000 0000 0000 0000
00000080: 0000 0000 0000 0000 0000 0000 0000 0000
00000090: 0000 0000 0000 0000 0000 0000 0000 0000
000000a0: 0000 0000 0000 0000 0000 0000 0000 0000
000000b0: 0000 0000 0000 0000 0000 0000 0000 0000
000000c0: 0000 0000 0000 0000 0000 0000 0000 0000
000000d0: 0000 0000 0000 0000 0000 0000 0000 0000
000000e0: 0000 0000 0000 0000 0000 0000 0000 0000
000000f0: 0000 0000 0000 0000 0000 0000 0000 0000
00000100: 0000 0000 0000 0000 0000 0000 0000 0000
00000110: 0000 0000 0000 0000 0000 0000 0000 0000
00000120: 0000 0000 0000 0000 0000 0000 0000 0000
00000130: 0000 0000 0000 0000 0000 0000 0000 0000
00000140: 0000 0000 0000 0000 0000 0000 0000 0000
00000150: 0000 0000 0000 0000 0000 0000 0000 0000
00000160: 0000 0000 0000 0000 0000 0000 0000 0000
00000170: 0000 0000 0000 0000 0000 0000 0000 0000
00000180: 0000 0000 0000 0000 0000 0000 0000 0000
00000190: 0000 0000 0000 0000 0000 0000 0000 0000
000001a0: 0000 0000 0000 0000 0000 0000 0000 0000
000001b0: 0000 0000 0000 0000 0000 0000 0000 0000
000001c0: 0000 0000 0000 0000 0000 0000 0000 0000
000001d0: 0000 0000 0000 0000 0000 0000 0000 0000
000001e0: 0000 0000 0000 0000 0000 0000 0000 0000
000001f0: 0000 0000 0000 0000 0000 0000 0000 0000

network_body.linear_encoder.seq_layers.0.weight f4 [128, 4]
-0.8406845 0.2857125 1.2812483 -0.23040125 0.34244293 0.79685754 -0.95308685 0.11004852
-0.21841821 -0.5161213 -0.8956858 -0.2698591 -0.44214064 -0.14041993 0.41801655 0.23333137
0.13666277 0.9904141 0.18177839 -0.42246112 -0.7162142 -0.27660924 -0.04948422 0.14015386
-0.3098178 0.36590213 0.11675798 -0.037331272 0.23482534 0.98051834 0.60600877 1.1237032
-0.07959902 1.4658569 0.23381808 -0.6102957 -0.12617119 0.13253652 0.42643955 0.11651212
0.18760292 0.44266135 0.77438205 -0.23364836 0.58489585 0.13386777 0.07780629 -0.10053195
-0.43009773 -0.70609355 -0.23657624 -0.78071636 -0.30417964 -0.06468297 -0.19547282 0.7942833
0.5734692 0.23999006 -0.65483767 -0.5062917 -0.20376371 0.0349108 -0.21491884 -0.08196277
0.38405356 1.2602664 -0.6370742 -0.4449741 -0.4757596 0.25699878 0.35930395 -0.0076892674
-0.51589906 0.3876064 0.5991183 0.85191435 0.43694705 0.49352488 0.13379325 -0.03051562
-1.0333229 -0.067069046 0.024890944 0.5676677 -0.24522266 0.74569327 0.08182324 -0.6341031
0.12789297 -0.07908892 0.116833195 0.48606092 0.7637369 -0.008127908 0.3514548 0.42540038
0.70726264 -0.53521043 0.45574144 -0.5691858 0.39280835 -0.5012885 -0.026176458 0.42586887
0.09532737 -0.30702695 -0.7071334 0.104094535 -0.22714864 -0.20138474 0.1365884 -0.89767754
0.7622043 0.4319769 0.16234173 -0.11853134 -0.74948823 -0.24292375 0.13904892 -0.27264112
0.1882485 -0.031583525 -0.063005246 0.5861473 -1.2621597 0.340071 -1.0958394 0.6649133
-0.446924 0.325001 -0.25392053 -0.7940997 -0.903204 0.2060993 -0.30685225 0.29846317
0.48254058 -0.46981353 -0.45481306 -0.8366834 0.04517681 0.24995025 0.059847564 -0.06943636
-0.13511823 0.33943295 0.4154511 -0.25993276 -0.25204033 0.74360645 0.20776379 -0.3981603
0.6188646 -0.20591687 -0.47291768 -0.6931557 0.03149057 0.005058495 0.0005690964 0.12040245
-0.8787831 -0.21749608 0.63605374 0.4703572 -0.2859809 -0.24355781 0.7319805 0.5522257
0.0020762528 -0.43575108 -0.6830785 -0.20299768 -0.170911 0.42582777 0.52023786 0.2430436
-0.60074157 0.43012613 -0.080506146 0.30007938 -0.20257531 -0.14963551 0.22929092 -0.5094146
-0.14437325 0.7016693 -0.3630354 -0.112361364 -0.334051 0.22583634 1.0202835 0.27390134
-0.29791448 -0.074618846 -0.009412614 0.6437632 0.098105825 -0.21125527 -0.10178132 0.16816929
-0.19799164 0.16209355 -0.622126 0.70966667 0.32390583 -0.6009625 -0.18143272 -0.3569977
-0.24168353 -1.0639058 0.6304981 0.53865045 0.0005550883 1.1135521 0.45949835 0.048252203
0.21873234 0.2478543 -0.2595614 0.36563537 -0.21465914 0.601367 -0.53962463 0.29995218
0.5908414 0.47838357 -0.056253023 0.8834001 0.33089945 -0.1036086 0.5452173 -0.28383607
-0.68659055 0.3950435 -0.40478894 0.92245615 -0.5968309 1.2442026 -0.48416594 -0.5653562
0.22242293 -0.21871857 -0.32378274 0.035773646 -0.23837633 0.04201463 0.5801969 -0.8098773
0.24067913 0.13350768 -0.18582092 0.2675445 0.165441 0.3936943 0.449449 0.012767118
00000000: 1937 57bf e948 923e f2ff a33f 4eee 6bbe
00000010: ae54 af3e dbfe 4b3f 80fd 73bf 1e61 e13d
00000020: 06a9 5fbe 8720 04bf aa4b 65bf f92a 8abe
00000030: 4260 e2be 3eca 0fbe 4406 d63e 6bee 6e3e
00000040: 53f1 0b3e c78b 7d3f 1d24 3a3e d34c d8be
00000050: d059 37bf ba9f 8dbe f7af 4abd 7e84 0f3e
00000060: 70a0 9ebe 8657 bb3e cf1e ef3d ade8 18bd
00000070: 0e76 703e 4003 7b3f 6423 1b3f 82d5 8f3f
00000080: d004 a3bd 33a1 bb3f 026e 6f3e 573c 1cbf
00000090: 0533 01be a7b7 073e 4956 da3e e89d ee3d
000000a0: fb1a 403e 82a4 e23e e73d 463f 8441 6fbe
000000b0: bcbb 153f a214 093e e758 9f3d b2e3 cdbd
000000c0: c535 dcbe 8cc2 34bf 0b41 72be 07dd 47bf
000000d0: 6fbd 9bbe 8178 84bd 072a 48be 2656 4b3f
000000e0: e1ce 123f f4bf 753e 71a3 27bf 559c 01bf
000000f0: 6fa7 50be a1fe 0e3d af13 5cbe 19dc a7bd
00000100: aba2 c43e 6950 a13f 4b17 23bf a5d3 e3be
00000110: c396 f3be 5895 833e b0f6 b73e 40f6 fbbb
00000120: f611 04bf 5974 c63e d15f 193f 0f17 5a3f
00000130: 86b7 df3e 4baf fc3e 1901 093e e5fb f9bc
00000140: ed43 84bf 7f5b 89bd 18e8 cb3c ac52 113f
00000150: a61b 7bbe c1e5 3e3f f192 a73d 9554 22bf
00000160: 60f6 023e 5ff9 a1bd 3e46 ef3d fadc f83e
00000170: 4384 433f eb2a 05bc e2f1 b33e 14ce d93e
00000180: 2a0f 353f 8d03 09bf f156 e93e 29b6 11bf
00000190: 2d1e c93e 7154 00bf 0370 d6bc 7c0b da3e
000001a0: ff3a c33d a332 9dbe b206 35bf 842f d53d
000001b0: a799 68be cd37 4ebe d4dd 0b3e 32ce 65bf
000001c0: d21f 433f 142c dd3e e93c 263e 8fc0 f2bd
000001d0: 76de 3fbf 01c1 78be d762 0e3e 9e97 8bbe
000001e0: 37c4 403e ba5d 01bd e508 81bd c00d 163f
000001f0: 738e a1bf c91d ae3e 7744 8cbf c237 2a3f
00000200: 39d3 e4be 8866 a63e df01 82be 1e4a 4bbf
00000210: 6138 67bf b20b 533e bd1b 9dbe 2ad0 983e
00000220: 8f0f f73e 668b f0be 42dd e8be e230 56bf
00000230: 520b 393d f5f2 7f3e b822 753d a634 8ebd
00000240: 6f5c 0abe 28ca ad3e 02b6 d43e e815 85be
00000250: 6e0b 81be fe5c 3e3f 08c0 543e abdb cbbe
00000260: e96d 1e3f dfdb 52be 4422 f2be a772 31bf
00000270: 42fc 003d bbc1 a53b 6a2f 153a 8f95 f63d
00000280: eef7 60bf 4bb7 5ebe 6bd4 223f a9d2 f03e
00000290: 176c 92be 3867 79be 1363 3b3f aa5e 0d3f
000002a0: be11 083b c41a dfbe 3cde 2ebf a0de 4fbe
000002b0: 4b03 2fbe 1906 da3e 4f2e 053f 6ce0 783e
000002c0: 33ca 19bf 7e39 dc3e 68e0 a4bd 01a4 993e
000002d0: e76f 4fbe 0d3a 19be 3dcb 6a3e ff68 02bf
000002e0: 95d6 13be 99a0 333f c7df b9be b71d e6bd
000002f0: bc08 abbe a441 673e a698 823f cc3c 8c3e
00000300: 3f88 98be c4d1 98bd 5d37 1abc aacd 243f
00000310: b5eb c83d 4d53 58be ba72 d0bd 9234 2c3e
00000320: 52be 4abe dafb 253e a643 1fbf b7ac 353f
00000330: fcd6 a53e aed8 19bf 80c9 39be 67c8 b6be
00000340: e37b 77be 112e 88bf 5368 213f ffe4 093f
00000350: 5883 113a e088 8e3f 5e43 eb3e 1aa4 453d
00000360: 5ffb 5f3e 85cd 7d3e 3be5 84be 8f34 bb3e
00000370: 9bcf 5bbe 30f3 193f d724 0abf 5593 993e
00000380: 6241 173f b1ee f43e 9269 66bd 8226 623f
00000390: a76b a93e bf30 d4bd 5c93 0b3f f652 91be
000003a0: 66c4 2fbf 2443 ca3e 7f40 cfbe 1626 6c3f
000003b0: e9c9 18bf 0842 9f3f 99e4 f7be 2fbb 10bf
000003c0: d6c2 633e c3f7 5fbe dac6 a5be 6387 123d
000003d0: ed18 74be 8817 2c3d c987 143f 1e54 4fbf
000003e0: 9774 763e 3db6 083e d747 3ebe 98fb 883e
000003f0: 5e69 293e 4d92 c93e 2e1e e63e 2d2d 513c

network_body.linear_encoder.seq_layers.2.bias f4 [128]
0.0 0.0 0.0 0.0 0.0 0.0 0.0 0.0
0.0 0.0 0.0 0.0 0.0 0.0 0.0 0.0
0.0 0.0 0.0 0.0 0.0 0.0 0.0 0.0
0.0 0.0 0.0 0.0 0.0 0.0 0.0 0.0
0.0 0.0 0.0 0.0 0.0 0.0 0.0 0.0
0.0 0.0 0.0 0.0 0.0 0.0 0.0 0.0
0.0 0.0 0.0 0.0 0.0 0.0 0.0 0.0
0.0 0.0 0.0 0.0 0.0 0.0 0.0 0.0
0.0 0.0 0.0 0.0 0.0 0.0 0.0 0.0
0.0 0.0 0.0 0.0 0.0 0.0 0.0 0.0
0.0 0.0 0.0 0.0 0.0 0.0 0.0 0.0
0.0 0.0 0.0 0.0 0.0 0.0 0.0 0.0
0.0 0.0 0.0 0.0 0.0 0.0 0.0 0.0
0.0 0.0 0.0 0.0 0.0 0.0 0.0 0.0
0.0 0.0 0.0 0.0 0.0 0.0 0.0 0.0
0.0 0.0 0.0 0.0 0.0 0.0 0.0 0.0
00000000: 0000 0000 0000 0000 0000 0000 0000 0000
00000010: 0000 0000 0000 0000 0000 0000 0000 0000
00000020: 0000 0000 0000 0000 0000 0000 0000 0000
00000030: 0000 0000 0000 0000 0000 0000 0000 0000
00000040: 0000 0000 0000 0000 0000 0000 0000 0000
00000050: 0000 0000 0000 0000 0000 0000 0000 0000
00000060: 0000 0000 0000 0000 0000 0000 0000 0000
00000070: 0000 0000 0000 0000 0000 0000 0000 0000
00000080: 0000 0000 0000 0000 0000 0000 0000 0000
00000090: 0000 0000 0000 0000 0000 0000 0000 0000
000000a0: 0000 0000 0000 0000 0000 0000 0000 0000
000000b0: 0000 0000 0000 0000 0000 0000 0000 0000
000000c0: 0000 0000 0000 0000 0000 0000 0000 0000
000000d0: 0000 0000 0000 0000 0000 0000 0000 0000
000000e0: 0000 0000 0000 0000 0000 0000 0000 0000
000000f0: 0000 0000 0000 0000 0000 0000 0000 0000
00000100: 0000 0000 0000 0000 0000 0000 0000 0000
00000110: 0000 0000 0000 0000 0000 0000 0000 0000
00000120: 0000 0000 0000 0000 0000 0000 0000 0000
00000130: 0000 0000 0000 0000 0000 0000 0000 0000
00000140: 0000 0000 0000 0000 0000 0000 0000 0000
00000150: 0000 0000 0000 0000 0000 0000 0000 0000
00000160: 0000 0000 0000 0000 0000 0000 0000 0000
00000170: 0000 0000 0000 0000 0000 0000 0000 0000
00000180: 0000 0000 0000 0000 0000 0000 0000 0000
00000190: 0000 0000 0000 0000 0000 0000 0000 0000
000001a0: 0000 0000 0000 0000 0000 0000 0000 0000
000001b0: 0000 0000 0000 0000 0000 0000 0000 0000
000001c0: 0000 0000 0000 0000 0000 0000 0000 0000
000001d0: 0000 0000 0000 0000 0000 0000 0000 0000
000001e0: 0000 0000 0000 0000 0000 0000 0000 0000
000001f0: 0000 0000 0000 0000 0000 0000 0000 0000

network_body.linear_encoder.seq_layers.2.weight f4 [128, 128]
-0.21362275 0.058036864 0.09535751 -0.10096531 0.051353894 -0.1736693 -0.13786475 -0.108650915
0.04273486 0.03281558 -0.123791635 0.022751179 -0.017122693 -0.0120594995 0.021818712 0.005295929
0.09722093 0.116242126 0.05969836 -0.010451569 0.013158676 0.0006605841 -0.08471091 0.13841368
0.03792218 0.10671623 0.08001124 -0.042289358 -0.057740226 0.1341545 0.04577103 -0.21148072
0.14482374 0.030393116 0.10757123 0.12045325 0.035284072 0.0032626358 0.012367293 -0.041267596
0.06950416 0.031155342 0.11721805 -0.046799377 0.019269679 -0.033040233 -0.05724777 0.0797514
0.061035063 0.014243454 0.14747804 -0.057861067 0.16951989 -0.07854358 -0.024227837 0.11288382
0.012139584 -0.067938395 -0.008271302 0.042395692 -0.056076813 0.1596892 0.0035330195 -0.043582484
-0.120005496 -0.014060299 -0.080777325 0.08716737 -0.003466733 -0.029571285 0.003698468 -0.029940194
0.044577103 -0.010439841 0.09860557 -0.037979204 0.066374645 0.040279076 0.03702545 -0.09176657
-0.13164738 0.10550961 0.054010633 0.11226421 -0.06810829 0.09567439 0.031964395 -0.02173889
0.049177088 0.11748467 -0.09490527 -0.0749346 -0.13956302 0.08015519 -0.17743386 0.052809983
0.039861146 -0.088928476 0.021065423 -0.06232807 -0.10733934 0.009084683 -0.04429666 0.06232561
-0.16395734 -0.07676304 0.024439603 -0.07774833 0.06767344 0.0018454447 -0.013781605 -0.13875198
-0.082980834 -0.2577924 -0.08224775 0.11825961 0.009277427 0.079202704 -0.11393655 -0.02372707
-0.015217471 -0.064205445 0.11156631 0.056638002 -0.00946137 -0.086010315 0.056804452 0.12516929
-0.21781008 0.12634373 0.12662208 0.0833254 -0.0018121243 0.0794309 0.05180553 -0.04205368
-0.11279634 -0.08599511 0.005960884 0.07224145 0.07424273 -0.10274658 0.09005176 -0.15211071
0.075990595 -0.036201272 -0.107064664 0.1305481 -0.012268095 -0.048266612 -0.21328112 0.040541742
0.0119841155 -0.13135646 0.03902069 -0.114333384 -0.08647528 -0.007436914 -0.07200089 -0.07615477
0.025988972 0.13260773 0.05027034 0.0842445 0.044742383 -0.02959852 -0.10777404 -0.0016024886
0.04334283 -0.0513355 0.043843318 -0.1735596 0.15189122 -0.08051947 0.00052268914 -0.017334575
0.038260438 0.057354584 -0.09762412 -0.01482396 0.18185425 0.1322183 -0.040418494 -0.056573562
-0.026667682 0.0715901 -0.10959496 0.05172639 -0.011303031 0.047399703 -0.060661193 0.015586693
0.075475655 -0.13061315 -0.0037785696 0.014715912 0.14158349 0.014476457 0.12982506 -0.022059118
-0.11233698 0.087057136 0.061062817 -0.093194686 -0.052814152 -0.13253146 0.0069780955 0.0034167508
-0.21016258 -0.091116615 0.040140077 0.036131833 0.04170162 0.062146097 -0.051175762 0.0068840566
0.023946978 -0.07705325 0.056109875 -0.17868207 0.07590637 0.019164512 -0.10945696 0.0277959
0.15919825 -0.0021846308 -0.13133998 -0.024633763 0.07886386 0.07041501 0.08499747 -0.027958475
-0.037805665 0.021081999 0.09359526 0.085837044 0.121560216 -0.033182785 0.06256703 -0.01410782
0.049006738 0.04848637 -0.066711396 0.028056309 0.0318028 0.048232894 0.048570734 -0.10253372
-0.04633327 0.01408152 -0.06431335 -0.015203114 -0.051273733 -0.040956758 -0.037974805 0.06339919
00000000: ecbf 5abe 10b8 6d3d cc4a c33d e7c6 cebd
00000010: 7658 523d 5dd6 31be 6b2c 0dbe 5f84 debd
00000020: c00a 2f3d a169 063d 7886 fdbd ae60 ba3c
00000030: e444 8cbc 3595 45bc 28bd b23c 7989 ad3b
00000040: c41b c73d 5a10 ee3d 4486 743d 0f3d 2bbc
00000050: 7d97 573c 0c2b 2d3a ea7c adbd 51bc 0d3e
00000060: 4a54 1b3d 0a8e da3d efdc a33d 9b37 2dbd
00000070: 0481 6cbd cc5f 093e 677a 3b3d 678e 58be
00000080: ad4c 143e fcfa f83c 4e4e dc3d 32b0 f63d
00000090: 0886 103d f2d1 553b 30a0 4a3c 3608 29bd
000000a0: 3258 8e3d 7d39 ff3c 0410 f03d b4b0 3fbd
000000b0: 72db 9d3c 3255 07bd a37c 6abd b454 a33d
000000c0: e7ff 793d 605d 693c 7c04 173e baff 6cbd
000000d0: 9f96 2d3e 75db a0bd 7579 c6bc a22f e73d
000000e0: 1be5 463c 4923 8bbd 5b84 07bc 1ba7 2d3d
000000f0: cdb0 65bd 9185 233e 3b8a 673b 8c83 32bd
00000100: 71c5 f5bd 2b5d 66bc 956e a5bd ce84 b23d
00000110: 2132 63bb 7b3f f2bc ff61 723b 2345 f5bc
00000120: 7b96 363d de0b 2bbc b8f1 c93d 1590 1bbd
00000130: 6eef 873d acfb 243d 00a8 173d 1df0 bbbd
00000140: 92ce 06be 6c15 d83d 413a 5d3d c7ea e53d
00000150: 5c7c 8bbd eff0 c33d 19ed 023d c215 b2bc
00000160: ea6d 493d cd9b f03d b25d c2bd 5077 99bd
00000170: 9ce9 0ebe 6728 a43d 39b1 35be 484f 583d
00000180: 7145 233d 2220 b6bd 6591 ac3c b84b 7fbd
00000190: bad4 dbbd ecd7 143c 6a70 35bd 2449 7f3d
000001a0: 6fe4 27be f135 9dbd 9035 c83c 843a 9fbd
000001b0: 5f98 8a3d d9e2 f13a 3ecc 61bc 0015 0ebe
000001c0: dbf1 a9bd 5efd 83be 8271 a8bd 1832 f23d
000001d0: 5900 183c 0735 a23d 9157 e9bd 465f c2bc
000001e0: b352 79bc 257e 83bd e17c e43d 40fd 673d
000001f0: dd03 1bbc 2d26 b0bd c9ab 683d 612c 003e
00000200: 9b09 5fbe 4060 013e 38a9 013e 82a6 aa3d
00000210: cd84 edba abac a23d 0932 543d 7b40 2cbd
00000220: c401 e7bd 341e b0bd 8553 c33b 53f3 933d
00000230: 930c 983d cd6c d2bd 0f6d b83d e9c2 1bbe
00000240: f5a0 9b3d c947 14bd b844 dbbd 67ae 053e
00000250: 1f00 49bc 36b3 45bd 5e66 5abe 190f 263d
00000260: 0659 443c 4f82 06be 29d4 1f3d 9f27 eabd
00000270: f419 b1bd 5bb1 f3bb 3475 93bd 08f7 9bbd
00000280: d3e6 d43c 52ca 073e 46e8 4d3d 6188 ac3d
00000290: ca43 373d 9878 f2bc a3b8 dcbd 980a d2ba
000002a0: 4088 313d 2c45 52bd 0d95 333d 9cb9 31be
000002b0: 5f89 1b3e 64e7 a4bd 1305 093a 3d01 8ebc
000002c0: fab6 1c3d a4ec 6a3d 28ef c7bd 32e0 72bc
000002d0: 0038 3a3e 3c64 073e dd8d 25bd aeb9 67bd
000002e0: 2f76 dabc d59d 923d 5373 e0bd 0ddf 533d
000002f0: 5930 39bc 3126 423d df77 78bd 545f 7f3c
00000300: fb92 9a3d 74bf 05be e1a1 77bb 021b 713c
00000310: 43fb 103e a92e 6d3c dcf0 043e 53b5 b4bc
00000320: ee10 e6bd 034b b23d 011d 7a3d dbdc bebd
00000330: a753 58bd 54b6 07be 82a8 e43b 91eb 5f3b
00000340: dc34 57be 599b babd ec69 243d f9fe 133d
00000350: 51cf 2a3d e88c 7e3d ad9d 51bd a793 e13b
00000360: 742c c43c 18ce 9dbd 78d3 653d 6ff8 36be
00000370: cd74 9b3d e5fe 9c3c f82a e0bd 3ab4 e33c
00000380: de04 233e 062c 0fbb fd7d 06be bfcc c9bc
00000390: 6083 a13d bf35 903d 2713 ae3d 2c09 e5bc
000003a0: 1dda 1abd 28b4 ac3c dfae bf3d 55cb af3d
000003b0: 90f4 f83d acea 07bd 2523 803d 7c24 67bc
000003c0: 4abb 483d a599 463d fc9f 88bd 58d6 e53c
000003d0: a743 023d db8f 453d 1bf2 463d 33fd d1bd
000003e0: f4c7 3dbd 2db6 663c b8b6 83bd 7b16 79bc
000003f0: 6804 52bd 46c2 27bd 788b 1bbd 6fd7 813d
