results/ppo/BadChessPlayer/BadChessPlayer-2073.onnx (onnx, 80936 bytes, 8 tensors)

action_model._discrete_distribution.branches.0.bias f4 [9]
00000000: 0000 0000 0000 0000 0000 0000 0000 0000
00000010: 0000 0000 0000 0000 0000 0000 0000 0000
00000020: 0000 0000
0.0 0.0 0.0 0.0 0.0 0.0 0.0 0.0
0.0

action_model._discrete_distribution.branches.0.weight f4 [9, 128]
00000000: 3364 02ba 9078 c5bb a22e c8bb 71df 8a3b
00000010: f57b e0bb 11db 90ba 121d 923b 78bc f33b
00000020: dac6 623b 70b2 5fbc 87df 2f3c a709 ffbb
00000030: a95d 153b 7380 f9ba 5017 e73b a340 033b
00000040: 7326 eabb 0b74 8fbb 4318 08bc 4f8e db3a
00000050: 0309 e4b8 cd49 a03b c6ec 493c 7aa6 1fbc
00000060: 2c19 453b 1561 71bc ff16 55bb a6c3 10bb
00000070: a371 61bc 6f3c 49ba 2bdb 98bb 0a0f 66b8
00000080: 7f05 0bbc 581f 123c 2c0d 813c db1d 6bbc
00000090: 904d 4737 d40b 033b 9851 543a 7802 d53b
000000a0: 5762 cd3b 7a8c 573b f22b 71bc c509 cebb
000000b0: ab1b 143c 1443 3a3c 4ee4 813c 6009 e73a
000000c0: 66dd 04bb 1b8d 61ba 4ecf 3fba 5b3e c43b
000000d0: 21f3 05ba e4bd a23b 4bd1 76bc f420 cb3b
000000e0: 20f1 983c 4f40 c53b 4011 c43b d051 d43b
000000f0: 572d 123a 975f 693a 502d 833b 1f84 0dbc
00000100: 1292 eebb e80a 7d3a 0ba8 24bc 3fda c5b9
00000110: a120 863b 6b41 0ebb 197c 8bbc 8f1e 94bb
00000120: a850 933a 203a 983a b37d 633b f8b9 6d3a
00000130: e362 16bb 1e1a acbb fab1 d1bb cc4e a73b
00000140: 0f06 b9ba 83e7 583c 1b21 febb 67d3 743a
00000150: aafb 16bc 72f0 92bc ab7a 3bba e52c 75bb
00000160: 77a7 58bb 0015 923a 4fd2 ca3b d0ff 10bc
00000170: 12aa 2d3b 6a33 acbb 6557 36bb 3aa5 61bc
00000180: 12c4 fc3b ff39 243c 31f5 863b 49ef 14bc
00000190: 557a ad3b da1f 1a3b d7ae 7cbc dad2 623b
000001a0: 9341 923c 3d87 debb b022 723c c70c 053c
000001b0: 582b 583c abe6 cf3b 9b09 b9bb 373b 3ebc
000001c0: 2247 18bb 5f4f 413c 040c 1a3c 75ec 153c
000001d0: ffbd 1abc 961d 903b 2df2 773b bfe9 1bbc
000001e0: c4d3 48bb a6eb 2cbb bd10 0a3c 0ada 513b
000001f0: ed7a 9f3b e490 0e3c 235b 9a3c 3807 473c
00000200: 2acf bdba 76a9 803a 6732 153c e6f1 0a3b
00000210: ab51 c6bb 7b9a 753c b8f8 b83b cbb9 223c
00000220: 482c 32bc be65 443b b833 55bb d3b0 463b
00000230: 95d2 2eba 0bee 323b ac20 0cbc 2563 e3bb
00000240: fea1 b8bb c357 fdbb 5b62 0cbb 3fe7 e5bb
00000250: 837d 223c 3726 073b 47e2 713c 5fad 99bb
00000260: 17df 85bc af2c 003b 9fbe 72bc ac8c 28bb
00000270: 9787 31bc 6fc6 013c ae8e 313c f312 a53b
00000280: 412e 153c baaa 04bc e1f6 87bb e023 cabb
00000290: bddf 6bbc c9cf 3abc f81d 333a 1214 723c
000002a0: 9040 30bc ef2d 92b7 b9a0 00bc 9df8 77bc
000002b0: aad1 0fbb 286d 273b 3c43 0ebc cbbb 0cbc
000002c0: 5b2e 613c a09b 88bc b5d0 573b b594 f0bb
000002d0: 4fbb de39 0d8c fe3b e187 2c3b 47d2 41bc
000002e0: 4459 0b3c f6ac 103c 53f2 cf39 837f 5f3c
000002f0: 20cf 7b3b 5f2a f2ba eaed 2cbc 2f32 63bc
00000300: 7e33 b53b 5d06 283b fb89 1e3a c227 25bc
00000310: d612 26bc a613 ab3b d43d 0dbc e377 b13b
00000320: 55aa 663b b133 b3bb 8559 52bc edca 08bc
00000330: f0b2 253b 3ec6 8f3a 4361 b53b 26fe abbb
00000340: 3834 dfbb e091 533c 14f7 96bb 3c16 243c
00000350: d38d 7f3b 8570 f5bb a27c 19bc 6711 ecbb
00000360: 4f3e 6fba b7bc a6bc c5e0 da38 06ea 1abb
00000370: 55c6 edbb f930 8b3b 7adb d93a 1dc0 2fbc
00000380: affd ce3a 534e 42bb 5fc8 b5bb dbb4 0b3c
00000390: 924c d539 ddd9 353a 0932 213c ddfb 0eba
000003a0: 274f 98bb 7e98 953b 47bd 9bba 58e8 f43c
000003b0: 4d78 493a bb77 73b9 eb97 2cbc 130e 51ba
000003c0: 4f84 47bb 4a5c 4f3c 7fb0 c9b9 1d91 383c
000003d0: 41af 12bc 01ee 1e3c 9fe0 c83b 72c6 20bb
000003e0: 51fa 89bc 43c4 2e3c 8a48 ff3b fa5e bdbb
000003f0: 8727 6dbc 72de b8bb 3d4c 7cbc 2f42 343b
-0.00049740373 -0.006026335 -0.0061090747 0.004238062 -0.0068507143 -0.0011051615 0.004459032 0.0074382387
0.0034603388 -0.013653383 0.010734445 -0.007783133 0.0022791422 -0.0019035473 0.0070523396 0.002002754
-0.007145697 -0.004377847 -0.008306566 0.0016750785 -0.00010873566 0.0048916102 0.012324518 -0.009744281
0.0030074818 -0.014732619 -0.0032514927 -0.0022089272 -0.013760003 -0.0007676547 -0.0046647987 -5.485028e-05
-0.008485197 0.008918606 0.015753351 -0.01435038 1.1879383e-05 0.0019996064 0.00080993166 0.0065005384
0.0062678265 0.0032890127 -0.01471995 -0.0062877857 0.0090398 0.011368532 0.015855934 0.0017626695
-0.0020273565 -0.0008604095 -0.00073169626 0.0059888787 -0.00051097764 0.0049664844 -0.015064548 0.0061989967
0.018669665 0.006019629 0.0059835017 0.0064794794 0.0005576214 0.00089024886 0.0040032044 -0.008637457
-0.0072805965 0.0009652809 -0.01004983 -0.00037737374 0.004093245 -0.0021706473 -0.017026948 -0.0045202444
0.0011239247 0.0011614002 0.0034712374 0.0009068544 -0.0022947125 -0.005252137 -0.0063993903 0.005105829
-0.0014116185 0.01323879 -0.0077554113 0.0009339363 -0.009215275 -0.017936919 -0.0007151763 -0.0037410792
-0.0033058801 0.0011145175 0.0061896215 -0.008850053 0.0026499075 -0.0052551525 -0.0027823087 -0.013772303
0.007713803 0.010023593 0.0041185846 -0.009090253 0.005294124 0.002351752 -0.015422544 0.003461054
0.017853534 -0.006791024 0.014778778 0.008120722 0.013193928 0.0063446364 -0.005646897 -0.011610798
-0.0023235758 0.011798709 0.009402279 0.009150614 -0.009444713 0.004398058 0.0037833557 -0.009516179
-0.00306438 -0.0026385575 0.008426842 0.003202083 0.004866949 0.008701537 0.018842285 0.012147717
-0.0014481295 0.0009816128 0.009106255 0.0021201312 -0.006052216 0.014990444 0.005644884 0.009931992
-0.010874815 0.002996787 -0.0032532047 0.0030317798 -0.00066689524 0.002730253 -0.008552711 -0.006939309
-0.0056345453 -0.0077314093 -0.002142093 -0.007016092 0.00991762 0.0020622143 0.014763421 -0.004689857
-0.01634173 0.0019557883 -0.014815955 -0.0025718613 -0.01083555 0.007920845 0.01083724 0.0050376593
0.009105266 -0.008097345 -0.0041493033 -0.0061688274 -0.014396605 -0.011402079 0.0006832774 0.014775293
-0.01075758 -1.7425946e-05 -0.007850819 -0.015134958 -0.0021945038 0.002554724 -0.008683022 -0.008589695
0.013743962 -0.01667577 0.0032930796 -0.007341946 0.00042482695 0.00776816 0.0026326107 -0.011829919
0.008505169 0.0088303 0.00039662662 0.013641241 0.0038423017 -0.0018475762 -0.01055477 -0.013866945
0.00552982 0.0025638558 0.00060477824 -0.01008028 -0.010136327 0.005220848 -0.008620698 0.005415903
0.003519674 -0.0054688086 -0.012838726 -0.0083491625 0.0025283657 0.0010969115 0.005535276 -0.0052488027
-0.006811645 0.012913197 -0.0046070907 0.010015067 0.0038994446 -0.00749022 -0.009368094 -0.007204223
-0.0009126411 -0.020353658 0.00010436917 -0.0023638024 -0.007256309 0.0042477814 0.0016621195 -0.010726956
0.0015792156 -0.0029648736 -0.0055475677 0.008527006 0.00040683575 0.0006937066 0.0098385895 -0.00054544007
-0.0046481076 0.0045652976 -0.001188197 0.029895946 0.0007685468 -0.00023218889 -0.010534267 -0.00079748145
-0.0030443852 0.012656281 -0.00038469207 0.011265066 -0.008952917 0.009700299 0.0061302925 -0.0024532345
-0.016842993 0.01066691 0.0077906298 -0.0057791444 -0.014474756 -0.005641752 -0.015399036 0.0027505269

action_model._discrete_distribution.branches.1.bias f4 [9]
00000000: 0000 0000 0000 0000 0000 0000 0000 0000
00000010: 0000 0000 0000 0000 0000 0000 0000 0000
00000020: 0000 0000
0.0 0.0 0.0 0.0 0.0 0.0 0.0 0.0
0.0

action_model._discrete_distribution.branches.1.weight f4 [9, 128]
00000000: 4387 adbb 77ac 2bbc b07f 223c d3e4 423c
00000010: 5864 65bc ce6e 0ebc 1e44 8abc 82c0 6f3c
00000020: 7f63 463c 2452 043b 4e67 2cbc 8d92 213b
00000030: 3168 043b 038c d63b 9714 073c 4b1b b5bb
00000040: e42d 2a3c d701 373c c4c7 06bc 2daf 69bc
00000050: 5e38 06bc eda7 f1bb 074d 42bc 95fc 17bc
00000060: 0258 553c bb59 00b9 ed9c 1abc 3ca7 413c
00000070: 4392 2abb b8e5 5b3a 6bcc 773c 50bd a63b
00000080: 870a 253c b3e8 02bc 33d4 06bc dfe0 77bb
00000090: 4b8e ea3b bcbb 09bc 683c 6fbc 87b2 89bc
000000a0: a50a 963b 373a 2b3b 5251 85bc 233c 59bb
000000b0: 504e 7cbb 03bf 48bc 8b42 2ebb 9b4a c33a
000000c0: bf34 cd3b 7b6a 86bc 435b 6b3c 529d 553c
000000d0: 9349 d7bb 2a0e c2ba df7c 223c fa90 e83b
000000e0: d554 89bb 9f1d 463a 432e 48bc 6790 033c
000000f0: b733 9e3a 0002 2bbc 03f6 3a3b 75e1 1b3c
00000100: 5af1 633c c225 523b 7d2f 803c b7fa 89bb
00000110: 8715 ab3b 7116 11bb bfb7 43bc e344 423b
00000120: 6e0e b2bb 2070 113c 24d4 903c 237f 4bbc
00000130: 076b a53b 8a18 5cbb cf03 3b3c 42d0 88bb
00000140: 7b3b de3a da5b ff39 642d 30bc ebfc 59b8
00000150: 77c6 5d3b f0e1 44bc 04ed cb39 87c6 c43a
00000160: f3d9 dab9 5a76 40bb 948d ac3b 2eee 103c
00000170: c793 043c ed48 66bc 7da5 e4bb 9331 0f3c
00000180: e5bc 413c 5f86 61bc b354 893b 13d9 813c
00000190: 2a60 0dba 49e3 0abb 2fa0 cd3b 23a8 2c3c
000001a0: f1d4 89bb 1506 64bc e7ed 603c 02e5 08bb
000001b0: 702f 51bc 85b8 27bb 03d5 b439 0588 7fbb
000001c0: bf66 3abc add0 8eba 6700 0f3c 7fcb abbb
000001d0: 44c2 9a3b 93cb cdbb f0cf 0f3b f37b 3a3b
000001e0: 9c33 99bc c704 41bc 999b 233b e239 b43b
000001f0: a744 31bc 87bd 22bc d391 5f3c 180b 19bc
00000200: a355 95bb 6a5d 6cbc 3d3e cd3b ba8b 5f3c
00000210: de6f 023b d01c bb39 a738 89bb cbe6 87bc
00000220: 01a9 80bb c8c9 ae3b 6f89 573b 3bf5 0fbc
00000230: 0055 6b3b 6b27 823c 4d35 03bc 7732 023b
00000240: 2781 1ebc b128 8abb 9179 08bc df71 7b3b
00000250: d93c 193c 77f5 abbb 4b1f f23b 1bd0 2dbc
00000260: ef1c d3ba 3260 fc3b a22a 7e3b d348 873b
00000270: 4433 a83b 4b1f 5dbc 249b 2fbc c70d debb
00000280: 37a6 a73b 803c d9bb 88f3 dfb9 cb25 0c3c
00000290: 1ff6 3fba 23f3 b93b b3ab 88bb 85a1 7d3b
000002a0: 46ea 0a3c 2365 2dbc 65d4 58ba 2881 ac3b
000002b0: ea06 673b 980d 83bb 4b04 29bc 7f94 fabb
000002c0: 4ae6 203c fa5f f3bb 6048 8fbb 8a9a fe3b
000002d0: 7d20 03bb 0f44 1ebc 9afd 6c3b 3bed 33bc
000002e0: 9f86 56bb d3a4 073c 527a 0cbc 3fc0 873a
000002f0: 60ed 053b 1d9d 6839 db47 2bbb f1ca 983b
00000300: ec72 81bb 0c35 c7bb 2422 bd3b cf1a 63ba
00000310: 60c9 debb 23a2 243c 1762 30bc b855 51ba
00000320: f792 773b 3f4c 2039 3562 80bc b015 9abc
00000330: 33bf 813a 452c da3a 44ef 0bbc 23b9 2dbc
00000340: 86ce a23b 17bc 833c b510 afbb e7cc 0b3b
00000350: 6b2f 3dbc 2786 38bc d315 81bb a5a4 253c
00000360: 6360 92ba 91f2 283a b3b8 793b 0fe1 54bc
00000370: e0a4 5e3c 5f10 1bbc e592 473b e8b8 743c
00000380: c915 0a3c a707 ed3b a798 023c bb72 bebb
00000390: c395 a33b a856 61bc c02c 36bc 7be5 913a
000003a0: 30b8 6d3b 2d54 97b8 e602 273b 4be2 3abc
000003b0: fcc9 a53b 0322 2abc 3855 06bc 59ab 0cba
000003c0: 6d19 cabb d267 a03a 0d4e 4ebc 648b 21bc
000003d0: 7312 103c 063f 81bc 32ae 08bc 8b00 5bbb
000003e0: 21bd 46bc 27f1 9abb 41f2 273c ade0 143c
000003f0: 1825 dbbb 4394 44bc a59d 58bc aace 50ba
-0.0052956655 -0.010478131 0.009918138 0.011895376 -0.014000975 -0.00869341 -0.016878184 0.0146333
0.012108683 0.0020190561 -0.010522677 0.0024654001 0.0020203704 0.0065474524 0.008244655 -0.005526935
0.010386918 0.011169872 -0.008226339 -0.014262957 -0.00819215 -0.0073747546 -0.011859185 -0.009276529
0.013021471 -0.00012240458 -0.009436828 0.011819657 -0.002602712 0.0008388418 0.015124421 0.005088486
0.010073311 -0.00799005 -0.008229303 -0.0037823243 0.007158076 -0.008406576 -0.014601804 -0.016808761
0.0045789056 0.0026127228 -0.016274128 -0.0033147417 -0.0038498826 -0.012252572 -0.0026589956 0.0014899553
0.0062623913 -0.016408196 0.01436502 0.013037996 -0.00657005 -0.0014805247 0.009917467 0.0070973607
-0.004191021 0.00075575145 -0.012218061 0.008030034 0.0012069856 -0.010437489 0.0028527982 0.009514202
0.013912523 0.0032065962 0.015647644 -0.0042107957 0.005221072 -0.002213862 -0.011945664 0.002964311
-0.005433849 0.00887683 0.017679282 -0.0124204485 0.005048159 -0.0033583962 0.011414482 -0.004175217
0.0016954982 0.00048705825 -0.0107530095 -5.197238e-05 0.0033840218 -0.012016758 0.00038895768 0.0015012779
-0.00041742585 -0.0029367418 0.005265901 0.008845849 0.0080918735 -0.014055473 -0.0069777356 0.008739847
0.011824821 -0.013764947 0.004191005 0.01585058 -0.00053930527 -0.0021192601 0.006275199 0.010538134
-0.004206293 -0.013917466 0.013728595 -0.0020888452 -0.012767658 -0.002559216 0.00034490981 -0.0038990986
-0.011377036 -0.001089593 0.008728123 -0.0052427645 0.0047228653 -0.0062803715 0.0021944009 0.0028455227
-0.018701367 -0.011780924 0.002496457 0.005500064 -0.010819591 -0.009932882 0.013645607 -0.009341024
-0.004557328 -0.0144265685 0.006263523 0.013644153 0.0019903104 0.00035688886 -0.0041876617 -0.016589543
-0.003926397 0.005334113 0.0032888313 -0.008786495 0.0035908818 0.015887937 -0.008008313 0.0019866505
-0.009674347 -0.0042162766 -0.008329765 0.0038367433 0.009352886 -0.0052477675 0.0073889843 -0.010608698
-0.0016106645 0.007701897 0.0038782735 0.0041285544 0.0051330645 -0.01349623 -0.010718141 -0.0067765447
0.00511625 -0.0066295266 -0.0004271532 0.008553932 -0.00073227467 0.005674736 -0.0041708588 0.003870101
0.008478707 -0.010583195 -0.00082713953 0.00526442 0.0035251924 -0.0039994232 -0.010315965 -0.0076470966
0.00982053 -0.007427213 -0.0043726414 0.0077698873 -0.0020008378 -0.009659781 0.00361619 -0.010981853
-0.003273405 0.008279043 -0.008574085 0.0010356976 0.0020435676 0.00022183773 -0.0026135358 0.0046628644
-0.0039504673 -0.0060793217 0.005771892 -0.00086633576 -0.006798908 0.010048422 -0.010765574 -0.00079854904
0.0037776807 0.00015287193 -0.015671829 -0.01880917 0.0009898901 0.0016645273 -0.008540932 -0.010603222
0.004968467 0.0160809 -0.005342568 0.0021331848 -0.01154695 -0.011262453 -0.003939369 0.010110055
-0.0011167641 0.00064448366 0.0038104474 -0.012993111 0.013589114 -0.009464352 0.0030452546 0.014936663
0.008428046 0.0072335782 0.0079709655 -0.005812017 0.004992218 -0.013753571 -0.011119068 0.0011131013
0.0036273114 -7.21592e-05 0.0025483905 -0.0114064915 0.005059479 -0.010384086 -0.008199029 -0.0005366109
-0.006167582 0.0012237972 -0.012591851 -0.0098598935 0.008793461 -0.015777122 -0.008342313 -0.0033417072
-0.012130053 -0.0047284546 0.010250629 0.00908677 -0.0066877715 -0.011998239 -0.013221179 -0.00079653657

network_body.linear_encoder.seq_layers.0.bias f4 [128]
00000000: 0000 0000 0000 0000 0000 0000 0000 0000
00000010: 0000 0000 0000 0000 0000 0000 0000 0000
00000020: 0000 0000 0000 0000 0000 0000 0000 0000
00000030: 0000 0000 0000 0000 0000 0000 0000 0000
00000040: 0000 0000 0000 0000 0000 0000 0000 0000
00000050: 0000 0000 0000 0000 0000 0000 0000 0000
00000060: 0000 0000 0000 0000 0000 0000 0000 0000
00000070: 0000 0000 0000 0000 0000 0000 0000 0000
00000080: 0000 0000 0000 0000 0000 0000 0000 0000
00000090: 0000 0000 0000 0000 0000 0000 0000 0000
000000a0: 0000 0000 0000 0000 0000 0000 0000 0000
000000b0: 0000 0000 0000 0000 0000 0000 0000 0000
000000c0: 0000 0000 0000 0000 0000 0000 0000 0000
000000d0: 0000 0000 0000 0000 0000 0000 0000 0000
000000e0: 0000 0000 0000 0000 0000 0000 0000 0000
000000f0: 0000 0000 0000 0000 0000 0000 0000 0000
00000100: 0000 0000 0000 0000 0000 0000 0000 0000
00000110: 0000 0000 0000 0000 0000 0000 0000 0000
00000120: 0000 0000 0000 0000 0000 0000 0000 0000
00000130: 0000 0000 0000 0000 0000 0000 0000 0000
00000140: 0000 0000 0000 0000 0000 0000 0000 0000
00000150: 0000 0000 0000 0000 0000 0000 0000 0000
00000160: 0000 0000 0000 0000 0000 0000 0000 0000
00000170: 0000 0000 0000 0000 0000 0000 0000 0000
00000180: 0000 0000 0000 0000 0000 0000 0000 0000
00000190: 0000 0000 0000 0000 0000 0000 0000 0000
000001a0: 0000 0000 0000 0000 0000 0000 0000 0000
000001b0: 0000 0000 0000 0000 0000 0000 0000 0000
000001c0: 0000 0000 0000 0000 0000 0000 0000 0000
000001d0: 0000 0000 0000 0000 0000 0000 0000 0000
000001e0: 0000 0000 0000 0000 0000 0000 0000 0000
000001f0: 0000 0000 0000 0000 0000 0000 0000 0000
0.0 0.0 0.0 0.0 0.0 0.0 0.0 0.0
0.0 0.0 0.0 0.0 0.0 0.0 0.0 0.0
0.0 0.0 0.0 0.0 0.0 0.0 0.0 0.0
0.0 0.0 0.0 0.0 0.0 0.0 0.0 0.0
0.0 0.0 0.0 0.0 0.0 0.0 0.0 0.0
0.0 0.0 0.0 0.0 0.0 0.0 0.0 0.0
0.0 0.0 0.0 0.0 0.0 0.0 0.0 0.0
0.0 0.0 0.0 0.0 0.0 0.0 0.0 0.0
0.0 0.0 0.0 0.0 0.0 0.0 0.0 0.0
0.0 0.0 0.0 0.0 0.0 0.0 0.0 0.0
0.0 0.0 0.0 0.0 0.0 0.0 0.0 0.0
0.0 0.0 0.0 0.0 0.0 0.0 0.0 0.0
0.0 0.0 0.0 0.0 0.0 0.0 0.0 0.0
0.0 0.0 0.0 0.0 0.0 0.0 0.0 0.0
0.0 0.0 0.0 0.0 0.0 0.0 0.0 0.0
0.0 0.0 0.0 0.0 0.0 0.0 0.0 0.0

network_body.linear_encoder.seq_layers.0.weight f4 [128, 4]
00000000: 1025 12bf de04 a6be 1287 cf3b cea3 9abf
00000010: 598b 523c 8dba 073f 02a2 95bf 2bab 00bf
00000020: 7b71 2ebf 0fb3 7c3f d376 d03e 11d8 2b3d
00000030: 5441 d1be 1166 1a3e 1346 a93f 1f72 acbd
00000040: cc9c 253f d8c9 82bf 22fd d3bd de76 053e
00000050: b45d e63e 73ce 4c3e 0101 11bf 93ea 7fbe
00000060: 8324 03bf fc41 33bf 0638 94be 297d 0cbf
00000070: 2b7e 3dbe 994c 15bf ad25 39be a2cc cdbe
00000080: 9be8 7dbc 6a96 d3be 78ba 16be c9ca f9be
00000090: 187b f2be acf2 963e 0d7d 34be 9139 563e
000000a0: 309f e6be 179e dbbd 4c56 10bf 5127 4cbe
000000b0: 4d9f ce3d a61f 77bf e896 863f 7f20 923e
000000c0: 0398 0abd e293 1dbf 6f46 05bf 4415 0e3e
000000d0: f2e7 8c3f 69a8 833e db99 91be bca6 1e3e
000000e0: 9ae2 1d3f 241b 803f fb30 f63d 74e0 023d
000000f0: f68e f0be 2570 0f3e fae1 f2be 5339 b3bf
00000100: ed13 5d3e d38d 81be a21f 29bf fa5a dd3e
00000110: f1f2 22be dff6 9a3e 9878 e83d 2158 92be
00000120: a15e b9be d162 f2be 5701 b8bd fe22 c0be
00000130: cb29 50be d6b9 013b b93d ebbd 10b4 353f
00000140: 4452 2dbe a28a b3bd 8b77 78be bafa a9be
00000150: 7c5c 4dbf 65e0 283f 6117 3dbe 26ae 67bd
00000160: 6165 f2be 38c3 3bbe 94c2 103e 47eb 58be
00000170: d741 653e d1f2 513e 216c a5be e98c 11bf
00000180: 1c14 a33e 05c5 fbbe 684b 23bf def7 82bf
00000190: 729d 38be 7141 293e 4884 eabe 1566 08bf
000001a0: bd73 223e 0704 81be 7c09 a53e 30a5 a4be
000001b0: 4edc 673e d86d 13be 99ac d33e 2902 1fbd
000001c0: ebb8 dfbe 54d0 17bf 2377 21bf 6d72 933d
000001d0: 6531 6fbe 8f95 c53d 8248 bcbe 7b20 7fbe
000001e0: a9eb 44be c030 62be 94ee 123e 68c6 3d3e
000001f0: 686c bf3d b1f7 603d ff60 c8be 4b5b 7abe
00000200: ba24 9abf 7b3d 37be a30d b23c a9ee b9bd
00000210: cd4c 51be d029 1b3f 996d f4be 1773 3abf
00000220: da14 943d c34c 163f afcb 17bf aede 533e
00000230: 827d 7cbb e2ac 0dbf de76 c33d 3c76 5c3f
00000240: 8b5c a2be 1ba5 283f 2458 28bc ff04 9ebe
00000250: 7992 f83d 44fc c8be 83f9 cabd 35c0 4d3f
00000260: 7962 75be 05b0 ad3e 95bc ea3e 0f04 40bc
00000270: cfd1 05bf f814 363f f9ce 773e 1be8 f13e
00000280: 85b5 d63e d6be b1bf 96dc 8e3e 49e2 45bf
00000290: a813 0a3f 5c58 313f 10ae 0e3f 74d6 d63e
000002a0: 340a cb3e 30c8 90bd 1bc9 06bf 5790 e23e
000002b0: a9eb f0be 7912 0dbd d6a9 803e 0b6a 9f3e
000002c0: 3697 623f cffc 29be 9537 febe 0e89 11bf
000002d0: afb4 2abf 2417 09be ccf4 1d3f 00f9 3abe
000002e0: 1d30 03be e169 65be 338b a6bf fcb3 033f
000002f0: 9e63 ce3e 26ff e93d 2de0 ccbe 279b 95bf
00000300: b24b 9e3e 880d 03be 0b67 073e d52e 783e
00000310: 746d 883f 21d0 12bf 15a4 563f 68a6 9bbf
00000320: d63d 56bf b166 cebe 2a08 a03e a28f 61be
00000330: ec4c 1dbf b0ef 74bf 5453 0f3f 75c9 2c3e
00000340: 1121 84bd 8a0c 8b3e 6ab7 dd3e 452d 2e3f
00000350: 0263 acbe 4404 b73e 49ea 723e 5266 7abe
00000360: 93bb 2a3f 0259 be3e 22b2 8f3e 68d1 47be
00000370: 575c 00be 1a7f c0be 7caa 833f 4d8a 1dbe
00000380: be61 a83e ba2d fc3e f8ed 15bf f993 cfbd
00000390: a8ca 90bf d873 47be c70a 34bb fc98 89bd
000003a0: 4cc2 b1be f748 9c3d 77df ebbd 854a 5b3f
000003b0: 8eee 68bf 669d 663f 52e5 b13c ee32 2fbe
000003c0: 73d9 973f a47d a73e e7c6 fc3c e89c 7abc
000003d0: 382a 7a3d f150 09bf 21fa 6abe 15dd a03e
000003e0: 7a1c 7bbd 93e6 0f3f 790c efbe cecc c7be
000003f0: fdb8 ec3e 63aa 673e 1c17 0a3f ab8e 8ebf
-0.570878 -0.32425588 0.0063332403 -1.2081239 0.012850606 0.5301903 -1.1690066 -0.5026118
-0.6814191 0.9871072 0.40715656 0.041954104 -0.40870154 0.15077998 1.322451 -0.08420204
0.6469238 -1.0217848 -0.103510156 0.13033625 0.44993365 0.20000629 -0.56642157 -0.24991827
-0.5122759 -0.7002256 -0.28948992 -0.5487848 -0.1850516 -0.58320004 -0.18080778 -0.40195185
-0.015497352 -0.41325694 -0.1471957 -0.48787525 -0.47359538 0.2948202 -0.17625828 0.20920397
-0.45043325 -0.107235126 -0.5638168 -0.19936873 0.10088978 -0.96532667 1.0514803 0.28540418
-0.033836376 -0.61553776 -0.520606 0.138753 1.1008284 0.25714424 -0.28437695 0.15493292
0.6167389 1.0008283 0.12021061 0.031952336 -0.4698407 0.14007623 -0.4743803 -1.4001869
0.21589632 -0.25303516 -0.6606389 0.43233472 -0.15912987 0.30266473 0.113511264 -0.28582862
-0.3620501 -0.47341016 -0.089846306 -0.37526697 -0.20328443 0.0019794605 -0.11486382 0.7097788
-0.16925913 -0.087666765 -0.24264352 -0.33199102 -0.80219245 0.659674 -0.1846595 -0.056562565
-0.4734297 -0.18336189 0.14136726 -0.21183501 0.22388397 0.20502783 -0.32309058 -0.56855637
0.3185128 -0.4917375 -0.63786936 -1.0231893 -0.1802881 0.1652887 -0.45804048 -0.53280765
0.15864463 -0.25198385 0.32233799 -0.32157278 0.22642633 -0.14397371 0.4134262 -0.03882042
-0.4369577 -0.5930226 -0.63072413 0.07199559 -0.23358686 0.09647667 -0.3677407 -0.24914734
-0.19230522 -0.22088909 0.14348823 0.18532717 0.09346849 0.054923717 -0.39136502 -0.24448888
-1.2042458 -0.17894547 0.021735018 -0.09078724 -0.20439453 0.60610676 -0.47739866 -0.72831863
0.072305396 0.5871088 -0.5929517 0.20690414 -0.0038526957 -0.55341923 0.095441565 0.8611791
-0.3171123 0.6587693 -0.010274921 -0.30863187 0.121373124 -0.39254963 -0.09910872 0.8037141
-0.23963346 0.33923355 0.45847002 -0.011719718 -0.5227327 0.71125746 0.24200048 0.47247395
0.41935363 -1.3886364 0.2790267 -0.7729841 0.53936243 0.6927545 0.5573435 0.4196049
0.39656222 -0.07069433 -0.5265061 0.44250748 -0.47054794 -0.034441445 0.25129575 0.31135592
0.8851198 -0.16600345 -0.4965178 -0.56849754 -0.6668195 -0.13387734 0.61701655 -0.18259048
-0.12811323 -0.22403671 -1.301123 0.5144651 0.40310377 0.11425619 -0.40014783 -1.1687974
0.30917126 -0.1279813 0.13222902 0.24236615 1.0658402 -0.5734883 0.8384412 -1.2160158
-0.83688104 -0.40312722 0.3125623 -0.22027448 -0.614455 -0.95678234 0.55986524 0.16873725
-0.064516194 0.27158004 0.43303996 0.68037826 -0.33669287 0.35745442 0.23722185 -0.24453095
0.66692466 0.37177283 0.28065592 -0.19513476 -0.12535225 -0.3759697 1.0286403 -0.15384789
0.3288707 0.49253637 -0.58566236 -0.101356454 -1.1311846 -0.19477785 -0.0027472244 -0.067186326
-0.3471855 0.076311044 -0.11517232 0.8566058 -0.90989006 0.9008392 0.021715794 -0.17109272
1.1863235 0.32713044 0.030856563 -0.015296198 0.06107542 -0.5363913 -0.22946979 0.31418672
-0.061306454 0.56211203 -0.46689203 -0.3902344 0.46234885 0.22623591 0.5394151 -1.1137289

network_body.linear_encoder.seq_layers.2.bias f4 [128]
00000000: 0000 0000 0000 0000 0000 0000 0000 0000
00000010: 0000 0000 0000 0000 0000 0000 0000 0000
00000020: 0000 0000 0000 0000 0000 0000 0000 0000
00000030: 0000 0000 0000 0000 0000 0000 0000 0000
00000040: 0000 0000 0000 0000 0000 0000 0000 0000
00000050: 0000 0000 0000 0000 0000 0000 0000 0000
00000060: 0000 0000 0000 0000 0000 0000 0000 0000
00000070: 0000 0000 0000 0000 0000 0000 0000 0000
00000080: 0000 0000 0000 0000 0000 0000 0000 0000
00000090: 0000 0000 0000 0000 0000 0000 0000 0000
000000a0: 0000 0000 0000 0000 0000 0000 0000 0000
000000b0: 0000 0000 0000 0000 0000 0000 0000 0000
000000c0: 0000 0000 0000 0000 0000 0000 0000 0000
000000d0: 0000 0000 0000 0000 0000 0000 0000 0000
000000e0: 0000 0000 0000 0000 0000 0000 0000 0000
000000f0: 0000 0000 0000 0000 0000 0000 0000 0000
00000100: 0000 0000 0000 0000 0000 0000 0000 0000
00000110: 0000 0000 0000 0000 0000 0000 0000 0000
00000120: 0000 0000 0000 0000 0000 0000 0000 0000
00000130: 0000 0000 0000 0000 0000 0000 0000 0000
00000140: 0000 0000 0000 0000 0000 0000 0000 0000
00000150: 0000 0000 0000 0000 0000 0000 0000 0000
00000160: 0000 0000 0000 0000 0000 0000 0000 0000
00000170: 0000 0000 0000 0000 0000 0000 0000 0000
00000180: 0000 0000 0000 0000 0000 0000 0000 0000
00000190: 0000 0000 0000 0000 0000 0000 0000 0000
000001a0: 0000 0000 0000 0000 0000 0000 0000 0000
000001b0: 0000 0000 0000 0000 0000 0000 0000 0000
000001c0: 0000 0000 0000 0000 0000 0000 0000 0000
000001d0: 0000 0000 0000 0000 0000 0000 0000 0000
000001e0: 0000 0000 0000 0000 0000 0000 0000 0000
000001f0: 0000 0000 0000 0000 0000 0000 0000 0000
0.0 0.0 0.0 0.0 0.0 0.0 0.0 0.0
0.0 0.0 0.0 0.0 0.0 0.0 0.0 0.0
0.0 0.0 0.0 0.0 0.0 0.0 0.0 0.0
0.0 0.0 0.0 0.0 0.0 0.0 0.0 0.0
0.0 0.0 0.0 0.0 0.0 0.0 0.0 0.0
0.0 0.0 0.0 0.0 0.0 0.0 0.0 0.0
0.0 0.0 0.0 0.0 0.0 0.0 0.0 0.0
0.0 0.0 0.0 0.0 0.0 0.0 0.0 0.0
0.0 0.0 0.0 0.0 0.0 0.0 0.0 0.0
0.0 0.0 0.0 0.0 0.0 0.0 0.0 0.0
0.0 0.0 0.0 0.0 0.0 0.0 0.0 0.0
0.0 0.0 0.0 0.0 0.0 0.0 0.0 0.0
0.0 0.0 0.0 0.0 0.0 0.0 0.0 0.0
0.0 0.0 0.0 0.0 0.0 0.0 0.0 0.0
0.0 0.0 0.0 0.0 0.0 0.0 0.0 0.0
0.0 0.0 0.0 0.0 0.0 0.0 0.0 0.0

network_body.linear_encoder.seq_layers.2.weight f4 [128, 128]
00000000: 0514 f139 f619 e23d 968b 05bd 457f cabc
00000010: 72da da3d bf44 91bd e56f da3d 7537 d9bd
00000020: c1ee e33d 46b5 963c e6cf 263d b491 ba3d
00000030: bd28 99bd 5335 2d3e c199 3c3b 5858 b5bd
00000040: fe1d fb3c 0b6b b83d 6763 e0bb 21cf b43c
00000050: f610 203d 8dc8 343d 4762 e1bc f9d7 b8bd
00000060: b2c3 eb3d 2158 1fbe 4dcb 43bc 3c75 82bd
00000070: 5d1b 733d 6b4e 7a3d 6fab 70bd 5bae 343c
00000080: da31 b03d b1cc fabc b6a7 373d 9db2 8ebc
00000090: 06a6 1c3d 6b8c 923c 424c 0c3e 9ae0 2dbe
000000a0: 718f c33d 46df 843d 5d6e 37be eadf 46bd
000000b0: 73b6 9cbd 33f2 5bbd bdc6 2bbe 96fc dfbd
000000c0: d89b df3b 94ed 0f3d 37e0 f3bd 2ca4 b63d
000000d0: e3a1 0a3e bcad c2bd 3dc4 02be 09f9 66bc
000000e0: beef 0a3e 90f5 13bd 96d4 4fbc a4b9 31be
000000f0: 0a18 223e b79f 9e3d 45a6 963d 989f aebb
00000100: 7241 03bd 7f51 993c 4b8a 233e 0315 8c3d
00000110: 36db 86bc be57 f73c bd08 c93d cd78 81bd
00000120: 6fbe 733e 61b5 88bd c850 0c3d 8f62 e3bc
00000130: 7c49 813d 69e3 2a3e 2ba9 29bc e1c2 05bb
00000140: 8169 85bd e93d 033d a334 423c bb5a 5ebc
00000150: 4809 30bd 8177 59bc 5537 c13d ad19 293e
00000160: e9d9 1c3d f23c 7a3d da0e 6a3e 2854 ee3d
00000170: 30f4 aabd d20a 7ebd 6952 a4bd 52a2 47be
00000180: e73b f93d b215 523d dd09 81bd 351b ddbd
00000190: 4f77 0cbe 4d8e ce3d 4945 e53c ae9a 633d
000001a0: 9d92 a53c e28b a8bd 0978 91bd 0390 afbd
000001b0: 552d 0dbe 47e7 1ebd 6cc5 dfbb 4476 2abd
000001c0: a58b c33d 0e67 ef3d fbb4 813d bc91 d6bd
000001d0: ba62 bc3d b1e9 c33d 91a7 debd 01ff be3d
000001e0: 0be1 17bc 1da6 16be 7dbb 66bd eab2 103e
000001f0: bcd5 e43c 2832 83bd c54d debd 158f 6bbe
00000200: 7d51 123e 005a 68bb 127a 5d3d ffa2 03bd
00000210: 0c13 d93d 9a08 cb3d b964 b2bd 89b5 0a3c
00000220: d536 3ebb 4980 d1bd 3343 623d 7d99 a43d
00000230: a17f adbd 716b b3bd edb9 0b3e ec96 453e
00000240: c220 363d 3dcc 703d 131b ad3d 5978 ca3d
00000250: 1773 17bd f4b1 8ebd 4d32 6d3d d98a b8bc
00000260: 083d 9d3b 7fe2 a0bd afd2 863d 3bb9 6abc
00000270: 4013 b13d 1281 20be 428d aabd d1eb d83c
00000280: 9b91 06be 19a1 d6bd 792b a1bd 587e 96bd
00000290: 5d11 c8bc e852 25be 72e3 12be 3169 71bd
000002a0: 82b8 88bd 3fb9 16bc 3874 d63d 4da3 6ebd
000002b0: c93a e9bc 31c1 a73b 1aea 73be 338d 823d
000002c0: 9bc6 84bd 7b7c 1b3d 603c ba3c f6d4 8b3d
000002d0: 451f e53c aaf5 303d 6dd2 8d3d f74c a1bd
000002e0: 5029 d03b f559 923d 4219 f9bc 2606 01be
000002f0: c4fe d93b ee60 ab3d f113 fe3d 95b7 923d
00000300: 0b44 b63d 4796 753d 14e2 3fbb f6c9 4fbd
00000310: 32b0 84bc 4d4f 253e 8201 703d 28c8 1dbd
00000320: 37c7 20be 81a8 ba3c 4543 d0bd f517 0ebc
00000330: 1ec3 debd 1974 103d 0a00 97bd 2444 21bb
00000340: 652a f3bd 5194 20be bb8d 323d ac11 a63b
00000350: 93f0 413d 5154 dd3d a2af b23c 822d 013e
00000360: d6a8 823d 8b92 20bd b41e efbd dcaf cebc
00000370: 67ee ff3c f650 92bd 347f 1abe 5a0c 853d
00000380: 430a 46bd d232 d3bc 50a4 a33d 0274 acbd
00000390: 128d e9bd 46c0 f4bd 682a 8cbd fb7e efbd
000003a0: 59fb 723e dda5 663d e52e 0fbe 9809 dd3c
000003b0: 95bb e03b d3ec 953c cfca aebd 86f3 95bc
000003c0: 5714 02bc 646b 193e 9e63 3e3e d33e 303d
000003d0: 1943 ca3d 2d51 d43d 3e01 dcbd 4bc6 2dbe
000003e0: 529d 073b ea0e 5d3e 09ee 383e f4a0 ac3d
000003f0: 8cf4 2bbe 7125 acbd 7672 c33d 4cf2 52bc
0.00045982018 0.11040108 -0.032603823 -0.02471889 0.106861964 -0.070931904 0.106658734 -0.10606281
0.11129523 0.018396985 0.04072561 0.09109822 -0.07478473 0.16914873 0.0028778168 -0.08854741
0.03065395 0.09004792 -0.006847787 0.022071423 0.039078675 0.044136573 -0.027512683 -0.090255685
0.11511935 -0.15560962 -0.011950326 -0.06370017 0.059352268 0.06110994 -0.05875724 0.011027898
0.086032584 -0.030615183 0.044837676 -0.017419154 0.03824427 0.017889222 0.13700965 -0.1698021
0.09548844 0.064878985 -0.17913194 -0.048553385 -0.07651987 -0.053697776 -0.16775031 -0.10936849
0.006823998 0.03513868 -0.11908 0.08918032 0.13538317 -0.095057935 -0.12770171 -0.014097461
0.13568017 -0.03612286 -0.012684962 -0.17355973 0.15829483 0.07745307 0.07355932 -0.0053290837
-0.032044835 0.018715618 0.15970723 0.06839945 -0.01646195 0.030193206 0.0981612 -0.06321869
0.23803113 -0.0667522 0.034256727 -0.027756957 0.06312844 0.16688313 -0.010355274 -0.0020410346
-0.06514264 0.032041464 0.01185337 -0.0135714365 -0.0429776 -0.013273121 0.09434382 0.16513701
0.038293753 0.06109328 0.22857228 0.11637145 -0.08347356 -0.062022038 -0.08023531 -0.19495514
0.121696286 0.05129022 -0.063007094 -0.10796205 -0.13717388 0.100857355 0.02798714 0.055567436
0.020211512 -0.082298055 -0.07102973 -0.0857239 -0.13786824 -0.038794782 -0.0068289544 -0.041616693
0.095481195 0.11689578 0.063333474 -0.104770154 0.09198518 0.095660575 -0.108718045 0.09325982
-0.009269963 -0.14711805 -0.056331147 0.1413075 0.027933948 -0.06406051 -0.10854677 -0.230038
0.14288898 -0.0035454035 0.054071493 -0.032137867 0.10599336 0.0991375 -0.087106176 0.008466133
-0.0029024382 -0.102295466 0.055239867 0.08037088 -0.08471609 -0.08760727 0.13645144 0.19295853
0.044464834 0.058788527 0.084524296 0.09886236 -0.036974993 -0.069675356 0.0579093 -0.022527145
0.0047985353 -0.07855701 0.065831535 -0.014326389 0.0864625 -0.15674236 -0.08327724 0.026479634
-0.13141482 -0.10479946 -0.0786962 -0.07348317 -0.024422342 -0.16144907 -0.14344576 -0.05893821
-0.06675817 -0.00919944 0.10471386 -0.058261205 -0.028470414 0.0051194658 -0.23819771 0.06374588
-0.064831935 0.03796051 0.022733867 0.068277285 0.027969012 0.043203034 0.06924901 -0.07876008
0.006352581 0.07146064 -0.030407552 -0.12600002 0.006652685 0.08368097 0.12406147 0.07163922
0.08899697 0.05995777 -0.002927904 -0.050729714 -0.016197298 0.16143532 0.058595188 -0.038520962
-0.15700994 0.022785427 -0.10169081 -0.008672704 -0.108770594 0.03526697 -0.07373054 -0.0024607265
-0.118733205 -0.15681578 0.043592196 0.0050680246 0.04734857 0.10807098 0.021812264 0.12615016
0.06379859 -0.039202254 -0.11675778 -0.02523034 0.031241609 -0.07144348 -0.15087587 0.064964965
-0.04834963 -0.025781069 0.079903245 -0.08420564 -0.1140386 -0.11950736 -0.06844026 -0.116941415
0.23728694 0.056310523 -0.13982733 0.026982114 0.006858299 0.018301403 -0.085347764 -0.018304598
-0.00793942 0.14982373 0.18592688 0.043028664 0.09876079 0.103670456 -0.107424244 -0.16970174
0.0020693135 0.2158772 0.18059553 0.08429137 -0.16792506 -0.08405579 0.09543316 -0.012875151
