results/Hikaru_isBorn/Hikaru/Hikaru-640.pt (torch, 588359 bytes, 11 tensors)

network_body.linear_encoder.seq_layers.0.weight f4 [128, 96]
000000 a9 2d 19 bd 39 b4 01 ba 6d 12 90 3d 9b 96 e4 3d
       -0.03739706 -0.0004947815 0.070347644 0.11161538
000010 06 0e 81 3e 4b 16 67 bd b9 a2 13 bd 4d b6 8a 3c
       0.25206012 -0.056417745 -0.036043856 0.01693263
000020 53 cd 29 3d 49 c8 24 3e a7 87 57 bc e1 02 da bc
       0.041455578 0.16092028 -0.013154901 -0.0266127
000030 34 e1 9e 3e 0d 15 1b 3d fc ea 54 bd 83 14 3c 3d
       0.3103119 0.037861872 -0.05198191 0.045918
000040 dc 01 a5 3c dd e3 16 bd 0c b0 7a bd 6c ca d8 bd
       0.020142488 -0.0368384 -0.061203048 -0.10585484
000050 f6 2b 9f 3d 65 47 88 3d 2d 54 6f bd 38 ed f8 bb
       0.07772057 0.066542424 -0.058429886 -0.007596638
000060 04 ef de 3c e3 b6 1b be 93 74 fb bb ea 67 34 be
       0.02721358 -0.15206484 -0.007673809 -0.17617765
000070 a6 df c4 3d 9c 15 80 bd 0c 5d 08 bd a5 8a 0e be
       0.0961297 -0.06254122 -0.03329186 -0.13920076
000080 27 46 cf 3d e2 54 84 bc 5a 2a 09 3e 6a 89 3c bc
       0.101208024 -0.016153757 0.13395062 -0.011507371
000090 65 8e 82 bd cd f6 7c 3a 1d c0 c0 bc de 1b 4c 3c
       -0.06374816 0.00096498133 -0.023529107 0.012457816
0000a0 b6 4b fd bd 69 a5 5b be aa 3f d6 3d 6a 45 8f 3c
       -0.12367956 -0.21449818 0.10461362 0.017489154
0000b0 7e 2d 96 bd e1 e4 b7 3d 6b 10 4a be f7 00 c1 3d
       -0.07332896 0.08979202 -0.19732825 0.09424012
0000c0 98 b4 0a 3e 5e b9 d3 bd a3 1c 44 3d 68 1b ea 3d
       0.13545454 -0.1033809 0.047878873 0.114310086
0000d0 82 38 c4 3c d1 22 eb 3d 2f fa bb 3d de cf 2c 3c
       0.023952726 0.1148125 0.09178578 0.010547606
0000e0 ce bb f2 3c d3 e9 a4 3d bd c7 8c bd cd d6 53 3d
       0.029630568 0.08052411 -0.068740346 0.051718522
0000f0 1e 0d ee 3d 2b 3c 5f be ac a5 3e be 95 dd c5 3c
       0.11623596 -0.21800296 -0.18617886 0.02415351
000100 a8 c0 23 3e de a0 80 bd 06 70 73 bd e0 42 0c 3e
       0.15991461 -0.06280683 -0.059433006 0.13697386
000110 83 08 6e 3c c9 59 3d 3d dd d0 b7 bd af 4c 7e 3d
       0.014528397 0.046228204 -0.089753844 0.06208485
000120 ae 1e ee 3d 94 58 31 3e 51 cf 07 3e bb 98 ce 3d
       0.116269454 0.17318946 0.13262679 0.10087725
000130 e9 b1 d1 bd e7 98 e4 bd 85 5f 4f 3d 25 e9 c3 3c
       -0.10239012 -0.11161976 0.050628204 0.023914883
000140 d0 55 93 bc 77 78 0d bd dd 83 2e be 0d 71 41 be
       -0.017985255 -0.034538712 -0.1704249 -0.18890782
000150 b0 bd a7 3d e2 82 81 3d 24 03 e6 bd c9 29 5c bc
       0.08190477 0.06323792 -0.11231068 -0.013437697
000160 69 2d bb ba 71 e5 3d 3d 9d fb e3 3d a9 da 7e bd
       -0.0014280501 0.04636139 0.11131976 -0.06222025
000170 18 07 41 3d e6 c3 51 bc a1 dd a7 3d d7 20 9e bc
       0.047125906 -0.0128030535 0.08196569 -0.019302769
000180 da fc 69 3c a3 bf a3 3d 33 4f c6 bc c8 31 7d bc
       0.014281476 0.07995536 -0.024207687 -0.015453763
000190 ee bd 88 3c de 6a 0a 3c ea 66 17 3c 25 87 82 3c
       0.016692128 0.008448331 0.009240845 0.015933583
0001a0 fa ab 02 3d ee 1e ca 3d 10 96 e9 bd 7f 2f 75 be
       0.03190229 0.098691806 -0.11405575 -0.239439
0001b0 18 42 4c be 6c e8 c9 3c 17 e8 78 3d d2 3e aa 3d
       -0.19947088 0.02464696 0.060768213 0.08312763
0001c0 77 3b 49 3e e2 b0 c8 bd b2 b3 c5 3c c7 96 8a 3d
       0.1965159 -0.09799363 0.024133537 0.0676704
0001d0 c9 5b 7f bc b7 4c ee bd 61 ee d8 bd 0e 5a 9d bd
       -0.015585848 -0.11635726 -0.10592342 -0.07683192
0001e0 58 31 8e bd 72 16 d9 3a e5 0d 04 be 3d 69 fb bb
       -0.06943005 0.0016562475 -0.12895925 -0.0076724575
0001f0 63 15 eb 3b 59 84 6e bc cc 8f 3f bc 05 07 75 3d
       0.0071741804 -0.014557921 -0.011691999 0.059821147
000200 70 bc 83 bd f5 d6 9b 3c d1 cf 4b 3c 03 80 7f 3d
       -0.06432426 0.019023398 0.012439684 0.06237794
000210 84 09 c0 bd b9 32 70 bd 8e e0 bb bc b8 86 7e bd
       -0.09376815 -0.058642123 -0.022934224 -0.062140197
000220 de 87 c2 3d 91 28 44 3d 40 e6 ec bd d5 a6 13 3e
       0.09498571 0.04789025 -0.11567354 0.1441911
000230 3d 8f 42 be de dc d2 3d 79 32 73 3c 90 48 de 3d
       -0.18999954 0.10296033 0.014843577 0.10853684
000240 97 49 36 3d b5 21 49 bd 3f e3 36 3c b5 37 ce 3c
       0.044503774 -0.04910441 0.011162578 0.025173048
000250 14 e9 58 3c b2 f6 0e 3e a0 b7 96 bd 64 44 95 3d
       0.013239164 0.13961294 -0.073592424 0.07288435
000260 33 3e 6c 3e 03 fc d4 3d 0b e1 38 bd 4b 99 8d 3d
       0.23070602 0.1039963 -0.045136493 0.06914004
000270 42 e5 28 be ed 9b e1 bd fd b1 49 bc ec 02 0c be
       -0.16493705 -0.110160686 -0.012310502 -0.1367299
000280 56 bd 97 bd 0c 78 44 3e 9e 6b 25 bd a3 22 77 ba
       -0.0740916 0.19186419 -0.040385835 -0.00094274635
000290 55 fb ca 3d fa e2 7a 3d 0f bb 60 3d 95 fd 83 3d
       0.09911219 0.061251618 0.054865893 0.06444851
0002a0 18 21 ce 3d c7 89 f0 bc 4a 1b bf 3d 30 f8 55 3c
       0.10064906 -0.029362572 0.09331377 0.013059661
0002b0 a7 03 af bd 55 93 82 bc 77 51 3b bd 34 5d ca 3b
       -0.085456185 -0.015939394 -0.045731988 0.0061756615
0002c0 b0 a6 4a be f5 b7 a6 3d 15 3e 8b bc d8 8b 25 bd
       -0.19790149 0.08140556 -0.016997376 -0.04041657
0002d0 c9 1c 4a bd a5 30 18 be fa 3b 63 3e 54 e7 01 3e
       -0.049343858 -0.14862306 0.22190848 0.12685901
0002e0 f3 ff be 3d 7c 00 ed 3d 6b c1 3d bd 88 fe 53 bc
       0.09326162 0.11572358 -0.046327036 -0.012939103
0002f0 ca 28 c3 3c 45 7e c6 3d 9e fd 86 3d d0 a9 8c bd
       0.02382316 0.09692053 0.065913424 -0.06868327
000300 0a ec 78 3c 5a 78 93 3e 7d 8f 19 be c9 c6 f9 3d
       0.015192995 0.28802758 -0.14996143 0.121961184
000310 9b bb 35 be 71 7b ce 3c 4d 0f 77 3e 64 7c 5d 3b
       -0.17747347 0.025205346 0.2412693 0.0033796066
000320 d6 c7 cf 3d a6 28 04 be 37 18 69 3c a7 cd f1 bd
       0.101455376 -0.12906131 0.014226965 -0.11806803
000330 41 c3 1e be e1 19 20 3d f6 4e 3a 3d 1a a3 9e bd
       -0.15504171 0.03908718 0.04548546 -0.07745953
000340 9f fb 4e 3d 92 6f 34 be d8 a7 84 3c 19 83 7d 3d
       0.050532933 -0.17620686 0.016193315 0.061892603
000350 40 c5 f5 bb 7e 2a 0a bd f9 1e a7 3d 2e 9a 98 bd
       -0.0075003207 -0.03373193 0.081602044 -0.074512824
000360 7b e9 c8 3d 22 c6 b3 bd 42 b1 01 3d 0e 91 ac bd
       0.09810158 -0.08778025 0.031663187 -0.084261045
000370 08 b9 0d bc 0a da 0e 3d 73 6a 01 be 72 5f 77 be
       -0.008650072 0.034875907 -0.12638263 -0.24157503
000380 ba 53 c9 bc f1 0a 51 3d c3 67 7e bd 6e 42 af 3d
       -0.024576057 0.051035825 -0.062110674 0.08557592
000390 ab 73 76 bd cc 8d dd bb a6 6f 70 bd 4b 92 e0 bd
       -0.060168903 -0.0067612883 -0.058700226 -0.10965403
0003a0 85 a2 1a bb a8 76 a2 bd bb 05 2d bd eb 73 21 3e
       -0.0023595404 -0.07932788 -0.042241793 0.15766875
0003b0 17 8b 8f bd da ec f0 3d 86 c8 37 be 87 1a 59 bd
       -0.07008951 0.11763926 -0.17947587 -0.053003814
0003c0 83 e3 ea 3d f0 f9 23 be 6c 88 75 3e 77 f0 ac bc
       0.11469176 -0.16013312 0.23977822 -0.021110756
0003d0 c8 2e ab 3d eb cd 19 3d 40 e7 51 3e ed 4f f0 bd
       0.08358532 0.037549894 0.20498371 -0.11733995
0003e0 1e 69 95 3d e3 91 13 3e e9 14 40 bd a1 a9 34 be
       0.0729544 0.1441112 -0.04689494 -0.17642833
0003f0 7d a4 6e bd 3e 96 82 3d 25 62 3c be d8 25 25 3e
       -0.058262337 0.06376313 -0.18396814 0.16127717

network_body.linear_encoder.seq_layers.0.bias f4 [128]
000000 00 00 00 00 00 00 00 00 00 00 00 00 00 00 00 00
       0.0 0.0 0.0 0.0
000010 00 00 00 00 00 00 00 00 00 00 00 00 00 00 00 00
       0.0 0.0 0.0 0.0
000020 00 00 00 00 00 00 00 00 00 00 00 00 00 00 00 00
       0.0 0.0 0.0 0.0
000030 00 00 00 00 00 00 00 00 00 00 00 00 00 00 00 00
       0.0 0.0 0.0 0.0
000040 00 00 00 00 00 00 00 00 00 00 00 00 00 00 00 00
       0.0 0.0 0.0 0.0
000050 00 00 00 00 00 00 00 00 00 00 00 00 00 00 00 00
       0.0 0.0 0.0 0.0
000060 00 00 00 00 00 00 00 00 00 00 00 00 00 00 00 00
       0.0 0.0 0.0 0.0
000070 00 00 00 00 00 00 00 00 00 00 00 00 00 00 00 00
       0.0 0.0 0.0 0.0
000080 00 00 00 00 00 00 00 00 00 00 00 00 00 00 00 00
       0.0 0.0 0.0 0.0
000090 00 00 00 00 00 00 00 00 00 00 00 00 00 00 00 00
       0.0 0.0 0.0 0.0
0000a0 00 00 00 00 00 00 00 00 00 00 00 00 00 00 00 00
       0.0 0.0 0.0 0.0
0000b0 00 00 00 00 00 00 00 00 00 00 00 00 00 00 00 00
       0.0 0.0 0.0 0.0
0000c0 00 00 00 00 00 00 00 00 00 00 00 00 00 00 00 00
       0.0 0.0 0.0 0.0
0000d0 00 00 00 00 00 00 00 00 00 00 00 00 00 00 00 00
       0.0 0.0 0.0 0.0
0000e0 00 00 00 00 00 00 00 00 00 00 00 00 00 00 00 00
       0.0 0.0 0.0 0.0
0000f0 00 00 00 00 00 00 00 00 00 00 00 00 00 00 00 00
       0.0 0.0 0.0 0.0
000100 00 00 00 00 00 00 00 00 00 00 00 00 00 00 00 00
       0.0 0.0 0.0 0.0
000110 00 00 00 00 00 00 00 00 00 00 00 00 00 00 00 00
       0.0 0.0 0.0 0.0
000120 00 00 00 00 00 00 00 00 00 00 00 00 00 00 00 00
       0.0 0.0 0.0 0.0
000130 00 00 00 00 00 00 00 00 00 00 00 00 00 00 00 00
       0.0 0.0 0.0 0.0
000140 00 00 00 00 00 00 00 00 00 00 00 00 00 00 00 00
       0.0 0.0 0.0 0.0
000150 00 00 00 00 00 00 00 00 00 00 00 00 00 00 00 00
       0.0 0.0 0.0 0.0
000160 00 00 00 00 00 00 00 00 00 00 00 00 00 00 00 00
       0.0 0.0 0.0 0.0
000170 00 00 00 00 00 00 00 00 00 00 00 00 00 00 00 00
       0.0 0.0 0.0 0.0
000180 00 00 00 00 00 00 00 00 00 00 00 00 00 00 00 00
       0.0 0.0 0.0 0.0
000190 00 00 00 00 00 00 00 00 00 00 00 00 00 00 00 00
       0.0 0.0 0.0 0.0
0001a0 00 00 00 00 00 00 00 00 00 00 00 00 00 00 00 00
       0.0 0.0 0.0 0.0
0001b0 00 00 00 00 00 00 00 00 00 00 00 00 00 00 00 00
       0.0 0.0 0.0 0.0
0001c0 00 00 00 00 00 00 00 00 00 00 00 00 00 00 00 00
       0.0 0.0 0.0 0.0
0001d0 00 00 00 00 00 00 00 00 00 00 00 00 00 00 00 00
       0.0 0.0 0.0 0.0
0001e0 00 00 00 00 00 00 00 00 00 00 00 00 00 00 00 00
       0.0 0.0 0.0 0.0
0001f0 00 00 00 00 00 00 00 00 00 00 00 00 00 00 00 00
       0.0 0.0 0.0 0.0

network_body.linear_encoder.seq_layers.2.weight f4 [128, 128]
000000 71 e0 5f 3c d4 28 31 bc c8 54 5e 3d 60 0d 29 3e
       0.013664351 -0.010812957 0.054280072 0.16509008
000010 6e a8 6e bc dc f6 ba bb 49 87 eb 3c 6d 7a fe 3d
       -0.014566524 -0.0057056975 0.028751032 0.124256946
000020 4e aa 43 3c 60 7f bb bd d5 a0 11 3e d1 8e 79 bd
       0.011942459 -0.09155154 0.14221509 -0.060927216
000030 90 f3 9b 3d eb 03 7f bc e6 a0 6d bd a9 42 83 3c
       0.07614815 -0.015564899 -0.058014773 0.016022997
000040 a6 18 c5 bd 95 df aa 39 d9 44 af bb 5e cc 22 bd
       -0.09623842 0.00032591508 -0.0053487835 -0.03974568
000050 a4 d6 e1 3c 80 8c 66 bc a9 80 c6 3d 8d 68 93 bd
       0.027568169 -0.014071584 0.09692509 -0.07197676
000060 6b 7a 32 bd be 45 9e 3d db f2 bf 3d 5f c3 70 3d
       -0.043573778 0.07728146 0.09372493 0.05878007
000070 b4 07 6b 3c 27 1c 22 3d 17 2d 0e be c6 40 22 3d
       0.014345098 0.03957763 -0.13884388 0.039612554
000080 08 e6 bc bb 7f ae 93 3d 68 1c 88 bd 7f 02 cd 3d
       -0.0057647265 0.07211017 -0.06646043 0.10010242
000090 0b 0f 8c bd e0 b1 b7 bd 3f 6d 45 3e 7d e9 19 bd
       -0.06838807 -0.08969474 0.19279955 -0.037576187
0000a0 be b7 dd bc 97 ae 95 bd 61 ff 8a bd 50 30 0a bd
       -0.027065154 -0.07308691 -0.06786991 -0.03373748
0000b0 47 2f 39 bd ab b0 3c bd 16 41 e9 3d 42 e8 9f bd
       -0.045211103 -0.04606692 0.11389367 -0.078079715
0000c0 01 49 cf 3c 8b 61 b5 3d b7 14 0d 3e ad 63 66 3e
       0.025303366 0.088564955 0.13777433 0.22498961
0000d0 23 97 81 3c 5b 7e 19 bd 66 bd e1 3c e8 83 a1 3d
       0.015819138 -0.037474018 0.027556133 0.07886487
0000e0 e9 7d b9 bd e5 7c d7 bd fb 3b ae 3d da 1c c9 3d
       -0.090572186 -0.105218686 0.08507534 0.09819956
0000f0 3e de 01 3d c2 8e 3b bc f3 dd 78 bd 2d 0b a4 3d
       0.031706087 -0.01144761 -0.060758542 0.08009944
000100 fc fb f6 bd 9f 25 35 3e ec e6 ba bd 85 8a 6f b9
       -0.12059781 0.17690133 -0.09126076 -0.00022844419
000110 83 60 c4 3d 57 77 4a 3c 7d 41 ea 3d d6 0d 81 bd
       0.09588721 0.012357554 0.11438272 -0.06301467
000120 83 67 bf 3d fc 72 d1 bd 4b e7 a2 3d 40 ae 7d 3c
       0.09345915 -0.1022701 0.07954272 0.015483439
000130 13 98 1b 3e 89 e2 a3 3d 37 09 ba 3d aa d7 10 3e
       0.1519473 0.080021925 0.09083789 0.1414477
000140 21 a9 f9 bd 78 44 5c bd dd 1a 75 3c e3 76 e2 bd
       -0.12190462 -0.053776234 0.014960018 -0.11057832
000150 cb 9d 1f bc 05 1c 02 be 8f 58 5a 3d 1a cc 7d 3d
       -0.009742211 -0.12706001 0.053307112 0.061962225
000160 7e a6 4d 3d 0c 6f 04 be b2 9d 16 be ad 99 ba 3d
       0.050207607 -0.12932986 -0.14708593 0.091113426
000170 1d e5 a7 3d ce 27 42 3d 09 c5 be 3d ff 83 d8 3d
       0.08197997 0.047401242 0.09314925 0.10572051
000180 a3 6a 3b 3d 1e 07 11 3d ae 3c 93 3d ba 8d 8e 3d
       0.045755994 0.035407178 0.07189308 0.06960626
000190 0e 2c c5 bd a5 8a 03 3e c0 e4 dd 3d 6e 68 eb 3d
       -0.096275434 0.12845857 0.10834646 0.11494528
0001a0 5e 1e dc bc ab 3e 79 3d 1f f8 45 3d ae 37 1c be
       -0.026869949 0.06085078 0.04833233 -0.15255615
0001b0 ec 14 2e be 77 95 18 bd ab 79 93 3d c8 21 4d 3d
       -0.17000169 -0.037251916 0.07200941 0.050081044
0001c0 7c 6f 71 3d 23 a2 10 bd 2c 39 28 bd 04 45 e7 3d
       0.05894421 -0.035310876 -0.04107015 0.112924606
0001d0 4c 9d 97 3d e4 dd 43 be 2f 47 5d 3d 93 97 4d bd
       0.07403049 -0.19127613 0.054022964 -0.05019338
0001e0 6d 2e 8c bc b0 16 72 3d 0b 39 88 bd 8e 47 97 3c
       -0.017111981 0.059103668 -0.06651505 0.018466737
0001f0 3e 1e 68 bb 9b ae 0a be 49 d6 db 3a 07 67 85 3d
       -0.0035418416 -0.13543169 0.0016772236 0.065137915
000200 3b 8f be bd e8 0e d8 3d 5d c7 53 be b0 f6 e6 3b
       -0.09304663 0.10549718 -0.2068152 0.0070484504
000210 82 0e ce bb ba a1 dd bd 52 b2 64 3d d8 a9 5b 3d
       -0.0062883506 -0.108218625 0.055834122 0.053628772
000220 58 d0 d0 3c 0e 44 b5 3d e2 9f f2 3d 16 19 90 3b
       0.025489971 0.08850871 0.118469015 0.0043975217
000230 c2 bf dd 3d 66 1e 2e 3c 34 ec 24 be 6c 8a a8 bd
       0.108275905 0.010627365 -0.1610573 -0.08229527
000240 03 68 0b bb ca 8a 63 3d 8e bf 5c bd 3b da 36 bd
       -0.0021271713 0.05555228 -0.05389362 -0.044641715
000250 9e 2b 91 3d b0 88 73 bd e2 59 ec bb 9b 3d 19 bd
       0.070883974 -0.059456527 -0.0072128633 -0.037412267
000260 91 5a ac bc bb 1c c5 bd 67 0f 94 3d 19 3e 08 bd
       -0.02103928 -0.096246205 0.072295 -0.033262346
000270 2a 7b 39 bd a8 52 e6 3d f3 df bd bd 89 a6 01 3c
       -0.045283474 0.11246234 -0.092712305 0.00791324
000280 0f 93 da 3d f2 50 98 bc b7 ad 40 3c c5 7e 2c 3b
       0.106725805 -0.018593285 0.011760167 0.0026320678
000290 13 4a 6e bd 78 18 68 bd e5 a9 3a 3c 22 e3 4d 3d
       -0.05817611 -0.05666396 0.011393045 0.05026544
0002a0 b3 4f 49 be d6 8d 82 bd a9 83 06 bd 2e aa 73 bd
       -0.19659309 -0.06374709 -0.032840405 -0.059488468
0002b0 5a 0a 0d 3c 4d c3 cb bc f6 13 e8 bd 88 1b ee 3b
       0.008608425 -0.0248734 -0.11331932 0.0072664656
0002c0 c3 58 42 3e 5b 86 d9 bd 36 e0 c1 3a 30 8c a4 3d
       0.18979172 -0.106213294 0.0014791552 0.08034551
0002d0 92 68 a3 bc f2 81 6b bd b1 e2 a7 3d 70 83 f5 3d
       -0.019947324 -0.057496972 0.08197535 0.1198796
0002e0 52 b8 c3 bd ba 8b f7 bb c8 75 c9 bd 8e 8d f3 bc
       -0.09556641 -0.0075544985 -0.09836918 -0.029730584
0002f0 4d 67 28 be 3e 16 a6 bd 56 70 cd 3b be 18 4a be
       -0.16445656 -0.08109711 0.006269495 -0.19736001
000300 98 d6 d2 bc e0 5c 8e bc 60 0e 0e be d9 4f 3b 3e
       -0.025737092 -0.01737827 -0.13872671 0.18292178
000310 cd 31 23 3e 13 d9 5d 3d 62 3c ef 3d 64 0c b6 bd
       0.15936966 0.054162096 0.11681439 -0.08889082
000320 b1 ab 70 3d 5c d7 a2 bd 8e 8f 8e bd bb d8 d6 3c
       0.058757488 -0.07951233 -0.06960975 0.026226392
000330 63 88 1d 3b 7f a3 e4 3c 1d 7f 61 bd 0c 66 62 3e
       0.0024037592 0.027909992 -0.055052865 0.2210924
000340 e0 db 82 bd 90 da 2e be 46 46 f7 3d c4 c7 c2 bd
       -0.06389594 -0.17075562 0.120739505 -0.095107585
000350 a0 f4 2c be eb e6 57 bd 55 42 c5 3d 6c 75 a3 3d
       -0.16890192 -0.052710455 0.096317925 0.07981381
000360 1a b0 49 3e 91 fd 9a bc 17 5e a8 3c f0 1d 7e 3d
       0.19696084 -0.018919738 0.020552678 0.06204027
000370 8a 36 8b bc e5 d4 e3 3d ed 66 40 3d 08 ae 02 be
       -0.01699378 0.11124591 0.046973158 -0.127617
000380 9b 84 14 3e 9b 6d 0c 3c 50 58 90 bc 92 9f ac 3b
       0.1450371 0.008571054 -0.017620236 0.0052680457
000390 70 fc 0e 3d 20 8e e7 3c 40 db ad 3b 7d c1 04 bc
       0.034908712 0.028266013 0.0053056777 -0.008102772
0003a0 6b 78 91 3c 27 cc 3d bd e8 1f 49 3e 94 3e 4c bd
       0.017757615 -0.046337273 0.19641078 -0.049864367
0003b0 bd cc 7d 3c 6c 01 84 bd 08 34 a5 bd 73 4c c5 bd
       0.015490708 -0.06445584 -0.08066565 -0.09633722
0003c0 15 d0 72 bd 9a c7 73 3d ca c0 52 3d 8d a6 da 3d
       -0.059280474 0.059516527 0.05145339 0.10676298
0003d0 04 57 54 bc dc 8e 1d 3b af bb 42 bc a7 f4 0f bc
       -0.012960199 0.002404145 -0.011885568 -0.008786357
0003e0 f1 6f 94 bc 48 38 94 bd 71 d0 a7 bd 67 97 6c 3d
       -0.018119784 -0.07237297 -0.08194054 0.057761576
0003f0 d0 51 c6 3d 18 cb 4d 3e d8 5b 9c bd 00 00 f6 bc
       0.09683573 0.20097005 -0.07634705 -0.030029297

network_body.linear_encoder.seq_layers.2.bias f4 [128]
000000 00 00 00 00 00 00 00 00 00 00 00 00 00 00 00 00
       0.0 0.0 0.0 0.0
000010 00 00 00 00 00 00 00 00 00 00 00 00 00 00 00 00
       0.0 0.0 0.0 0.0
000020 00 00 00 00 00 00 00 00 00 00 00 00 00 00 00 00
       0.0 0.0 0.0 0.0
000030 00 00 00 00 00 00 00 00 00 00 00 00 00 00 00 00
       0.0 0.0 0.0 0.0
000040 00 00 00 00 00 00 00 00 00 00 00 00 00 00 00 00
       0.0 0.0 0.0 0.0
000050 00 00 00 00 00 00 00 00 00 00 00 00 00 00 00 00
       0.0 0.0 0.0 0.0
000060 00 00 00 00 00 00 00 00 00 00 00 00 00 00 00 00
       0.0 0.0 0.0 0.0
000070 00 00 00 00 00 00 00 00 00 00 00 00 00 00 00 00
       0.0 0.0 0.0 0.0
000080 00 00 00 00 00 00 00 00 00 00 00 00 00 00 00 00
       0.0 0.0 0.0 0.0
000090 00 00 00 00 00 00 00 00 00 00 00 00 00 00 00 00
       0.0 0.0 0.0 0.0
0000a0 00 00 00 00 00 00 00 00 00 00 00 00 00 00 00 00
       0.0 0.0 0.0 0.0
0000b0 00 00 00 00 00 00 00 00 00 00 00 00 00 00 00 00
       0.0 0.0 0.0 0.0
0000c0 00 00 00 00 00 00 00 00 00 00 00 00 00 00 00 00
       0.0 0.0 0.0 0.0
0000d0 00 00 00 00 00 00 00 00 00 00 00 00 00 00 00 00
       0.0 0.0 0.0 0.0
0000e0 00 00 00 00 00 00 00 00 00 00 00 00 00 00 00 00
       0.0 0.0 0.0 0.0
0000f0 00 00 00 00 00 00 00 00 00 00 00 00 00 00 00 00
       0.0 0.0 0.0 0.0
000100 00 00 00 00 00 00 00 00 00 00 00 00 00 00 00 00
       0.0 0.0 0.0 0.0
000110 00 00 00 00 00 00 00 00 00 00 00 00 00 00 00 00
       0.0 0.0 0.0 0.0
000120 00 00 00 00 00 00 00 00 00 00 00 00 00 00 00 00
       0.0 0.0 0.0 0.0
000130 00 00 00 00 00 00 00 00 00 00 00 00 00 00 00 00
       0.0 0.0 0.0 0.0
000140 00 00 00 00 00 00 00 00 00 00 00 00 00 00 00 00
       0.0 0.0 0.0 0.0
000150 00 00 00 00 00 00 00 00 00 00 00 00 00 00 00 00
       0.0 0.0 0.0 0.0
000160 00 00 00 00 00 00 00 00 00 00 00 00 00 00 00 00
       0.0 0.0 0.0 0.0
000170 00 00 00 00 00 00 00 00 00 00 00 00 00 00 00 00
       0.0 0.0 0.0 0.0
000180 00 00 00 00 00 00 00 00 00 00 00 00 00 00 00 00
       0.0 0.0 0.0 0.0
000190 00 00 00 00 00 00 00 00 00 00 00 00 00 00 00 00
       0.0 0.0 0.0 0.0
0001a0 00 00 00 00 00 00 00 00 00 00 00 00 00 00 00 00
       0.0 0.0 0.0 0.0
0001b0 00 00 00 00 00 00 00 00 00 00 00 00 00 00 00 00
       0.0 0.0 0.0 0.0
0001c0 00 00 00 00 00 00 00 00 00 00 00 00 00 00 00 00
       0.0 0.0 0.0 0.0
0001d0 00 00 00 00 00 00 00 00 00 00 00 00 00 00 00 00
       0.0 0.0 0.0 0.0
0001e0 00 00 00 00 00 00 00 00 00 00 00 00 00 00 00 00
       0.0 0.0 0.0 0.0
0001f0 00 00 00 00 00 00 00 00 00 00 00 00 00 00 00 00
       0.0 0.0 0.0 0.0

action_model._discrete_distribution.branches.0.weight f4 [675, 128]
000000 af 5e 8f 3c 3d 90 35 ba 68 c0 52 3c 2b 12 5c 3a
       0.017501203 -0.0006926095 0.012863256 0.0008395041
000010 cf 06 0a bc 03 a8 b9 3a 19 c8 05 3c 43 f0 91 bb
       -0.008424475 0.0014164451 0.008165383 -0.0044536903
000020 c0 d4 e7 3b c7 57 9c ba 51 54 a2 3b 7b c3 a2 bb
       0.0070749223 -0.0011928015 0.004953899 -0.0049671507
000030 a3 39 2f bc 0c 41 a1 3b 39 9d 19 3c dc 29 81 bb
       -0.010694894 0.0049210843 0.009375864 -0.0039417576
000040 22 8e d9 bb d6 69 a1 3b 42 6d 73 3c c0 14 34 bb
       -0.006639258 0.0049259467 0.014857592 -0.0027478188
000050 38 13 50 3b 4e 6e 00 bc 1e 9c 88 bb 9f 50 80 3b
       0.0031749737 -0.007838799 -0.0041690012 0.003915861
000060 4f 6f 83 bb 7b c5 59 3a 09 b0 0c bc f7 18 c7 ba
       -0.0040110718 0.000830732 -0.008586892 -0.0015189935
000070 4d 90 1d 3c db 41 7a 3b db a3 66 3b 1c ec 9c bb
       0.0096169235 0.0038186226 0.003519288 -0.0047888886
000080 bb 48 50 bb f6 19 8e ba 1d 52 10 3b 15 6d 52 bc
       -0.0031781632 -0.0010841477 0.00220216 -0.01284339
000090 2c 77 33 3c 9d 5c 36 3b 43 94 b3 3b fa 21 95 bb
       0.010953706 0.0027826198 0.0054803207 -0.0045511695
0000a0 85 da ea 3b a3 03 13 3c 46 ad 25 bc 5b a5 80 bc
       0.007167163 0.008973035 -0.010112112 -0.015703848
0000b0 eb 2f 0b bc c0 ef d3 3b 2e 2c 89 3c fd 65 61 3c
       -0.008495311 0.0064677894 0.0167447 0.013757226
0000c0 94 60 a9 bb 1a b3 95 bb 63 e6 a5 bb 77 78 fc ba
       -0.0051689837 -0.0045684697 -0.0050628646 -0.0019261976
0000d0 db 85 a7 bb 13 a3 24 3c b2 17 6a bb 80 db d1 bb
       -0.0051123924 0.010048646 -0.003571969 -0.0064043403
0000e0 01 bd 9e bb f5 79 0d bc 6d 08 c7 3a 8b 29 03 bc
       -0.0048443084 -0.008635034 0.0015185006 -0.00800551
0000f0 0e 9d 13 3c fe 6b 21 bc f3 5f 2d b7 47 8b b3 3b
       0.009009613 -0.0098524075 -1.03339435e-05 0.0054792496
000100 c6 02 82 3a d2 0b 52 bb e1 1d ad bb e0 d7 a6 bb
       0.000991904 -0.0032050502 -0.005283103 -0.0050916523
000110 47 25 1f bb 17 0c 44 bb 4b 97 a9 3b 97 a0 8a 3b
       -0.0024283694 -0.0029914433 0.005175506 0.0042305696
000120 7a 84 22 3b 7e 07 0a 3c 65 c0 64 bc bd 60 6b bb
       0.00247982 0.008424638 -0.013961886 -0.0035915815
000130 d0 78 af bb 1f 21 2e bc 57 2b a0 3b 13 48 d2 ba
       -0.005354978 -0.010628014 0.004887979 -0.0016043208
000140 67 90 c0 ba 80 23 78 bb ab 47 95 3b 9f 73 13 3c
       -0.0014691473 -0.0037862957 0.0045556626 0.008999734
000150 17 5b 4c 3c ca 21 b3 3b ae 39 8e 3a c6 66 1a bc
       0.012472889 0.0054666745 0.001085093 -0.009423917
000160 7f c0 8d 3b ab d3 65 3c c2 1c 0a bc 0f b5 01 3b
       0.004325926 0.014027516 -0.008429708 0.0019791757
000170 a8 32 2a 3c ae 2b 34 3c b5 96 58 3c 99 cd 2e bc
       0.010388054 0.010996742 0.013219525 -0.0106691355
000180 23 d7 05 3c 96 11 1a bc b8 0b 1b 3b 87 1b 84 3c
       0.008168968 -0.009403607 0.0023658108 0.016126407
000190 3b ee 9b 3b bc e5 a5 bb 86 5c 93 3c d2 94 3b 3c
       0.004758624 -0.005062787 0.017988455 0.011449056
0001a0 eb 0b 9d ba 5b 7f c1 ba d6 59 1f 3b 06 44 25 3c
       -0.0011981701 -0.0014762686 0.002431502 0.010087019
0001b0 63 42 02 bb 37 08 9a bc b8 70 eb 3a 9d e0 65 3b
       -0.0019875995 -0.018802745 0.001796267 0.0035076507
0001c0 d3 54 27 bb 29 e8 41 3c 77 94 7c b9 f5 88 d1 3b
       -0.0025532737 0.011835136 -0.000240879 0.0063945004
0001d0 b3 23 d7 3b 0b 76 b7 bb d7 8b a9 3b 7d ac fe ba
       0.006565535 -0.0055987886 0.005174141 -0.0019430068
0001e0 f1 15 12 bb 52 84 bf bb 5f 08 09 3c 90 47 46 3c
       -0.002229091 -0.005844631 0.008363812 0.012102023
0001f0 81 78 0a 3c 45 a1 f4 3a 06 98 c6 3b f8 9e 86 b8
       0.008451582 0.0018663785 0.006060603 -6.419228e-05
000200 a5 e0 54 3c 8a 58 1d 3c ba 74 bb 3b 00 eb 27 3b
       0.012993013 0.009603629 0.005720702 0.0025622249
000210 7f ec 32 3c 5f c0 3b 3b 3a b8 eb 3a 7f 3d 13 bc
       0.010920643 0.0028648598 0.0017983981 -0.00898683
000220 f2 b7 41 bc 16 68 95 3a 21 9f 21 bb 57 49 11 3c
       -0.011823641 0.0011398818 -0.0024661499 0.008867583
000230 b7 db 0d bb 73 bf 23 bb ab f8 c9 bb c7 7f 68 bb
       -0.0021645853 -0.0024985939 -0.0061636767 -0.0035476552
000240 f0 55 59 bc dc d7 26 bc c2 a3 92 bb 97 23 ee 3b
       -0.013265118 -0.010183301 -0.004475088 0.0072674262
000250 eb 4f 14 bc f0 e1 df b9 6d f5 d3 3b 8b 56 7b ba
       -0.009052257 -0.0004270221 0.006468466 -0.0009587786
000260 8b e1 f4 3b d8 04 5c 3b ac c1 1b bb db 5d 07 bc
       0.007473176 0.0033572223 -0.002376656 -0.008262123
000270 74 ea a0 bc eb 3d 2d bc 86 24 00 bc b8 01 7c bb
       -0.019643046 -0.010573844 -0.007821208 -0.0038453173
000280 c8 0c e2 ba bf 4c a5 bc 62 85 f8 bb 80 9a 73 3c
       -0.0017246241 -0.020178197 -0.00758426 0.014868379
000290 a8 7d f0 39 9f 30 8b 3b 5a cb fd bb 19 3b 13 bc
       0.00045869988 0.0042477394 -0.0077451887 -0.008986258
0002a0 6a 70 15 3c 80 e4 41 3c 28 54 0f 3c 54 97 1b bc
       0.00912104 0.011834264 0.008748092 -0.009496529
0002b0 2f af 7f 3b ff 2f f9 ba c7 db 32 ba 83 c8 d8 bb
       0.003901433 -0.0019011496 -0.00068229105 -0.0066156997
0002c0 fb 59 35 ba 02 b1 5d bc 8c 28 1a bb 20 43 10 3c
       -0.000691801 -0.0135309715 -0.0023522703 0.008805066
0002d0 6f b4 09 bc d5 3f 9f 3b 67 ae 49 3b 17 a3 4e bc
       -0.008404835 0.0048599043 0.0030774118 -0.012612126
0002e0 98 4d 6f 3c b8 84 fe 3b 96 46 9c 3b ff d7 bb 3b
       0.014605902 0.007767286 0.0047691567 0.005732536
0002f0 fb c6 1d 3c de 5e 1a 3c 74 ce 2b 3c 6b 20 b1 b9
       0.00962996 0.009422032 0.010486234 -0.00033784224
000300 3b 38 b3 3b a7 ee 53 bb bb 4a 44 bb c7 16 74 3b
       0.0054693497 -0.0032338293 -0.002995177 0.0037245022
000310 67 5c 47 3a dc e4 c5 ba 30 9c 55 bc 5b 31 39 3a
       0.00076050166 -0.0015098113 -0.013037726 0.00070645445
000320 87 c0 22 bc e2 e0 56 3c 67 81 39 bc 4a 1e d6 3b
       -0.009933597 0.01311514 -0.011322356 0.0065343725
000330 a3 d9 e7 3b 4b 35 20 3a 63 1b e6 bb 15 3b 79 3a
       0.007075505 0.0006111457 -0.0070223077 0.00095074
000340 63 d3 c1 bb bb 9b 15 3c 5b 26 af bc 3a 12 68 3c
       -0.005915092 0.009131367 -0.021380594 0.014164502
000350 78 57 07 bb 43 af 17 3c 6a 3a 5e bc 3c 26 29 bc
       -0.00206515 0.009258094 -0.013563732 -0.010324057
000360 eb af 09 bc 17 95 e0 bb 92 d1 b0 3b 70 28 fb bb
       -0.0084037585 -0.0068537104 0.0053960765 -0.0076647326
000370 17 22 fb 3b a2 59 da bb 67 53 ce 3a da 3a 82 3b
       0.007663976 -0.006663517 0.0015741409 0.003974301
000380 82 3c 13 bc c2 92 84 bc 28 0d 7d 3b 47 62 7b 3c
       -0.008986594 -0.01618326 0.0038612578 0.015343255
000390 60 89 4e 3c 49 e3 2d 38 cd 1f d7 bb cb 9d 2d bc
       0.012605995 4.145809e-05 -0.0065650702 -0.010596703
0003a0 aa 36 e3 bb 90 88 e5 3b 99 57 3f 3b 5d 00 6c bc
       -0.0069340067 0.007004805 0.00291965 -0.0144043835
0003b0 f8 2a d8 b9 86 27 31 3c da 39 58 3c 7a 1d a9 3b
       -0.00041230745 0.010812646 0.013197387 0.0051609846
0003c0 c2 e5 dc 3b 7b 19 77 bc 5f 1e 5f 3a 63 5a cd 3b
       0.0067412565 -0.015081759 0.00085113005 0.0062668785
0003d0 77 fb 9b 3c b2 f2 57 bb 43 cb ac 3b 70 de db 3b
       0.019040806 -0.0032951054 0.005273254 0.006709866
0003e0 51 0d 3f bc ab 03 b8 bc 24 b5 4c bc 78 6d 78 3c
       -0.01166089 -0.022462687 -0.012494359 0.015162818
0003f0 ba 23 66 3c 07 a3 e8 bb 73 ca ca bb c9 2e 06 3c
       0.014046604 -0.0070995125 -0.0061886846 0.008189865

action_model._discrete_distribution.branches.0.bias f4 [675]
000000 00 00 00 00 00 00 00 00 00 00 00 00 00 00 00 00
       0.0 0.0 0.0 0.0
000010 00 00 00 00 00 00 00 00 00 00 00 00 00 00 00 00
       0.0 0.0 0.0 0.0
000020 00 00 00 00 00 00 00 00 00 00 00 00 00 00 00 00
       0.0 0.0 0.0 0.0
000030 00 00 00 00 00 00 00 00 00 00 00 00 00 00 00 00
       0.0 0.0 0.0 0.0
000040 00 00 00 00 00 00 00 00 00 00 00 00 00 00 00 00
       0.0 0.0 0.0 0.0
000050 00 00 00 00 00 00 00 00 00 00 00 00 00 00 00 00
       0.0 0.0 0.0 0.0
000060 00 00 00 00 00 00 00 00 00 00 00 00 00 00 00 00
       0.0 0.0 0.0 0.0
000070 00 00 00 00 00 00 00 00 00 00 00 00 00 00 00 00
       0.0 0.0 0.0 0.0
000080 00 00 00 00 00 00 00 00 00 00 00 00 00 00 00 00
       0.0 0.0 0.0 0.0
000090 00 00 00 00 00 00 00 00 00 00 00 00 00 00 00 00
       0.0 0.0 0.0 0.0
0000a0 00 00 00 00 00 00 00 00 00 00 00 00 00 00 00 00
       0.0 0.0 0.0 0.0
0000b0 00 00 00 00 00 00 00 00 00 00 00 00 00 00 00 00
       0.0 0.0 0.0 0.0
0000c0 00 00 00 00 00 00 00 00 00 00 00 00 00 00 00 00
       0.0 0.0 0.0 0.0
0000d0 00 00 00 00 00 00 00 00 00 00 00 00 00 00 00 00
       0.0 0.0 0.0 0.0
0000e0 00 00 00 00 00 00 00 00 00 00 00 00 00 00 00 00
       0.0 0.0 0.0 0.0
0000f0 00 00 00 00 00 00 00 00 00 00 00 00 00 00 00 00
       0.0 0.0 0.0 0.0
000100 00 00 00 00 00 00 00 00 00 00 00 00 00 00 00 00
       0.0 0.0 0.0 0.0
000110 00 00 00 00 00 00 00 00 00 00 00 00 00 00 00 00
       0.0 0.0 0.0 0.0
000120 00 00 00 00 00 00 00 00 00 00 00 00 00 00 00 00
       0.0 0.0 0.0 0.0
000130 00 00 00 00 00 00 00 00 00 00 00 00 00 00 00 00
       0.0 0.0 0.0 0.0
000140 00 00 00 00 00 00 00 00 00 00 00 00 00 00 00 00
       0.0 0.0 0.0 0.0
000150 00 00 00 00 00 00 00 00 00 00 00 00 00 00 00 00
       0.0 0.0 0.0 0.0
000160 00 00 00 00 00 00 00 00 00 00 00 00 00 00 00 00
       0.0 0.0 0.0 0.0
000170 00 00 00 00 00 00 00 00 00 00 00 00 00 00 00 00
       0.0 0.0 0.0 0.0
000180 00 00 00 00 00 00 00 00 00 00 00 00 00 00 00 00
       0.0 0.0 0.0 0.0
000190 00 00 00 00 00 00 00 00 00 00 00 00 00 00 00 00
       0.0 0.0 0.0 0.0
0001a0 00 00 00 00 00 00 00 00 00 00 00 00 00 00 00 00
       0.0 0.0 0.0 0.0
0001b0 00 00 00 00 00 00 00 00 00 00 00 00 00 00 00 00
       0.0 0.0 0.0 0.0
0001c0 00 00 00 00 00 00 00 00 00 00 00 00 00 00 00 00
       0.0 0.0 0.0 0.0
0001d0 00 00 00 00 00 00 00 00 00 00 00 00 00 00 00 00
       0.0 0.0 0.0 0.0
0001e0 00 00 00 00 00 00 00 00 00 00 00 00 00 00 00 00
       0.0 0.0 0.0 0.0
0001f0 00 00 00 00 00 00 00 00 00 00 00 00 00 00 00 00
       0.0 0.0 0.0 0.0
000200 00 00 00 00 00 00 00 00 00 00 00 00 00 00 00 00
       0.0 0.0 0.0 0.0
000210 00 00 00 00 00 00 00 00 00 00 00 00 00 00 00 00
       0.0 0.0 0.0 0.0
000220 00 00 00 00 00 00 00 00 00 00 00 00 00 00 00 00
       0.0 0.0 0.0 0.0
000230 00 00 00 00 00 00 00 00 00 00 00 00 00 00 00 00
       0.0 0.0 0.0 0.0
000240 00 00 00 00 00 00 00 00 00 00 00 00 00 00 00 00
       0.0 0.0 0.0 0.0
000250 00 00 00 00 00 00 00 00 00 00 00 00 00 00 00 00
       0.0 0.0 0.0 0.0
000260 00 00 00 00 00 00 00 00 00 00 00 00 00 00 00 00
       0.0 0.0 0.0 0.0
000270 00 00 00 00 00 00 00 00 00 00 00 00 00 00 00 00
       0.0 0.0 0.0 0.0
000280 00 00 00 00 00 00 00 00 00 00 00 00 00 00 00 00
       0.0 0.0 0.0 0.0
000290 00 00 00 00 00 00 00 00 00 00 00 00 00 00 00 00
       0.0 0.0 0.0 0.0
0002a0 00 00 00 00 00 00 00 00 00 00 00 00 00 00 00 00
       0.0 0.0 0.0 0.0
0002b0 00 00 00 00 00 00 00 00 00 00 00 00 00 00 00 00
       0.0 0.0 0.0 0.0
0002c0 00 00 00 00 00 00 00 00 00 00 00 00 00 00 00 00
       0.0 0.0 0.0 0.0
0002d0 00 00 00 00 00 00 00 00 00 00 00 00 00 00 00 00
       0.0 0.0 0.0 0.0
0002e0 00 00 00 00 00 00 00 00 00 00 00 00 00 00 00 00
       0.0 0.0 0.0 0.0
0002f0 00 00 00 00 00 00 00 00 00 00 00 00 00 00 00 00
       0.0 0.0 0.0 0.0
000300 00 00 00 00 00 00 00 00 00 00 00 00 00 00 00 00
       0.0 0.0 0.0 0.0
000310 00 00 00 00 00 00 00 00 00 00 00 00 00 00 00 00
       0.0 0.0 0.0 0.0
000320 00 00 00 00 00 00 00 00 00 00 00 00 00 00 00 00
       0.0 0.0 0.0 0.0
000330 00 00 00 00 00 00 00 00 00 00 00 00 00 00 00 00
       0.0 0.0 0.0 0.0
000340 00 00 00 00 00 00 00 00 00 00 00 00 00 00 00 00
       0.0 0.0 0.0 0.0
000350 00 00 00 00 00 00 00 00 00 00 00 00 00 00 00 00
       0.0 0.0 0.0 0.0
000360 00 00 00 00 00 00 00 00 00 00 00 00 00 00 00 00
       0.0 0.0 0.0 0.0
000370 00 00 00 00 00 00 00 00 00 00 00 00 00 00 00 00
       0.0 0.0 0.0 0.0
000380 00 00 00 00 00 00 00 00 00 00 00 00 00 00 00 00
       0.0 0.0 0.0 0.0
000390 00 00 00 00 00 00 00 00 00 00 00 00 00 00 00 00
       0.0 0.0 0.0 0.0
0003a0 00 00 00 00 00 00 00 00 00 00 00 00 00 00 00 00
       0.0 0.0 0.0 0.0
0003b0 00 00 00 00 00 00 00 00 00 00 00 00 00 00 00 00
       0.0 0.0 0.0 0.0
0003c0 00 00 00 00 00 00 00 00 00 00 00 00 00 00 00 00
       0.0 0.0 0.0 0.0
0003d0 00 00 00 00 00 00 00 00 00 00 00 00 00 00 00 00
       0.0 0.0 0.0 0.0
0003e0 00 00 00 00 00 00 00 00 00 00 00 00 00 00 00 00
       0.0 0.0 0.0 0.0
0003f0 00 00 00 00 00 00 00 00 00 00 00 00 00 00 00 00
       0.0 0.0 0.0 0.0

critic.network_body.linear_encoder.seq_layers.0.weight f4 [128, 96]
000000 7b 28 2d 3d 01 50 d7 3d 79 71 39 3d 49 a7 26 3d
       0.042274933 0.105133064 0.04527423 0.04068688
000010 d3 64 0c be 93 ab 66 bb 63 ad a0 bd 9c 75 f4 3c
       -0.13710336 -0.003519748 -0.07845571 0.029841237
000020 f0 06 c1 3d 19 cc 88 be 2d 06 3f b8 ad 12 13 be
       0.09425151 -0.26718214 -4.55437e-05 -0.14362593
000030 f8 c1 9f bd fe bf 1f 3c a1 df f2 3d a5 68 04 bd
       -0.078006685 0.009750364 0.1185906 -0.03232636
000040 e7 45 37 3e f9 53 64 3d 9b 4e 0b 3e 89 86 a1 3d
       0.1789776 0.055744145 0.13604204 0.07886989
000050 52 34 f6 bc 1e 1a 58 3d 46 68 b7 3d 54 d5 0a 3e
       -0.030054245 0.052759282 0.089554355 0.1355794
000060 f2 7e b0 3d 56 f5 1d bd 17 75 3e 3e e8 bf 01 bd
       0.08617963 -0.03856405 0.18599354 -0.031677157
000070 2c 3a 85 bd 8a 5d 15 bd 8b f7 0c bd 7a 52 10 be
       -0.06505236 -0.03646616 -0.034415763 -0.14093962
000080 7e fe e2 bb 67 4d c1 3d f6 6b 4d bd 6f d6 53 3c
       -0.0069273105 0.094385915 -0.050151788 0.012929543
000090 68 de 24 3c 75 59 0d be d2 f6 44 bd fe 51 40 be
       0.010062791 -0.13803656 -0.04808695 -0.18781278
0000a0 ae a1 44 3e 9b 35 b2 bd c6 2f 76 3d d2 89 0e bd
       0.19202301 -0.08701631 0.060104154 -0.034799404
0000b0 b2 56 37 3b ec cc d2 bd 00 db 11 3d c4 fd 0f bd
       0.0027975258 -0.10292992 0.035609245 -0.03515412
0000c0 01 4a 4b be 09 45 68 bc 74 8b 8a 3d 52 34 08 3e
       -0.19852449 -0.0141766155 0.0676488 0.13301209
0000d0 79 af 6f bd 5c 1d f9 3c 5c d3 37 3e 6d 2d ce 3c
       -0.058516953 0.030409507 0.17951721 0.025168145
0000e0 32 fd f5 3c d6 94 b2 3c f3 9e fb bc 98 04 81 3d
       0.03002796 0.021799486 -0.030715441 0.06299704
0000f0 86 37 e8 bc d3 08 5f 3e 50 11 a3 bd 84 ad e7 bd
       -0.028346788 0.2178071 -0.079622865 -0.11312392
000100 b1 43 69 be da d7 b2 bd 53 f4 90 3c 7e ee 0a be
       -0.22779728 -0.08732577 0.017694628 -0.1356754
000110 86 1d fc bd 95 6a b9 3d ea 3e 9c 3d 77 4e b8 3d
       -0.12310319 0.09053532 0.076291874 0.08999341
000120 4d 63 30 bd a7 26 ec 3c f3 b5 99 bc b2 35 1a bd
       -0.04306345 0.028827025 -0.018763518 -0.037648864
000130 ab 9a 16 bb 8b 38 04 be 7d d9 95 bd e6 67 11 3d
       -0.0022980373 -0.12912194 -0.07316873 0.035499476
000140 d0 7e b8 ba ac 6b e5 bd 7b 9e 75 bd 95 68 95 3d
       -0.0014075879 -0.112021774 -0.059965592 0.07295338
000150 64 3e 0d 3e fc 28 38 bd b4 8c 29 3b 93 c3 08 be
       0.13793331 -0.04496096 0.002587122 -0.13355856
000160 06 f5 a9 3d 71 5c 83 3d b5 52 bb 3d b6 ec 4d 3d
       0.08298688 0.06414116 0.091466345 0.050274573
000170 d9 4f a4 3d 62 1a ac 3d e8 73 89 3c ba bf ea 3d
       0.08023042 0.084034696 0.016778901 0.1146235
000180 b0 05 80 3d a3 84 b3 bc 89 f1 45 bd 5a 96 aa 3d
       0.06251085 -0.021913832 -0.04832605 0.083294585
000190 2d 90 14 be 1a 2f 3d bd 52 86 b3 bc 07 81 a1 bb
       -0.14508124 -0.046187498 -0.021914635 -0.0049287113
0001a0 8f 4b b9 bd 31 44 94 bd 52 b9 94 3d f5 38 57 bd
       -0.09047615 -0.07239569 0.072619095 -0.052544553
0001b0 0e a6 3f 3c ca 8a 61 3d 7b 66 a4 bd fd 82 b1 3c
       0.011697305 0.055064 -0.08027359 0.021668905
0001c0 6b 5a 10 3d f8 6b bf bc b2 fa 79 ba 37 78 92 3d
       0.03524248 -0.023366913 -0.00095359527 0.071518354
0001d0 db 06 0c 3d 69 33 14 bd bc 7d e8 bd 50 9d 42 bd
       0.034186225 -0.03618184 -0.11352107 -0.047513306
0001e0 cc 8c b5 3d 1f 79 45 3d 1c ab df 3d b9 15 35 be
       0.088647455 0.048211213 0.109213084 -0.17684068
0001f0 20 98 ed bc f9 08 75 3c db d0 94 3d ee da 08 be
       -0.029003203 0.0149557525 0.072663985 -0.13364765
000200 69 ae 92 bc 91 94 9a 3c 2b eb 1b bd 77 51 cf 3c
       -0.01790543 0.01886967 -0.03806607 0.0253074
000210 1b 78 17 3d 0e 0a a4 3d 67 9b 6b be 34 d1 df ba
       0.036979776 0.0800973 -0.230085 -0.0017075897
000220 4a 45 ae bd 8d c3 18 3d ad d3 f0 bb 7f b1 0f bc
       -0.085093096 0.037295867 -0.0073494525 -0.008770346
000230 d8 91 0f 3d 17 14 d7 bd b8 d8 5f 3d 20 18 04 bd
       0.035051197 -0.10501879 0.05465004 -0.03224957
000240 b4 03 f1 bb b1 2b 01 be b0 cf b4 bd f7 cb 3c bd
       -0.007355178 -0.12614323 -0.08828676 -0.046092954
000250 61 a0 97 bd 76 fa b8 bd 50 19 ca 3c a4 c0 38 be
       -0.07403637 -0.09032147 0.024670273 -0.18042237
000260 c3 fd 9b bd 97 91 3a bd 45 63 45 bc 6b da 46 bd
       -0.076167606 -0.045549 -0.0120475935 -0.048548143
000270 25 07 2c be c9 e3 f6 bd cd 35 5f 3d 24 7c ae 3c
       -0.167996 -0.12055165 0.054494668 0.02129943
000280 bd e3 ee 3c 90 74 7b 3d 0f 52 2b 3d f1 d9 1e 3e
       0.029161328 0.06139046 0.041826304 0.15512826
000290 fe 5b 14 be 6a 91 6b 3d c3 53 71 bd 3c c4 18 3e
       -0.14488217 0.057511725 -0.058917772 0.14918607
0002a0 89 d3 72 3c 0c 13 18 bd ca 8a 0d 3e 05 13 3e bd
       0.014820942 -0.03712754 0.13822475 -0.046404857
0002b0 ec f1 c1 3d 11 f3 e6 3d 01 68 0e be ff e2 9c bd
       0.09469971 0.1127683 -0.13906862 -0.076604836
0002c0 fb d1 07 be 6b 58 ef 3c 99 d9 d4 3d c0 8b 3a bd
       -0.13263695 0.029216966 0.10393066 -0.045543432
0002d0 7d e1 01 3e eb 24 cf 3d 98 cf a0 3d 28 52 19 3d
       0.12683673 0.101144634 0.07852095 0.037431866
0002e0 1e 67 d1 bc 87 b4 d9 bd f0 e4 16 3e 39 aa ee bd
       -0.025561865 -0.10630136 0.1473577 -0.11653561
0002f0 50 81 02 be 75 41 09 be 81 ea 08 3e 35 33 b6 bd
       -0.12744641 -0.13403876 0.13370706 -0.08896486
000300 d6 6c 44 3e eb 70 8b bc 9d 37 ec 3c 82 fd 1b 3b
       0.19182143 -0.017021617 0.028835112 0.0023802225
000310 87 e0 19 3c 32 85 dc bc 26 9a 2e 3e 4f 38 a3 bd
       0.00939191 -0.026918981 0.1705099 -0.079697244
000320 88 8f 41 bc 56 ad aa bb ac 00 32 bc 0f 8f be 3d
       -0.011814006 -0.0052086515 -0.010864418 0.0930463
000330 1c 22 32 3c fc b9 92 bd 58 18 d4 bd 31 90 22 bd
       0.01087239 -0.0716438 -0.10356206 -0.039688293
000340 af d7 73 3e a7 10 04 3e 53 04 ee 3b 99 30 0d 3c
       0.23812746 0.12896977 0.007263699 0.008617544
000350 a3 2e c8 bc 5a 7b 82 3d 90 0f d7 3d a5 c5 e1 3c
       -0.0244363 0.06371184 0.10501015 0.027560065
000360 5c 32 26 3e 6f 1e 5f bc e1 b6 31 3e 3e 08 6f bc
       0.16230148 -0.013618096 0.17354919 -0.014589367
000370 32 64 cd bd ca ab ed bc d8 57 bb bc 7b 84 84 bd
       -0.10028876 -0.02901258 -0.022869036 -0.06470581
000380 38 f4 25 3d a0 fc 8b bd 7f 85 aa bd e9 44 20 3d
       0.04051611 -0.06835294 -0.083262436 0.039128218
000390 01 5e 60 bc a9 1c 34 3b e4 42 00 be 82 fe 8a 3d
       -0.013694287 0.0027482903 -0.12525517 0.06786825
0003a0 26 e1 d2 bd 2b 59 ac bd 7c ad bb bd c4 2d a2 bc
       -0.1029685 -0.08415445 -0.09163949 -0.019797213
0003b0 3f 56 61 3c 9e 1e f5 3c 1d b1 05 3e de cf 44 3e
       0.013753473 0.029921826 0.13055845 0.1921992
0003c0 05 87 f5 bd f2 f1 46 be 81 72 3e 3c 54 4c 1a 3e
       -0.119886436 -0.19428232 0.01162398 0.1506818
0003d0 d9 2e 02 3e 5f d8 8f 3d 29 38 4d bd 4c 3f af bd
       0.12713183 0.070236914 -0.050102387 -0.08556995
0003e0 e7 9f 47 3d cd 32 8b 3d 24 3a e0 bd 47 75 66 3c
       0.04873648 0.06796799 -0.109485894 0.014066047
0003f0 42 11 78 3d cb 4a 34 3e a1 ac 29 3c c8 73 30 bd
       0.060563333 0.17606656 0.010356099 -0.043079168

critic.network_body.linear_encoder.seq_layers.0.bias f4 [128]
000000 00 00 00 00 00 00 00 00 00 00 00 00 00 00 00 00
       0.0 0.0 0.0 0.0
000010 00 00 00 00 00 00 00 00 00 00 00 00 00 00 00 00
       0.0 0.0 0.0 0.0
000020 00 00 00 00 00 00 00 00 00 00 00 00 00 00 00 00
       0.0 0.0 0.0 0.0
000030 00 00 00 00 00 00 00 00 00 00 00 00 00 00 00 00
       0.0 0.0 0.0 0.0
000040 00 00 00 00 00 00 00 00 00 00 00 00 00 00 00 00
       0.0 0.0 0.0 0.0
000050 00 00 00 00 00 00 00 00 00 00 00 00 00 00 00 00
       0.0 0.0 0.0 0.0
000060 00 00 00 00 00 00 00 00 00 00 00 00 00 00 00 00
       0.0 0.0 0.0 0.0
000070 00 00 00 00 00 00 00 00 00 00 00 00 00 00 00 00
       0.0 0.0 0.0 0.0
000080 00 00 00 00 00 00 00 00 00 00 00 00 00 00 00 00
       0.0 0.0 0.0 0.0
000090 00 00 00 00 00 00 00 00 00 00 00 00 00 00 00 00
       0.0 0.0 0.0 0.0
0000a0 00 00 00 00 00 00 00 00 00 00 00 00 00 00 00 00
       0.0 0.0 0.0 0.0
0000b0 00 00 00 00 00 00 00 00 00 00 00 00 00 00 00 00
       0.0 0.0 0.0 0.0
0000c0 00 00 00 00 00 00 00 00 00 00 00 00 00 00 00 00
       0.0 0.0 0.0 0.0
0000d0 00 00 00 00 00 00 00 00 00 00 00 00 00 00 00 00
       0.0 0.0 0.0 0.0
0000e0 00 00 00 00 00 00 00 00 00 00 00 00 00 00 00 00
       0.0 0.0 0.0 0.0
0000f0 00 00 00 00 00 00 00 00 00 00 00 00 00 00 00 00
       0.0 0.0 0.0 0.0
000100 00 00 00 00 00 00 00 00 00 00 00 00 00 00 00 00
       0.0 0.0 0.0 0.0
000110 00 00 00 00 00 00 00 00 00 00 00 00 00 00 00 00
       0.0 0.0 0.0 0.0
000120 00 00 00 00 00 00 00 00 00 00 00 00 00 00 00 00
       0.0 0.0 0.0 0.0
000130 00 00 00 00 00 00 00 00 00 00 00 00 00 00 00 00
       0.0 0.0 0.0 0.0
000140 00 00 00 00 00 00 00 00 00 00 00 00 00 00 00 00
       0.0 0.0 0.0 0.0
000150 00 00 00 00 00 00 00 00 00 00 00 00 00 00 00 00
       0.0 0.0 0.0 0.0
000160 00 00 00 00 00 00 00 00 00 00 00 00 00 00 00 00
       0.0 0.0 0.0 0.0
000170 00 00 00 00 00 00 00 00 00 00 00 00 00 00 00 00
       0.0 0.0 0.0 0.0
000180 00 00 00 00 00 00 00 00 00 00 00 00 00 00 00 00
       0.0 0.0 0.0 0.0
000190 00 00 00 00 00 00 00 00 00 00 00 00 00 00 00 00
       0.0 0.0 0.0 0.0
0001a0 00 00 00 00 00 00 00 00 00 00 00 00 00 00 00 00
       0.0 0.0 0.0 0.0
0001b0 00 00 00 00 00 00 00 00 00 00 00 00 00 00 00 00
       0.0 0.0 0.0 0.0
0001c0 00 00 00 00 00 00 00 00 00 00 00 00 00 00 00 00
       0.0 0.0 0.0 0.0
0001d0 00 00 00 00 00 00 00 00 00 00 00 00 00 00 00 00
       0.0 0.0 0.0 0.0
0001e0 00 00 00 00 00 00 00 00 00 00 00 00 00 00 00 00
       0.0 0.0 0.0 0.0
0001f0 00 00 00 00 00 00 00 00 00 00 00 00 00 00 00 00
       0.0 0.0 0.0 0.0

critic.network_body.linear_encoder.seq_layers.2.weight f4 [128, 128]
000000 58 d2 02 3e 49 63 09 bd 88 86 4a bd 11 f2 a7 3d
       0.12775552 -0.03354195 -0.049444705 0.082004674
000010 e3 4e 34 3e b7 41 df ba f9 55 a1 bb c7 9d a8 bd
       0.17608218 -0.0017033134 -0.004923579 -0.08233219
000020 14 4d 0a 3d 61 f6 eb bb 9b 4b e7 3c 08 54 36 3e
       0.033764914 -0.0072010015 0.028234294 0.17805493
000030 bd 31 51 3d d0 ca 5d bd e7 66 99 bd bd c8 c8 3d
       0.051072825 -0.054148495 -0.0749033 0.09803913
000040 2b 68 3b bc 82 f7 2c bc df ae 4b bc 16 1b b5 bd
       -0.01143841 -0.010557057 -0.012431829 -0.08843057
000050 3d 00 02 bd a4 a1 87 3d 94 d7 c8 bc 32 22 cd bd
       -0.03173851 0.066226274 -0.024516858 -0.10016288
000060 39 6e cd bd 31 d8 18 3e 43 6e 3b bd 84 2c 25 3d
       -0.10030789 0.1492622 -0.04575945 0.040325657
000070 09 93 e4 bd 2e e2 4a be 77 87 0c 3e f0 76 94 3d
       -0.11160857 -0.19812843 0.1372355 0.07249248
000080 4f cc 07 3e a4 0c 50 3e a1 24 c4 3d 81 9a 3c be
       0.13261531 0.20317322 0.09577299 -0.18418314
000090 d6 d2 81 3c 7e 45 45 bd e6 fe 9d 3c d2 d9 a9 bd
       0.015847605 -0.048161976 0.019286584 -0.08293499
0000a0 4e 87 5c 3d 51 e9 0f 3d 04 77 9f 3c 27 75 1d bc
       0.053839974 0.035134617 0.01946593 -0.009610451
0000b0 81 66 a4 bc 92 d7 d5 39 da 93 33 be cd 7b 3b be
       -0.020068409 0.00040787138 -0.1753687 -0.18308945
0000c0 f9 17 aa bd 3b d6 12 3c 75 95 14 3c 69 1f 3a 3e
       -0.08305354 0.008962209 0.009068836 0.18176045
0000d0 e8 1a dd bd 55 6d 42 b8 ef f9 77 3c 62 47 6c 3c
       -0.107961476 -4.6355028e-05 0.015135272 0.014421316
0000e0 ac 65 1d 3e d6 47 27 3e c1 c3 37 3d 7d 86 d0 3d
       0.15370816 0.16335997 0.04486442 0.101819016
0000f0 a7 6a 53 3d 25 58 99 3d ed 3c f2 3d 46 b3 08 bd
       0.051615383 0.07487515 0.11828027 -0.033374093
000100 05 81 f1 bd 13 b9 f1 bd 23 6d 8e 3d 50 05 eb 3c
       -0.11792187 -0.11802878 0.0695441 0.028689057
000110 a8 73 9e bd 9c c6 a9 bd d0 a7 30 bd e9 fa 28 bc
       -0.077369034 -0.08289835 -0.04312879 -0.010313728
000120 2f 80 5d 3d 49 40 60 bc d7 af 8e 3d dc cd 02 3c
       0.054077324 -0.013687202 0.069671325 0.007983651
000130 60 02 8f 3d f3 31 af bd 38 44 1d bd 0c 27 8d bd
       0.06982875 -0.08554449 -0.038395137 -0.06892213
000140 70 94 47 3e cf bf 04 3e 17 f9 4c 3d f4 00 8a 3d
       0.19490218 0.12963794 0.050042238 0.06738463
000150 92 9d 77 3d 0d 29 5b bc 0d 3b 13 3d d9 19 c5 bd
       0.060453005 -0.0133764865 0.035944987 -0.09624071
000160 0f 49 f7 3d 0e 92 ac 3d d2 c4 00 bd 93 d1 26 be
       0.12074482 0.08426295 -0.031437702 -0.16290884
000170 e2 08 0f be d3 8c 60 bd 20 26 16 be 63 5a 84 3d
       -0.13968232 -0.0548218 -0.14662981 0.064625524
000180 c4 a1 99 bd 0b 6d 80 bd 74 72 b4 3d 8d e3 54 3d
       -0.075015575 -0.06270798 0.08810893 0.05197482
000190 fd 7a fe bd 2b 43 5e 3d 11 75 88 bb 8a d9 c8 3d
       -0.12425802 0.054263275 -0.004164346 0.09807117
0001a0 70 9a c0 3d 6e ad e4 bd c6 58 ad bc 19 3e bb 3c
       0.094044566 -0.111658916 -0.021160495 0.022856759
0001b0 ee 30 73 bd 92 57 f2 3d 49 b7 76 3d 44 52 02 3c
       -0.059372835 0.11833109 0.060233388 0.007954184
0001c0 8e 6a 30 3d 7e 63 e4 3c a6 b6 03 be 17 4f 31 be
       0.04307037 0.027879473 -0.12862644 -0.17315327
0001d0 4e 5e 08 3e 38 03 ab 3c ee 27 be 3d ad 0f 02 bc
       0.13317224 0.020875558 0.0928496 -0.007938308
0001e0 9a f6 85 3d 6c 90 cc 3b f4 b5 81 3c 1c 73 84 bd
       0.06541176 0.0062428024 0.015833832 -0.06467268
0001f0 70 5a 89 3d f7 96 6c 3d 4e 38 e2 bd 38 31 c0 bd
       0.06706703 0.05776116 -0.110458955 -0.09384388
000200 e0 2c 9b 3d 71 43 1b 3d 81 4f 73 3d e0 84 76 bb
       0.075769186 0.037906114 0.059401993 -0.003761582
000210 99 84 b3 3d 19 69 5a 3d 9e 57 bb 3d 98 9c 91 bd
       0.08765525 0.053322885 0.09147571 -0.07109946
000220 4d 62 e4 bd 84 7e 57 3d cf 6e 42 bd 84 48 57 bd
       -0.11151562 0.05261089 -0.047468957 -0.05255939
000230 6f d2 5c 3c c2 a2 39 bd f0 d9 6f bd 34 ac 37 3e
       0.013477906 -0.045321234 -0.05855745 0.17936784
000240 88 d7 65 3e f6 20 91 bd 7f 06 21 bc 9e b5 49 3c
       0.224455 -0.07086365 -0.009828209 0.012311367
000250 97 1c 94 3b 2d f3 c1 bd 34 24 81 bd c1 d8 cb 3d
       0.0045200097 -0.0947021 -0.06305733 0.09953452
000260 7d a7 0d 3e 7a a0 ba bb 34 58 32 3d d2 d5 65 bc
       0.13833423 -0.0056954 0.04354115 -0.0140280295
000270 fb d5 87 3d 3d 3e 8d 3d ba da ec 3d 9b f8 bf 3c
       0.066326104 0.06896637 0.11565156 0.023433974
000280 6c 9d 78 bd 97 40 91 3d a2 35 56 bd ee d7 1e bd
       -0.060697004 0.07092398 -0.052297242 -0.038780145
000290 de 9f 8d bc 5b e9 25 3d 43 15 40 3e 79 a3 2d 3e
       -0.017288145 0.04050575 0.1875811 0.16956891
0002a0 b9 83 b4 3c c5 c1 d0 3b 40 78 a5 bb e8 98 60 3d
       0.022035467 0.0063707554 -0.0050497353 0.054833323
0002b0 65 86 c6 bd 5d b9 23 3e b2 57 46 bd 2d e8 80 3e
       -0.096936025 0.15988679 -0.048423477 0.25177136
0002c0 db 15 34 be 93 be b3 bd c8 b1 06 be 83 6d 0b 3e
       -0.17586462 -0.087765835 -0.13153756 0.13615994
0002d0 b1 08 9b 3d b1 03 96 3c fa 0b 5f be 3b 7a cf bd
       0.07570017 0.018312307 -0.21781912 -0.101307355
0002e0 26 0a 8d 3d e9 2f b5 3c 19 9e 48 bc a7 c8 b1 3d
       0.06886701 0.022117572 -0.012244725 0.086808495
0002f0 e8 f9 1d be db 91 8b bd f9 07 e2 bb df a5 3a bd
       -0.15427363 -0.06814929 -0.006897923 -0.045568343
000300 c7 f3 42 be b7 a9 d2 3c 7e b6 c2 3d 8f 58 e3 bd
       -0.19038306 0.025715692 0.09507464 -0.111008756
000310 b4 70 7e bc a5 f3 0b 3c e5 83 a9 3d 61 f8 26 be
       -0.0155298 0.008541976 0.0827711 -0.16305687
000320 bd dd 06 be c3 71 cb bd d4 a8 01 3c e8 68 c7 3d
       -0.13170524 -0.09933808 0.007913787 0.09736806
000330 3b 7c 16 3e e6 c4 f7 bd 9d ef 8d 3d 9d ab df bd
       0.14695828 -0.12098102 0.06930468 -0.109214045
000340 80 75 41 be a0 a2 06 3e 4d 06 6a 3d 5b 74 59 3d
       -0.18892479 0.13147974 0.057134915 0.05308948
000350 d2 d3 21 3e b5 44 df 3d a5 27 21 bd 88 ca 8c bd
       0.1580346 0.10901777 -0.03934445 -0.06874567
000360 f8 5a 68 3c 9a b3 ad bc 10 2a 2c be 99 d6 10 bc
       0.014181845 -0.021203805 -0.1681292 -0.008840227
000370 29 e0 b1 3d 53 42 19 b9 65 0c d2 3d 19 3a 18 be
       0.08685333 -0.00014615925 0.1025627 -0.14865912
000380 78 99 ad bd d8 5b 42 3d 7f 5c d6 bc 0e ce a5 3c
       -0.084765375 0.04745087 -0.026167152 0.020239856
000390 b8 ec 42 bb 25 db 26 bd 1a 0f 30 3d 5b 09 22 3d
       -0.0029743146 -0.040736336 0.042983152 0.039559703
0003a0 73 67 3d be 91 ba 15 bd e5 33 92 bd de cb a7 bd
       -0.18496494 -0.036554877 -0.07138804 -0.081931815
0003b0 dc 20 a2 bd f5 ce 95 3d c0 9d 96 bd 0e 62 0f bd
       -0.07916424 0.073148645 -0.07354307 -0.03500562
0003c0 2b 06 7c bc d6 30 ad 3d cc 87 a4 3e 1c 3b 8d 3c
       -0.01538233 0.0845658 0.32134855 0.0172401
0003d0 3a 76 21 be a4 15 d4 bd d2 e1 85 b9 40 31 0e 3e
       -0.15767756 -0.1035569 -0.00025535986 0.13885975
0003e0 81 eb ac bd 2f b0 ca 3d 1d 41 44 3c 41 2a e2 bd
       -0.08443356 0.098968856 0.011978415 -0.110432155
0003f0 42 88 34 bc 82 37 1c 3d 73 e2 ea bc 16 52 65 3d
       -0.0110188145 0.038138874 -0.028672433 0.055986486
