results/HikaruIsBorn/Hikaru.onnx (onnx, 219188 bytes, 6 tensors)

action_model._discrete_distribution.branches.0.bias f4 [675]
0	0x3d253996	0.04033812
1	0xbdf4d9d3	-0.11955609
2	0xbc6dfd5d	-0.014525739
3	0x3db364e5	0.087594785
4	0x3e80b01a	0.25134355
5	0x3d8fb7bf	0.07017469
6	0x3ce4ecba	0.027944911
7	0x3e219cce	0.15782472
8	0x3da0231d	0.07819197
9	0x3d84f061	0.06491161
10	0x3d5df371	0.054187242
11	0x3d4951b0	0.04915017
12	0x3e10e2e4	0.14149052
13	0x3df2beee	0.11852823
14	0xbc1de7c0	-0.009637773
15	0x3deb2df1	0.11483372
16	0x3ddfe631	0.109325774
17	0x3e3bfa7c	0.18357271
18	0x3a1e6f10	0.0006043771
19	0x3e101ba3	0.14073043
20	0x3c91f355	0.017816225
21	0x3b364a37	0.0027815232
22	0x3d05753a	0.0325825
23	0x3d60ede1	0.05491436
24	0x3c9e54fd	0.019327635
25	0x3d85a8d0	0.06526339
26	0x3ddce5ad	0.10785995
27	0x3dbfa6a4	0.09357956
28	0xbce7003d	-0.028198356
29	0x3d238bda	0.039928295
30	0x3e11e9da	0.14249364
31	0x3c5a2aa0	0.013315827
32	0x3d799845	0.06093623
33	0x3d8dc675	0.06922618
34	0x3db1678d	0.08662329
35	0x3c336e5c	0.010951605
36	0xbb7f863e	-0.0038989927
37	0x3e023131	0.12714078
38	0x3d98ddcd	0.0746418
39	0x3e630aba	0.2217206
40	0x3dd14ad0	0.102193475
41	0xbc80c95f	-0.015721021
42	0x3d601333	0.05470581
43	0x3c2e0080	0.010620236
44	0x3da2b02f	0.079437606
45	0x3db561d9	0.088565536
46	0x3e00a728	0.12563765
47	0xbdb4ef14	-0.08834663
48	0x3e422b93	0.18961935
49	0x3d442c2b	0.047893684
50	0x3c8449c3	0.016148454
51	0x3de708f2	0.11281003
52	0x3e045aac	0.12925214
53	0x3e71f564	0.23628765
54	0xbc0f209e	-0.008735804
55	0x3dd20d10	0.10256398
56	0x3d8d57fb	0.069015466
57	0x3c6923fc	0.014229771
58	0x3d0730ff	0.03300571
59	0xbc3f1f9c	-0.011665251
60	0x3dfa8c37	0.12233775
61	0x3deaf396	0.114722416
62	0x3e0e88c6	0.13919362
63	0x3bbba7a0	0.0057267696
64	0x3d2efa1a	0.042718984
65	0x3dfdb21a	0.12387486
66	0x3da63444	0.081154376
67	0x3dcd24c4	0.10016778
68	0x3da5b121	0.08090425
69	0x3d0975c3	0.033559572
70	0x3dfda021	0.12384058
71	0x3e424842	0.18972877
72	0x3d26f93a	0.040765025
73	0x3d6d9d56	0.058011375
74	0x3d7a79d2	0.061151333
75	0x3e0ac20e	0.13550588
76	0x3aa002db	0.0012207882
77	0x3e1bd8ee	0.15219471
78	0x3d81a033	0.06329384
79	0xbc8be972	-0.017079089
80	0x3dd593c9	0.104285784
81	0x3d8d38e4	0.06895617
82	0x3e13c67e	0.14431188
83	0x3e43f12e	0.19134971
84	0x3d8f551d	0.06998656
85	0xbdc25ad5	-0.09489981
86	0x3c8b4781	0.01700187
87	0x3d956f09	0.07296569
88	0x3d952f8c	0.072844595
89	0x3d070508	0.032963783
90	0x3c15a9cf	0.009134724
91	0x3d1c389d	0.038139928
92	0x3d8c314d	0.06845341
93	0x3d995b45	0.074881114
94	0x3dd4a19e	0.103823885
95	0x3df530cb	0.11972197
96	0x3a201ea0	0.0006108079
97	0x3dee3e0a	0.11632927
98	0x3dd49fb7	0.10382026
99	0x3e5014dc	0.20320457
100	0x3e09bb80	0.13450432
101	0x3df701ef	0.12060916
102	0x3d7c6476	0.061619245
103	0x3dda636f	0.10663497
104	0x3e063431	0.13105847
105	0x3d525df6	0.05135914
106	0x3e1617cc	0.14657515
107	0x3d744e3a	0.059644915
108	0x3e0e9380	0.13923454
109	0x3dd9e415	0.10639206
110	0x3dffbf5e	0.12487672
111	0x3e308a6e	0.17240307
112	0x3d0311e0	0.03199947
113	0x3dfcea2c	0.12349352
114	0x3dbe7762	0.09300114
115	0x3d503b90	0.050838053
116	0xbd16c675	-0.036810357
117	0x3dbcc418	0.092170894
118	0x3dad055a	0.08448286
119	0x3dcbf231	0.09958304
120	0x3d8b6edc	0.06808254
121	0xbd798ecd	-0.0609272
122	0x3ddc4e07	0.1075707
123	0xbca8f16a	-0.020622928
124	0xbcd4964f	-0.025950579
125	0xbc155c8c	-0.009116303
126	0xba7bfd4b	-0.0009612634
127	0x3c45100c	0.012027752
128	0x3de27df9	0.110591836
129	0x3e08f1cf	0.13373493
130	0xbc36a755	-0.0111482935
131	0x3e149767	0.1451088
132	0x3bc0530e	0.005869276
133	0x3e04bc59	0.12962474
134	0xbd7e76e6	-0.06212511
135	0x3a4f299b	0.0007902623
136	0x3d180c38	0.037121028
137	0x3c77136d	0.015080315
138	0x3c44f746	0.012021845
139	0x3dfc4d52	0.12319435
140	0x3bcd9fbf	0.0062751467
141	0x3dce0afa	0.10060687
142	0x3e03614e	0.12830088
143	0x3dbc7c94	0.09203449
144	0x3bd147fa	0.006386754
145	0x3de45b2a	0.11150201
146	0x3e0981b1	0.1342838
147	0x3dbae8f0	0.091264606
148	0xbdcf3add	-0.10118649
149	0x3de7861d	0.11304877
150	0x3db8370f	0.089948766
151	0x3dad868a	0.08472927
152	0x3d94a928	0.072588265
153	0x3de60383	0.112311386
154	0x3dd7ba9c	0.1053364
155	0x3cd382ff	0.0258193
156	0x3d8e4f88	0.06948763
157	0xbb8812d0	-0.0041526332
158	0x3c7ab7bb	0.015302594
159	0x3d31df6a	0.043425955
160	0x3d24fe64	0.04028167
161	0x3d99bcf6	0.075067446
162	0x3e0875de	0.13326213
163	0xbb91e514	-0.004452357
164	0x3e0b3a4e	0.1359646
165	0x3e83716f	0.2567248
166	0x3d93c4ff	0.072153084
167	0x3d91f39b	0.07126542
168	0xbdb1a67b	-0.08674332
169	0x3d076c0c	0.033062026
170	0x3cc6fef1	0.024291487
171	0x3d913d59	0.07091779
172	0x3d9d8917	0.076921634
173	0x3c032515	0.0080044465
174	0x3e0b849d	0.13624807
175	0x3e2adf72	0.166868
176	0x3e06b7b5	0.13156016
177	0x3c7be485	0.0153743075
178	0x3ba4a797	0.005024861
179	0x3e742b9a	0.23844758
180	0x3d9fdf57	0.078062706
181	0x3e2d28c7	0.16910087
182	0xbd9d4033	-0.07678261
183	0x3e0ca7c9	0.1373588
184	0xbc782c3e	-0.015147267
185	0x3d1999d9	0.037500236
186	0x3da43d13	0.080194615
187	0xbd81931c	-0.06326887
188	0x3dcf75a6	0.101298615
189	0x3d3206ad	0.043463398
190	0xbafcf67a	-0.001929953
191	0xbd29e750	-0.041480362
192	0x3d785892	0.060631342
193	0x3df7f64c	0.12107524
194	0x3e1c97e0	0.1529231
195	0x3e0c774e	0.13717386
196	0x3d88d6d5	0.06681601
197	0x3e156bd7	0.14591919
198	0x3e179e63	0.14806513
199	0x3d82feb5	0.06396238
200	0x3e1b8782	0.15188411
201	0x3d829128	0.063753426
202	0x3e38500a	0.17999282
203	0x3dc8bfcc	0.09802207
204	0x3d281711	0.041037623
205	0x3e4c3e65	0.19945677
206	0x3d35494d	0.04425936
207	0x3dab2ac1	0.08357764
208	0x3df6a0d4	0.12042394
209	0x3d15d711	0.036582056
210	0x3d89c59e	0.067271456
211	0x3ad68563	0.0016366657
212	0x3d2c7b12	0.042109556
213	0x3e046120	0.12927675
214	0x3c8f1ab1	0.017468782
215	0x3d2334ad	0.039845157
216	0x3e44ab67	0.1920601
217	0x3e06c8d2	0.13162544
218	0x3e2005fc	0.15627283
219	0x3d50b744	0.050956026
220	0x3d4c276c	0.049842283
221	0x3df52b19	0.11971111
222	0xbb20d0b6	-0.0024538464
223	0x3e124c22	0.14286855
224	0x3e351a43	0.176858
225	0x3cce7a11	0.02520469
226	0x3c94b05a	0.018150497
227	0x3d2216ca	0.039572515
228	0x3dcfe53b	0.10151144
229	0x3e0863c9	0.13319315
230	0x3e24983c	0.16073698
231	0x3d07efeb	0.033187788
232	0x3e158752	0.14602402
233	0x3e36597b	0.17807572
234	0x3e008fcf	0.12554859
235	0x3d2a1cbb	0.041531306
236	0x3e0854ff	0.13313673
237	0x3d2028e0	0.03910148
238	0x3c0299c8	0.007971235
239	0x3cd2e27d	0.025742764
240	0x3e3bca9c	0.18339008
241	0xbd7ac63b	-0.061224204
242	0x3dfcc21c	0.12341711
243	0xbcf6323e	-0.030053254
244	0x3e10f71d	0.14156766
245	0xbc1880ab	-0.009308021
246	0x3d90e9bb	0.070758305
247	0x3e392aa5	0.18082674
248	0x3dcf8e8a	0.10134609
249	0x3c5867f4	0.013208378
250	0x3e180606	0.14846048
251	0x3decd5d4	0.11564222
252	0x3d8a2e86	0.06747155
253	0x3d9b83a2	0.07593466
254	0x3dfbd7b7	0.12297004
255	0xbcdc6701	-0.026904585

action_model._discrete_distribution.branches.0.weight f4 [675, 64]
0	0x3d8adf0f	0.06780826
1	0x3d40c5d3	0.04706366
2	0xbe1b5a99	-0.15171279
3	0x3d33cc84	0.043896213
4	0x3b18a32c	0.0023290617
5	0x3dc1355c	0.094340056
6	0x3df61823	0.120163225
7	0xbddcffff	-0.10791015
8	0xbe147f95	-0.14501794
9	0xbe5600d0	-0.20898747
10	0x3d9e5e7d	0.07732866
11	0x3d0d7a9b	0.034540754
12	0xbcfc7810	-0.030818969
13	0x3eb045b5	0.34428182
14	0xbde2b341	-0.11069346
15	0x3d097d40	0.033566713
16	0x3cf56235	0.029954055
17	0xbcbfbf02	-0.02340651
18	0xbc36e6f4	-0.011163462
19	0xbbbc2d56	-0.005742709
20	0x3e30ed48	0.17278016
21	0x3bb4e809	0.005520825
22	0x3e69ffca	0.22851482
23	0x3ddacbc5	0.10683397
24	0x3e369dee	0.17833683
25	0xbbfde202	-0.0077478895
26	0x3e93530a	0.2877429
27	0x3dbc928d	0.0920764
28	0x3d2900ae	0.041260414
29	0xbe45203f	-0.19250582
30	0x3e07b85f	0.13253926
31	0x3dfa2813	0.12214675
32	0xbcfb81a7	-0.030701471
33	0x3cb39051	0.021919401
34	0xbc871a16	-0.016491931
35	0x3e9955de	0.29948324
36	0x3e7deb76	0.24796852
37	0x3d62bdd3	0.05535681
38	0xbdd2c346	-0.10291152
39	0xbd203100	-0.03910923
40	0x3cb19c6d	0.021681035
41	0x3d83b3af	0.06430756
42	0xbe16074a	-0.14651218
43	0x3eb15290	0.34633303
44	0x3dc00aee	0.09377085
45	0xbdc520a7	-0.096253686
46	0xbe4da19d	-0.20081182
47	0xbe8a0351	-0.26955655
48	0x3e37413c	0.17895979
49	0x3e8dcb77	0.27694294
50	0x3dc01f9d	0.0938103
51	0x3cc6e94f	0.024281172
52	0xbe557ec0	-0.20849133
53	0x3a740f25	0.0009310118
54	0x3dd59b5c	0.10430023
55	0xbd21e04e	-0.039520554
56	0xbcc44262	-0.023957435
57	0x3ea11997	0.31464836
58	0xbbc3f21f	-0.005979791
59	0x3dabbd3b	0.08385702
60	0x3e38a93d	0.1803331
61	0x3e4326c9	0.19057764
62	0xbe5ab70a	-0.21358886
63	0xbb2aeec9	-0.0026082268
64	0x3e1c7961	0.15280677
65	0x3c0dcbed	0.008654577
66	0xbd856016	-0.065124676
67	0xbdaf4b15	-0.08559243
68	0x3d3432e1	0.043993834
69	0x3cfc8f34	0.030830003
70	0x3dbc3264	0.09189299
71	0x3d8912ec	0.06693062
72	0x3d84476f	0.064589374
73	0x3b4fcd00	0.0031707883
74	0x3d0bc5dc	0.03412424
75	0x3dd5a8b4	0.10432568
76	0x3da53639	0.08066983
77	0x3ecf2cca	0.4046386
78	0x3c1599e7	0.009130931
79	0xbccdf100	-0.025139332
80	0xbdd796f2	-0.105268374
81	0x3e195f2c	0.14977711
82	0xbdcd43e6	-0.10022716
83	0x3d8d0690	0.06886017
84	0x3d8438e9	0.06456167
85	0x3da807ff	0.0820465
86	0xbc723565	-0.014783238
87	0x3dda8b9b	0.10671159
88	0x3dbcb00e	0.09213267
89	0xbdcb3c87	-0.09923654
90	0x3e687392	0.22700337
91	0x3e0f982b	0.14022891
92	0xbd3183b3	-0.04333849
93	0x3dc9b43e	0.098488316
94	0xbe1a71e6	-0.15082511
95	0xbe0e36c0	-0.13888073
96	0x3be102a4	0.00686677
97	0x3da82de7	0.0821188
98	0xbcf8fefd	-0.030395025
99	0x3e0b94b0	0.13630939
100	0x3d352afb	0.044230442
101	0x3e1a64d7	0.1507753
102	0xbc13b393	-0.009014982
103	0xbc440b55	-0.011965592
104	0x3e1af318	0.15131795
105	0xbd42c603	-0.04755212
106	0x3d790a5b	0.06080089
107	0x3da1fff7	0.079101495
108	0x3e02fcad	0.127917
109	0xbdee2e37	-0.116299085
110	0xbd72fa85	-0.059320945
111	0xbd9ea66e	-0.07746588
112	0x39269174	0.00015885179
113	0x3e07546b	0.13215797
114	0x3da8b8e9	0.08238394
115	0x3dd86a66	0.10567169
116	0xbacfa6e9	-0.001584259
117	0xbc2732ed	-0.010205013
118	0x3e0a8dfc	0.13530725
119	0xbd69e2a9	-0.057100926
120	0xbcfe39a5	-0.031033346
121	0x3e516f26	0.20452556
122	0x3d8a2857	0.067459755
123	0x3d3139df	0.04326808
124	0x3e5fdad2	0.21860817
125	0x3d2e390c	0.042534873
126	0xbe80df36	-0.25170296
127	0xbced9c69	-0.029005246
128	0xbc67762f	-0.014127298
129	0xbbfc5232	-0.007700228
130	0xbd7961cb	-0.06088428
131	0xbc9797dc	-0.01850503
132	0xbdeeac58	-0.11653966
133	0x3ddebb6c	0.10875592
134	0xbcaa8d94	-0.020819463
135	0xbe41cde1	-0.18926193
136	0x3cca2e3c	0.02468025
137	0xbcc8e09f	-0.02452117
138	0x3d1e0106	0.038575195
139	0xbd9590b9	-0.07302994
140	0x3d357def	0.044309553
141	0x3e6079d6	0.21921477
142	0xbe17f861	-0.14840843
143	0x3c52bf3d	0.012862978
144	0xbc649755	-0.013952096
145	0x3db67228	0.08908492
146	0x3da4d3f9	0.08048243
147	0xbd99420a	-0.07483299
148	0x3cd92108	0.026505008
149	0x3b85b077	0.004079874
150	0x3d9404d2	0.07227482
151	0xbc8debcd	-0.017324353
152	0x3c6c2f23	0.014415535
153	0x3c9edb30	0.019391626
154	0x3e20515a	0.15656033
155	0xbd87d3fe	-0.06632231
156	0x3d8d6a9a	0.06905098
157	0x3d958688	0.073010504
158	0xbdaec4a4	-0.085336
159	0xbd8b76a4	-0.06809738
160	0xbe1b4901	-0.15164568
161	0x3e15e9c7	0.1463996
162	0x3d7045a7	0.058660176
163	0xbdb49346	-0.08817153
164	0xbd3d143a	-0.046161868
165	0x3e21e539	0.15810098
166	0xbd8a922f	-0.067661636
167	0xbc9baabd	-0.019002313
168	0x3e067706	0.13131341
169	0xbd5abf9c	-0.05340539
170	0xbdb91507	-0.09037214
171	0xbcd405f5	-0.025881747
172	0x3c4a87d1	0.012361483
173	0x3de2e8b9	0.110795446
174	0xbd4ccf15	-0.050002176
175	0xbdc91e25	-0.09820203
176	0xbd44e031	-0.048065368
177	0x3d577a8f	0.052607115
178	0x3d1cead6	0.038309895
179	0x3d0c50d2	0.034256764
180	0xbdb94255	-0.09045855
181	0x3b06a8fe	0.0020547505
182	0x3c523025	0.012828861
183	0xbd1f2fe3	-0.038864028
184	0xbd1625cb	-0.036657136
185	0x3e097b05	0.13425834
186	0xbd8b04a3	-0.06787994
187	0x3cbb392e	0.022854414
188	0x3dae1bc1	0.085013874
189	0x3db61ab6	0.088918135
190	0xbc5b0b1c	-0.013369348
191	0xbd053ad6	-0.032526813
192	0x3c3565e6	0.011071658
193	0xbc6b3832	-0.01435666
194	0xbdb668c7	-0.089067034
195	0x3d806a78	0.06270307
196	0xbbfcce04	-0.0077149887
197	0x3e847214	0.25868285
198	0xbd64dc47	-0.055874135
199	0xbc8784da	-0.01654284
200	0xbe123d29	-0.14281143
201	0x3e2de593	0.16982107
202	0x3e38250b	0.17982881
203	0x3ceafa54	0.028683819
204	0x3c98817e	0.018616434
205	0x3d265c33	0.04061527
206	0xbe69f879	-0.22848691
207	0x3e312144	0.17297846
208	0xbc04a330	-0.008095548
209	0xbd3b2591	-0.045690123
210	0x3e8c5fd5	0.27416864
211	0xbe0c4b1c	-0.13700527
212	0x3e268061	0.1625991
213	0x3cb788b3	0.02240405
214	0x3e0bfd40	0.13670826
215	0xbdb7f225	-0.08981732
216	0xbc9dd153	-0.019264853
217	0xbb786c30	-0.0037906282
218	0xbe2f3f79	-0.17114057
219	0xbc3b880b	-0.011446009
220	0xbd0fa6f6	-0.035071336
221	0xbd175465	-0.03694572
222	0xbd62db7b	-0.055385094
223	0xbcbf6817	-0.023365064
224	0xbcd60a2e	-0.0261279
225	0xbd269041	-0.040664915
226	0xbe254ddb	-0.16142981
227	0xbdce836f	-0.10083663
228	0x3d2dbbc1	0.042415384
229	0x3d94fb06	0.072744414
230	0xbe581463	-0.21101527
231	0x3be4cb14	0.0069822166
232	0x3e0f9e68	0.14025271
233	0x3e2e7cc8	0.17039788
234	0x3c6123d2	0.01374145
235	0xbdaceb4a	-0.08443315
236	0xbc01dcb3	-0.007926154
237	0xbde6fe58	-0.11278981
238	0xbd6978e9	-0.057000075
239	0x3cd781e3	0.026307052
240	0xbd1caba6	-0.038249634
241	0x3cd1693b	0.025562873
242	0x3d35308a	0.044235744
243	0xbd3dcf57	-0.046340313
244	0x3dedce69	0.11611635
245	0x3c72087a	0.014772529
246	0xbe11e41e	-0.14247176
247	0xbcccf48f	-0.025018958
248	0x3d1fb614	0.038992003
249	0x3e41d8ca	0.18930355
250	0x3c7daa92	0.015482562
251	0x3cbdb7e6	0.023158979
252	0xbded38cf	-0.11583101
253	0x3e2284f3	0.15871029
254	0x3dfaf341	0.12253428
255	0xbd5bdbfd	-0.053676594

network_body.linear_encoder.seq_layers.0.bias f4 [64]
0	0xbcff0899	-0.03113203
1	0xbd84444d	-0.0645834
2	0xbd229681	-0.039694313
3	0x3db8fb64	0.09032324
4	0xbc714919	-0.0147269005
5	0xbd44d4a6	-0.04805436
6	0x3cb2d4e7	0.021830035
7	0x3cec2462	0.028825942
8	0xbcc99356	-0.024606388
9	0x3ba5d45a	0.0050607147
10	0xbd332ef5	-0.043745954
11	0xbc89093c	-0.016728036
12	0xbd057a47	-0.032587316
13	0xbbcd72e4	-0.0062697995
14	0xbdf522a8	-0.11969501
15	0xbd06aaa2	-0.032877572
16	0xbc649884	-0.013952378
17	0xbd3df3b3	-0.046374988
18	0xbd120303	-0.035647403
19	0x3d1cb013	0.038253855
20	0x3c882a10	0.01662162
21	0xbc90da69	-0.017682271
22	0xbd6b4aa0	-0.057444215
23	0xbdc07110	-0.09396565
24	0xbc688d65	-0.014193867
25	0xbcf3f6ab	-0.029780706
26	0xbcec3818	-0.028835341
27	0x3d46a117	0.04849347
28	0xbd4ead49	-0.050458226
29	0xbe0df95e	-0.13864657
30	0xbc3a7e86	-0.011382705
31	0x3a504165	0.0007944315
32	0xbd025698	-0.031820863
33	0x3d251376	0.040301763
34	0x3ce8645b	0.028368166
35	0xbd186020	-0.037201047
36	0xbd50e92d	-0.051003624
37	0xbcb0c6ec	-0.021579228
38	0xba1350ca	-0.00056196435
39	0xbd37a3f1	-0.04483408
40	0xbaadcd11	-0.0013259967
41	0x3d243db1	0.040097896
42	0xbac212c9	-0.0014806624
43	0xbce07b1d	-0.027402455
44	0xbc5c2eaf	-0.013438865
45	0xbad03128	-0.001588379
46	0x3caef999	0.021359252
47	0xbdb8feef	-0.09033
48	0x3a65db1b	0.0008768306
49	0x3bdaa889	0.006672923
50	0x3d873e84	0.06603721
51	0x3c9ede55	0.019393126
52	0xbca89b42	-0.020581845
53	0xbda30bfe	-0.07961272
54	0xbda57a58	-0.08079976
55	0xbc18ecfe	-0.009333847
56	0x3afa895c	0.0019114423
57	0xbd9c59fd	-0.076343514
58	0x3b805d28	0.003917355
59	0xbd7e9e48	-0.062162668
60	0xbc5d3d20	-0.013503343
61	0xbdd5730f	-0.10422336
62	0xbd461a54	-0.048364952
63	0xbc3f4ca0	-0.011675984

network_body.linear_encoder.seq_layers.0.weight f4 [64, 96]
0	0x3d816b68	0.06319314
1	0xbdde3f37	-0.10851901
2	0xbdd0e22b	-0.10199388
3	0xbdf56527	-0.11982184
4	0x3d4562b2	0.048189826
5	0x3d0cffab	0.03442351
6	0x3d8af9ae	0.06785904
7	0xbc77c734	-0.015123177
8	0x3db27176	0.08713047
9	0xbe502587	-0.20326816
10	0x3d8b98c8	0.0681625
11	0xbd34b10f	-0.04411417
12	0x3de793ae	0.113074645
13	0x3e9592d2	0.29213578
14	0x3e87fd8f	0.26560637
15	0x3e2e65e9	0.17031063
16	0x3cb1b070	0.021690577
17	0xbca01582	-0.019541506
18	0x3e02ae26	0.12761745
19	0x3db0edd2	0.086391106
20	0xbe05894d	-0.13040657
21	0xbd9be52d	-0.07612071
22	0x3d205849	0.039146695
23	0xbe58a3f3	-0.21156292
24	0xbe79db03	-0.24399953
25	0x3d2c10a0	0.042008042
26	0x3e9553a7	0.29165384
27	0x3dd67304	0.10471156
28	0x3da19ab8	0.078908384
29	0xbda9d8e4	-0.08293322
30	0x3e0c37a4	0.136931
31	0xbd0861eb	-0.033296507
32	0xbc934936	-0.017979246
33	0x3bb1591b	0.0054122335
34	0x3ddcd347	0.107824855
35	0x3d6cd6c0	0.05782199
36	0x3c5f8fc8	0.01364512
37	0xbc6dfa20	-0.0145249665
38	0x3dbc496f	0.09193694
39	0x3dac3d7b	0.08410164
40	0x3d3aa1dc	0.045564517
41	0x3d838b2e	0.06423031
42	0xbdc95405	-0.098304786
43	0x3dd6a8d9	0.10481424
44	0x3d9012be	0.07034825
45	0x3dcd94d3	0.100381516
46	0xbb62d911	-0.0034614245
47	0x3d7d2682	0.061804302
48	0x3def0d2b	0.116724335
49	0xbe1992cb	-0.14997403
50	0xbd9f5729	-0.07780296
51	0xbcf3bcc5	-0.029753098
52	0x3c402996	0.011728665
53	0xbd00ed27	-0.031476166
54	0xbcb74e01	-0.022376062
55	0x3da9de4b	0.08294352
56	0x3d96bf29	0.0736068
57	0xbd72805a	-0.059204437
58	0xbe1786da	-0.14797536
59	0x3db68f91	0.08914102
60	0x3e1341b0	0.14380527
61	0x3c90ff39	0.017699825
62	0xbcc6d42b	-0.024271091
63	0x3d9ac071	0.075562365
64	0xbd4ccc0b	-0.049999278
65	0xbdaa7a33	-0.08324089
66	0x3b84ba87	0.004050556
67	0x3d2992c2	0.041399725
68	0x3da794b8	0.08182663
69	0x3d9d119e	0.07669376
70	0xbabd16c2	-0.0014426338
71	0x3e03ebd6	0.12882933
72	0x3db36610	0.08759701
73	0xbcc14e3f	-0.023596881
74	0x3d16493a	0.036690928
75	0x3e4f3a3f	0.20237063
76	0x3b5f9c44	0.0034120241
77	0x3d83e036	0.06439249
78	0xbd515656	-0.051107727
79	0x3d618d29	0.05506626
80	0xbd9b55d5	-0.075847305
81	0x3ccaf6d4	0.0247759
82	0x3d50ecbd	0.05100702
83	0x3c0e5984	0.008688334
84	0xbc34f364	-0.011044357
85	0x3e2f7152	0.17133072
86	0x3da4e962	0.08052327
87	0xbda87d2b	-0.08226999
88	0xbe935049	-0.2877219
89	0x3d31ef02	0.043440826
90	0x3e759e6b	0.23986213
91	0x3e918b44	0.28426564
92	0x3dfbc9d7	0.12294357
93	0x3e34277d	0.17593189
94	0xbcb678ca	-0.022274394
95	0x3d9d64c6	0.07685237
96	0x3d27282a	0.040809788
97	0xbde02e76	-0.10946362
98	0xbe253782	-0.16134456
99	0xbd92505b	-0.07144233
100	0x3e008a36	0.12552723
101	0x3d444292	0.04791505
102	0xbc320b8c	-0.010867011
103	0xbe2dc1a2	-0.16968396
104	0xbe30e895	-0.17276223
105	0xbdb77c0c	-0.08959207
106	0x3b2cde02	0.0026377444
107	0xbe00cbc2	-0.12577727
108	0x3e2dd473	0.16975574
109	0x3da9b5a3	0.082865976
110	0xbe0c1904	-0.13681418
111	0x3bdc507c	0.0067234617
112	0x3c17ebd0	0.009272531
113	0xbe4a8a93	-0.19779424
114	0x3d19edba	0.03758023
115	0x3e155fb7	0.14587294
116	0xbce81bc6	-0.028333556
117	0xbe255e29	-0.161492
118	0xbe0d42ea	-0.13795057
119	0x3d472761	0.04862154
120	0xbda0db7e	-0.07854365
121	0x3d49aed9	0.049239013
122	0x3dea3eac	0.11437735
123	0xbe109676	-0.14119896
124	0xbc45cfd4	-0.012073476
125	0xbd2e0665	-0.042486567
126	0xbdcbde3e	-0.09954499
127	0xbc38d0bf	-0.011280238
128	0x3da77fdc	0.08178684
129	0x3d9ee542	0.07758571
130	0x3c316859	0.010828101
131	0x3e8ea100	0.27857208
132	0x3e163d21	0.14671756
133	0x3dd1682b	0.102249466
134	0x3e536643	0.20644478
135	0xbd0ae13e	-0.033906214
136	0x3dcaddff	0.09905624
137	0x3dc9665f	0.09833979
138	0x3d72f27c	0.059313282
139	0x3ae83a5d	0.0017717589
140	0x3c5e3d91	0.013564483
141	0x3e020842	0.12698463
142	0x3e3d13d1	0.1846459
143	0x3ceb3c74	0.02871535
144	0x3dc66657	0.096874885
145	0xbce8f395	-0.028436461
146	0x3d905cb7	0.07048934
147	0xbda571ad	-0.080783226
148	0x3df265d5	0.11835829
149	0xbcabde9c	-0.020980172
150	0x3e40a399	0.18812408
151	0x3e2b737d	0.16743274
152	0x3e9bedd2	0.3045488
153	0x3d1ba030	0.037994564
154	0x3e3734af	0.17891191
155	0x3e31e069	0.17370762
156	0x3e586d85	0.21135528
157	0x3d42948c	0.047504947
158	0x3df3a49f	0.11896633
159	0xbd2ae670	-0.04172367
160	0xbd2ede90	-0.04269272
161	0xbd3bbfbc	-0.04583715
162	0x3d0a673b	0.033789854
163	0xbe24aa71	-0.16080643
164	0x3e0af5b8	0.13570297
165	0xbc43b0d1	-0.011944012
166	0xbe705acf	-0.2347214
167	0xbddf7b9c	-0.109122485
168	0xbdca1921	-0.09868074
169	0xbe30af76	-0.17254433
170	0x3ca72dbe	0.020407554
171	0xbe566057	-0.20935188
172	0x3e5151be	0.20441338
173	0x3ded978d	0.11601172
174	0x3dc28071	0.094971545
175	0x3dcf6769	0.10127146
176	0xbcba266e	-0.022723403
177	0x3d3eaa5f	0.046549197
178	0x3d738d78	0.059461087
179	0xbdce7b2b	-0.10082086
180	0xbe82121d	-0.25404444
181	0xbda85d89	-0.082209654
182	0x3daf2673	0.085522555
183	0xbda38c51	-0.079857476
184	0x3df25afb	0.118337594
185	0xbdd10c12	-0.1020738
186	0x3b349f32	0.0027560708
187	0xbd4e2068	-0.050323874
188	0x3ce9fdb2	0.028563354
189	0xbe280437	-0.16407858
190	0x3cf4df2e	0.029891577
191	0x3e43d0bd	0.19122596
192	0xbe3eced0	-0.1863358
193	0x3e175ae2	0.14780763
194	0x3d982dea	0.074306324
195	0xbce9e1e9	-0.028550105
196	0xbd169ac1	-0.03676868
197	0xbcdb5fcb	-0.026779076
198	0x3e638b72	0.22221163
199	0x3b8256f2	0.00397765
200	0xbdd99f2a	-0.10626061
201	0x3d80874e	0.06275807
202	0xbcd8ff65	-0.02648897
203	0xbe51f96c	-0.20505303
204	0xbe01a195	-0.12659295
205	0x3e6493f8	0.2232207
206	0xbd391913	-0.04518993
207	0x3d0213b9	0.03175709
208	0xbd8e81da	-0.06958361
209	0x3d451132	0.0481121
210	0x3e3a2196	0.18176875
211	0xbd9548a4	-0.07289246
212	0x3e1beec5	0.15227802
213	0x3e1074e7	0.14107095
214	0xbd2053e5	-0.039142508
215	0x3c207893	0.009794372
216	0xbd9bef9f	-0.076140635
217	0x3da5305b	0.08065864
218	0x3d015582	0.031575687
219	0xbdac2e3e	-0.084072575
220	0xbec1ac59	-0.37826803
221	0xbd888283	-0.06665518
222	0x3c5efd36	0.013610175
223	0xbc5fc389	-0.013657459
224	0x3e5f26d6	0.21792158
225	0xbe48631e	-0.1956906
226	0xbd7f8582	-0.062383182
227	0xbdde3d9a	-0.10851593
228	0xbd9a6624	-0.07539013
229	0x3de89422	0.11356379
230	0x3e484d70	0.1956079
231	0x3e335f58	0.1751684
232	0x3a5d0f40	0.00084327534
233	0xbd5a0caf	-0.053234752
234	0x3caa639a	0.020799447
235	0x3c147c68	0.009062864
236	0xbd5d591f	-0.05404007
237	0xbc9f64a4	-0.019457169
238	0x3d799edf	0.060942527
239	0xbdbde45c	-0.09272072
240	0xbe45a5d6	-0.19301543
241	0x3c474249	0.0121618
242	0x3da94bc0	0.08266401
243	0x3d8b69f5	0.06807319
244	0x3e2768e4	0.16348606
245	0x3d78a557	0.060704555
246	0xbd0663dd	-0.03281008
247	0x3d107fb7	0.03527805
248	0x3cd6bb72	0.026212428
249	0xbd203055	-0.039108593
250	0xbdf957ca	-0.121749476
251	0x3d22c98d	0.039742995
252	0x3e406be2	0.18791154
253	0x380b78fe	3.3252865e-05
254	0xbd9d8e88	-0.07693201
255	0x3dab7740	0.083723545

network_body.linear_encoder.seq_layers.2.bias f4 [64]
0	0xbd58c2e3	-0.052920233
1	0x3da93c4b	0.08263453
2	0x3d92c1ba	0.07165857
3	0xba20d9b0	-0.00061359536
4	0x3d8c044c	0.06836757
5	0x3d468cfb	0.048474293
6	0xbd6791b8	-0.056535453
7	0x3b9cd747	0.0047864052
8	0x3dc71205	0.09720234
9	0x3d000c9a	0.031262018
10	0x3d68de1a	0.056852438
11	0x3d171dda	0.036893703
12	0xbcba065a	-0.022708107
13	0xbdd2482a	-0.102676705
14	0x3d8b3ce4	0.06798723
15	0x3d55c414	0.052188948
16	0xbce9295c	-0.028462104
17	0xbd0b0659	-0.0339416
18	0x3db04c8a	0.08608349
19	0xbc805617	-0.01566605
20	0x3dab2273	0.0835618
21	0x3d481556	0.048848473
22	0x3d7fb50d	0.062428523
23	0x3d56cfc8	0.05244425
24	0x3c03e3ad	0.008049888
25	0x3cf1026b	0.029420098
26	0x3d36a0c8	0.044586927
27	0x3c6b2f70	0.014354572
28	0xbcb84aef	-0.022496669
29	0x3dd5bb39	0.104361005
30	0x3cf7ec60	0.03026408
31	0xbd095053	-0.03352387
32	0x3de5306e	0.11190878
33	0x3dae6d1d	0.085169055
34	0x3d6d9be3	0.058009993
35	0x3b6882dc	0.003547839
36	0x3db0c178	0.08630651
37	0x3c58fc09	0.013243684
38	0x3d386a82	0.04502345
39	0x3d36087e	0.044441693
40	0x3a93564a	0.0011240926
41	0x3d4d9192	0.050187655
42	0xbc6e51a0	-0.014545828
43	0x3dea97de	0.114547476
44	0x3d1b014d	0.037843037
45	0x3d0efdcb	0.034910005
46	0xbb957efc	-0.004562257
47	0xbc8c0db5	-0.01709638
48	0x3dc8aeb5	0.09798948
49	0x3cccb2dc	0.02498763
50	0xb9823061	-0.00024831577
51	0xbd465853	-0.048424076
52	0x3d9a6d11	0.07540334
53	0xbd83ed3b	-0.064417325
54	0x3cbe9fb9	0.023269521
55	0xbd137bd6	-0.03600677
56	0xbc2cbcce	-0.010543061
57	0x3d23f84c	0.040031716
58	0x3d0d7df9	0.034543965
59	0x3d5d27b9	0.05399296
60	0x3cff796e	0.031185832
61	0x3cfd9433	0.030954456
62	0x3d2930fc	0.04130648
63	0x3bd6f14a	0.0065595256

network_body.linear_encoder.seq_layers.2.weight f4 [64, 64]
0	0xbe3db208	-0.18524945
1	0xbdf02c4d	-0.117272
2	0xbe172564	-0.14760357
3	0x3dd532a3	0.10410049
4	0x3dc55281	0.09634877
5	0x3e86270f	0.26201674
6	0x3cc33ca4	0.023832627
7	0xbd23e027	-0.04000869
8	0x3e08ed00	0.13371658
9	0xbde6f479	-0.11277098
10	0xbe300c08	-0.1719209
11	0xbadfbe41	-0.001707025
12	0x3cba1c6e	0.022718634
13	0x3de52d0f	0.11190235
14	0x3b26d78a	0.002545806
15	0xbdd0b760	-0.10191226
16	0xbdfb0694	-0.12257114
17	0x3d84f226	0.06491499
18	0x3d0216f4	0.03176017
19	0x3e8cb39a	0.27480775
20	0xbc3246a7	-0.010881103
21	0xbd7d5173	-0.061845254
22	0xbdc0e3ed	-0.094184734
23	0xbce72466	-0.028215598
24	0x3e639786	0.2222577
25	0x3bb7a7ea	0.0056047337
26	0xbe9cbdb3	-0.3061348
27	0xbe099598	-0.13435972
28	0x3dca212f	0.098696105
29	0x3ded6574	0.11591616
30	0x3e0c0b01	0.13676073
31	0xbe0c41b1	-0.13696934
32	0x3e16dbde	0.1473231
33	0x3df278f4	0.11839476
34	0xbc85a407	-0.016313566
35	0x3d86b37a	0.06577201
36	0xbe249e64	-0.16076046
37	0x3d97c553	0.074106835
38	0xbdf8bd4c	-0.121454805
39	0xbe567788	-0.20944035
40	0x3cf462f8	0.029832348
41	0xbdaa965f	-0.08329462
42	0x3d97d50b	0.074136816
43	0xbe0f1b6a	-0.13975301
44	0xbea18bd7	-0.31552002
45	0x3ccbcffc	0.024879448
46	0xbc63801f	-0.013885527
47	0x3da18af0	0.07887828
48	0xbe6d56b7	-0.2317761
49	0x3cd4e68c	0.02598884
50	0x3d9ac319	0.07556743
51	0xbe234513	-0.15944318
52	0x3e43e83b	0.19131558
53	0xbdb8705f	-0.09005808
54	0x3d7df995	0.062005598
55	0xbc9a4551	-0.01883188
56	0x3eb4bf5b	0.35302243
57	0xbd89bfb5	-0.06726018
58	0x3e7ac5d9	0.24489535
59	0x3dc392d1	0.095494874
60	0xbdc5f0a7	-0.096650414
61	0x3cd63230	0.026146978
62	0xbdc041de	-0.09387563
63	0xbe0ac443	-0.1355143
64	0xbe2c8ad3	-0.16849832
65	0xbe248f34	-0.16070253
66	0xbd82612f	-0.063661925
67	0xbc588687	-0.013215668
68	0x3de16564	0.11005667
69	0x3bb3c5e3	0.0054862364
70	0xbe98445e	-0.2973966
71	0xbe1c0321	-0.15235569
72	0xbe9779a2	-0.29584986
73	0x3d9de77d	0.077101685
74	0x3d8fa837	0.07014506
75	0xbde27ecc	-0.11059341
76	0x3d56c6f5	0.052435834
77	0x3d23701d	0.03990184
78	0x3e02fbec	0.12791413
79	0xbe62691c	-0.22110409
80	0x3e15ff42	0.14648154
81	0x3e335afe	0.1751518
82	0x3e1571f5	0.14594252
83	0xbdd0351a	-0.10166378
84	0xbe1d376c	-0.15353173
85	0xbd1d6074	-0.038422063
86	0xbe308192	-0.17236927
87	0x3e18ed75	0.14934333
88	0xbcf6f0de	-0.030144151
89	0xbd6e8d5d	-0.058240283
90	0x3d080e63	0.033216845
91	0xbd43aae3	-0.047770392
92	0x3dd3421d	0.103153445
93	0x3ca4b750	0.020106941
94	0xbe007c97	-0.12547527
95	0x3ccb048b	0.02478244
96	0xbb9e8320	-0.0048374087
97	0x3e628ee0	0.22124815
98	0x3e441f34	0.19152528
99	0x3df6c9c5	0.12050203
100	0x3e345b05	0.17612846
101	0x3df51fc3	0.11968949
102	0xbe36235e	-0.17786929
103	0x3e2750e2	0.16339448
104	0xbe3b5c07	-0.18296824
105	0xbea03dd5	-0.31297174
106	0xbc74525b	-0.014912213
107	0xbadcdaa1	-0.0016849824
108	0xbe076b31	-0.13224484
109	0x3e26a159	0.16272487
110	0x3d366651	0.04453117
111	0x3d86115e	0.06546281
112	0x3e229b79	0.1587962
113	0x3d966bf4	0.07344809
114	0x3e97127b	0.29506287
115	0xbde4a741	-0.11164714
116	0xbdcd443f	-0.100227825
117	0xbea2f6a5	-0.318288
118	0xbdfdc3fc	-0.12390897
119	0x3e4397e5	0.19100912
120	0xbd3c4384	-0.045962825
121	0x3e1e756e	0.15474483
122	0x3e53e974	0.20694524
123	0xbd9ebefd	-0.07751272
124	0xbe4188af	-0.18899797
125	0xbe158f56	-0.1460546
126	0xbe050b56	-0.12992606
127	0xbb57a287	-0.003290327
128	0xbd5959e5	-0.053064246
129	0x3b06a590	0.002054546
130	0x3ce02ce8	0.027365163
131	0xbd9165af	-0.07099473
132	0xbd27264c	-0.040808007
133	0xbdc97a86	-0.098378226
134	0x3dc41285	0.09573845
135	0x3e2473e5	0.16059835
136	0x3cb17668	0.021662906
137	0xbe1e9963	-0.154882
138	0x3dab3357	0.08359402
139	0x3dc322f6	0.09528153
140	0xbcd6713b	-0.02617704
141	0x3dfa74e9	0.1222933
142	0x3e7e9d79	0.24864759
143	0xbd4463ba	-0.04794667
144	0xbda8eb03	-0.0824795
145	0xbe6c9090	-0.23102021
146	0x3ccc557b	0.024943104
147	0x3e54479a	0.20730439
148	0xbdf0a6a0	-0.11750531
149	0x3d9c3f24	0.076292306
150	0xbe09835e	-0.13429019
151	0xbd405e41	-0.046964888
152	0xbb41ccb7	-0.0029571482
153	0x3dc32f7c	0.09530541
154	0x3c50c5af	0.012742444
155	0x3ce90c17	0.028448148
156	0xbe0d32a2	-0.13788846
157	0xbd91f36d	-0.07126508
158	0xbd8604ac	-0.0654386
159	0x3e961bf4	0.29318202
160	0xbeafd7bc	-0.3434428
161	0x3e113334	0.14179689
162	0x3b0bbc6b	0.0021322023
163	0x3ce85c84	0.028364427
164	0x3d88b374	0.06674853
165	0x3d91d39e	0.07120441
166	0x3da53705	0.08067135
167	0xbea8a100	-0.32935333
168	0x3cbb38bc	0.022854201
169	0xbd0bf28b	-0.034166854
170	0xbda64359	-0.08118314
171	0x3ecba491	0.39773992
172	0x3e7b662a	0.24550691
173	0xbca70cb4	-0.0203918
174	0xbeaabe34	-0.33348238
175	0xbe8a6bfc	-0.2703551
176	0xbd1e7de5	-0.03869428
177	0xbcfcee1d	-0.03087526
178	0xbe8fede7	-0.28111193
179	0x3e239ada	0.1597704
180	0x3e16c5d3	0.14723901
181	0xbe07c224	-0.13257653
182	0xbe679686	-0.22616014
183	0x3db4c902	0.08827402
184	0xbd2ace28	-0.041700512
185	0x3dab388d	0.083603956
186	0xbe94ac69	-0.2903779
187	0xbdca306f	-0.09872519
188	0x3c95779d	0.018245513
189	0x3e0ae369	0.13563313
190	0xbdab0fe0	-0.08352637
191	0x3d7fefcd	0.06248455
192	0x3e69a833	0.22818069
193	0xbe6bcf88	-0.23028386
194	0xbe29d8c7	-0.165866
195	0xbd2dc065	-0.04241981
196	0x3babb9ae	0.0052406406
197	0xbdf742d8	-0.12073296
198	0x3dbe2ab7	0.09285491
199	0xbd7eca66	-0.06220474
200	0x3cfbacd8	0.030722067
201	0x3dc3f381	0.09567929
202	0xbe7b7698	-0.24556959
203	0x3ea73e8c	0.32664907
204	0x3e41a257	0.18909584
205	0xbdaff19c	-0.08591005
206	0x3d9f65b1	0.07783068
207	0xbe7bbe2d	-0.24584265
208	0xbe5837e8	-0.21115077
209	0xbea07f0b	-0.31346926
210	0x3dacac79	0.08431334
211	0xbe2f8719	-0.1714138
212	0x3d0c0408	0.034183532
213	0x3db2a659	0.087231345
214	0xbd9aa6ec	-0.07551369
215	0xbdbfd0c5	-0.093659915
216	0x3e12aa6f	0.14322828
217	0x3e268a79	0.1626376
218	0xbe14ca62	-0.14530328
219	0xbd88393d	-0.06651542
220	0xbc40390f	-0.011732354
221	0xbd2fcefd	-0.04292201
222	0x3e3443fc	0.17604059
223	0xbe42cb46	-0.19022855
224	0x3d8f6967	0.07002526
225	0x3e3f6347	0.18690215
226	0x3e1f2968	0.15543139
227	0x3d5d03a4	0.05395855
228	0xbd64389d	-0.055718053
229	0x3dc7291b	0.09724637
230	0x3defa60b	0.11701592
231	0x3dcc63eb	0.09979995
232	0xbdb0fd3a	-0.08642049
233	0xbdae4b4b	-0.08510455
234	0x3e2d90d4	0.16949779
235	0x3e8b0fd0	0.271605
236	0x3df60212	0.12012114
237	0x3d869438	0.06571239
238	0xbe51c703	-0.20486073
239	0x3e36ce01	0.17852022
240	0x3dd90e7e	0.10598467
241	0x3d991244	0.07474187
242	0x3d514eef	0.051100668
243	0x3dcb521e	0.09927772
244	0xbcddbaa9	-0.027066546
245	0x3cebbb19	0.028775739
246	0x3d5863fe	0.052829735
247	0x3dd5ce13	0.10439696
248	0xbe94416c	-0.28956163
249	0x3ddcaf5c	0.10775635
250	0x3bb4f2e2	0.005522118
251	0x3c0a68d1	0.008447842
252	0x3cc47043	0.023979312
253	0xbe18664d	-0.14882775
254	0x3d11d19a	0.035600282
255	0xbc6fd6de	-0.014638631
