results/HikaruIsBorn/Hikaru/Hikaru-449181.pt (torch, 791303 bytes, 33 tensors)

network_body.linear_encoder.seq_layers.0.weight f4 [64, 96]
00000000: 4eaa 0a3d a702 09be f2a7 ffbd b9b0 0cbe
00000010: e4df ad3d 669b a53c 0710 453d c7ef 38bd
00000020: 732b 8e3d 97c0 6ebe ea23 453d 440d 48bd
00000030: f7a2 0a3e f88c a53e ea4b 4b3e 1c37 493e
00000040: 2152 54bd 902a c7bd 922b df3d c879 b93d
00000050: afa5 47be 6715 abbd 4309 0b3c d5c3 5fbe
00000060: bcbf 8bbe 588d df3c 6c7a 9d3e a4aa d83d
00000070: c27c d93d dd02 b3bd 30d3 9f3d b118 c8bd
00000080: 9292 993c da87 2c3d ab00 143e bc99 c13d
00000090: 0a41 4e3d acbd b53c cabb 033e d26b f73d
000000a0: 927f a83d 70b9 ce3d 864b 7cbd 7beb 103e
000000b0: 1441 db3d 6f61 0c3e 942f 083d 9ac1 c93d
000000c0: 0e9e 223e 41d2 e2bd ca51 28bd 0bf6 e33b
000000d0: 7c67 463d 457f ab3b f6d8 6a3c a20c f53d
000000e0: 80ed e13d 0e46 b8bc 7ade e3bd e7de 003e
000000f0: 2fd9 383e f6dc 5e3d d4cc 4b3c c8ee e53d
00000100: f67d 9bbd 056a 03be e375 81bc d25a 8e3c
00000110: 7d98 633d b085 c73c 0303 b5bc 9835 c03d
00000120: 05e3 883d f283 47bd 4a94 ef3b f943 2f3e
00000130: 518d 70bb 96e3 8d3d cbe1 88bd 04ba 1c3d
00000140: 23b1 dcbd e920 9a3c 8236 4b3c ad22 ffbc
00000150: 1f29 0dbd fdb4 213e 8a07 523d c785 c7bd
00000160: 388e a7be c5f8 0c3d ea89 663e 5723 8e3e
00000170: 1510 2a3e 36e3 513e 7b43 6bbd 02e2 853d
00000180: 2df9 ddbb bf60 1abe c5a7 63be 5601 d9bd
00000190: 65a8 2a3e c699 2aba f52e 96bb d39e 12be
000001a0: d80e f5bd e944 36bd 0c5b e0bc e541 03be
000001b0: b54a b43d a551 e23c 07f2 0cbe 890d 08bd
000001c0: bd79 dd3c 6a53 08be 3f61 c33c b04d 183e
000001d0: 82b5 a83c 791a 58be 9bc7 c5bd 7ca8 ce3c
000001e0: 43cc bbbc e8ef 0e3e 8abe df3d ed11 2cbe
000001f0: 3111 203c b505 2dbd 8987 91bd 35ef 0b3d
00000200: b796 fa3d e543 f23d bad3 543d 63b0 a33e
00000210: 795b 403e 6ad2 123e 9d84 7d3e d8c3 ec3b
00000220: 5f8d 0f3e 8ed1 0e3e fdb5 cd3d 5cbb 2f3d
00000230: f808 603d 7126 2c3e 2b32 673e ed0b 8f3d
00000240: 54a6 dd3d 43ec e03a 7f99 e43d c669 22bd
00000250: 2951 233e c714 a53c f3c1 6a3e d791 553e
00000260: 37fd b03e f30c a23d 0953 613e c3fe 5b3e
00000270: f145 813e 0387 b53d 8bf0 233e 802e 1bba
00000280: 3a83 56bd 6a47 72bd 6a7c 7c3b a592 62be
00000290: a9aa 073e 11c7 313d 01d0 a5be a8a9 3cbe
000002a0: ac4f d8bd 48a2 4bbe 10a7 0a3d 9574 54be
000002b0: 938f 783e a6ee 233e 6124 d93d b4d8 fe3d
000002c0: 2cfb 1abc 0537 883d cf91 953d e361 08be
000002d0: 776f 35be a2c0 283c dd07 093e 9664 44bd
000002e0: 3634 203e c667 4bbd 1d31 df3b 3c9a 2cbd
000002f0: 623a 203d 6eb7 0ebe 4043 813c 3a82 3d3e
00000300: d006 1fbe a805 283e e443 e03d 918d 34bb
00000310: 991e 67bd b058 e8b9 fe0a 763e 747b 803c
00000320: 9a88 cbbd 6536 d73d 06ac e83a 5126 33be
00000330: f13b 2bbe 5005 8c3e 8533 48bd d258 853a
00000340: 2319 12bd c899 a63d 4f23 473e bd3e 69bd
00000350: 119b 453e 56ab 3e3e 1f26 113a 8fad 4e3d
00000360: 4326 80bd b89a cd3d 79f3 5f3d f15d b6bd
00000370: 97cb d1be 7ed5 92bd 69eb 613d 5b8e 11bd
00000380: 9748 4a3e b6a6 5cbe d504 a8bd 0540 03be
00000390: 49a8 c2bd fd51 c03d 3a2c 343e 223e 1f3e
000003a0: c01f 9abc 4748 95bd 25b7 953a cf93 2dbc
000003b0: 89ee 96bd 4736 20bd df1a 293d 8126 e6bd
000003c0: f50c 60be 4f99 5abc 9c09 813d eb4f 463d
000003d0: ae47 133e 5121 283d ade7 56bd b1ee 7f3c
000003e0: 93cd d63b 2db4 70bd 02cd 10be 428b a43c
000003f0: ac4a 2c3e 82c2 a0bc add0 c5bd 1935 833d
0.03385382 -0.13379918 -0.12483205 -0.1373929 0.084899694 0.020215701 0.048110988 -0.045150544
0.06941881 -0.23315655 0.048129953 -0.048840776 0.13538729 0.32334113 0.19853178 0.19649929
-0.051836137 -0.09724915 0.10896982 0.09056431 -0.19496797 -0.083536915 0.008486095 -0.21852048
-0.2729472 0.027289078 0.30757463 0.10579422 0.10619499 -0.087407805 0.07803953 -0.097703345
0.018746648 0.042121746 0.1445338 0.09453151 0.050354995 0.02218517 0.12864605 0.12081112
0.08227457 0.10093963 -0.061595462 0.14152329 0.10705772 0.13709043 0.0332485 0.0985138
0.15880606 -0.11075259 -0.041093625 0.006956821 0.048438534 0.0052336776 0.014333954 0.119653
0.11031628 -0.022494342 -0.111264184 0.1258503 0.18051599 0.054409944 0.012438972 0.112271845
-0.075923845 -0.12833412 -0.015803283 0.01737729 0.055565346 0.02435574 -0.022096163 0.09385222
0.066839255 -0.048709817 0.0073113786 0.17115773 -0.0036705325 0.06928174 -0.066836916 0.038263336
-0.10775974 0.01881452 0.012403132 -0.031144464 -0.034463044 0.15791698 0.05127672 -0.09742313
-0.32725692 0.034416933 0.22513548 0.27761337 0.16607697 0.2049683 -0.0574374 0.06537248
-0.006774089 -0.15075968 -0.22231968 -0.10595958 0.166658 -0.00065078994 -0.0045832344 -0.14318399
-0.11965722 -0.04449931 -0.027387165 -0.12818106 0.08803312 0.027626822 -0.13764201 -0.033216033
0.027035588 -0.1331307 0.023850081 0.14873385 0.020594362 -0.21103849 -0.09657212 0.025226824
-0.022924548 0.13958704 0.10925014 -0.16803713 0.009769724 -0.04224177 -0.071059294 0.034163672
0.12235778 0.11829356 0.05195973 0.3197051 0.18784894 0.14338079 0.24757619 0.007225495
0.14018773 0.13947126 0.10044477 0.04290329 0.054696053 0.16811539 0.22577731 0.069846965
0.1082274 0.0017160255 0.111620896 -0.039651655 0.15948929 0.020151509 0.22925548 0.20856415
0.34568188 0.07912626 0.22004332 0.21483903 0.25248674 0.08863642 0.16009729 -0.000591971
-0.05237124 -0.059150137 0.0038526305 -0.22126253 0.13248695 0.043402735 -0.32385257 -0.18424094
-0.10562071 -0.19886124 0.03385073 -0.20747598 0.24273519 0.16009006 0.10602642 0.124436766
-0.009459298 0.06651119 0.073032014 -0.13318591 -0.17718302 0.0102998335 0.13381906 -0.04794749
0.15644917 -0.049659513 0.0068112747 -0.042139277 0.03911818 -0.1393716 0.015779138 0.18506709
-0.15529943 0.16408408 0.10950449 -0.00275502 -0.056425665 -0.00044316566 0.2402763 0.015683867
-0.09938164 0.10508422 0.0017751462 -0.17495085 -0.16722085 0.27347803 -0.048877258 0.0010173565
-0.035668503 0.081348 0.19447063 -0.056944598 0.19297434 0.18620047 0.00055369915 0.050458487
-0.06257298 0.10039276 0.054675553 -0.08904637 -0.4097564 -0.07169627 0.055156145 -0.03553615
0.19754253 -0.2154797 -0.08204047 -0.1281739 -0.09504754 0.09390638 0.17594996 0.15551046
-0.018813968 -0.072891764 0.0011422379 -0.010594322 -0.07369716 -0.039114263 0.041285392 -0.11237813
-0.21879943 -0.013342216 0.06300661 0.04841606 0.14382812 0.041047398 -0.052467037 0.015620873
0.006555268 -0.05876558 -0.14140704 0.020085935 0.1682536 -0.019623999 -0.09658942 0.06406612

network_body.linear_encoder.seq_layers.0.bias f4 [64]
00000000: d8f0 8abd 1b81 d8bd 2a25 a4bc 3c07 8c3d
00000010: a076 953c 66c6 89bd 75c0 923b 0316 933c
00000020: ef5e 3ebd d137 38bc 0e9b 01be 55f7 4bbc
00000030: 9efb 11bd e6c4 7dbd 08f2 4dbe ab19 6bbd
00000040: dbec c4bc 8ced 1cbd cbff 2cbd dccf 303b
00000050: cc29 63bc 6300 81bd 900f 9ebd 364e eebd
00000060: 05f8 79bc c16e 66bd bfc4 bdbd c045 0f3d
00000070: 4f4b abbd 543c 2cbe 8f91 06bd b0df 053c
00000080: cb13 edbc 1576 d93c 2579 933c 133c 8bbd
00000090: 47af 03be 855b e6bc e6eb 2bbd a6ca 6ebd
000000a0: 1f14 27bd 9da1 143d a06a 4dbb 9727 09bd
000000b0: 3066 31bd bb2a 9cbd f16d 4b3c e2bf 19be
000000c0: ffa4 18bd f86d 9cbc c932 853d 8c4f 76bc
000000d0: 8fc5 393c ed83 a9bd 0248 b5bd 0092 97bc
000000e0: 8ece ddbb 36ab 0ebe d750 01bc cdec 1ebe
000000f0: e1ca 7ebc cdb3 03be 47d4 7cbd 6ee4 adbc
-0.067842185 -0.105715 -0.020037252 0.06837317 0.018245041 -0.067272946 0.004478509 0.017954832
-0.046477254 -0.011243776 -0.12656805 -0.012449105 -0.03564035 -0.061955355 -0.20111859 -0.057397526
-0.024038723 -0.03831248 -0.04223613 0.0026979363 -0.013864946 -0.06298902 -0.07717812 -0.11636011
-0.015256886 -0.056257967 -0.09266042 0.03497863 -0.08363973 -0.16819888 -0.03285366 0.008171007
-0.028940102 0.026545564 0.018002102 -0.067985676 -0.12859832 -0.028119812 -0.041973017 -0.05829873
-0.040790673 0.03628694 -0.003134407 -0.03348502 -0.043310344 -0.07625338 0.012416349 -0.15014604
-0.037266728 -0.019095406 0.06503827 -0.015033614 0.011338606 -0.08277116 -0.08851625 -0.018502235
-0.006769008 -0.139325 -0.007892809 -0.1552002 -0.0155513 -0.12861557 -0.06172588 -0.021227088

network_body.linear_encoder.seq_layers.2.weight f4 [64, 64]
00000000: 1534 8fbe daac cabd 7b46 2cbe 348f 793d
00000010: 25eb cdbc e6e2 8d3e 76aa 48bd 5af5 d3bd
00000020: 5010 0f3e d3ac e8bd 8fa5 febd d704 68bd
00000030: f7aa ca3c 28ec 1b3e c998 5c3d 72e7 35be
00000040: 8eaf 05be 4824 353c a139 793d 7ea9 643e
00000050: 7141 f8bd eba6 9fbd 2d8f b9bd 94eb 67bd
00000060: 2182 8f3e 1000 073d 0f5d a0be 9b14 3abe
00000070: 92ce ba3d ffa1 383e 0a36 673d 09f7 40be
00000080: 83ab 123e 96b9 0b3e 3038 75bd c1a3 683d
00000090: 30cc 98bd 9ea5 173d ca64 8ebd 8398 57be
000000a0: a740 9c3d efe9 d2bd aefd fb3c 5b79 d2bd
000000b0: 81aa 88be 395a 773d 2acb adbc 08f8 ef3d
000000c0: 776e 8bbe 4caa e43b 3513 c73c 08b8 2dbe
000000d0: 78cb f63d 2be4 09be 396a 643d 8228 183b
000000e0: 0798 af3e 8d83 77bc 1be2 563e 8f66 a93d
000000f0: 2711 25be 596b 763c b97c a5bd 1e16 07be
00000100: 6a31 58be 5ab3 5fbd ea34 3dbc 89f1 2abd
00000110: 6f69 0a3d cf9d d83d b796 a1be 18a5 3cbe
00000120: ea45 8abe 3b26 093e 2372 8e3d 65cf 25be
00000130: 6ec1 e13d 58b3 6c3c 047a 3f3e 35c6 79be
00000140: 7057 973d dcb1 4d3e 5b99 0b3e 224e 1ebe
00000150: a5c7 0cbe 9747 dabc 54d3 54be a36a 243e
00000160: 7fca 0bbe 952f 493d 5182 c93c 1663 61bd
00000170: 9542 f63d 5e67 323e 442d ddbd 6726 6ebd
00000180: a511 333a 6b3d 323e 2d43 133e dc3e 743e
00000190: 62e6 813e 38b2 723c df0b 1fbe e139 333e
000001a0: 4f37 1dbe 26fd c1be 3328 ef3c 9f43 43bd
000001b0: 4138 40be 2fee 513e 3d35 4c3d 30ef 963d
000001c0: d053 3e3e 969e d73c 3661 a43e c11b 1abe
000001d0: 2e9b 7bbd 2df4 7ebe f01f 04be c091 5d3e
000001e0: 8324 96bc 6bee 643e 07f2 313e 0d8d 19bd
000001f0: c4b5 42be fdd9 9abd a37f abbd 0ac9 2ebd
00000200: 79df 89bc 4bc6 52bd 3cfa 0ebc 3f03 20bd
00000210: a425 993d d6d2 82bd 5cd9 933d 4a95 283e
00000220: 6fd9 3fbb 399d 57be 707a cc3d 3e8c 143e
00000230: f103 a7bd bcd7 e63d ef2d 8f3e 0849 9cbc
00000240: 633d 89bd 9137 6abe b480 7c3a 480b 733e
00000250: 4074 debd 726f de3d faf1 02be 56e7 c7bd
00000260: 0db1 8d3b f38c 813d c715 8cbd 7880 cdbc
00000270: 0a52 00be 88e5 e1bd 63d7 abbd ea97 823e
00000280: b373 a8be 7759 1b3e 0157 933d 71f5 9dbb
00000290: c070 5a3d 3374 b53d 6871 993d 906d b4be
000002a0: 90b4 213d e3da 77bd 9a6e 04be 4a51 d63e
000002b0: 43a9 7e3e ecc4 9d3b 1f7b c4be a7c1 8bbe
000002c0: 5fe8 ed3c 01b0 cdbc ceb7 8fbe 238f 513e
000002d0: fb1b 0f3e 38fb cebd 3100 68be d8e8 363d
000002e0: d91e 493b e5fd cd3d 2cf0 9ebe 5571 9fbd
000002f0: 304d ae3c 0899 c03d b077 f3bd 875c b63c
00000300: e93e 583e 2a8e 00be 7763 4fbe 2946 e0bc
00000310: 53bb 2bbd 3db6 80bd 3c7e a13d 3704 2bbe
00000320: cd93 c6bd e11d e93d 8f9b 97be 308f 9a3e
00000330: 9b4c 843e b389 6fbd 15fd 213e 5a5d 9bbe
00000340: 3ee0 39be c50c b5be feca 3b3e 560b 50be
00000350: 6960 433d 1ab0 383e 70c2 03be 7362 ed3c
00000360: ddad 073e 38f6 883e 6ced febd 9af3 f7bd
00000370: 67b1 363d 1d1f 2e3d c0c0 8e3d f810 3cbe
00000380: 10ee 483d 39a8 f93d fe7d f03d 3ca4 0a3e
00000390: e13d 8f3d fd4d 49bd 8fa9 483e 90bd 0a3e
000003a0: 347d 92bc 8eb3 c9bd 751a 203e ae95 933e
000003b0: 3830 d23d ab4a d43d 4e62 96be 6fa0 903e
000003c0: b18a b83d f909 87bc 57d4 2ebd 9117 7e3d
000003d0: 31c5 9cbd c67c 5f3d 0d75 5c3e d479 013e
000003e0: 64fa 7fbe 8579 4f3e 9800 4f3b cb9e d43d
000003f0: e70c c8bc 6c7c c8bd bae1 923d da30 86bd
-0.27969423 -0.0989625 -0.16823761 0.060927585 -0.02513654 0.27712172 -0.04899069 -0.103495315
0.13971066 -0.113610886 -0.124339215 -0.05664524 0.024739726 0.15226805 0.053856645 -0.1776407
-0.1305525 0.011056013 0.060845975 0.22330281 -0.12121857 -0.07795509 -0.09060512 -0.05662115
0.28028968 0.032959044 -0.31320998 -0.18171923 0.091214314 0.18030547 0.05644802 -0.18844236
0.14323239 0.13645014 -0.059868038 0.056796793 -0.07460821 0.03702318 -0.06952818 -0.21054272
0.07629519 -0.102985255 0.030760612 -0.10277053 -0.26692584 0.060388777 -0.02121504 0.1171723
-0.27232715 0.006978309 0.02430115 -0.16964734 0.12050527 -0.13465945 0.055765364 0.0023217504
0.34295675 -0.015107048 0.2098469 0.082715146 -0.16119824 0.015040242 -0.080804296 -0.13192031
-0.211126 -0.054614402 -0.01154826 -0.041734252 0.033791956 0.105769746 -0.315603 -0.18422353
-0.27006465 0.1339349 0.069553636 -0.16192396 0.11023222 0.014447056 0.18698889 -0.24392016
0.07389724 0.20087379 0.13632719 -0.15459493 -0.13748033 -0.026645465 -0.2078374 0.16056304
-0.13651465 0.049117643 0.024598273 -0.055026136 0.12024418 0.17422244 -0.10799649 -0.058142092
0.00068309373 0.17406242 0.14381094 0.23852104 0.2537108 0.0148129985 -0.15531872 0.17502548
-0.1535313 -0.3788845 0.029193973 -0.04767191 -0.18771459 0.20501016 0.04985546 0.0736984
0.1858666 0.026320737 0.32105416 -0.1504965 -0.061427288 -0.24897833 -0.12902808 0.2163763
-0.018327957 0.22356574 0.17377482 -0.037488032 -0.1901465 -0.07561109 -0.08373954 -0.042672195
-0.016830193 -0.05145864 -0.008726653 -0.039065596 0.074778825 -0.0638787 0.072191924 0.164632
-0.0029273888 -0.2105607 0.099842906 0.14506623 -0.08155049 0.11271617 0.27964732 -0.019077793
-0.06701162 -0.2287276 0.00096322154 0.23734772 -0.10862017 0.108611 -0.12787619 -0.09760921
0.0043240846 0.06325712 -0.06840091 -0.025085673 -0.12531295 -0.11030108 -0.08390691 0.25506526
-0.32900771 0.15170847 0.07194329 -0.0048205187 0.053330183 0.08860054 0.07492334 -0.3523984
0.03947884 -0.06051148 -0.12932816 0.41858894 0.24869256 0.0048147347 -0.38375184 -0.27296183
0.029041467 -0.02510834 -0.2806992 0.20464759 0.13975517 -0.1010651 -0.22656323 0.04465565
0.0030688553 0.10058192 -0.31042612 -0.07785288 0.02127704 0.094041884 -0.11888063 0.022260917
0.21117748 -0.12554231 -0.20252787 -0.027377205 -0.041926693 -0.06284759 0.078854054 -0.16700827
-0.096961595 0.11382652 -0.2961087 0.30187368 0.25839695 -0.05848093 0.158192 -0.3034466
-0.18151948 -0.35361305 0.18339154 -0.20316824 0.047699366 0.18035927 -0.12867141 0.028977608
0.13249917 0.2675035 -0.124476284 -0.1210701 0.044602778 0.04251014 0.06970358 -0.18365848
0.04905516 0.12190289 0.11742781 0.13539213 0.06994224 -0.04914664 0.19595931 0.13548875
-0.017881967 -0.098487005 0.15635093 0.28825134 0.10263103 0.10365804 -0.29371876 0.282474
0.09010828 -0.016484248 -0.04268297 0.062034193 -0.07654799 0.054562353 0.21529026 0.1264413
-0.2499786 0.202612 0.0031586047 0.1038185 -0.024420215 -0.097893566 0.0717196 -0.065522864

network_body.linear_encoder.seq_layers.2.bias f4 [64]
00000000: 469e 07be 7547 6b3d 2b04 a53d 0947 9bbd
00000010: 5b4b c73c 701a f73c a2f7 d5bd d37b 053d
00000020: 20f5 793d 5475 183d a85e 523d a75c 2c3d
00000030: 92ee 2dbc d614 13be 25b5 943d feaa b43d
00000040: 3dc2 0ebc 2069 68bc a44b 063e 7fbb 25bc
00000050: 96d4 b43d 238e 373d 7cd0 a23d b6c8 8c3d
00000060: 515c d73c db3e 413d 778c 1f3d 3e6a c13b
00000070: 0832 4bbd fb65 b93d aba1 0f3d e609 5bbd
00000080: 6fe4 b43d 5e48 b73d 8b09 1d3d fec8 f6bc
00000090: d1f5 cc3d 4663 f7bc 7338 9d3d c151 373d
000000a0: 45ee bfbb 152a bf3d 1bea e8bc e2a5 a13d
000000b0: af26 a73c 79c4 223d c84b f1bb de72 a7bc
000000c0: b0cf cc3d 31d6 313a e38c b63c dd7d 31bd
000000d0: 8936 163d a643 d7bc 475e 263d 998c 15bd
000000e0: 85ba 85bc 29f2 943c 0395 af3d 185f 0e3d
000000f0: 5f45 403d 5634 433d 25ae 193c 795d a73c
-0.1324397 0.057441194 0.080574356 -0.07581908 0.024327924 0.030163974 -0.10447623 0.03258879
0.061024785 0.037221268 0.051359802 0.042080548 -0.010615962 -0.14363417 0.07261113 0.08821677
-0.008713302 -0.01418522 0.13114792 -0.010115503 0.0882961 0.044813287 0.079499215 0.0687422
0.026289137 0.047179084 0.038952317 0.0059025576 -0.04960826 0.09052654 0.035066288 -0.053476237
0.08832633 0.0894935 0.03833918 -0.030125137 0.10007823 -0.030198704 0.076767825 0.0447557
-0.0058572614 0.093341984 -0.028431943 0.07892968 0.020404188 0.039738152 -0.00736377 -0.020440515
0.10000551 0.0006783931 0.022283977 -0.043332923 0.036673103 -0.026277374 0.040617254 -0.036511037
-0.016324291 0.018181877 0.085733436 0.034758657 0.046941157 0.047657333 0.009379898 0.020430313

action_model._discrete_distribution.branches.0.weight f4 [675, 64]
00000000: 2321 063e f0a0 b23b df36 58be a46d c63d
00000010: 8743 57bb 7134 aa3d e15f 223e fa86 05bc
00000020: c74c 21bd 34a4 94be 971b 983d 959a 8cbc
00000030: d4db b33c 4787 d93e 8a88 89be 72c6 5abd
00000040: 242b 823d 94e8 873c c11c d0bd 3179 52bd
00000050: 839d bb3d e564 6a3d c104 293e 49d6 1d3e
00000060: 2792 193e d898 bcbd 1ad8 343e e371 963e
00000070: ceee 403e 6525 f5bd 2222 373e 9668 523d
00000080: e440 c2bc 02af b43d 389c e7bc dae4 703e
00000090: 3454 703e b71f e63d f6a4 b03d 075b 433d
000000a0: 53a4 1dbe 978c 4f3c 6a4f 12be 47ed a43e
000000b0: 5548 533e 5ef7 13be 1f51 3fbe f18f a5be
000000c0: e77b 943e 0e0d 883e daba 8a3e 9c69 393e
000000d0: 3e4e 95be cd76 113e 8b52 be3d 4173 d53d
000000e0: 4546 5ebc f240 9e3e fba6 bdbb 856c 983d
000000f0: cff7 6f3e 3e5a 3d3e cfde 10be f7b1 a73d
00000100: c17f 093e fb81 57bd 81d7 bf3d 0f9a bbbc
00000110: 9564 623d ec19 223e 36cb 943d f5b7 013b
00000120: 2fd5 263e fbe5 72bd 88b8 193e 7940 003e
00000130: 0b4b 0d3e 5518 cf3e cca7 4c3d 6ec1 3f3c
00000140: b5dc 41bb 5d1a 343e df61 9bbd 1510 b33d
00000150: 1332 5f3d 8c58 a03d 76d6 a0bd 0ede 373e
00000160: 993d 783e a459 3bbd 8cb1 643e bdcf 733e
00000170: cfaa 94bc bb5d 6c3e 3539 3dbe 216d bbbd
00000180: 7acb b83c f540 0b3e 2ee6 0f3d b125 0d3e
00000190: feed f53c 6c13 673e 82cc 093d 63c2 c5bd
000001a0: 8e1b f13d 3c69 953c ccea 883d e343 0f3e
000001b0: 1a17 813e 160d 26be 9f0c 1fbe 4da0 64bd
000001c0: 1b58 0e3d 9aba 3d3e a6f2 153e 9e7f fe3d
000001d0: 421a 9a3d 9224 413d f049 143e bd82 c9bd
000001e0: 52c9 69bd 033a 2b3e 93b4 a63d 3f3f 0e3d
000001f0: a850 6e3e b00d 0bbb 69d8 8abe b9e0 90bd
00000200: 8117 af3d db77 4dbb 48f5 153e 2c1f 1b3e
00000210: a8d8 3bbd ccd8 7a3e 62c6 debc 1579 5bbe
00000220: 2164 613d b5eb 34bd c5fc 01be 1d9d 553e
00000230: d9cd 223c fd8c 463e 9429 363c 8fdd d03d
00000240: 4c68 d93d ee50 083e 744b 0f3e c21e 82be
00000250: 2984 f7bd 2d53 c5bd 140d cf3d c7f4 3a3e
00000260: 2514 4f3e e918 743e 7b9c e53d 3d9a 1abe
00000270: 511c 7a3e b995 683e b939 e0bd d984 28be
00000280: 73b4 5fbe df97 893d 4e14 9cbd 99e5 1bbe
00000290: f90c 15be bfe4 523e 8f06 dbbd ea35 dd3d
000002a0: 6d5c 87bc 95f7 1dbd 34ea 483d d140 cfbd
000002b0: d1e2 7e3e 2179 383e f36d 3fbe fec3 5dbb
000002c0: 6f79 a03d 6577 ae3e 11f5 823e b15b c5bc
000002d0: f8d4 65bd 8147 3fbd 9993 543d bf2e 4f3d
000002e0: 27b3 08be 05b1 863d ec46 cbbd 6a39 d83c
000002f0: 46e3 0f3e 30d9 8e3c a515 053e a6c4 55bc
00000300: 0cc7 82bc 8f75 18bc 9ddd b7bd 2bbd 983d
00000310: 041d f0bd 0e26 7b3e 025b 76bd 17fd abbc
00000320: 87e4 59be 2f17 aa3e 61f1 4e3e 37b9 133e
00000330: dbfc 703d 809e 113e 038e 83be de89 683e
00000340: e63a 183e 766d ff3d 1b80 be3e 2d9c 36be
00000350: 325c 873e 9e04 a43d 729b 553e 7f67 533d
00000360: f685 91bd 64e4 cabd bb1a 27be c1ff 0ebc
00000370: 6bb7 dc3d 6494 a1bc b6af 11be ef77 523d
00000380: 4646 0b3d b75a 8b3c ed03 08be 246f 0dbd
00000390: 5e33 c23d 5510 353e fd04 e0bd a0c5 66bd
000003a0: aec6 0c3e 1915 6f3e 8035 1ebe 3d2b 2ebd
000003b0: 6703 a9bd 6784 3cbd e5f3 64be 5a40 253c
000003c0: 89ed 9cbd 2070 7e3c 5560 9abc cd4d bebd
000003d0: 7ab9 35bc 71c8 913d de49 d6bd c3fc de3c
000003e0: af26 3d3c 10ae 343e 4ed4 103d 1721 cdbd
000003f0: d987 d1bd 0052 9b3e 60e4 063e 6863 223d
0.13098578 0.005451314 -0.21114682 0.09688881 -0.0032846646 0.08310784 0.15856887 -0.008149857
-0.03937986 -0.29031527 0.07427137 -0.017163554 0.021955408 0.4248602 -0.26861984 -0.05341191
0.06355885 0.016590394 -0.10161734 -0.05138511 0.09160902 0.057225127 0.1650572 0.15413775
0.14997159 -0.0920884 0.17660561 0.29383764 0.18841097 -0.11970023 0.17884114 0.051369272
-0.023712583 0.088224426 -0.028272733 0.235248 0.23469621 0.11236518 0.08625214 0.047694232
-0.15394716 0.012667797 -0.14288107 0.32212278 0.20633061 -0.14449832 -0.18683289 -0.3233638
0.2900078 0.2657246 0.2709568 0.18106693 -0.29161257 0.14205475 0.092930876 0.104223736
-0.013566558 0.30908924 -0.005787728 0.074425735 0.23434375 0.18491456 -0.14147495 0.08188241
0.1342764 -0.052614193 0.09367276 -0.02290061 0.055271704 0.15830201 0.07265322 0.0019793485
0.1629226 -0.059301358 0.150118 0.12524594 0.13798158 0.4044825 0.04996471 0.011703832
-0.0029581015 0.17588182 -0.07587027 0.08743302 0.054491114 0.07829389 -0.07853405 0.17955801
0.24242248 -0.045739785 0.22333354 0.23809715 -0.018147854 0.2308263 -0.18478854 -0.09151674
0.022557963 0.13598998 0.035131626 0.1378391 0.03002071 0.22566003 0.0336423 -0.09656217
0.11772834 0.018238656 0.06685409 0.1399074 0.25212938 -0.1621593 -0.15532158 -0.055816937
0.034751993 0.18528214 0.14643344 0.12426685 0.075245395 0.047154017 0.1448133 -0.098393895
-0.05707676 0.16721348 0.081399105 0.034728285 0.23272955 -0.0021217875 -0.27118233 -0.070741124
0.08549405 -0.0031351957 0.14644349 0.1514861 -0.045860916 0.24496764 -0.027194206 -0.21432908
0.05502713 -0.0441701 -0.1269408 0.20860715 0.009936773 0.1938972 0.011118311 0.10198509
0.10615596 0.13312122 0.13993627 -0.2541409 -0.120857544 -0.09635005 0.10109916 0.18257438
0.20222528 0.23837627 0.11211487 -0.150979 0.24424864 0.22713365 -0.1094851 -0.16456927
-0.2184618 0.0671842 -0.0762106 -0.15224303 -0.1455573 0.20595072 -0.1069461 0.10801299
-0.016523564 -0.03856619 0.04905148 -0.101197846 0.24891211 0.18014957 -0.18694286 -0.0033838744
0.078356616 0.34075466 0.25577596 -0.024091573 -0.056111306 -0.04669905 0.051898573 0.05058169
-0.13349591 0.065767325 -0.09925637 0.026394565 0.14051542 0.017437547 0.12996538 -0.013047373
-0.015964054 -0.009305372 -0.08977816 0.07457956 -0.11724284 0.24526235 -0.060145386 -0.020994706
-0.21278583 0.33220813 0.20209266 0.14426123 0.05883489 0.14220619 -0.25694284 0.22708842
0.14866218 0.1247205 0.37207112 -0.17833014 0.26437527 0.08008693 0.20860079 0.051612373
-0.07105629 -0.09906843 -0.1631879 -0.008727969 0.10777172 -0.019724078 -0.14227185 0.05138391
0.034002565 0.01701103 -0.13282748 -0.03452982 0.09482454 0.17682011 -0.109384514 -0.056340814
0.13747665 0.23347892 -0.15450096 -0.042521704 -0.08252602 -0.046024706 -0.22358663 0.010086143
-0.07662494 0.015529662 -0.018844763 -0.09292183 -0.011091584 0.07118309 -0.10463308 0.027220136
0.011544867 0.17644525 0.03535872 -0.10016077 -0.10230989 0.30336 0.13173056 0.039645582

action_model._discrete_distribution.branches.0.bias f4 [675]
00000000: 5ad3 a63c 1ed1 e2bd a610 e33c c138 bb3d
00000010: 66ad ce3e 6291 093e 2675 ea3d aec7 1c3e
00000020: 11c2 b03d da00 b23d b84e 1e3e 36dc 163d
00000030: bf83 a33d 12f2 363e 2dbe 2a3e 443d 153d
00000040: 0f59 4c3e f4d4 333e 2c97 eb3d 6fba 473e
00000050: 8674 3c3e fc80 043e 8d59 903d 6b0b 453e
00000060: 7e4d 8b3c 88f5 c53d 935b 143e 6d8e 553e
00000070: 4bfd 44b7 7cb0 1ebd 6973 9f3d e0e2 e5bc
00000080: 8fb1 ff3d 0ff6 523d 71df 483c 4b58 a83d
00000090: 6bda 3c3c ef79 223e e383 343e 63e6 9b3e
000000a0: c86f 1a3e 6503 003d 07e2 983d 2b3c ec3c
000000b0: 5cc2 113e b4de f13d 991f 093e 45ee 54bd
000000c0: 27c4 533e fcd4 b93d e930 a33d 8ab7 5d3d
000000d0: 6eee 0a3e 3e42 463e ba75 70bd d35e f13d
000000e0: c764 633e 7b41 073e 3e9d 8f3d 4c33 543c
000000f0: 8dba 3f3e 2ff4 0e3e 4d1c 0b3e 0633 f53d
00000100: 8285 0e3e ccad 5c3e 65ac 403e 15ca 443e
00000110: 343b a13d 33a9 e33d 9344 313d 6e42 763e
00000120: f69e 843d 3ef1 0c3e 8c86 2e3d 9d32 e83d
00000130: b874 0fbd da9f 3f3e 55b2 6a3d 161c a43a
00000140: acc7 9c3d 6dfd d73d 9786 503e ade8 9e3e
00000150: 6a98 273e 48d1 863d 908c 803d 3917 e6bb
00000160: 6248 a73d 3f2a f03d 1801 943c 5271 963d
00000170: 63d3 023e f8fc 643e 839d 163e 458b 293e
00000180: a65c 06bc c6f1 613e a670 013e a58b 883e
00000190: d584 e83d f089 fa3d b704 8c3c 0609 5c3d
000001a0: 7513 773d 5863 dc3d 5d45 133e 7615 143d
000001b0: 8ad6 1b3e 884c 4b3e c3ee 763e a7a9 413e
000001c0: 95b5 563d 4460 053e c9f3 4c3e 880e e83d
000001d0: 148e 5cbb 9df8 b13d da5e 803d d448 4f3e
000001e0: 4334 8b3d d53b 8bbd a4e2 1b3e b9ee a53d
000001f0: e377 3dbd 427c 5c3d af98 133e 89f5 1dbd
00000200: 7f2c 123e b080 133e baf3 7f3e 47b6 f23d
00000210: e63c 1e3e da3d 183e 893f 89bb 09a0 7dbc
00000220: 7491 a93d ce8c 3f3d eb94 a03d 42f3 b23d
00000230: 2f16 403d 7444 533e a4d7 6e3e 184b 043e
00000240: 96af ca3d 6fc0 4f3e 8151 243e 6fb3 003e
00000250: ec7b 2ebe 136a 733e dd28 463e 8ff8 ec3d
00000260: ddd8 163e 9298 5b3e 86d2 433d 430d 633d
00000270: 1b5a 033e f854 823d 356a e13d a418 5d3e
00000280: 7a2d cc3d 1771 323e 02b2 053e c78b 863c
00000290: bade 313e d5ee 913e 9243 883d ab3b 013d
000002a0: 7e2e a2bd fb59 f13d 5959 7c3d 4141 f83d
000002b0: 0963 ef3d 15cf 913b 6401 413e 7ce8 1a3e
000002c0: 8d71 0b3e 71a1 2b3d 720a a83d 3cb7 263e
000002d0: 0568 093e 4fc5 153e 5370 08bb 82eb 543e
000002e0: 7fde 8c3d 8c58 f4bc 2d22 433e 6d5b c93d
000002f0: 5cea 3b3e d122 823d d1c3 9abd b8bb e33c
00000300: 7a40 9f3d 2d3d 173e 1aa4 8c3d f598 293e
00000310: e58d 303e b9b1 0a3e 945c 373e ef1d 9e3d
00000320: f058 503e 0da8 8b3d 7c4b 5c3e d987 e93d
00000330: c105 133e 772e 733e 7200 403d 6723 333e
00000340: 8d86 9f3e 199c 4f3d 9601 293e 0cb4 763d
00000350: 64f7 323d 143c b63d 6b7e 863d cc7a e73d
00000360: 94f2 0d3e b2c7 0d3e 7057 6f3e cfb3 ce3d
00000370: 13a7 3d3e 0d5f 063e 9ce8 553d 4d3e 5b3e
00000380: 3574 833e 3518 b23d fa4e 2e3d 7515 ca3c
00000390: 76d4 833d 150d 0b3e ed59 f83d 3ae4 b73d
000003a0: 5711 2a3e 81d8 693e c947 8d3d 9c96 133e
000003b0: af83 ed3d 93df 003d 6a41 cbbc 5424 db3d
000003c0: 0f38 193e e37d dc3b 715f ca3d 0ec2 803d
000003d0: 041e 713e c186 fe3c 8a13 513e dd44 0f3e
000003e0: 30c6 e73d 4948 aa3d 6ab1 843e fec0 0c3e
000003f0: e1e3 fd3d 4ea6 e13d 8248 d03d b540 f03d
0.020364452 -0.11075042 0.0277179 0.09141684 0.40366668 0.13434365 0.114481255 0.15310547
0.08630765 0.08691569 0.15459716 0.036831103 0.07984113 0.1786578 0.16674109 0.03643538
0.19955848 0.17561704 0.11503443 0.19504713 0.18403825 0.12939829 0.070483305 0.19242637
0.017004725 0.09665972 0.14488058 0.20855112 -1.1741485e-05 -0.038742527 0.077856846 -0.028062284
0.124850385 0.05150419 0.012260304 0.082199655 0.011526684 0.15866826 0.17628436 0.3044921
0.15081704 0.031253237 0.07464986 0.028837284 0.14234298 0.118100554 0.1339096 -0.051985044
0.20680295 0.09073827 0.07968313 0.054130115 0.13567516 0.19361207 -0.058706023 0.117856644
0.22206412 0.13208573 0.070124134 0.012951683 0.18723507 0.13960336 0.13585015 0.119726226
0.13918117 0.21550673 0.18815763 0.19217713 0.0787262 0.111162566 0.043278288 0.24048778
0.06475632 0.13763902 0.042608783 0.11337779 -0.03502342 0.18713322 0.057298977 0.0012520577
0.07655272 0.10546384 0.20363842 0.31036893 0.16366735 0.06582886 0.0627681 -0.0070218113
0.08168103 0.11726808 0.018066928 0.07345833 0.1277595 0.22362125 0.14708523 0.16557033
-0.0082008 0.22064885 0.12640628 0.2666904 0.11353461 0.12233341 0.017092092 0.053719543
0.06032129 0.10761136 0.14381929 0.03615328 0.15218559 0.19853413 0.24114518 0.18912373
0.052419264 0.13025004 0.20014872 0.113308966 -0.003365402 0.08689997 0.062680915 0.20242625
0.067970775 -0.067985214 0.15223175 0.08102173 -0.04625691 0.05382944 0.14413713 -0.03856424
0.14274786 0.14404559 0.24995318 0.11851173 0.15452918 0.14867344 -0.004188482 -0.01548005
0.08279696 0.04676514 0.07840904 0.08737804 0.046896156 0.20631582 0.23324448 0.12919271
0.098967716 0.20288251 0.16046716 0.12568448 -0.1703946 0.23770933 0.19351526 0.11570846
0.14731164 0.2144492 0.047808193 0.05543257 0.12827341 0.06363863 0.110065855 0.21591431
0.099696115 0.17425953 0.13056186 0.016424073 0.1737012 0.28502527 0.06653513 0.031551044
-0.07919024 0.117847405 0.061608646 0.12121821 0.11688811 0.004449735 0.18848187 0.15127748
0.13617535 0.04190201 0.08205117 0.16280836 0.13418587 0.14626049 -0.0020818904 0.20792964
0.06878375 -0.029827379 0.19056006 0.09831891 0.1835112 0.06354297 -0.0755688 0.027799472
0.0777597 0.1476943 0.068672374 0.16562255 0.17241628 0.13544358 0.1790641 0.07720553
0.20346427 0.068191625 0.2151317 0.11402864 0.14357664 0.23748194 0.046875425 0.17493974
0.31157342 0.050685976 0.16504511 0.0602303 0.04369296 0.08898178 0.06567081 0.113027185
0.13862067 0.13845709 0.23373199 0.100928895 0.18520765 0.13122196 0.052223787 0.21410485
0.25674596 0.086960234 0.042555787 0.024668435 0.06437008 0.13579209 0.12126527 0.08979078
0.16608177 0.22836496 0.068984576 0.14412922 0.11597382 0.031463217 -0.024811465 0.107002884
0.14962791 0.006728874 0.09881485 0.06287013 0.23546606 0.031070115 0.2041761 0.13991113
0.11317098 0.083145685 0.25916606 0.13745496 0.1239698 0.11018048 0.1017008 0.11731092

critic.network_body.linear_encoder.seq_layers.0.weight f4 [64, 96]
00000000: ba90 173f ad28 943b d260 373e f39b 273f
00000010: 3b10 9abe 0c25 aebe a8a1 fabd b8cc f53e
00000020: 3b6a adbd 5442 cdbe c7fe 4b3d aae8 063e
00000030: a302 0ebe 52b1 56bd 3fbf 86bc db3b 753e
00000040: ac9a 6cbe 618d c7be f002 98be 0746 ccbc
00000050: 4253 953c b824 3fbe 96f4 4e3e e7cc 0b3e
00000060: 6302 34be 92d0 c5be 20a8 91bd 6402 7bbd
00000070: b894 4cbc 95b8 cfbe ca1a d7bd 4f20 003e
00000080: 2fa4 c0be 193a 80be 3318 abbe 8126 2abe
00000090: e554 d6be b34d f3be c77f cdbe 272f 1abf
000000a0: c722 f3be f178 cbbe 93df eebe 061b 81be
000000b0: 8b41 ddbe cd99 1cbe 0d1e 0ebf 7661 86be
000000c0: b658 a4be 9b51 23be 3383 e6be e11f e0be
000000d0: 6fba 76be 3f95 c3be 81c7 f2be afc6 9fbe
000000e0: 75a0 bcbe d056 85be 67ac e7be 11a5 c5be
000000f0: e578 8cbe 9175 93be 5b5f a7be cb7d c4be
00000100: 4f88 b33e 56b0 013e 6e35 973d b2d7 f33e
00000110: b873 863d aff5 143e 8d77 683e c0b0 973e
00000120: 9a3b b93a b8b1 e8bd cfd1 d63e c431 953e
00000130: cb42 7d3c 6858 93bd 7351 c73c 6cfa 933e
00000140: 8ca8 88bd 5898 9dbe 74fa 9f3d edc3 a73e
00000150: 024e 9bbe b801 82be 0415 23bd c23e f93d
00000160: ccb5 473c 9fd1 c6be 4070 48bd 0801 4bbd
00000170: 92b3 9bbe 4c07 d9be a8c2 37be 2344 75be
00000180: 4073 f73e 53d8 853e ff3e 083f 4e8c 953e
00000190: 9067 fcbe 217c acbd a2e1 0a3d 37f3 723e
000001a0: 18b4 bfbd 0da9 0fbe cb8e 8cbe 9457 74be
000001b0: 9797 4fbe 7687 f33d 7f69 9fbd 617a cebc
000001c0: 2af0 aabc 3df6 37be baf9 aebe 2a6c 3bbe
000001d0: 8446 80bd 354a 29bc 839a 0b3d 5c14 bc3d
000001e0: 153f 8ebe 7d74 67be 63a7 65be bb4f 3dbe
000001f0: 4de0 bcbc d6c5 b03d 1db2 fdbb f6bc 563d
00000200: e0f8 0dbf 2a15 01bf 412e 10bf 23aa 05bf
00000210: fecb afbe 7e70 e9be d8b1 01bf 6ac5 a6be
00000220: e0ad fcbe 76e5 e6be bfad 14bf 4d67 0ebf
00000230: 904e c5be f144 11bf e4f0 d8be 284c e6be
00000240: 4219 b6be 2e39 13be 94ee a7be 3bad 00bf
00000250: 114c 06bf 276c 0fbf 6c7c 07bf 3b57 2fbf
00000260: c42c 20bf 681b 1abf 3489 ffbe 8808 9abe
00000270: d890 ddbe 2207 e8be 8ab2 09bf e427 afbe
00000280: 4bf9 efbd 9854 923d 902f 22bd 0f6f 0d3e
00000290: 69fc a03e 32e5 453e 278b 3f3e adeb 0c3e
000002a0: 03aa 96bd c5ad 7cbe 3a79 403e 9352 2f3d
000002b0: 0dbb 40bd 92e1 a83c ec76 e5bd 405a ffbd
000002c0: d27e 4abe d5f0 2ebe 004a 02be 7522 55bc
000002d0: 6341 62bd 0e53 36be 2f94 22be 7196 d3bd
000002e0: dc85 6ebe 7211 d6be 85d4 74be 71a1 ccbe
000002f0: fefa 83be f3f5 b3be eb8f fa3d 6d06 adbe
00000300: d8e6 f43e 13f7 44be 0188 083e 0598 bc3e
00000310: b3cf b1be b69e a4bd 1a34 e7bd 7fae a43e
00000320: ff54 97be 6d46 1dbe 78fe 15bd 940c e73b
00000330: eb99 04bf 753e a0be 944f ed3d 430e 013e
00000340: aff7 39be 68b3 adbe 8d7c d2bd 4928 89be
00000350: 160e 60bd c811 a73d f8e5 b4bd 6971 4bbd
00000360: bc52 12bf 7487 a1be 49b9 adbe f780 52be
00000370: abfe 31be c931 abbb 01a7 0f3d f124 6dbe
00000380: b3d8 68be bf9e f0be 635e bfbe 19fb eebe
00000390: ef04 73be 7331 cebe 536a c9be 7579 a1be
000003a0: 77f5 3fbe bffb d0be 61b6 c9be 6b06 d2be
000003b0: 0708 a2be 1b78 48be 2db0 80be d559 58be
000003c0: 4b7a ccbe 8dd9 4bbe d53a 78be 53f6 88be
000003d0: cd23 b2be 8548 d0be fe93 84be 9c48 0bbf
000003e0: 772c 50be 5fbe 91be 3599 91be 4dd0 b6be
000003f0: 0b19 bdbe c73d b4be a79c 22be 3796 f6be
0.5920521 0.0045214505 0.17908028 0.65472335 -0.30090508 -0.3401264 -0.12237865 0.4800775
-0.084675275 -0.40089667 0.04980352 0.13174692 -0.13868193 -0.0524152 -0.016448615 0.23948614
-0.23105878 -0.3897505 -0.2968974 -0.024935735 0.018228177 -0.18666351 0.2021049 0.13652383
-0.17579035 -0.3863569 -0.071121454 -0.061281577 -0.012486629 -0.40570512 -0.105031565 0.12512325
-0.37625262 -0.25044325 -0.334169 -0.1661625 -0.41861644 -0.47520217 -0.4013655 -0.602282
-0.4748747 -0.39740708 -0.4665495 -0.2521593 -0.43214068 -0.15293045 -0.55514604 -0.26246232
-0.3209893 -0.15949099 -0.45021972 -0.43774322 -0.24094556 -0.38199803 -0.47417834 -0.3120627
-0.3684117 -0.26042795 -0.4524872 -0.38602498 -0.27435985 -0.28800634 -0.32689938 -0.38377222
0.35064933 0.12664923 0.07383238 0.476255 0.0656504 0.14546846 0.22701855 0.29627037
0.0014132143 -0.11362022 0.41956946 0.2913953 0.015457819 -0.071945965 0.02433083 0.28901994
-0.06672773 -0.30780292 0.07811442 0.32766667 -0.30332953 -0.25391936 -0.039814964 0.12170173
0.01218934 -0.38831803 -0.048935175 -0.04956153 -0.3041044 -0.4238838 -0.17945349 -0.23951773
0.48330116 0.26141605 0.53221124 0.29208606 -0.49297762 -0.08422113 0.033906586 0.23725592
-0.09360522 -0.14029332 -0.27452692 -0.23861533 -0.2027267 0.118910715 -0.07783794 -0.02520484
-0.020866472 -0.17965026 -0.341749 -0.1830298 -0.0626345 -0.010332634 0.0340829 0.09183571
-0.27782503 -0.2260303 -0.22427134 -0.18487446 -0.023056174 0.08631484 -0.00774218 0.0524263
-0.5545788 -0.5042292 -0.5632058 -0.52212733 -0.3433532 -0.45593637 -0.50661993 -0.3257249
-0.49351406 -0.4509694 -0.58077615 -0.55626374 -0.385365 -0.5674582 -0.42371285 -0.44979978
-0.35566145 -0.14377281 -0.32799208 -0.5026433 -0.5245982 -0.560244 -0.5292423 -0.6849248
-0.62568307 -0.6019807 -0.49909365 -0.30084634 -0.4327457 -0.45317942 -0.53788054 -0.34210122
-0.11717471 0.07145041 -0.03959614 0.13811897 0.31442574 0.19325712 0.18705426 0.13761778
-0.07356646 -0.24675663 0.18796244 0.04280336 -0.047053386 0.020615373 -0.11204323 -0.12468386
-0.1977494 -0.17084058 -0.12723541 -0.0130087035 -0.05523814 -0.1780512 -0.1587684 -0.10331429
-0.23293251 -0.41810185 -0.23909195 -0.3996692 -0.2577743 -0.35148582 0.122344814 -0.33793965
0.4783237 -0.19234876 0.13333131 0.36834732 -0.34728774 -0.08038084 -0.112892345 0.3216438
-0.29557034 -0.15358897 -0.036619633 0.00705106 -0.5179736 -0.3129765 0.11587444 0.12603097
-0.1816089 -0.3392594 -0.102776624 -0.26788548 -0.054700933 0.081576884 -0.088329256 -0.049668703
-0.5715749 -0.31548655 -0.33930424 -0.20557009 -0.17382304 -0.0052244407 0.035071377 -0.23158623
-0.22738914 -0.46996114 -0.373767 -0.46675947 -0.23732351 -0.40272102 -0.3933893 -0.31537977
-0.18745981 -0.40817067 -0.39396957 -0.41020522 -0.3164675 -0.19577067 -0.2513441 -0.21128018
-0.39937052 -0.19907208 -0.24241193 -0.2675043 -0.3479294 -0.40680328 -0.2589416 -0.5440767
-0.20329462 -0.28465554 -0.284372 -0.35705796 -0.3693317 -0.35203382 -0.1588007 -0.4816148

critic.network_body.linear_encoder.seq_layers.0.bias f4 [64]
00000000: 5b40 c93e 4c13 eb3e b514 ae3e a774 cf3d
00000010: b6d2 593d 2123 d03e ed74 bb3c e678 bf3e
00000020: a7ad be3e cf0d e73e 8d75 df3e 1729 d33e
00000030: 1aa4 8c3c 712a cf3d 40e1 1c3d 8434 e23d
00000040: a311 cf3d aaf1 dd3e 2618 3e3e c9e6 493e
00000050: 7913 043f d65e 713d 7abe a43b e389 9d3d
00000060: 0e14 193d 80a5 c13d 2741 ab3e fae9 82bd
00000070: 3fc6 973d 97cd bfbb 4b65 d63e da17 cf3e
00000080: 75f9 c83e e95c e53c 9c4c 583d 7642 df3d
00000090: 7c57 ed3e 0182 ef3e a9dd a13e c538 083f
000000a0: 581e b83e 4a98 a63d 80e9 e03e 41d0 82bd
000000b0: 8027 48bb c2a9 bf3e 31dd c23e 3467 f63d
000000c0: 4134 023f 362d b1bc 1fd1 cd3e 3d10 c7bc
000000d0: cbef fb3e e24b ca3e 923f 3d3d 56ea 083d
000000e0: 0d5e c83e 7528 c53e 8e39 ed3e b26c bf3d
000000f0: d1d2 ffbc acf2 a9bc 9cd8 a73d 6089 323d
0.39306912 0.4591316 0.34000173 0.101296715 0.053179465 0.406518 0.022882903 0.37396926
0.3724186 0.45127723 0.43644372 0.41242287 0.017168093 0.10115517 0.038300753 0.11045173
0.10110786 0.43348438 0.185639 0.19716944 0.5159221 0.058928333 0.0050275894 0.076923154
0.03737264 0.09455395 0.33448145 -0.06392284 0.07410859 -0.0058533656 0.41874155 0.40447885
0.3925282 0.027998405 0.052807435 0.10901348 0.46355808 0.46778873 0.31614426 0.53211623
0.3596065 0.081345156 0.43928146 -0.063873775 -0.0030541122 0.37434202 0.3805938 0.12031403
0.50860983 -0.021628004 0.4019861 -0.024299735 0.49206385 0.3951102 0.046203203 0.033426605
0.39134255 0.3850743 0.46332973 0.09346904 -0.031228455 -0.020745598 0.08195612 0.043588042

critic.network_body.linear_encoder.seq_layers.2.weight f4 [64, 64]
00000000: bbb3 0a3f d723 af3e ffd7 db3e 60e8 94be
00000010: e83e d8be e68b 893e b28f 57be fb85 5b3e
00000020: 32c5 e63e a33e 333e 3821 e93e 2f48 173f
00000030: d67e 33be e0e2 c4be 8b2c 8ebe 418e afbe
00000040: 86aa d2be 68ff ea3e 8404 973e a1b0 773e
00000050: c7cc da3e 624c 4bbe 8235 813e 9663 aabe
00000060: 7eb8 81bd 284b 8cbe aef5 053f 2d50 a2be
00000070: e6ad 0dbe ae38 13bf d8fc fe3e 2dab e43e
00000080: 4ee8 3a3f b021 68be e102 61be d7ac 84be
00000090: f9ae b83e 3cf1 3b3f 6556 ae3e f6d2 cb3e
000000a0: a6e0 423f 9b87 7dbe f149 d83e 67e3 11bf
000000b0: 06ed 3cbf 1540 0d3f fd07 bc3e 79a6 a0be
000000c0: a1e2 c93e edd8 543e 5c4b 203f 52d9 adbe
000000d0: f23b 103f 5463 123f be60 0abf d443 edbe
000000e0: c2fb 6a3f a598 0d3f 5c9c 0b3f d82f d03e
000000f0: 8bf1 2f3d ea1f 893e e6f4 c7be 3683 21be
00000100: 8af4 203e e931 283e ddc1 0ebe e950 6e3e
00000110: 1c22 3d3e 863b 033d 703e bc3d 1c95 68be
00000120: 4ba3 903d 0395 853e d3eb f43c f0bc b33c
00000130: eb15 c33d cd04 013f 4532 303e 5efa 583e
00000140: c7bc dd3e d268 93bd 1848 1fbe ed05 de3e
00000150: d2da 833e d7ef 8e3e 3a63 00bf 4fe8 8a3e
00000160: fc44 193e 1a05 bb3e d4b9 873d bed0 a13d
00000170: 5a51 c73e 17cf 9cbd 8245 1f3c b0bc ed3d
00000180: 57de 7bbd 9444 163e 934a c13e 725c 073f
00000190: f5a6 bf3d c544 a2bb a5b1 9e3d 524f 6a3c
000001a0: 730d 90bd 7510 7e3e e671 d33c e4c5 b13d
000001b0: 3370 1bbe 7c45 1c3d 8a95 85be 2ed9 433e
000001c0: 2fd0 353d 6f62 c8be efe8 f1bc 7294 8bbd
000001d0: 57d6 b43d 2f35 99bd c28e ce3e e5cf 20bd
000001e0: 718e 3f3e 5b46 91be 5a83 693c edd0 9ebe
000001f0: 9197 71bd 416a f3be 45b2 273f f385 643e
00000200: 9911 813d bf63 473e bbef f83c 3e22 033f
00000210: d650 443d 0209 8e3e 959a 9b3e 0b6d c8bd
00000220: 250b 9c3c a84d 8d3e 9351 16be c38f b43d
00000230: 4de0 723e 32fe c83d 1c4f 6e3e 4d18 a23e
00000240: a151 a13e 920c b1bd 967f 17be aa0b 7c3e
00000250: 733b a33e bfee e73e b4e7 cbbe e4ca a63e
00000260: 598c c73e e1e8 7f3e 3491 51be fb57 4c3e
00000270: 8dc9 003e 9784 693d 117c a6bd bf10 c7bd
00000280: c82d f5bd 2d04 2dbc 5594 fe3d 2bb4 623e
00000290: 3c70 4d3e 854a 233e f3b3 f83d 5285 6d3e
000002a0: 6377 17be b4dc a73e 7630 193d 7ff1 3e3e
000002b0: eab6 d83c a440 76be 147c 10bd 3636 e63e
000002c0: aa96 a13e 8e0b 51be 3fea 57bd 11d8 3fbd
000002d0: e5ca 973e 219c c43c 5464 903e 6efa c83b
000002e0: be0f edbd 2a3c cfbe 1218 47be ec03 40be
000002f0: 0954 9dbe b532 eabe e8e9 ab3e 494a 003f
00000300: 773d 223d cedc 613e 1d54 9dbd 9e8c 513e
00000310: 7686 87bd 185a 523e de84 05be 93da 27be
00000320: 19ab e83c 5d5f 9c3e 49de c4bd 77a5 8c3e
00000330: 913c a73c a528 8b3e 7b31 9b3e 7c02 073f
00000340: 6f39 8b3e 96ff 1cbe 37d3 10bc 9cf0 8a3e
00000350: 0509 133e 7e29 813e 5a2b bdbe 9e4f 033e
00000360: e81d 803e 00bd 8b3e 03bb 83be f89a 5b3c
00000370: 0832 a13e 388e 343e 3d6e c03c 00ab 9bbd
00000380: 28a2 41be c881 c33e c1ba 6a3e 7c48 ae3e
00000390: a6f1 323c 2d7c d73d 1e63 9f3e a457 e23e
000003a0: ebd4 40be feb9 e03e a128 ec3d f48f 7c3e
000003b0: 166c 6d3d 81cd 77be c926 513d 5d86 c83e
000003c0: 0c87 67bd 6c24 64be 450b 1fbe fe78 613d
000003d0: d672 38be 00d6 da3b 8447 ce3e de14 ec3d
000003e0: e382 07bc 8c70 a53d 2dc8 763e d7be a9be
000003f0: 5280 9cbe 342b 9fbe 5000 b43e d4b1 8c3e
0.54180497 0.3420703 0.4293823 -0.29083538 -0.42235494 0.26864547 -0.21050909 0.21437828
0.45072323 0.17504363 0.45533156 0.5909452 -0.17528853 -0.38454342 -0.2776836 -0.3428822
-0.41145724 0.45897985 0.29495633 0.24188472 0.42734358 -0.19853356 0.25236136 -0.33279103
-0.06334017 -0.2740109 0.52328 -0.31701794 -0.13835868 -0.5750836 0.4980228 0.44661847
0.7301072 -0.22669101 -0.21973754 -0.25913116 0.36070994 0.7341497 0.3405029 0.39809388
0.76124036 -0.2475876 0.42243913 -0.56987613 -0.7379917 0.55175906 0.36724845 -0.3137701
0.39430717 0.20785876 0.6261499 -0.33954865 0.5634147 0.5718281 -0.54053867 -0.4634081
0.917904 0.5531104 0.5453546 0.40661502 0.042954963 0.2678216 -0.3905403 -0.15772709
0.15718284 0.16425289 -0.1394114 0.23273052 0.18470043 0.032039188 0.091915965 -0.2271313
0.07062396 0.2609025 0.029897606 0.021940678 0.09525665 0.5039795 0.17206676 0.21189258
0.43308088 -0.07197727 -0.15554845 0.43363896 0.25752884 0.27917358 -0.5015141 0.27130362
0.14967722 0.3652733 0.06627241 0.079011425 0.38929254 -0.07656687 0.009721162 0.11608255
-0.061491337 0.14674598 0.37752208 0.52875435 0.093580164 -0.0049520456 0.07748727 0.014301138
-0.07033815 0.24810965 0.025811147 0.08680323 -0.1517952 0.038152203 -0.26090652 0.19125816
0.044387992 -0.391376 -0.029530017 -0.06815423 0.088299446 -0.07480847 0.4034329 -0.039260764
0.18706681 -0.2837399 0.014252508 -0.31018773 -0.058982436 -0.47542003 0.6550639 0.22316723
0.063021846 0.19471644 0.03038775 0.51224124 0.047928654 0.27741247 0.30391374 -0.09786423
0.019048283 0.2759831 -0.14679556 0.08816483 0.23718376 0.09814109 0.23272365 0.31659165
0.3150759 -0.08644976 -0.14794764 0.24613824 0.31881294 0.45299336 -0.39825213 0.32576668
0.38974264 0.2499118 -0.20465547 0.19955437 0.12576886 0.057011213 -0.081291325 -0.09719991
-0.11971623 -0.010560078 0.12430636 0.22139041 0.20062345 0.15946396 0.121436976 0.23195389
-0.14791636 0.3278557 0.03739973 0.18646811 0.026454408 -0.24048096 -0.03527458 0.44963235
0.3156026 -0.20414564 -0.05271363 -0.046836916 0.29646984 0.02400023 0.28201544 0.006133369
-0.11575268 -0.4047559 -0.19442776 -0.18751496 -0.30728176 -0.4574181 0.33576894 0.5011335
0.0396094 0.22056887 -0.07682059 0.20463797 -0.06617443 0.2054218 -0.13038966 -0.16391973
0.028401898 0.30541506 -0.0961271 0.2746999 0.020414623 0.27179447 0.30311188 0.52738166
0.27192256 -0.15331873 -0.00883942 0.27136695 0.1435891 0.2522697 -0.36947137 0.1282334
0.25022817 0.27292633 -0.25728616 0.013403647 0.31483483 0.17632377 0.023490066 -0.07600975
-0.18909514 0.38184953 0.22922803 0.34039676 0.010921871 0.105217315 0.31130308 0.4420749
-0.18831222 0.438919 0.11531187 0.24664289 0.057964407 -0.24199487 0.05106238 0.3916501
-0.056525275 -0.22279519 -0.15531643 0.055047028 -0.18012556 0.006678343 0.40288937 0.115274176
-0.008270952 0.08078107 0.24099799 -0.33153412 -0.3056665 -0.3108765 0.35156488 0.27479422

critic.network_body.linear_encoder.seq_layers.2.bias f4 [64]
00000000: c205 c73e 9763 cb3d 6179 c63d 05af a63d
00000010: 81fa cc3e 5bfc cc3e 631f d63e 2f28 c53e
00000020: 6bdd c83e 1a76 c33e 03b4 143d a4fd d83d
00000030: bd1a eebc fbaa fc3c 1be6 933d 918e b03d
00000040: 1bad 8d3d 563f 6c3d b36d a33d 85a3 da3d
00000050: 314a 2b3e 0994 9f3e e99b c73e 38fd d93e
00000060: 874f 9e3d 43a9 263e 8ff3 443d ccfc 14bd
00000070: 970b c93e 81cd bc3d cb75 c93e 5748 a23d
00000080: 41b2 c43e 6d69 fd3c 52d3 bc3d 2f2d be3b
00000090: bdd7 c23e 7f97 2cbd 1f93 9b3d 2d11 cb3e
000000a0: 3b2c 4b3d 1139 d93c 8fe8 2c3d bf8b 643d
000000b0: 83af dd3e 3305 1c3d 1823 133d d222 6b3d
000000c0: 587b 45bd ee91 2b3d 9277 993d 706a ca3e
000000d0: 0763 523d 48c4 4c3e 46f9 f4bb 9f3c c43e
000000e0: 24eb a83d c5da 393d e086 a53d bc27 963d
000000f0: ebbd bbbc c9a5 893d 3b5c d73e 507b d43e
0.3887158 0.09931105 0.0969112 0.08138851 0.4003487 0.40036282 0.4182082 0.3850722
0.39231429 0.38176042 0.036304485 0.10595253 -0.029065484 0.030843249 0.072216235 0.086209424
0.06917783 0.05767759 0.07979908 0.1067572 0.1672752 0.3116763 0.38986138 0.42576003
0.077300124 0.16275506 0.048083838 -0.0363739 0.39266655 0.09218884 0.3934768 0.07923954
0.38417247 0.03093406 0.09219994 0.005803726 0.3805522 -0.042136665 0.075964205 0.39661542
0.04960273 0.02651647 0.042213973 0.055797335 0.43297967 0.038090896 0.03592214 0.057406254
-0.048213333 0.041887216 0.07493509 0.3953433 0.05136397 0.1999675 -0.007476005 0.383275
0.082479745 0.04537465 0.08082366 0.073317975 -0.022917708 0.06721074 0.42062554 0.4150033

critic.value_heads.value_heads.extrinsic.weight f4 [1, 64]
00000000: e2f3 4a3f ed28 cfbe 56e3 1bbf d61c 0abf
00000010: 8b1c 393f 7877 183f ad2a 493f e035 273f
00000020: 999d 583f 14a8 433f 69f0 8fbe a9f7 10bf
00000030: 92b6 b4be a48a cabe 3279 17bf c5df 04bf
00000040: 5b1d 04bf 181c b1be 743f b2be 2ff2 02bf
00000050: 684b 0d3f 0c7e fb3e 1540 503f c57a 453f
00000060: ab80 e4be d805 b33e 422a d8be b107 dfbe
00000070: af10 3a3f 5880 cbbe f71b 3b3f b2dd 12bf
00000080: c46c 363f f0c0 1dbf 8187 afbe a6e3 c3be
00000090: 986f 3b3f 0ffd 593e 1569 96be 8b1d 323f
000000a0: 46c8 06bf eb4d aa3e 9cdc bbbe 67bf ecbe
000000b0: fbb8 3b3f bad5 febe 1d60 0abf 893e fbbe
000000c0: 4175 a33e 48d1 b2be f308 1ebf 3479 3a3f
000000d0: 7d04 e53e dd4f c93e 3441 9ebe 8d7f 2c3f
000000e0: 3201 b0be f317 bf3e f807 0abf 3a53 f2be
000000f0: 6d62 b2bd 0c72 aabe 700f 243f bcef 543f
0.79278386 -0.4046091 -0.6089376 -0.5395025 0.7230918 0.59557295 0.78580743 0.6531658
0.84615475 0.7642834 -0.28113106 -0.566279 -0.3529554 -0.395589 -0.59169304 -0.51903945
-0.5160729 -0.34591746 -0.34814036 -0.5115079 0.55193186 0.49119604 0.8134778 0.77140456
-0.44629416 0.34965396 -0.4221974 -0.43560556 0.7268171 -0.39746356 0.73089546 -0.5736953
0.71259713 -0.61622524 -0.3428307 -0.3825962 0.73217154 0.2128794 -0.29377046 0.6957633
-0.52649343 0.33262572 -0.3669175 -0.46239778 0.7332913 -0.49772435 -0.5405291 -0.49071148
0.31925395 -0.34925294 -0.61732405 0.7284119 0.44729987 0.39318743 -0.3090912 0.6738213
-0.34375912 0.3732296 -0.5391841 -0.47329122 -0.087101795 -0.33290136 0.64086056 0.83178306
