results/HikaruIsBorn/Hikaru/Hikaru-488013.pt (torch, 791303 bytes, 33 tensors)

network_body.linear_encoder.seq_layers.0.weight f4 [64, 96]
00000000: 20b5 053d 229c 09be 1bf9 d7bd 7eac 07be
00000010: cc05 9a3d 788e 903c 8423 463d d953 24bd
00000020: 6860 8e3d 8e2f 85be fb87 813d 3a90 45bd
00000030: 5575 253e 8acf ab3e 8f87 553e 8cfd 443e
00000040: d01e 8bbd 144c 00be 4ea9 ee3d ff17 d73d
00000050: affa 4cbe bf77 83bd 9ef4 9b3c aa89 61be
00000060: 0c10 86be db7f 2c3d 0899 a33e 0f1a da3d
00000070: ca79 ff3d 6fd4 bebd 5fa3 da3d a1d1 b6bd
00000080: ad14 c93b 97f4 013d 7a13 0a3e a4bf ad3d
00000090: ab8c 263d c3aa 4c3c 2f9d f33d b091 e33d
000000a0: 7aa5 943d 58df ba3d f7ff 91bd 4afe 063e
000000b0: fc66 c73d 4074 023e 6cf6 c03c 82e7 b53d
000000c0: 0093 243e 17ea 07be 2906 50bd 3c57 33bb
000000d0: 1db3 1e3d 2122 92bb a710 983b 7632 e13d
000000e0: 6813 ce3d 32d7 03bd 94b8 f7bd 4fe3 ed3d
000000f0: feeb 2e3e 9728 373d 40f0 333b b014 d23d
00000100: 1900 bebd 2f04 01be fee4 883b 5dc8 bf3c
00000110: 6df0 853d f854 c53c d3ca 27bc 1df1 ca3d
00000120: 677c 893d 445e e0bc 7e34 8a3c 9edf 323e
00000130: f2cd a63b efd7 843d 7e43 6bbd a620 3f3d
00000140: 48f2 bbbd 7194 1a3d e8e7 e43c c849 aabc
00000150: 771e 9bbc 93b4 313e c7bf 583d 1b44 c0bd
00000160: 5298 a2be a318 423d d2fe 703e 001b 8f3e
00000170: 2c87 353e 070b 5e3e 9571 a3bd 642a 433d
00000180: 66e7 90bb b397 32be b842 62be 2388 adbd
00000190: 77d9 2c3e 3034 45bc 73c9 e9bb e051 0ebe
000001a0: eeb2 f5bd c2fb 4bbd c344 c3bc 2b72 14be
000001b0: 3bda a93d e975 b63c ed10 e3bd 0357 84bc
000001c0: 4da6 2f3b 62b7 22be ae7a 2e3d 6e07 403e
000001d0: b8eb 363d 0fa0 62be 278b b8bd ccf5 833c
000001e0: 0e75 c6bc 797b 133e 1621 e83d cc10 15be
000001f0: 43c3 313d f6c3 94bd b11c 7dbd fe64 403d
00000200: 3ef3 d53d 3bf8 f73d f597 5d3d 29c9 a43e
00000210: 8b8c 423e 7c03 153e afb5 7f3e ca73 193c
00000220: 71be 113e a002 113e 3518 d23d 977f 383d
00000230: 38cd 683d 8357 2e3e 3d63 693e 256e 933d
00000240: b2d0 e43d 2833 ea3b b7fb e83d 8ea5 19bd
00000250: 3b82 253e cd9d b63c 05f3 6c3e e9c2 573e
00000260: fd15 b23e 2b6f a63d 1b84 633e d52f 5e3e
00000270: b75e 823e 3be9 b93d 9d21 263e f5f7 ca3a
00000280: 34de 86bd a000 88bd 9f4a 2c3b ebbb 6abe
00000290: 6b9f ff3d 4328 0e3d 1a83 a8be 8d9a 46be
000002a0: c2e3 e9bd a4e7 57be 7c94 fd3c dab3 56be
000002b0: be0b 643e d76c 043e 2395 da3d 58ec 0a3e
000002c0: d7c9 3ebc eb53 983d 8e9c a93d bdbc 00be
000002d0: 0354 2fbe d83d 243c 9dfe 123e 6b85 26bd
000002e0: 0b84 353e 8a6c 17bd bf2e 863c 1b9c 1fbd
000002f0: dc66 623d 1842 f3bd ea5a d4bc ca91 2d3e
00000300: 28f5 17be 3e91 3a3e a687 f53d 514e ccb9
00000310: 41aa 7fbd 2070 d03c 7305 7a3e 5172 bcbb
00000320: 79a8 aebd 92ec 053e 810b 1fbc b7ac 45be
00000330: 2f3d 28be f145 933e 039d 3abd f3f1 76bb
00000340: cc3a 0bbd 8215 d83d f045 4d3e d272 febc
00000350: ecc3 523e 0523 4a3e d13a aabb ee75 9d3d
00000360: 162f 60bd 5225 f23d 839f 403d 822b 96bd
00000370: b665 eabe 6a91 90bd 12c0 423d bd14 2bbb
00000380: 8110 523e 9c18 6dbe 6b4a b4bd f762 09be
00000390: dfed cebd 670c b43d 4209 2e3e 2a1b 193e
000003a0: e236 cbbc dd8d a1bd caee 9ebb 18e1 87bc
000003b0: 1f34 a3bd e4c1 38bd 428f 103d 176c f2bd
000003c0: 24e3 5cbe 037f c8bb ac87 693d 4ec4 2d3d
000003d0: b624 0d3e b495 0f3d 4a73 6fbd 4fc0 1d3c
000003e0: c788 133a c39f 84bd faef 16be 3ee8 663c
000003f0: b427 263e a4d9 d1bc 4316 d2bd 9cde 6d3d
0.032643437 -0.13438466 -0.1054556 -0.13249394 0.07520637 0.01764606 0.048373714 -0.040119026
0.06951982 -0.26012844 0.06324764 -0.04823325 0.1615804 0.33556777 0.20852493 0.19237345
-0.067929864 -0.12529022 0.11653386 0.10502624 -0.20017503 -0.06419324 0.019037541 -0.22025171
-0.26184118 0.04211412 0.3195269 0.106495015 0.12474401 -0.09317862 0.10675692 -0.08926702
0.006136498 0.0317274 0.13483992 0.08483818 0.040661495 0.012491885 0.11895215 0.11111772
0.07258125 0.09124631 -0.071288995 0.13182941 0.097364396 0.12739658 0.023555003 0.08882047
0.16071701 -0.13272892 -0.050787125 -0.0027365228 0.038745034 -0.004459635 0.004640657 0.10995953
0.10062295 -0.032187648 -0.12095752 0.11615621 0.17082211 0.044716444 0.0027456433 0.10257852
-0.092773624 -0.12599252 0.0041776886 0.02341097 0.06539998 0.024088368 -0.010241228 0.0990927
0.06713181 -0.0273887 0.016870733 0.17468116 0.0050904686 0.064864986 -0.057437412 0.046661995
-0.09177071 0.03773922 0.027942613 -0.020787135 -0.018935425 0.1735404 0.052917268 -0.0938799
-0.31756836 0.047386777 0.23534706 0.27950287 0.17727345 0.21683894 -0.079806484 0.04764785
-0.004422116 -0.17440681 -0.22095764 -0.08473232 0.16879831 -0.012036368 -0.0071346103 -0.1389842
-0.11997019 -0.04980064 -0.0238365 -0.14496677 0.08293577 0.02227302 -0.11087213 -0.016154772
0.0026802004 -0.15890267 0.042597465 0.18752834 0.044658393 -0.2213137 -0.09010916 0.016108416
-0.024225738 0.1440257 0.11334436 -0.14557189 0.043399107 -0.07263939 -0.06179494 0.046971314
0.104467854 0.12107893 0.054099996 0.32184723 0.18998925 0.1455211 0.2497165 0.009365985
0.14232804 0.14161158 0.102585234 0.045043554 0.056836337 0.1702557 0.22791763 0.07198743
0.11172618 0.0071472116 0.11376136 -0.0375114 0.1616296 0.022292042 0.2313958 0.21070446
0.347824 0.08126672 0.22218363 0.21697934 0.25462887 0.09077688 0.1622376 0.0015485274
-0.06585351 -0.06640744 0.0026289595 -0.22923248 0.124815784 0.034706365 -0.32912523 -0.19394894
-0.114203945 -0.21084458 0.030954592 -0.20967045 0.22270104 0.12932144 0.10672977 0.1356672
-0.011644802 0.07437881 0.082818136 -0.12571998 -0.17121892 0.01002451 0.1435494 -0.04065458
0.17726152 -0.036968745 0.016379712 -0.038967233 0.055273876 -0.11877841 -0.025922257 0.16950145
-0.14839613 0.18219468 0.119887635 -0.00038968262 -0.062418226 0.02544409 0.24416141 -0.0057509323
-0.08528227 0.13078526 -0.009707333 -0.19304167 -0.1642959 0.287643 -0.045559894 -0.0037680834
-0.03399162 0.10550977 0.2004621 -0.03106061 0.20582551 0.19739921 -0.0051949997 0.07688509
-0.054732405 0.118235245 0.047027122 -0.07332517 -0.45780724 -0.070589855 0.047546454 -0.002610489
0.20514108 -0.23153919 -0.088032566 -0.13416658 -0.10103964 0.08791428 0.16995719 0.14951769
-0.024806444 -0.078883864 -0.004850243 -0.016586825 -0.07968926 -0.045106784 0.03529287 -0.11837023
-0.21571022 -0.0061186566 0.057014152 0.04242354 0.13783535 0.035054877 -0.058459558 0.0096283695
0.00056279864 -0.06475785 -0.14739981 0.014093457 0.16226083 -0.025616474 -0.10258152 0.058073625

network_body.linear_encoder.seq_layers.0.bias f4 [64]
00000000: 7a2d 6ebd 53e3 dcbd 091c 66bc 74b2 503d
00000010: 9b1d f7bb c423 9dbd 0791 e8bb a7c9 833c
00000020: 6210 57bd 26d9 15bb 642a f7bd ba32 7dbb
00000030: 8071 1fbd 0654 86bd 7704 5fbe a849 76bd
00000040: f1df 6bbc 0a42 c1bc 8846 50bd 515e 05bc
00000050: 9596 2dbc 342e 02bd a348 95bd 5321 04be
00000060: 4555 d0bc 415d 02bd 62eb b0bd 8b2a d83c
00000070: 1bb2 cebd b22b 30be bf74 19bd f0c0 eebb
00000080: ae0b 0cbd c85f 983c a625 873c 869b a2bd
00000090: eadd 03be f35d 2abd 4a38 b0bd dca6 20bd
000000a0: a620 0bbd 769e 483d e2de 1d3c e3bc e0bc
000000b0: ff67 5dbd d99e acbd 79ab 27bb c4fd 26be
000000c0: 6899 f6bc aab2 8bbc 8de5 843d 8610 56bc
000000d0: 3eae 8f3c f476 2dbd 8f44 e1bd f5da 13bd
000000e0: cf02 17bc 9ebc 12be 8431 9dbc 3769 11be
000000f0: 482d efba 51b5 03be 1060 b6bd 95cb a8bc
-0.05814884 -0.10785546 -0.01404477 0.050951436 -0.007541371 -0.076728374 -0.0070973667 0.016087366
-0.05250586 -0.0022865026 -0.12068632 -0.0038634972 -0.0389266 -0.06558995 -0.21779047 -0.060128838
-0.0143966535 -0.02359106 -0.050848514 -0.008140163 -0.010594984 -0.031782344 -0.07289245 -0.12903337
-0.025431285 -0.031827215 -0.08638646 0.026387474 -0.10092565 -0.17204168 -0.037464853 -0.0072861835
-0.034190826 0.01860036 0.016497444 -0.0793982 -0.12877622 -0.041593503 -0.08604486 -0.03922163
-0.033966683 0.048979245 0.009635659 -0.027433818 -0.054054257 -0.08428735 -0.0025584383 -0.16307741
-0.030102447 -0.017052967 0.06489096 -0.013065463 0.01753914 -0.04234977 -0.10999405 -0.036097486
-0.009216978 -0.14329764 -0.01918865 -0.14200293 -0.0018247748 -0.12862135 -0.08905041 -0.020604888

network_body.linear_encoder.seq_layers.2.weight f4 [64, 64]
00000000: b6a0 6fbe 6493 a0bd 1ae8 4bbe 4472 9e3d
00000010: eb17 3abc 0df9 883e 7768 b2bc 5240 dcbd
00000020: 7ffc 033e ded7 19be e710 02be f52c 99bd
00000030: 4ddb 68bc 4797 293e a3a8 943d 3a0a 23be
00000040: 2034 ebbd f720 543d 36be 783d 7885 563e
00000050: 4c0b 0cbe 4fc4 babd d9e9 c4bd 8a2d 1abd
00000060: 4aa8 8f3e 0bb8 273d 0b3e adbe 59ee 2bbe
00000070: 0c20 ce3d d67c 423e f4a1 053d 2d79 2abe
00000080: 02b6 f13d 9146 073e dea5 90bd e694 3c3d
00000090: 5919 a8bd dab4 c53c 0c6f 67bd 2034 54be
000000a0: 3cd3 9a3d abbe b5bd 7633 263d f888 d3bd
000000b0: 4155 85be 810d 403d 548e 13bd 0915 f93d
000000c0: 4ba2 8bbe 938a 6a3c faba 4a3d 383e 49be
000000d0: 2e80 fb3d bb85 01be 9063 833d 7ee5 b03c
000000e0: 876d a43e a7c5 5cbc 874c 6a3e ddba c23d
000000f0: fa45 4abe bafd b73c 5f18 3dbd 3bf1 b4bd
00000100: 347a 50be 5b49 9ebd 5a20 d43a e18e c5bd
00000110: a6ef b43d 30d5 d63d 1a47 abbe bcd7 37be
00000120: baa0 78be fe7d 0c3e 8217 863d 6ea1 12be
00000130: c1d1 d33d b396 283d 2c2d 4d3e 7d9a 3cbe
00000140: b27d 5a3d 9943 4a3e beb2 113e a41b 04be
00000150: ab17 c1bd e0ce 53bd 05f8 42be 60a5 1e3e
00000160: 8ee6 fabd cb2f 0c3d bb78 163d a34a 61bd
00000170: 6afa e83d 8943 1e3e f656 94bd d388 94bd
00000180: 467b 433d 75a9 2a3e bad5 053e 4993 783e
00000190: 57aa 843e e146 9a3c bbca 01be ba53 413e
000001a0: 13f7 29be 27f2 d7be 3f80 e73c 2aa6 95bd
000001b0: 7e0c 32be 4c99 683e 93ef 903d 2f05 a93d
000001c0: 8ec2 5a3e 68ec 5ebc 9440 a93e 1796 32be
000001d0: 5513 b4bd e949 7ebe b793 01be d76f 4f3e
000001e0: 7a3e f7bb 75fb 4c3e e9cf 173e 7777 10bd
000001f0: 19df 4dbe 279b 9abd 94a9 89bd b736 85bd
00000200: ba24 84bb 1788 bfbd b4a2 d93c 6ad2 2bbb
00000210: d17b 513d e892 e0bd d398 be3d 7a80 453e
00000220: 94e6 d0bc 2c71 1cbe a2af cf3d 3a7d 293e
00000230: e0b1 55bd fee3 d23d 46ea 843e 1c5c 89bd
00000240: 12b4 69bd 02e0 38be 3820 bbbc db60 983e
00000250: 9e3d f0bd 28bf 8f3d 5470 4abe eb32 c9bd
00000260: 367c 993b 049d 3f3d 6a02 05be 377d e9bc
00000270: 7e7c f2bd 5c21 fcbd 3def 09bc ff52 833e
00000280: cb3e a8be 2b4e 213e 23cb 5e3d f122 4bbc
00000290: 5f7e 333d c738 d23d eb31 9c3d af4e c5be
000002a0: 0c51 bb3c d4f5 05bd 8015 12be 0ca4 d43e
000002b0: 9bf9 683e 8ff4 f3bc c563 b1be 4566 7ebe
000002c0: 1825 863d fb30 c93c 6fe0 66be f933 5b3e
000002d0: fcae 363e f25b d2bd c0ad 72be e549 893d
000002e0: 1e76 8b3c 399a 9d3d 5068 a6be e652 abbd
000002f0: 43a2 f63c 5916 bd3d 590c 0ebe 16f1 543c
00000300: 9462 653e f3fe 29be 55cd 57be 7878 c6bc
00000310: d654 edbc 2ced 8bbd bb25 893d 8f72 3abe
00000320: 6af2 a8bd 1aec 0f3e 36b8 8ebe 7f72 963e
00000330: 73b0 6c3e e628 98bd 05e4 253e ba87 a2be
00000340: 0c8e 1fbe f6a3 cebe 59f3 443e 77f0 36be
00000350: 37b2 ff3c dfc9 493e c4d4 f4bd 51b8 093d
00000360: 8283 143e 1c5f 8d3e 5a08 0dbe 51c5 f5bd
00000370: ec73 773d f54c 713d c1ba ab3d 2ea6 3dbe
00000380: 42c1 373d f9bb 0b3e 3a19 f13d 7c81 ef3d
00000390: 729b a03d e780 10bd f996 603e 83de f93d
000003a0: 027e 94bc e143 a3bd 38ab 113e 1259 963e
000003b0: 6a0a 9d3d bdd8 d93d 942f afbe b3be 9d3e
000003c0: 672b 883d 9845 f43a de13 73bd 21a0 793d
000003d0: 0332 a9bd fa9f 303d dd92 333e cd60 8f3d
000003e0: 3866 7bbe 0824 673e fa50 7ebc 39ea 013e
000003f0: 713b 45bc 1299 c1bd 5e49 a93d 76da 1abd
-0.2340115 -0.078406125 -0.19912758 0.07736638 -0.011358242 0.2675251 -0.021778328 -0.107544556
0.12889288 -0.15023753 -0.1270176 -0.07479278 -0.014212442 0.16561614 0.072587274 -0.1592187
-0.114845514 0.05178925 0.060728274 0.20949352 -0.13676184 -0.09119474 -0.096149154 -0.037641086
0.28058082 0.040947 -0.33836398 -0.16790141 0.10064706 0.18992934 0.032625154 -0.16647787
0.11802293 0.13210513 -0.07062887 0.046040438 -0.0820796 0.024134088 -0.056502387 -0.20723009
0.07559821 -0.08874258 0.04057642 -0.10328859 -0.26041606 0.04688788 -0.036024407 0.12162215
-0.27272257 0.014315265 0.04949472 -0.19652641 0.12280308 -0.1264867 0.064154744 0.021593805
0.32114813 -0.013474858 0.22880755 0.095082976 -0.19753256 0.022459853 -0.04616582 -0.088350736
-0.20359117 -0.07728835 0.0016183958 -0.096463926 0.08834772 0.10489881 -0.33452684 -0.1795339
-0.24280062 0.13719937 0.065474525 -0.14319393 0.10342742 0.041159343 0.20036763 -0.18418308
0.05334253 0.19752349 0.14228341 -0.12901169 -0.094283424 -0.051710963 -0.19039924 0.15492773
-0.12251006 0.034225266 0.03673623 -0.05500282 0.11375888 0.1545545 -0.07243149 -0.0725266
0.047724985 0.16666205 0.13069811 0.24274935 0.2591121 0.018832626 -0.12674992 0.18879595
-0.16598158 -0.42176935 0.028259395 -0.07307084 -0.17387578 0.22714728 0.07076945 0.08252942
0.21363279 -0.013606168 0.33057082 -0.17440067 -0.0879275 -0.24832882 -0.12654005 0.20257507
-0.0075452896 0.20017798 0.14825405 -0.03527018 -0.20104636 -0.07549124 -0.067217976 -0.06504577
-0.0040326985 -0.09352129 0.02656684 -0.0026217946 0.05114347 -0.1096552 0.09306493 0.19287291
-0.025500573 -0.15277547 0.10140921 0.16551676 -0.052171588 0.10297392 0.25959986 -0.067070216
-0.057056494 -0.18054202 -0.022842512 0.29761395 -0.117305025 0.07018882 -0.19769412 -0.09824165
0.0046839966 0.0467806 -0.12989202 -0.02850209 -0.11840151 -0.1231105 -0.008418855 0.25649258
-0.32860407 0.15752475 0.054392945 -0.012398467 0.04382169 0.10264736 0.076267086 -0.38536593
0.022865795 -0.032705143 -0.14266014 0.41531408 0.22751467 -0.0297797 -0.3464643 -0.248437
0.06550044 0.024559489 -0.22546552 0.21406545 0.17840189 -0.102714434 -0.23699093 0.067035474
0.017024096 0.07695431 -0.3250146 -0.08365421 0.03010667 0.09232778 -0.13871898 0.0129969325
0.22400886 -0.16601162 -0.21074422 -0.024227366 -0.028971117 -0.06832346 0.0669665 -0.18207763
-0.08249362 0.1405491 -0.27874917 0.2938423 0.23114185 -0.07429676 0.16200264 -0.31744176
-0.1558153 -0.40359467 0.19233455 -0.17865168 0.03121291 0.19705914 -0.11954644 0.033623043
0.14503291 0.27611625 -0.13772717 -0.12000526 0.060413286 0.058911283 0.0838523 -0.18520424
0.04486204 0.13645925 0.1177239 0.11694619 0.07842149 -0.03527918 0.21932591 0.12200644
-0.018126491 -0.07971931 0.14225471 0.2936483 0.07668002 0.10637043 -0.34215987 0.30809554
0.06648903 0.0018636463 -0.05934512 0.060943726 -0.08261492 0.043121316 0.17536493 0.07000885
-0.24550712 0.22572339 -0.015522236 0.12687005 -0.012038098 -0.09453024 0.08265947 -0.037805997

network_body.linear_encoder.seq_layers.2.bias f4 [64]
00000000: e32b 0abe da0a 503d 52c6 043e 93ec a2bd
00000010: 01e5 363c b8aa cc3c 191e a8bd d15a 223d
00000020: 5380 9f3d 6b73 a03d 2c77 2c3d 59f8 c03c
00000030: 262a a5bc fccd c3bd 9054 8b3d ea11 733d
00000040: d9cd 2bbc 83ae c3bb fe50 2c3e a0b3 fa3b
00000050: f51f d83d a2b1 5b3d 94a5 4f3d 5170 663d
00000060: 75b5 12bb 2654 483d 0c8b 1a3d 6bce df3a
00000070: 394b 47bc c62b ed3d 08ed cf3c 02f1 86bd
00000080: bd6e 833d 7f24 c73d 8e71 8e3c 209d aebc
00000090: fc57 f63d 6dc7 8bbd 2745 6d3d 61a7 5d3d
000000a0: 5c74 ae3c 1194 ad3d e1d3 53bc 526f 5d3d
000000b0: 94bc f63c 2a53 3d3d d9c6 d1bb 6755 d23c
000000c0: 0493 983d 7dc6 1a3d 8fc1 eb3c 8d2c bebc
000000d0: e545 4d3d 7bcd 23bd 9fc9 623c 71bd 26bd
000000e0: 3b2a 02bd f5c8 b93c 06f7 c33d 9dba 833c
000000f0: 4561 0c3d ff7a 023d a8d6 df3c c321 17bc
-0.13493304 0.0507916 0.12966278 -0.07955279 0.011162997 0.024983749 -0.08208866 0.03963739
0.07788148 0.07834514 0.04210584 0.023555921 -0.0201617 -0.09560773 0.068032384 0.059343256
-0.01048609 -0.005971731 0.16827771 0.0076508075 0.1055297 0.0536362 0.050695017 0.056259457
-0.002238599 0.048908375 0.03773026 0.0017075067 -0.012163931 0.11580615 0.02538158 -0.06588937
0.06417606 0.09723758 0.017388131 -0.021315157 0.120285004 -0.06825147 0.057927277 0.054114703
0.021295719 0.08475507 -0.012928934 0.05406124 0.030119218 0.04622189 -0.0064018783 0.025675489
0.07449916 0.03778695 0.02877882 -0.023214603 0.050115485 -0.039990883 0.0138420155 -0.04070801
-0.031778555 0.022678832 0.095686 0.016080195 0.03427245 0.03185558 0.027324036 -0.009224358

action_model._discrete_distribution.branches.0.weight f4 [675, 64]
00000000: 0053 f93d f005 0a3e c076 39be 82b6 303e
00000010: 70ab c63d 21c3 983d 9ef2 f83d f058 bbbc
00000020: 8e79 52bc d4cd a7be 8aa7 913d f33c ec3c
00000030: c3cd a23d 4e66 123f c994 9dbe 3035 12bd
00000040: 4530 e93d bf95 293d a493 11be 6906 8dbd
00000050: 78a3 0f3e 225d 013d c852 1c3e 7160 c33d
00000060: f359 e53d 5e67 26be 5f8a 313e 4c27 af3e
00000070: ff40 123e 392b 12be a7e3 3e3e 449e 4f3d
00000080: 94b0 18bd 7837 0d3e 1728 153a 4ce3 983e
00000090: 9fd1 813e e5c6 2c3e 0bfb 943c 50b9 ac3d
000000a0: 3bac 1ebe 15c1 3a3c 98f8 a9bd 9a12 b23e
000000b0: 10a9 613e ce13 03be 5338 06be 6d7a ddbe
000000c0: 3ed9 9e3e d036 b63e 508e 963e 06d0 163e
000000d0: cf24 98be 6506 e63d 4ae8 d63d 6bca 3b3e
000000e0: bcf4 75bd cdb8 873e c10d d73c 07fe 633d
000000f0: aba7 823e a90c 383e 4df5 36be 06b6 043e
00000100: bd29 3c3d 0d7f 11be 762b be3d 9181 b1bd
00000110: e9f8 88bc 3842 183d 097f 09bd fc51 e93d
00000120: 1620 3b3e f3b0 473d b797 0f3e 1d1b 0f3e
00000130: 2532 343e 5fbe 973e 6926 d13c 10ce 21be
00000140: 9def aebd ae9d 823d 0f7b 2c3d 9a23 843d
00000150: 89a9 c23d 1822 9c3d 251d 3bbd 5b9b 213e
00000160: 9703 5c3e 3655 47bd 2a95 873e e26c 6e3e
00000170: cb52 073c d339 9e3e b261 68be 6354 bbbd
00000180: 84c8 24bb b501 903e 71ea 4a3d 128a 583e
00000190: d0e5 893b e0e3 653c 9493 7d3e 37a3 49be
000001a0: 25de 133e c673 ef3a 126b 0e3c 533d e83c
000001b0: 3ecc 493e 5d7b 9dbe ea25 69be 04a0 bfbd
000001c0: 8247 01bc ff1a 823e 59fe 1e3e 914a 803e
000001d0: 07fe 8b3d f313 863d 8a2c 393d 4a19 dbbd
000001e0: 1dee 943d ab37 403e 06ef 643d 0264 0b3e
000001f0: dd25 cb3e ab31 523b e384 b2be 5456 a9bd
00000200: 0d67 743d 196a a2bd ae6b 323e 3690 2d3e
00000210: 7edc 92bd 5aeb 7e3e 82fe bdbd 20ab 8dbe
00000220: 1935 6b3d fba7 113d b944 34be a9d3 6a3e
00000230: 5eff b03c d2fd 243e caf7 303d 9be5 f33d
00000240: 2339 1a3e a203 483d 4899 263e afc8 9ebe
00000250: 0f04 adbd 05b0 01be 550c c23d 051a 5e3e
00000260: 19cc 6f3e a075 843e 1c4e 003e 5dd7 27be
00000270: 4893 933e 6f62 7d3e 4a3f 1dbe 1afa f7bd
00000280: e005 8bbe 68b1 f13d ad86 f4bd 8508 86be
00000290: dfa4 00be f6d7 3a3e b86b 91bd 14d3 273c
000002a0: b82c 67bd 0392 9fbc aad9 783d c792 0abe
000002b0: 8db6 593e d22c 593e ff64 52be 4dfc 363c
000002c0: c2ce 913d 7d6a b13e 9d9b 8d3e 4fa0 443d
000002d0: 53aa 90bd eb31 d2bd 85b2 c13c 6fdc a83d
000002e0: 5552 0dbe a15e 423d 75d5 eabd 9fee 113d
000002f0: 00f9 1a3e c84a 56bd 8ec1 853d 47b8 39bd
00000300: dada 2cbd 08b6 1abd f26e a0bd 171a 793d
00000310: 6255 edbd 3d26 9f3e eb8a 20bd c342 56bd
00000320: dbc1 95be 3f79 943e d27c 833e c111 0d3e
00000330: 0cf3 8cbc 264a de3d 9053 74be e882 763e
00000340: e1fc 573d c69c 1c3e f8fc d33e fc7f f6bd
00000350: 662b 813e 5860 143e dc3d 8c3e ace6 8fbc
00000360: d04d 96bd f6b3 65bd 6b28 04be 41de 5a3c
00000370: b466 d3bc be02 193d 8cad 76bd c4c5 533d
00000380: 34a3 cf3d 3c95 813d 287e b0bd 5f20 0dbd
00000390: 1469 053e 761b 2e3e 7ccf fbbc 0c73 bf3c
000003a0: e03f 3d3e 8011 8e3e 5e7d 0cbe b7af bfbd
000003b0: 2061 21be 8867 0cbd ec2f 73be 5fb2 a13d
000003c0: f0a8 0dbe b5f4 82bd 9a8f 91bd 8cd6 febd
000003d0: ced3 223d 3976 093e d60e 69bd 78c1 ab3c
000003e0: 2aba 773d 0776 423e 7561 f3bb 47ee f4bd
000003f0: ff89 67be 44d8 aa3e 79d7 d23d b2ba e73c
0.12174034 0.13478827 -0.18111706 0.17257121 0.09700668 0.07459093 0.121556506 -0.022869557
-0.012846364 -0.32774222 0.07112034 0.028837657 0.07949402 0.57187355 -0.30777577 -0.035695255
0.1138616 0.041402575 -0.14216477 -0.06885988 0.14027202 0.03158296 0.15265954 0.09539879
0.11198797 -0.16250369 0.1733794 0.3420967 0.14282607 -0.142743 0.1864153 0.050688043
-0.037277773 0.13790691 0.0005689873 0.29860914 0.2535524 0.16872747 0.018186113 0.08433783
-0.15495388 0.011398573 -0.082993686 0.34779817 0.22037148 -0.12800524 -0.13107423 -0.43257466
0.31025118 0.35588694 0.2940545 0.14727792 -0.29715583 0.112316884 0.104935244 0.18338935
-0.06004785 0.2650818 0.026251676 0.05566218 0.25518546 0.1797358 -0.17867012 0.12960061
0.045938242 -0.14208622 0.09285633 -0.08667291 -0.016720252 0.037172526 -0.033568416 0.113925904
0.18273959 0.048752736 0.14022718 0.13975187 0.17597254 0.2963743 0.02553101 -0.15801263
-0.08541796 0.06377731 0.042109545 0.06452103 0.095049925 0.0762369 -0.04568209 0.1578192
0.21485744 -0.048665248 0.2648099 0.23283723 0.0082594855 0.3090349 -0.22693518 -0.09146955
-0.002514393 0.28126302 0.049539987 0.2114642 0.004208304 0.01403138 0.24763328 -0.19691168
0.1444021 0.0018268756 0.00869252 0.028349554 0.19706818 -0.3075818 -0.2276837 -0.093566924
-0.007890584 0.2541122 0.15526713 0.2505689 0.06835561 0.06546774 0.04520849 -0.10698183
0.07271979 0.18771236 0.055892013 0.13612369 0.39677325 0.0032073061 -0.3486701 -0.08268419
0.05966859 -0.07930393 0.17423889 0.16949543 -0.07170962 0.24894467 -0.09277059 -0.2766962
0.057423685 0.03556059 -0.1760434 0.22932304 0.021606144 0.1611245 0.04320506 0.11909028
0.15060858 0.04883159 0.1626941 -0.31012484 -0.0844804 -0.12664802 0.094750084 0.21689613
0.23417701 0.2587099 0.12529796 -0.16390748 0.28823304 0.2474458 -0.15356174 -0.1210825
-0.2715292 0.11801416 -0.1193975 -0.26178375 -0.12562893 0.18246445 -0.07100624 0.010243196
-0.05643913 -0.019478804 0.060754456 -0.13532554 0.21261044 0.21208504 -0.2054634 0.011168552
0.07119514 0.34651557 0.27657786 0.048004445 -0.07063737 -0.10263427 0.023644695 0.08245169
-0.13800938 0.047453526 -0.11466495 0.035627957 0.15134048 -0.05231741 0.06531058 -0.045341756
-0.0422009 -0.037771255 -0.07833661 0.060815897 -0.11588551 0.3108386 -0.039194982 -0.052309763
-0.29249462 0.28998753 0.25681168 0.13776304 -0.017205738 0.108539864 -0.23860002 0.24073374
0.0527314 0.1529418 0.41403937 -0.1203613 0.25228423 0.14489877 0.27390945 -0.017566048
-0.0733906 -0.056079827 -0.12906043 0.0133586535 -0.025805809 0.03735613 -0.0602241 0.051702276
0.101385504 0.06327292 -0.086178124 -0.0344547 0.13028365 0.17002663 -0.030738585 0.023370288
0.18481398 0.27747726 -0.13719699 -0.09359687 -0.15759706 -0.034278423 -0.2374875 0.0789535
-0.13833976 -0.063943304 -0.07107468 -0.12443265 0.039752774 0.13424005 -0.056898914 0.020966277
0.060480274 0.18990336 -0.0074273893 -0.1195951 -0.22611235 0.33368123 0.102950044 0.028287265

action_model._discrete_distribution.branches.0.bias f4 [675]
00000000: 613a 98bc 559d 19bd 5457 603d 47fc 053e
00000010: f96f d23e 242d 5a3e 9e5d b43d 484a 233e
00000020: fea5 8e3d 2975 d83d d40f 2f3e cadc 2c3d
00000030: f8e8 2e3d 30d9 1c3e 8cb9 073e d1f9 5e3d
00000040: 1c49 663e 42ec 0a3e 7f1d 183e 4daa 4a3e
00000050: e90e 283e da3f 0d3e cbd8 193d f277 573e
00000060: 2f49 853d 05b0 483d e3dd 523d d467 403e
00000070: 41dc d73c 01b7 40bc 7540 7e3d eb68 2dbd
00000080: 3b63 093e 0952 a73d 9b13 ab3c 788a 793d
00000090: 4bf3 2c3d a517 103e 36ca 193e 38c4 903e
000000a0: 8cf3 903d 9414 a53d 5e9f c23d 5e12 be3c
000000b0: d1c2 e63d cf1d 263e a59c 053e b39f 12bd
000000c0: 7c06 153e 0618 193d 0422 773d 5fb7 9f3d
000000d0: 7ca5 ee3d 0d69 1f3e 1552 453d 761c 083e
000000e0: 1da2 583e 1685 0a3e a43d e03d b770 5c3d
000000f0: 58b0 8b3e 455a 053e 8beb ee3d d648 ac3d
00000100: 2eb5 273e 135c 803e 5401 503e 1346 193e
00000110: 607f 983d cdc8 e03d 1018 823d b0db 743e
00000120: 1fc6 9b3d 03b5 283e 127f fb3c bcfa 243e
00000130: bbb0 cd3c e3fd 343e 542a 793d 79e2 673d
00000140: 7be8 d43d 67c1 043e 5a13 693e 64a2 983e
00000150: aeca 0e3e e7ca 1d3d c28c b33d 39d0 ef3d
00000160: 61ff 083d ab39 923d 6adb 3e3d 5347 9e3d
00000170: 1b78 813d f48e 3e3e fc40 493e 892f 423e
00000180: 295c c9bc 924c 6d3e b16e 1a3e 5e30 833e
00000190: 0440 8a3d efa6 f13d d2a3 9d3b d89f b13b
000001a0: 5e39 b63d 0fdc b63d 065f 213e 3a74 373d
000001b0: 60fc 433e c602 2e3e 5548 843e a474 553e
000001c0: 0e92 813d ae99 f73d eedb 363e f5d9 1e3e
000001d0: e4f7 50bc 03be cc3d d833 173e d9a4 873e
000001e0: 7750 703d 81e7 7b3c d9ef db3d dfd4 1e3d
000001f0: 733f 69bb 0056 613d c0f8 5c3e e071 89bc
00000200: 100d 6d3e 5113 313e d325 723e 4e81 093e
00000210: 0616 243e a820 073e d1e5 5c3c dc42 7bbd
00000220: 4da9 593d c33f e93c 611d 023e c2cf d73d
00000230: 1de8 2e3e 69ca 673e 4cfb 353e c984 623e
00000240: aac6 0f3e f8f6 5c3e 997b 323e c32d 2c3e
00000250: 0f01 30be 54a0 933e acc4 543e 470a 153e
00000260: 6139 5a3e 3d4d 7a3e 25f4 bd3d 88ab a13d
00000270: e3dd be3d d084 4e3d 17fd bf3d 0fc4 a03e
00000280: 37a1 ff3d 48e5 593e cd9e 303e 0ddc a9b9
00000290: e41d 343e bcfc bb3e eacb 963d e035 033c
000002a0: 2260 10be 357b 243e 0134 c13d ae58 f13d
000002b0: 4ce7 253e 3b82 23bd 06fe 423e 2f7a 4a3e
000002c0: e07d 3b3e cc29 6a3b f355 e83d c2c6 3d3e
000002d0: 5b24 093e 69e3 b83d 38e4 8c3c 6d36 633e
000002e0: 1637 aa3d b0b7 0a3c e6c2 593e 32c6 a33d
000002f0: f6c9 233e b46b cc3d 9932 c0bd 164d 6dbb
00000300: 190a c63d 9c21 b73d 8c76 d43d ab17 533e
00000310: 1fc1 583e 1829 1e3e 80e5 5a3e eded 383d
00000320: 6cba 473e faeb dc3c e48e 363e ad47 033e
00000330: f962 e33d 65b0 493e b3fa fe3d 07a2 303e
00000340: 4cb8 be3e 633b 1f3b 4eef 263e 45e3 b43d
00000350: c835 78bc f7ec 903d a6c9 1c3e 3557 333e
00000360: 0e46 203e 6b0f 5f3e 6bc3 763e 9a96 ea3d
00000370: b891 583e 8e9a 2d3e 7ed8 c93d e437 313e
00000380: 89f0 7f3e 9ad1 6c3d cb58 513d bad5 973d
00000390: 6b5d 503e e9c9 303e c379 0c3e 1d51 983d
000003a0: c588 203e 3e6a 4f3e e432 f53d d5a5 ec3d
000003b0: 21bf cf3d bb23 8c3d 9439 da3c 9ab7 2b3e
000003c0: 0ec7 4e3e b0db 3e3d 3ac6 e53d a40b 093e
000003d0: 6325 a53e 2c8d 8f3c 1ea4 f23d d2e4 fa3d
000003e0: af57 0b3e ac92 a03d 354b 573e 1a47 053e
000003f0: 72fb f93d dc12 093e 345d fa3d 75ba fa3d
-0.018582525 -0.03750356 0.054770783 0.13084517 0.41101053 0.21306282 0.088069186 0.15946305
0.06965254 0.105692215 0.17095882 0.04220275 0.042702645 0.15317225 0.13254374 0.054437462
0.22488827 0.13566688 0.14855002 0.19791527 0.16411938 0.13793889 0.037560266 0.2104185
0.06508099 0.04899599 0.05148114 0.18789607 0.026350142 -0.0117623815 0.06207319 -0.042336386
0.1341676 0.08169944 0.020883372 0.06092307 0.04222421 0.1407152 0.15018544 0.28274703
0.07077703 0.080605656 0.09503053 0.023202118 0.11267627 0.16222309 0.13048036 -0.035796832
0.14553255 0.037376426 0.060335174 0.07798647 0.116526574 0.15567417 0.048173983 0.13292107
0.21155591 0.13527331 0.10949257 0.05381843 0.27282977 0.13022716 0.1166602 0.0841233
0.16377708 0.25070247 0.20313007 0.14968137 0.0744617 0.109758 0.06352246 0.23911929
0.07606148 0.164753 0.03070024 0.16111273 0.025108686 0.17674975 0.060831383 0.056612466
0.10395905 0.12964402 0.22761288 0.29811394 0.13944504 0.03852358 0.08767082 0.11709637
0.033446673 0.071399055 0.04659597 0.07728448 0.063217364 0.1860922 0.19653696 0.18963446
-0.024580078 0.2317374 0.15081288 0.2562284 0.06750491 0.11799418 0.0048107887 0.005420666
0.08897661 0.089286916 0.15758905 0.044788577 0.19139242 0.16993245 0.25836435 0.20845276
0.06326686 0.12089859 0.17857334 0.15512832 -0.012754414 0.09997179 0.1476587 0.26492956
0.058670487 0.015375019 0.10739107 0.03877723 -0.0035590797 0.055013657 0.21579266 -0.016777933
0.23149514 0.17292525 0.23647241 0.13428232 0.16024026 0.13196051 0.013482527 -0.06134306
0.053139973 0.028472787 0.1270652 0.105376735 0.17080732 0.22635807 0.17771643 0.22120966
0.14040628 0.21578586 0.17429961 0.16814332 -0.17187904 0.28833258 0.2077815 0.14554702
0.21310951 0.24443527 0.092750825 0.07894045 0.09319665 0.05041963 0.09374445 0.3139958
0.12481921 0.2127887 0.17248078 -0.00032398143 0.17589527 0.3671626 0.07363112 0.00800845
-0.14099172 0.16062625 0.09433747 0.117844924 0.16201514 -0.03991912 0.19042215 0.19773172
0.18309736 0.003573048 0.113445185 0.18532851 0.13392775 0.0902775 0.017198667 0.2218873
0.08311288 0.008466646 0.21265754 0.07996787 0.1599501 0.0998148 -0.09384651 -0.0036209277
0.09669895 0.08941957 0.103741735 0.20614497 0.2116742 0.15445364 0.2137661 0.04514878
0.19504708 0.026967991 0.17827946 0.12820311 0.11102862 0.19696195 0.12450161 0.17249309
0.37249982 0.0024296872 0.16302225 0.08832411 -0.015149541 0.070764475 0.15311298 0.17513736
0.15651724 0.21783225 0.24097984 0.11454506 0.21149337 0.16953489 0.09855746 0.17306477
0.249941 0.05781708 0.05111007 0.07413812 0.20348136 0.17264523 0.13718323 0.07437346
0.15677173 0.20255372 0.11972597 0.115550674 0.10143877 0.068427525 0.026638784 0.16769257
0.20193121 0.04659623 0.11219449 0.13383347 0.32255086 0.01752337 0.11847709 0.12250675
0.13607667 0.078404754 0.21024783 0.13015404 0.122061625 0.133861 0.12224808 0.12242595

critic.network_body.linear_encoder.seq_layers.0.weight f4 [64, 96]
00000000: 6958 1c3f 0146 03bd 9fb3 163e 5b71 2a3f
00000010: 257d 93be 4e09 bebe 9d69 fabd 80c6 033f
00000020: 3832 ecbd b593 ebbe 74a9 8d3d 4569 1d3e
00000030: 0c9f 05be 9ac1 3dbd bc33 c7bc 20a3 763e
00000040: 6ba8 5cbe febd b6be 93ff 99be 6f47 94bc
00000050: 7aef 67bb d557 58be 395a 453e 5832 1c3e
00000060: 9855 36be f214 c4be d94f 98bd 01ea 90bd
00000070: 089d 263d c8ca bbbe b9a2 17be 1068 c63d
00000080: f508 bfbe deda 7bbe 1d85 a4be 5200 1dbe
00000090: cfc1 cfbe 9dba ecbe b1ec c6be 92e5 16bf
000000a0: b18f ecbe dbe5 c4be 7d4c e8be ee0f 75be
000000b0: 75ae d6be 9e73 0fbe 78d4 0abf c09c 7fbe
000000c0: e3f4 8ebe 2087 12be 1df0 dfbe cb8c d9be
000000d0: 1494 69be 2902 bdbe 6b34 ecbe 9933 99be
000000e0: 5f0d b6be 7687 7dbe 5119 e1be fb11 bfbe
000000f0: cfe5 85be 7be2 8cbe 45cc a0be b5ea bdbe
00000100: a1bf ac3e 7c0c d73d 6a61 183d 7b2d f13e
00000110: ca8b 943d 5a07 2b3e ee97 5f3e a1a7 a73e
00000120: da96 f33c 4a8b d6bd 6cdd e03e b11a a53e
00000130: 518d 0b3d e249 43bd d23a 723d 2851 a43e
00000140: e9e2 aabd 93a9 a2be e83a d83d 4bb8 bb3e
00000150: 8c93 a0be c524 84be 03cd 1abc 500d 1e3e
00000160: 8a72 0e3d 2088 bbbe 6b02 4cbd f011 45bd
00000170: cbdc 8abe 25b9 cfbe d8e9 26be af8e 63be
00000180: c0e5 fd3e 7749 5e3e 38d9 fe3e bf72 9c3e
00000190: 8c2d f4be c995 ffbd cd71 0a3d 9203 8b3e
000001a0: 5ebe 07be 191f 53be 541f 85be 592b 61be
000001b0: 768b 4fbe f1cf e73d 7523 cdbd 7d96 c4bc
000001c0: 3d13 48bb 39c9 17be b090 acbe 8ad1 34be
000001d0: 6fc6 c2bd 04ff 31bd b5f3 9e3c a40d e13d
000001e0: 72f5 93be ced8 72be a551 72be 5704 47be
000001f0: 53fc e83c 10b4 dd3d db27 58bd 46c7 183d
00000200: 1391 0cbf 10ce febe 2011 0cbf 028d 01bf
00000210: ee91 a7be 6e36 e1be 9429 fbbe 5a8b 9ebe
00000220: d673 f4be 66ab debe 9e90 10bf 2c4a 0abf
00000230: 8014 bdbe d027 0dbf d4b6 d0be 1812 debe
00000240: 5697 9ebe 15fc fdbd 84b4 9fbe 5e20 f9be
00000250: f02e 02bf 064f 0bbf 4c5f 03bf 1a3a 2bbf
00000260: a40f 1cbf 48fe 15bf 1a4f f7be 78ce 91be
00000270: c856 d5be 12cd dfbe 6a95 05bf d4ed a6be
00000280: 7291 05be 91b5 2d3d 5752 9fbd 5507 053e
00000290: 3e41 a23e 34bf 4f3e bc4c 2f3e 560a 283e
000002a0: 43a3 53bd 5227 7ebe f900 4b3e 923f 903d
000002b0: 3252 1ebd 0847 fc3c b16e b1bd 548d c7bd
000002c0: ab4d 64be b30a 43be 07af e0bd 3672 8c3c
000002d0: 7388 92bd 76c7 47be 0fbc 10be 0187 99bd
000002e0: 1bdf 70be 36f6 d8be b7b1 7ebe 8a95 ccbe
000002f0: 2825 4fbe 843e a4be 0bcf 173e 823b a0be
00000300: 74ad ff3e 17be 64be 3fe0 d33d ee4a c23e
00000310: 4c0f adbe cd1d e0bd dc16 e7bd 5502 b63e
00000320: 5052 a4be cc6c 57be b920 5fbc 9aef 0a3d
00000330: 3805 02bf 6228 9fbe 3ea6 e03d 71ad 0e3e
00000340: 312a 21be 01d3 95be fb6d d8bd 3d02 8cbe
00000350: d8da 9cbd 3392 753d 6eb2 b8bd 9361 08bd
00000360: d19c 13bf 8bf5 9fbe acfb abbe d5e3 55be
00000370: 277c fcbd 0fad de3c c341 27bc 967f 85be
00000380: 9b95 69be 2543 f0be fc9d babe b23a eabe
00000390: 8984 69be 0c71 c9be eca9 c4be 0eb9 9cbe
000003a0: 0775 36be 583b ccbe faf5 c4be 0446 cdbe
000003b0: a047 9dbe abf7 3ebe dcdf 77be 65d9 4ebe
000003c0: 2618 b9be 8a0d 3fbe 92ba 6ebe ec35 84be
000003d0: 6663 adbe 1e88 cbbe 2da7 7fbe 48e8 08bf
000003e0: 07ac 46be f8fd 8cbe ced8 8cbe e60f b2be
000003f0: a458 b8be 607d afbe 371c 19be d0d5 f1be
0.61072403 -0.032049183 0.14716958 0.66579217 -0.28806415 -0.37116474 -0.122271754 0.5147476
-0.11533016 -0.4601113 0.06917086 0.15372188 -0.13048953 -0.04632721 -0.024316661 0.24085665
-0.21548621 -0.35691828 -0.300778 -0.018100468 -0.0035390542 -0.21127255 0.19272698 0.1525358
-0.17806089 -0.3829723 -0.07437105 -0.07075883 0.0406771 -0.36678147 -0.14808168 0.09687817
-0.3731152 -0.2459521 -0.32132807 -0.15332153 -0.40577552 -0.46236125 -0.38852456 -0.58944046
-0.46203378 -0.38456616 -0.45370856 -0.23931858 -0.41929975 -0.14008948 -0.5423045 -0.24962139
-0.2792121 -0.14309359 -0.4373788 -0.4249023 -0.22810394 -0.3691571 -0.46133742 -0.29922178
-0.35557076 -0.24758705 -0.43964627 -0.37318406 -0.26151893 -0.2751654 -0.31405845 -0.3709313
0.3373995 0.10500428 0.037202276 0.4710501 0.07253225 0.16702023 0.218353 0.32745078
0.029735018 -0.10475786 0.4391893 0.32246926 0.034070317 -0.047677882 0.059138127 0.32093167
-0.08344061 -0.3177 0.105581105 0.36664042 -0.3136257 -0.25809303 -0.009448293 0.15434766
0.0347772 -0.36627293 -0.049806993 -0.04811281 -0.27121577 -0.40570942 -0.16300142 -0.22222398
0.49589348 0.21707712 0.497751 0.30556294 -0.47691 -0.12479741 0.033799935 0.2715116
-0.13256213 -0.20617332 -0.26000464 -0.21989192 -0.20268044 0.113189586 -0.100165285 -0.02399754
-0.0030529045 -0.14822854 -0.33704138 -0.17658058 -0.095105045 -0.043456092 0.019403318 0.1098893
-0.28898197 -0.23715517 -0.23663957 -0.1943525 0.02844063 0.1082536 -0.052772384 0.037299417
-0.54908866 -0.49766588 -0.5471363 -0.50605786 -0.32728523 -0.4398684 -0.4905516 -0.30965692
-0.47744626 -0.43490142 -0.5647067 -0.5401943 -0.36929703 -0.55138874 -0.40764487 -0.4337318
-0.30974835 -0.124015965 -0.3119241 -0.48657507 -0.5085287 -0.54417455 -0.51317286 -0.6688553
-0.60961366 -0.5859113 -0.48302537 -0.28477836 -0.4166777 -0.43711144 -0.5218111 -0.32603323
-0.13043764 0.042409483 -0.07779377 0.12991078 0.316904 0.20287782 0.17119116 0.16410193
-0.05166937 -0.24819687 0.1982459 0.07043375 -0.038652606 0.03079559 -0.08663691 -0.09743753
-0.22295253 -0.1904705 -0.10970884 0.017144304 -0.07154932 -0.19509682 -0.14134239 -0.07496453
-0.23522608 -0.42375344 -0.2487248 -0.3995784 -0.20229018 -0.32078946 0.14825074 -0.312954
0.49937022 -0.22338139 0.10345506 0.37947792 -0.33800733 -0.10943184 -0.11283657 0.35548654
-0.3209405 -0.21037596 -0.0136186415 0.033919908 -0.50789213 -0.31085497 0.10969208 0.1393335
-0.15738751 -0.29262546 -0.10567852 -0.27345458 -0.07658929 0.05995388 -0.09018408 -0.03329618
-0.5766116 -0.31242022 -0.33590448 -0.20887692 -0.12328368 0.02718213 -0.01020855 -0.26073903
-0.22810976 -0.46926227 -0.36448658 -0.45747906 -0.22804464 -0.3934406 -0.3841089 -0.30609936
-0.1781808 -0.39889026 -0.38468915 -0.4009248 -0.30718708 -0.18649165 -0.2420649 -0.20200117
-0.36151236 -0.18657508 -0.23313358 -0.2582239 -0.33864897 -0.39752287 -0.24966116 -0.53479433
-0.1940156 -0.27537513 -0.2750916 -0.34777755 -0.36005127 -0.3427534 -0.1495217 -0.47233438

critic.network_body.linear_encoder.seq_layers.0.bias f4 [64]
00000000: 45ad c23e 3cd9 e23e 4e54 a93e 6f7c 053e
00000010: 7d4e 543d 52f9 c83e a426 2c3d 721c b93e
00000020: e735 b83e ca7a de3e 02b3 d83e be6a cc3e
00000030: 1eef 1f3d ef85 fe3d 340c ac3d 3717 0e3e
00000040: 24d8 fd3d c030 d73e 00d3 2d3e 8600 4d3e
00000050: b01d 003f 5ca4 ac3d e7a8 033a 2528 d23d
00000060: fb70 bd3d 91e2 ea3d 25de a43e cc14 57bd
00000070: d8b3 e23d 9fa2 d9bb f788 cf3e 8a4b c83e
00000080: dc60 c23e d16e 403d dc92 bb3d 8176 fd3d
00000090: dec0 e53e 3383 e83e 333e 9c3e 0221 043f
000000a0: 575d b13e e916 d63d 3a44 da3e c472 82bd
000000b0: 6831 523c f72d b93e eb61 bc3e 0b62 223e
000000c0: 71b2 fc3e 8ab7 05bc 1419 c73e db1f f53c
000000d0: 5204 f53e 367f c33e c72e aa3d f60a 703d
000000e0: a7bd c13e e555 be3e c057 e63e 9798 7e3d
000000f0: c6c2 97bc 976f 81bd 6e9f e13d 77bc b43d
0.3802282 0.44306362 0.33072132 0.13035749 0.051832665 0.39252716 0.042029038 0.36154515
0.35978624 0.43453056 0.42324072 0.39925188 0.0390464 0.124278896 0.08400765 0.13876043
0.12394741 0.4202938 0.16975021 0.20019731 0.500453 0.084297866 0.0005022422 0.10261563
0.09250065 0.11468995 0.32200733 -0.052510068 0.11069459 -0.0066417004 0.40534183 0.39120132
0.37964523 0.046980683 0.091588706 0.123761185 0.44873708 0.45412597 0.30516204 0.51612866
0.34641525 0.104535885 0.42630178 -0.06369546 0.012829162 0.3616788 0.36793455 0.15857713
0.4935489 -0.008161435 0.3888632 0.029922416 0.4785486 0.38182992 0.08309703 0.058604203
0.37840006 0.37174907 0.44988823 0.06215724 -0.018525492 -0.06320112 0.11016737 0.08825009

critic.network_body.linear_encoder.seq_layers.2.weight f4 [64, 64]
00000000: 1f80 0b3f b618 a93e 0e4a db3e f86f abbe
00000010: 0f5c ddbe 3a4a 853e 6eb5 84be 75b3 5c3e
00000020: cad7 e83e 1bd5 293e 2b4c ea3e efdd 173f
00000030: efcf 59be 20e3 d7be 326a a7be f540 c8be
00000040: 2822 eabe 450b ec3e f8d5 983e 17a4 513e
00000050: 214d d93e d856 78be 9665 953e 499d bfbe
00000060: 37ed f1bd e45e a2be 9ba2 063f 90da a8be
00000070: a8c7 3cbe 42e0 12bf a78b fe3e 9f41 e63e
00000080: 2465 3c3f 9803 83be ecd1 88be 3eef 9cbe
00000090: 83e5 b83e ad3e 3c3f c31a aa3e 7517 ca3e
000000a0: 9c25 453f 4fef 96be 4ee1 d93e f35c 10bf
000000b0: f3e5 44bf 448f 0e3f 967f bf3e 8818 bbbe
000000c0: 1116 c73e 0370 6b3e 7be9 203f a06c c5be
000000d0: ed80 103f 3816 143f c5d7 16bf f330 ffbe
000000e0: 04ee 6b3f 0659 0f3f 0907 0c3f 0232 c53e
000000f0: d44c 5f3d d871 783e 4ba0 dfbe f3b6 51be
00000100: 6969 1d3e 75c7 333e 4b66 0dbe f4b6 8a3e
00000110: 10bf 473e 4abf 233d 865c 0c3e 13db 69be
00000120: 5ea4 883d 1168 893e a9ef de3c fc78 9d3c
00000130: a9ee 063e ffdb 093f 434f 603e b8fe 833e
00000140: 38df f23e e014 98bd c085 22be 14aa f03e
00000150: 3c5a 843e 54fa a33e 641c 0abf bcee 9d3e
00000160: e996 4e3e d534 cf3e 5975 823d 37c5 bd3d
00000170: 961d de3e 939c 9fbd 5396 2b3c da1b e63d
00000180: 48ca 89bd 1484 373e bb20 d93e 76cd 123f
00000190: 1a66 ba3d 15d7 c5bb 021e b03d 76bd 7d3c
000001a0: e626 a1bd a9df 943e 9026 b43c 6a61 a73d
000001b0: 396e f7bd e92f 083d 3c23 89be bc73 763e
000001c0: 6b50 433d 8863 d4be 08d3 02bd e590 b5bc
000001d0: 4ecb b13d 1ea2 a6bd 983c e63e 0afa 0bbc
000001e0: 4b6f 3b3e 5f8b 94be 1091 463c 4ace 93be
000001f0: 5cc2 a6bd 7c76 eebe cab6 323f c475 8b3e
00000200: 1b57 763d 54d7 523e cd02 013d 4f9f 0d3f
00000210: e507 5d3d 70ed 913e ef32 b33e 3b8f cabd
00000220: 6eae 803c ac32 913e 44c9 18be 95f5 af3d
00000230: d497 8d3e 0987 0a3e 7538 8f3e 7831 ba3e
00000240: 047a b63e 66c4 b4bd 8399 1bbe 1c9a 903e
00000250: 4dde a33e be8f fd3e 0855 dfbe 3cce b93e
00000260: 7c49 e23e 1c38 943e 0e92 54be ace3 583e
00000270: 487c 2e3e 2fff 633d 1aaa a4bd 76b8 cdbd
00000280: 84f1 ffbd 538e cb3c b7e6 2e3e bf6b 883e
00000290: 52ec 4a3e f8fc 223e 5528 043e 2f25 6f3e
000002a0: 1b65 1fbe 78b8 bd3e fd79 0c3d 12a1 3f3e
000002b0: 1655 683d a66b 7abe 6d32 2abd f3c2 ff3e
000002c0: b73a a33e 57fa 68be f478 5fbd 1493 72ba
000002d0: 034d 973e d584 943c da17 a83e 03e6 1f3d
000002e0: ba8c f4bd 7f1f d2be c812 49be 6104 2abe
000002f0: 4875 a8be ce27 e5be f205 c23e 2ce7 0c3f
00000300: 29d7 0d3d 7980 6b3e 6170 9ebd 1b2b 783e
00000310: baff 6ebd 9601 583e f795 aebd fdf4 2abe
00000320: 9aa4 bb3c fe3d 9f3e a1ef cdbd 565e 8a3e
00000330: a38c 693d be0d 9d3e 4062 b33e 89b3 123f
00000340: 7477 a03e 75e8 20be da13 62bc 6495 9d3e
00000350: 605d 123e 9860 963e b394 d0be 1ec0 293e
00000360: 29d5 9a3e 503a a03e 6764 86be 7571 dd3c
00000370: a30c b83e ba2b 333e ff32 b73c c570 a6bd
00000380: 374f 49be cab2 d33e 0955 8d3e d85d c53e
00000390: ce01 d63b 1959 d23d 9f3d a33e 5d08 e23e
000003a0: a7d0 4abe e6b1 f63e ae83 e13d 3604 7a3e
000003b0: 9dc5 b83d 1552 7ebe f98f 2e3d fd02 e23e
000003c0: f683 61bd ac0b 7abe 76e6 22be b7eb ce3d
000003d0: c26e 3bbe 328f beba df01 e63e 17ad 133e
000003e0: d488 66bc 9e42 953d a4b8 723e 04bf 9ebe
000003f0: cd87 a7be 631a 9abe bb24 ca3e 5bfb a53e
0.5449237 0.33026665 0.42829937 -0.33483863 -0.43234298 0.26033193 -0.2591967 0.21552832
0.45477134 0.165852 0.45761237 0.5932302 -0.21270727 -0.4216547 -0.32698208 -0.39112058
-0.45729184 0.46102348 0.29850745 0.20472752 0.42441657 -0.24251878 0.29179066 -0.37424687
-0.11812823 -0.3171302 0.52591866 -0.3297925 -0.18435538 -0.5737344 0.4971592 0.4497194
0.7359183 -0.2558868 -0.26722658 -0.30651277 0.36112604 0.73533136 0.33223543 0.3947102
0.7701051 -0.29479453 0.42554706 -0.5639183 -0.76913375 0.55687356 0.37402028 -0.36542153
0.38884023 0.22991948 0.6285626 -0.38559437 0.56446725 0.57846403 -0.5892299 -0.49842033
0.9216006 0.55995214 0.54698235 0.38514715 0.05451663 0.24262178 -0.4367698 -0.20479946
0.15372242 0.17556556 -0.13808553 0.27092707 0.19506478 0.03997735 0.1370717 -0.22837476
0.066719756 0.2683721 0.027213888 0.019222729 0.13176979 0.5385131 0.21905236 0.25780272
0.47435927 -0.074258566 -0.15871334 0.4700476 0.25850093 0.32026923 -0.5394957 0.30846202
0.20174755 0.40469995 0.063700385 0.09266131 0.43381947 -0.07793536 0.010472852 0.11235781
-0.06728035 0.17921478 0.42407784 0.5734476 0.091015056 -0.0060376027 0.085994735 0.015487066
-0.078687474 0.2907689 0.021991044 0.08172877 -0.1208157 0.033248816 -0.26784694 0.24067587
0.047684114 -0.41482186 -0.031939536 -0.022163818 0.086813554 -0.0813639 0.44968104 -0.008543501
0.18304174 -0.29012582 0.0121195465 -0.28868324 -0.0814254 -0.4657477 0.69810164 0.27238286
0.060141664 0.20589954 0.03149681 0.5532121 0.053962607 0.28501463 0.34999797 -0.098906
0.015708175 0.28358972 -0.14920527 0.08591763 0.27654898 0.13528074 0.2797276 0.36365867
0.35639966 -0.088265225 -0.15195279 0.28242576 0.3200554 0.4952373 -0.4361956 0.36290157
0.4419669 0.28949058 -0.2075884 0.211806 0.17039597 0.055663284 -0.08040257 -0.10044949
-0.12497237 0.024848139 0.17080198 0.26644704 0.19816712 0.15916812 0.1290601 0.23354028
-0.15565912 0.370548 0.034296025 0.18713787 0.05672177 -0.24455127 -0.041551996 0.49953422
0.31880733 -0.22751747 -0.05455871 -0.0009253484 0.29550943 0.018129745 0.32830697 0.039037716
-0.11940904 -0.41039655 -0.1963607 -0.16603233 -0.32901978 -0.4475693 0.3789516 0.5504024
0.03462902 0.22998227 -0.07736278 0.24235193 -0.05834935 0.21094355 -0.08524697 -0.16695018
0.022905637 0.31101984 -0.10055471 0.27025098 0.057018887 0.30674547 0.35035896 0.573052
0.31341136 -0.15713675 -0.013798678 0.30778039 0.14293432 0.2937057 -0.40738449 0.16577193
0.30240753 0.3129449 -0.26248476 0.02703164 0.3594714 0.17497149 0.022363184 -0.08126978
-0.19659124 0.41347343 0.2760394 0.3854816 0.006530977 0.102709 0.3188295 0.44147006
-0.19806157 0.481826 0.11011444 0.24415669 0.09022067 -0.24836 0.04261777 0.44142905
-0.05505749 -0.24418515 -0.15908226 0.10103553 -0.1830397 -0.0014538525 0.44923303 0.14421497
-0.014070708 0.07288097 0.23703247 -0.31005108 -0.32720795 -0.30098256 0.39481148 0.32418332

critic.network_body.linear_encoder.seq_layers.2.bias f4 [64]
00000000: d9b4 c03e 0eed db3d 86ce d93d 50b9 b53d
00000010: baa4 c63e 41a2 c63e d766 ce3e 53d1 be3e
00000020: 8193 c23e 902b bd3e 9fdb 373d 2c5b eb3d
00000030: dea3 2bbc 1195 1d3d e7c6 a83d 3e1f ca3d
00000040: e483 9d3d 896c 8b3d 3871 b23d ec36 ec3d
00000050: b5d5 1e3e ec0d 9b3e 4749 c13e 203e d23e
00000060: c534 ae3d e0bd 1a3e d77b 643d 7ca0 983d
00000070: 06bc c23e fd53 ce3d fe18 c33e 1136 b03d
00000080: b155 be3e 1440 363d 7448 cc3d ca91 5b3c
00000090: 6e44 bd3e cf28 f8bb 6750 a83d 4fe6 c33e
000000a0: d9aa 683d b0a2 ce3c c4ba 4d3d 6431 813d
000000b0: b777 d63e d309 3f3d 279b 323d 3320 8d3d
000000c0: 1d84 5cbd ea7b 4b3d 4e81 a93d d218 c43e
000000d0: 905d 6b3c 0bc4 433e ea0c fbbb 70f3 bd3e
000000e0: 467b b93d a3aa d73c be5a b53d 908d a63d
000000f0: 7b37 3b3b 43c1 9b3d 128b cf3e 8495 cc3e
0.37637976 0.10738574 0.10635094 0.08873236 0.3879755 0.38795665 0.40312836 0.37269077
0.38003162 0.36947298 0.04488718 0.11491999 -0.010476081 0.03847224 0.082410626 0.0986924
0.07691172 0.06807811 0.08713001 0.11533913 0.1551121 0.3028406 0.3775122 0.41063023
0.08506159 0.15111494 0.055782165 0.07452485 0.38034075 0.10074613 0.38105005 0.08604062
0.37174752 0.044494703 0.09974757 0.013401458 0.3696627 -0.007573224 0.082184605 0.3826165
0.056803558 0.02522406 0.05022694 0.06308249 0.4188821 0.04664023 0.043604996 0.06890907
-0.05383693 0.04967872 0.08276616 0.38300186 0.014365569 0.19117753 -0.0076614516 0.3709979
0.09056716 0.026326483 0.08855198 0.0813247 0.0028567004 0.07605221 0.4053579 0.3995782

critic.value_heads.value_heads.extrinsic.weight f4 [1, 64]
00000000: c693 4c3f 6650 e0be 0013 25bf 2cef 12bf
00000010: 0fcb 3a3f 0d10 1a3f 154c 4b3f 43cc 283f
00000020: 5f40 5a3f 3844 453f 63ea a1be 5a72 1abf
00000030: 1c55 bebe 2057 debe 2fcf 20bf 4a18 0ebf
00000040: 0980 0abf 114d c4be 6fbb c4be 8fc9 0abf
00000050: 9fa1 0e3f 1da4 fd3e eaf4 513f cb7d 473f
00000060: 5ce4 f3be dbc9 b53e e28b dfbe 984a 0abf
00000070: c1b0 3b3f 28a1 ddbe bfcb 3c3f 1a3b 1cbf
00000080: de17 383f 6043 27bf 5daa c1be 6b20 c0be
00000090: 030b 3d3f acb2 5e3e 290e a8be 10ea 333f
000000a0: 15f9 0fbf 0e43 a13e a25f cabe 7ff8 fdbe
000000b0: 2e9e 3d3f 33c6 08bf 6871 0dbf a230 07bf
000000c0: 28b1 9e3e 1f00 c0be 04fa 26bf 7624 3c3f
000000d0: a3cb d93e 2f6b ca3e dbe1 9bbe c80e 2e3f
000000e0: ec68 bfbe 1dfa b93e 418d 10bf 62f9 00bf
000000f0: dc8e 2fbe ca01 bcbe ed00 263f f501 573f
0.79912984 -0.4381134 -0.64482117 -0.573962 0.7296609 0.6018074 0.79412967 0.6593668
0.8525447 0.7705722 -0.31624135 -0.60330737 -0.37174308 -0.43425846 -0.6281614 -0.5550581
-0.54101616 -0.38340047 -0.3842425 -0.54213804 0.55715364 0.4953927 0.82014334 0.7792632
-0.47635162 0.35505566 -0.4366141 -0.5402007 0.7331658 -0.43287015 0.7374839 -0.6102768
0.7191142 -0.6533718 -0.3782529 -0.37524733 0.7384493 0.21747845 -0.32823303 0.70279026
-0.56239444 0.3149647 -0.39526087 -0.4960365 0.7406949 -0.5342743 -0.5525117 -0.5280858
0.30994534 -0.37500092 -0.65225244 0.73493135 0.42538175 0.395349 -0.30445752 0.67991304
-0.37384737 0.36323634 -0.56465536 -0.5038053 -0.1714434 -0.36720115 0.6484516 0.8398736
