results/Hikaru_0/Hikaru/Hikaru-1735.onnx (onnx, 219188 bytes, 6 tensors)

action_model._discrete_distribution.branches.0.bias f4 [675]
-0.004580645 -0.0048288647 0.002489374 -0.0007188713 8.367804e-05 -0.004446477 -0.004830721 0.0013128476
0.0017559301 -0.0033580158 -0.0016823354 0.0021364086 0.005742855 0.0051593916 -0.00048728604 -0.0079957275
0.0019393039 0.004605078 -0.006276402 0.007756077 0.0028401802 -0.0037583322 -0.008450833 -7.53532e-05
0.0042116703 -0.008915503 -0.0031150223 -0.0060060164 -0.0014143643 0.0028262823 -0.004636538 0.0085244
0.009158705 -0.0021928342 0.0064251833 0.00040184506 0.004950159 0.004629222 -0.007694835 -9.326284e-05
0.0013065834 -0.0005548263 0.006324935 -0.00975034 -0.0031243302 -7.716474e-05 -0.0036224548 -0.0015621837
0.0015661957 -0.004935561 -0.0066429577 0.00016298544 0.0057162317 0.00036869833 0.0004788476 -0.0011127414
0.0039478987 0.0056114034 0.0041543692 -0.0032155912 0.00020260905 0.0054767514 0.000461203 -0.006799733
-0.0024102472 0.0016788373 0.0003266877 -0.0069091204 0.007610679 -0.0049011176 -0.0068437457 -0.00051478023
0.0038805616 0.005914437 0.00908545 -0.005249667 -0.0026879346 0.009729711 -0.0030095458 -0.009363361
0.005378699 -0.0002689955 -0.006086788 -0.00020632669 0.0032321159 0.0042865183 -0.004675944 0.0049597863
0.006733847 -0.0095722815 -0.0041802684 0.0016603849 0.0036626607 0.0010787627 0.0025644265 -0.0022878982
0.003250304 0.00012199344 -0.006110783 -0.0032439572 0.0008892032 -0.0026335868 -0.0033278773 -0.0011303423
-0.004350556 -0.010194799 -0.00033542464 0.005256823 0.0060317246 0.0033317904 -0.006899206 3.4502464e-05
0.0009657925 0.0056416714 -0.0035677904 0.0026322647 0.0043825353 0.010919457 0.010499441 -0.00235926
0.00016094751 -0.0038217779 -0.008883863 -0.008611811 -0.0070596244 -0.0015532399 -0.0006164308 0.0057608048
-0.0020174952 0.00333011 -0.002372443 0.001322958 0.0036441614 -0.0039983294 -0.0030177555 -0.006409284
6.5494736e-05 0.005162117 0.0023525069 -0.0017094328 -0.008279766 -0.0035311813 0.00065637386 0.0081241075
-0.006713584 -0.006958497 0.00059533503 0.008044142 -0.00809219 0.0057851593 0.004848716 0.0027621724
-0.0077685155 -0.0048807818 0.0012969031 -0.0039103483 -0.00073876407 0.005922172 -0.0069702123 0.0048826034
-0.0024674714 0.0033096955 0.002032529 0.0036008381 0.010639563 0.0037620873 0.0025381104 0.00361203
-0.0015416167 -0.004746165 0.0083553 -0.0039592716 0.0037518654 -0.0045582266 -0.0067597497 -0.003662157
-0.003259426 -0.0030986457 0.0047495645 0.0062705446 0.009676347 0.00057675486 -0.0010262454 0.0068588946
-0.0066443444 -0.0029783803 0.008874529 0.00018795212 0.009450144 0.0007936061 -0.0030894654 0.0034283735
0.00570079 -0.005284414 0.0025637674 -0.008529395 0.0017568311 -0.0032191165 -0.008703102 -0.0008935874
0.004990076 0.00021662116 0.006609643 0.0015031882 0.0062181964 0.0049942983 0.0009197421 -1.7535262e-05
0.0071204756 0.0030086224 0.0025612921 0.0035102302 -0.0005981206 -0.005392082 0.005218287 -0.0066238777
-0.0074031185 0.0018396294 0.0015339109 0.0035661932 -0.0050513856 0.003594135 -0.007915275 -0.00401177
0.0041923258 -0.0040840846 -0.005334027 0.001648703 0.0032283666 0.0049960013 0.002865335 -0.003301255
-0.0036645883 0.0048663113 -0.002306727 -0.005637137 -0.0052146357 0.0007413642 0.00020765819 -0.008872329
0.0021983455 0.0120206745 -0.0031857353 -0.0030492798 -0.0020113108 -0.006386608 -0.002431073 0.005736845
-0.007298387 -0.008788347 -0.007210515 0.00034706533 0.009088716 0.006183343 0.0063394676 0.00046057015
00000000: 3c19 96bb 743b 9ebb c424 233b a372 3cba
00000010: 4e7c af38 c1b3 91bb 064b 9ebb db13 ac3a
00000020: 3d27 e63a 2812 5cbb cf81 dcba fd02 0c3b
00000030: 8f2e bc3b 1d10 a93b 6d7a ffb9 8300 03bc
00000040: 3e30 fe3a 32e6 963b 47aa cdbb b126 fe3b
00000050: 5122 3a3b 5a4e 76bb 5d75 0abc f106 9eb8
00000060: 0d02 8a3b 5412 12bc 6725 4cbb 1ece c4bb
00000070: 3162 b9ba 2639 393b 1aee 97bb eda9 0b3c
00000080: 650e 163c a7b5 0fbb 588a d23b bbae d239
00000090: f234 a23b bbb0 973b f424 fcbb 1b96 c3b8
000000a0: aa41 ab3a c371 11ba 6641 cf3b e4bf 1fbc
000000b0: 90c1 4cbb 81d3 a1b8 b566 6dbb 30c2 ccba
000000c0: cf48 cd3a 7dba a1bb 2bad d9bb 12e7 2a39
000000d0: 3a4f bb3b da4d c139 d60d fb39 68d9 91ba
000000e0: 605d 813b dddf b73b 6021 883b abbc 52bb
000000f0: 7473 5439 5276 b33b 9ecd f139 4bd0 debb
00000100: 3df5 1dbb 6f0c dc3a 4847 ab39 e765 e2bb
00000110: 0163 f93b 8e99 a0bb 8041 e0bb 51f2 06ba
00000120: 0551 7e3b e5cd c13b 24db 143c 6605 acbb
00000130: 0f28 30bb 5e69 1f3c cd3b 45bb c868 19bc
00000140: cc3f b03b f707 8db9 ae73 c7bb 6659 58b9
00000150: e8d1 533b ec75 8c3b a938 99bb b485 a23b
00000160: 9aa7 dc3b 0fd5 1cbc a2fa 88bb 46a1 d93a
00000170: 4009 703b 4565 8d3a f00f 283b 90f0 15bb
00000180: 0d03 553b bbd6 ff38 f73c c8bb 9298 54bb
00000190: 6b19 693a 4198 2cbb 8418 5abb fe27 94ba
000001a0: 1c8f 8ebb 1608 27bc efdb afb9 6d41 ac3b
000001b0: c6a5 c53b 2b5a 5a3b bc12 e2bb bdb6 1038
000001c0: 3d2d 7d3a c5dd b83b 97d1 69bb 1382 2c3b
000001d0: 5f9b 8f3b 86e7 323c d905 2c3c d19d 1abb
000001e0: 05c4 2839 cb76 7abb 9f8d 11bc 8e18 0dbc
000001f0: 6c54 e7bb 1596 cbba f997 21ba 22c5 bc3b
00000200: f437 04bb fa3d 5a3b fd7a 1bbb 1b67 ad3a
00000210: e2d2 6e3b 6b04 83bb 89c5 45bb f904 d2bb
00000220: 385a 8938 fa26 a93b 842c 1a3b 0c0f e0ba
00000230: dba7 07bc 646b 67bb 8110 2c3a fa1a 053c
00000240: a0fd dbbb 1b04 e4bb 4210 1c3a 94cb 033c
00000250: 1b95 04bc 6f91 bd3b fae1 9e3b 9005 353b
00000260: 088f febb f7ee 9fbb d9fc a93a 6122 80bb
00000270: 9ea9 41ba c80e c23b 6166 e4bb 3ffe 9f3b
00000280: 4db5 21bb 7ae7 583b 2e34 053b 0afc 6b3b
00000290: 9051 2e3c 5a8d 763b 6d56 263b cfb7 6c3b
000002a0: 1310 caba b885 9bbb abe4 083c c7bc 81bb
000002b0: dbe1 753b 2d5d 95bb e480 ddbb cd00 70bb
000002c0: 189c 55bb a612 4bbb 3ca2 9b3b 2479 cd3b
000002d0: 8a89 1e3c 5d31 173a 1583 86ba 94c0 e03b
000002e0: cdb8 d9bb ee30 43bb 7966 113c 0315 4539
000002f0: c7d4 1a3c 010a 503a a178 4abb 90ae 603b
00000300: b1cd ba3b e128 adbb e104 283b e0be 0bbc
00000310: 7845 e63a d0f7 52bb 7597 0ebc a33f 6aba
00000320: cb83 a33b cd24 6339 b495 d83b a006 c53a
00000330: 03c2 cb3b 36a7 a33b d91a 713a b018 93b7
00000340: e152 e93b 4f2c 453b 5adb 273b e40b 663b
00000350: 32cb 1cba 10b0 b0bb 2afe aa3b 1d0d d9bb
00000360: dc95 f2bb b81f f13a 820d c93a cbb6 693b
00000370: 1886 a5bb 948b 6b3b 12af 01bc 2a75 83bb
00000380: c75f 893b c9d3 85bb 10c9 aebb 4b19 d83a
00000390: 0193 533b 7fb5 a33b 58c8 3b3b de59 58bb
000003a0: 9729 70bb 9475 9f3b 752c 17bb bcb7 b8bb
000003b0: 89df aabb 1c58 423a d2be 5939 3f5d 11bc
000003c0: 1e12 103b 5df2 443c c5c7 50bb 6dd6 47bb
000003d0: 32d0 03bb c046 d1bb a352 1fbb 25fc bb3b
000003e0: 4f27 efbb 00fd 0fbc 2f46 ecbb 52f6 b539
000003f0: d6e8 143c a49d ca3b 4fbb cf3b ae78 f139

action_model._discrete_distribution.branches.0.weight f4 [675, 64]
0.01258215 0.0022169694 -0.007345984 -0.003276545 -0.015160112 -0.006985242 -0.012416349 0.004929276
-0.010593768 -0.011134683 -0.014850944 0.0016873637 -0.026002867 -0.011614131 -0.018135557 -0.022922566
0.0020845488 0.009469785 -0.0019862566 0.0016658675 -0.022923836 -0.026923958 0.00417244 0.00030696858
0.018227017 -0.015213579 -0.003973364 0.009063349 0.000119166594 -0.0011447042 -0.0018256223 0.009941168
0.008549057 -0.019103525 0.031638216 0.024564615 -0.009246648 -0.008783841 0.0013228974 0.008292304
0.007949488 -0.018903868 0.016164046 -0.030698406 -0.0065482273 0.0132226 -0.00419202 -0.024172422
-0.0063192896 -0.008094275 0.018991752 0.015012471 -0.009643679 -0.0117623415 -0.041913122 0.009790216
0.00060955575 -0.008322853 0.0024716037 0.005676504 -0.026742563 -0.014736618 -0.0010245213 0.00022303332
-0.0041569285 -0.0016720193 -0.030378152 0.0034072944 -0.0021696838 -0.0062479884 -0.004022656 -0.016077975
-0.00495289 -0.015038292 0.02650619 0.007863182 -0.030582715 0.012884752 0.03100218 0.009221073
0.020349698 0.012780683 0.0060860193 -0.0064581125 0.0142408945 -0.03436195 0.016490348 0.010480062
-0.010798615 0.00073797797 0.017536974 -0.004889951 0.0130671235 0.024836246 -0.02156927 0.025412282
0.018737266 0.013932659 0.038902026 -0.0127209695 -0.003002646 -0.048164334 0.009654202 0.04754645
0.008290992 0.009806554 -0.035693947 -0.012491561 0.00083643553 0.004085005 -0.018963242 -0.019749928
-0.0013921378 -0.01175081 0.0048494153 0.016442161 -0.017867249 0.011895128 -0.020122075 -0.006869532
-0.008751798 -0.015069951 0.01304692 0.015192308 -0.025287088 0.03469388 0.014123172 0.012045787
0.011625735 0.037811685 -0.0046077487 -0.0052639325 0.0028362006 0.002486943 0.0076870993 0.0041925516
-0.010131714 0.0080744885 -0.008302113 -0.008770185 -0.0015863009 -0.0032372016 0.011609359 0.0070105363
-0.00803457 -0.009015744 -0.010823615 0.00041641193 0.019643486 -0.01097977 0.0131669175 0.011545692
0.0034207907 -0.0023504293 0.013472899 -0.017911645 0.03195699 0.012181393 0.011334067 -0.019459601
-0.01204814 0.0075754803 -0.01113777 0.00300882 0.016265802 0.010499957 0.021433836 -0.02053485
-0.010553505 0.017077805 0.003250928 0.009369042 0.009485822 0.0029052703 0.002667252 0.0012664417
-0.009604983 0.01659756 0.017426895 0.026352417 0.005128922 0.0044110497 0.013790708 -0.021074876
-0.020168545 -0.023491189 0.017770827 -0.019367104 0.020344185 0.033326928 0.0076405974 0.002843744
-0.0060188733 -0.018135829 0.004899767 0.0011652019 -0.013763294 0.0076547298 0.026223581 -0.022464704
0.0072752987 0.0036782997 -0.017963156 -0.027400011 -0.008847566 -0.01372158 -0.004406268 -0.022120679
-0.009717644 -0.0003667854 0.01767708 -0.0067356327 -0.011920542 0.015729735 -0.00806944 -0.016883597
-0.015239494 -0.0022462446 -0.006136139 0.013503076 0.00939679 0.0015380833 0.00918747 -0.02116942
0.0063726576 -0.012902435 0.0071740015 -0.011313322 0.0025149167 0.030451356 -0.0016757523 -0.014091214
0.02802212 0.008819085 0.022023277 -0.004848413 0.015359064 -0.02591516 0.011930265 0.006187192
-0.0051312395 -0.000742645 0.0113557335 -0.0029453165 -0.008445549 0.0052809697 -0.007219858 -0.0015731019
0.0062790387 0.014304349 0.026283177 -0.017262746 -0.008489007 0.017377334 0.005741465 0.012775193
00000000: 5d25 4e3c 934a 113b 95b6 f0bb 4ebb 56bb
00000010: 1e62 78bc 75e4 e4bb f16d 4bbc c485 a13b
00000020: 7c91 2dbc 3f6e 36bc 6051 73bc 882a dd3a
00000030: f703 d5bc 3249 3ebc 0591 94bc 1bc8 bbbc
00000040: ed9c 083b 2827 1b3c db2b 02bb 3d59 da3a
00000050: c5ca bbbc a28f dcbc f7b8 883b a0f0 a039
00000060: d350 953c 6042 79bc fe32 82bb 717e 143c
00000070: 14e9 f938 e609 96ba b849 efba 48e0 223c
00000080: 5811 0c3c ff7e 9cbc 1397 013d bb3b c93c
00000090: 417f 17bc 19ea 0fbc 1265 ad3a 72dc 073c
000000a0: 923e 023c 49dc 9abc 766a 843c 397b fbbc
000000b0: 8392 d6bb 9ba3 583c 365d 89bb 3e05 c6bc
000000c0: 0b12 cfbb da9d 04bc 9794 9b3c def6 753c
000000d0: 8500 1ebc d6b6 40bc 18ad 2bbd 2467 203c
000000e0: 98ca 1f3a 935c 08bc a1fa 213b f801 ba3b
000000f0: 3813 dbbc db71 71bc 3b49 86ba 0dde 6939
00000100: d836 88bb a827 dbba 9adb f8bc ea4c 5f3b
00000110: 4131 0ebb edbb ccbb 7cd0 83bb f5b5 83bc
00000120: da4b a2bb 2b63 76bc 8223 d93c 93d4 003c
00000130: 9a88 fabc 911a 533c 49f8 fd3c fc13 173c
00000140: 69b4 a63c 1266 513c 3b6d c73b 939e d3bb
00000150: a452 693c 1ebf 0cbd c416 873c 91b4 2b3c
00000160: adec 30bc dd74 413a b3a9 8f3c e23b a0bb
00000170: 7d17 563c 6275 cb3c 0ab2 b0bc 6b2d d03c
00000180: e57e 993c cf45 643c bb57 1f3d 9d6b 50bc
00000190: 0ac8 44bb f747 45bd a82c 1e3c 11c0 423d
000001a0: f1d6 073c abab 203c d133 12bd 67a9 4cbc
000001b0: 3d44 5b3a 81db 853b cd58 9bbc 9aca a1bc
000001c0: 6578 b6ba 7886 40bc d8e7 9e3b b6b1 863c
000001d0: 565e 92bc c8e3 423c 0dd7 a4bc d019 e1bb
000001e0: b463 0fbc f5e7 76bc c0c2 553c 29e9 783c
000001f0: de26 cfbc 2b1b 0e3d e064 673c b15b 453c
00000200: de79 3e3c 6de0 1a3d 99fc 96bb 117d acbb
00000210: 8ddf 393b fbfb 223b 10e4 fb3b ac61 893b
00000220: 7dff 25bc dc4a 043c 9605 08bc d2b0 0fbc
00000230: 6deb cfba 3b27 54bb 2e35 3e3c a4b8 e53b
00000240: 6ea3 03bc c5b6 13bc 8855 31bc dd51 da39
00000250: 60eb a03c 7ee4 33bc 0eba 573c 242a 3d3c
00000260: 582f 603b a909 1abb 6fbd 5c3c 71bb 92bc
00000270: 55e5 023d 7794 473c 86b2 393c be69 9fbc
00000280: 9065 45bc bc3b f83b 317b 36bc 9f2f 453b
00000290: dc3f 853c 0308 2c3c 0396 af3c b438 a8bc
000002a0: 9ce8 2cbc c1e6 8b3c 850d 553b 9c80 193c
000002b0: 6c6a 1b3c 5966 3e3b 10cd 2e3b bbfe a53a
000002c0: 385e 1dbc 9bf7 873c d9c2 8e3c 06e1 d73c
000002d0: 8410 a83b 918a 903b 6cf2 613c 38a5 acbc
000002e0: 8138 a5bc 9870 c0bc 2094 913c c3a7 9ebc
000002f0: d9a8 a63c d181 083d fa5d fa3b 1b5e 3a3b
00000300: f839 c5bb 9791 94bc 3a8e a03b b0b9 983a
00000310: 707f 61bc 87d4 fa3b d6d2 d63c e607 b8bc
00000320: a165 ee3b a10f 713b 7827 93bc fd75 e0bc
00000330: 62f5 10bc 7ad0 60bc 7462 90bb 6d36 b5bc
00000340: c136 1fbc 1a4d c0b9 86cf 903c 95b6 dcbb
00000350: 614e 43bc a5db 803c af35 04bc 784f 8abc
00000360: 12af 79bc bb35 13bb aa11 c9bb 013c 5d3c
00000370: fef4 193c 8399 c93a 0b87 163c 7e6b adbc
00000380: bad1 d03b bc64 53bc e313 eb3b 835b 39bc
00000390: 4dd1 243b 1f75 f93c eba4 dbba d6de 66bc
000003a0: a58e e53c ec7d 103c 296a b43c 70df 9ebb
000003b0: 95a4 7b3c 084c d4bc 2977 433c eebd ca3b
000003c0: f523 a8bb 10ae 42ba 660d 3a3c 3606 41bb
000003d0: 335f 0abc fc0b ad3b 8f94 ecbb 8a30 ceba
000003e0: 65c0 cd3b ca5c 6a3c d14f d73c 9a6a 8dbc
000003f0: 7a15 0bbc e95a 8e3c e622 bc3b 0b4f 513c

network_body.linear_encoder.seq_layers.0.bias f4 [64]
-0.0012965187 0.006746418 -0.0010212444 0.012401575 0.0075951526 0.007827593 0.019246405 0.012155651
0.00079456106 0.0018542357 0.007465816 -0.009242271 0.008216846 -0.00030744664 0.00021539592 0.005621849
-0.007284234 0.007107088 0.011662179 0.008905556 0.010277196 0.009021307 -0.0018537635 0.0024143504
0.008147151 0.011557855 0.0055722096 0.0012727502 0.0006083415 0.0057073673 0.0034638443 0.006512926
0.00016439833 0.004550227 -0.008491458 -0.0057809553 0.013246056 -0.0008169586 0.009306514 -0.004971777
0.00491142 0.006070187 0.002619525 0.0014195772 -0.0029570144 -0.004151131 0.0069327955 0.0127929235
-0.0014941224 0.004518678 0.011011586 0.0036686072 0.006631557 0.00060911546 -0.0004180969 0.0023574086
0.006303211 -0.009026058 0.0047744247 0.0027882198 -0.0013250967 0.004986176 -0.0061532124 -0.0018390084
00000000: f3ef a9ba 0e11 dd3b 47db 85ba fa2f 4b3c
00000010: c2e0 f83b 4e3f 003c a3aa 9d3c 7f28 473c
00000020: 174a 503a d309 f33a cea3 f43b e56c 17bc
00000030: f39f 063c ca30 a1b9 e7db 6139 7d37 b83b
00000040: 95b0 eebb 93e2 e83b b912 3f3c 9ce8 113c
00000050: af61 283c 1bce 133c fbf9 f2ba 143a 1e3b
00000060: a17b 053c 285d 3d3c 1597 b63b 69d2 a63a
00000070: 1b79 1f3a de04 bb3b aa01 633b 626a d53b
00000080: 5762 2c39 121a 953b c21f 0bbc 2b6e bdbb
00000090: fc05 593c 2a29 56ba 597a 183c 4aea a2bb
000000a0: faef a03b 6be8 c63b 56ac 2b3b 1b11 ba3a
000000b0: 78ca 41bb 3606 88bb 812c e33b 6999 513c
000000c0: 6ed6 c3ba 6b11 943b f069 343c 046d 703b
000000d0: 884d d93b 0cad 1f3a 0434 dbb9 c17e 1a3b
000000e0: 2b8b ce3b 08e2 13bc c772 9c3b 91ba 363b
000000f0: deae adba 1363 a33b e3a0 c9bb e20a f1ba

network_body.linear_encoder.seq_layers.0.weight f4 [64, 96]
-0.01031112 -0.17833126 -0.0607965 -0.0153804235 -0.22979493 0.04686707 -0.016204959 -0.11225183
0.013421425 0.022330208 0.07473943 -0.007514165 -0.122041665 -0.015027897 0.001047883 -0.038048994
-0.054358065 0.10000011 0.19796582 0.0062381625 -0.12782758 -0.1757303 -0.10492071 0.009284345
0.009037887 -0.048920847 0.023892196 -0.19319393 0.054618694 -0.09169814 0.29903096 0.0061469357
0.13044836 -0.10406682 0.018859535 0.13993733 -0.09098115 0.18713017 -0.041108537 0.2618254
0.002792905 -0.043847412 -0.008124304 0.24355565 0.025326997 0.007340972 0.04187964 0.18972509
-0.06890272 -0.047852814 -0.119884744 0.20031922 0.288995 -0.13960283 0.01626272 -0.10283126
0.06850483 -0.025879566 -0.17793493 -0.20265721 0.044544153 0.034755863 -0.041082088 0.05556303
0.22315963 0.044267543 -0.052485693 0.09927635 0.028413352 0.0817387 0.071448795 -0.17525654
-0.0551004 -0.13421917 -0.0377291 0.14425093 -0.18544644 0.0056071654 0.13443536 -0.18604618
-0.050257854 -0.029004283 -0.045378506 0.11257025 0.012901863 0.04400371 -0.06820624 -0.07424482
-0.062152375 -0.045300867 -0.08995524 -0.09758699 0.022772929 0.15583472 -0.07391382 -0.03021708
0.116785765 -0.1052648 -0.14891762 0.13006693 -0.22010396 -0.0033832064 -0.016377727 0.038985033
0.002411685 0.052357655 -0.041930646 -0.037875906 0.08298771 -0.08240247 -0.06911295 -0.032055393
-0.108095944 0.058846463 0.11110147 0.042451143 0.057639547 0.05519522 0.17457649 0.111409634
0.11710898 0.109455064 0.016228762 -0.08385984 -0.1778615 -0.10928565 0.015238083 -0.02044766
-0.032883603 -0.068381205 -0.2396103 -0.0625011 -0.15632994 0.022676177 0.02012458 -0.016168136
0.014012994 -0.13379522 -0.013854806 -0.15557437 0.016325004 0.009125956 0.09031748 -0.12183385
-0.035778586 0.016637757 0.052470647 -0.11131039 0.012920863 0.06422082 0.026964357 -0.046028785
-0.13367647 -0.013138975 0.053695656 -0.00030093628 0.06008161 -0.060128655 0.10186745 -0.012904253
-0.124466956 -0.013368734 0.035682086 0.047030978 -0.022392819 -0.030391103 0.054070815 0.001351619
0.054507997 -0.0019621581 -0.09037344 0.16012791 0.06997447 -0.01129769 -0.08081045 -0.03506145
-0.07817011 0.00024148895 0.058867678 -0.12456915 0.08630735 0.0122462055 -0.1424947 0.1541706
-0.038182974 0.23823689 0.013776792 0.026678888 -0.11714528 -0.055132993 0.11310106 -0.0075586196
-0.007101326 0.15864798 -0.09386128 0.019062173 -0.058992382 -0.09265735 0.20992891 0.01126918
-0.08963465 0.055815466 -0.039260738 -0.046327516 0.0025442163 -0.046568096 -0.13880946 0.11312141
0.020960476 -0.19404942 -0.12426437 0.018800167 -0.022977727 0.012774101 -0.08625179 -0.12238876
0.07844074 -0.10727091 0.016520305 -0.23156917 0.016880596 -0.075314835 -0.022603784 0.062462598
-0.04967136 -0.0005806397 -0.051681913 -0.16171947 -0.014779659 -0.16461556 -0.0028608667 0.015905323
0.07370569 -0.14549866 0.11097306 0.06980692 -0.13532698 -0.104545146 -0.16529946 0.09613198
0.058534767 -0.050020743 -0.18179007 0.04622513 0.06994638 0.03966182 -0.18822497 -0.033501435
-0.055955894 0.008094005 -0.071059674 -0.0503456 -0.031424258 -0.19712861 -0.15740767 -0.1286456
00000000: f9ef 28bc 789c 36be c005 79bd 2cfe 7bbc
00000010: 5d4f 6bbe aff7 3f3d 43c0 84bc 4ae4 e5bd
00000020: 89e5 5b3c d7ed b63c fc10 993d 6239 f6bb
00000030: fbf0 f9bd 9237 76bc 1e59 893a 43d9 1bbd
00000040: 90a6 5ebd dccc cc3d 8db7 4a3e 8069 cc3b
00000050: 3ce5 02be a5f2 33be abe0 d6bd 5e1d 183c
00000060: a513 143c 3a61 48bd 91b9 c33c a1d4 45be
00000070: dab7 5f3d 3ccc bbbd 961a 993e 3c6c c93b
00000080: 4194 053e fc20 d5bd 507f 9a3c bb4b 0f3e
00000090: 5354 babd 0d9f 3f3e 6d61 28bd fb0d 863e
000000a0: 2c09 373b 5899 33bd cd1b 05bc a766 793e
000000b0: 907a cf3c 898c f03b fc89 2b3d 4b47 423e
000000c0: df1c 8dbd 5001 44bd 2286 f5bd 7b20 4d3e
000000d0: 27f7 933e 0bf4 0ebe 6539 853c 3299 d2bd
000000e0: 434c 8c3d 6201 d4bc 9334 36be 5f85 4fbe
000000f0: ee73 363d 2a5c 0e3d b145 28bd 0f96 633d
00000100: f583 643e e251 353d 3dfb 56bd 6651 cb3d
00000110: 1ec3 e83c 9f66 a73d bf53 923d 7376 33be
00000120: f5b0 61bd c070 09be d489 1abd 84b6 133e
00000130: ace5 3dbe 50bc b73b 6ca9 093e e482 3ebe
00000140: 2edb 4dbd 649a edbc d0de 39bd 3b8b e63d
00000150: 5662 533c 3c3d 343d b7af 8bbd ab0d 98bd
00000160: 7d93 7ebd 678d 39bd 743a b8bd b0db c7bd
00000170: 4b8e ba3c 2393 1f3e 2160 97bd cf89 f7bc
00000180: 602d ef3d 1295 d7bd dc7d 18be 4430 053e
00000190: ef62 61be c9b8 5dbb 952a 86bc c5ae 1f3d
000001a0: 5c0d 1e3b fb74 563d 78bf 2bbd c423 1bbd
000001b0: 76f5 a93d a0c2 a8bd 178b 8dbd 844c 03bd
000001c0: 6861 ddbd fd08 713d 2b89 e33d 40e1 2d3d
000001d0: 7217 6c3d 6214 623d 2ec4 323e bc2a e43d
000001e0: d5d6 ef3d fa29 e03d 2ef2 843c b5be abbd
000001f0: 5321 36be 28d1 dfbd 27a9 793c da81 a7bc
00000200: f5b0 06bd 720b 8cbd 675c 75be 9400 80bd
00000210: f514 20be 64c3 b93c 4edc a43c 0a73 84bc
00000220: c296 653c 9d01 09be 45ff 62bc e34e 1fbe
00000230: 04bc 853c 0985 153c 5ff8 b83d 0784 f9bd
00000240: 918c 12bd e84b 883c 76eb 563d b4f6 e3bd
00000250: 07b2 533c 3586 833d 5be4 dc3c ae88 3cbd
00000260: 7ce2 08be db44 57bc faef 5b3d fcc6 9db9
00000270: 2218 763d 7749 76bd e29f d03d 5c6c 53bc
00000280: 88e8 febd 8908 5bbc 6127 123d 8ea3 403d
00000290: 2571 b7bc c3f6 f8bc 5c79 5d3d cf28 b13a
000002a0: c743 5f3d 8d97 00bb b615 b9bd 92f8 233e
000002b0: c64e 8f3d f219 39bc f37f a5bd 989c 0fbd
000002c0: a717 a0bd 3238 7d39 3c1f 713d 1c1e ffbd
000002d0: e8c1 b03d 4fa4 483c 21ea 11be e6de 1d3e
000002e0: c065 1cbd 5ff4 733e 0eb8 613c af8d da3c
000002f0: dde9 efbd 22d3 61bd 87a1 e73d 4cae f7bb
00000300: 3db2 e8bb 9e74 223e 583a c0bd 4628 9c3c
00000310: ffa1 71bd 23c3 bdbd 9bf7 563e 5ea2 383c
00000320: 5f92 b7bd c29e 643d decf 20bd ecc1 3dbd
00000330: debc 263b 30be 3ebd 1124 0ebe 33ac e73d
00000340: 4eb5 ab3c e4b4 46be 517e febd cf02 9a3c
00000350: c93b bcbc 774a 513c c7a4 b0bd f5a6 fabd
00000360: 8aa5 a03d dab0 dbbd 9755 873c 7820 6dbe
00000370: 2d49 8a3c aa3e 9abd 922b b9bc c8d8 7f3d
00000380: 3274 4bbd 1236 18ba 6ab0 53bd ca99 25be
00000390: 6226 72bc fb90 28be 617d 3bbb e14b 823c
000003a0: 02f3 963d 9afd 14be d845 e33d eef6 8e3d
000003b0: 2893 0abe c41b d6bd 4344 29be d8e0 c43d
000003c0: 27c2 6f3d 8de2 4cbd 2d27 3abe 9056 3d3d
000003d0: 0c40 8f3d 6f74 223d 0cbe 40be cd38 09bd
000003e0: 0232 65bd b89c 043c bc87 91bd 3037 4ebd
000003f0: b9b6 00bd 15dc 49be 7a2f 21be acbb 03be

network_body.linear_encoder.seq_layers.2.bias f4 [64]
0.003022736 0.011279956 0.0094112875 0.0017005433 -0.00015464461 0.00529933 0.0033203207 0.014669014
-0.0015004423 -0.0005076646 0.0064597195 0.00038045022 0.007460522 -0.00033262066 -0.0021987883 0.0022553364
0.00787655 0.0010313663 -0.0017727624 0.003265461 0.01580722 -0.0023051412 0.013176518 0.008701149
0.0030984115 0.00094656745 0.022368837 0.0058749975 0.009755477 -0.0023659386 0.007780446 0.0028787432
0.010711572 0.0017316439 -0.0015469599 -0.00063867006 -0.0011149456 0.0146070905 0.008164809 0.011458879
-0.0038056101 6.462966e-05 0.012027393 -0.0024411988 -0.0029864043 0.018365677 0.0116991205 0.0074760914
0.0045558577 0.0028825398 0.010448521 0.0039406237 0.009174361 0.0040687206 0.011135102 0.0035119392
0.0008215595 -0.0015618111 0.010954205 -0.013997111 0.01862757 0.01657031 0.0025776078 0.020864086
00000000: 1819 463b 91cf 383c cd31 1a3c c4e4 de3a
00000010: 1928 22b9 01a6 ad3b bd99 593b 4e56 703c
00000020: 7daa c4ba cb14 05ba 0eac d33b 2a77 c739
00000030: 6577 f43b 9763 aeb9 8c19 10bb 44ce 133b
00000040: a50c 013c e92e 873a 095c e8ba 5801 563b
00000050: 257e 813c da11 17bb 52e2 573c 448f 0e3c
00000060: b80e 4b3b 1123 783a da3e b73c 0d83 c03b
00000070: 70d5 1f3c dd0d 1bbb 1df3 fe3b 4ca9 3c3b
00000080: 977f 2f3c 54f8 e23a 5cc3 caba 6c6c 27ba
00000090: 5e23 92ba 9452 6f3c b1c5 053c 06be 3b3c
000000a0: 8b67 79bb c989 8738 8b0e 453c 85fc 1fbb
000000b0: 8db7 43bb 9e73 963c abad 3f3c 00fa f43b
000000c0: 4e49 953b fee8 3c3b 4630 2b3c 5920 813b
000000d0: 0f50 163c e752 853b 0170 363c 9028 663b
000000e0: ed5d 573a afb5 ccba 4479 333c 2354 65bc
000000f0: d898 983c 75be 873c 15ed 283b 29eb aa3c

network_body.linear_encoder.seq_layers.2.weight f4 [64, 64]
-0.049319528 -0.015386294 -0.06486658 0.18793166 0.03517281 -0.0037212127 -0.14371575 -0.016679946
-0.07874415 0.08289385 -0.09978544 -0.03264917 -0.24955082 -0.21701889 -0.013656768 -0.0528139
-0.035124645 0.01969678 -0.10118677 0.046127785 -0.20752527 -0.055355195 -0.07733904 -0.0116622485
0.14333048 0.08558984 0.1621929 -0.037296217 0.00075002306 0.045193523 0.020333901 -0.013887937
0.13132322 0.10203134 -0.029066069 0.18745206 -0.025793616 -0.015540889 0.046065476 0.055369407
0.21883795 0.057864867 -0.015299367 -0.030584902 -0.25043988 -0.065950625 -0.004057137 -0.031803433
0.07926396 0.034739736 0.026440058 0.12309353 -0.048241317 0.15074553 -0.023585632 -0.10000773
0.008821951 -0.09761134 -0.10726724 0.09802884 0.02705924 0.0872728 0.00040455128 0.09467732
0.11579318 0.15244639 0.08814388 -0.023469904 0.09797069 0.18350853 0.118299566 -0.05256588
0.0433373 -0.045710873 0.04338318 0.06151834 0.22509266 0.12700917 0.030649235 -0.0072712726
-0.072559446 -0.055743955 0.140173 -0.021214657 0.01624574 -0.09175427 -0.025917083 -0.09251484
-0.04409274 -0.03612003 0.13418812 0.23132803 0.037032086 0.025578646 0.06896044 0.1032463
-0.06287999 0.08595798 -0.053723995 0.048804004 0.029502248 -0.1526749 -0.12908223 -0.09812625
0.1188752 0.015062902 -0.04171824 -0.2422014 -0.058153156 -0.05205294 0.12934457 0.15664612
0.060063206 -0.030135019 -0.2619278 -0.02646083 0.08212561 0.1203563 -0.09185237 0.071169764
0.16090085 -0.0931931 -0.1238678 -0.17535894 -0.15683746 0.08988036 0.0051468643 0.24283472
-0.06744775 0.2710589 -0.27802914 0.0040072105 0.17467324 0.07796081 -0.07445553 0.06269519
0.11686626 -0.12000258 0.011385261 -0.22975986 -0.0901146 -0.06448341 0.1946979 -0.015729552
-0.015941286 0.08467082 -0.10440589 -0.13202016 -0.037173726 0.06940842 0.11722235 0.023064349
0.1573977 -0.06361423 -0.011612148 -0.11078395 0.10123298 0.025155768 0.14223799 -0.18713313
0.17795472 -0.036863733 -0.16194923 -0.17551605 0.12472108 0.08219599 0.09659323 0.11559323
0.20312172 0.009898477 -0.025919544 -0.058936898 -0.011897353 -0.02772895 -0.16407627 0.055327907
0.02251225 0.0018327107 -0.20225748 0.13683169 -0.0032878777 -0.18895307 0.033333495 0.12353809
-0.08717463 0.21459123 0.15059325 -0.015030366 -0.15931982 -0.2597515 -0.2587142 -0.2497072
0.16152091 0.10677887 0.06796685 0.14123 -0.18272327 -0.28869867 0.015697923 -0.009000967
-0.19147886 -0.14578728 0.1583801 0.084261864 0.21408212 0.089568034 0.22371957 -0.011547045
0.17903708 0.15277007 -0.24837726 0.0234406 -0.117681384 -0.0352052 -0.066712104 0.15256491
-0.15336606 0.01909909 0.03779989 -0.109910615 -0.06617525 0.055456262 0.17507207 -0.06093889
-0.121478885 0.18545136 0.0039307023 -0.02289163 0.0065392535 -0.059456702 0.02372054 -0.16835405
0.21937081 -0.070739254 0.14063074 -0.14318824 -0.022075195 -0.0073932516 0.043514103 0.059770655
-0.050579965 -0.20467748 -0.1796354 -0.025804706 0.037184034 0.05291021 0.08643062 0.07554252
-0.110564284 0.035252556 0.13493912 0.16109821 -0.07510044 0.065003514 -0.10031963 -0.18753006
00000000: 4603 4abd cb16 7cbc c5d8 84bd 2871 403e
00000010: 5d11 103d 97df 73bb 392a 13be 62a4 88bc
00000020: 9d44 a1bd 40c4 a93d 4f5c ccbd 23bb 05bd
00000030: 408a 7fbe 333a 5ebe a3c0 5fbc 6353 58bd
00000040: dcde 0fbd 245b a13c 023b cfbd 7df0 3c3d
00000050: 8181 54be 21bc 62bd ee63 9ebd 0413 3fbc
00000060: 3ac5 123e ba49 af3d e515 263e ebc3 18bd
00000070: 329d 443a d81c 393d 4893 a63c 3b8a 63bc
00000080: 9879 063e cff5 d03d f71b eebc 6ff3 3f3e
00000090: 224d d3bc 379f 7ebc 27af 3c3d 08cb 623d
000000a0: 0e17 603e b603 6d3d 32aa 7abc 308d fabc
000000b0: a839 80be 1f11 87bd bbf1 84bb 5144 02bd
000000c0: 2555 a23d 414b 0e3d d298 d83c 7618 fc3d
000000d0: b098 45bd 095d 1a3e a836 c1bc dad0 ccbd
000000e0: f289 103c 74e8 c7bd edae dbbd 58c3 c83d
000000f0: 57ab dd3c 15bc b23d f419 d439 2fe6 c13d
00000100: fa24 ed3d e81a 1c3e c784 b43d f543 c0bc
00000110: dba4 c83d a9e9 3b3e 0b47 f23d 524f 57bd
00000120: 7482 313d 533b 3bbd 90b2 313d a8fa 7b3d
00000130: b17e 663e b10e 023e 1b14 fb3c db43 eebb
00000140: 0c9a 94bd c653 64bd 8389 0f3e 5cca adbc
00000150: c915 853c aae9 bbbd 1050 d4bc 6c78 bdbd
00000160: 979a 34bd 99f2 13bd 9c68 093e 41e1 6c3e
00000170: f5ae 173d 4f8a d13c 223b 8d3d cc72 d33d
00000180: 39c7 80bd bd0a b03d b10d 5cbd b5e6 473d
00000190: b3ae f13c cf56 1cbe 222e 04be 6af6 c8bd
000001a0: d774 f33d 64ca 763c bfe0 2abd a503 78be
000001b0: 0132 6ebd 7735 55bd e772 043e d767 203e
000001c0: d604 763d b7dd f6bc 671b 86be 62c4 d8bc
000001d0: 7931 a83d 5d7d f63d 181d bcbd 74c1 913d
000001e0: 31c3 243e 06dc bebd 67ae fdbd 4b91 33be
000001f0: 009a 20be 3213 b83d 07a7 a83b aaa9 783e
00000200: 0c22 8abd 3bc8 8a3e d659 8ebe eb4e 833b
00000210: 8bdd 323e eba9 9f3d 247c 98bd 5666 803d
00000220: 9457 ef3d eac3 f5bd 3f89 3a3c 2b46 6bbe
00000230: 018e b8bd e10f 84bd e35e 473e 43db 80bc
00000240: 4d97 82bc e567 ad3d c1d2 d5bd 4b30 07be
00000250: 7a43 18bd 0026 8e3d 4512 f03d 72f1 bc3c
00000260: dd2c 213e 2d48 82bd e140 3ebc b2e2 e2bd
00000270: 3d53 cf3d 7813 ce3c d6a6 113e d49f 3fbe
00000280: c339 363e 6dfe 16bd 05d6 25be 7bba 33be
00000290: c46d ff3d 5f56 a83d acd2 c53d 25bc ec3d
000002a0: 24ff 4f3e 392d 223c 3955 d4bc d167 71bd
000002b0: 1eed 42bc d327 e3bc 9c03 28be 849f 623d
000002c0: 9c6b b83c 9137 f03a 961c 4fbe 9b1d 0c3e
000002d0: 6f79 57bb ea7c 41be b488 083d 8a01 fd3d
000002e0: 9d88 b2bd cebd 5b3e 1e35 1a3e ed41 76bc
000002f0: bc24 23be 26fe 84be 3076 84be 3fb3 7fbe
00000300: bd65 253e e1ae da3d 3432 8b3d 999e 103e
00000310: cf1b 3bbe 50d0 93be ee98 803c cb78 13bc
00000320: 0913 44be 4349 15be 652e 223e 7c91 ac3d
00000330: 5838 5b3e 726f b73d be16 653e d12f 3dbc
00000340: 7f55 373e c26f 1c3e 9c56 7ebe 8006 c03c
00000350: f002 f1bd 5433 10bd 5ba0 88bd fa39 1c3e
00000360: fe0b 1dbe b275 9c3c 0fd4 1a3d d118 e1bd
00000370: e486 87bd 1b26 633d 1846 333e 0f9b 79bd
00000380: ecc9 f8bd f6e6 3d3e 1fcd 803b 3a87 bbbc
00000390: 3c47 d63b df88 73bd 9451 c23c 0165 2cbe
000003a0: bea2 603e bedf 90bd 8101 103e f09f 12be
000003b0: 0ad7 b4bc 1743 f2bb d83b 323d 13d2 743d
000003c0: f02c 4fbd f996 51be 58f2 37be 6464 d3bc
000003d0: 494e 183d 60b8 583d 8902 b13d 09b6 9a3d
000003e0: 876f e2bd fc64 103d 7b2d 0a3e eef6 243e
000003f0: 42ce 99bd 9020 853d 6174 cdbd e107 40be
