results/Hikaru_0/Hikaru/Hikaru-2378.onnx (onnx, 219188 bytes, 6 tensors)

action_model._discrete_distribution.branches.0.bias f4 [675]
000000 b1 b5 bb bb f3 21 3f bb 94 85 e6 bb 7e 64 23 3c
       -0.0057284464 -0.0029164522 -0.0070349667 0.00997269
000010 64 8c da ba cb a8 0f 3c 71 fd 9c 3a 36 41 9f 3b
       -0.001667392 0.008768271 0.0011977387 0.0048600687
000020 3f 42 ba 3b d3 76 db 3b 70 78 cb 3b 64 0d e6 3b
       0.0056841667 0.0066975146 0.0062094256 0.0070206393
000030 56 08 5a bb 6e 1d 7e 3c 37 e3 a3 3c 7d 59 03 3c
       -0.0033269129 0.015509946 0.020005805 0.008016941
000040 df 3f 13 3c 58 20 59 3c 27 0a 22 3c 07 4b 11 3c
       0.008987396 0.01325234 0.009890116 0.008867986
000050 97 7e b4 3a 7d 16 fd 3a 89 39 ca 3b ba fb 0e bc
       0.0013770637 0.001930907 0.0061714095 -0.0087270085
000060 3c db 7f 3b ce c4 87 bb 6a fa 8d 3b 9e 8d fd 3b
       0.0039040586 -0.004143334 0.00433283 0.0077378293
000070 c5 b6 7b 3b 28 a7 f9 3b e4 78 3e 3a 4c f2 84 3c
       0.00384085 0.0076188035 0.0007265939 0.016228817
000080 2d 1f c7 bb 3b cb 1a bc 0b f8 7a ba d3 f7 06 bc
       -0.0060767145 -0.009447868 -0.00095737044 -0.008237797
000090 35 7e ab 3b a6 5c 24 3c b1 c2 08 bc 8d d9 db 3b
       0.005233551 0.010031855 -0.008347199 0.0067092837
0000a0 52 66 3e 3c e3 d0 8f 3a 7b f6 dc 3a a4 5e f1 3b
       0.011621075 0.0010972287 0.0016858125 0.0073660184
0000b0 48 51 5a 3b e9 51 2e ba 89 ad e9 bb 52 8c 1e 3c
       0.0033312608 -0.0006649779 -0.0071312827 0.00967701
0000c0 a0 dc f0 39 6f 95 9b 3b 01 7f 34 3c 64 54 12 ba
       0.00045940746 0.0047480385 0.011016608 -0.0005582033
0000d0 65 a8 0b bc de a0 85 bb e6 0a 33 bc 4a 17 91 3a
       -0.008524035 -0.0040780148 -0.010927891 0.0011069563
0000e0 9c 2e eb bb 4c b3 32 b9 12 6b 08 3b 2c 55 98 3b
       -0.007177187 -0.00017042196 0.0020815772 0.004648825
0000f0 c3 dd 4e 3c 77 94 37 bb 8c 0a 83 3c 00 9d 1c bc
       0.012626114 -0.0028012076 0.01599624 -0.009558916
000100 03 a1 4e bb be 5b e2 38 fc ed ae 3a 23 98 e2 b9
       -0.0031529076 0.00010793608 0.0013346071 -0.0004321943
000110 c4 72 84 3a ad 29 f0 bb 1e 0a b7 3a e1 c9 8e 39
       0.0010105004 -0.007329187 0.0013964807 0.00027234762
000120 a3 ca 92 3c 11 80 88 39 f0 11 74 bb ac 6a 20 ba
       0.01791889 0.00026035358 -0.0037242137 -0.0006119411
000130 95 95 f4 bb fe 26 13 bc 3a 63 c9 3b 56 4f 0f bb
       -0.0074641206 -0.008981464 0.006145862 -0.0021867356
000140 b4 09 5c bc 1e 48 72 3b 5e 88 56 bb 83 95 20 ba
       -0.013430048 0.0036969255 -0.003273509 -0.00061257946
000150 ca b6 00 bb 5b 6c 87 ba c9 05 d1 b9 21 f4 85 bb
       -0.00196402 -0.0010331975 -0.00039867897 -0.0040879403
000160 37 9c 6e bb ae c6 db 3b c0 7f 46 3b 42 61 2f 3b
       -0.003640903 0.006707034 0.0030288547 0.002676085
000170 54 4d f2 38 f0 a7 02 bc 7c 28 3c 3b d7 e0 3a 3c
       0.00011553863 -0.00797461 0.0028710654 0.011406145
000180 01 83 3e 3b 01 da b5 ba c5 db 31 bb c1 e1 30 bb
       0.0029069784 -0.0013874174 -0.002713905 -0.0026990029
000190 c2 ba 0c bb 3f d2 9c bb c5 96 62 3b ab ba 8b 3b
       -0.002147362 -0.0047858055 0.003457473 0.004264196
0001a0 0e 90 89 bb a3 2d 1b 3a af 5f dc 3b 74 91 58 3c
       -0.004198081 0.0005919581 0.0067252736 0.0132182725
0001b0 58 c1 b5 3b be 90 0b bb d4 58 3d 3b 23 28 5a 3b
       0.00554673 -0.002129599 0.0028892057 0.0033288084
0001c0 b3 25 a3 3c 0a 0e a5 3c d6 6e 9d 39 10 ab d3 ba
       0.019915437 0.020148296 0.00030027953 -0.0016149003
0001d0 e8 09 81 3c 33 09 30 3b b5 ef c5 bb e1 cc 98 3b
       0.015751794 0.0026860952 -0.006040538 0.0046630953
0001e0 fe a9 ce 3b 0a d1 37 3a 53 1c 52 bb 49 3f 6e 3c
       0.0063068857 0.0007012045 -0.003206034 0.014541456
0001f0 9b ff 35 3b ef 57 31 3c e0 48 2c 3c 78 a8 92 3a
       0.002777076 0.010824188 0.010515422 0.0011189124
000200 00 2e bb 3b 02 e1 1c 3c c6 ad de 3c 40 af 82 3c
       0.0057122707 0.00957513 0.027182471 0.015952706
000210 8d d3 d6 bb 28 ac e1 3b 49 d6 86 3a 3f c8 1a bb
       -0.0065559805 0.0068869777 0.0010287251 -0.002361789
000220 f9 3b 78 3b 0c 61 30 bb 31 67 e5 3a 21 94 27 3b
       0.0037877543 -0.0026913313 0.0017502067 0.002557047
000230 7e 7a e6 3b c4 5b 2e 3c ee 17 52 bc 31 88 0d bc
       0.007033645 0.010641996 -0.012823088 -0.008638428
000240 6b dd a9 ba 3d 06 a0 3c fd 1e 49 b9 29 48 1c bb
       -0.0012959664 0.019534225 -0.00019180398 -0.0023846722
000250 b7 ef 67 3c dd 64 00 3c 14 be 63 3c 6d 5a aa bb
       0.014156274 0.007836548 0.013900299 -0.005198768
000260 cb c6 56 3c 1d 15 23 bc ee 75 91 3b ea f8 97 3c
       0.013108919 -0.009953764 0.004439107 0.018551309
000270 d2 c3 99 bb 5d be 80 3c 3b e7 0f 3c fc 82 44 3c
       -0.004692533 0.015715772 0.008783157 0.01199412
000280 db 18 ee bb 8e 4d fc 3b a3 bc 0c 3b 64 1d ac bb
       -0.0072661466 0.007699675 0.002147474 -0.005252527
000290 74 a5 b6 3b 23 38 2c 3b 7f b7 7d bb 45 4f 03 ba
       0.005573923 0.0026278577 -0.0038714109 -0.00050090655
0002a0 7a a9 93 3b e5 f4 9e 3c cd 47 eb 3b ea 30 fd bb
       0.004506287 0.019403884 0.00718019 -0.0077267783
0002b0 70 ec 0b 3c eb c8 01 bb b1 9b 8d ba 84 eb 7a 3c
       0.008540258 -0.0019803594 -0.0010803846 0.01531494
0002c0 05 62 2f 3b 49 50 d1 3a 85 7a 5a 3b 83 17 58 3b
       0.0026761305 0.0015969361 0.0033337187 0.0032972998
0002d0 ec 4f b6 3b df 5e 14 3b 9b e8 86 bb 24 52 eb 3a
       0.0055637266 0.0022639555 -0.004117084 0.0017953557
0002e0 af 4f 14 bc 45 18 c9 3b fa d9 24 3a be 74 65 bb
       -0.009052201 0.0061369264 0.00062885846 -0.003501221
0002f0 28 14 3d 3c 18 a4 fe 39 a2 f2 fe bb 8a 4d b2 3c
       0.01154045 0.00048568915 -0.007780389 0.02176549
000300 89 bb 32 3b 1c f1 e6 3b 7c c2 a4 ba 18 24 b0 3a
       0.0027272424 0.0070477854 -0.0012570168 0.0013438491
000310 9a ee 1b bb 06 ed 5f bb 49 d1 50 3b dc 43 47 b9
       -0.002379334 -0.0034168377 0.0031863025 -0.00019003398
000320 66 5a 64 bb 49 b6 9c 3b 09 3f 98 ba 66 8c f2 ba
       -0.003484392 0.0047824723 -0.0011615466 -0.0018504977
000330 fd ae 36 3c 5f 9a 64 3c af 2b f4 ba 8b 41 07 3c
       0.011150119 0.013952821 -0.0018628741 0.008255373
000340 45 7a a8 3b 6d 65 73 3b 8a 50 72 3c b9 4f 74 3b
       0.005141529 0.0037139312 0.01478971 0.0037278964
000350 9b 29 d1 39 c8 69 1d 3c f8 3b 42 3b 6d e1 f9 3b
       0.00039894585 0.00960774 0.0029637795 0.00762575
000360 29 ba 78 3c 7a 33 46 3c 4c 05 33 bb 1c be e6 3c
       0.015181103 0.012097234 -0.002731639 0.028166823
000370 f2 91 09 ba b9 8b 04 3b 3c fc ac b9 9d 67 36 bb
       -0.0005247883 0.0020224883 -0.00032994326 -0.0027832754
000380 d1 fc 35 bb fc c3 21 3a ef ca 0a 3c 38 25 1c b9
       -0.0027769099 0.00061708665 0.008471235 -0.00014891184
000390 f9 7d 01 bc df 82 b8 3b 55 f2 ca 3a 6c c8 83 3b
       -0.007903569 0.0056308354 0.0015483598 0.004021695
0003a0 92 37 bb bb 3c 95 13 bc db 3a dc 39 34 0a b8 38
       -0.0057134116 -0.009007748 0.0004200552 8.775704e-05
0003b0 ca 6f 1f 3c 1e 06 a0 bb ab 0c a8 3a fb b9 a8 bb
       0.009731242 -0.0048835417 0.0012821158 -0.0051491237
0003c0 48 65 7c 3c 8a a0 1f 3b 9e 41 7e bb 92 86 6e 3a
       0.015405007 0.0024357163 -0.0038796435 0.0009099032
0003d0 1d dc 4a 3b bc b0 f2 3b 79 ff ea ba ec b2 c6 bb
       0.0030953952 0.0074063223 -0.001792892 -0.0060638096
0003e0 67 14 7e bb ce 83 c5 3b e6 f9 f2 3b 1d 8f 86 3c
       -0.0038769485 0.0060276752 0.007415044 0.016425664
0003f0 c0 76 2d 3c bc 8e 2e bc f4 63 23 bb 8f d0 8a bb
       0.010587394 -0.010654148 -0.0024931403 -0.004236288

action_model._discrete_distribution.branches.0.weight f4 [675, 64]
000000 c4 32 9f 3c 4a 0b be bc 5d 7c 21 3c 6b b1 a5 bc
       0.019433387 -0.023198742 0.009856311 -0.020226201
000010 11 fa 25 3d c0 b2 81 3c a3 1b 8d bb 35 1e b8 bb
       0.040521685 0.015832305 -0.004306273 -0.0056188353
000020 0e 4f 20 bc c0 cd 15 3c 6d 44 35 3c ba e2 24 bc
       -0.009784473 0.009143293 0.011063677 -0.010063821
000030 39 d3 03 bd 18 f7 16 bc 9b ea 1d 3c d2 66 a9 3c
       -0.03218386 -0.009214185 0.009638454 0.020678911
000040 27 b8 90 3a d4 a0 be bc 7f 94 de bc 53 f5 e4 bb
       0.001104121 -0.023270048 -0.027170418 -0.0069872527
000050 71 00 83 bc 9b 55 8e bc 27 bc 20 bc cb 2e c0 3a
       -0.015991421 -0.017374804 -0.009810484 0.0014662383
000060 a3 56 0d 3c 1b a3 e9 39 05 ba 28 bc 71 e1 1f bc
       0.008626613 0.00044562746 -0.010298257 -0.009758339
000070 ca a2 dd bc 76 c3 fe ba ab de 11 3c 22 2d 73 bc
       -0.027055163 -0.0019436914 0.008903186 -0.0148423035
000080 28 af 47 bc 51 e7 bb bb 9c 4f d0 bc 58 b7 c5 bb
       -0.012187757 -0.005734362 -0.025428586 -0.006033819
000090 1a 92 84 ba 94 07 fc 3c dc 5c e0 3c 40 36 81 3c
       -0.0010114342 0.030765332 0.027388029 0.015772939
0000a0 dc f9 2d bd 4a 3d fc ba cd 9c 71 3c a5 d1 33 3c
       -0.042474613 -0.001924434 0.014746857 0.010975276
0000b0 ab ab 9e 3c d5 10 eb bc 7f 3c 93 bc 46 e4 29 bb
       0.019368967 -0.02869455 -0.017973183 -0.0025923415
0000c0 f5 c9 98 bb fe a0 5d b9 2d ef a0 bc 85 5a 1a 3d
       -0.004662747 -0.00021136177 -0.019645298 0.037683982
0000d0 24 0c 49 bd ab 89 c3 ba 21 4b 6e bc 59 61 c3 bb
       -0.049083844 -0.0014918348 -0.014544279 -0.0059625325
0000e0 aa 99 a7 3c 86 fe f5 bb 2c 16 33 3b 00 33 a2 3c
       0.020459015 -0.007507148 0.0027326448 0.01979971
0000f0 ab 80 e3 bc 87 31 0a bd b1 93 05 bc 0e 2c 55 3c
       -0.027771315 -0.03373864 -0.008152888 0.013010992
000100 9e ad 02 bd 71 a9 43 3c b9 39 21 bc 46 61 0e bd
       -0.031903856 0.011942253 -0.009840422 -0.034760736
000110 9f df 9c 3c bf 2b be 3c b6 2f 13 bc f5 ce 42 39
       0.0191496 0.02321422 -0.008983543 0.00018578379
000120 b3 23 a8 bc 4f 49 ca 3b dd 20 a0 bb 0b 4c 32 bc
       -0.020524835 0.00617329 -0.00488673 -0.010882388
000130 fc b7 ae bc 3e 41 c9 bb 18 ff 2d bd 3e 6a a6 3b
       -0.021327965 -0.0061418107 -0.042479604 0.005078583
000140 e9 ab 18 bd 99 2e 06 3d a6 1f bf bc 35 ec 4b bc
       -0.03727332 0.032759283 -0.02333052 -0.012446453
000150 32 aa 49 bc aa 8c 89 3c 6c 95 10 3d 35 75 ac 3c
       -0.012308644 0.016790707 0.03529875 0.021051982
000160 67 df fa 3b 68 b8 18 bd e4 27 08 3d 65 f1 76 bb
       0.007656026 -0.03728524 0.033241168 -0.0037680503
000170 d8 16 b7 bc 06 a9 95 39 a4 eb bd 3a 3c 45 e1 bc
       -0.02234976 0.00028545427 0.0014489782 -0.027498834
000180 e5 e7 79 bb 9d 29 08 bc a5 23 dd bc 57 25 07 3c
       -0.0038132605 -0.008310703 -0.026994536 0.008248649
000190 05 40 b6 bb 06 09 15 bd 12 34 0c bc 9b 27 83 bb
       -0.005561831 -0.03638556 -0.008557336 -0.004002524
0001a0 86 eb 56 bd 8e 81 b5 ba f3 c8 4f 3d e7 6b e4 3b
       -0.052470706 -0.0013847814 0.05072875 0.006970871
0001b0 e4 af e7 bc 2a 76 0a bd 82 93 b0 bc 15 aa 89 3c
       -0.028282113 -0.033804096 -0.021554712 0.016804734
0001c0 e6 6e 86 bc ce 13 0c bb d5 dd c6 bb 1a 85 36 3d
       -0.016410302 -0.002137411 -0.006068925 0.04456053
0001d0 6c 3a e6 bc 29 5e d0 3c 17 64 f4 bc c9 8f a5 3c
       -0.02810403 0.025435524 -0.029832883 0.020210164
0001e0 2e 64 68 3c ba 6c 8f bc 59 97 06 bb 9d 33 39 bb
       0.014184041 -0.0175079 -0.0020536988 -0.0028259524
0001f0 39 6a 87 bc 41 17 0e bd 2c 87 e7 3b 38 24 d6 ba
       -0.016530143 -0.034690145 0.0070656743 -0.0016337698
000200 c6 fd 31 bc 6a 29 cb bc f5 be 47 bc 4a 59 17 bd
       -0.010863727 -0.024800021 -0.012191524 -0.036950387
000210 5d 5c a9 3a c2 4c 9d 3c 73 39 b0 3c 16 bf 3f bb
       0.0012921203 0.01920164 0.021511769 -0.0029258183
000220 16 72 ca bc ca 87 92 bc 3e bb 6a bc 2c 74 5b 3b
       -0.024712604 -0.017887015 -0.014326869 0.0033485992
000230 4d 5d c5 bb 65 fb 37 bc 51 48 bd 3b d7 db b7 3b
       -0.006023085 -0.011229371 0.005776443 0.0056109237
000240 ad fd c8 3b 08 df d2 bc 70 31 89 3c 9b 9e be 3b
       0.006133756 -0.025741115 0.016747206 0.005817247
000250 e0 70 af bc 3f 3b 0e bd b4 e5 9c bc e4 96 08 3c
       -0.021416128 -0.03472447 -0.0191525 0.008336756
000260 53 fa 46 bc 4d 97 10 3d 84 2b 8e 3c 95 3b cf 3c
       -0.012144643 0.03530054 0.017354734 0.025296966
000270 e3 19 ee b9 b9 14 d6 bb 80 51 06 39 80 05 e3 bc
       -0.00045414185 -0.006533232 0.00012809597 -0.027712584
000280 fa 00 b5 3c db a7 38 bc 9c 9e a6 bc 7e 96 33 bb
       0.022095192 -0.011270489 -0.020339303 -0.0027402933
000290 a8 58 5f 3c e2 cf 75 3c 62 76 24 bb a2 bd cd 3a
       0.013631977 0.015003176 -0.0025094976 0.0015696774
0002a0 d4 64 b4 bc 3e 5c 9c bb f4 37 bc 3c 87 4a 13 3c
       -0.022020735 -0.0047717383 0.0229759 0.008989937
0002b0 26 a4 f9 3c 78 ab cf bc f4 fa 4a bc 00 aa b0 b9
       0.03047378 -0.025350317 -0.012388933 -0.00033695996
0002c0 bb f4 df bc 1b 4a 01 bc cf 1e 64 3b 1a dd 51 3c
       -0.027338376 -0.007891203 0.0034808402 0.012809062
0002d0 60 61 24 3b 9b d2 96 3b 41 61 36 bc a4 36 78 bc
       0.0025082454 0.004602743 -0.011131586 -0.015149746
0002e0 8f 1f ea 3b d8 6b fe 3b 37 74 1d 3b 00 d6 ac 3c
       0.0071448754 0.007764321 0.0024025568 0.021098137
0002f0 0d 9b 45 3a 48 05 f3 3b ac c5 13 3c ab 99 d0 bb
       0.0007538058 0.007416401 0.009019297 -0.006365975
000300 83 46 32 bc b6 39 4e bc 16 3b 7e 3b 59 9a 96 bc
       -0.010881069 -0.012587002 0.0038792542 -0.018384146
000310 2d c2 b2 bb d4 d1 9d b9 51 0b 02 3d 0e 51 de 3c
       -0.0054552765 -0.00030101708 0.031749073 0.02713826
000320 0b 4b a3 3c bb b1 1f bd 11 5a d4 bc 9c 51 47 bd
       0.019933244 -0.038987856 -0.025921853 -0.048661813
000330 f7 51 34 3c 34 72 8d 3b bd 8a 70 bc 08 1f 9a 3b
       0.01100587 0.0043165926 -0.014681515 0.0047034062
000340 cf 9b 8b bc 66 2b 02 3d 4b 44 6b bc d8 9d 0e bd
       -0.017042069 0.03177967 -0.014359544 -0.0348185
000350 ec ea 37 3d 1a 77 03 bc f7 5e 13 3d 8b 30 f8 3c
       0.044901773 -0.0080240015 0.035979237 0.030296585
000360 69 74 c8 3c 9b f1 dc bc 2c 4d 61 3d 91 36 7f 3b
       0.024469571 -0.026970675 0.055005237 0.0038942436
000370 97 67 5b bb 6e 92 01 3c c6 74 8a ba d4 b4 3a bd
       -0.0033478492 0.007908447 -0.0010563366 -0.045582607
000380 72 4a e5 bb 3e 2b b5 bc 07 7b 3f bc 60 34 8b 3c
       -0.0069974 -0.022115346 -0.011687047 0.016992748
000390 05 f4 4a bc c2 26 6d bc 6e 44 52 bc a8 04 bc bc
       -0.01238728 -0.014474573 -0.012833698 -0.022951439
0003a0 7d 78 94 bd 2c e9 66 39 45 06 87 3c d6 3b fe 3b
       -0.07249544 0.00022021373 0.016482482 0.007758598
0003b0 21 3e 68 bc a0 47 61 bc 31 b1 51 3b 93 63 81 3a
       -0.014174969 -0.013749987 0.0031996483 0.0009871594
0003c0 f2 09 92 3c 3e b2 29 3d d6 1b 11 bc 3f 25 56 3d
       0.017827008 0.04142975 -0.008856734 0.052281614
0003d0 b5 4c cb bc ee ff 86 3c 49 dc c8 bc 61 74 17 3d
       -0.02481685 0.016479459 -0.024519103 0.036976222
0003e0 4f ac 59 3d ca c5 57 bd 6e 1b 80 3c 8e cb ac bc
       0.053142842 -0.05267886 0.01563808 -0.021093156
0003f0 3c 56 b4 bc 9e 36 69 bd d9 19 90 bc db f0 3c bc
       -0.022013776 -0.056936853 -0.01759045 -0.011532034

network_body.linear_encoder.seq_layers.0.bias f4 [64]
000000 40 da bf 3b 02 6b bc 3b 4d bf 3c 3a d0 74 c4 b9
       0.005854875 0.005750061 0.0007200137 -0.00037471065
000010 0f d0 45 bc 96 a5 fd bb ab 6d 8d 3c 6e a3 03 3c
       -0.012073531 -0.0077406866 0.017264208 0.00803457
000020 1f 58 6c 3c ec d2 92 3b a4 90 d9 3b 9d 27 41 3a
       0.014425307 0.0044807103 0.006639557 0.00073682686
000030 f2 3f 92 3c fe bd b7 3a d9 ce 0d b8 b0 46 8d 3b
       0.017852757 0.0014018414 -3.380966e-05 0.004311405
000040 db fb a2 3b f1 39 1c 3b 6f c1 9c bb dd 8f 80 3b
       0.004973871 0.0023838247 -0.0047838013 0.0039234
000050 52 0f 53 bb 54 dc e2 3b f7 ae 9d 3c 14 07 f5 bb
       -0.0032205177 0.006923238 0.019248469 -0.0074776504
000060 8e e3 2c bc 03 56 e4 3b 40 e3 da 3b 36 21 35 bc
       -0.0105523 0.006968261 0.0066799223 -0.011055281
000070 a1 e3 4b 3b 62 42 9e bb 96 69 ff 3b 7a 63 ba 3c
       0.003111102 -0.004829691 0.0077945692 0.022752512
000080 66 66 d6 ba ac 0b b2 3b 00 ff e8 3b cb 4b 07 3c
       -0.0016357421 0.0054335203 0.0071104765 0.008257817
000090 7d 93 95 3b 8e 83 fb 3b 65 2e 98 3a c4 5e a6 bb
       0.004564701 0.0076755947 0.0011610506 -0.005077215
0000a0 0a a7 f1 3a 69 b9 70 3c a8 a7 b3 bc 19 94 98 3c
       0.0018436622 0.014692643 -0.02193053 0.018625306
0000b0 d8 12 08 3c 07 99 28 3b 27 74 1f bc 04 df 9c 3b
       0.008305274 0.0025725977 -0.009732283 0.0047873277
0000c0 a0 ae fc 39 38 85 2a 3c 91 89 14 3a ad 53 f1 3b
       0.0004819529 0.010407738 0.0005666251 0.0073647113
0000d0 32 1b 5f 3b 13 89 6c 3b 89 58 3f 3a 89 fa 14 3c
       0.003404331 0.0036092445 0.00072992645 0.009092935
0000e0 88 d7 97 bb e5 83 2f 3c b5 6f 12 3c f6 6f e6 3a
       -0.0046338476 0.010712598 0.008937766 0.0017580974
0000f0 a5 91 49 ba da f5 83 3c 2b f9 32 bc ee 7f 76 3c
       -0.0007689244 0.016108442 -0.010923664 0.015045149

network_body.linear_encoder.seq_layers.0.weight f4 [64, 96]
000000 c4 95 0c 3c 35 9b 53 3d ae 1d a2 bd 16 45 86 bd
       0.008580629 0.05166169 -0.07915817 -0.06556146
000010 dd 57 cd bd 72 34 16 3e 8f 95 b7 bc f8 2f ce 3d
       -0.10026524 0.14668444 -0.022410182 0.10067743
000020 73 7f f1 3c e6 d8 1c be 35 e3 3a 3e c0 cc d7 3d
       0.029479718 -0.15317115 0.18250735 0.105371
000030 2e eb f7 3d dc c6 7b bc 9e 73 1f 3e a1 94 0e bd
       0.12105404 -0.015367236 0.15571448 -0.034809712
000040 8d 20 e7 bb b7 a4 12 be af eb 14 be a5 53 20 bd
       -0.007053441 -0.14320646 -0.14543031 -0.03914227
000050 a0 70 d6 bd ed 4b 21 bd 98 b8 2e be aa ee 78 3c
       -0.104707 -0.03937905 -0.17062604 0.015193621
000060 7a 4b d3 3d 90 43 1d bd 0a f6 6f 3d 8e 3a 9d 3c
       0.103171304 -0.03839451 0.05858425 0.01919296
000070 76 bd 3a be 99 82 c7 3d d5 53 56 3e 7d 87 32 3e
       -0.18236336 0.097417064 0.20930417 0.17434497
000080 8f dc 70 3d df d3 6d 3d 6e 44 1e 3d c7 99 2b 3d
       0.05880409 0.058063384 0.03863948 0.0418947
000090 e3 f7 d9 bd 71 59 49 bd df f0 fa bd 0c 1c 2f be
       -0.10642984 -0.049157564 -0.12252974 -0.17100543
0000a0 97 c3 20 3d 5e 05 31 bd 4b 43 a0 bd 86 89 af bc
       0.03924903 -0.04321801 -0.07825335 -0.021427881
0000b0 6e aa c2 3c f2 37 bc bc 11 03 e3 bd 11 fd 65 bc
       0.023762908 -0.022975896 -0.11084569 -0.0140373865
0000c0 ad 04 03 be ff b7 8e bd a9 ec 4c be d7 5b bb 3d
       -0.12794752 -0.06968688 -0.20012154 0.091483764
0000d0 9b 21 96 bd 9b 61 21 3e 7c 70 9a bc 1b bd ac 3d
       -0.073306285 0.1575989 -0.018852465 0.084345065
0000e0 8a 60 7e bd 15 e4 a9 bd e4 b2 93 bc fc 6d 18 bb
       -0.062103786 -0.08295456 -0.018029638 -0.0023258915
0000f0 43 a1 37 be b0 f5 86 3c 14 f4 3d be 7c 17 1a bd
       -0.1793261 0.016474575 -0.1855014 -0.037620053
000100 1f 14 04 3c 5c 25 58 3d 32 63 53 bd 2f 47 56 3d
       0.008061438 0.052770004 -0.051608272 0.05231398
000110 ee c3 76 bd 03 54 a6 bd 5d 17 72 bd 7e 84 72 3c
       -0.060245447 -0.08121493 -0.059104312 0.014802096
000120 d8 5c 93 3d 02 41 35 be 8b 28 4c 3e f5 f3 17 be
       0.07195443 -0.1770058 0.19937341 -0.14839156
000130 95 1f 7f 3d 96 61 92 3d 0e 50 06 be 90 41 64 bd
       0.06228598 0.07147519 -0.13116476 -0.055726588
000140 6d 23 88 bd 7b f9 ac bb ac 62 a6 3d ab 3e 21 3e
       -0.06647382 -0.005278764 0.08124289 0.15746562
000150 5f bc 16 3d a8 52 2d 3e 12 ff ee bc 3a 89 ab bd
       0.03680074 0.16926062 -0.029174361 -0.08375783
000160 cd ec d6 3c 0e c6 08 3d f5 1f 07 bc 7b 2d a8 bc
       0.026235962 0.033392005 -0.008247365 -0.0205295
000170 f5 bc 78 bd 2d f9 ad bc 47 64 c0 3b 03 1c 19 3d
       -0.06072708 -0.02123698 0.005871329 0.03738023
000180 20 bd c6 bd 21 90 ab bc 6e bc 55 bb 54 b2 c8 3d
       -0.097040415 -0.02094275 -0.0032613534 0.097996384
000190 a0 f1 97 3d 07 9c 1b bd 52 05 ee bd 0e 59 01 bc
       0.07419133 -0.037990596 -0.116221085 -0.007894767
0001a0 c7 1f 07 bd 87 0c e3 bd 87 65 8c bd 8d 85 c6 3b
       -0.03298929 -0.11086374 -0.06855302 0.006058401
0001b0 f4 62 09 be 3d f6 b1 bb 0d 46 85 bd 9f 9b 81 be
       -0.13416654 -0.005430965 -0.06507502 -0.25314042
0001c0 51 96 19 be fe 8e a1 bd d5 61 59 bc a3 a9 c2 3d
       -0.14998747 -0.07888602 -0.013267954 0.09505012
0001d0 3c 53 da 3c 4a cb 27 3d 59 51 a3 bd 4e e8 32 be
       0.026651017 0.040965356 -0.079745 -0.1747143
0001e0 da a4 0a be 62 d2 8c bd a4 11 a2 bd e6 ee 06 be
       -0.13539448 -0.06876065 -0.07913521 -0.1317707
0001f0 c2 13 0b 3e 76 84 06 3e 9e 9c bb bb a4 6f 57 3e
       0.13581756 0.13136467 -0.0057254573 0.21038681
000200 34 a4 86 3d c7 9f d8 bc df e9 5d be 72 9d 78 3d
       0.06574288 -0.026443375 -0.21671246 0.060697027
000210 69 bd 29 3d 3b 69 cd bc 08 43 a2 3d ba 8f b4 bd
       0.0414404 -0.025074592 0.079229414 -0.08816476
000220 66 21 61 bd f8 b6 bb bd 9a 77 9b bd dc 68 88 3d
       -0.05496349 -0.09165758 -0.075911716 0.06660625
000230 da 90 7a 3b cd 2b 4d bd b1 5f 85 be 76 54 fa bd
       0.003823331 -0.0500906 -0.2604957 -0.12223141
000240 b0 c2 ee bd 99 94 5f bd 49 6f 08 be 84 a2 f0 bd
       -0.116582274 -0.054585073 -0.13323702 -0.117497474
000250 96 c4 54 3d 01 28 29 3e 90 a4 bc 3d b0 ee cf 3d
       0.05194529 0.16519167 0.09211075 0.10152948
000260 6e c6 43 ba 4e 18 b4 3d f5 1c 6b 3d a4 c7 b6 3d
       -0.0007468228 0.08793698 0.057400662 0.08924797
000270 d0 c3 69 3d 83 e6 10 bd 1b 7b c6 bc 58 a9 2c bd
       0.057071507 -0.035376083 -0.024228623 -0.042153686
000280 9c 97 09 be bb 47 fe bd e7 71 01 3e 60 ce b1 3d
       -0.1343674 -0.12416025 0.12641107 0.08681941
000290 75 de da bd 51 b6 1d 3e 0d a0 27 3d e7 1a 4b 3d
       -0.106869616 0.1540158 0.04092412 0.049586203
0002a0 80 22 f2 3d ae d8 6b bc aa 0a 92 3d 90 d1 0f bd
       0.118229866 -0.014394922 0.0713094 -0.035111964
0002b0 c2 26 74 bb b8 15 34 be ba 51 fa bc 14 1e 48 3e
       -0.0037254547 -0.1758641 -0.030556548 0.19542724
0002c0 7d 5c 14 bd 97 c2 43 3d 90 5f c5 3d 35 19 86 bd
       -0.036221016 0.047792997 0.09637368 -0.065477766
0002d0 85 9b f5 bd 66 ac 15 be 41 6b ce 3d 35 b0 a5 3d
       -0.119925536 -0.14616546 0.10079051 0.080902494
0002e0 e5 cb df bb 3e ee 1b bc b3 6a 5e bd 40 ca 92 bd
       -0.006829726 -0.009517251 -0.054300975 -0.071674824
0002f0 be 4c 35 3d 3b 2c 09 bd 88 31 62 3e dd 8c c3 bd
       0.04426264 -0.033489447 0.22089207 -0.09548352
000300 65 96 9f 3c 81 09 8b 3d f0 02 65 bd d2 85 85 bc
       0.019480893 0.06788922 -0.055911005 -0.016299162
000310 b7 3b f3 bc 38 1b aa 3d c6 88 32 bc 05 8c 8d bd
       -0.02969156 0.08305973 -0.010896867 -0.06911472
000320 05 9e 3e bd 88 5e 12 3d 3f 78 92 3d e7 3a 05 bd
       -0.046537418 0.035734683 0.07151841 -0.032526877
000330 41 74 9b bd ba 85 54 3d c8 31 b7 3d 83 35 39 3d
       -0.07590533 0.051885344 0.08945042 0.04521705
000340 8a 71 20 bd 2f 41 e0 bd 73 a8 50 3d a0 d4 ca bd
       -0.03917078 -0.10949933 0.050941896 -0.09903836
000350 ee 39 39 be 08 7a 1a bd 3c 2a 57 bd 9a fd f0 bd
       -0.18088505 -0.037714034 -0.052530512 -0.11767121
000360 d7 4b 55 3e 91 86 cf 3d 75 1b b1 bc 95 d7 dd bd
       0.20829712 0.101330884 -0.021619538 -0.10832135
000370 8a 33 81 3d a7 90 1c 3d 0f fd 8f bd 56 62 ef bd
       0.063086584 0.03822389 -0.07030689 -0.11688678
000380 a8 7d d5 3d 5f 3c 4d bd cb 8a 2a 3b 99 fc 3b 3e
       0.10424358 -0.050106402 0.0026022668 0.18358077
000390 8e a5 d8 ba f8 98 a5 bd a6 d1 0f 3c b3 b8 b4 bd
       -0.0016528831 -0.08085817 0.008778011 -0.08824291
0003a0 68 46 c9 bd 1d a7 f5 bd d0 40 aa ba 97 9b a6 3c
       -0.09827882 -0.11994765 -0.0012989286 0.020337863
0003b0 51 ab 2c 3d 0d a5 b1 bd c1 16 bb 3d 64 c0 36 be
       0.042155568 -0.08674059 0.09135199 -0.17846829
0003c0 3d f9 e9 3c e8 18 f8 bc f6 46 07 be 27 d4 2e 3e
       0.028561229 -0.030285314 -0.13210663 0.17073117
0003d0 96 d6 6c 3e 97 15 13 be 9b 09 30 3e 11 5c f6 bd
       0.23128733 -0.14363705 0.17191164 -0.12029279
0003e0 5a 07 a5 bd e6 58 ec 3d e2 a6 7c bd fd 32 7c 3d
       -0.08058043 0.115403935 -0.06168259 0.061572064
0003f0 9d 43 59 bd e4 48 ed 3b 90 ed 50 bd 4c 2d bb bd
       -0.053042997 0.0072413553 -0.051007807 -0.09139499

network_body.linear_encoder.seq_layers.2.bias f4 [64]
000000 72 86 d4 ba a6 84 0b 3b 94 26 12 3c ec 02 1e 3c
       -0.0016214384 0.0021288781 0.008920331 0.009644251
000010 03 5b c3 3c 54 8b 81 38 35 d7 cb 3a a4 75 b2 3b
       0.023847109 6.177151e-05 0.0015551808 0.0054461528
000020 42 99 cb ba 22 ea aa 3c 74 81 c8 3b 99 18 54 3c
       -0.0015533345 0.020863596 0.0061189476 0.012945318
000030 20 0f 2d 3b e6 12 ed 3b 0f af 0c 3b fa 21 25 3c
       0.002640672 0.007234919 0.0021466648 0.010078901
000040 09 91 af 3b d0 f5 96 3c e4 de c0 3c da a0 bf ba
       0.0053578657 0.01842776 0.023543783 -0.0014620081
000050 eb 5e 93 3c 3f 88 9c 3a 4a af f5 3b 08 97 94 3b
       0.017989596 0.001194246 0.0074977027 0.004534606
000060 95 6d 44 3c 89 a7 93 ba 1a 86 60 3c 27 8f 55 3b
       0.011989017 -0.0011265139 0.013703847 0.0032586546
000070 e9 c9 54 3c ec ab 90 3b 4d 2e 15 bc 3a cd 9e 3b
       0.012987592 0.004415026 -0.009105277 0.0048462423
000080 0e e7 d3 3b af ce 8f 3c 84 f5 be ba a9 ce 9e 3a
       0.006466753 0.01755461 -0.0014569019 0.0012116033
000090 12 a9 90 3b 0e d6 cd 3c d5 b0 f2 3b 20 57 4e 3b
       0.004414686 0.025126483 0.007406334 0.0031485036
0000a0 57 64 51 3c ae 67 04 3c 68 1c 76 3c c2 0e 84 3b
       0.012780271 0.00808136 0.015021421 0.0040300796
0000b0 22 41 5e 3c 99 9d 3d bb c8 6b 07 3c f9 6b c2 3b
       0.013565334 -0.0028933047 0.008265443 0.0059332815
0000c0 cb ab 0e 3b ab f7 29 3c 2a 62 89 3b 95 9e 88 3c
       0.0021769877 0.01037399 0.0041926103 0.01667718
0000d0 4a ce 0a 3c ea 00 c1 3a b0 f9 76 3c e7 59 91 3c
       0.008472035 0.0014725004 0.015074179 0.017743064
0000e0 9e 37 2c 3c 41 a5 26 bb b7 e3 48 3b 97 e4 6b 39
       0.010511307 -0.002542809 0.0030653307 0.00022496503
0000f0 ab ff 39 3c 4b 26 62 3c 21 f2 40 3c 9a d4 8f 3b
       0.01135246 0.013803075 0.011776478 0.0043893578

network_body.linear_encoder.seq_layers.2.weight f4 [64, 64]
000000 87 1e 5f be d1 38 72 be c2 3e a7 bd 10 aa 21 3e
       -0.21788989 -0.23654486 -0.08166267 0.1578753
000010 b5 dd 2a be a0 69 46 3e b0 92 35 bd 13 f1 04 3e
       -0.16686137 0.1937623 -0.044329345 0.12982588
000020 eb cf 8c bd 48 b9 d6 bc f3 c6 0f 3c a3 aa 4c 3e
       -0.06875595 -0.026211396 0.0087754605 0.19986968
000030 e4 b6 01 be f3 55 65 3e 21 bc b6 bd 18 be 01 3e
       -0.12667423 0.22396068 -0.089226015 0.12670171
000040 92 cc dd bd 3b 8e 7c 3c 1c 68 9f bd f4 e1 90 3d
       -0.10830034 0.01541477 -0.07783529 0.07074347
000050 93 b9 b9 3d 9f ef 3f be b9 6b 97 bd f7 7a 15 3e
       0.090685986 -0.18743752 -0.07393593 0.14597689
000060 78 f6 68 3e 0a 11 4f 3d 32 41 cb bd 22 30 92 3b
       0.2275027 0.05055336 -0.099245444 0.0044613043
000070 a7 be d7 3c 33 41 d2 bd ac 40 e7 3d 1a eb b9 3d
       0.026336027 -0.10266342 0.11291632 0.09078045
000080 55 c9 ae be 7d ac 74 bd 29 17 b2 3c da f8 6e 3e
       -0.3413798 -0.05973481 0.02173956 0.23337117
000090 23 47 b3 bc 8f 09 d9 3d 12 89 25 bd 23 10 96 bd
       -0.021884507 0.10597526 -0.040413924 -0.073272966
0000a0 d1 fe 2b be 44 0c a8 3d 9f 21 e2 3d 33 07 13 bd
       -0.16796423 0.082054645 0.11041569 -0.035895538
0000b0 ca 6b e0 bb 9e 52 5a 3d 1c 72 6a 3d 38 ef 3f 3e
       -0.006848787 0.053301446 0.05723773 0.18743598
0000c0 ff 2a 94 bd 8a 9f 45 bc a8 3d 69 bc dd 8b de bc
       -0.07234763 -0.012061963 -0.014235891 -0.027166301
0000d0 1d cc 62 bd 6b c6 58 be 27 7f dd 3c 57 a5 3b 3e
       -0.05537044 -0.2116944 0.02703817 0.18324791
0000e0 6a 0b 1e be 59 77 40 3e 25 61 84 bd be 91 3d be
       -0.15434042 0.18795528 -0.06463841 -0.18512627
0000f0 a2 ed f5 bc b0 52 6a bd b6 3a 91 bc 08 35 2f 3d
       -0.030020539 -0.057207763 -0.01772819 0.042775184
000100 fc 09 36 3e 5a 67 de 3d 05 80 10 3c 11 20 bc 3d
       0.17777246 0.108595565 0.008819585 0.09185804
000110 58 c1 d2 3d 8d 7f 36 3e f4 ed 35 3d 48 a1 2a bc
       0.10290784 0.17822094 0.044416383 -0.010414429
000120 c7 3c 3b 3d e2 81 f9 bc 07 65 20 3d 1c 70 0d 3e
       0.04571226 -0.03045744 0.039158847 0.13812298
000130 27 6e 1b 3e 80 52 9b 3c 1e 22 52 be b3 55 27 3d
       0.15178739 0.018960238 -0.20520827 0.040853214
000140 3a 45 4d be 80 a7 12 be af e3 71 bd ac d5 3f 3e
       -0.20045939 -0.14321709 -0.059055027 0.18733853
000150 1e d3 2c 3e e8 4e 5c bd c0 57 e1 3d 3e db 11 be
       0.1687741 -0.05378619 0.11003065 -0.1424379
000160 25 14 b6 bb ba f1 82 3e 0d 58 25 3e 11 2c 16 3e
       -0.0055566006 0.25575048 0.1614687 0.14665247
000170 f2 45 db 3d ba 7a b8 3d 34 e1 45 be f6 a6 83 bd
       0.107067004 0.09007783 -0.1932419 -0.0642833
000180 08 ec 58 bd 9f 0c 4b bc ea ec 0d be 99 22 8e bd
       -0.052959472 -0.012393146 -0.13859907 -0.06940193
000190 f6 92 f4 3d fc 5d d9 3d 39 71 fd 3c 7b f0 1d 3e
       0.11942093 0.10613629 0.030937778 0.15423767
0001a0 b7 2a 56 3d 98 d1 fd bd 88 86 0a bd 6d 37 7c 3d
       0.05228683 -0.123934925 -0.033819705 0.061576296
0001b0 8e 76 85 bd 31 0b 2b be 33 86 aa 3d c3 7a 05 bc
       -0.06516753 -0.16703488 0.08326378 -0.008146944
0001c0 8c 6d 1b bd 5c c0 81 bd 69 5c 56 bd 51 4e 08 3d
       -0.03794627 -0.06335518 -0.052334223 0.033277813
0001d0 34 2a 93 3b 08 79 c8 3d eb 46 42 be ba 5b e3 be
       0.004491115 0.0978871 -0.18972366 -0.4440592
0001e0 47 45 9b 3a 78 28 dc bd bf 5e 9f bd 51 33 0e be
       0.0011846208 -0.10749906 -0.07781743 -0.13886763
0001f0 e3 80 ac 3d 96 0d 03 be 2b 35 9f 3d 97 32 e1 3d
       0.08423021 -0.12798151 0.07773813 0.10995977
000200 56 22 f6 bd 8c 19 ea bd b5 b9 18 3e 7c 52 54 3e
       -0.12018268 -0.11430654 0.14914592 0.2073459
000210 f7 b1 d8 3c 14 5b 28 be 51 aa 6e 3d 95 66 f7 3c
       0.026452048 -0.16440994 0.058267895 0.030200282
000220 79 b9 95 bd 66 12 04 be e5 ab 08 be 88 9c 86 3e
       -0.07310767 -0.12897643 -0.13346823 0.262913
000230 ba 68 6e be 05 cd d4 3d 47 5c 42 3e c5 14 1e 3e
       -0.23282138 0.10390667 0.18980514 0.1543761
000240 5f c3 01 3e 68 7d e4 3d 26 73 8c be e7 33 15 3e
       0.12672184 0.11156732 -0.274316 0.1457058
000250 c6 3a 00 3d 3a da f8 3d 47 89 55 3d d5 7c 84 bd
       0.03130605 0.121509984 0.05213287 -0.06469122
000260 38 46 b1 3d 6b 9d 17 bd 07 47 4f be f5 be 93 bc
       0.08655971 -0.03701536 -0.20241939 -0.018035391
000270 37 26 3c bd 2e 1f 14 3c ea a6 0d be 3d 6f 4f 3e
       -0.045934882 0.009040637 -0.13833204 0.20257278
000280 b1 25 4e be 14 85 60 3d 97 93 39 be 68 74 4c bb
       -0.20131566 0.054814413 -0.18122707 -0.0031197313
000290 81 b1 34 be 12 c1 19 3d 1b 30 45 be 6e 51 cf 3d
       -0.17645837 0.03753764 -0.19256632 0.10122953
0002a0 e8 67 fc 3d 18 da 21 be e1 7f db 3d 78 65 c8 bd
       0.12324506 -0.15805852 0.1071775 -0.09784979
0002b0 2d 95 a6 3d 3b b3 e0 ba da 40 58 3d 46 8c 92 bd
       0.08133922 -0.0017143259 0.052796222 -0.07155661
0002c0 2e a3 13 bc 1c 81 6a 3d b2 a0 b9 3d dd 9d 2c 3e
       -0.009011073 0.057252035 0.09063853 0.16857095
0002d0 35 6e 68 3d 0a 1a 92 bd 08 1b 23 3e 51 4d 62 3d
       0.056745727 -0.07133873 0.1592828 0.055249516
0002e0 4a c9 e2 bc d6 d3 18 3d 95 fa ff 3d 42 da 03 be
       -0.027683873 0.037311397 0.124989666 -0.12876227
0002f0 d3 b3 b2 bd 8f 42 46 3e ed 6d 83 bc a4 76 74 bc
       -0.08725705 0.19361328 -0.016043628 -0.014920864
000300 bc c6 99 ba f5 14 fd bd 45 9e 82 3d 44 de 68 3c
       -0.0011732201 -0.12357513 0.06377844 0.0142131485
000310 6d a9 45 3e cb ac 81 bc a1 d8 c4 3c ba 60 02 3e
       0.19302912 -0.015829464 0.024029078 0.12732211
000320 27 4b dd 3d 43 07 7a bd 6c 59 0b be 95 a6 dd 3d
       0.1080535 -0.06104208 -0.1360833 0.108227886
000330 93 2a af bd 86 e5 c5 3c e6 ae 6a bd 64 34 c1 bc
       -0.08553042 0.024157297 -0.057295702 -0.023584552
000340 17 76 b5 3c 9b 54 b9 3d 44 7b 34 be 57 33 25 3e
       0.022151036 0.0904934 -0.17625147 0.16132866
000350 f4 9c 72 3d af 3b 9c 3e d5 9c 26 bd a1 66 54 3e
       0.059231713 0.30514285 -0.04067691 0.20742275
000360 cb 50 e4 bd df a3 1b 3e ad f5 08 bd 97 6f e0 3c
       -0.111482225 0.1519923 -0.03343742 0.02739696
000370 1e 30 a1 3d fc 5e 5d bd bf 35 e9 bc b7 9c 2e bd
       0.07870506 -0.054045662 -0.028468011 -0.042629924
000380 52 90 4d 3e 49 05 8b 3e e8 a6 42 bd 60 af 8b 3d
       0.20074585 0.2715247 -0.047522455 0.068205595
000390 aa 2b 1c be f4 76 20 be 83 06 c1 bd ea 6c 18 3e
       -0.15251032 -0.15670377 -0.0942507 0.14885297
0003a0 e2 3f b0 be 84 ac d7 3a 32 12 8a 3d 6f 61 80 3e
       -0.3442374 0.0016454612 0.06741752 0.25074336
0003b0 0e ee a0 3d 01 3c 21 be 66 3e 58 3e 9c 30 a2 3d
       0.07857905 -0.15745546 0.21117553 0.07919428
0003c0 f8 03 72 be 6e b2 0e be 45 3e 57 bd 57 28 92 bd
       -0.23634326 -0.13935253 -0.05254962 -0.071366005
0003d0 c2 45 9e 3d ad 3a 68 be 6c 05 8d be 39 83 28 3d
       0.07728149 -0.22678633 -0.275432 0.04114077
0003e0 e1 07 50 bd b6 1c cb 3b e5 88 96 bc b2 14 33 3c
       -0.050788764 0.006198491 -0.018375823 0.010930227
0003f0 fb 37 7c 3d 50 f6 be 3d c3 73 20 3e 9d 7a 71 bc
       0.061576825 0.09324324 0.1566916 -0.014738706
