results/Hikaru_0/Hikaru/Hikaru-1749.pt (torch, 791303 bytes, 33 tensors)

network_body.linear_encoder.seq_layers.0.weight f4 [64, 96]
00000000: 6585 613c 4378 e73d 7c57 b63c cf58 a3bd
00000010: 8825 5cbd b10f 353d 4af0 a5bd 8e53 7bbe
00000020: dd19 d2bb 5b5a a23e a3ac abbd 3b5f d3bd
00000030: 243b 8a3c 3535 45bc c8a9 f33d 55fe 0abe
00000040: db16 84bc 2e43 e6bd d8fb 25bd 6711 7e3d
00000050: 0e7a 66bc 5303 a93c 310b 633d ab0b d4bd
00000060: b789 823d 1d2e 73bd 4620 42bd 9de7 13be
00000070: bfcb 0bbe eee3 923d fdcc 423d ba53 db3d
00000080: 910d ad3d b231 2d3e 6799 583d 6c50 d7bc
00000090: a086 59bc 2722 01bd cd9b fb3a 89b2 33bd
000000a0: 5bd3 823e 654f 883b a7a6 b33d 5641 683c
000000b0: 3b13 913c d342 033e 986c 293e 5c5c 2ebe
000000c0: 7da1 1a3c 7507 393d 8083 8a3d 7404 843d
000000d0: 804b 303e 3e19 2c3e 1603 b73c 8485 8a3d
000000e0: d1e9 b4bd 583b bb3d 0435 d8bc 2acb 423d
000000f0: ce56 da3d e516 99bb 8845 8e3d 290f c2bd
00000100: 3bf9 af3d 6034 b8bd 1661 a13d c3e5 033e
00000110: 7897 503e 9aca 3e3d 138a 7bbd e1f2 ef3d
00000120: badf 9e3d cabf b2bd 8934 8c3d 79c1 06bd
00000130: c912 e8bd 0956 d5bd 53e9 67bd 0cfa 95bd
00000140: 5236 9fbc 4a66 03bd ad34 e0bd 806d bc3d
00000150: f4fe bfbc f33d 4bbd cecf c4bd abbd f43c
00000160: 9432 7cbd 9993 76bd 6fff 35bd 506f 683d
00000170: b1df 243e dbf2 2bbb 7362 db3c e9ed e4bd
00000180: b423 8fbd 7ab4 d53c 7aec cbbd 979d 7a3e
00000190: 85b5 08be a1fb 8e3c 87ca 083e 48ec 51bd
000001a0: 9174 9dbd e6aa 7fbe 65ce afbd cdb6 5cbe
000001b0: 4bc6 bfbd 207c 1cbe 122f bf3b 4885 0ebc
000001c0: 38cb ddbd 9b8e 3d3d 1f99 cdbb 2bfc edbd
000001d0: 9c77 35bd 7fb3 c43d c4d0 0c3c 1d3e bfbc
000001e0: 8f9d d8bd 6014 e83c 6bb9 05bd 0efe 333e
000001f0: 7b1a 413e 3cd8 3a3c 4565 1ebe 3f0c 9a3d
00000200: 0b74 463e c6c1 b63d ed2f ba3d c52c 093d
00000210: d222 5abe feb1 11bd b703 2d3b 9f9c 023e
00000220: 4dda 32be 96a2 9e3d 1eb8 7cbe ced2 dfbd
00000230: edf8 6d3d 1d48 5cbd 9b36 213d b9fe f4bd
00000240: 6ba7 0f3e 8965 c0bd 4698 32be e3fa c2bd
00000250: ad78 47bd 0e24 093d 297d 80bd 204e 263e
00000260: ba87 e03d eeb7 90bd 95cc 4ebd 4936 123e
00000270: 4f64 deba b823 cc3d 3a80 84bd 9935 27bd
00000280: 6670 0d3e 645f b13d b9b4 333e db49 04be
00000290: bd85 08bc 62ea e63c 0d85 983d a052 4e3d
000002a0: 2d8e 903c b91e 7dbc 2b66 2a3e 943e cdbc
000002b0: 22c7 ff3d 9aca b8b9 5a36 c2bd d062 d13d
000002c0: 69fb 823d 3c69 c13d 49e8 6f3d 04d4 f0bd
000002d0: b5ab 1d3e 258e b83d 3be5 dbbd 543d 75bc
000002e0: 00b7 83be 060a 22bd caac 0d3d 1ccf a13d
000002f0: 15d6 6a3d 5144 793d 141d 4bbc 1711 7b3d
00000300: 70b2 203e ee99 783e 4975 803d 8b20 d93c
00000310: 0dcc b63d 1234 eebd 492f 363d 865b fa3d
00000320: a62d 10be 6fc2 e43d 013c a9bd 357f 913d
00000330: f20d 1dbe e78b ad3d ebe7 9c3d e32f a4bc
00000340: d3e8 3cbd 3903 0a3e 56b9 cd3d de81 d03d
00000350: 1f2b eb3d 508f c7bd fc6e babc df4c 413d
00000360: ef3c dc3b 5d99 fbbd 1deb d93d 4aa1 263e
00000370: 54b4 af3c f683 9c3d eb6b 98bc fc36 e53d
00000380: 45cb fabd bfe1 61bd cd0c 53bd d8f8 973d
00000390: a311 203d fd41 5cbe 303f 44bb a98f 95be
000003a0: 1293 4c3c c958 efbd 90d1 1ebe 6ed0 f2bc
000003b0: 0e11 d2bd 8874 6dbd a9ad 5d3e d9dc 30bd
000003c0: c3d2 8c3e 150f 61bd 32cb f93d 3062 113e
000003d0: e3ab a33d 1c7d df3c 7c9e 7e3d cbe1 73bc
000003e0: 1a3c 89bd dc7e 063e 0314 3dbe 7482 443e
000003f0: 7045 673d 0307 813d ba59 6a3d 7bf3 2b3d
0.013764714 0.11302235 0.022258513 -0.07975923 -0.05374673 0.044204418 -0.08102472 -0.24543592
-0.0064117745 0.3170956 -0.08382537 -0.10320898 0.016873904 -0.012036611 0.118976176 -0.13573582
-0.01612418 -0.11243282 -0.04052338 0.062028315 -0.014067186 0.020631468 0.055430595 -0.10353788
0.06373923 -0.05937015 -0.04739406 -0.14443822 -0.13651942 0.071723804 0.047558773 0.10709329
0.08449853 0.16913489 0.05288067 -0.026283465 -0.013276726 -0.03152671 0.0019196213 -0.043871436
0.25551876 0.004159855 0.08772021 0.014175734 0.017709365 0.1281846 0.16545331 -0.1702742
0.009437916 0.045173127 0.06763363 0.06446162 0.17216301 0.16806504 0.022340339 0.06763747
-0.088336594 0.09142178 -0.026392467 0.047557034 0.10661088 -0.0046719187 0.06946856 -0.09475548
0.08592459 -0.08994365 0.07879846 0.12880616 0.2037028 0.046579935 -0.061410975 0.11716247
0.07757516 -0.08727987 0.06845958 -0.032899354 -0.11331708 -0.104168005 -0.056619 -0.07323083
-0.019435082 -0.032079972 -0.10947547 0.09200573 -0.023437 -0.049619626 -0.09609948 0.029875597
-0.061571673 -0.060199354 -0.044433054 0.05674678 0.16100956 -0.0026237282 0.026780343 -0.1117819
-0.06989232 0.026087034 -0.09957214 0.24474178 -0.13350494 0.01745397 0.13358508 -0.051250726
-0.07688249 -0.24967536 -0.085842885 -0.21554108 -0.09363993 -0.15281725 0.0058344686 -0.008698769
-0.108297765 0.046278577 -0.006274357 -0.11620363 -0.04430352 0.09604549 0.0085946955 -0.023345048
-0.10576927 0.028330028 -0.03264753 0.17577383 0.18857758 0.011404093 -0.15468319 0.07521867
0.19380204 0.08923678 0.09091172 0.03348996 -0.21302345 -0.035570137 0.002639992 0.12755059
-0.17466088 0.077458546 -0.2467961 -0.1092888 0.058098722 -0.05377971 0.039358716 -0.11962647
0.14028709 -0.09394366 -0.174409 -0.09520509 -0.04869907 0.03348165 -0.062738724 0.1624074
0.10963388 -0.07066332 -0.050488073 0.1427852 -0.001696715 0.0996775 -0.0646977 -0.0408226
0.13812408 0.086607724 0.17549409 -0.12918799 -0.008332667 0.028187934 0.074472524 0.050371766
0.01764592 -0.015449219 0.16640536 -0.025054254 0.124891534 -0.00035246165 -0.09483023 0.10223925
0.06395609 0.094439 0.058571134 -0.11759189 0.15397532 0.09011487 -0.107370816 -0.014968235
-0.25725555 -0.03956034 0.034588613 0.07900831 0.05733307 0.060856167 -0.0123970695 0.061295595
0.15693069 0.2427747 0.0627237 0.026504776 0.08925638 -0.116310254 0.04447869 0.12224488
-0.14079913 0.11169898 -0.08263398 0.07104341 -0.15337351 0.0847395 0.07661422 -0.020042365
-0.046120476 0.13477792 0.10045116 0.1018102 0.11482834 -0.097441316 -0.022758 0.04719245
0.006721131 -0.12285111 0.106405474 0.16272464 0.021448292 0.07642357 -0.018606147 0.11192128
-0.12245802 -0.05514693 -0.05152588 0.0742051 0.03907932 -0.21509548 -0.002994489 -0.29211167
0.012486236 -0.11686856 -0.15509629 -0.029640403 -0.10257159 -0.05797246 0.21648277 -0.043179367
0.27504548 -0.054946024 0.121969596 0.14197612 0.07991769 0.027281336 0.06216286 -0.014885376
-0.067009166 0.1313433 -0.18464665 0.19190389 0.056462705 0.063001655 0.057214476 0.041980248

network_body.linear_encoder.seq_layers.0.bias f4 [64]
00000000: 76fc acbc b7cf 3239 8bcc 6c3b d110 0bbb
00000010: cae7 013c ee36 103c 4ae2 09ba e25f 623a
00000020: 613b 963b 8f64 ae3b 2b3c 163c 414e 583c
00000030: 98f6 2cbb 8a3f f03b 1094 e93b 6357 8f3b
00000040: d3bb 833c a222 d33b cbf8 243c df15 9dbb
00000050: 39de ba3b e425 ccba eab5 073c 5a9c 2abc
00000060: 1285 c3ba ae54 02bc 7dbd 803b 3359 033c
00000070: ddc9 c73b a21d 12ba 3a2c e33a 625f 18bb
00000080: d338 283b c73f d13b c136 c93b 12d4 f03a
00000090: 4f32 183b b9c1 2d3c 7f6e b93b 7ffa 5b3c
000000a0: 50ae a83b 01e5 b43b fa2f b03a da8d 163c
000000b0: 4a37 8fba 2d1c e339 a278 883b b8f8 e93b
000000c0: 860b 8ebc 18bc 003c 8bb2 79bb ff7b 3d3c
000000d0: 7d92 e63a f502 6fba 7428 3d3c 909f 8a3c
000000e0: 273a de3b a528 c638 c04a f4bb 31ce 09ba
000000f0: e6cc 473c fd7b d23b 4bcc 163c d92f ccbb
-0.021116477 0.00017052783 0.003613266 -0.002121974 0.007928798 0.008802159 -0.0005259855 0.00086355035
0.0045847152 0.005322046 0.009169619 0.013202251 -0.0026392099 0.007331793 0.007128246 0.004374431
0.016080773 0.0064433375 0.0100690825 -0.004793867 0.0057027605 -0.0015575257 0.008283118 -0.010413254
-0.0014916977 -0.0079547595 0.0039288388 0.008016872 0.006097062 -0.00055738736 0.0017331906 -0.0023250212
0.0025668635 0.0063857767 0.0061405604 0.0018373749 0.0023223346 0.010605269 0.005658924 0.013426422
0.005147733 0.0055204635 0.0013442033 0.0091890935 -0.0010926512 0.00043317807 0.004164771 0.0071402453
-0.01733948 0.007857345 -0.0038100805 0.0115652075 0.0017591264 -0.0009117567 0.011545289 0.016921788
0.0067818346 9.4489464e-05 -0.0074552 -0.000525686 0.012194848 0.006423472 0.009203981 -0.00623129

network_body.linear_encoder.seq_layers.2.weight f4 [64, 64]
00000000: 7205 adbd 4c5f 09bd 3087 423e 9df3 a1bd
00000010: af27 36bd c36b 9cbd f8e1 8f3e b249 953d
00000020: 702c 8bbc f260 b23d 1ace 16bd c5c3 0d3e
00000030: d0df c83d 9396 d0bd 555e 9bbd 7468 853e
00000040: 62ad 5d3e dd13 093e 17d6 f03d 3d73 2abe
00000050: d837 82bd 9d40 683e 4b8d c2bd 2935 07be
00000060: beec 06be db0a 033d 5c87 9cbe a91e bdba
00000070: 71f8 57bd 3581 ddbc c62c 3bbe ba38 bebd
00000080: 929f c6bd 9abf 643c c6f4 58bc 1bce c83d
00000090: 8c1e 3c3e 897a c03c 62ca a7bd 4dba 03bd
000000a0: 86d6 dfbd f1fb e7bd c54c cf3d f940 503d
000000b0: 5b76 333d 1a87 fcbb 6fea d73d 56ac 123e
000000c0: 73cc 6abd c5d7 0dbd 3900 a33c dd71 b13e
000000d0: c20e 03be 4c14 e33c e733 e43c 414d f9bd
000000e0: 9499 473e 4d25 173e 8511 243e 4407 a33e
000000f0: d887 9e3d c272 84be 3087 143d 5feb 1f3e
00000100: 515f 89bd f90b 8e3b 90a1 1ebe dc93 fabd
00000110: a64f 813e dce1 1a3c 8e91 eabd 18ef 1a3e
00000120: 1533 de3d 2376 513e 7a4d 7c3b 1937 2e3d
00000130: cb11 dbbd a189 b4bd ca8f c03d e689 b1bd
00000140: 03a7 74be b853 2abd 6c26 a23e 8359 b5bd
00000150: a5f1 a7bd 761e dc3d 1508 6e3d 4cb4 ac3c
00000160: 5c8f 18bc 0e3d 93bd 456d 8f3c 69f5 f13d
00000170: 4ab7 ea3d 9753 c9bd a630 003e d9fc b03e
00000180: af73 fc3c a089 023e 3778 7d3e 73e0 e23d
00000190: 490a cf3e da1a f73d 1e1b e1bd 4cd1 2ebe
000001a0: a2ec cabd e1f8 30bd 9d78 a9bc 666a 4f3d
000001b0: 52b6 be3d 40e6 15be e405 a4ba 5425 bc3c
000001c0: 929a 87be e1d1 543d c6b6 45be 807f cc3b
000001d0: 36ed e2bd 200d cdbc e9ef 91bc e95a 94bc
000001e0: 3db1 9f3d ef9d 1cbd 1ede d03c f613 3bbe
000001f0: 46c3 8fbd 3242 7eba 9e3a 20bb c4a7 07bd
00000200: 95ee 213e a446 1c3e eb34 bfbc fd3b a33a
00000210: 056d 67bd e6bb de3b 3f17 ea3d 4423 64bd
00000220: c2df 91be 1166 113d d966 9c3d d6a1 08bd
00000230: c8b8 423e 1080 47bd f575 e1bd 661b 043e
00000240: 2da5 273d 3449 ba3d f337 3abd cd56 cabb
00000250: bdf3 cbbd 310c 4dbb 1ba4 9e3e fec9 e6be
00000260: 81f7 c13c a8cd 53be 96a4 92bb d366 16bd
00000270: 9910 133e 8358 c83e d383 e2bc f619 9dbe
00000280: 13c8 f73c 2119 b93e 6469 76bd 8d8d 9b3d
00000290: 4a07 a13c b5a7 9a3d 5507 b03d 91a8 113e
000002a0: c4e6 9c3d 56ee a03d 511e 9cbd 9389 383e
000002b0: fcca 02bd b75b 2bbe e404 c43c f08a 163e
000002c0: 16e7 f33c 7d8e acbe cd64 aebc 1c0a c23d
000002d0: ecd3 783e e8f0 25bd a277 d13d 5ffa a63d
000002e0: c706 283e 1679 1b3e c218 67bb c6d0 a3be
000002f0: 10a2 6cbe a6cb 9abc f0e0 1bbd 2fa9 f23c
00000300: 0da4 d5bd 4096 aa3d 2732 0abc ff27 a5bd
00000310: d726 e3bb 9f65 a13d 9f45 233e 2c5f fcbb
00000320: a0f3 c73d d346 28bd a3e5 8f3d 9833 acbd
00000330: e802 913c be94 36be fb61 493a cd97 bcbd
00000340: def4 38be 7350 41be 4053 b63d 43d6 d2bc
00000350: 747a 8d3c ae4d d1bd 5dc0 6b3d 1886 8c3d
00000360: f906 763e 13a9 153e bf1d 073e 0145 13be
00000370: 94fb fd3c 4465 9fbd eac7 963a 1c37 ab3c
00000380: 3a35 cabd 0cca 6a3c 196d 22be da3a 253e
00000390: d9e1 5bbb b225 15bd 57f9 56be 2f5b 8dbd
000003a0: 1bcc 953c 9c22 bc39 5e7a 773e 0363 92bd
000003b0: 041d 073d 09c8 5bbe 2e73 173d 3060 e7bc
000003c0: 9d89 0c3e 4616 35be 1418 513d 2c34 5bbd
000003d0: 3129 30be 27b6 1bbe 1fd5 56bb ffa4 313d
000003e0: 2a53 353e 2339 2cbd 80f7 573c a9cb c93d
000003f0: 0cec ffbd b4f5 d7bd a2dc d1bd 4613 eebc
-0.08448304 -0.033538148 0.18996882 -0.07907794 -0.04447144 -0.076377414 0.28102088 0.07289447
-0.016988963 0.08709897 -0.036817648 0.13844211 0.09808314 -0.1018497 -0.07586352 0.26056254
0.21648172 0.13386483 0.117595844 -0.16645522 -0.063583076 0.22680898 -0.09499606 -0.13203873
-0.13176247 0.031992774 -0.3057202 -0.0014428693 -0.052727167 -0.02703915 -0.18278798 -0.092881635
-0.09698404 0.013961697 -0.013241952 0.098049365 0.18371028 0.02349593 -0.08192898 -0.032160092
-0.10929589 -0.11327351 0.101220645 0.050843213 0.043814044 -0.007706535 0.105427615 0.14323553
-0.057323884 -0.034629602 0.019897567 0.34657183 -0.12798598 0.02771964 0.02785678 -0.12172938
0.19492179 0.14760323 0.16022308 0.3184148 0.07740754 -0.25868803 0.036261737 0.1561713
-0.06707633 0.0043349233 -0.15491319 -0.12235233 0.2525608 0.009453263 -0.114535436 0.1513027
0.10849587 0.20455222 0.0038498328 0.042533014 -0.10696753 -0.08815313 0.094024256 -0.0866888
-0.23891835 -0.041583747 0.3166994 -0.08854964 -0.08200387 0.107479975 0.058113176 0.021082066
-0.009311523 -0.0718938 0.017508158 0.118143864 0.11460741 -0.098303966 0.12518558 0.34567907
0.030816881 0.12747812 0.2475289 0.110779665 0.40437534 0.120656684 -0.109915 -0.17072028
-0.099084154 -0.0432061 -0.020687396 0.05063858 0.093121186 -0.14638615 -0.0012513963 0.022967018
-0.26485115 0.05195797 -0.19308004 0.006240785 -0.11080401 -0.025030673 -0.017814593 -0.018109756
0.077974774 -0.038236555 0.025496539 -0.18269333 -0.07019667 -0.0009699195 -0.0024449 -0.03311898
0.15813668 0.15261322 -0.023340663 0.0012453791 -0.056500454 0.0067973016 0.11430215 -0.055697694
-0.28491026 0.03549773 0.07636804 -0.033357464 0.19015801 -0.048706114 -0.11008827 0.12901077
0.04092901 0.09095994 -0.045463514 -0.0061748982 -0.09958599 -0.0031287784 0.30984578 -0.45075983
0.02367759 -0.2068392 -0.0044751866 -0.036719155 0.143618 0.3913003 -0.02765075 -0.3068387
0.03024677 0.36151984 -0.060159102 0.07595358 0.019656796 0.07551519 0.085951485 0.14224459
0.076612025 0.07857959 -0.0762297 0.1802123 -0.031931862 -0.16734205 0.023928113 0.14701438
0.029773276 -0.3370246 -0.0212883 0.094745845 0.24299592 -0.04051295 0.10227896 0.08153223
0.16408835 0.1518291 -0.003526256 -0.3199522 -0.23108697 -0.018895935 -0.038056314 0.029621689
-0.10431681 0.08329439 -0.008434809 -0.08064269 -0.0069321203 0.07880711 0.15944527 -0.007701775
0.09763265 -0.04108317 0.070262216 -0.08408278 0.017701581 -0.17830178 0.0007682142 -0.09208641
-0.1806216 -0.18878345 0.089025974 -0.025736934 0.017270304 -0.10219894 0.0575565 0.06861514
0.24026097 0.14615278 0.13194941 -0.14381792 0.03100375 -0.07782987 0.0011503671 0.020900302
-0.098734334 0.014330398 -0.1586193 0.16135731 -0.0033551364 -0.036412902 -0.20993553 -0.069021575
0.018285802 0.0003588394 0.24167773 -0.07147791 0.032986656 -0.21463026 0.03697508 -0.028244108
0.1372437 -0.17684278 0.051048353 -0.05351655 -0.17203213 -0.15206204 -0.0032780839 0.043370243
0.17707506 -0.042046677 0.013181567 0.09853298 -0.12496194 -0.10544911 -0.102471605 -0.029061925

network_body.linear_encoder.seq_layers.2.bias f4 [64]
00000000: 33e1 103b da49 403c e70f d33b df50 773c
00000010: 4c7b 8f3b d967 ce3b 7908 af3b 6704 fb3a
00000020: 24d9 a63b 18c4 233c 0838 b4bb 62a4 2b3c
00000030: 3c67 4c3a 587f c63b f0ff e7bb 6fc7 2e3c
00000040: 14bb c1bb 8b76 793c fb6c 863b 3c71 2dbc
00000050: 51e5 a23b 888c b73b 76fc a9bb d121 b1bb
00000060: 9d34 fa3b 26f6 403b 85af 593b 308c 02bc
00000070: cb80 723a 8042 533c 3d1f 853c 5fc7 0dba
00000080: 6ad4 ca3c a4b8 3bbb 827e 29bb a9c9 5c3c
00000090: acae 3b3c 268e c13b 31b6 de3b 4f9b 293c
000000a0: b84d 6f3c 93c1 b73b 6f39 443c 0e26 313b
000000b0: 6178 a73b 25b4 3f3b 9002 c53b 9879 0b3d
000000c0: 68e7 b63b 38dd 123c 81a8 183c 6a18 a33b
000000d0: 4cab ba3b b9d9 183b 2a13 893c c078 073b
000000e0: 0d2a f23b af97 9ebb 4eab 65ba 1481 27bb
000000f0: cf0e 5a3b a97b 8f3b a044 abbb a36a 3d3c
0.0022106885 0.011736358 0.0064411047 0.015094965 0.004378712 0.0062990007 0.005341586 0.0019151092
0.005091803 0.009995483 -0.0054998435 0.010476204 0.00077973655 0.006057661 -0.0070800707 0.010667666
-0.005912194 0.015226017 0.004102347 -0.010586079 0.0049711843 0.0056014694 -0.0051875664 -0.0054056426
0.0076356665 0.002944359 0.003321619 -0.007967994 0.0009250759 0.012894273 0.016250247 -0.0005408432
0.02475949 -0.002864399 -0.0025862758 0.013475814 0.011455219 0.005906838 0.0067966213 0.01035197
0.014605932 0.0056077926 0.011976584 0.002703074 0.005110786 0.0029251662 0.0060122684 0.034051508
0.005581785 0.0089638755 0.009317518 0.0049772756 0.0056966897 0.0023323132 0.016732771 0.0020671338
0.0073902668 -0.0048398594 -0.0008761183 -0.0025559114 0.0033272987 0.004378755 -0.0052266866 0.011561069

action_model._discrete_distribution.branches.0.weight f4 [675, 64]
00000000: f920 1fbc 03fa e63b ef6f 4ebb e0c5 253c
00000010: 9600 3bbb 8bd9 943b 0cbd d53b c22d 953a
00000020: 4885 02bd 656e 193c 6f80 0fbb f48c b03c
00000030: 3e8e 87bc 467b 753b 31f0 943a aed2 d73a
00000040: d172 a73c 4d4e 153d cb9f acbc 9f4b a4bc
00000050: 7313 a93c 9717 9b3c 30a6 173c 0eb6 e339
00000060: 0146 97bc f28b 91bc 9474 1a3c 5469 95ba
00000070: d469 f0bb 11d0 22bb 869e 95bb 0e61 b73c
00000080: d528 9fbb 3402 133c b4f1 fbbc 6aaf 143c
00000090: 00ea 8f3c 6dba ec3b 1c6c 1ebb 5f19 fc3c
000000a0: 66a9 33bc 4009 7dbc fe20 1e3b fd16 26bc
000000b0: 0559 9d3b 8e25 f9bb 961b 4a3c bc1d 70bb
000000c0: bdb3 d63b da4e 9e3c a7f7 1d3c 4a5e 953c
000000d0: 93fe 86bc c95c e33b 32f3 fa3a 62ed 1cbc
000000e0: 2f3e ecbc 0c95 a03c 67df a0bb e728 6f3c
000000f0: 5ab6 88bc 0d99 5cbc acb7 7bb9 f704 8abc
00000100: f82d 3fba 95b1 f8bb f326 d03b 8570 0c3b
00000110: a85b 15bc 2fde 983c c36a 433c de1a 143c
00000120: 2fee 9d3c 43a0 3bbc dc96 77bb 3dfd b7bc
00000130: c105 4abc 8b13 803c 9a12 72bc 16b2 2c3c
00000140: 2885 693b 76dd 283c f626 80bc 1b23 a73c
00000150: cf86 7fbc 910b f93b f53f e8bb 7731 653c
00000160: 7b9c 22bc 99bd 16bb 6c6a 4aba c005 d13c
00000170: bbe3 513c 80f4 e53c 0c69 6c3b aabd 453c
00000180: 44d8 a0bb 2ef6 85bc 01e9 c0bc 8418 40bc
00000190: 5954 f1ba 47a9 663b c260 3e3a c9f5 043d
000001a0: b8b4 af3b cc9e d5ba 76cb 12bc 4c43 dd3b
000001b0: 7096 4c3c 8630 abbc 9be5 c43c 3290 9d3b
000001c0: a168 d63c f0f3 3a3c 3b65 293b cbbf 7b3c
000001d0: 371b 483b 49d9 743c c222 06bb 13e9 5b3a
000001e0: 5b54 a13c 68c3 e43b bf1b d9bb ff99 a23c
000001f0: 6d56 2fbc 3859 593c 8687 fb3b 3ffd 013c
00000200: f55f 9b3b a71c 373c fafc e83b 69a5 b93a
00000210: 2d50 d53c 6a29 e1bc 4412 8cbb 8da6 7cbc
00000220: 2879 a4bc 8576 993a c03d 79bc 8618 aabb
00000230: c7de e53b 25ed d43a 99da 483c 519f 3d3c
00000240: 5b09 f5bb 940c 053c 5381 97bb a59f cfbc
00000250: 58b0 eb3b ac3b 33bb db17 6a3b 2d13 043c
00000260: ecae 8c3c 9e0f 5dbc f9d8 a23b 0105 78bb
00000270: f9ec 2dbb d370 1c3a 9e08 5b3c 5762 08bd
00000280: b516 f7ba 9d6e a8bc aa4b 713c 932a 733c
00000290: 9e85 95bc 3c25 c23b 08f1 f03b ab76 d03c
000002a0: b825 8f3c 502a 8ebc 286b ebbb 6d13 493c
000002b0: 7d6d 98bc 7087 3cbc 0702 c03b 7219 2a3c
000002c0: 5e53 aebb fc40 d23a 8c93 573c 9c58 dcbb
000002d0: 1d8c 5cbc 6bf7 b0bc 4a9e d1bc 33fd 413c
000002e0: 2386 b43c 8f53 15bc 3ac4 ea3b 15cc dd3c
000002f0: b2d6 3bbc b7a5 3d3c 721c b83b 2d38 ac3c
00000300: 90d8 523d 81e6 be3c 62f6 a73c 8a09 56bc
00000310: 4e4c 803c 89b2 9fbc befd 94bc 5049 013c
00000320: 43e0 713c 3b75 b83c 17f5 e1bc 7e8e 4fba
00000330: 9961 96bb 703e 99bb 669a 843c cb41 9dbc
00000340: 6bc8 7e3c 4d77 6dba 641f 413c 0410 1dbc
00000350: 0a7f 893b 0f6a 0a3c e68c 81bc e7f3 113d
00000360: 4429 283c 5718 0d3c e6d8 b93c afb5 4c3c
00000370: 5045 00bc 3abb e4bc bd15 e3bc 6e64 dc3b
00000380: 85a4 643c 9348 27bc f2f3 323c 5d48 8aba
00000390: 8087 2fbb 4abd a1bc 53ca e2b9 9aec 673b
000003a0: 20fe 053d a2ef 5d3c c3d4 d8bb 8835 803d
000003b0: 818d b6bc 3149 f1bb 484e 313d b185 1cbc
000003c0: 94ef 133c b502 753b 4217 a73b c1b3 c53a
000003d0: 3c23 e4bb a357 c6bb 99b4 47bc 771a 823c
000003e0: a9e9 27bc deb3 3fbc 93ef 823c 5cdb a93c
000003f0: 4613 5b3c 334c d43c d64b c33b 6c35 1d3d
-0.009712451 0.0070488467 -0.0031499823 0.010117978 -0.0028534285 0.0045425347 0.0065227803 0.0011381435
-0.03186539 0.009364699 -0.002189662 0.021551587 -0.016547319 0.003745751 0.0011363087 0.0016465986
0.02044049 0.036451627 -0.021072289 -0.02005559 0.020639157 0.018932147 0.009255931 0.00043432455
-0.018465998 -0.017766926 0.009427208 -0.0011399188 -0.0073368344 -0.0024843256 -0.0045660166 0.022385146
-0.0048571625 0.008972693 -0.030754901 0.009075025 0.017567635 0.007224372 -0.0024173325 0.030773817
-0.010965681 -0.0154441 0.0024128552 -0.010137317 0.0048018717 -0.007603354 0.012335679 -0.0036638817
0.006552188 0.019324709 0.009641564 0.018233437 -0.016478812 0.006938551 0.0019145964 -0.009578081
-0.028838245 0.019602321 -0.004909444 0.014597154 -0.016688515 -0.0134642245 -0.00024005648 -0.01684807
-0.00072929217 -0.007589529 0.0063522994 0.0021429372 -0.009116091 0.018660633 0.011927309 0.009039609
0.019278614 -0.011451784 -0.0037779128 -0.02245962 -0.012330473 0.015634319 -0.014774943 0.010540506
0.0035632346 0.010306707 -0.015643578 0.020402482 -0.015596106 0.007600256 -0.0070877024 0.013988844
-0.009925003 -0.0023001193 -0.00077215466 0.025515437 0.012810643 0.028070688 0.0036073355 0.012069145
-0.0049085934 -0.01635274 -0.023548605 -0.011724595 -0.0018411978 0.0035196112 0.0007262343 0.03246096
0.0053621195 -0.0016297936 -0.008959642 0.006752407 0.012487039 -0.020897161 0.024035266 0.004808449
0.026172938 0.011410698 0.0025847692 0.015365551 0.00305338 0.014944383 -0.0020467495 0.0008388918
0.019693544 0.006981302 -0.006625622 0.019848822 -0.010701758 0.0132659 0.0076760678 0.007933914
0.0047416636 0.011176265 0.0071102353 0.0014163676 0.026039207 -0.027485568 -0.0042746384 -0.015420568
-0.020077303 0.0011708295 -0.015212476 -0.0051909117 0.0070150825 0.0016244991 0.012259149 0.0115736285
-0.007477922 0.008120675 -0.004623571 -0.02534468 0.0071926527 -0.00273488 0.0035719785 0.0080612125
0.017173253 -0.013492493 0.004969713 -0.003784478 -0.0026538952 0.000596774 0.013368754 -0.03329691
-0.0018851372 -0.020560557 0.014727512 0.014841693 -0.01825219 0.005924849 0.007352952 0.02544721
0.01747404 -0.01735416 -0.007184405 0.012272698 -0.018606896 -0.0115069 0.0058596167 0.010382043
-0.0053199967 0.0016041095 0.0131577365 -0.0067244302 -0.01346114 -0.021602353 -0.025588173 0.011840153
0.022036618 -0.00911416 0.0071645053 0.027074853 -0.011464762 0.011575154 0.0056186253 0.02102288
0.05147606 0.023303272 0.020503227 -0.013063798 0.015661385 -0.019494312 -0.0181874 0.007891014
0.014762941 0.022516837 -0.027582688 -0.00079176563 -0.0045892713 -0.0046766326 0.016186904 -0.019196412
0.015550713 -0.000905861 0.011787269 -0.009586338 0.0041960524 0.008448138 -0.015814256 0.035632994
0.010263745 0.00861176 0.022686433 0.012494489 -0.007829025 -0.027921308 -0.027720327 0.0067258393
0.01395524 -0.010210174 0.010922419 -0.001055013 -0.0026783645 -0.01974358 -0.00043256822 0.0035388828
0.032713056 0.013545902 -0.00661716 0.0626021 -0.022284271 -0.0073634614 0.043287545 -0.009553359
0.009029288 0.0037385647 0.005099208 0.0015083478 -0.006962208 -0.0060529276 -0.012189054 0.01588176
-0.01024858 -0.0117005985 0.015983379 0.020734482 0.013371294 0.02591524 0.005959968 0.038381025

action_model._discrete_distribution.branches.0.bias f4 [675]
00000000: d2c2 cebb 0a4d b8bb f006 a03b caea 243c
00000010: 6964 0c3b df9e 9c3b f90c 0e3c a4c1 a0bb
00000020: a1fa c2bb 249e cabb 6df8 833b a700 483a
00000030: af99 d3b7 f36d 853b fc82 4abb 6628 023c
00000040: 7a6e 573b 913c 03bc 9d01 833b c13c 29bb
00000050: 9898 f13b 0b9c b4bb 537f 083c 2a35 c63a
00000060: 133e 39bb 3c9d 9a3a f693 12bb 7232 9f3b
00000070: 09bf 0dbb 9410 84ba 6909 a1bb 0939 7bbb
00000080: 9dc2 44bb c2c9 653b ae29 1fbc 98ac 4ebb
00000090: 1350 6ebb 912f 963b 9ab5 973b 6481 bcbb
000000a0: 17a6 a0bb f5ba 643b 466b 963b a7e6 943b
000000b0: addc bb3b b253 e7bb 5aa1 b73a 1dcf 1d3b
000000c0: 1fca 1c3b f7e7 983b 6646 463a 4428 cdbb
000000d0: 02fc b3bb fc81 0d3b 83fd 003c 4cdd 2fbb
000000e0: fda8 ecb9 931c babb 8ef9 193b e0bf 163c
000000f0: e61b 203c e7d2 2dbb 3623 dabb b9b8 963b
00000100: 4896 3d3b f211 283b 9d6c bebb 2430 173b
00000110: c0f2 453b c9df 913b a7c5 1639 abe1 ccbb
00000120: 1ef9 84bb 9d16 193b 3a47 403a 59f6 80bb
00000130: 161b 2b3b 383b fdba 61b7 203a c52d eb3a
00000140: 6652 0f3b d656 56bb fcb6 aa3b 547b 123c
00000150: bba0 3b3b 5042 9c3b 5892 c03b 1de4 d7bb
00000160: ab31 0dbc 6be1 2f3c 3cd7 1ebc 6961 a1bb
00000170: a866 6c3b 0195 2fbb db34 673b 19e4 913a
00000180: 1dc6 b63b d9d8 0f3b e5c3 16bb cf73 f33b
00000190: eb3d 533b 5a23 143b 6f94 0ebc 5d98 583b
000001a0: 11d2 d0ba 36c1 75bb 9124 303c b900 d3b8
000001b0: c66f 853b a52f e3ba b252 72ba 1d7b fd3b
000001c0: 5bea 61b9 64bd f53b 9468 32bc e679 e2bb
000001d0: 5bb0 183b ae8d b2bb 614b 393b 0ce1 153c
000001e0: 580c 483b 1c65 1ebc c618 b53b a594 ef3b
000001f0: 9b50 f03b 900d acb9 cd38 0b3b c714 0f3c
00000200: b28e 6c3b f800 87b9 6349 68bb a736 38bb
00000210: 71ec b33a c8d6 11bc 5252 a23a 93c1 a7bb
00000220: 4b4d 923b 064a f13b 7720 d3b8 af9a cbbb
00000230: 90de 8cba ad9b efbb d190 923b 40ef d2bb
00000240: deef c6bb f5a8 a93a a80d 59bb 6388 113c
00000250: 9af5 083b 47d7 9b3a 5ddc 343b 8beb d73b
00000260: 41ed 58ba 58e6 8a3a 20e5 c6bb 0d72 e2bb
00000270: 0be4 9e3b 50e6 033c d315 e0bb 994e bbbb
00000280: d7a7 fd3b 8979 2f3a 47fc 3c3a 5c0a c3bb
00000290: c922 133c a13c c2bb cc1e 643b 4ede 2f3c
000002a0: c57f a53b 1f06 423b a132 67bb 10f1 803b
000002b0: 5358 363b 1090 7c3b 752d b93b 7774 3cbc
000002c0: 3736 75ba 4d71 78bb 66f6 46bb c8f0 573b
000002d0: 4d89 1c3c f41e ccba 6d9c 37bc ade7 b23b
000002e0: 2595 1d3c 1897 9dba 13ea 8dba ce4a 1cbb
000002f0: 65af 03bc 32e3 58bb b87d f43a 5c3d 8bbb
00000300: d53f 00bb 28e5 a3bb 0721 6d3b ae74 0fbb
00000310: ae03 b1bb a148 d33b 8272 663b 69d1 55bb
00000320: 7273 08ba 3a8f dcbb 0a72 a439 4aa4 803a
00000330: 9a86 ffbb 7730 b73b 2cf6 b43b 6b97 18bc
00000340: dedb 043c e6d6 163c b522 903b 696b ca3b
00000350: db30 a0bb 8063 be3b 90b6 15bb c2d6 083a
00000360: f923 b73b ae20 e93a 1098 d9b9 3eb9 9138
00000370: e0e5 9f3a 8b4b 1abc 147e 6d3b e2cf c3ba
00000380: 8416 2fba 30af 9abb cfe3 97ba 0367 113b
00000390: 7b13 71bb 2b95 d33b b5ea 6f3b a9cd 55ba
000003a0: 216b 993b 0c01 983b 3625 9c3b f9fc aa3b
000003b0: 2907 5bba 0fa7 e5bb 1d16 ffbb cb60 70bb
000003c0: 9969 033c 5368 9ebb b829 033c 1648 3b3b
000003d0: cfa6 ccbb d7c3 dabb f550 d0bb d227 a9bb
000003e0: 8d5d dbbb ab80 4d3b 72a1 953b de79 a33b
000003f0: 927b a93b 34f3 c63a 73ea 12bc eacd 143b
-0.0063098455 -0.005624418 0.0048836395 0.010065744 0.0021422154 0.004779681 0.008670085 -0.0049058963
-0.0059502875 -0.0061834026 0.0040274174 0.0007629492 -2.5224725e-05 0.004071945 -0.0030900827 0.007944202
0.0032872246 -0.008010046 0.003997995 -0.0025823566 0.007372927 -0.005511766 0.008331138 0.0015122045
-0.002826576 0.0011796127 -0.0022366024 0.0048583085 -0.0021628758 -0.0010075741 -0.004914452 -0.0038333556
-0.0030023225 0.0035062884 -0.009714527 -0.003153598 -0.0036363646 0.004583307 0.004629803 -0.0057527293
-0.004902612 0.0034901474 0.0045904247 0.0045440975 0.0057330937 -0.007059538 0.0014009879 0.0024079748
0.0023924184 0.0046663242 0.0007563591 -0.0062609036 -0.005492688 0.002159237 0.007872942 -0.0026834784
-0.00045139334 -0.005679676 0.0023494693 0.00920102 0.0097722765 -0.0026523413 -0.0066570295 0.0045996574
0.0028928686 0.0025645462 -0.0058112876 0.0023069466 0.0030204505 0.004451726 0.00014378746 -0.0062524877
-0.0040580174 0.0023359426 0.00073348323 -0.003935617 0.0026108674 -0.0019320017 0.0006130841 0.0017942718
0.0021869182 -0.0032705567 0.0052098017 0.0089405365 0.0028629738 0.0047686473 0.0058768205 -0.0065884725
-0.008617799 0.010734896 -0.009694871 -0.0049249423 0.003607193 -0.0026791694 0.0035279307 0.00111306
0.005577816 0.002194932 -0.0023004946 0.007429577 0.003223295 0.002260408 -0.0087023815 0.00330498
-0.0015931745 -0.0037499196 0.010750906 -0.00010061399 0.0040721623 -0.0017332925 -0.000924389 0.0077356235
-0.00021544976 0.0074993838 -0.010889191 -0.006911504 0.0023298475 -0.0054490184 0.002827369 0.009147894
0.0030524936 -0.009667661 0.005526635 0.007311421 0.0073338277 -0.000328165 0.0021243573 0.008732981
0.0036095795 -0.00025749928 -0.0035444133 -0.0028108747 0.0013727081 -0.0089013055 0.0012384153 -0.0051195114
0.0044647804 0.0073635606 -0.00010067311 -0.006213508 -0.0010747481 -0.007312259 0.00447283 -0.006437212
-0.006071075 0.001294403 -0.0033119712 0.008882615 0.0020898343 0.0011889719 0.0027597167 0.006589358
-0.00082750997 0.0010597212 -0.0060697943 -0.0069105686 0.004848962 0.008050516 -0.006838539 -0.0057161567
0.0077409553 0.00066938304 0.0007209223 -0.0059521627 0.008980461 -0.0059276377 0.0034808395 0.010734154
0.0050506317 0.00296057 -0.003527798 0.003934987 0.0027823641 0.0038538016 0.005651171 -0.011502377
-0.0009354087 -0.003790933 -0.0030359267 0.0032949913 0.009554219 -0.001557319 -0.011206728 0.005459747
0.009618078 -0.0012023179 -0.0010827206 -0.0023848298 -0.008037423 -0.0033094403 0.001865319 -0.004249258
-0.0019569297 -0.005001683 0.0036183016 -0.0021889615 -0.00540205 0.006447867 0.0035163467 -0.003262604
-0.0005205191 -0.006730941 0.00031365483 0.0009814587 -0.007798028 0.0055904943 0.00552251 -0.009313445
0.008109061 0.009206509 0.0043986687 0.006177355 -0.0048886365 0.005810201 -0.0022844411 0.00052199897
0.005589005 0.0017786229 -0.0004150276 6.948643e-05 0.0012199245 -0.009417425 0.0036238478 -0.0014939273
-0.00066790753 -0.004720591 -0.0011588278 0.0022186644 -0.0036785293 0.006456991 0.0036608402 -0.0008155951
0.00468196 0.0046387967 0.004765178 0.005218145 -0.0008355254 -0.0070084403 -0.0077846185 -0.0036678787
0.008020782 -0.0048342138 0.008005552 0.0028576902 -0.006245471 -0.006676178 -0.006357307 -0.0051622177
-0.0066945017 0.003135721 0.004566365 0.004988893 0.0051722014 0.0015178681 -0.00896703 0.0022705742

critic.network_body.linear_encoder.seq_layers.0.weight f4 [64, 96]
00000000: 58be d3ba 9f43 12be f47e 30bc f6b9 d6bd
00000010: 52d6 4d3e d435 bb3b 9c4f 1dbe 6ff9 823d
00000020: 7956 1f3e d53c 44be e3bf c73a 478e 09be
00000030: bc5a bf3d 4f13 34be c1c2 07be 7dfe debc
00000040: 73de 63bb 3b4d 453c be79 4bbd cf88 f03d
00000050: 77f6 6c3d b9a1 18be c871 98bc c472 ca3b
00000060: 5c69 043e 6343 813e 2390 343e 643a d43d
00000070: 9901 b1bd 0414 983d 084f 27be b11a 673e
00000080: 3885 67bd 40c9 013e 3375 993d 3881 c83c
00000090: b2b6 193e 6982 313d 1c2c b8bc 9c05 adb8
000000a0: 7ff7 fd3d e544 e03d 0762 913d 9704 b73d
000000b0: 4f78 003d 7082 74bd f007 13be 1b8d 6ebd
000000c0: 1450 bc3c 4c0d 703c 2786 c53d d52d 7a3d
000000d0: 07f7 ff3d bc19 7dbd cb89 bbbb b525 1fbe
000000e0: 9a36 86bb 7ae2 6e3d 2d8e 81bd a0cb 1bbe
000000f0: e49a cb3d ce5e 8b3c dd10 93bc 8cb8 bbbd
00000100: 801f c6bc 852c 8b3d 3503 df3d b27e 52bd
00000110: 8a3e 8abd d0dc 0cbb d612 963d 998a 05be
00000120: 7502 1dbe 5577 ddbb 84d8 2d3e 606f 0ebd
00000130: a832 113d 1517 2ebe 9d53 05bd 2a2c 1fbd
00000140: 0f89 91bc c8c8 273e 9728 0bbc 8d5e c53b
00000150: 8a23 21be 5f0f a3bd 270a 24bc eb28 b0bd
00000160: 1ef9 a6bd 9662 0e3e 1775 1cbd c4da 303d
00000170: 9df8 a03d 7ee0 713d c29c 0fbe c47a b4bd
00000180: ce7c 633d ed6c 593c fac8 f4bd 13e5 033e
00000190: bdbd 9abd b926 d7bd 651e c13d fbb9 c6bd
000001a0: a049 873d f865 4fbe efef 8e3d ec1a 763e
000001b0: 3c57 053c 79ff 02bd 3c42 53bd 13c0 643d
000001c0: f2be 603e 419b 12bd de46 46bb 3e64 19be
000001d0: b511 23be 8d3f a43c 43a2 543d 8e90 203e
000001e0: e221 f2bd af5d fbbd b127 f339 f752 a7bd
000001f0: 72f9 143d 9300 c93d d582 733d 703e f63b
00000200: 4e79 79bd 46e3 903d e75f a8bd 5ae9 d7bd
00000210: c3ae 1a3a 526e a4bc 97ec 83be 243f 7b3d
00000220: e364 75bd fa46 293d 3e52 c93c 7bee 32bd
00000230: 8989 afbd 9b11 8a3d f003 103e 3d96 01bd
00000240: 653b 15bc a469 67be 8342 953c 5879 2f3d
00000250: bad6 31bd 15eb 34bd f2f7 21be 09fc 5d3e
00000260: 21b7 923d 5190 9d3c 1d47 a93d 423b 923d
00000270: 8462 123d 90f5 32be 9913 2bbc 75d2 4f3c
00000280: 77ec 983d 4d50 2c3a 2136 47bd a834 52bc
00000290: a6c6 9cbd 4fc1 8bbb 594b aabd d490 ebbb
000002a0: 31e9 7fbd 02b8 f3bc 35e5 f23d 41ab eabd
000002b0: 3081 a33d d391 093e 5945 ecbc 42db 6dbd
000002c0: 60cb 3b3d f89f 77bd 6fd1 d8bd b1c2 583d
000002d0: d1ce 6ebe 9a1a b6bb 4e80 b0bd cc57 f0bc
000002e0: eb40 ffbc 77af 70bd cce9 46bd 1b50 ab3c
000002f0: 080e 8ebd 157f 09be f9a1 4d3d c233 763d
00000300: 5725 9d3d bb7d 9dbd bb27 313e 3941 ccbc
00000310: f9d4 87bb e91b 8d3e a32a 18bd b775 e53d
00000320: 12e8 96bc 77c2 1cbd 540c 033d 29bf a03c
00000330: 76d1 56be 0ddd d33d d5bd 15ba bfcc 9e3d
00000340: 81aa 073d e9a3 203d c7df eabc 92bf c1bc
00000350: 0fa1 63bb 22dd 8dbd 9909 453e bf1c 383d
00000360: 745c 23bd ca97 473d aa14 d13c acdf 153c
00000370: 9ed0 f7bd 9ac5 773c 7da0 27bd ab89 62bd
00000380: 585d 28be 461c 043e b7b7 77bd fc24 22be
00000390: df5d 71bd c157 5b3e 6367 3f3e 360d 19be
000003a0: 59f7 de3d 343e 683c 0310 2bbd 17c2 80bc
000003b0: 08cd ab3d d19e ebbc 943a d5bd 25cd 5e3d
000003c0: 6d06 ca3c bd22 87bc 60c1 643c ff14 a9bc
000003d0: af7d 86be 0e03 1d3c aad6 c23d 7513 acbd
000003e0: aace c3bd a59a 9b3d 507f c2bd ed39 a3bd
000003f0: 1e13 91bd 35c1 af3d cbc1 37be fbba 3c3e
-0.0016154749 -0.14283608 -0.0107724555 -0.10484688 0.20101288 0.005713204 -0.153624 0.06395232
0.1556033 -0.1916383 0.0015239682 -0.13433181 0.09343478 -0.1758549 -0.13257886 -0.027220959
-0.0034770041 0.012042339 -0.04967665 0.11744844 0.057852235 -0.14905442 -0.018608943 0.006178232
0.12930816 0.25246724 0.17633109 0.103627 -0.08642883 0.07425693 -0.16338742 0.22568776
-0.05652353 0.12674427 0.07493057 0.024475679 0.15011099 0.04333726 -0.02248197 -8.250328e-05
0.12400722 0.109506406 0.07098775 0.08936422 0.031364735 -0.059694707 -0.14358497 -0.058240037
0.022987403 0.014651608 0.09644728 0.061078865 0.124982886 -0.06179212 -0.0057232133 -0.15541728
-0.0040958645 0.058321454 -0.06325946 -0.15214396 0.099416524 0.01701298 -0.017952377 -0.09166059
-0.024184942 0.06795601 0.108892836 -0.051390357 -0.0675021 -0.002149392 0.073278114 -0.13041152
-0.15332969 -0.0067586103 0.16977125 -0.034774184 0.0354487 -0.17000993 -0.032550443 -0.038860478
-0.01776555 0.16385186 -0.008493564 0.006023234 -0.15736213 -0.07961916 -0.010012186 -0.086015545
-0.08152984 0.13904795 -0.038197603 0.04317738 0.07859919 0.059051983 -0.14024642 -0.08812478
0.055538945 0.013270599 -0.11952396 0.12880354 -0.07555721 -0.10505433 0.094296254 -0.09703442
0.0660584 -0.20253742 0.069793575 0.24033707 0.008138474 -0.03198192 -0.051576838 0.05584724
0.2194784 -0.035792593 -0.0030254642 -0.14979646 -0.15924723 0.020049835 0.051912557 0.15680143
-0.11822869 -0.12273728 0.00046378144 -0.08170121 0.036370702 0.09814563 0.059450943 0.0075147673
-0.0609067 0.07074599 -0.08221417 -0.10542555 0.00059006753 -0.020072136 -0.2576644 0.061339512
-0.059910666 0.041327454 0.024575349 -0.043684464 -0.085711546 0.06741639 0.14064002 -0.03163742
-0.009108399 -0.22598892 0.018220192 0.04284033 -0.04341767 -0.044169504 -0.1581724 0.21678175
0.07163835 0.019233854 0.08265517 0.07140209 0.035738483 -0.17476487 -0.010441684 0.012684454
0.07466977 0.0006573245 -0.048635606 -0.012829937 -0.07655077 -0.0042649875 -0.08315153 -0.0071888957
-0.062478248 -0.029750828 0.11860124 -0.11458445 0.07983625 0.13434534 -0.028841661 -0.05807043
0.04584825 -0.060455292 -0.10586821 0.052920047 -0.23321082 -0.0055573704 -0.08618222 -0.02933874
-0.031158885 -0.058761086 -0.04856281 0.02091222 -0.0693627 -0.13427384 0.050203297 0.060107954
0.07673138 -0.07689997 0.17300312 -0.024933444 -0.0041452614 0.27560356 -0.037150037 0.11204093
-0.018421207 -0.038271394 0.03199418 0.019622402 -0.2097834 0.103448965 -0.0005712186 0.07753896
0.03312159 0.039218817 -0.028671158 -0.023650918 -0.003473345 -0.06926943 0.19241942 0.04494929
-0.039883092 0.04872874 0.025522549 0.009147566 -0.121003374 0.0151227955 -0.040924538 -0.05530707
-0.16441858 0.1290141 -0.06047794 -0.15834421 -0.058927413 0.21420194 0.18691783 -0.14946446
0.108870216 0.014174987 -0.041763317 -0.01571755 0.08388716 -0.028762253 -0.104115635 0.05439486
0.024661267 -0.016496057 0.01396212 -0.020639895 -0.26267764 0.009583248 0.095136 -0.08402149
-0.095609024 0.075978555 -0.09496939 -0.07970033 -0.070837244 0.08581773 -0.1794502 0.18430702

critic.network_body.linear_encoder.seq_layers.0.bias f4 [64]
00000000: 6cb4 dc3b 2711 ea3b 881e c33b 0785 943b
00000010: b350 d2bb 1bea a93b e7af a1bb 8b66 a8bb
00000020: 3a53 0339 f094 c63b d5f9 9e3b de54 303c
00000030: 68bd 973b 402e a23b 0949 edba 8ebc 4f3b
00000040: 04f0 d83b d051 913b 9d2d 7cbb a586 d93c
00000050: ba0d a93b f0b2 9dbb e035 323c 2206 46b8
00000060: 302c 833b 42f5 49bb a439 163c e71e 04b9
00000070: c83c 473c a62c 82bb baae cbbb f09e f33a
00000080: 4f0a 8f3b 63ac 133c 4248 c33b e5c1 ddbb
00000090: b1cf eebb 757d bebb 44f7 a2bb 2c67 e93b
000000a0: f74f 1a3b 4448 afbb 96a7 ffbb 937d 493b
000000b0: 9740 a5bb 685c 58bb 8ab4 2fbb a3c8 bb3b
000000c0: 7507 dd3c 3d0c 24bb 1783 bcbb 3434 44bb
000000d0: 6404 d2bb caf7 c7bb e51f 7b3c 74ce b5bb
000000e0: 5331 ac3b 7199 573c b44c eb3c dbc9 b03b
000000f0: 1a4b 38ba 4683 fe3b 6c2e 963b 6631 813c
0.006735375 0.007143158 0.0059545673 0.0045324597 -0.0064183115 0.0051853782 -0.0049342993 -0.005139177
0.00012524138 0.006060235 0.0048515596 0.010762421 0.0046307333 0.004949361 -0.0018103431 0.003169808
0.006620409 0.0044348016 -0.0038479336 0.026553461 0.005159107 -0.004812591 0.010877103 -4.721259e-05
0.0040030703 -0.003081635 0.009169016 -0.00012600013 0.0121604875 -0.0039726077 -0.0062158974 0.0018586796
0.0043652426 0.009013268 0.0059595415 -0.006767499 -0.0072879423 -0.0058132955 -0.004973324 0.0071228947
0.0023546198 -0.005349191 -0.00780196 0.0030745014 -0.0050431 -0.0033014063 -0.002681049 0.005730705
0.026981095 -0.0025031709 -0.005752932 -0.0029938342 -0.006409215 -0.006102537 0.0153274285 -0.005548293
0.0052549033 0.013159142 0.028723098 0.005395157 -0.0007030234 0.007767114 0.0045831706 0.015770625

critic.network_body.linear_encoder.seq_layers.2.weight f4 [64, 64]
00000000: 613a 413e 0def 9d3d 47c2 3b3e e29b 19be
00000010: c5a3 55bd b652 02bd f726 8cbc d4d4 13bc
00000020: b959 a83e 2e8d adbd ae00 f2bd 932a fe38
00000030: 6f84 72bd d731 f03c 72ee 723b 1361 d43d
00000040: 8628 813e 209f d43d 06be b8bd 51c0 a73c
00000050: d713 20be 4a6d a8bd 58d2 d7bd afbb b53d
00000060: fca2 a53d 9063 74bc 20a7 7abd a14a 413d
00000070: 477f df3d 1591 a2bd 37f2 4fbe 04c1 a4bd
00000080: eb3c 8b3b 01cd 18bd c84c e73d 3b0e 0dbc
00000090: d84c 033e 9658 873d cc3d 05be 6dd1 91bc
000000a0: b577 143e bacc a7bd 649f 4c3d 2f85 a53d
000000b0: d37c 6cbd a153 62be 73d4 663e 29be 843d
000000c0: 2271 3dbe 49a4 6dbd 67a5 11be 70a7 813e
000000d0: 25ce cfbd 0035 a93d f5ab b5be 2715 d33d
000000e0: fc4c 8c3d c214 b93c 58fa 45be 2b94 983e
000000f0: 8b93 0abe 8010 49be d7e1 633d 11e5 19bc
00000100: fbb9 e4bc 2676 333e f2be 0b3d 738c 0fbe
00000110: 1e60 a6bc cb84 a93c 18f0 3fbe 519a ef3d
00000120: 518e c93d f66f 70bd 4847 4dbe f0d0 463d
00000130: 10e2 073d 65d0 d83d 57ae 3a3c aab6 8e3c
00000140: 2d11 3dbd 279e b8bd 4ff1 0fbe e022 04be
00000150: e53e 8a3a ea4a 3f3e 2e66 bf3d 8219 5f3d
00000160: 48c7 de3b dd7c b13d 44eb dbbd 2300 ca3c
00000170: 07ae 2a3d 93a4 e8bd e527 083e 3fb0 99bd
00000180: be04 8c3d fdb5 a03d c5ac 923c 65ff f23d
00000190: a555 783c a9ab 4a3e 1ad1 df39 5068 e33b
000001a0: c355 413d 1097 c53d 431e 73bd 793f 9fbe
000001b0: bd76 1e3e 0f2e 6e3e 954a 3f3c b91c 0a3e
000001c0: d56c 22bd b93a c53d 17fa c5bd cb67 b1bd
000001d0: a134 abbe a1b1 0f3d 5fa6 97bd 0133 173e
000001e0: 6942 c0bd 2f81 343e c9dc d93d 58f7 b7bd
000001f0: 996e 90bd f06c 67bd f129 2d3d 972f bf3d
00000200: 60cd 9e3c b5f8 4abd 9272 71bc 3122 d5bd
00000210: 7d4f d83d 7df1 3e3e 8a18 9ebc b7b8 75bd
00000220: 697f e03c f023 31be 5f44 183c ac2c cabc
00000230: 355c 0b3c 6497 38be 8c42 57bd 9f3f 79bd
00000240: 85bc 80bc 7bda 8fbc 8e8c 93be 0fa1 933d
00000250: 1f21 eebd ed04 5abe 1442 48bd 68e2 003e
00000260: ed3a 713d 3259 8a3d 09dc c2bd 7837 bc3d
00000270: 3603 e5bb 3142 603e c3e7 27bc 02a1 19be
00000280: 0384 b03d 883a c9bd 4aaa 4c3d 6383 c43d
00000290: 91e7 1e3e c846 db3d 23c0 f3bc 4fac 6fbe
000002a0: 7283 05be 1229 adbd bbb5 cdbd db39 c03c
000002b0: 2b18 10be bfdb 9dbd 82c9 94bd 8907 82be
000002c0: c876 043e 5c9d 91be ae80 1fbe fff3 43bb
000002d0: d5d5 063e 9ecd 573d 3a08 4d3d ce81 083b
000002e0: 6ff4 743d 842e 46bc 180c 5e3a 95ca 83bc
000002f0: df4c 27be ef65 203d 0328 de3c e70c 663d
00000300: 7a02 3fbd 03ca 4a3e 05cb 853d 7251 993d
00000310: 08fb dd3d 8efa b13e 8e63 973d 7b7b e7bb
00000320: 2249 b43d 04e0 bfbb 042f 06be 6974 d93b
00000330: 18e8 7dbe bdb8 3dbe e338 143d c07b 343e
00000340: fe3f 4e3a 61b7 923d 7b7e a0bc 0d23 0ebb
00000350: 2c54 f7bd 6246 15be e278 0b3d a1ae 89bd
00000360: 31c3 26be 6bd4 1e3d a3e1 7b39 2180 663e
00000370: 56ee 6c3d f7ba a33d 70e0 20bc b82b 2a3e
00000380: 0df6 c43d dee6 853d 6a79 40be ba1b 2a3e
00000390: fe6d 85bc 4ced d23d e8ac 983c 2dfc 0fbe
000003a0: 6a9f 043d 28aa be3d 906b 113e b1c5 2fbd
000003b0: bdeb 80bb 36f6 6cbd afcd f9bc d988 c1ba
000003c0: 3635 26be 1d16 163c 746c 363e 21d9 343d
000003d0: 3a01 7a3e 1510 1a3e 893c 4abe 0f11 213e
000003e0: 14fc a0bd c196 d6bc e0cf 883e 9dce eabd
000003f0: 7b6a 32bd 3654 06be baf7 06be e4c9 01bd
0.18869926 0.07711611 0.1833583 -0.15000871 -0.052158136 -0.03181716 -0.017108424 -0.00902291
0.32880953 -0.084741935 -0.11816536 0.00012119594 -0.05920833 0.02932064 0.0037068394 0.10370078
0.2522623 0.10381913 -0.09020619 0.020477446 -0.15632568 -0.0822397 -0.10538167 0.088736884
0.080877274 -0.014916316 -0.06119454 0.047190312 0.10912948 -0.079378285 -0.20307241 -0.08044627
0.0042492053 -0.037304882 0.11293942 -0.00860935 0.12822282 0.06608693 -0.13011855 -0.017800057
0.1449879 -0.08193345 0.049956694 0.080820434 -0.05773623 -0.22102214 0.2254198 0.06481583
-0.18500188 -0.058018003 -0.14223252 0.25323057 -0.10146741 0.08262062 -0.35482755 0.10306769
0.06850621 0.022592906 -0.1933378 0.29800543 -0.13532846 -0.196352 0.0556353 -0.009392993
-0.027920714 0.17525539 0.034117647 -0.14018421 -0.020309504 0.020693203 -0.18743932 0.116993554
0.09841598 -0.058700524 -0.20046723 0.048539102 0.033174574 0.10586623 0.011394105 0.017421085
-0.04615896 -0.0901454 -0.14056896 -0.12903929 0.0010547308 0.18680921 0.09345661 0.054467686
0.0067986585 0.08666394 -0.10738233 0.024658268 0.04166987 -0.11359515 0.13296469 -0.075043194
0.06836842 0.078472115 0.017904649 0.11865119 0.015157138 0.19792046 0.00042689667 0.0069399253
0.04720093 0.096479535 -0.05935503 -0.31103113 0.15474983 0.23259757 0.011675497 0.1348752
-0.03965457 0.09630341 -0.096668415 -0.08662375 -0.3343859 0.03508151 -0.0740478 0.1476555
-0.09387667 0.17627405 0.106378146 -0.08982724 -0.07052345 -0.056500375 0.042276327 0.09335249
0.01938504 -0.04955359 -0.014736788 -0.10406912 0.10562036 0.18646808 -0.01929881 -0.05999061
0.027404504 -0.17298865 0.009293645 -0.024679504 0.008505871 -0.18026501 -0.0525537 -0.06085169
-0.015714893 -0.017560234 -0.28818172 0.07208454 -0.11627411 -0.21290942 -0.048891142 0.12586367
0.058894087 0.06755294 -0.095146246 0.09190267 -0.006988908 0.2190025 -0.010248127 -0.15002826
0.08618929 -0.09825617 0.049967088 0.095953725 0.15518023 0.1070686 -0.029754704 -0.23405574
-0.13038424 -0.08455099 -0.10044428 0.023465088 -0.1407172 -0.07707929 -0.07264997 -0.25396374
0.12935936 -0.28440368 -0.15576431 -0.0029900072 0.13167508 0.052686326 0.050056674 0.0020829323
0.059803423 -0.012096051 0.000847043 -0.01608781 -0.16337918 0.03915971 0.027118688 0.05616465
-0.04663322 0.19803624 0.065328635 0.074862376 0.10838896 0.3476147 0.073920354 -0.0070642806
0.088030115 -0.005855562 -0.13103873 0.0066361916 -0.24795568 -0.18527503 0.036187064 0.17625332
0.0007867812 0.07163883 -0.01959156 -0.0021688372 -0.120766014 -0.1457763 0.03405083 -0.06722761
-0.16285397 0.038776796 0.00024021282 0.22509815 0.057844482 0.07994645 -0.009819135 0.1661824
0.09617243 0.06538175 -0.18796316 0.1661214 -0.0162878 0.10299167 0.018637136 -0.14061041
0.03237859 0.093097985 0.14201188 -0.042913143 -0.003934352 -0.057851993 -0.030493585 -0.0014765515
-0.16231236 0.009160546 0.17814809 0.044152383 0.2441453 0.15045197 -0.19749655 0.15729164
-0.0786058 -0.026194932 0.26721096 -0.114651896 -0.04355858 -0.13118061 -0.13180438 -0.03168668

critic.network_body.linear_encoder.seq_layers.2.bias f4 [64]
00000000: b473 7fbb b95d a4bb 1abe 9139 3adc bebb
00000010: d8f1 09bb dee7 b9ba a9d2 a4bb f98b 043c
00000020: b290 9fbb d65e 6e3b e591 3cbc ec07 babb
00000030: dfde c43b 7590 f23b ad8e 5ebb 9915 a5bb
00000040: 2ef1 aabb 3118 a63b 6ca7 b3bb a26a e3ba
00000050: 2e9e 003b 0812 0c3b 20cb 863b 7177 8f3b
00000060: f894 ed3b 720f 03bc 9c59 66ba adcb 9abb
00000070: 66d4 c43b 2b92 a93b 7251 c2bb b49e a2bb
00000080: 72f9 993b 7778 893b b072 a43b 58f1 783b
00000090: be55 05ba 66c2 ba3b 0569 a03b 754a 9a3b
000000a0: 9d2a a23b d0f1 b1bb 39f2 b2bb 78ce a43b
000000b0: c0c3 acbb 3301 8abb b25f a03b bd59 16bb
000000c0: 3dec 9a3b 4c0f a13b 86ab e3ba 0c31 9f3b
000000d0: 98c2 943b bc5f ae3b 7e11 abbb f6d8 b5bb
000000e0: 93a2 b4bb c1d6 9b3a f604 0cbc f57d b8bb
000000f0: 4caf aebb cc2b 9e3b 4631 a73b 6224 17bb
-0.0038978877 -0.0050160554 0.00027798192 -0.005824593 -0.002104869 -0.0014183482 -0.0050299955 0.008090013
-0.004869544 0.0036372445 -0.011509393 -0.005677214 0.0060080136 0.0074024745 -0.0033959553 -0.005037975
-0.005216739 0.005068802 -0.0054826047 -0.0017350505 0.0019625532 0.0021373052 0.00411357 0.004378252
0.0072504245 -0.007999288 -0.00087871565 -0.004723987 0.006006765 0.0051748953 -0.005930119 -0.0049627665
0.0046989257 0.0041952687 0.0050185546 0.003798565 -0.0005086324 0.0056994436 0.004895332 0.004708583
0.0049489276 -0.0054304376 -0.005461004 0.005029496 -0.0052723587 -0.0042115687 0.0048942203 -0.0022941672
0.004727869 0.0049151536 -0.0017369844 0.0048581418 0.004539799 0.005321471 -0.005220591 -0.0055495454
-0.0055125444 0.0011889563 -0.008546105 -0.0056302496 -0.0053309556 0.0048269983 0.0051023094 -0.0023062457

critic.value_heads.value_heads.extrinsic.weight f4 [1, 64]
00000000: 8c97 38be 187e 04be 382d 3abe 9301 43be
00000010: dae5 b1bd 58fc 763b 6cc1 8dbe 4870 2c3e
00000020: e037 d7bd c779 13bd 36d6 05bd 0ced 1fbe
00000030: 3801 0fbc e02a 823e 7e75 46be abb9 00be
00000040: f2d4 d4bc 0bf4 853e aa55 98be 5329 2a3e
00000050: 1098 9dbe 6797 9c3e 05fb 6cbe 7a19 cf3d
00000060: a41a 093e fc71 d9bc 299a d3bd 0dba 13be
00000070: a551 0a3e 183f 5e3e bbb5 84be a9e2 9bbe
00000080: 69d1 a93d c10f 70be 01c2 863e 6046 6d3c
00000090: 8e46 2abe 3b6d 8f3e 0a05 ae3d 7878 803e
000000a0: 3b22 8d3e 0acb bdbd 16ff 31be 932a bf3d
000000b0: 9324 74be 067a 29be d61b 093e d7e6 143d
000000c0: baba 813e 87e4 933d 6fde 493d 316c 263e
000000d0: 7216 113e 3c26 e33c 54e1 92be eb44 01be
000000e0: 5e7e 963e d9f9 1b3e d22e 1abe 6f7a 96be
000000f0: 8c23 75bc 39df f43b 4934 763e 7cad 26be
-0.1802656 -0.12938726 -0.18181312 -0.1904357 -0.08686419 0.003768703 -0.27686632 0.16839707
-0.10508704 -0.036004808 -0.03267499 -0.1561777 -0.008728318 0.25423336 -0.19380757 -0.12570827
-0.025980446 0.26162753 -0.29752856 0.16617326 -0.30780077 0.3058426 -0.23142631 0.10112281
0.13389069 -0.02654361 -0.10332138 -0.14426441 0.13507707 0.21703756 -0.259199 -0.30446365
0.08291895 -0.2344351 0.26319888 0.014482111 -0.16628477 0.28013024 0.08497055 0.2509191
0.27565178 -0.09267242 -0.17382464 0.09334292 -0.23842077 -0.16550454 0.13389525 0.03635296
0.25337774 0.072213225 0.049284395 0.16252209 0.14168718 0.027728193 -0.28687537 -0.12623946
0.29393286 0.15232028 -0.15056923 -0.29390284 -0.014962088 0.0074728993 0.24043383 -0.16277117
