Assets/results/ppo/Hikaru.onnx (onnx, 466234 bytes, 6 tensors)

action_model._discrete_distribution.branches.0.bias f4 [675]
-0.0053649917 -0.011436108 -0.005031742 0.009732973 0.012441544 0.006455211 -0.0023304657 -0.007134796
-0.0076770773 -0.0034952622 -1.2647153e-05 0.004123539 -0.00036171757 -0.0004478012 -0.0039034383 -0.0017311301
-0.006169919 -0.0025919962 0.00021782046 -0.007500432 0.0020838643 0.0018197336 -0.0045288545 -0.0065258057
-0.004833571 0.0037701754 -0.00037321847 -0.00046659983 -0.0012805258 0.007312753 -0.0030553313 0.0006309491
0.0014538736 -0.0037917697 0.0014977017 0.0023276126 0.0067551145 0.0038959896 0.0018174862 -0.006973429
-0.0006268639 0.009389943 0.002681799 -0.00056099216 0.0088233715 -0.006806702 0.0019694313 -0.002798712
-0.00086179713 -0.006755183 0.0069144624 -0.004328486 0.0009488648 0.004203337 -0.0021079595 0.006243129
0.0012451749 -0.006446874 -0.004004071 0.0036567962 9.561409e-05 -0.0003840346 0.0041198386 -0.0016906863
0.00012700452 0.0027333659 0.0023832445 -0.0031505383 -0.0057402495 -0.0048940643 7.7249315e-05 -0.0003038965
0.003562363 -0.005518302 0.002386891 0.0019360759 -0.0010014091 -0.0058867172 0.0026919341 -0.0063592605
-0.0041968143 -0.006637909 -0.0076364535 0.005652392 -0.0023525872 -0.0037826397 -0.0007220444 -0.0020698623
0.003063365 -0.0047090873 -0.00024082624 -0.0012906451 0.0055626524 0.0045664753 -0.003986192 0.004704431
0.008077745 -0.003596358 0.0055011576 -0.0014655534 0.0027592564 -0.00069265225 -0.004919237 0.0002473227
0.0005112563 0.0038029861 0.0032532485 0.0011334823 -0.008242176 0.007417836 0.0074393773 -0.005497134
0.008284651 -0.0008007022 -0.0053017237 -0.005174914 -0.0026210565 -0.00056817307 0.0021632633 0.0016622909
0.001883125 -0.005248805 0.003222347 -0.00061698706 -0.008995812 0.00053411775 0.005181713 0.0055189296
-0.0044755656 -0.0023773843 0.00024970708 -0.0020472498 -0.000820859 -0.00029229443 0.00020875868 0.00023029627
-0.007442383 9.509103e-05 -0.0061777392 -0.007141495 0.0032695797 0.001691299 0.0025897934 0.004932028
-0.004398606 -0.00067052396 0.0035650856 0.008828249 0.0010975202 -0.0020309982 0.002252008 0.0044919397
-0.004296695 -0.0028191374 -0.0014644187 -0.0052260635 0.00017075997 0.0010244198 0.00027998534 0.0024839458
-0.00314063 0.0057293726 0.0042301486 -0.00122439 0.0030350103 0.007817113 0.0005099567 -0.00016268421
0.001899846 -0.0034482062 -0.0030257334 0.008317706 -0.0002058105 0.009130098 0.0074518807 -0.0053392625
0.003925407 -0.0011771661 -0.008664836 -0.0040658345 -0.006231701 -0.004205351 0.010229787 -0.007048246
0.0038152356 0.00015693244 4.7432757e-05 -0.0028572776 -0.0027024958 -0.001869808 0.001326952 0.0014931276
0.0037861809 -0.0067919274 -0.008533847 -0.0019469169 -0.00052536477 -0.01001063 -0.0009064968 0.0032315666
-0.0069203856 -0.0014578092 -0.0064784978 -0.00070358376 0.00042273593 -0.0057814987 0.0014463146 -0.0061011366
-0.0061674453 -0.0016195212 -0.0049882405 -0.0018353157 0.0048618224 0.005192397 -0.0066098976 -0.00462708
0.0010569053 0.0019024354 0.008776752 0.0075531444 0.005516538 0.0007803184 0.008393819 0.0009309954
-0.0032557782 -0.0018463804 0.008901533 -0.0023577984 -0.0020406735 -0.004001809 0.0075589186 -0.0017482028
-0.0036158168 0.0020142042 -0.0036226022 0.000870221 0.0040252334 0.0016977614 -0.0032523647 -0.00027842054
-0.0014752218 0.006305681 0.0031359622 -0.0025757356 -0.0022620757 0.00041095947 -0.0007585791 0.0013034567
-0.0041308575 0.0031125988 0.0046311757 -0.00645552 0.008845933 -0.0031624176 0.00050863053 0.00012961855
00000000: d0cc afbb 835e 3bbc 50e1 a4bb 0c77 1f3c
00000010: 9ed7 4b3c 3c86 d33b baba 18bb 02cb e9bb
00000020: fe8f fbbb c510 65bb 1c2f 54b7 c11e 873b
00000030: e9a4 bdb9 dcc6 eab9 d4d0 7fbb 16e7 e2ba
00000040: 082d cabb 7bde 29bb bc66 6439 2fc6 f5bb
00000050: 7191 083b 2184 ee3a c966 94bb 6dd6 d5bb
00000060: ef62 9ebb 0c15 773b 89ac c3b9 f8a1 f4b9
00000070: 51d7 a7ba d19f ef3b f43b 48bb 4766 253a
00000080: e78f be3a 577f 78bb 884e c43a dc8a 183b
00000090: 025a dd3b dc53 7f3b b838 ee3a 5d81 e4bb
000000a0: 2054 24ba 47d8 193c 1fc1 2f3b 8c0f 13ba
000000b0: e78f 103c c10a dfbb 9311 013b 996a 37bb
000000c0: 3aea 61ba 955a ddbb b792 e23b f9d5 8dbb
000000d0: 3dbd 783a 25bc 893b b125 0abb 2993 cc3b
000000e0: 2335 a33a 4c40 d3bb 9534 83bb dca6 6f3b
000000f0: 6c84 c838 4058 c9b9 b6ff 863b 059a ddba
00000100: 842c 0539 4522 333b 3530 1c3b 4379 4ebb
00000110: b418 bcbb 635e a0bb e900 a238 4c54 9fb9
00000120: 8976 693b dfd2 b4bb 636d 1c3b edc3 fd3a
00000130: b741 83ba 5de5 c0bb 296b 303b 5861 d0bb
00000140: 6e85 89bb d182 d9bb 373b fabb b337 b93b
00000150: dd2d 1abb 2ae6 77bb 9447 3dba 87a6 07bb
00000160: bcc2 483b b04e 9abb 4d86 7cb9 dd2a a9ba
00000170: e946 b63b 5fa2 953b 9a9e 82bb a127 9a3b
00000180: 8558 043c e0b0 6bbb 0e43 b43b d017 c0ba
00000190: a4d4 343b 1b93 35ba 8d31 a1bb 17ab 8139
000001a0: d405 063a 853b 793b 7434 553b 5b91 943a
000001b0: 310a 07bc 5211 f33b 05c6 f33b 4d21 b4bb
000001c0: 58bc 073c 37e6 51ba 15ba adbb 5392 a9bb
000001d0: 08c6 2bbb 73f1 14ba 89c5 0d3b 3ae1 d93a
000001e0: 31d3 f63a 2bfe abbb 032e 533b 4dbd 21ba
000001f0: 2c63 13bc 0904 0c3a 5ccb a93b 23d8 b43b
00000200: c4a7 92bb e4cd 1bbb 1eeb 8239 272b 06bb
00000210: ea2e 57ba 183f 99b9 3be6 5a39 af7b 7139
00000220: 3cdf f3bb 9c6b c738 a26e cabb 3403 eabb
00000230: 7246 563b 94ae dd3a 86b9 293b d99c a13b
00000240: 2e22 90bb 1ac6 2fba 36a4 693b 5ca4 103c
00000250: abda 8f3a 7f1a 05bb 6d96 133b 1f31 933b
00000260: 4acb 8cbb 47c1 38bb bdf1 bfba 663f abbb
00000270: 080e 3339 d345 863a ffca 9239 b2c9 223b
00000280: 07d3 4dbb 76bd bb3b 0f9d 8a3b b67b a0ba
00000290: 06e7 463b 5913 003c 9dae 053a 3696 2ab9
000002a0: 4104 f93a 4dfb 61bb 624b 46bb fd46 083c
000002b0: d6ce 57b9 6896 153c e82e f43b fbf4 aebb
000002c0: b3a0 803b 244b 9aba f5f6 0dbc b13a 85bb
000002d0: 4c33 ccbb 0bcd 89bb d69a 273c f9f4 e6bb
000002e0: 0809 7a3b 3b8e 2439 89f2 4638 2a41 3bbb
000002f0: 5b1c 31bb 5814 f5ba 1fed ad3a 0cb5 c33a
00000300: 9321 783b d18e debb 8cd1 0bbc b12f ffba
00000310: a2b8 09ba a003 24bc f8a1 6dba b1c8 533b
00000320: 67c4 e2bb f613 bfba 9449 d4bb b570 38ba
00000330: a8a2 dd39 ba72 bdbb 4492 bd3a 0bec c7bb
00000340: 4818 cabb 1d46 d4ba 6574 a3bb fa8e f0ba
00000350: ec4f 9f3b fc24 aa3b d797 d8bb c39e 97bb
00000360: db87 8a3a 245b f93a 5ecc 0f3c 5e80 f73b
00000370: 13c4 b43b 488e 4c3a 3b86 093c 0b0e 743a
00000380: e55e 55bb 3f02 f2ba bcd7 113c 4b85 1abb
00000390: d2bc 05bb 9b21 83bb ceb0 f73b f423 e5ba
000003a0: 57f7 6cbb bd00 043b 2e69 6dbb 8b1f 643a
000003b0: 1be6 833b 6b87 de3a a025 55bb f9f8 91b9
000003c0: 3b5c c1ba e39f ce3b b784 4d3b accd 28bb
000003d0: 553f 14bb 0c76 d739 62db 46ba c0d8 aa3a
000003e0: 255c 87bb befc 4b3b 1ec1 973b d488 d3bb
000003f0: 88ee 103c 9040 4fbb 9e55 053a 37ea 0739

action_model._discrete_distribution.branches.0.weight f4 [675, 128]
-0.0098529635 0.0017809994 -0.011338986 0.0042873053 0.0011753014 -0.024396189 -0.00063754315 -0.03151631
-0.012493359 0.0056331027 -0.0029420492 0.005257157 -0.002304853 -0.00042494584 0.0012663968 -0.012484034
-0.0016820041 -0.001299889 -0.013776034 -0.0020034555 -0.009307988 -0.007865448 0.0018239664 -0.020533934
-0.018561846 -0.0019450395 0.00073317334 0.0043778867 -0.0018527766 -0.011753359 -0.012868362 0.0028140824
-0.0092108995 -0.0050896425 -0.018835403 -0.016087387 -0.017914021 0.0025409656 -0.012569196 -0.002971349
-0.007791099 -0.008364746 -0.011934312 -0.012358832 -0.025465494 -0.019110022 -0.019864902 0.0012983939
0.0018300462 -0.008793911 -0.002166942 -0.011240588 0.0077685053 -0.015264581 -0.0016444991 -0.0073114405
0.0048008454 -0.00741812 0.013680619 -0.006861369 -0.022833392 -0.0038946457 -0.008967069 -0.020843145
0.007130771 -0.011537527 -0.0062795933 0.014973079 -0.0121767195 -0.0015759406 -0.0025493442 0.006241661
-0.0004317682 0.010950236 0.0004827738 -0.016573597 -0.013826787 -0.004315153 0.0036990673 -0.01067079
-0.0046743685 -0.0038896066 -0.008260802 -0.0017196191 0.006496716 0.0065903347 -0.008679463 -0.009199399
-0.02475757 -0.0059294873 -0.0034901258 -0.008824323 -0.007127681 -0.0043372163 -0.015199387 0.013861544
-0.014861984 0.007638369 -0.008229361 0.0055332985 0.00018345678 -0.0031762023 -0.0099791875 0.003498342
-0.0018807136 0.017603712 0.00012551337 -0.016711531 0.007020617 -0.019219715 -0.026120229 0.012887098
-0.033972077 -0.01882884 -0.013308779 -0.0036323557 -0.004386709 -0.0017170776 -0.0067334673 -0.021915978
-0.008443228 0.0029349297 0.0005159419 -0.015526939 -0.0074526654 0.0002705663 -0.011457865 -0.008691158
-0.008776454 0.00063953496 -0.017493403 -0.0011954415 0.029327571 0.0066009755 -0.032215282 -0.0005210575
-0.022893032 -0.01610843 -0.0013123514 -0.0013391674 -0.0072909705 -0.011786677 0.0066970997 -0.007251829
0.0047582122 0.008159863 -0.0012592456 -0.010229467 -0.026117261 -0.021904511 0.012112927 -0.026166923
0.004128302 -0.008013369 0.0113339815 -0.020231081 -0.018968139 -0.0040543308 -0.008331423 0.013208332
-0.015208475 -0.019027205 -0.002669357 -0.0049967244 -0.02069834 0.010919799 -0.023984918 -0.014878151
-0.01432504 0.025379654 -0.00028906704 -0.0030781238 0.016978718 0.0056348997 -0.026995657 0.013091438
-0.025937736 0.00950789 -0.004709109 -0.0132412845 0.004200599 -0.009860428 0.014378272 -0.0051194536
0.0006322924 -0.0056661963 0.020881046 -0.0061916406 0.0030577963 -0.027435469 0.0018981803 0.013840208
-0.00044245925 0.015145471 0.004634242 0.023019506 0.0038992777 -0.00646672 -0.019629726 -0.008426293
0.0019485648 0.017099436 -0.009911918 -0.020378351 -0.01783076 0.0013201197 -0.007603713 -0.014958732
-0.004814378 0.0018773917 0.013269971 0.014800585 0.02136571 -0.015480996 0.0056381896 -0.015252929
-0.0031093415 0.00027429967 0.018814024 -0.011915294 -0.0016169817 -0.011491588 -0.011251794 0.010058102
-0.008057393 -0.011996772 0.019983122 0.0019759375 -0.021102002 -0.004610075 -0.0037688767 -0.0010334393
-0.0059569967 -0.024989318 0.0061820606 -0.001857673 -0.01106903 -0.0052456306 -0.017621836 -0.0042050183
0.0034598708 0.0012580234 -0.0021854483 -0.0062091374 0.0027644963 -0.0059809694 0.0019377484 -0.003839807
-0.007429466 0.009265834 0.0016359448 -0.0034214247 -0.033212032 0.00028077952 0.0017753254 -0.008770888
00000000: 536e 21bc 6c70 e93a 28c7 39bc 867c 8c3b
00000010: 920c 9a3a 84da c7bc cc20 27ba 3f17 01bd
00000020: f2b0 4cbc e495 b83b 65cf 40bb 3b44 ac3b
00000030: 040d 17bb 44cb deb9 3afd a53a d589 4cbc
00000040: b176 dcba 0961 aaba e0b4 61bc 684c 03bb
00000050: 8880 18bc 14de 00bc 2812 ef3a c836 a8bc
00000060: 030f 98bc b2f0 feba 6e32 403a 6074 8f3b
00000070: ded8 f2ba 2991 40bc d2d5 52bc 786c 383b
00000080: 50e9 16bc 04c7 a6bb b44c 9abc b2c9 83bc
00000090: 6dc0 92bc 5486 263b 07ef 4dbc f7ba 42bb
000000a0: 7a4c ffbb 4a0c 09bc 2288 43bc b37c 4abc
000000b0: 039d d0bc 9f8c 9cbc b8bb a2bc df2e aa3a
000000c0: 29de ef3a 5614 10bc 4103 0ebb 712a 38bc
000000d0: f28e fe3b 4b18 7abc 3c8c d7ba cf94 efbb
000000e0: 6950 9d3b b313 f3bb ad24 603c 56d5 e0bb
000000f0: 180d bbbc 503d 7fbb 9dea 12bc 3ebf aabc
00000100: 3ea9 e93b e507 3dbc 0cc5 cdbb a551 753c
00000110: dd80 47bc cb8f ceba e612 27bb d986 cc3b
00000120: f25e e2b9 9e68 333c cd1c fd39 5ac5 87bc
00000130: bf89 62bc 2166 8dbb 0d6c 723b 8ad4 2ebc
00000140: 722b 99bb c5e8 7ebb 5158 07bc d864 e1ba
00000150: 67e2 d43b bcf3 d73b 4e34 0ebc 13b9 16bc
00000160: 63d0 cabc 254c c2bb 98ba 64bb e593 10bc
00000170: 528f e9bb 351f 8ebb da06 79bc 881b 633c
00000180: ae7f 73bc 494b fa3b 71d4 06bc ac50 b53b
00000190: 4e5e 4039 d527 50bb bf7f 23bc 7044 653b
000001a0: 4782 f6ba a935 903c 3d9c 0339 9fe6 88bc
000001b0: 340d e63b aa72 9dbc 17fa d5bc 6824 533c
000001c0: 4e26 0bbd f13e 9abc 110d 5abc d10c 6ebb
000001d0: 62be 8fbb 900f e1ba 6ba4 dcbb 2389 b3bc
000001e0: 7755 0abc f357 403b 4640 073a b464 7ebc
000001f0: 7d35 f4bb cbda 8d39 c5b9 3bbc 5c65 0ebc
00000200: 1ecb 0fbc 77a6 273a 534e 8fbc 5cb0 9cba
00000210: 6040 f03c ff4c d83b 2cf4 03bd 9497 08ba
00000220: 2b8a bbbc d4f5 83bc 3503 acba 0087 afba
00000230: 18e9 eebb e81c 41bc 5873 db3b c0a0 edbb
00000240: c7ea 9b3b f2b0 053c 450d a5ba 7f99 27bc
00000250: def3 d5bc 1771 b3bc 4c75 463c 045c d6bc
00000260: b546 873b 814a 03bc 2ab2 393c a7bb a5bc
00000270: 1263 9bbc 31da 84bb 8580 08bc c267 583c
00000280: f82c 79bc f1de 9bbc 61f0 2ebb 90bb a3bb
00000290: 918f a9bc f5e8 323c 057c c4bc 7dc3 73bc
000002a0: 93b3 6abc fee8 cf3c ec8d 97b9 59ba 49bb
000002b0: f416 8b3c f7a4 b83b ff25 ddbc 797d 563c
000002c0: 607b d4bc fbc6 1b3c df4e 9abb f9f1 58bc
000002d0: 2ea5 893b a28d 21bc d892 6b3c 17c1 a7bb
000002e0: 6dc0 253a 80ab b9bb ba0e ab3c 3fe3 cabb
000002f0: 4f65 483b 59c0 e0bc 5dcc f83a 0ac2 623c
00000300: e0f9 e7b9 b624 783c d7da 973b 6793 bc3c
00000310: 068b 7f3b c7e6 d3bb 85ce a0bc 6f0e 0abc
00000320: fc66 ff3a 1e14 8c3c 9965 22bc 80f0 a6bc
00000330: d011 92bc de07 ad3a 9128 f9bb 7815 75bc
00000340: eec1 9dbb d012 f63a 4b6a 593c 277e 723c
00000350: 2407 af3c 01a4 7dbc 90c0 b83b 6ce7 79bc
00000360: 18c6 4bbb e1cf 8f39 de1f 9a3c 5e38 43bc
00000370: e7f0 d3ba 3747 3cbc 7259 38bc bdca 243c
00000380: 2803 04bc 1c8e 44bc a5b3 a33c bb7e 013b
00000390: 1bde acbc 1d10 97bb 42ff 76bb 7874 87ba
000003a0: e932 c3bb 66b6 ccbc e292 ca3b 2a7d f3ba
000003b0: e05a 35bc 8ae3 abbb ab5b 90bc 40ca 89bb
000003c0: 00bf 623b 43e4 a43a bd39 0fbb 0576 cbbb
000003d0: 8d2c 353b 02fc c3bb 0cfc fd3a 45a5 7bbb
000003e0: e172 f3bb bacf 173c 336d d63a fb39 60bb
000003f0: 5709 08bd 9735 9339 09b2 e83a c5b3 0fbc

network_body.linear_encoder.seq_layers.0.bias f4 [128]
0.011692103 0.017284501 0.0009771035 -0.00032982614 -0.004298395 0.013773026 -0.00023004462 0.0013018757
-0.0066909385 0.016581763 0.006206546 -0.006202876 0.0046730414 0.006229675 0.0070913704 0.011417489
0.011468165 0.0037542516 0.015824908 0.0031144281 -0.006658027 -0.004306703 0.008184627 0.01738532
-0.008825338 -0.004164915 0.016542701 5.168906e-06 0.006818018 -0.004302392 -0.015572816 0.002231454
0.014780863 -0.005982206 0.0004869934 0.0132092405 -0.00027880698 -0.0012925464 -0.0041017346 -0.011255884
0.0024442505 0.015022412 -0.0049611456 0.0005396682 -0.002712116 -0.004714329 0.0049301395 0.019961342
-4.2094063e-05 0.009458376 -0.0052597974 0.0056314305 0.00708707 0.00694069 -0.000308948 0.0015105382
0.0051968927 0.013364875 -0.004711527 0.010784708 0.025587615 -0.003119364 0.0049019335 0.018807545
0.011044791 0.009863298 -0.0065100957 0.006634108 0.005302108 0.011654679 0.008228275 -0.002953777
0.0033749698 0.01480932 0.0063295513 -0.0014106547 -0.00025795566 -0.007178374 0.013834042 0.012501316
-0.009206755 0.003992114 0.017187554 0.016990285 0.0027312234 0.011921097 0.0030416106 -0.005005549
-0.0009163232 0.0036780306 -0.0021850155 0.012251011 0.006318441 0.007189977 0.0046918592 0.0026869054
-0.005504445 0.0022054056 0.011543154 0.011107401 0.007037718 0.00043768826 0.004768467 0.00031892673
0.0049984916 0.0037607902 0.001019633 0.01169355 -0.004653168 0.0032189884 -0.0012558815 0.0024658118
0.012898303 -0.00020813059 -0.0024655992 0.01509005 0.0051705344 0.00934167 0.012317252 0.0089732045
0.009031111 0.0030330333 0.011919181 0.021292865 0.010751742 0.008635202 0.015678374 0.0008922557
00000000: 3c90 3f3c 3a98 8d3c 2712 803a 84ec acb9
00000010: 8dd9 8cbb 42a8 613c 2238 71b9 b3a3 aa3a
00000020: a93f dbbb 7ad6 873c 4860 cb3b 7f41 cbbb
00000030: 5020 993b 4d22 cc3b ba5e e83b 6b10 3b3c
00000040: f8e4 3b3c e409 763b 3da3 813c 6f1b 4c3b
00000050: 942b dabb 3e1f 8dbb d018 063c a96b 8e3c
00000060: 2798 10bc d779 88bb 8f84 873c 9070 ad36
00000070: ae69 df3b 14fb 8cbb 2025 7fbc 963d 123b
00000080: 6f2b 723c 6206 c4bb 2653 ff39 926b 583c
00000090: d72c 92b9 a96a a9ba d867 86bb 996a 38bc
000000a0: b82f 203b 9020 763c 1b91 a2bb 8578 0d3a
000000b0: c2bd 31bb a87a 9abb 028d a13b f885 a33c
000000c0: 288e 30b8 4ef7 1a3c 615a acbb dd87 b83b
000000d0: a73a e83b ba6e e33b 4cfa a1b9 40fd c53a
000000e0: b24a aa3b 59f8 5a3c 2763 9abb 58b2 303c
000000f0: 1e9d d13c 3e6e 4cbb 66a0 a03b 4812 9a3c
00000100: 36f5 343c ac99 213c a452 d5bb ee62 d93b
00000110: 4ebd ad3b 44f3 3e3c e3cf 063c 2894 41bb
00000120: 992e 5d3b caa2 723c 2068 cf3b b8e5 b8ba
00000130: 393e 87b9 9138 ebbb 2da8 623c 52d2 4c3c
00000140: eed7 16bc 48d0 823b eacc 8c3c 362f 8b3c
00000150: 53fe 323b b450 433c c255 473b 9705 a4bb
00000160: 6935 70ba 1d0b 713b 7a32 0fbb 77b8 483c
00000170: ed0a cf3b e699 eb3b 2bbe 993b cb16 303b
00000180: a25e b4bb 9188 103b 7f1f 3d3c d1fb 353c
00000190: a89c e63b 8679 e539 cd40 9c3b 9f35 a739
000001a0: 63ca a33b 9777 763b 35a5 853a 4e96 3f3c
000001b0: 9a79 98bb aaf5 523b 649c a4ba 7599 213b
000001c0: 6753 533c a13d 5ab9 e495 21bb 423c 773c
000001d0: 966d a93b ce0d 193c 4dce 493c 5904 133c
000001e0: 3af7 133c dbc5 463b ab48 433c 606e ae3c
000001f0: 1328 303c aa7a 0d3c ef6f 803c 44e6 693a

network_body.linear_encoder.seq_layers.0.weight f4 [128, 96]
0.14045237 -0.03668398 0.033907443 -0.09793633 0.027464375 -0.091404654 -0.010603186 0.048421886
-0.08982493 -0.045167692 0.09724944 0.06768539 0.08545829 -0.10544308 -0.054848075 0.007991152
0.10624857 0.10763781 -0.11602999 -0.17738964 0.0156023195 -0.19274874 0.1307612 -0.18266013
0.05963658 -0.109148905 0.04769754 0.0071670455 0.063524224 0.054388557 -0.0736279 -0.06316039
0.0727624 0.07263478 -0.03126786 0.018893791 -0.11354596 0.018204568 -0.07772008 0.05064867
-0.008732784 0.02140763 -0.08210073 -0.06771698 0.14065069 -0.09832906 -0.085059635 -0.008536881
-0.08897522 0.13739085 -0.12783253 -0.027936615 -0.11339296 0.0245406 0.024439871 -0.038905885
0.065421365 -0.1626084 -0.03947225 0.019749599 0.017322464 -0.016776694 -0.031217054 0.01011929
0.20963442 -0.029582897 -0.15309864 -0.2294583 -0.15571962 0.115363486 0.01800152 -0.09268568
-0.17101796 0.0128972 0.08964541 -0.08403582 0.0642413 0.019269187 0.120158434 -0.032916024
0.19050282 -0.040840823 0.10197415 -0.005060131 0.12873612 0.06421209 0.20978807 0.05954499
-0.11197585 -0.044394378 -0.17744765 0.0029169947 -0.019960865 -0.02772275 0.04064581 -0.036378507
0.12234734 -0.10119807 0.19290741 0.18556127 -0.07903049 -0.0223768 0.075080276 0.13685177
-0.030889777 -0.15113631 -0.12049708 -0.020789964 0.1138114 -0.24618 0.07436287 0.059945136
-0.07497011 -0.2247592 -0.14575417 -0.078234084 -0.09636151 0.028233912 -0.047734495 0.03337393
-0.12667835 0.1096826 0.1206268 -0.019548673 0.026671614 0.1335686 0.0029937928 0.13638738
0.19877641 -0.23909904 0.03696353 -0.044055723 -0.13659528 0.0036948516 0.018764967 -0.036276013
-0.13690338 -0.069993146 -0.11871796 0.013921017 -0.018895954 0.05367326 0.055728167 -0.05224868
0.0009408742 -0.07771826 -0.05525894 0.12260035 0.06947391 -0.112482585 0.07156593 0.124872886
-0.05029844 0.124204285 0.03187002 0.10152506 -0.11428027 -0.09072454 -0.065797426 -0.2571418
-0.16892214 -0.04420429 0.06389656 -0.15368709 0.022893233 0.0059742676 -0.09128115 -0.114300355
-0.26713842 -0.10341584 9.3382405e-05 0.04476906 -0.09392876 0.108738534 0.10672945 -0.045076158
-0.085496776 -0.10297525 0.04654153 0.15359168 -0.16691698 -0.024861077 -0.0064823707 -0.040307783
0.05951079 -0.027220262 0.14794528 -0.18112728 0.14397244 0.10152788 -0.10912624 0.045023374
-0.12080988 -0.11505271 -0.24046667 -0.006620814 0.08664591 0.073659405 -0.11363413 0.2241526
-0.030476978 -0.13914338 -0.05577061 0.0437364 0.11324817 -0.03474784 -0.008609231 -0.016596595
0.057931826 -0.098697186 -0.00412132 -0.010554523 0.03930482 -0.07534112 -0.072908066 -0.06362922
0.060298137 -0.03309114 -0.2571337 -0.055324115 0.09665949 -0.10960247 0.08925573 0.25210008
0.21372406 -0.00034957667 -0.056498952 0.13395387 -0.03967607 -0.048859466 -0.28327844 0.13886306
-0.046346165 -0.10649026 0.056887418 -0.06860359 -0.07281587 -0.18552619 0.06177589 -0.123049684
0.08128434 -0.04343034 0.094300635 -0.050173324 0.010723297 -0.030101031 0.0011518125 -0.058470923
-0.059586056 -0.007400917 0.15968432 -0.008758442 -0.18874995 -0.13759258 -0.04738564 0.052730452
00000000: bfd2 0f3e f141 16bd 88e2 0a3d d892 c8bd
00000010: f8fc e03c 5d32 bbbd fcb8 2dbc 0756 463d
00000020: 22f6 b7bd c201 39bd b72a c73d a39e 8a3d
00000030: c204 af3d 8bf2 d7bd 60a8 60bd 52ed 023c
00000040: da98 d93d 3671 dc3d 22a1 edbd a1a5 35be
00000050: dfa0 7f3c ed5f 45be 44e6 053e 420b 3bbe
00000060: 7d45 743d 7689 dfbd 7f5e 433d 89d9 ea3b
00000070: fd18 823d 89c6 5e3d 39ca 96bd 3c5a 81bd
00000080: 7404 953d 8bc1 943d ba12 00bd 27c7 9a3c
00000090: c98a e8bd bf21 953c b52b 9fbd fb74 4f3d
000000a0: f313 0fbc 0e5f af3c 6d24 a8bd 33af 8abd
000000b0: bc06 103e bf60 c9bd bf33 aebd 46de 0bbc
000000c0: a438 b6bd 30b0 0c3e 88e6 02be 54db e4bc
000000d0: 913a e8bd 5e09 c93c 2036 c83c c75b 1fbd
000000e0: a3fb 853d d182 26be a7ad 21bd e9c9 a13c
000000f0: d7e7 8d3c 476f 89bc e8ba ffbc 61cb 253c
00000100: 68aa 563e d557 f2bc e4c5 1cbe 1ef7 6abe
00000110: f774 1fbe b143 ec3d ec77 933c fdd1 bdbd
00000120: 551f 2fbe c74e 533c 0398 b73d f91a acbd
00000130: f190 833d 6ada 9d3c a015 f63d f4d2 06bd
00000140: 2c13 433e b548 27bd d3d7 d03d 75cf a5bb
00000150: 67d3 033e a181 833d afd2 563e 73e5 733d
00000160: 9853 e5bd e1d6 35bd d6b4 35be 0d2b 3f3b
00000170: f884 a3bc d21a e3bc 397c 263d a101 15bd
00000180: 3e91 fa3d ef40 cfbd 8589 453e c603 3e3e
00000190: bdda a1bd 8d4f b7bc b0c3 993d df22 0c3e
000001a0: 8f0c fdbc 7ac3 1abe 2cc7 f6bd b74f aabc
000001b0: f415 e93d 9c16 7cbe 8f4b 983d 0889 753d
000001c0: ee89 99bd 4727 66be 9540 15be 3139 a0bd
000001d0: 2f59 c5bd ce4a e73c 3f85 43bd 1ab3 083d
000001e0: f8b7 01be 45a1 e03d 2f0b f73d 8a24 a0bc
000001f0: 6e7e da3c 35c6 083e 8233 443b 22a9 0b3e
00000200: 0b8c 4b3e 61d6 74be 1267 173d c673 34bd
00000210: a2df 0bbe 5325 723b fdb8 993c 2896 14bd
00000220: 6630 0cbe 9158 8fbd 6722 f3bd fa14 643c
00000230: b0cb 9abc 7ed8 5b3d 3843 643d b602 56bd
00000240: 00a5 763a c02a 9fbd 3357 62bd e415 fb3d
00000250: 5648 8e3d 455d e6bd 2991 923d 5bbd ff3d
00000260: bd05 4ebd d15e fe3d 238a 023d 5fec cf3d
00000270: c60b eabd cacd b9bd cdc0 86bd 17a8 83be
00000280: edf9 2cbe 8f0f 35bd 33dc 823d 2660 1dbe
00000290: 978a bb3c cac3 c33b 9df1 babd 4e16 eabd
000002a0: 5ec6 88be afcb d3bd 4cd6 c338 c35f 373d
000002b0: b95d c0bd 4fb2 de3d f894 da3d c7a1 38bd
000002c0: ef18 afbd b0e4 d2bd 55a2 3e3d 2347 1d3e
000002d0: 49ec 2abe 75a9 cbbc 116a d4bb c619 25bd
000002e0: 96c1 733d 07fd debc f87e 173e 6e79 39be
000002f0: 836d 133e d9ed cf3d 947d dfbd 6e6a 383d
00000300: 2c6b f7bd c1a0 ebbd e53c 76be 6af3 d8bb
00000310: 6973 b13d beda 963d 03b9 e8bd 4288 653e
00000320: dbaa f9bc 9a7b 0ebe b96f 64bd f024 333d
00000330: a8ee e73d c053 0ebd bb0d 0dbc 95f5 87bc
00000340: ec49 6d3d c021 cabd 230c 87bb e1ec 2cbc
00000350: 17fe 203d 724c 9abd d350 95bd 0950 82bd
00000360: 2efb 763d 938a 07bd 07a7 83be 8a9b 62bd
00000370: 69f5 c53d 4377 e0bd b5cb b63d 4313 813e
00000380: 7bda 5a3e 6347 b7b9 726b 67bd 342b 093e
00000390: 6083 22bd dd20 48bd df09 91be 1e32 0e3e
000003a0: 7ad5 3dbd 9117 dabd c802 693d 0a80 8cbd
000003b0: 7d20 95bd 94fa 3dbe b708 7d3d 7901 fcbd
000003c0: 6778 a63d 03e4 31bd b120 c13d 8b82 4dbd
000003d0: c4b0 2f3c 7096 f6bc 6af8 963a 357f 6fbd
000003e0: 8210 74bd 6483 f2bb 4984 233e 917f 0fbc
000003f0: ab47 41be 12e5 0cbe 7217 42bd e3fb 573d

network_body.linear_encoder.seq_layers.2.bias f4 [128]
0.008342432 0.0118090855 0.007558639 0.009960174 0.028608501 0.012971835 0.008345461 0.0055688624
-0.00023935348 0.010227283 -0.00039366857 0.00048205422 0.0020132312 -0.00062037393 -0.0019076426 0.009374547
0.0134177795 0.016384574 0.00093296607 0.0072000674 0.0053078593 0.01784414 0.0076687527 0.0004556619
0.011668584 0.0027121857 0.016485782 0.010414061 0.0045681433 -0.00031629676 0.0034531876 0.015835077
0.014048438 0.005165875 0.009281829 0.020409424 0.0039079404 0.0060667335 0.0048689577 0.004818423
0.013205086 0.0052082003 0.005943603 0.009866134 0.008360248 0.008481849 0.009400633 0.010630952
0.00041102606 0.015604612 0.007443175 0.007652088 0.0029198583 0.018774794 0.015923765 0.011906096
0.0015915566 0.009950254 0.017143112 0.010747177 0.002818834 0.0022747912 0.012357851 0.009275959
-0.008936996 0.01983666 0.01171859 0.007062723 0.018307867 0.012344279 0.0052069984 0.009884761
0.011015522 0.00655577 -0.0059401 0.013209741 0.010930341 0.01034423 0.005361912 0.005626132
0.003899333 0.011338145 -0.0008486704 -0.00010523801 0.012096639 0.013484927 0.0098806145 0.011468519
0.014764748 0.003595346 0.00096561864 0.01249909 0.0033774234 0.018660376 0.00882737 0.007366261
0.00340976 0.009272551 0.0063187326 0.013684452 0.0020748922 -0.0073870793 0.013251815 -0.0004475731
0.00455301 0.00370643 0.0026707228 0.010219923 0.011130638 -0.0011818322 0.0024583617 0.011483184
0.01589479 0.0081240665 0.009524523 0.00020146635 0.01198731 0.005034719 0.02114778 -0.0016313292
-0.0014597613 -0.0027410868 0.015659807 0.019678986 0.0030631742 0.012210413 0.009028743 0.009771137
00000000: b2ae 083c e57a 413c 76ae f73b ff2f 233c
00000010: 605c ea3c d287 543c 67bb 083c 017b b63b
00000020: f6fa 7ab9 5690 273c 4d65 ceb9 39bc fc39
00000030: 6af0 033b 97a0 22ba dd09 faba b397 193c
00000040: 3fd6 5b3c f138 863c 4b92 743a 8bee eb3b
00000050: 8ded ad3b e02d 923c 294a fb3b e8e5 ee39
00000060: 972d 3f3c edbe 313b 310d 873c bd9f 2a3c
00000070: 5db0 953b a2d4 a5b9 e04e 623b 90b8 813c
00000080: 6b2b 663c 8046 a93b d012 183c aa31 a73c
00000090: 2e0e 803b 73cb c63b c78b 9f3b dde3 9d3b
000000a0: 255a 583c 8da9 aa3b 8ec2 c23b 91a5 213c
000000b0: 6cf9 083c 74f7 0a3c 1d05 1a3c 722d 2e3c
000000c0: fc7e d739 7daa 7f3c e1e5 f33b 5ebe fa3b
000000d0: 185b 3f3b 99cd 993c 8e72 823c c911 433c
000000e0: c79b d03a 6406 233c b66f 8c3c ed14 303c
000000f0: 30bc 383b aa14 153b 9578 4a3c 31fa 173c
00000100: 7a6c 12bc 7e80 a23c 54ff 3f3c 6a6e e73b
00000110: 61fa 953c a93f 4a3c 789f aa3b b1f3 213c
00000120: 737a 343c c9d1 d63b 2ca5 c2bb ab6d 583c
00000130: 2c15 333c d87a 293c fab2 af3b 6a5b b83b
00000140: f48b 7f3b a0c3 393c 4e79 5eba 3ab3 dcb8
00000150: fb30 463c e2ef 5c3c 4de2 213c 75e6 3b3c
00000160: d7e7 713c e59f 6b3b 9221 7d3a fcc8 4c3c
00000170: c357 5d3b a5dd 983c aca0 103c ad60 f13b
00000180: 4876 5f3b e6eb 173c 5f0d cf3b c034 603c
00000190: eafa 073b 500f f2bb 241e 593c 3fa8 eab9
000001a0: 6b31 953b 94e7 723b 4b07 2f3b 7771 273c
000001b0: 485d 363c b5e7 9aba 771c 213b f723 3c3c
000001c0: ca35 823c ce1a 053c bf0c 1c3c b640 5339
000001d0: 6c66 443c 49fa a43b 1c3e ad3c 53d2 d5ba
000001e0: 7655 bfba cea3 33bb ff48 803c d335 a13c
000001f0: 89bf 483b 2f0e 483c 4bed 133c 1e17 203c

network_body.linear_encoder.seq_layers.2.weight f4 [128, 128]
0.06651431 0.15622662 -0.03782581 0.031162703 0.05561953 0.15519045 -0.103321575 -0.09992202
0.0076201684 -0.046593323 -0.14012924 -0.112386085 0.006341606 0.20765114 0.04496668 -0.09930562
-0.009676045 -0.013755795 -0.068166815 -0.12628545 -0.0027378232 0.15183805 0.07581384 -0.05799969
0.14428432 -0.009557608 0.10487971 0.024128137 0.17118254 -0.014318018 0.04701357 -0.056011457
0.105578646 0.078723684 0.10850911 -0.24399292 0.18824491 -0.08281584 -0.0011577037 -0.00891457
-0.09850946 0.10306075 0.16286509 0.040780336 -0.065843664 0.07605791 0.1899025 -0.062975176
-0.113272786 -0.07672091 0.029922774 0.09574603 -0.23032816 -0.00082354306 -0.024151439 -0.049634222
0.085638665 -0.009340331 0.03550509 -0.026159476 0.047079824 -0.064586885 -0.032363173 0.083661176
0.057216913 0.017244807 0.04854992 0.09255878 0.064411886 0.13030034 0.00916173 0.013695489
-0.1168028 -0.07583137 0.08384203 -0.1345135 0.07641629 -0.05138576 -0.0634656 -0.039964583
-0.017847652 0.05694981 0.09970488 0.08361049 0.042034566 0.05155578 -0.051737152 0.021751104
-0.103960656 -0.07336876 -0.21167679 -0.06701364 -0.08671684 -0.07737466 -0.016681159 0.049036864
0.076393634 -0.006608325 0.10544742 -0.024243528 0.14061394 0.078325346 -0.018268792 0.025880022
-0.06516836 0.048672777 -0.0031484587 -0.15475754 0.069602124 -0.028391475 0.1231225 0.023740686
0.013062652 0.015608354 -0.029315282 -0.15513481 0.04848059 -0.036197513 0.03590841 0.05416306
0.071198545 0.017206369 0.085629284 0.07903664 -0.049687006 0.092241235 0.027433494 0.08854997
-0.01807412 0.0900207 0.008151573 0.06740024 0.20968816 0.04888106 0.071240686 -0.08250634
0.014227443 -0.17020255 -0.0533354 0.07880711 0.034860853 -0.06735726 0.07758656 -0.025790378
0.25555465 -0.15814704 -0.023981133 0.10649165 -0.16790538 -0.015739249 -0.07695965 -0.009109466
0.21322063 0.11972679 -0.0143960295 -0.11269708 0.037695162 -0.11135351 -0.00441337 0.054530438
-0.065364875 -0.06113964 -0.054288667 -0.117205 0.06791874 0.018501297 0.0016593969 -0.02077253
-0.085902795 0.12942664 0.011734302 -0.15426897 0.13659844 -0.041446276 0.030068882 0.112657055
-0.016945897 -0.18672006 0.049032528 0.08553945 0.16177247 -0.020631274 0.08648868 -0.008551536
0.044613477 -0.014552814 -0.10691708 0.02761026 0.06641363 -0.16624361 -0.064246915 -0.014723371
-0.09451095 -0.12656108 -0.087095864 0.084075764 -0.00020352866 0.02611734 -0.028932909 -0.00040458943
-0.054909673 -0.26168022 0.05406648 -0.038801726 0.010582126 -0.14644867 0.05558258 0.18381393
-0.045876708 0.111553915 0.102778316 -0.08105776 0.06912822 0.1757946 0.06212291 0.08890502
0.23247878 -0.12939312 -0.0112049775 0.07082681 -0.015936306 -0.028247965 -0.05980901 -0.030905865
-0.009994444 0.014303895 -0.017496826 0.10806238 -0.08564266 0.047058973 0.05143851 0.04672
0.09344848 0.18218248 -0.016689 0.07635325 -0.09013107 -0.18773144 -0.061793033 0.112520136
0.07622465 -0.014128649 -0.07994211 0.04289612 -0.094257355 0.005761683 0.0131909065 -0.10939193
-0.07051779 0.082308315 -0.130337 0.06042411 0.009743629 -0.08459457 0.018199196 -0.11947214
00000000: a838 883d dff9 1f3e 3def 1abd ed48 ff3c
00000010: 4ed1 633d 3fea 1e3e 439a d3bd eba3 ccbd
00000020: 9bb2 f93b a4d8 3ebd 0a7e 0fbe ad2a e6bd
00000030: 3fcd cf3b 80a2 543e fb2e 383d bf60 cbbd
00000040: 4688 1ebc fc5f 61bc 0b9b 8bbd f950 01be
00000050: 0d6d 33bb 6f7b 1b3e 4944 9b3d 1591 6dbd
00000060: 45bf 133e 8397 1cbc 2ccb d63d 5fa8 c53c
00000070: 7a4a 2f3e 1f96 6abc 4d91 403d 456c 65bd
00000080: 9e39 d83d e239 a13d 063a de3d 48d9 79be
00000090: 46c3 403e 5a9b a9bd 17be 97ba 6b0e 12bc
000000a0: 54bf c9bd 8411 d33d 1bc6 263e 4809 273d
000000b0: 0bd9 86bd 40c4 9b3d cd75 423e 21f9 80bd
000000c0: 90fb e7bd da1f 9dbd 9b20 f53c 7f16 c43d
000000d0: 25db 6bbe 0ae3 57ba 3dd9 c5bc 414d 4bbd
000000e0: 5363 af3d 3008 19bc c96d 113d 664c d6bc
000000f0: c6d6 403d 2146 84bd 3f8f 04bd 8d56 ab3d
00000100: 485c 6a3d fb44 8d3c 48dc 463d 758f bd3d
00000110: 61ea 833d 746d 053e 151b 163c 0b63 603c
00000120: 4e36 efbd 7a4d 9bbd 5fb5 ab3d e8bd 09be
00000130: 2580 9c3d e079 52bd 41fa 81bd e7b1 23bd
00000140: 3d35 92bc 3444 693d 1232 cc3d fa3b ab3d
00000150: 702c 2c3d 272c 533d 56ea 53bd 5f2f b23c
00000160: 53e9 d4bd 5c42 96bd cdc1 58be 733e 89bd
00000170: 9998 b1bd 9b76 9ebd eda6 88bc e1da 483d
00000180: 4474 9c3d a68a d8bb d1f4 d73d 5d9a c6bc
00000190: 1afd 0f3e 0a69 a03d 6fa8 95bc 5702 d43c
000001a0: fd76 85bd 1b5d 473d 5f56 4ebb c378 1ebe
000001b0: 8f8b 8e3d 3d95 e8bc a627 fc3d d47b c23c
000001c0: bc04 563c 2eba 7f3c 9a26 f0bc a9db 1ebe
000001d0: 9593 463d d843 14bd b214 133d 16da 5d3d
000001e0: 8bd0 913d 5ff4 8c3c 685e af3d f6dd a13d
000001f0: 9a84 4bbd f9e8 bc3d 35bc e03c b059 b53d
00000200: 2d10 94bc c65c b83d 2d8e 053c 2309 8a3d
00000210: 7eb8 563e 8237 483d a3e6 913d 16f9 a8bd
00000220: 391a 693c 9449 2ebe 3876 5abd 9f65 a13d
00000230: 41ca 0e3d 9af2 89bd b4e5 9e3d 5846 d3bc
00000240: 0fd8 823e 4cf1 21be 1574 c4bc 4b18 da3d
00000250: 63ef 2bbe 99ef 80bc 059d 9dbd df3f 15bc
00000260: 8256 5a3e 5233 f53d 53dd 6bbc bacd e6bd
00000270: 3e66 1a3d 4f0d e4bd 089e 90bb 4f5b 5f3d
00000280: 05de 85bd 8f6d 7abd cb5d 5ebd 2d09 f0bd
00000290: fb18 8b3d 0890 973c 1f80 d93a 272b aabc
000002a0: ceed afbd 6b88 043e 3b41 403c aff8 1dbe
000002b0: 76e0 0b3e 92c3 29bd 0453 f63c beb8 e63d
000002c0: 1fd2 8abc 8b33 3fbe 55d6 483d 4f2f af3d
000002d0: afa7 253e eb02 a9bc fa20 b13d be1b 0cbc
000002e0: 9fbc 363d ed6e 6ebc 58f7 dabd e92e e23c
000002f0: df03 883d c43b 2abe e393 83bd 4b3a 71bc
00000300: f58e c1bd 3a99 01be 515f b2bd ea2f ac3d
00000310: 4f6a 55b9 08f4 d53c b504 edbc 131f d4b9
00000320: f7e8 60bd f3fa 85be d074 5d3d 8fee 1ebd
00000330: a760 2d3c a4f6 15be 8faa 633d b839 3c3e
00000340: 37e9 3bbd 6176 e43d 707d d23d 9c01 a6bd
00000350: 1993 8d3d 8003 343e 9874 7e3d d613 b63d
00000360: eb0e 6e3e a17f 04be 1595 37bc a60d 913d
00000370: db8c 82bc 4768 e7bc 4bfa 74bd 4c2e fdbc
00000380: bdbf 23bc e25a 6a3c 8155 8fbc cf4f dd3d
00000390: 6b65 afbd e9c0 403d 30b1 523d 795d 3f3d
000003a0: eb61 bf3d 0b8e 3a3e 5fb7 88bc 185f 9c3d
000003b0: a396 b8bd ac3c 40be b11a 7dbd f570 e63d
000003c0: ab1b 9c3d d97b 67bc b0b8 a3bd d8b3 2f3d
000003d0: 000a c1bd 80cc bc3b ac1e 583c e008 e0bd
000003e0: a26b 90bd 4391 a83d 1077 05be 467f 773d
000003f0: bea3 1f3c eb3f adbd 7b16 953c cfad f4bd
